loto6_cnn/model/loto6_20_900.model (npz, 468609 bytes, 38 tensors)

conv1_2/b f4 [64]
0	0xb8ffa84f	-0.000121906975
1	0xb8ba3b83	-8.880256e-05
2	0x38571d12	5.128707e-05
3	0xb9104ceb	-0.00013761564
4	0x3621c642	2.410627e-06
5	0x38c4420c	9.3583105e-05
6	0xb8214cf4	-3.845706e-05
7	0xb93dde57	-0.00018107273
8	0x37cf3364	2.4700254e-05
9	0x39bf1424	0.00036445365
10	0xb82d3d61	-4.1303578e-05
11	0xb95705ad	-0.00020506112
12	0x378451eb	1.5773772e-05
13	0x377797aa	1.4757659e-05
14	0xb76aa37a	-1.3985549e-05
15	0xb8c55982	-9.410364e-05
16	0xb7e9606b	-2.7820663e-05
17	0xb788c771	-1.6305336e-05
18	0x37f673c5	2.9379395e-05
19	0xb6d8e99c	-6.4644973e-06
20	0x38b607d8	8.679897e-05
21	0x385c68bf	5.254964e-05
22	0x37371a71	1.0913806e-05
23	0xb8cf6b0e	-9.89047e-05
24	0xb8458033	-4.7087855e-05
25	0xb79dc0cd	-1.8805638e-05
26	0xb6a33738	-4.864207e-06
27	0xb7c8103f	-2.3849423e-05
28	0xb7bdf6a7	-2.2645412e-05
29	0x38de1fab	0.000105916835
30	0x37317699	1.0577635e-05
31	0xb5e4a7b8	-1.7036136e-06
32	0x37951cc9	1.7775588e-05
33	0xb6de4a29	-6.624749e-06
34	0xb84b2bd9	-4.8439808e-05
35	0xb90958d1	-0.00013098425
36	0x38ab7afc	8.176823e-05
37	0xb92e9de3	-0.0001665275
38	0x369fefde	4.7664935e-06
39	0xb828f79b	-4.0284922e-05
40	0x388f6278	6.8371126e-05
41	0xb804993d	-3.1613967e-05
42	0x37be875f	2.2712802e-05
43	0xb75669e1	-1.2780046e-05
44	0x3767b690	1.3811179e-05
45	0x37cb3e69	2.4228548e-05
46	0x38143add	3.534077e-05
47	0xb8a7b5f7	-7.997074e-05
48	0xb7cd0d72	-2.4444165e-05
49	0x380f9838	3.423562e-05
50	0x3852f29c	5.029385e-05
51	0x37ec6b0c	2.818324e-05
52	0x360a6d49	2.0627215e-06
53	0x38422d16	4.6295194e-05
54	0x391fd12b	0.00015241343
55	0xb932550b	-0.00017007084
56	0xb9015b07	-0.00012336309
57	0xb68ad5b1	-4.1375974e-06
58	0x38947c71	7.080369e-05
59	0x359766bb	1.1280275e-06
60	0x36361cac	2.7136803e-06
61	0x3843d122	4.6686393e-05
62	0xb8ccf4ee	-9.7731e-05
63	0xb7e18f5f	-2.6888853e-05

conv1_4/b f4 [32]
0	0x38ec1130	0.00011256558
1	0xb88e075c	-6.7724584e-05
2	0xb994ed85	-0.00028405726
3	0x39266676	0.00015869163
4	0x3980c4c3	0.0002456066
5	0xb92bb997	-0.00016376968
6	0x381eedf9	3.7891765e-05
7	0x37d28ce6	2.5099562e-05
8	0xb919b842	-0.00014659858
9	0xb748f701	-1.1978439e-05
10	0xb98a8746	-0.00026422198
11	0x37f609b8	2.933001e-05
12	0x37de906e	2.6531718e-05
13	0x38ba9923	8.897695e-05
14	0x390337e7	0.00012513959
15	0xb9103290	-0.00013751746
16	0xb90fc4cf	-0.0001371086
17	0xb5322620	-6.6365646e-07
18	0x38f4fc54	0.000116818264
19	0xb9855b1c	-0.0002543562
20	0x38d2f500	0.00010059215
21	0xb8b1f148	-8.48496e-05
22	0xb8e10ef2	-0.0001073162
23	0x39d383ca	0.00040343247
24	0x35b97c7a	1.3819802e-06
25	0xb7161379	-8.945231e-06
26	0xb7bee1a5	-2.2754839e-05
27	0xb811d985	-3.4773275e-05
28	0xb8855b0a	-6.3588916e-05
29	0xb8ea3570	-0.00011167943
30	0xb897d937	-7.2407005e-05
31	0xb905f511	-0.00012775163

bn4/avg_mean f4 [32]
0	0xbf028238	-0.5097995
1	0xc0562db9	-3.3465407
2	0x3fdff050	1.7495213
3	0xc01d1262	-2.454247
4	0xbd9cb097	-0.07650869
5	0xbfc54f8a	-1.5414898
6	0xc0022256	-2.0333457
7	0x3e802c4d	0.250338
8	0xbf27af5b	-0.65501946
9	0xbf39fa61	-0.7264767
10	0xc04a4320	-3.160347
11	0xbf9b70d2	-1.2143805
12	0xbd3513a1	-0.044208173
13	0x3eaa3f85	0.33251587
14	0xbf8faadc	-1.1224017
15	0xc00c2f3f	-2.1903837
16	0xbf130fcf	-0.57445997
17	0xbf9b3bf5	-1.2127672
18	0xc0846c34	-4.1382084
19	0xc03f787a	-2.9917283
20	0xbef3b215	-0.47596803
21	0x3ca6e0de	0.020370897
22	0xbdab225c	-0.08356163
23	0xbff22150	-1.8916416
24	0xbee869a0	-0.45393085
25	0xbf82c6ee	-1.0216959
26	0xbeb2cf18	-0.34923625
27	0x3ddb48a6	0.10707216
28	0xc05d3108	-3.4561176
29	0x3f9c22db	1.2198137
30	0xbe9c36a7	-0.30510446
31	0x3e9a288d	0.30109063

conv1_5/b f4 [32]
0	0xb8037159	-3.1338397e-05
1	0xb82161c2	-3.8476435e-05
2	0x38d439bd	0.00010119702
3	0xb89981f6	-7.3198156e-05
4	0x393065c6	0.00016822582
5	0x38c0f708	9.2012866e-05
6	0x380a7c8b	3.3017754e-05
7	0x390dcae4	0.0001352239
8	0x38a7c523	7.9999e-05
9	0x37fd7920	3.0216353e-05
10	0xb8dfd087	-0.0001067231
11	0xb8358bf1	-4.3284093e-05
12	0xb7ee6cd4	-2.8422488e-05
13	0xb989aea7	-0.00026260802
14	0x37a33f42	1.9460571e-05
15	0x3828fce3	4.028984e-05
16	0x38a160df	7.695122e-05
17	0xb86017a3	-5.3427775e-05
18	0x3913ecaf	0.00014107184
19	0xb8c27cbf	-9.273877e-05
20	0x3918c0b2	0.00014567634
21	0x37bc2d2d	2.2432383e-05
22	0x38032ff7	3.1277505e-05
23	0x39a4a6d0	0.00031404803
24	0x38822209	6.2052226e-05
25	0x3a2d8de0	0.00066205673
26	0xb90fadae	-0.00013702243
27	0x39693055	0.00022238617
28	0xb8d2fd3b	-0.00010060748
29	0x388f6870	6.838224e-05
30	0xb7ae6f6c	-2.0794301e-05
31	0xb7c54e9f	-2.352084e-05

bn5/avg_mean f4 [32]
0	0xbc92c878	-0.017917857
1	0xbe444a7c	-0.19169039
2	0xbdb62aa4	-0.08894852
3	0xbf25425f	-0.645544
4	0x3e0f7384	0.1400891
5	0xbf84cd25	-1.0375105
6	0xbec13895	-0.3773848
7	0x3ef7f644	0.48430073
8	0xbdd32523	-0.10309818
9	0x3e222d0a	0.15837494
10	0xbe84b05f	-0.2591581
11	0xbefbba78	-0.49165702
12	0x3d9044fb	0.07044407
13	0xbea7ef3e	-0.32799715
14	0xbe1feb21	-0.15617038
15	0xbd484190	-0.04889065
16	0x3edd7094	0.43249953
17	0xbe4e65a0	-0.20155954
18	0xbf59eca0	-0.85126686
19	0xbe93f25e	-0.2889585
20	0xbc2ecd66	-0.010669088
21	0xbf0a2058	-0.539556
22	0xbeb8e3b1	-0.36111215
23	0x3f208c1c	0.6271379
24	0xbe8bd4d1	-0.27310804
25	0x3f47860c	0.77938914
26	0xbe4dbfdb	-0.20092718
27	0xbf1b9503	-0.6077425
28	0xbea305f7	-0.31840488
29	0x3dbec950	0.09315741
30	0xbeffd320	-0.49965763
31	0xbe9e7409	-0.30947903

bn1/gamma f4 [64]
0	0x3f7a8ee7	0.978743
1	0x3f7ad8e8	0.9798722
2	0x3f80e8a7	1.0071
3	0x3f7f2f6a	0.99681723
4	0x3f7841b1	0.9697524
5	0x3f80ff13	1.0077842
6	0x3f7cd81c	0.98767257
7	0x3f7d1355	0.98857623
8	0x3f7cb313	0.98710746
9	0x3f7fdc64	0.99945664
10	0x3f80ce6d	1.0062996
11	0x3f7f86d2	0.99815094
12	0x3f7dd1d9	0.9914833
13	0x3f8003e1	1.0001184
14	0x3f7c5cbc	0.98579
15	0x3f8245ee	1.0177591
16	0x3f7a2409	0.97711235
17	0x3f7bea0f	0.9840402
18	0x3f7f0f3e	0.9963263
19	0x3f820528	1.0157824
20	0x3f84f89d	1.0388371
21	0x3f80ee01	1.0072633
22	0x3f808617	1.0040921
23	0x3f7f077d	0.996208
24	0x3f81f3c4	1.0152516
25	0x3f7fd576	0.9993509
26	0x3f7ad606	0.97982824
27	0x3f7eb34b	0.9949233
28	0x3f791dbe	0.9731101
29	0x3f7f160d	0.9964302
30	0x3f739654	0.9515126
31	0x3f7c3b97	0.98528427
32	0x3f7a99ec	0.97891116
33	0x3f818550	1.0118809
34	0x3f78f605	0.97250396
35	0x3f7d8d42	0.9904367
36	0x3f801033	1.0004944
37	0x3f8858d0	1.0652103
38	0x3f80e5b9	1.0070106
39	0x3f826014	1.0185571
40	0x3f7b2ba4	0.98113465
41	0x3f78f3a2	0.97246754
42	0x3f8037c9	1.0017024
43	0x3f79fd95	0.9765256
44	0x3f80bb27	1.0057114
45	0x3f79bb48	0.97551394
46	0x3f80800e	1.0039079
47	0x3f80957f	1.0045623
48	0x3f7aac72	0.9791938
49	0x3f7df06b	0.99194974
50	0x3f7c48d9	0.98548657
51	0x3f805d8b	1.0028547
52	0x3f7ce01a	0.9877945
53	0x3f7748a3	0.9659521
54	0x3f7cf67f	0.98813623
55	0x3f8377b9	1.0270911
56	0x3f7a4739	0.9776493
57	0x3f77601e	0.9663104
58	0x3f7b5c12	0.98187363
59	0x3f7c7be1	0.98626524
60	0x3f79ac55	0.9752858
61	0x3f820eee	1.0160806
62	0x3f782581	0.96932226
63	0x3f7af50b	0.98030156

conv1_3/b f4 [64]
0	0xb79c4a83	-1.8631346e-05
1	0x37c6ee1d	2.371432e-05
2	0xb758640c	-1.2897897e-05
3	0xb7b7a513	-2.1892169e-05
4	0x38352dbe	4.3196364e-05
5	0x371a9133	9.212922e-06
6	0xb8dd2708	-0.00010545371
7	0x36dcac51	6.576571e-06
8	0x38340141	4.2916512e-05
9	0x37d79303	2.5698455e-05
10	0x377a5927	1.4921919e-05
11	0x384cad87	4.8799e-05
12	0x37d5e653	2.5498832e-05
13	0x38814571	6.164134e-05
14	0xb89f5f80	-7.599499e-05
15	0xb901aea9	-0.00012367465
16	0xb6ee1146	-7.0949636e-06
17	0x3909a7f7	0.0001312791
18	0x3768ecc9	1.3883408e-05
19	0x382af335	4.0757663e-05
20	0x37ebf565	2.8128454e-05
21	0x38c47904	9.368549e-05
22	0xb802e994	-3.1211952e-05
23	0x3689d494	4.1076655e-06
24	0x37aac556	2.0357471e-05
25	0x37c7e2ae	2.3828205e-05
26	0x3815f948	3.575653e-05
27	0x3852be35	5.0245046e-05
28	0xb7189fe0	-9.09713e-06
29	0x372dbc1e	1.0355403e-05
30	0xb80422ac	-3.1503543e-05
31	0x38ea76f5	0.00011180147
32	0xb6d3d4ee	-6.3130783e-06
33	0xb7a7e1c5	-2.0013083e-05
34	0xb80439c8	-3.1525065e-05
35	0xb7d619c1	-2.552278e-05
36	0x38ccae85	9.759985e-05
37	0xb708d443	-8.155653e-06
38	0xb60e548c	-2.1208862e-06
39	0xb6a0e5d8	-4.795129e-06
40	0xb7a1535b	-1.9231511e-05
41	0x38eb90c5	0.00011232639
42	0x384b041c	4.84028e-05
43	0xb7878cb9	-1.6158783e-05
44	0xb7daf547	-2.6101841e-05
45	0xb7a84778	-2.006044e-05
46	0xb8b62026	-8.6844244e-05
47	0xb7e89028	-2.7723683e-05
48	0xb8d63368	-0.0001021389
49	0xb8027b25	-3.1109103e-05
50	0xb7d36a1d	-2.5202573e-05
51	0xb82341e5	-3.8923597e-05
52	0x364868d8	2.986335e-06
53	0xb82aca96	-4.071983e-05
54	0xb81128d0	-3.4608704e-05
55	0x38079cfe	3.233272e-05
56	0x389571d5	7.1260765e-05
57	0xb76ccc3b	-1.4114247e-05
58	0xb8ce9d12	-9.852102e-05
59	0xb75d09f9	-1.3174948e-05
60	0xb7d82439	-2.5766074e-05
61	0x37ac7f8f	2.0563397e-05
62	0xb7c13360	-2.3031316e-05
63	0x389faffb	7.61449e-05

bn2/avg_var f4 [64]
0	0x3ed47a75	0.41499677
1	0x3f440bf7	0.76580757
2	0x3ee49ded	0.44651738
3	0x3f1dd6a1	0.6165562
4	0x3f19f070	0.60132504
5	0x3ed9cf78	0.425411
6	0x3ef3b2ec	0.47597444
7	0x3ed16df3	0.40904197
8	0x3ee238a8	0.4418385
9	0x3ed993d1	0.42495587
10	0x3f0aae67	0.54172367
11	0x3efc256b	0.49247298
12	0x3eecb6d0	0.46233225
13	0x3ee5064a	0.4473136
14	0x3e8f52c2	0.27992827
15	0x3f250b61	0.6447049
16	0x3f1bec28	0.6090722
17	0x3eaed93a	0.34150106
18	0x3ecb4b61	0.39705947
19	0x3f897070	1.0737438
20	0x3eab5fe2	0.3347159
21	0x3ebe09cf	0.37116858
22	0x3ebba4ee	0.3664927
23	0x3f06df15	0.52684146
24	0x3ed7f6db	0.42180523
25	0x3ebcf931	0.36908868
26	0x3f24e3c8	0.64410067
27	0x3f46876c	0.7755039
28	0x3f2528ad	0.6451519
29	0x3f2a9e0b	0.66647404
30	0x3f0e76d1	0.5565005
31	0x3eb96abe	0.3621425
32	0x3f523966	0.82118833
33	0x3f42cd15	0.7609418
34	0x3f096e32	0.5368377
35	0x3f2424bd	0.6411856
36	0x3eb7bae6	0.3588478
37	0x3e9a1dc6	0.3010084
38	0x3f215b1e	0.6302966
39	0x3e9663d7	0.29373047
40	0x3ed913e1	0.4239798
41	0x3e8d027e	0.27540964
42	0x3f0e9e1b	0.5571
43	0x3f0b3a31	0.5438567
44	0x3f07c15a	0.53029406
45	0x3ee1e0c2	0.4411679
46	0x3f0461cd	0.5171173
47	0x3ec1c727	0.37847254
48	0x3f1a037c	0.60161567
49	0x3f0fbc7d	0.56146985
50	0x3f38d050	0.7219286
51	0x3ebdb412	0.37051445
52	0x3ed71eec	0.4201578
53	0x3ef1ea81	0.47249225
54	0x3ec1c8c4	0.37848485
55	0x3f3ba928	0.73304987
56	0x3f0223a6	0.50835645
57	0x3ef688f6	0.48151368
58	0x3f2d283d	0.67639524
59	0x3ecd912f	0.4014983
60	0x3ea022f2	0.3127666
61	0x3ef98635	0.48735204
62	0x3f0c73c4	0.54864144
63	0x3efc6464	0.49295342

bn2/gamma f4 [64]
0	0x3f837a62	1.0271723
1	0x3f779e97	0.96726364
2	0x3f78ae12	0.9714061
3	0x3f7bf9cf	0.9842805
4	0x3f7ef746	0.9959606
5	0x3f82e115	1.022494
6	0x3f7ea636	0.9947237
7	0x3f77747a	0.96662104
8	0x3f7ae8f2	0.98011696
9	0x3f7c8a98	0.9864898
10	0x3f7a81ba	0.978542
11	0x3f8313ac	1.0240378
12	0x3f7cae33	0.98703307
13	0x3f7f8db4	0.99825597
14	0x3f801c4e	1.0008638
15	0x3f7e3540	0.99300003
16	0x3f78dc77	0.972114
17	0x3f7dff98	0.9921813
18	0x3f7b6c31	0.9821196
19	0x3f7c624a	0.9858748
20	0x3f83c35f	1.0293998
21	0x3f7d0756	0.9883932
22	0x3f8073bc	1.0035319
23	0x3f80dc74	1.0067277
24	0x3f819f62	1.0126765
25	0x3f85182a	1.0397999
26	0x3f7891d7	0.97097534
27	0x3f800363	1.0001034
28	0x3f835795	1.0261103
29	0x3f78aa61	0.9713498
30	0x3f7e58d9	0.9935432
31	0x3f7f30c6	0.996838
32	0x3f7ad834	0.9798615
33	0x3f7ef1c0	0.9958763
34	0x3f7d2560	0.98885155
35	0x3f82df46	1.0224388
36	0x3f7e023f	0.9922218
37	0x3f7d8935	0.99037486
38	0x3f7925d3	0.9732334
39	0x3f7796f8	0.96714735
40	0x3f815e47	1.0106896
41	0x3f7e0af2	0.9923545
42	0x3f7e2505	0.9927524
43	0x3f7f8928	0.9981866
44	0x3f80cb81	1.0062104
45	0x3f8060c1	1.0029527
46	0x3f81d5b7	1.0143346
47	0x3f811c30	1.0086727
48	0x3f7e8471	0.9942084
49	0x3f8294a3	1.020161
50	0x3f7e44b7	0.993236
51	0x3f822422	1.0167277
52	0x3f77f211	0.9685374
53	0x3f846445	1.03431
54	0x3f7edfe7	0.995604
55	0x3f7a53ea	0.9778429
56	0x3f80ab13	1.0052208
57	0x3f7e291c	0.9928148
58	0x3f78bfaa	0.97167456
59	0x3f8ab79a	1.0837281
60	0x3f7d4ed4	0.9894841
61	0x3f8116d4	1.0085092
62	0x3f76d5c9	0.9641996
63	0x3f834ec2	1.025841

conv1_1/b f4 [64]
0	0x3833c79f	4.2862837e-05
1	0x3807c707	3.2371867e-05
2	0x38cb8f30	9.706465e-05
3	0x3746f8d0	1.1859651e-05
4	0xb8aa3e99	-8.1178914e-05
5	0x38a05d1d	7.646738e-05
6	0xb8cb5846	-9.6962365e-05
7	0x36bf52ec	5.701897e-06
8	0xb9ad8847	-0.00033098666
9	0xb8829a59	-6.2276325e-05
10	0x37e69794	2.748872e-05
11	0x352abe49	6.3606836e-07
12	0x3828effc	4.0277824e-05
13	0x384692a6	4.7343456e-05
14	0xb8d57e5a	-0.00010180166
15	0xb7d993a4	-2.5937166e-05
16	0x38a067e8	7.6487486e-05
17	0x38fd29e4	0.00012071783
18	0xb8993ce8	-7.306953e-05
19	0xb8ac0eaf	-8.204334e-05
20	0x383b8208	4.4705375e-05
21	0x378a40d7	1.6481075e-05
22	0xb7cb548d	-2.4238858e-05
23	0x39148000	0.00014162064
24	0x3839d471	4.430529e-05
25	0x382691fd	3.9713446e-05
26	0x379d2a18	1.873546e-05
27	0x381f4244	3.797027e-05
28	0x38a9854c	8.0833765e-05
29	0x37db60dc	2.6151938e-05
30	0x38e81d3f	0.000110680696
31	0xb885be7c	-6.377415e-05
32	0x38d154c3	9.981685e-05
33	0x38237d56	3.8978957e-05
34	0xb916fcac	-0.00014399242
35	0xb8b77831	-8.7485074e-05
36	0xb934b46b	-0.00017233349
37	0xb780f72a	-1.5373884e-05
38	0xb82d292d	-4.1284762e-05
39	0x389a7875	7.365729e-05
40	0x3783e8d5	1.5724838e-05
41	0x3933bc50	0.00017140922
42	0xb8c7e5bc	-9.531851e-05
43	0x3645539a	2.940395e-06
44	0xb8b8e18d	-8.815816e-05
45	0x37ee7ab1	2.8428944e-05
46	0x3829605c	4.038248e-05
47	0x36d3c92e	6.3117104e-06
48	0x37a52ef8	1.9691404e-05
49	0xb648b1db	-2.9905848e-06
50	0x38c85279	9.552105e-05
51	0x37e1668d	2.6869844e-05
52	0x37cd600f	2.4482635e-05
53	0xb8a84ef5	-8.025571e-05
54	0xb9a6d366	-0.0003181949
55	0x3792b58d	1.7489097e-05
56	0x380b1653	3.3160974e-05
57	0x382d971a	4.138714e-05
58	0x38162298	3.5795005e-05
59	0x384820e6	4.7714355e-05
60	0x3828d55c	4.0253028e-05
61	0xb86ba359	-5.6180495e-05
62	0xb939e920	-0.0001772982
63	0x369dec0e	4.706445e-06

bn1/avg_var f4 [64]
0	0x3dff4aae	0.12465416
1	0x3ec0676e	0.3757891
2	0x3e1e4425	0.15455683
3	0x3ea6a90b	0.32550845
4	0x3ec9987d	0.39374152
5	0x3e7b517a	0.245428
6	0x3eab5ae0	0.3346777
7	0x3eb2df72	0.349361
8	0x3e0801d6	0.1328195
9	0x3e812a35	0.25227514
10	0x3edfb8e8	0.4369576
11	0x3ed0010d	0.40625802
12	0x3eca27aa	0.39483386
13	0x3e3d50dd	0.18487878
14	0x3e4d8197	0.20068966
15	0x3ecd485d	0.4009427
16	0x3df1c2c9	0.118047304
17	0x3f018930	0.50599957
18	0x3eb3c9c3	0.3511487
19	0x3e63bf75	0.22241004
20	0x3e8a65a9	0.27030686
21	0x3e8c2f83	0.2738
22	0x3e90548d	0.28189507
23	0x3e1b26ec	0.15151566
24	0x3e845147	0.2584326
25	0x3e5b9f64	0.21447521
26	0x3e50f2ff	0.20405196
27	0x3eafcb49	0.34334782
28	0x3e70e7ab	0.23525874
29	0x3f071300	0.52763367
30	0x3ddced19	0.1078741
31	0x3eab1574	0.33414805
32	0x3ddc59f7	0.10759347
33	0x3eacb986	0.33735293
34	0x3e69373b	0.22774975
35	0x3e8ad7db	0.2711781
36	0x3e73be5d	0.23803087
37	0x3e0d5c2a	0.13804689
38	0x3ebf8a60	0.3741026
39	0x3eaf8445	0.342806
40	0x3e86bf1f	0.2631769
41	0x3dbf4a4b	0.09340342
42	0x3df33bfe	0.11876677
43	0x3e5a5fc8	0.213256
44	0x3dca5c31	0.09880865
45	0x3e309d6e	0.17247555
46	0x3f0358c4	0.5130732
47	0x3e5c20e8	0.21496928
48	0x3eab64e3	0.33475408
49	0x3ee5534d	0.44790116
50	0x3e4b33fb	0.19844048
51	0x3e0753be	0.13215539
52	0x3ed320e6	0.41236037
53	0x3e82fb6e	0.2558245
54	0x3e32b7cd	0.17452927
55	0x3ddaf04f	0.106903665
56	0x3e6dec5d	0.23234697
57	0x3eb97236	0.3621995
58	0x3f0c7fb5	0.54882365
59	0x3efaa374	0.4895283
60	0x3e236ad7	0.15958725
61	0x3e8293ea	0.25503474
62	0x3e97aa81	0.29622272
63	0x3e22dbd8	0.15904176

bn2/beta f4 [64]
0	0x3cd5dd92	0.02610663
1	0xbc9868f7	-0.018604739
2	0xbc594bd5	-0.013262709
3	0x3a8ed2ae	0.0010896528
4	0x3c0f2849	0.008737632
5	0x3cc8d623	0.02451617
6	0x3c425b64	0.01186261
7	0xbcab4017	-0.020904584
8	0xbb68fa5f	-0.0035549623
9	0xba9a8c18	-0.0011791019
10	0x3c57b142	0.01316482
11	0x3cdc6aca	0.02690639
12	0xbc002314	-0.007820863
13	0x3d37eddb	0.04490457
14	0x3be541ad	0.0069963546
15	0x3b967964	0.0045921076
16	0xbc90b3b7	-0.01766382
17	0x3cd55b5e	0.026044544
18	0x3b38510a	0.0028124475
19	0x3bcb429c	0.006203009
20	0xb97d51de	-0.00024158458
21	0xbbf16b1b	-0.0073675043
22	0xbca5e35d	-0.020250017
23	0x3d024a41	0.031809095
24	0x3d0e703e	0.03477501
25	0x3d2c1654	0.04201348
26	0xbbc0a5f2	-0.005879157
27	0x3babe86d	0.005246213
28	0x3d363945	0.04448821
29	0xbc81348d	-0.015772128
30	0x3ca8aebd	0.020591134
31	0x3c9d4624	0.019198485
32	0xbb071c17	-0.0020616108
33	0x3c5d8dfd	0.013522622
34	0x3a3ca74b	0.00071965595
35	0xbc848b4e	-0.016179707
36	0x3c90afa2	0.017661873
37	0x3be121b7	0.006870474
38	0xbcebda6e	-0.028790679
39	0x3c1d14c4	0.00958747
40	0x3cc637bb	0.024196496
41	0xbb989dc8	-0.004657481
42	0x3b37e5aa	0.0028060474
43	0x3c95e0f1	0.018295737
44	0xba41afb5	-0.0007388548
45	0x3c3f5867	0.011678792
46	0x3c8645d2	0.016390715
47	0x3c6e3bd2	0.014540629
48	0x3c2c802b	0.0105286045
49	0x3d120dce	0.035657696
50	0xbb94e605	-0.004544022
51	0x3c437485	0.011929636
52	0xbd0193ef	-0.03163522
53	0x3c3826d3	0.011239725
54	0xbb4997df	-0.0030760688
55	0xbbce1d68	-0.0062901266
56	0x3cf8d7af	0.030376283
57	0x3acc4bec	0.0015586591
58	0xbbc29c74	-0.005939061
59	0xbd147e8f	-0.03625351
60	0x3c4146c7	0.01179666
61	0xbc2bb5ba	-0.010480339
62	0xbce71fbf	-0.02821338
63	0x3cd7d92d	0.026348675

bn4/gamma f4 [32]
0	0x3f809e8b	1.0048383
1	0x3f919ec4	1.1376576
2	0x3f82b6b7	1.021201
3	0x3f87cb9a	1.0609009
4	0x3f8722f1	1.0557538
5	0x3f8d0e54	1.1019998
6	0x3f8d3e8e	1.1034715
7	0x3f8bec7a	1.0931542
8	0x3f856949	1.0422755
9	0x3f8e05af	1.1095484
10	0x3f8b806f	1.089857
11	0x3f869068	1.0512819
12	0x3f87cef8	1.0610037
13	0x3f834d16	1.02579
14	0x3f8bfc54	1.093638
15	0x3f849c8c	1.0360274
16	0x3f8fb0b9	1.1225806
17	0x3f89d9f8	1.0769644
18	0x3f8f77fc	1.1208491
19	0x3f8c4739	1.0959235
20	0x3f87ed7e	1.0619352
21	0x3f8c7ad6	1.0974987
22	0x3f893d9c	1.0721927
23	0x3f86117e	1.0474088
24	0x3f85fb05	1.046723
25	0x3f87485d	1.0568959
26	0x3f941ad3	1.1570686
27	0x3f8a19da	1.0789139
28	0x3f8f4948	1.1194239
29	0x3f8563b0	1.0421047
30	0x3f8dece1	1.1087915
31	0x3f872250	1.0557346

conv1_7/b f4 [2]
0	0x3d331b54	0.043727234
1	0x3ba820f9	0.005130884

conv1_6/W f4 [32, 32, 3, 3]
0	0xbcb7f55f	-0.02245587
1	0xbc1f3218	-0.009716533
2	0x3d453801	0.048149113
3	0xbb20af8f	-0.0024518704
4	0xbc8fb9a8	-0.017544582
5	0x3dc7fcfb	0.09765049
6	0x3cb9ce80	0.022681475
7	0xbbe72d96	-0.007054995
8	0x3d631afb	0.055445652
9	0x3dcb7a21	0.099354036
10	0xbd9775e0	-0.0739553
11	0x3db3d251	0.08780349
12	0xbb108c4a	-0.0022056275
13	0xbcd6bbb7	-0.026212556
14	0x3ce336f5	0.027736166
15	0x3aca1569	0.0015417758
16	0x3b519b17	0.003198331
17	0xb9e84b6f	-0.0004430669
18	0x3d8e7f65	0.06957892
19	0xbc928116	-0.017883819
20	0x3d863496	0.06552999
21	0x3c997438	0.018732175
22	0x3dd1fa13	0.10252776
23	0x3c7bb915	0.015363951
24	0xbd34f44f	-0.044178303
25	0x3c38c76c	0.011278015
26	0xbd2a1e38	-0.041532725
27	0xbd4e1262	-0.0503105
28	0x3c34ed5b	0.011042918
29	0x3be51979	0.006991562
30	0xbd830778	-0.06397909
31	0x3db981d5	0.090579666
32	0x3dae5e1e	0.08514045
33	0xbc33e1cc	-0.010979127
34	0x3cfb5685	0.030680904
35	0x3db763f3	0.08954611
36	0xbccc3710	-0.0249286
37	0xbd396a2a	-0.04526726
38	0xbd55a14d	-0.05215578
39	0xbdab3a9f	-0.083607905
40	0x3b8a7449	0.004225288
41	0xbd8c8687	-0.068615966
42	0xbceb545c	-0.02872675
43	0xbc8dc9c7	-0.017308129
44	0xbd76b476	-0.060230695
45	0xbdd1cced	-0.102441646
46	0xbdb706fa	-0.089368775
47	0xbbfd323f	-0.007726937
48	0xbc13e310	-0.009026304
49	0xbd346fc6	-0.044051908
50	0xbd971c2e	-0.07378422
51	0x3a6babb7	0.0008990126
52	0xbd3a0e46	-0.04542377
53	0xbd7c772b	-0.061637085
54	0x3d9a48d7	0.07533424
55	0xbbe90e5a	-0.0071123065
56	0xbd4c3a02	-0.049860008
57	0xbd7f3ed8	-0.06231579
58	0xbd369473	-0.044575166
59	0xbd660f3d	-0.056166876
60	0xbc5b6cd5	-0.013392647
61	0xbd5ddb89	-0.054164443
62	0xbc084035	-0.008316089
63	0xbd398029	-0.04528824
64	0x3df9f943	0.12205746
65	0x3ced6b29	0.028981762
66	0xbdf47a62	-0.11937405
67	0x3c001f70	0.007819995
68	0xbce6b85d	-0.028164083
69	0x3d711314	0.058856085
70	0xbdc2cb9c	-0.09511492
71	0x3d492ca3	0.049114835
72	0xbc8f0649	-0.017459052
73	0x3c5041ba	0.012710983
74	0x3db47794	0.0881187
75	0x3b54dea8	0.0032481346
76	0xbd937257	-0.07199543
77	0xba5201a8	-0.0008011111
78	0x3ca2c074	0.01986716
79	0x3d634b4e	0.055491738
80	0xbd93f1dc	-0.072238654
81	0x3d84f4b9	0.0649199
82	0xbd84d612	-0.06486143
83	0x3cdda4e8	0.027056172
84	0x3c8bd25d	0.017068082
85	0x3d7dd128	0.061967045
86	0x3d249843	0.04018427
87	0x3ccb36f4	0.024806477
88	0xbe0132c4	-0.12617022
89	0xbd9bee13	-0.076137684
90	0x3b7f161b	0.0038923088
91	0x3c9fa181	0.01948619
92	0xbd396ec8	-0.045271665
93	0xbcca66df	-0.024707256
94	0xbceb5d9e	-0.028731164
95	0xbd1a093c	-0.037606463
96	0x3c3eb881	0.011640669
97	0x3d73ea91	0.05954987
98	0xbd08e764	-0.033423796
99	0xbb8928b7	-0.004185762
100	0xbddb2a60	-0.10701442
101	0x3cc7c407	0.024385465
102	0x3d8175b4	0.06321278
103	0x3d4d1c65	0.050075907
104	0x3c97ef67	0.018546773
105	0x3cb2fa20	0.021847785
106	0x3dc618b1	0.09672678
107	0xbc8a1c11	-0.016859086
108	0xbc4fd4fb	-0.012685056
109	0x3d8ea20e	0.06964503
110	0xbd076982	-0.033059604
111	0x3e0c06d9	0.13674487
112	0xbbd0f4c9	-0.006376837
113	0x3d3831ef	0.044969495
114	0x3d83f74a	0.06443651
115	0x3ad6793b	0.0016363034
116	0x3c7faac8	0.015604682
117	0xbe08c403	-0.13356023
118	0x3d5fe2d2	0.054659672
119	0x3ceb952e	0.028757658
120	0xbd6bd80d	-0.05757909
121	0xbdbc7a3a	-0.09203
122	0xbda9bd27	-0.08288031
123	0x3d7306cf	0.059332665
124	0x3c2b201b	0.010444666
125	0xbdb3cd3d	-0.087793805
126	0xbc3adfeb	-0.011405925
127	0xbd154be8	-0.036449343
128	0xbd0cce00	-0.034376144
129	0xbbfc38a7	-0.007697183
130	0x3d937883	0.0720072
131	0xbc142ed1	-0.009044365
132	0xbd181c64	-0.03713645
133	0x3cb146f3	0.021640277
134	0xbcd5e16d	-0.026108468
135	0xbc6c9f92	-0.014442341
136	0xbd082a5a	-0.033243515
137	0xbd35d2f3	-0.04439063
138	0xbdd1bf7f	-0.10241603
139	0xbd8a7eeb	-0.06762489
140	0x3e07e90d	0.13272496
141	0xbd024082	-0.0317998
142	0x3b7bac5b	0.0038402292
143	0xbd845664	-0.0646179
144	0x3d9e1212	0.077182904
145	0xbcbcbe48	-0.023039952
146	0xbd50c572	-0.05096955
147	0x3cc0e937	0.023548706
148	0x3d2f54eb	0.042805593
149	0xbdaed7a7	-0.08537226
150	0xbde5cbaa	-0.112204865
151	0xbdbd4f8e	-0.092436895
152	0x3d8398de	0.064256415
153	0x3d412a71	0.047159616
154	0xbdd9b1b4	-0.10629597
155	0x3d634202	0.05548287
156	0x3d3c8819	0.04602823
157	0xbded5bb5	-0.11589757
158	0x3db88ba5	0.0901101
159	0x3cc59d04	0.024122722
160	0x3c60a6e0	0.013711661
161	0x3d621bb1	0.05520219
162	0xbd6fae4a	-0.058515824
163	0xbbc6ba4f	-0.00606469
164	0x3d24224b	0.040071767
165	0x3dac2e5e	0.08407281
166	0xbd7643c2	-0.060123213
167	0x3d01f872	0.031731077
168	0xbcb83ef5	-0.022490958
169	0xbd5be95b	-0.053689342
170	0x3cf1b11e	0.029503401
171	0x3cefe279	0.029282795
172	0x3dd423e9	0.10358412
173	0x3c258df4	0.010104645
174	0x3d5ddc06	0.05416491
175	0xbd01e764	-0.031714812
176	0xbc9ab323	-0.018884247
177	0x3d3d8751	0.046271626
178	0x3daab16e	0.08334623
179	0xbc9fc871	-0.019504758
180	0xbd83e3f8	-0.06439966
181	0x3cff2e81	0.031150104
182	0xbd3fa92a	-0.046792187
183	0x3d42918d	0.04750209
184	0xbd1869f8	-0.037210435
185	0xbc945cbc	-0.018110625
186	0x3d458630	0.048223674
187	0xbce39015	-0.027778665
188	0xbcf2307f	-0.02956414
189	0xbc62194b	-0.013799976
190	0xbd3e0913	-0.046395373
191	0xbcab80bc	-0.020935409
192	0xbc817d7c	-0.015806906
193	0xbdaefc43	-0.08544209
194	0xbd727bf4	-0.059200242
195	0xbda0758e	-0.07834922
196	0x3dea0482	0.11426641
197	0x3da7a3b7	0.08185523
198	0x3d7dcfa8	0.061965615
199	0x3cb72a3e	0.02235901
200	0xbcd3dff9	-0.025863634
201	0x3d003d23	0.031308305
202	0x3d1a4d03	0.0376711
203	0xbc65d888	-0.014028676
204	0xbd83a355	-0.064276375
205	0x3cd94646	0.026522767
206	0xbcd103c1	-0.025514485
207	0x3d724ca5	0.059155125
208	0xbd05c9b9	-0.03266308
209	0xbe1213f7	-0.14265428
210	0x3d4922f8	0.049105614
211	0x3c85eb5a	0.016347576
212	0x3d89c22b	0.06726488
213	0x3d756b22	0.059916623
214	0x3c0b8ce2	0.008517476
215	0xbdb5603c	-0.08856246
216	0xbda47d65	-0.080317296
217	0xbd897a26	-0.06712751
218	0xbdc2aef9	-0.0950603
219	0x3d124cd1	0.03571779
220	0x3d17704b	0.036972325
221	0x3d4a3da9	0.04937521
222	0xbcaadc63	-0.020857042
223	0xbdbae42c	-0.091255516
224	0x3dc9b962	0.09849812
225	0xbd1891c5	-0.03724839
226	0x3db0d5d8	0.086345375
227	0x3c2f803c	0.010711726
228	0x3c902ffd	0.017601008
229	0x3cb20073	0.02172873
230	0xbd641bc4	-0.055690542
231	0x3d3bc18f	0.04583889
232	0x3c512bf7	0.01276683
233	0x3d97453d	0.07386253
234	0xbb99cbf4	-0.0046935026
235	0x3c94af1f	0.01814991
236	0x3ddb8609	0.107189246
237	0x3d3d5887	0.046227004
238	0x3a9a6b3e	0.0011781228
239	0xbd4b968d	-0.049704123
240	0x3d53cb13	0.05170734
241	0x3ce8ea64	0.028432079
242	0x3d228066	0.03967323
243	0x3d06a1a2	0.03286899
244	0xbde2931d	-0.11063216
245	0x3dd709eb	0.104999386
246	0x3cec4100	0.028839588
247	0xbd9d896d	-0.076922275
248	0xbd84e636	-0.06489222
249	0x3d775687	0.060385253
250	0x3d6429d2	0.055703945
251	0x3c8bb457	0.017053766
252	0x3b880878	0.0041514
253	0x3d621521	0.05519593
254	0x3cbcf98f	0.023068218
255	0xbdfce544	-0.123484164

conv1_4/W f4 [32, 64, 3, 3]
0	0x3bcd0d98	0.006257724
1	0xbd7b6280	-0.061373234
2	0xbd850307	-0.06494718
3	0x3d135077	0.03596541
4	0x3d86a81b	0.06575032
5	0xba8dd343	-0.0010820407
6	0x3be2df27	0.0069235745
7	0xbc9d1a25	-0.019177506
8	0x3b672a11	0.0035272876
9	0xbd2a2d59	-0.041547153
10	0xbdbfc03a	-0.09362836
11	0xbd90d430	-0.070717216
12	0xbac9b175	-0.0015387969
13	0x3d9ba2f2	0.07599439
14	0x3c415940	0.011801064
15	0xbc6521bd	-0.013985095
16	0x3d9fc50a	0.07801254
17	0x3db5361b	0.088482104
18	0x3d9a2114	0.075258404
19	0xbcd729e4	-0.026265092
20	0xbc26e07f	-0.01018536
21	0x3d9218e2	0.07133652
22	0x3bf5d20b	0.0075018457
23	0x3d82ec7c	0.06392762
24	0xbd05e5f3	-0.03269
25	0xbcba8b0e	-0.022771385
26	0x3db6f2fd	0.08933065
27	0x3c32142a	0.010869065
28	0xbdc7321b	-0.09726354
29	0xbd4603ef	-0.048343595
30	0x3c688ad1	0.014193253
31	0xbd7c6fd8	-0.0616301
32	0xbd17acd3	-0.037030052
33	0xbc2557e6	-0.010091757
34	0xbc5fdecb	-0.013663958
35	0xbd0f176f	-0.034934457
36	0xbc91d6df	-0.017802654
37	0x3d0d56ed	0.034506727
38	0x3b09201a	0.0020923675
39	0xbc9221a3	-0.017838305
40	0xbc456278	-0.012047403
41	0xbba92f83	-0.0051631345
42	0x3cabc047	0.020965708
43	0xbc27e88c	-0.010248315
44	0x3d85d828	0.06535369
45	0xbd74c368	-0.059756666
46	0xbd880154	-0.06640878
47	0x3bad0a17	0.005280744
48	0xb8de884f	-0.000106111744
49	0xbd81c97b	-0.063372575
50	0x3d5428ed	0.051796842
51	0x3c5b130c	0.01337124
52	0x3ba063e1	0.004894719
53	0xbcee854c	-0.029116295
54	0x3c286a33	0.010279226
55	0x3d48dc7d	0.0490384
56	0x3d4bdfa9	0.049773846
57	0xbdc2fbbe	-0.09520672
58	0xbbfaaf0b	-0.0076502613
59	0x3d506ca3	0.050884854
60	0xbcc85cac	-0.024458252
61	0x3b54a7c3	0.0032448627
62	0xbca0c172	-0.019623492
63	0x3d3c471d	0.045966256
64	0xbbe7a026	-0.0070686517
65	0xb9073d8f	-0.00012897536
66	0x3d9e9159	0.077425666
67	0x3cdee935	0.027210811
68	0xbc415385	-0.011799698
69	0x3d96d900	0.07365608
70	0xbd3eaf52	-0.046553917
71	0xbd0fcc52	-0.035106964
72	0x3c2ff7a1	0.010740192
73	0xbd4f7133	-0.050645065
74	0xbc11b8fa	-0.0088941995
75	0x3c0b3b68	0.00849805
76	0xbcfbcf8f	-0.03073862
77	0xbdb3916a	-0.0876797
78	0xbd332b57	-0.043742504
79	0x3bf9e062	0.0076256255
80	0x3d5d94dd	0.054097045
81	0x3d4a0563	0.049321543
82	0x3c9e36eb	0.019313296
83	0x3cd70961	0.02624959
84	0xbb8de3ea	-0.004330148
85	0x3ce8c253	0.028412974
86	0xbdd4f487	-0.103982024
87	0x3c1b1ade	0.009466855
88	0xbdc6a884	-0.097001106
89	0xbd605c7b	-0.054775696
90	0xbd185818	-0.037193388
91	0xbd48e732	-0.04904861
92	0x3c841e53	0.016127741
93	0x3d1a0789	0.037604842
94	0xbd601a37	-0.0547125
95	0xbd2572c6	-0.04039266
96	0xbce91f11	-0.028457196
97	0x3b192375	0.0023367081
98	0xbaba9df8	-0.0014237752
99	0x3daca324	0.08429554
100	0x3bd8018f	0.0065919827
101	0xbd399123	-0.04530443
102	0x3c1fe995	0.00976028
103	0xbd93dbfe	-0.072196946
104	0x3c692d04	0.014231924
105	0xbcaba661	-0.02095336
106	0x3c55acc9	0.0130416835
107	0x3b690e4a	0.0035561495
108	0x3d3225ee	0.043493204
109	0x3d7dbdb2	0.061948486
110	0x3d1e52f4	0.03865333
111	0xbcef2d4d	-0.029196406
112	0xbc6fc2d4	-0.014633853
113	0x3b0cd737	0.0021490583
114	0x3da671f4	0.081272036
115	0x3d73f800	0.059562683
116	0xbca33449	-0.019922392
117	0x3d0f0061	0.03491247
118	0x3d814617	0.06312197
119	0xbbd0c8c2	-0.0063715884
120	0x3d74837a	0.0596957
121	0xbd8845cc	-0.06653938
122	0xbbc46485	-0.005993428
123	0x3d8faf06	0.07015805
124	0x3b908bf3	0.0044112145
125	0xbd0bdd70	-0.034146726
126	0x3b323a5d	0.0027195432
127	0xbd6f609b	-0.05844174
128	0x3d194a7c	0.03742455
129	0x3dd2e32b	0.10297235
130	0x3c9f7cdd	0.01946872
131	0x3b44d06c	0.0030031456
132	0xbd8be0d2	-0.068299904
133	0xbd9103e8	-0.07080823
134	0x3d94109e	0.07229732
135	0xbdaa8c7f	-0.08327579
136	0x3d4c2b44	0.04984595
137	0xbc7ae012	-0.015312212
138	0xb95c3942	-0.00021002165
139	0x3ba3767c	0.0049884897
140	0xbb560813	-0.0032658621
141	0xbd9471c0	-0.072482586
142	0xbb41f154	-0.0029593306
143	0xbccc53e3	-0.024942344
144	0xbae84918	-0.0017721979
145	0xb9665fb0	-0.00021970156
146	0xbd3fd165	-0.046830554
147	0x3cd367b7	0.025806291
148	0x3c280ced	0.010256988
149	0x3d335b22	0.043788083
150	0xbd4997d7	-0.04921707
151	0xbd514df1	-0.05109972
152	0xbd4782e8	-0.048708826
153	0xbd92cc0e	-0.071678266
154	0xbd7dc551	-0.061955754
155	0x3c97c88f	0.018528251
156	0x3bed5a39	0.0072434214
157	0xbcbb17a6	-0.022838425
158	0xbe2359bc	-0.159522
159	0x3b1b7af6	0.0023724413
160	0x3d8f0dae	0.06985031
161	0x3790a444	1.724263e-05
162	0x3b0d65a2	0.002157547
163	0x3d0003fe	0.031253807
164	0xbc3cb5ef	-0.011517986
165	0x3d62e1c6	0.055391096
166	0xbc266f6f	-0.010158404
167	0x37a45fec	1.959499e-05
168	0xbcb8cd29	-0.022558765
169	0x3d02b1c3	0.031907808
170	0x3d4e74ec	0.050404474
171	0xbd026776	-0.03183695
172	0x3d9610c1	0.07327414
173	0x3bd28126	0.006424087
174	0x3d4601a8	0.048341423
175	0x3d816a51	0.06319106
176	0x3d014caa	0.031567253
177	0xbcf1bb6e	-0.029508319
178	0xbd8f1e72	-0.06988229
179	0x3cb8336c	0.022485457
180	0xbd623a87	-0.055231597
181	0xbba9cb90	-0.0051817372
182	0xbca86804	-0.020557411
183	0xbcf18b22	-0.029485289
184	0x3c95c964	0.018284507
185	0xbd87c281	-0.066288956
186	0x3aafd2e4	0.0013414291
187	0xbc1cf6a4	-0.009580288
188	0x3b1d6bdb	0.0024020586
189	0x3d9880bc	0.07446429
190	0x3b5136b7	0.0031923482
191	0x3b4b9708	0.0031065363
192	0xbc8ccdba	-0.017187942
193	0xbb0a28e9	-0.0021081513
194	0x3cb0d0f2	0.021584008
195	0xbc7de7ac	-0.015497129
196	0xbca7dd55	-0.020491282
197	0xbbdfe6d5	-0.0068329372
198	0x3cfae287	0.030625595
199	0x3ca001ea	0.019532163
200	0xbcb2571d	-0.021770054
201	0x3c6dda6e	0.01451741
202	0x3d1ac8d9	0.0377892
203	0x3cec070a	0.02881195
204	0xbda04b11	-0.07826818
205	0x3d281f41	0.04104543
206	0x3e01be81	0.12670328
207	0x3d24df3f	0.040251967
208	0xbc828502	-0.015932564
209	0xbcad9479	-0.021188961
210	0xbd0682f9	-0.03283975
211	0xbd0ed6b9	-0.034872744
212	0xbc82d5eb	-0.015971145
213	0xbd204d2d	-0.0391361
214	0xbc612adf	-0.013743131
215	0xbd72dfe1	-0.05929554
216	0xbd0a65d4	-0.033788517
217	0x3cc5f8e5	0.024166534
218	0xbc89e0aa	-0.016830761
219	0xbd2c8a34	-0.04212399
220	0x3d23bb72	0.039973684
221	0x3d5e586c	0.054283544
222	0x3c06c469	0.008225539
223	0x3d25a36e	0.04043906
224	0x3c4eeec4	0.012630168
225	0x3b5792ce	0.00328939
226	0xbd18b1b6	-0.037278853
227	0xbc82e820	-0.015979826
228	0xbd3545b8	-0.044255942
229	0xbd1a12d6	-0.03761562
230	0xbd6d7ade	-0.057978503
231	0x3ccbcd83	0.024878269
232	0xbc968d6a	-0.018377978
233	0x3ae107f8	0.0017168513
234	0xbdaecdd7	-0.085353546
235	0xbd4fb2d6	-0.05070766
236	0xbd24f0b9	-0.040268634
237	0xbbb7de3d	-0.0056112097
238	0x3cc3fa59	0.023923086
239	0xbae32f9d	-0.0017332915
240	0xbc6872cd	-0.014187527
241	0x3c2d7884	0.010587815
242	0xbc1d00fb	-0.009582753
243	0x3cbf9484	0.023386247
244	0x3d3375ec	0.04381363
245	0x3d49fa2b	0.049310844
246	0x3dc0a82d	0.09407077
247	0x3c4f27af	0.012643739
248	0xbb9ad638	-0.004725244
249	0xb8abebbb	-8.1978236e-05
250	0x3daf82d7	0.085698776
251	0x3d1343ac	0.03595321
252	0xbce99459	-0.02851312
253	0x3cbb18b4	0.022838928
254	0x3bbab13b	0.005697397
255	0x3b9c0366	0.0047611473

bn1/avg_mean f4 [64]
0	0x3bf4cf11	0.0074709733
1	0xbd573139	-0.052537177
2	0x3d88d27b	0.06680771
3	0xbd934b96	-0.07192151
4	0x3d3b64a4	0.045750275
5	0x3d765a96	0.060144983
6	0xbc9b96b0	-0.018992752
7	0xbcb12af1	-0.021626921
8	0x3db3940e	0.087684736
9	0x3d7d400b	0.061828654
10	0xbddc66d8	-0.107618034
11	0xbd6c9ad5	-0.057764847
12	0xbd9eb3e8	-0.07749158
13	0xbd1f8c5c	-0.038952217
14	0xbdc4a576	-0.09601872
15	0xbd04bce3	-0.0324067
16	0xbd01d954	-0.0317014
17	0x3dc95f60	0.098326445
18	0x3ca30749	0.019900935
19	0xbe116db8	-0.1420201
20	0xbc01bb47	-0.007918186
21	0xbda4b876	-0.08042996
22	0x3daa71d3	0.083224915
23	0xbdfa17c5	-0.12211565
24	0x3cab787a	0.020931471
25	0xbe0321df	-0.1280589
26	0xbd7b1328	-0.061297566
27	0x3c8b8470	0.017030925
28	0xbd5768f2	-0.052590318
29	0xbcafeffe	-0.021476742
30	0xbd70e7fd	-0.05881499
31	0xbd9d75b2	-0.07688464
32	0x3d7bb2a3	0.061449658
33	0x3d945baf	0.0724405
34	0xbd9f8807	-0.07789617
35	0xbdda681d	-0.10664389
36	0x3d227068	0.03965798
37	0xbc41566f	-0.0118003925
38	0x3cb0d4a0	0.021585763
39	0x3cd8b51d	0.026453549
40	0x3d52ee8d	0.05149703
41	0xbd8f204c	-0.06988582
42	0xbdedcb9e	-0.116111025
43	0xbd96af3c	-0.07357642
44	0x3d70086e	0.05860179
45	0xbdb112ee	-0.08646189
46	0xbd6e918d	-0.058244277
47	0xbdbe7573	-0.092997454
48	0x3d3a0150	0.045411408
49	0x3ca68f82	0.020332102
50	0x3d42f283	0.04759456
51	0xbdc72d0f	-0.09725391
52	0xbcf2a862	-0.029621307
53	0x3d980349	0.074225016
54	0xbe10e00c	-0.14147967
55	0xbd723baf	-0.05913895
56	0x3ca774a5	0.020441363
57	0xbd95fa26	-0.07323103
58	0xbcb85ca0	-0.022505105
59	0x3d1e142d	0.03859346
60	0xbd6ebc8d	-0.058285285
61	0xbe0728e4	-0.13199192
62	0x3d8eb2ff	0.069677345
63	0xbd0a5892	-0.033775873

bn4/beta f4 [32]
0	0xbc08ca4b	-0.008349012
1	0x3e15b6fe	0.14620587
2	0x3cd0e2a4	0.025498696
3	0x3d5ad83a	0.053428866
4	0x3ccf21bd	0.025284642
5	0x3ddaae3f	0.10677766
6	0x3df4e302	0.11957361
7	0x3db987c9	0.09059102
8	0x3c90c5ed	0.017672503
9	0x3dfd45eb	0.123668514
10	0x3df061d0	0.11737406
11	0x3d90fd20	0.0707953
12	0x3d1ff9e9	0.039056692
13	0x3d12f7ac	0.03588073
14	0x3dd069f8	0.10176462
15	0x3d55b6b2	0.052176185
16	0x3dff7285	0.12473015
17	0x3d61af4b	0.055098813
18	0x3de24d86	0.11049943
19	0x3dc15f71	0.09442032
20	0x3da5442f	0.080696456
21	0x3de3a8b0	0.11116159
22	0x3cb26e71	0.021781178
23	0x3d0eaf7f	0.034835335
24	0x3d6e0f0d	0.058119822
25	0x3d70169d	0.058615316
26	0x3d3f2e29	0.04667488
27	0x3de14854	0.110001236
28	0x3e15e373	0.14637546
29	0x3c65d6ee	0.014028294
30	0x3db9782d	0.09056125
31	0x3dfc98f9	0.12333865

conv1_2/W f4 [64, 64, 3, 3]
0	0xbd4f735c	-0.050647125
1	0x3d9ff398	0.07810134
2	0x3cafded2	0.021468554
3	0x3d473c8d	0.04864173
4	0xbcd659aa	-0.026165802
5	0xbd706d52	-0.058698006
6	0x3bbc38a9	0.005744059
7	0xbac42387	-0.0014964201
8	0xbdba9f47	-0.09112411
9	0x3d7910b4	0.060806945
10	0xbb7c1ec3	-0.0038470484
11	0x3d9140fa	0.070924714
12	0xbcc3ee63	-0.023917383
13	0x3cd813d2	0.026376639
14	0x3d586fda	0.052841045
15	0xbd4f1e65	-0.050566096
16	0xbd53d77d	-0.051719178
17	0xbd1a65d3	-0.037694763
18	0xbc10313e	-0.008800803
19	0xbd5cff09	-0.053954158
20	0x3d95203c	0.07281539
21	0xbc8c2c24	-0.017110892
22	0x3d1ea48e	0.03873115
23	0x3d0b2474	0.03397031
24	0xbd55a3fe	-0.05215835
25	0x3d0acd1c	0.033887014
26	0xbdb1a60c	-0.08674249
27	0xbd367a60	-0.0445503
28	0x3d98e319	0.074651904
29	0xbce172b8	-0.027520522
30	0xbc71b895	-0.01475348
31	0xbdb12a45	-0.086506404
32	0xbd50e054	-0.050995186
33	0x3ccefd3a	0.025267232
34	0x3c7b01d2	0.015320258
35	0xbc66eca3	-0.0140945045
36	0xbce18f6c	-0.02753421
37	0x3c3ac402	0.011399271
38	0xbd296f30	-0.041365802
39	0xbc1f8e9f	-0.009738593
40	0xbd2dc059	-0.042419765
41	0xbc1509ea	-0.009096602
42	0x3d083eca	0.033263005
43	0xbb301b2b	-0.0026871662
44	0x3d3a161c	0.04543124
45	0xbcb0671f	-0.021533547
46	0xbd145efb	-0.036223393
47	0xbd516a86	-0.05112698
48	0xbb68c820	-0.0035519674
49	0x3b4da455	0.0031378467
50	0x3c94e9ae	0.018177833
51	0x3dc6be2b	0.097042404
52	0xbc925659	-0.01786344
53	0x3d323235	0.043504912
54	0x3bb7571c	0.005595101
55	0x3d871e06	0.065975234
56	0x3c1b5d21	0.009482653
57	0xbc90d0fe	-0.01767778
58	0xbbf51201	-0.007478953
59	0xbdb0f70a	-0.08640869
60	0x3d94f824	0.072738916
61	0x3d4f4116	0.05059918
62	0x3b886957	0.004162948
63	0xbd42deb7	-0.04757568
64	0xbd112225	-0.035432953
65	0x3c85d863	0.016338533
66	0xbd2473e8	-0.0401496
67	0xbca02b46	-0.019551884
68	0x3d473c69	0.048641596
69	0xbdb8f16c	-0.090304226
70	0x3a63e160	0.0008692946
71	0xbd670e0e	-0.056409888
72	0xbcce6f58	-0.025199577
73	0x3cf30dc0	0.029669642
74	0x3d546dca	0.051862516
75	0x3c5db987	0.013533003
76	0xbd4a0453	-0.04932053
77	0xbd017b4f	-0.031611737
78	0x3c4eb039	0.012615257
79	0xbcb48661	-0.022036733
80	0xbd8126af	-0.063062064
81	0xbd6b7036	-0.05748006
82	0xbb166d16	-0.0022953204
83	0x3c019293	0.007908481
84	0x3d7701ef	0.06030458
85	0xbdc24dc4	-0.09487489
86	0x3c3fb7d5	0.011701544
87	0x3c31b53c	0.010846432
88	0xbd7fa69b	-0.062414747
89	0x3db374da	0.08762522
90	0xbc9f07a4	-0.019412823
91	0xbc96cf82	-0.018409494
92	0xbcf44d6d	-0.029822076
93	0xbd131bc8	-0.035915166
94	0x3d0f2614	0.034948424
95	0x3d8f3e91	0.069943555
96	0xbcdd5ccc	-0.027021788
97	0x3cb78522	0.02240235
98	0xbc3b88a8	-0.011446156
99	0x3d0d5bfb	0.034511548
100	0x3d11804a	0.035522737
101	0xbceb5fd2	-0.028732214
102	0x3b1d160f	0.0023969447
103	0xbd98e2f8	-0.07465166
104	0x3cfe2138	0.0310217
105	0x3d42b95a	0.047540046
106	0x3bef4ace	0.0073026186
107	0xbd51a846	-0.05118587
108	0xbd8782fc	-0.0661678
109	0xbd8b05d5	-0.06788222
110	0xbd08bdc6	-0.033384107
111	0xbba98682	-0.0051735053
112	0x3c90dcd3	0.017683422
113	0xbd911428	-0.070839226
114	0x3da1f904	0.07908824
115	0xbc1978b9	-0.009367161
116	0x3d26b51d	0.040700067
117	0xbd84f407	-0.06491857
118	0xbc5201d0	-0.012817815
119	0xbcb0a2a1	-0.021561923
120	0xbd7bf90e	-0.061516814
121	0xbcae58c8	-0.021282569
122	0xbbe07abb	-0.006850568
123	0xbd980c09	-0.074241705
124	0xbd0e0055	-0.034668285
125	0xbd3869f0	-0.045022905
126	0xbcab262c	-0.020892225
127	0x3c020876	0.007936588
128	0xbd89baad	-0.06725059
129	0x3cb611f5	0.02222536
130	0xbcedb39f	-0.029016314
131	0x3d92e4df	0.0717256
132	0xbb0c3681	-0.0021394792
133	0xbd36c9c3	-0.04462601
134	0x3def4bc8	0.11684376
135	0xbd02d04b	-0.031936925
136	0xbd4d8e5c	-0.050184593
137	0xbd1dcd17	-0.038525667
138	0xbcb337bd	-0.021877164
139	0xbd13a3f5	-0.036045033
140	0xbc41e536	-0.011834433
141	0xbd8457f0	-0.06462085
142	0xbcd72462	-0.026262466
143	0xbdd75006	-0.1051331
144	0xbc18504f	-0.009296491
145	0xbd1fc41c	-0.039005384
146	0xbc051fe7	-0.008125282
147	0xbd211b19	-0.039332483
148	0xbd0e15fd	-0.03468894
149	0xbde63b54	-0.11241785
150	0x3c10472d	0.008806032
151	0x3c5ac1e2	0.013351889
152	0xbda9f2b0	-0.08298242
153	0xbd8c691d	-0.06855986
154	0x3c20bc64	0.009810541
155	0xbd16b3e8	-0.036792666
156	0x3d344774	0.044013456
157	0xbd1ed339	-0.038775656
158	0x3dd4f55d	0.10398362
159	0xbd0f0279	-0.034914467
160	0xbd95374a	-0.07285936
161	0xbd01e982	-0.03171683
162	0xbc8c88d5	-0.01715509
163	0xbd8c3c35	-0.06847421
164	0xbc614535	-0.01374941
165	0xbc85b09d	-0.016319567
166	0xbd086a1e	-0.033304326
167	0xbd86caef	-0.06581675
168	0x3cd1f0ff	0.025627611
169	0xbc78b140	-0.015178978
170	0xbda6e814	-0.08149734
171	0xbdbc9cd0	-0.09209597
172	0xbdb04d39	-0.08608479
173	0xbd50732d	-0.05089109
174	0xbc9d326a	-0.019189078
175	0x3c3a9aca	0.011389444
176	0xbcbc5511	-0.022989782
177	0xbd806fb6	-0.06271307
178	0xbc8298bf	-0.015941976
179	0xbd02b9c2	-0.031915434
180	0xbcef2148	-0.029190674
181	0xbd6fae14	-0.058515623
182	0xbca1a022	-0.019729678
183	0x3c29a53b	0.010354335
184	0xbe02a2a6	-0.12757358
185	0xbd17d98c	-0.037072703
186	0x3cab7445	0.020929465
187	0xbc6df628	-0.01452402
188	0x3b6dddb5	0.0036295478
189	0x3d8a2a69	0.0674637
190	0xbd118f1a	-0.035536863
191	0xbc17bb45	-0.009260957
192	0x3d53c59e	0.051702134
193	0xbd2f8f94	-0.042861536
194	0x3d38f1c4	0.04515244
195	0x3c35672c	0.011071961
196	0x3b3dd168	0.0028963927
197	0x3d5b2847	0.05350521
198	0xbda72962	-0.0816219
199	0x3ce7f383	0.028314358
200	0x3d32e832	0.04367847
201	0xbdb3303d	-0.08749435
202	0xbcda144e	-0.02662101
203	0xbcfff5cf	-0.03124514
204	0x3d899f2b	0.06719812
205	0x3d43cc67	0.047802355
206	0xbd79a3fb	-0.0609474
207	0x3d46ecca	0.048565663
208	0xbca510ed	-0.020149672
209	0x3d81333d	0.06308601
210	0x3b82d56d	0.0039927275
211	0xbb8e166c	-0.004336169
212	0xbdca5aaf	-0.09880578
213	0xbcc5e069	-0.024154859
214	0x3c43c0cb	0.011947821
215	0x3d218cbd	0.03944086
216	0xbbd87a83	-0.0066064014
217	0xbcac18bd	-0.02100789
218	0x3cc33330	0.023828119
219	0x3c8e9f48	0.017409936
220	0x3c3d89e2	0.011568518
221	0x3d1daad1	0.03849298
222	0xbd918a8f	-0.07106506
223	0xbd7cd3a2	-0.061725266
224	0x3cf81d75	0.030287484
225	0xbcde6929	-0.027149754
226	0x3d055d0d	0.032559443
227	0x3da2a492	0.079415455
228	0xbcfd20df	-0.030899463
229	0x3d36149f	0.04445326
230	0xbc95408f	-0.01821926
231	0xbda8dc8b	-0.0824519
232	0x3c1b08da	0.00946256
233	0x3d40beb9	0.047056887
234	0xbc5b8bf9	-0.013400071
235	0x3d0c6cea	0.034283556
236	0xba3a20c8	-0.00071002217
237	0xbcf13a47	-0.029446734
238	0x3ce656c7	0.02811755
239	0xbdccc97d	-0.09999368
240	0xbd23df13	-0.040007662
241	0x3cb53b64	0.022123046
242	0x3aea4802	0.0017874243
243	0xbc1d3747	-0.009595699
244	0x3d2e8b99	0.0426136
245	0xbc960edd	-0.018317634
246	0x3cf37747	0.029719962
247	0xbd23780a	-0.0399094
248	0x3d0f8b81	0.03504515
249	0x3c807510	0.01568082
250	0x3d1b4aa1	0.03791297
251	0x3c9d9fa1	0.019241156
252	0xbd085370	-0.033282697
253	0x3d1e46c8	0.03864172
254	0xbd81fb79	-0.06346793
255	0xbc253df8	-0.010085575

bn3/gamma f4 [64]
0	0x3f846a1d	1.0344883
1	0x3f831823	1.0241741
2	0x3f8003c7	1.0001153
3	0x3f812a90	1.0091114
4	0x3f803a8f	1.0017871
5	0x3f83c0c8	1.0293207
6	0x3f855825	1.0417525
7	0x3f841777	1.0319661
8	0x3f7f34cf	0.99689955
9	0x3f7eaea3	0.99485224
10	0x3f860aa9	1.0472003
11	0x3f874f6c	1.0571113
12	0x3f7bd7bc	0.9837606
13	0x3f851d6f	1.0399607
14	0x3f7e7a01	0.99404913
15	0x3f8258cb	1.0183347
16	0x3f82c490	1.0216236
17	0x3f7fa49f	0.99860567
18	0x3f804bcb	1.002313
19	0x3f7fe9aa	0.9996592
20	0x3f7d3051	0.9890185
21	0x3f8c8fec	1.0981421
22	0x3f839beb	1.0281957
23	0x3f7e91be	0.99441135
24	0x3f81a135	1.0127321
25	0x3f8316e2	1.0241358
26	0x3f7e93e3	0.9944441
27	0x3f804b51	1.0022985
28	0x3f81b9b4	1.0134797
29	0x3f838c9a	1.0277283
30	0x3f8174a6	1.0113723
31	0x3f88dc5d	1.069225
32	0x3f7cdd19	0.9877487
33	0x3f7ebcfa	0.99507105
34	0x3f7ffdfb	0.9999692
35	0x3f7cc5fb	0.98739594
36	0x3f79904d	0.9748581
37	0x3f7cf3f0	0.9880972
38	0x3f76f0cd	0.9646118
39	0x3f865e51	1.0497533
40	0x3f7b28f6	0.98109376
41	0x3f7b5793	0.981805
42	0x3f809bb2	1.0047514
43	0x3f82a23f	1.0205764
44	0x3f80feaf	1.0077723
45	0x3f82148e	1.0162523
46	0x3f801de7	1.0009125
47	0x3f7f3b3e	0.9969977
48	0x3f7f2402	0.9966432
49	0x3f827b5a	1.0193894
50	0x3f824721	1.0177957
51	0x3f82d157	1.0220135
52	0x3f85c9a0	1.0452156
53	0x3f8ad8fe	1.0847471
54	0x3f82f70e	1.0231645
55	0x3f80355b	1.0016283
56	0x3f80850e	1.0040605
57	0x3f80b299	1.0054504
58	0x3f7aba1b	0.97940224
59	0x3f876ade	1.0579488
60	0x3f845d8e	1.0341051
61	0x3f7f6c5a	0.99774706
62	0x3f80a248	1.0049524
63	0x3f80af72	1.0053542

conv1_7/W f4 [2, 32, 3, 3]
0	0x3dab7e39	0.083736844
1	0x3cc232bc	0.023705833
2	0x3d8da095	0.06915394
3	0xbe3e863d	-0.18605895
4	0xbd51cf0a	-0.05122284
5	0xbcadcf0e	-0.021216895
6	0x3d2dbdb7	0.042417254
7	0xbc7db910	-0.015486017
8	0xbd14d9b9	-0.03634045
9	0xbd0264f0	-0.031834543
10	0xbd6d741d	-0.057972062
11	0xbd9a9bc7	-0.075492434
12	0x3e1acb9c	0.15116733
13	0x3df06c06	0.11739354
14	0xbc198a3f	-0.009371339
15	0x3d0908fe	0.03345584
16	0xbcabd570	-0.020975798
17	0x3e141ada	0.14463368
18	0xbbc1e8de	-0.0059176525
19	0x3cf94fc7	0.030433549
20	0xbd33d444	-0.043903604
21	0x3ca48620	0.020083487
22	0x3dac3ead	0.08410392
23	0xbcf7609f	-0.03019744
24	0x3c9629c7	0.018330468
25	0x3dc989d2	0.0984074
26	0x3e446d1c	0.19182247
27	0x3d31e384	0.043429866
28	0x3dbf6d51	0.09347022
29	0xbcb05bd3	-0.02152816
30	0x3d854997	0.06508177
31	0x3c947ac6	0.01812495
32	0x3d9e71b7	0.07736533
33	0x3e34d4d3	0.17659311
34	0x3e197499	0.14985885
35	0x3ddcd819	0.10783405
36	0xbda8b990	-0.08238518
37	0xbd225c94	-0.03963907
38	0xbda3306d	-0.07968221
39	0x3d816b18	0.06319255
40	0x3d365f92	0.044524737
41	0xbd723a11	-0.059137408
42	0x3d48dd19	0.04903898
43	0x3d663016	0.056198202
44	0x3def50d6	0.1168534
45	0x3e0d999d	0.1382813
46	0xbd403dcc	-0.046933934
47	0xbd2ed9b2	-0.04268808
48	0x3d45b485	0.04826786
49	0x3e8f3a5f	0.2797422
50	0x3da94b67	0.08266335
51	0x3db72a10	0.0894357
52	0x3df62235	0.12018243
53	0xbd157fe2	-0.03649891
54	0x3c9b7b16	0.01897959
55	0x3dadd904	0.08488658
56	0xbdac05ec	-0.08399567
57	0xbbe29285	-0.006914439
58	0x3d50d36d	0.05098288
59	0x3d8ab506	0.06772809
60	0x3e0062cf	0.12537692
61	0x3dc03419	0.09384937
62	0x3cf65f08	0.030074611
63	0x3d198d2b	0.037488144
64	0xbd5bb1fc	-0.053636536
65	0x3dcaa359	0.09894437
66	0xbd2acc06	-0.04169848
67	0x3d97b98b	0.074084364
68	0x3d651b0f	0.05593401
69	0xbcee115d	-0.029061014
70	0x3d4d8705	0.050177593
71	0xbcbb60c9	-0.0228733
72	0x3d4261d6	0.047456585
73	0x3cbecb44	0.023290284
74	0xbd2377af	-0.03990906
75	0x3d1f3450	0.03886825
76	0xbd446b2e	-0.047953777
77	0xbd83336f	-0.064062946
78	0x3ceec4b9	0.029146539
79	0xbe16cd5c	-0.14726776
80	0x3e02e705	0.1278344
81	0xbdd1e7f9	-0.102493234
82	0x3dac32e6	0.084081456
83	0x3e38972c	0.18026417
84	0x3e1d376f	0.15353177
85	0x3d43f73c	0.047843203
86	0xbd300c56	-0.042980514
87	0x3e41b62f	0.18917154
88	0xbdf58a00	-0.11989212
89	0x3e2b5993	0.16733389
90	0x3da7a4c9	0.08185727
91	0x3dc0ef85	0.09420685
92	0x3c9cb848	0.01913084
93	0x3e41dfb3	0.1893299
94	0x3dbe6453	0.09296479
95	0x3d6e47bd	0.058173884
96	0xbd99a81b	-0.07502767
97	0x3cc027cf	0.023456482
98	0x3d87f790	0.06639016
99	0x3d116bf5	0.035503346
100	0x3dbb3344	0.091406375
101	0x3c6e55d2	0.014546828
102	0x3dac6d61	0.084193
103	0xbda1cf49	-0.07900865
104	0x3d2f50fb	0.04280184
105	0xbd0b1d3e	-0.033963434
106	0x3cd78d32	0.026312444
107	0x3de2c9cf	0.11073648
108	0x3cdb8c63	0.02680034
109	0xbaeba333	-0.0017977714
110	0x3d1ca950	0.038247406
111	0x3d7e9ab9	0.062159274
112	0x3d5940f6	0.053040467
113	0x3dec3ac2	0.11534645
114	0xbd25745c	-0.040394172
115	0xbe056cf9	-0.13029851
116	0x3d4c2b58	0.049846023
117	0x3c835371	0.016030999
118	0x3d888063	0.06665113
119	0x3da3baa6	0.07994585
120	0x3d8d4db9	0.0689959
121	0x3acdb77f	0.0015694945
122	0x3cb004c3	0.021486646
123	0x3d2bc8dd	0.041939605
124	0xbc1a6cc3	-0.009425345
125	0x3d2159fc	0.039392456
126	0x3dc4ddff	0.09612655
127	0x3dbe46e9	0.09290869
128	0xbe2d5dc8	-0.16930306
129	0xbe31aee7	-0.17351876
130	0x3d33da44	0.043909326
131	0x3d9d974f	0.076948754
132	0x3d4cb2af	0.049975093
133	0x3dc49bd8	0.09600037
134	0xbce5baa4	-0.028043099
135	0x3d54225a	0.051790573
136	0x3d2981bf	0.0413835
137	0x3d66e650	0.056371987
138	0x3e261acb	0.16221158
139	0x3c01e4c3	0.007928076
140	0x3db430f5	0.087984
141	0xbc4c498c	-0.012468707
142	0xbdf23096	-0.11825673
143	0x3d5af121	0.053452615
144	0x3dd861f6	0.105655596
145	0x3d5e077b	0.054206353
146	0x3dfe56c0	0.1241889
147	0x3e3e2f7f	0.18572806
148	0x3bed9dcc	0.007251477
149	0x3d69f53e	0.057118647
150	0x3c4684bb	0.012116606
151	0xbce07dee	-0.027403798
152	0xbe337764	-0.17526013
153	0xbc3bbad2	-0.011458116
154	0x3d222423	0.039585244
155	0xbe015c34	-0.12632829
156	0xbd490ab6	-0.04908248
157	0x3d3002a5	0.042971272
158	0x3d32e519	0.043675516
159	0x3d159259	0.03651652
160	0x3d433cea	0.047665514
161	0x3d420928	0.047372013
162	0x3d64a6b4	0.055823043
163	0x3e5b54b7	0.21419035
164	0x3d4d57b2	0.05013246
165	0x3d3ef489	0.046619926
166	0x3e32c533	0.17458038
167	0xbccac333	-0.024751281
168	0x3c5f52e1	0.0136306
169	0x3e16f506	0.14741907
170	0x3d1e2ee5	0.03861894
171	0xbd61a930	-0.05509299
172	0xbc83b12b	-0.016075691
173	0x3dd0a54d	0.101877786
174	0xbd5bb998	-0.053643793
175	0x3e61e6e3	0.22060733
176	0x3d828750	0.06373465
177	0x3d50b518	0.050953954
178	0x3d5405d9	0.05176339
179	0x3da150b2	0.078767195
180	0x3c043306	0.008068806
181	0x3da8d0c5	0.08242945
182	0x3d7edbc4	0.062221304
183	0x3d82deed	0.06390176
184	0x3dab1c55	0.08355013
185	0x3c2e99e8	0.010656811
186	0x3de9982a	0.11405976
187	0x3dd50c74	0.10402766
188	0x3e3636fb	0.17794411
189	0x3da1b031	0.07894934
190	0x3d7b5900	0.061364174
191	0xbd384b8d	-0.044993926
192	0xbdb12edb	-0.08651515
193	0x3e07ce6e	0.1326234
194	0x3e384c2d	0.17997809
195	0x3dadbddd	0.08483479
196	0x3e05d082	0.1306782
197	0x3ddaed53	0.10689797
198	0xbaff0f7a	-0.0019459568
199	0x3dac62d6	0.08417289
200	0xbd41a421	-0.047275666
201	0x3d8349a1	0.06410528
202	0xbe184066	-0.14868316
203	0x3d06c390	0.032901347
204	0x3b859b15	0.004077325
205	0xbd5ee19f	-0.054414388
206	0xbc89ce69	-0.016822057
207	0xbc4ad180	-0.01237905
208	0xbc6a6886	-0.014307147
209	0xbd3c6757	-0.04599699
210	0x3a30ea2f	0.0006748763
211	0x3df8eea4	0.12154892
212	0xbd799478	-0.060932606
213	0x3d451241	0.04811311
214	0x3c9cfc4e	0.019163277
215	0x3df2d0f1	0.11856259
216	0xbcad53de	-0.021158155
217	0x3db4f97a	0.088366464
218	0x3df3dc67	0.11907273
219	0x3e431e29	0.19054474
220	0x3e00108f	0.12506317
221	0x3d02d9af	0.03194588
222	0x3dc30125	0.09521703
223	0x3bd872ff	0.0066055055
224	0xbbe9f0f1	-0.007139318
225	0x3e0b9b99	0.13633575
226	0x3d9a5af1	0.07536877
227	0x3d811c24	0.063041955
228	0x3e0ae2c9	0.13563074
229	0x3ccf417b	0.025299778
230	0x3d8f04b6	0.069833204
231	0x3d204355	0.039126713
232	0xbe2bf5dd	-0.16793008
233	0xbc821bf8	-0.015882477
234	0xbd2bf037	-0.041977134
235	0x3c806ede	0.015677866
236	0x3daf1780	0.08549404
237	0xbdcf5eb3	-0.10125484
238	0xbdd2acbd	-0.102868535
239	0xbb2dbe2e	-0.002651106
240	0x3d556c32	0.052105136
241	0xbcf6b0bc	-0.03011357
242	0x3db444fb	0.088022195
243	0x3defdf14	0.11712471
244	0x3d83baa6	0.06432085
245	0x3df0ee76	0.11764233
246	0x3d24e4e9	0.04025737
247	0x3cf13219	0.029442834
248	0x3d329c70	0.04360622
249	0x3d5d7c2e	0.054073505
250	0x3dbb0422	0.09131648
251	0x3cb1c3a0	0.021699727
252	0x3e18233e	0.14857194
253	0x3c15bd25	0.009139334
254	0x3d8a77b1	0.067611106
255	0x3dad6e16	0.08468263
