loto6_cnn/model/loto6_20_380.model (npz, 468510 bytes, 38 tensors)

conv1_2/b f4 [64]
-0.000121927136 -8.8803055e-05 5.1289288e-05 -0.00013761442 2.406293e-06 9.3575385e-05 -3.8456645e-05 -0.00018107357
2.4694498e-05 0.00036445507 -4.130416e-05 -0.00020505673 1.5770593e-05 1.4758073e-05 -1.3985928e-05 -9.410306e-05
-2.782087e-05 -1.6298747e-05 2.9375547e-05 -6.464535e-06 8.677573e-05 5.2538297e-05 1.0918891e-05 -9.8911834e-05
-4.708221e-05 -1.8807164e-05 -4.859569e-06 -2.3851722e-05 -2.2655366e-05 0.00010590383 1.0569201e-05 -1.7045602e-06
1.7776525e-05 -6.624728e-06 -4.844174e-05 -0.00013099723 8.176537e-05 -0.00016652982 4.7661556e-06 -4.028445e-05
6.8365305e-05 -3.1608295e-05 2.2710603e-05 -1.27786825e-05 1.3813505e-05 2.423486e-05 3.5343113e-05 -7.9971804e-05
-2.4450084e-05 3.423654e-05 5.0288654e-05 2.8184651e-05 2.0649459e-06 4.6283338e-05 0.00015242802 -0.00017006883
-0.00012336121 -4.1725643e-06 7.080074e-05 1.1395476e-06 2.7130645e-06 4.669358e-05 -9.772808e-05 -2.6880898e-05
00000000: 22b3 ffb8 c73b bab8 741f 5738 974c 10b9
00000010: cd7b 2136 e73d c438 824c 21b8 91de 3db9
00000020: 0827 cf37 5514 bf39 013e 2db8 7f04 57b9
00000030: 174b 8437 7199 7737 1aa5 6ab7 3259 c5b8
00000040: dd60 e9b7 4bb9 88b7 826b f637 efe9 d8b6
00000050: 5efb b538 915c 5c38 4830 3737 e36e cfb8
00000060: 237a 45b8 14c4 9db7 610f a3b6 2f15 c8b7
00000070: 070c beb7 b018 de38 5f52 3137 3ec8 e4b5
00000080: cc1e 9537 fb49 deb6 ec2d 4bb8 4d5c 09b9
00000090: 7379 ab38 829e 2eb9 f7ec 9f36 19f7 28b8
000000a0: 585f 8f38 2693 04b8 a682 be37 0664 56b7
000000b0: 8dc0 6737 f74b cb37 613d 1438 89b6 a7b8
000000c0: 281a cdb7 3499 0f38 08ed 5238 146e ec37
000000d0: 8093 0a36 5b20 4238 16d5 1f39 8154 32b9
000000e0: 865a 01b9 0e02 8cb6 dc7a 9438 8ff2 9835
000000f0: 1812 3636 dad8 4338 5df3 ccb8 4a7e e1b7

conv1_4/b f4 [32]
0.00011256523 -6.773361e-05 -0.0002840671 0.00015870246 0.00024560653 -0.00016377434 3.789913e-05 2.5099402e-05
-0.00014660248 -1.1980142e-05 -0.00026422957 2.932476e-05 2.653389e-05 8.897714e-05 0.00012515664 -0.00013752165
-0.00013711474 -6.608042e-07 0.00011680993 -0.00025435386 0.000100592646 -8.484812e-05 -0.000107312735 0.0004034222
1.3824988e-06 -8.942593e-06 -2.2753931e-05 -3.4775832e-05 -6.360178e-05 -0.000111691086 -7.2406634e-05 -0.00012775142
00000000: ff10 ec38 340c 8eb8 d7ee 94b9 5e69 2639
00000010: c0c4 8039 d7ba 2bb9 e2f5 1e38 8e8c d237
00000020: 4eb9 19b9 51fe 48b7 4b88 8ab9 71fe f537
00000030: 1895 de37 3d99 ba38 7b3c 0339 b033 10b9
00000040: 75c6 0fb9 1e62 31b5 dbf7 f438 cc5a 85b9
00000050: 44f5 d238 7df0 b1b8 160d e1b8 6982 d339
00000060: 4c8e b935 2508 16b7 b2df beb7 44dc 11b8
00000070: f261 85b8 b23b eab8 04d9 97b8 03f5 05b9

bn4/avg_mean f4 [32]
-0.6600714 -3.2693882 1.6133816 -2.5086257 0.08810786 -1.0978514 -1.9307005 0.19766356
-0.6513565 -0.57553667 -3.0764804 -1.3055891 -0.2879208 0.25816265 -1.361802 -2.3607118
-0.3680487 -0.8452494 -3.844316 -2.6868386 -0.48000395 0.02559899 -0.06357029 -1.7723335
0.08623699 -1.1508038 -0.41322452 0.18328398 -3.0596702 1.1917442 -0.45861176 0.28539416
00000000: 70fa 28bf a83d 51c0 4a83 ce3f 538d 20c0
00000010: e571 b43d 6586 8cbf 3221 f7bf 5168 4a3e
00000020: 4dbf 26bf 5f56 13bf 0ee5 44c0 8b1d a7bf
00000030: 5b6a 93be e52d 843e 874f aebf e715 17c0
00000040: e170 bcbe 4462 58bf 4609 76c0 2af5 2bc0
00000050: 14c3 f5be f9b4 d13c 2431 82bd d3db e2bf
00000060: 059d b03d 8a4d 93bf 2a92 d3be ccae 3b3e
00000070: a3d1 43c0 138b 983f 29cf eabe 2f1f 923e

conv1_5/b f4 [32]
-3.1339772e-05 -3.8478396e-05 0.00010119633 -7.318441e-05 0.0001682249 9.2027345e-05 3.3022443e-05 0.00013522767
8.000217e-05 3.0219724e-05 -0.000106730404 -4.3285414e-05 -2.842023e-05 -0.00026260945 1.9461913e-05 4.0287963e-05
7.694009e-05 -5.3430835e-05 0.00014108662 -9.273498e-05 0.00014567333 2.244164e-05 3.1250427e-05 0.00031404092
6.2054e-05 0.00066205364 -0.0001370322 0.00022239101 -0.000100608486 6.838301e-05 -2.0797595e-05 -2.351846e-05
00000000: d372 03b8 dd63 21b8 5e39 d438 957a 99b8
00000010: 8765 3039 cefe c038 9481 0a38 e7cb 0d39
00000020: d7c6 a738 5d80 fd37 73d4 dfb8 5c8d 35b8
00000030: fb67 eeb7 d8ae 89b9 2442 a337 dffa 2838
00000040: e55a a138 ec1a 60b8 a7f0 1339 b77a c2b8
00000050: e3bf 1839 0e41 bc37 e412 0338 dca5 a439
00000060: fd22 8238 ab8d 2d3a 4db0 0fb9 a231 6939
00000070: c5fd d2b8 d968 8f38 7f76 aeb7 8249 c5b7

bn5/avg_mean f4 [32]
-0.093771644 -0.15653318 -0.12500884 -0.6128758 0.14457278 -0.9237049 -0.33243915 0.460588
-0.1135985 0.2339114 -0.23068134 -0.37443227 0.0043167826 -0.3744838 -0.18904112 -0.10825358
0.46876305 -0.11912184 -0.79196584 -0.20402126 -0.015675832 -0.51921284 -0.4075868 0.7796909
-0.11548095 0.7684698 -0.27304277 -0.56847167 -0.20157613 0.031518273 -0.39963675 -0.283643
00000000: 590b c0bd 3c4a 20be 5102 00be 6ee5 1cbf
00000010: e30a 143e ed77 6cbf 7735 aabe 31d2 eb3e
00000020: 55a6 e8bd 7886 6f3e bb37 6cbe 96b5 bfbe
00000030: cc73 8d3b 57bc bfbe ff93 41be 0eb4 ddbd
00000040: b601 f03e 27f6 f3bd 46be 4abf f3ea 50be
00000050: 9a6a 80bc 22eb 04bf 38af d0be d399 473f
00000060: 4781 ecbd 70ba 443f 43cc 8bbe 5c87 11bf
00000070: f969 4ebe 4e19 013d 309d ccbe a839 91be

bn1/gamma f4 [64]
0.981332 0.9829318 1.0087103 0.99843913 0.9708854 1.0098798 0.9884871 0.9884311
0.9909514 1.0002711 1.0064058 1.0010055 0.9934965 1.0015103 0.98661447 1.0177944
0.97996175 0.9833265 0.9950029 1.0170246 1.0380986 1.0077883 1.0055823 0.99730563
1.013991 1.0034609 0.98183495 0.99573046 0.975025 0.99595565 0.9581182 0.9891979
0.9829301 1.0100805 0.9743415 0.991358 1.0013709 1.0576966 1.0085284 1.0185313
0.9846552 0.97618616 1.0055735 0.97912925 1.0081815 0.97857034 1.0033094 1.0039393
0.9804832 0.9921484 0.9870081 1.0048523 0.98949033 0.9674029 0.98904806 1.0280393
0.97990227 0.96713126 0.9808698 0.98793894 0.9778513 1.0163907 0.9701278 0.9845007
00000000: 9338 7b3f 6ba1 7b3f 6b1d 813f b599 7f3f
00000010: f28b 783f be43 813f 7e0d 7d3f d209 7d3f
00000020: feae 7d3f e208 803f e8d1 803f f320 803f
00000030: c955 7e3f 7d31 803f c492 7c3f 1647 823f
00000040: c6de 7a3f 49bb 7b3f 83b8 7e3f dd2d 823f
00000050: 6ae0 843f 35ff 803f ecb6 803f 6c4f 7f3f
00000060: 75ca 813f 6871 803f 8959 7b3f 31e8 7e3f
00000070: 3d9b 793f f3f6 7e3f 3c47 753f 133c 7d3f
00000080: 4fa1 7b3f 514a 813f 726e 793f a3c9 7d3f
00000090: ec2c 803f 9a62 873f 7517 813f 3c5f 823f
000000a0: 5d12 7c3f 56e7 793f a2b6 803f 37a8 7a3f
000000b0: 170c 813f 9683 7a3f 716c 803f 1581 803f
000000c0: f200 7b3f 70fd 7d3f 90ac 7c3f 009f 803f
000000d0: 3d4f 7d3f b7a7 773f 4132 7d3f cb96 833f
000000e0: e0da 7a3f ea95 773f 491a 7b3f 91e9 7c3f
000000f0: 7654 7a3f 1719 823f 4c5a 783f 3d08 7c3f

conv1_3/b f4 [64]
-1.863474e-05 2.3711003e-05 -1.2898646e-05 -2.1891696e-05 4.3195214e-05 9.210138e-06 -0.000105445164 6.57613e-06
4.2913787e-05 2.57025e-05 1.4922038e-05 4.8806105e-05 2.5499277e-05 6.162655e-05 -7.599406e-05 -0.00012367786
-7.096273e-06 0.00013127843 1.3886068e-05 4.0757655e-05 2.8129176e-05 9.37277e-05 -3.1209496e-05 4.1051817e-06
2.0356874e-05 2.3825409e-05 3.575847e-05 5.0244336e-05 -9.092797e-06 1.0357004e-05 -3.150127e-05 0.00011179666
-6.312618e-06 -2.001217e-05 -3.152557e-05 -2.5521835e-05 9.7595206e-05 -8.155458e-06 -2.118306e-06 -4.7981785e-06
-1.9231582e-05 0.00011232748 4.8402697e-05 -1.615791e-05 -2.610594e-05 -2.0059299e-05 -8.684784e-05 -2.7733424e-05
-0.00010213743 -3.1108135e-05 -2.5201356e-05 -3.8926097e-05 2.9870607e-06 -4.070886e-05 -3.460995e-05 3.2331372e-05
7.125571e-05 -1.4114437e-05 -9.852041e-05 -1.3173022e-05 -2.5766052e-05 2.0562535e-05 -2.3032779e-05 7.614383e-05
00000000: cd51 9cb7 fee6 c637 4367 58b7 0fa4 b7b7
00000010: 822c 3538 3e85 1a37 7122 ddb8 87a8 dc36
00000020: 54fe 3338 b39b d737 aa59 7a37 28b5 4c38
00000030: 48e7 d537 813d 8138 005f 9fb8 86af 01b9
00000040: 851c eeb6 c9a7 0939 35f8 6837 33f3 2a38
00000050: f2f6 eb37 ad8f c438 f1e6 02b8 3ebf 8936
00000060: 0ec4 aa37 addc c737 5dfb 1538 72bd 5238
00000070: 448d 18b7 fec2 2d37 3b20 04b8 6074 ea38
00000080: fad0 d3b6 cfdf a7b7 533a 04b8 b917 d6b7
00000090: 07ac cc38 6dd3 08b7 3828 0eb6 0a00 a1b6
000000a0: 8253 a1b7 5b91 eb38 0004 4b38 d98a 87b7
000000b0: 14fe dab7 0445 a8b7 1422 b6b8 13a5 e8b7
000000c0: 9d32 d6b8 1b7a 02b8 8067 d3b7 9444 23b8
000000d0: 5075 4836 cebe 2ab8 272a 11b8 8c9b 0738
000000e0: 1e6f 9538 0ccd 6cb7 be9c ceb8 b301 5db7
000000f0: 2d24 d8b7 b57d ac37 8436 c1b7 68af 9f38

bn2/avg_var f4 [64]
0.41294098 0.7016566 0.4191181 0.593717 0.626033 0.41953582 0.46694985 0.40543157
0.41096961 0.43004143 0.5285209 0.47815168 0.44631445 0.43051752 0.27297014 0.65726066
0.5892044 0.36194855 0.4088208 1.086795 0.34124744 0.35600725 0.37834066 0.50181067
0.42618543 0.36131808 0.6467222 0.749634 0.6233172 0.6504679 0.5197799 0.3540324
0.8454908 0.78285134 0.55938953 0.6177141 0.37757516 0.29601863 0.61969733 0.28358743
0.4244129 0.27400845 0.5750816 0.53185874 0.5345142 0.4276369 0.5116281 0.37799162
0.58057654 0.5257092 0.7414147 0.3682212 0.401749 0.48510122 0.37464148 0.7180044
0.4947082 0.4890807 0.65351874 0.39740285 0.30972928 0.47813186 0.5272574 0.49042946
00000000: 006d d33e c49f 333f a696 d63e d6fd 173f
00000010: b343 203f 66cd d63e 0d14 ef3e ba94 cf3e
00000020: 9c6a d23e 642e dc3e 254d 073f 4cd0 f43e
00000030: 5483 e43e cb6c dc3e bec2 8b3e 3c42 283f
00000040: 19d6 163f 5251 b93e f650 d13e 191c 8b3f
00000050: fcb7 ae3e 9546 b63e deb5 c13e aa76 003f
00000060: fa34 da3e affe b83e 968f 253f 04e8 3f3f
00000070: b791 1f3f 1085 263f 4c10 053f bc43 b53e
00000080: 1672 583f f268 483f 2734 0f3f 8322 1e3f
00000090: 8851 c13e c18f 973e 7ca4 1e3f 5f32 913e
000000a0: a64c d93e d64a 8c3e 8c38 133f e527 083f
000000b0: ecd5 083f 39f3 da3e 0ffa 023f 1e88 c13e
000000c0: aaa0 143f e194 063f 5bcd 3d3f 7d87 bc3e
000000d0: 0cb2 cd3e 305f f83e 02d1 bf3e 23cf 373f
000000e0: 654a fd3e c968 fa3e 014d 273f 6378 cb3e
000000f0: d694 9e3e b3cd f43e 57fa 063f 9219 fb3e

bn2/gamma f4 [64]
1.0272825 0.9687495 0.97181445 0.98463917 0.99593216 1.0206934 0.9957372 0.96822435
0.9794397 0.9872318 0.97938234 1.0207781 0.98916304 1.0020605 1.0003157 0.99255776
0.9735418 0.9921687 0.9807143 0.98561114 1.0296258 0.98806196 1.0011744 1.0077468
1.014284 1.0408491 0.9708077 1.0007076 1.0290768 0.9709992 0.99367726 0.9988975
0.9814596 0.99741125 0.99029505 1.0210623 0.994259 0.99232024 0.97440237 0.9695724
1.0113361 0.99488944 0.9925857 0.9978279 1.0053072 1.0038306 1.0152736 1.0098393
0.99449635 1.0207506 0.99375093 1.0189532 0.9703787 1.0337601 0.994101 0.9790892
1.0038221 0.99228275 0.97471637 1.0794235 0.990736 1.005767 0.96759355 1.0224943
00000000: fe7d 833f f8ff 773f d5c8 783f 5011 7c3f
00000010: 69f5 7e3f 15a6 823f a2e8 7e3f 8ddd 773f
00000020: 8fbc 7a3f 39bb 7c3f cdb8 7a3f dba8 823f
00000030: ca39 7d3f 8543 803f 580a 803f 4418 7e3f
00000040: 093a 793f c5fe 7d3f 1810 7b3f 0351 7c3f
00000050: c7ca 833f a1f1 7c3f 7c26 803f d9fd 803f
00000060: 0fd4 813f 8b3a 853f da86 783f 3017 803f
00000070: cab8 833f 6793 783f a261 7e3f bfb7 7f3f
00000080: f040 7b3f 5856 7f3f fa83 7d3f 2bb2 823f
00000090: c287 7e3f b308 7e3f 6f72 793f e635 783f
000000a0: 7673 813f 13b1 7e3f 191a 7e3f a671 7f3f
000000b0: e8ad 803f 857d 803f 7cf4 813f 6a42 813f
000000c0: 5097 7e3f f5a7 823f 7666 7e3f 0f6d 823f
000000d0: bd6a 783f 4052 843f 677d 7e3f 97a5 7a3f
000000e0: 3e7d 803f 3e06 7e3f 0387 793f 8d2a 8a3f
000000f0: e0a0 7d3f f9bc 803f 36b4 773f 18e1 823f

conv1_1/b f4 [64]
4.2882646e-05 3.2374188e-05 9.707255e-05 1.18693915e-05 -8.118093e-05 7.645437e-05 -9.697386e-05 5.700353e-06
-0.00033100075 -6.227653e-05 2.7484732e-05 6.407802e-07 4.027578e-05 4.7337675e-05 -0.000101799764 -2.5937827e-05
7.6487275e-05 0.00012071957 -7.307391e-05 -8.204963e-05 4.4704775e-05 1.6475748e-05 -2.4234381e-05 0.00014161544
4.4299493e-05 3.972092e-05 1.8731977e-05 3.7973005e-05 8.0831705e-05 2.6153573e-05 0.00011068663 -6.377181e-05
9.9825265e-05 3.8986298e-05 -0.00014398941 -8.7487184e-05 -0.00017234481 -1.533919e-05 -4.1282998e-05 7.3657466e-05
1.572988e-05 0.0001714177 -9.532353e-05 2.9340786e-06 -8.8150446e-05 2.8429122e-05 4.0381896e-05 6.3244383e-06
1.9693516e-05 -2.9930889e-06 9.5530064e-05 2.6869891e-05 2.4480654e-05 -8.025996e-05 -0.00031820516 1.7489792e-05
3.3152442e-05 4.139169e-05 3.579458e-05 4.7711812e-05 4.0249917e-05 -5.619413e-05 -0.00017730198 4.7292137e-06
00000000: e4dc 3338 85c9 0738 6e93 cb38 a622 4737
00000010: ae3f aab8 2156 a038 725e cbb8 a945 bf36
00000020: 2b8a adb9 759a 82b8 038f e637 1402 2c35
00000030: caed 2838 718c 4638 557d d5b8 0f95 d9b7
00000040: cb67 a038 d32a fd38 423f 99b8 0f12 acb8
00000050: 6381 3b38 6635 8a37 f04a cbb7 9b7e 1439
00000060: 38ce 3938 039a 2638 9d22 9d37 3445 1f38
00000070: 3184 a938 5f64 db37 6f20 e838 3bbd 85b8
00000080: 4859 d138 3885 2338 ddfb 16b9 5379 b7b8
00000090: 75b7 34b9 a9ac 80b7 4827 2db8 8d78 9a38
000000a0: a9f3 8337 97be 3339 6ee8 c7b8 16e7 4436
000000b0: 69dd b8b8 137b ee37 bb5f 2938 8336 d436
000000c0: 8133 a537 e0dc 48b6 5057 c838 a766 e137
000000d0: ce5b cd37 3d51 a8b8 c6d4 a6b9 0bb7 9237
000000e0: 2a0d 0b38 fd9b 2d38 2322 1638 2b1e 4838
000000f0: 05d2 2838 fdb1 6bb8 23ea 39b9 a3af 9e36

bn1/avg_var f4 [64]
0.12432248 0.34267598 0.15215838 0.31157574 0.37353626 0.2276441 0.30856296 0.35442746
0.1273561 0.24051201 0.42913753 0.37567732 0.37441772 0.17761905 0.17781335 0.40249884
0.114823654 0.4948433 0.34171557 0.21131463 0.24807137 0.2572341 0.27708724 0.14938414
0.2506476 0.20366742 0.1863013 0.33498484 0.22447747 0.5170228 0.10713498 0.31209734
0.11044839 0.32633778 0.21520545 0.26184994 0.22606327 0.1402963 0.36447755 0.33997077
0.23876923 0.09130122 0.11818224 0.19929735 0.10206654 0.16760944 0.50194854 0.1967706
0.32698196 0.42785305 0.18515366 0.13310167 0.38985682 0.24693856 0.15535472 0.10702518
0.22846097 0.3511483 0.53419065 0.46953452 0.15517077 0.23671558 0.27952388 0.1467947
00000000: c99c fe3d 3a73 af3e 68cf 1b3e db86 9f3e
00000010: 2540 bf3e 891b 693e f7fb 9d3e 8477 b53e
00000020: a369 023e c848 763e eab7 db3e c758 c03e
00000030: aeb3 bf3e c5e1 353e b414 363e 5414 ce3e
00000040: aa28 eb3d 1a5c fd3e 58f5 ae3e dd62 583e
00000050: 6c06 7e3e 30b4 833e 61de 8d3e 28f8 183e
00000060: e254 803e 318e 503e c5c5 3e3e 2283 ab3e
00000070: 6cdd 653e 9b5b 043f 9669 db3d 39cb 9f3e
00000080: c432 e23d bf15 a73e d15e 5c3e 3211 863e
00000090: 217d 673e d5a9 0f3e cd9c ba3e a610 ae3e
000000a0: ec7f 743e 22fc ba3d 8809 f23d 9b14 4c3e
000000b0: 4308 d13d cfa1 2b3e b37f 003f 3b7e 493e
000000c0: 2e6a a73e 8e0f db3e ec98 3d3e ce4b 083e
000000d0: 509b c73e 76dd 7c3e 4f15 1f3e 0430 db3d
000000e0: acf1 693e b6c9 b33e b8c0 083f d466 f03e
000000f0: 16e5 1e3e 9265 723e c11d 8f3e 5a51 163e

bn2/beta f4 [64]
0.027468912 -0.017568536 -0.013806304 4.313338e-05 0.00819526 0.023689615 0.012397718 -0.01918428
-0.0046162973 -0.00045935946 0.013807965 0.027444175 -0.006507336 0.044537354 0.0076690107 0.0039813993
-0.015121422 0.024246214 0.0013707217 0.004143492 0.0006033962 -0.007110786 -0.017527148 0.02957863
0.03483798 0.039807197 -0.008729988 0.005462258 0.043732595 -0.015475019 0.019586166 0.018196864
-0.00047190784 0.011843204 -0.0016985489 -0.0115928035 0.01894125 0.0074572223 -0.028015392 0.008664956
0.02366156 -0.0013608665 0.001536909 0.015704636 4.925384e-05 0.010704688 0.020100301 0.016057644
0.0100614205 0.035259984 -0.004317083 0.0152476225 -0.029332211 0.012906288 -0.0043970146 -0.00642311
0.027509326 0.0008257601 -0.0041268575 -0.02630988 0.009846748 -0.008225567 -0.027008211 0.024433993
00000000: 7c06 e13c e4eb 8fbc d633 62bc 1dea 3438
00000010: 6945 063c b910 c23c cc1f 4b3c 5a28 9dbc
00000020: 4f44 97bb 2fd6 f0b9 ce3a 623c 9bd2 e03c
00000030: 7e3b d5bb cd6c 363d 534c fb3b 6676 823b
00000040: d7bf 77bc ff9f c63c caa9 b33a 21c6 873b
00000050: 3c2d 1e3a 9901 e9bb 1895 8fbc e24e f23c
00000060: 45b2 0e3d df0c 233d 3908 0fbc befc b23b
00000070: f320 333d ef8a 7dbc 2b73 a03c 9711 953c
00000080: 666a f7b9 ff09 423c d8a1 deba beef 3dbc
00000090: ae2a 9b3c b75b f43b 8980 e5bc 76f7 0d3c
000000a0: e3d5 c13c 1a5f b2ba 1c72 c93a 02a7 803c
000000b0: e895 4e38 b762 2f3c 63a9 a43c 528b 833c
000000c0: a8d8 243c c66c 103d 5176 8dbb 2ad1 793c
000000d0: 1b4a f0bc e574 533c d514 90bb f478 d2bb
000000e0: 3d5b e13c d277 583a 973a 87bb d187 d7bc
000000f0: 4154 213c 87c4 06bc 5340 ddbc cc29 c83c

bn4/gamma f4 [32]
1.0004627 1.1208829 1.0152302 1.0539314 1.0474443 1.0910094 1.0896695 1.0769252
1.0312508 1.0971336 1.0816879 1.0441568 1.0514884 1.0194666 1.0789418 1.0276787
1.1088243 1.0554411 1.1085922 1.0872167 1.0566999 1.0893284 1.053755 1.0420682
1.0458132 1.0505686 1.1206625 1.0709791 1.1060681 1.0264007 1.1012678 1.0447795
00000000: 290f 803f 1779 8f3f 10f3 813f 39e7 863f
00000010: a812 863f 32a6 8b3f 4a7a 8b3f afd8 893f
00000020: 0700 843f e06e 8c3f c074 8a3f eea6 853f
00000030: 2c97 863f e27d 823f c41a 8a3f fa8a 833f
00000040: f4ed 8d3f b218 873f 59e6 8d3f eb29 8b3f
00000050: f141 873f 1d6f 8b3f 72e1 863f 7e62 853f
00000060: 35dd 853f 0879 863f de71 8f3f d815 893f
00000070: a493 8d3f 1961 833f 58f6 8c3f 56bb 853f

conv1_7/b f4 [2]
0.041410167 0.006422007
00000000: b59d 293d b36f d23b

conv1_6/W f4 [32, 32, 3, 3]
-0.02228849 -0.011082764 0.044888616 -0.0016296053 -0.02374855 0.094873086 0.024140617 -0.006739951
0.050370514 0.10017948 -0.07953483 0.07840003 0.00088820327 -0.026904117 0.02532445 0.0030544638
0.00505789 -0.0022869385 0.07379129 -0.017259004 0.063390575 0.0197446 0.10360429 0.015201901
-0.040832885 0.013878117 -0.04222799 -0.049027205 0.010560651 0.005785962 -0.061283696 0.09068303
0.08244151 -0.009225221 0.031223224 0.088941075 -0.025481803 -0.05431987 -0.06392063 -0.08184123
0.0036358885 -0.07697013 -0.026310956 -0.015495883 -0.06333813 -0.10404913 -0.093544394 -0.01036631
-0.0039399634 -0.042418525 -0.07330514 -9.653115e-05 -0.046430558 -0.063373595 0.07546268 -0.012519155
-0.055766482 -0.06108239 -0.047419738 -0.06572433 -0.011956445 -0.05176706 -0.009903535 -0.046961315
0.1154669 0.020413157 -0.118009955 -0.0022690564 -0.031497702 0.060055222 -0.09709836 0.044900652
-0.018003862 0.010253116 0.08651999 0.0016597813 -0.073035 -0.005508645 0.021846265 0.056143593
-0.07614138 0.06374932 -0.06479776 0.02839848 0.01318059 0.05962077 0.03268949 0.02872381
-0.12714985 -0.079634026 0.00452169 0.016646128 -0.04988005 -0.01932346 -0.024499351 -0.03974006
0.011267468 0.057093393 -0.03412715 -0.0051478166 -0.1049133 0.025145004 0.06278163 0.049179927
0.0144413365 0.022266485 0.0928758 -0.019165581 -0.0120770335 0.06970838 -0.03393038 0.1334109
-0.005220757 0.046787817 0.06268918 0.0010297801 0.012370828 -0.13150011 0.054405738 0.027698416
-0.05618693 -0.09123382 -0.083826736 0.06150775 0.010784965 -0.088940635 -0.009852421 -0.035307832
-0.0445928 -0.0069931094 0.068704456 -0.01628912 -0.03769819 0.023318063 -0.029060546 -0.015764907
-0.034637455 -0.044248395 -0.10261389 -0.06502387 0.13387522 -0.03324471 0.004304153 -0.065359786
0.07766592 -0.024579948 -0.05587189 0.022351727 0.033589665 -0.0872084 -0.11302734 -0.09616341
0.057286136 0.045711078 -0.10563259 0.053988937 0.045539264 -0.122017875 0.08541561 0.025713036
0.01021938 0.053018827 -0.059094116 -0.008085032 0.039234955 0.08514175 -0.060102083 0.03299115
-0.023680905 -0.05343527 0.028826643 0.029705135 0.101800345 0.0064106337 0.05762002 -0.033846833
-0.020774415 0.048785824 0.08676923 -0.021922322 -0.060138106 0.032974884 -0.04993487 0.05140592
-0.036170173 -0.019698307 0.051360633 -0.027288303 -0.030688345 -0.011882738 -0.044726264 -0.02363293
-0.011499348 -0.08459633 -0.06078267 -0.07873383 0.1138212 0.08055923 0.05506139 0.021370756
-0.025953323 0.030044964 0.03409236 -0.020810481 -0.05891972 0.020626986 -0.028663216 0.056640666
-0.041200522 -0.14781892 0.047312774 0.0071839984 0.060801797 0.060735844 0.0065803346 -0.09473644
-0.08064619 -0.06981315 -0.096699655 0.03636021 0.035939723 0.04778482 -0.021457896 -0.09385065
0.098661445 -0.037384767 0.0826523 0.0069722715 0.015458349 0.019510726 -0.06334559 0.046591446
0.012682024 0.064355366 -0.009345518 0.017781 0.10738641 0.043231305 -0.003743109 -0.054056555
0.0525211 0.025330992 0.037008476 0.03356257 -0.11212651 0.103244714 0.028671904 -0.07761746
-0.06373651 0.06106965 0.05600274 0.016192596 0.0032922272 0.048765708 0.016743217 -0.121729836
00000000: 5a96 b6bc 7b94 35bc 20dd 373d 7b98 d5ba
00000010: 528c c2bc d24c c23d 8bc2 c53c cfda dcbb
00000020: 5051 4e3d e62a cd3d 28e3 a2bd 3290 a03d
00000030: 50d6 683a 0666 dcbc 3975 cf3c 662d 483b
00000040: a8bc a53b 76e0 15bb e31f 973d c162 8dbc
00000050: ebd2 813d 6dbf a13c 7c2e d43d 6511 793c
00000060: 6240 27bd 0b61 633c 42f7 2cbd c0d0 48bd
00000070: 9506 2d3c 2b98 bd3b 9d04 7bbd 06b8 b93d
00000080: 18d7 a83d 6225 17bc d9c7 ff3c bd26 b63d
00000090: 37bf d0bc 837e 5ebd d2e8 82bd 609c a7bd
000000a0: 1648 6e3b 84a2 9dbd 138a d7bc 72e2 7dbc
000000b0: 6cb7 81bd b617 d5bd 3494 bfbd 75d7 29bc
000000c0: cf1a 81bb 0cbf 2dbd 0121 96bd c470 cab8
000000d0: f82d 3ebd 04ca 81bd 2d8c 9a3d 241d 4dbc
000000e0: 656b 64bd 8731 7abd 333b 42bd 7a9a 86bd
000000f0: f7e4 43bc b209 54bd 7042 22bc 825a 40bd
00000100: e979 ec3d 7e39 a73c 34af f1bd 73b4 14bb
00000110: bc03 01bd 77fc 753d 81db c6bd bfe9 373d
00000120: d67c 93bc affc 273c 6431 b13d 058d d93a
00000130: 6093 95bd dd81 b4bb f0f6 b23c d3f6 653d
00000140: 03f0 9bbd 018f 823d b0b4 84bd eea3 e83c
00000150: 67f3 573c e934 743d 6ae5 053d 324e eb3c
00000160: 9233 02be 2a17 a3bd af2a 943b 765d 883c
00000170: 064f 4cbd 3c4c 9ebc ddb2 c8bc 79c6 22bd
00000180: 309b 383c c3da 693d e9c8 0bbd 04af a8bb
00000190: c9dc d6bd e5fc cd3c a893 803d e470 493d
000001a0: 5b9b 6c3c 3468 b63c ab35 be3d 2301 9dbc
000001b0: c0de 45bc 44c3 8e3d 95fa 0abd de9c 083e
000001c0: e212 abbb 95a4 3f3d 2f63 803d b0f9 863a
000001d0: 03af 4a3c f7a7 06be 8dd8 5e3d cae7 e23c
000001e0: 4424 66bd ccd8 babd 5aad abbd 8def 7b3d
000001f0: 6cb3 303c 8226 b6bd 0c6c 21bc f29e 10bd
00000200: f1a6 36bd 7426 e5bb ecb4 8c3d c370 85bc
00000210: 6b69 1abd 8605 bf3c 6210 eebc 6825 81bc
00000220: 01e0 0dbd ce3d 35bd 3b27 d2bd 3c2b 85bd
00000230: 9616 093e 9b2b 08bd da09 8d3b 5adb 85bd
00000240: 4f0f 9f3d e35b c9bc ecd9 64bd f81a b73c
00000250: 5195 093d 519a b2bd e17a e7bd 52f1 c4bd
00000260: dea4 6a3d 8a3b 3b3d e655 d8bd 8123 5d3d
00000270: 6187 3a3d 82e4 f9bd 61ee ae3d 25a4 d23c
00000280: 306f 273c 452a 593d ac0c 72bd 1577 04bc
00000290: d5b4 203d cc5e ae3d 9a2d 76bd ba21 073d
000002a0: 75fe c1bc f1de 5abd da25 ec3c 2f58 f33c
000002b0: b37c d03d 4b10 d23b f802 6c3d faa2 0abd
000002c0: 1b2f aabc a5d3 473d 11b4 b13d 7196 b3bc
000002d0: 6053 76bd ac10 073d 8288 4cbd 048f 523d
000002e0: 2d27 14bd 585e a1bc 875f 523d b88b dfbc
000002f0: 2066 fbbc d1af 42bc e332 37bd d999 c1bc
00000300: c367 3cbc d740 adbd 40f7 78bd 343f a1bd
00000310: 171b e93d 3dfc a43d 0d88 613d b911 af3c
00000320: 109c d4bc db20 f63c 6ea4 0b3d be7a aabc
00000330: ce55 71bd edf9 a83c 1fcf eabc 0b00 683d
00000340: e1c1 28bd d85d 17be 0acb 413d bf67 eb3b
00000350: 4e0b 793d 26c6 783d d99f d73b 2e05 c2bd
00000360: d429 a5bd 32fa 8ebd 780a c6bd 72ee 143d
00000370: 8835 133d 04ba 433d 78c8 afbc c534 c0bd
00000380: 030f ca3d c520 19bd 9c45 a93d a777 e43b
00000390: 0445 7d3c f5d4 9f3c 55bb 81bd acd6 3e3d
000003a0: 44c8 4f3c bfcc 833d f21d 19bc 76a9 913c
000003b0: 68ed db3d 4f13 313d f34e 75bb 686a 5dbd
000003c0: 5d20 573d f182 cf3c 3396 173d e878 093d
000003d0: 95a2 e5bd f771 d33d 57e1 ea3c e7f5 9ebd
000003e0: 4a88 82bd 2b24 7a3d 2163 653d 56a6 843c
000003f0: 68c2 573b 8dbe 473d 1229 893c 7e4d f9bd

conv1_4/W f4 [32, 64, 3, 3]
0.004425227 -0.06255 -0.06580597 0.034957122 0.064634174 -0.002859143 0.006154078 -0.019157846
0.0023377864 -0.04089479 -0.09312345 -0.071707584 -6.698094e-05 0.077118315 0.0107745 -0.013055439
0.07801994 0.088288285 0.07613651 -0.025492126 -0.010312349 0.07300697 0.0074002435 0.06211901
-0.028963633 -0.022080284 0.089711726 0.010874775 -0.097655945 -0.049036708 0.013026899 -0.058989644
-0.037615802 -0.010802388 -0.0132057555 -0.03578717 -0.018284772 0.032736257 0.00089229556 -0.016792854
-0.011645006 -0.0076103266 0.021249304 -0.009944926 0.06489989 -0.058140565 -0.06667717 0.0022740555
0.0037106662 -0.062382944 0.05014152 0.01387752 0.00638035 -0.031053813 0.012108338 0.04863884
0.048117194 -0.09667746 -0.0063040257 0.05168686 -0.024436804 0.0046251263 -0.020134602 0.046123415
-0.005876529 0.0002669533 0.0775284 0.02633974 -0.01279578 0.07336092 -0.044952717 -0.035370294
0.0102169495 -0.050779473 -0.009983155 0.011221332 -0.029914614 -0.089032345 -0.042130265 0.008855592
0.053013623 0.05066993 0.019736763 0.027347332 -0.0030879977 0.029694462 -0.1051508 0.012252659
-0.09640669 -0.056490194 -0.04083285 -0.05079172 0.015617399 0.038251247 -0.059241284 -0.042859763
-0.02912479 0.0019940143 -0.0020443306 0.084865294 0.0058575016 -0.04765696 0.010534648 -0.070234455
0.013698818 -0.019929824 0.013974383 0.00372495 0.043240197 0.062031772 0.038409475 -0.030207679
-0.014929885 0.002070352 0.08204612 0.060841918 -0.019714184 0.03498018 0.063527375 -0.006872382
0.059759766 -0.067165144 -0.005421613 0.070179254 0.002855026 -0.03406496 0.002385984 -0.05973701
0.03551343 0.10513602 0.018216697 -0.0011248944 -0.066346005 -0.069795735 0.07029675 -0.086957216
0.049274195 -0.01573531 -0.0013988017 0.00406157 -0.004234745 -0.07221507 -0.0022137105 -0.02571378
-9.097481e-05 -0.00025392734 -0.048485134 0.026126426 0.010188115 0.0411619 -0.049001645 -0.05151155
-0.050593268 -0.07194424 -0.060430273 0.018007467 0.009211414 -0.020480264 -0.15895605 0.0024729194
0.07162467 0.00042359155 0.001913427 0.03202909 -0.011323416 0.055089537 -0.010313361 -0.00036388368
-0.022490334 0.033151496 0.049861327 -0.032115765 0.07167177 0.005636582 0.05037253 0.062079806
0.028736647 -0.028414527 -0.07044349 0.022108728 -0.054940302 -0.0046850364 -0.020150838 -0.028631167
0.01805736 -0.066133976 0.003271757 -0.009742759 0.0020702626 0.07043304 0.0013181433 0.0023533644
-0.015285598 -0.008047576 0.019169485 -0.016297013 -0.02364682 -0.007992463 0.02723654 0.018694878
-0.023048317 0.016541356 0.036576234 0.02491624 -0.07545158 0.040680036 0.12564199 0.040081892
-0.015340464 -0.02132109 -0.0341268 -0.03334509 -0.015342274 -0.040293526 -0.012680497 -0.059494782
-0.035804655 0.023046235 -0.01868543 -0.044598844 0.04003791 0.05283458 0.007922961 0.041564815
0.010978742 0.003366172 -0.036780246 -0.017220573 -0.046918493 -0.03669232 -0.058324944 0.023628207
-0.019046929 0.00096023316 -0.085908495 -0.05046605 -0.04049385 -0.0062383674 0.026492521 -0.002395634
-0.014464694 0.012123178 -0.009441131 0.019742453 0.043904953 0.05024335 0.09387262 0.012046705
-0.0048573003 -0.0013101957 0.0864873 0.036470573 -0.029781317 0.022519667 0.004021379 0.005520234
00000000: 7f01 913b 371a 80bd 48c5 86bd 332f 0f3d
00000010: ec5e 843d 7660 3bbb 26a8 c93b eaf0 9cbc
00000020: 8c35 193b 4c81 27bd 82b7 bebd 6ddb 92bd
00000030: 1e78 8cb8 35f0 9d3d 8787 303c 7be6 55bc
00000040: ebc8 9f3d 7dd0 b43d 75ed 9b3d ddd4 d0bc
00000050: 20f5 28bc ae84 953d be7d f23b 8170 7e3d
00000060: 2445 edbc b6e1 b4bc c8ba b73d 1d2c 323c
00000070: d7ff c7bd b7da 48bd c66e 553c 209f 71bd
00000080: 0713 1abd 80fc 30bc f45c 58bc 9195 12bd
00000090: f2c9 95bc 7416 063d f1e8 693a 2b91 89bc
000000a0: b2ca 3ebc 0c60 f9bb 0513 ae3c 0bf0 22bc
000000b0: 3cea 843d cd24 6ebd 0a8e 88bd 5208 153b
000000c0: a62e 733b 4285 7fbd 3261 4d3d 8a5e 633c
000000d0: 4112 d13b 9164 febc 0d62 463c 8539 473d
000000e0: 8916 453d d5fe c5bd 0092 cebb 9ab5 533d
000000f0: b12f c8bc 5f8e 973b 52f1 a4bc e8eb 3c3d
00000100: e68f c0bb def5 8b39 36c7 9e3d 70c6 d73c
00000110: 64a5 51bc 403e 963d 5720 38bd 71e0 10bd
00000120: fe64 273c 23fe 4fbd 6390 23bc add9 373c
00000130: 7e0f f5bc 9756 b6bd c990 2cbd 0c17 113c
00000140: d024 593d 468b 4f3d feae a13c 8307 e03c
00000150: 0160 4abb cd41 f33c 4d59 d7bd 60bf 483c
00000160: df70 c5bd 4362 67bd 5940 27bd fb0a 50bd
00000170: 1ee0 7f3c 57ad 1c3d fda6 72bd b88d 2fbd
00000180: 1d97 eebc 02ae 023b 2dfa 05bb dbcd ad3d
00000190: 49f0 bf3b f233 43bd 8499 2c3c 15d7 8fbd
000001a0: 0271 603c df43 a3bc cff4 643c 4a1e 743b
000001b0: a21c 313d 0715 7e3d 4153 1d3d 1876 f7bc
000001c0: 7a9c 74bc beae 073b cc07 a83d 6035 793d
000001d0: a47f a1bc 6147 0f3d a41a 823d b831 e1bb
000001e0: a8c6 743d e18d 89bd c9a7 b1bb 24ba 8f3d
000001f0: 631b 3b3b b387 0bbd 2b5e 1c3b ccae 74bd
00000200: 8876 113d 8e51 d73d 2f3b 953c 3171 93ba
00000210: 6ae0 87bd 11f1 8ebd bef7 8f3d a016 b2bd
00000220: bdd3 493d 56e7 80bc ff57 b7ba eb16 853b
00000230: 9ec3 8abb 7fe5 93bd e613 11bb b5a5 d2bc
00000240: bbc9 beb8 8d21 85b9 5998 46bd 1607 d63c
00000250: 0dec 263c 6199 283d f3b5 48bd c6fd 52bd
00000260: e33a 4fbd 8057 93bd bc85 77bd 6584 933c
00000270: 78eb 163c 3ac6 a7bc 60c5 22be b410 223b
00000280: f4af 923d 7f15 de39 f5cb fa3a ef30 033d
00000290: d985 39bc 91a5 613d 5ff9 28bc a4c7 beb9
000002a0: a63d b8bc ddc9 073d 643b 4c3d d28b 03bd
000002b0: a6c8 923d 14b3 b83b 6d53 4e3d 6547 7e3d
000002c0: 1e69 eb3c 95c5 e8bc ad44 90bd 5d1d b53c
000002d0: 1509 61bd ef84 99bb 5f13 a5bc e98b eabc
000002e0: 07ed 933c 4071 87bd f96a 563b 18a0 1fbc
000002f0: 3ead 073b 333f 903d 8dc5 ac3a e73a 1a3b
00000300: 7270 7abc fbd9 03bc 5309 9d3c 5081 85bc
00000310: fab6 c1bc d2f2 02bc 2a1f df3c 0026 993c
00000320: d3cf bcbc bd81 873c f6d0 153d 241d cc3c
00000330: 5c86 9abd 1ca0 263d 4ba8 003e e92c 243d
00000340: 9256 7bbc 91a9 aebc 8bc8 0bbd dc94 08bd
00000350: 295e 7bbc d30a 25bd dcc1 4fbc cdb0 73bd
00000360: e7a7 12bd 75cb bc3c 3012 99bc 47ad 36bd
00000370: cbfe 233d 1369 583d 4fcf 013c de3f 2a3d
00000380: 2ee0 333c ff9a 5c3b e2a6 16bd 2912 8dbc
00000390: 9b2d 40bd b04a 16bd 23e6 6ebd f18f c13c
000003a0: 4e08 9cbc 28b8 7b3a cbf0 afbd 7db5 4ebd
000003b0: e1dc 25bd 386b ccbb d806 d93c 1200 1dbb
000003c0: 53fd 6cbc 4ba0 463c f9ae 1abc edba a13c
000003d0: aed5 333d f9cb 4d3d 4a40 c03d 8b5f 453c
000003e0: fd29 9fbb dfba abba 4120 b13d 2b62 153d
000003f0: f3f7 f3bc 2a7b b83c c6c5 833b 14e3 b43b

bn1/avg_mean f4 [64]
-5.2043324e-05 -0.04613097 0.07090618 -0.07293765 0.044720184 0.06365129 -0.010958896 -0.021851998
0.095714994 0.06257972 -0.10177673 -0.05283236 -0.078006975 -0.04290936 -0.09911437 -0.030651757
-0.03265707 0.09880732 0.021521565 -0.14637658 -0.014564731 -0.07838186 0.081472926 -0.11684623
0.02128293 -0.12135463 -0.06639407 0.019039089 -0.056540944 -0.02035305 -0.060810763 -0.070947185
0.067940496 0.07075811 -0.07765799 -0.10114159 0.039853167 -0.021995373 0.022554863 0.029388204
0.05564701 -0.07121362 -0.112664014 -0.07054673 0.05817491 -0.08164346 -0.055425808 -0.090384886
0.047125343 0.021053942 0.046445366 -0.0988731 -0.02491631 0.07923758 -0.1397512 -0.057910174
0.027173549 -0.06809286 -0.023887938 0.036731545 -0.05965203 -0.12953499 0.06976971 -0.02956512
00000000: 1849 5ab8 d4f3 3cbd 4237 913d 5660 95bd
00000010: 832c 373d 9c5b 823d f18c 33bc f602 b3bc
00000020: 3906 c43d cc29 803d 5170 d0bd bf66 58bd
00000030: 1fc2 9fbd bac1 2fbd 7afc cabd 6519 fbbc
00000040: 6bc3 05bd 7e5b ca3d fe4d b03c bee3 15be
00000050: e9a0 6ebc ab86 a0bd 47db a63d 144d efbd
00000060: 8a59 ae3c c788 f8bd 9df9 87bd ddf7 9b3c
00000070: 7a97 67bd 71bb a6bc b514 79bd c24c 91bd
00000080: 6324 8b3d a1e9 903d 270b 9fbd 5223 cfbd
00000090: 133d 233d a42f b4bc fac4 b83c 88bf f03c
000000a0: 1fee 633d 72d8 91bd 64bc e6bd ce7a 90bd
000000b0: d048 6e3d b034 a7bd 2c06 63bd b61b b9bd
000000c0: 8106 413d 5179 ac3c 7f3d 3e3d fb7d cabd
000000d0: 4a1d ccbc 5047 a23d f01a 0fbe 3833 6dbd
000000e0: 109b de3c 4574 8bbd a3b0 c3bc d173 163d
000000f0: b055 74bd d2a4 04be 6ce3 8e3d 8d32 f2bc

bn4/beta f4 [32]
-0.011172934 0.1286869 0.019316519 0.047242403 0.022564283 0.097275764 0.10585724 0.07881691
0.01178476 0.11457638 0.10643756 0.063899614 0.034767292 0.027615111 0.08720946 0.041788135
0.11442511 0.04054908 0.09914817 0.085685894 0.07323532 0.10142626 0.016498987 0.032034073
0.057168387 0.05404726 0.035788763 0.09850753 0.1315689 0.006198946 0.083987676 0.10457728
00000000: af0e 37bc 80c6 033e ad3d 9e3c 4081 413d
00000010: bbd8 b83c 8438 c73d aecb d83d c36a a13d
00000020: de14 413c 05a7 ea3d effb d93d cddd 823d
00000030: 2668 0e3d 1639 e23c e09a b23d 092a 2b3d
00000040: b657 ea3d cb16 263d 320e cb3d 167c af3d
00000050: 66fc 953d 92b8 cf3d e228 873c 2936 033d
00000060: 6629 6a3d a960 5d3d 3d97 123d 51be c93d
00000070: ffb9 063e 8720 cb3b bb01 ac3d 9d2c d63d

conv1_2/W f4 [64, 64, 3, 3]
-0.050135992 0.07619772 0.022832632 0.04604103 -0.024953393 -0.061674636 0.008035539 -0.0021412957
-0.09096586 0.06116724 -0.00245037 0.07215715 -0.022203878 0.02669556 0.052426763 -0.05117314
-0.050223198 -0.03653763 -0.008263786 -0.05239715 0.07415306 -0.016229369 0.038935628 0.0330073
-0.056478042 0.036652125 -0.08783045 -0.042509384 0.076369554 -0.029030442 -0.018030398 -0.08395084
-0.05054212 0.025477601 0.012037702 -0.011102447 -0.02804969 0.0113355415 -0.040076103 -0.010123691
-0.04393268 -0.009369807 0.033934772 -0.0018679175 0.04479481 -0.024632573 -0.03674029 -0.051811267
-0.0063489005 0.0024860972 0.019267429 0.096617445 -0.019292813 0.046473123 0.007857934 0.067727156
0.009054222 -0.021275874 -0.005281858 -0.090542234 0.070605464 0.050481386 0.005587409 -0.048142686
-0.035848215 0.017161474 -0.039276317 -0.018770108 0.04860435 -0.0881681 0.0007215497 -0.05469719
-0.025054531 0.030580968 0.05616522 0.01171253 -0.052870147 -0.032495417 0.011746314 -0.022410702
-0.06275513 -0.05640991 -0.004004157 0.008953692 0.05989625 -0.096367076 0.011023587 0.01202768
-0.061316367 0.08741182 -0.017989451 -0.01748509 -0.032052632 -0.038389094 0.03400435 0.07035937
-0.026782759 0.02168279 -0.012938409 0.03284324 0.035507847 -0.028793857 0.0029278097 -0.07553344
0.032330964 0.044910453 0.007484523 -0.05027403 -0.06626816 -0.06893664 -0.034194574 -0.0021310651
0.012413841 -0.07080093 0.079095036 -0.01091109 0.040401004 -0.06451082 -0.015306849 -0.018138165
-0.06031403 -0.022452967 -0.009432313 -0.07436368 -0.035383392 -0.043619532 -0.018500684 0.009676255
-0.06993629 0.020361982 -0.02827265 0.074096374 -0.0042036227 -0.046467844 0.11562918 -0.032659333
-0.05293373 -0.038991533 -0.018761685 -0.039428364 -0.010938112 -0.06483328 -0.028177304 -0.1072994
-0.0077708294 -0.036564466 -0.010783821 -0.040816244 -0.03386202 -0.11459736 0.007516626 0.014508851
-0.08283136 -0.069144346 0.009461537 -0.036943834 0.045539696 -0.039288603 0.104089476 -0.035783004
-0.07262022 -0.03237223 -0.017744733 -0.0686933 -0.013730289 -0.015354703 -0.03373267 -0.06646702
0.024221271 -0.015730824 -0.08304547 -0.0928083 -0.08658355 -0.05205338 -0.02307834 0.013182804
-0.021534832 -0.06564805 -0.015648458 -0.032296296 -0.02920998 -0.05620585 -0.017638601 0.0116493255
-0.12735961 -0.03768564 0.020094978 -0.01468513 0.0034594035 0.06310857 -0.03511616 -0.010846794
0.05434884 -0.044411503 0.042863477 0.009297062 0.0031814831 0.05247832 -0.078878455 0.030699775
0.043194458 -0.08629602 -0.026868507 -0.029021205 0.06709109 0.046480693 -0.05998912 0.04811497
-0.018805878 0.059246164 0.0041502225 -0.0058356295 -0.099449486 -0.021860955 0.010039313 0.04308051
-0.0053697713 -0.022374043 0.022926891 0.016338542 0.012455923 0.03799565 -0.069583096 -0.06428117
0.031331353 -0.025562175 0.03287902 0.08008302 -0.028719828 0.047766384 -0.01711236 -0.08365145
0.008730963 0.04374891 -0.013502152 0.0365247 0.0015053763 -0.027427763 0.029282976 -0.09916799
-0.038606066 0.020789023 0.0037865133 -0.009772125 0.04363528 -0.017212091 0.032042466 -0.040593553
0.034569267 0.015359855 0.035977107 0.020716567 -0.03284699 0.036815453 -0.062000014 -0.011513856
00000000: 665b 4dbd 8d0d 9c3d 800b bb3c 8595 3c3d
00000010: 0f6b ccbc 8b9e 7cbd 7ea7 033c fb54 0cbb
00000020: 4f4c babd 808a 7a3d 6396 20bb 21c7 933d
00000030: e8e4 b5bc a6b0 da3c 72bd 563d ed9a 51bd
00000040: d7b6 4dbd 7ba8 15bd d564 07bc 659e 56bd
00000050: 8fdd 973d 74f3 84bc f77a 1f3d aa32 073d
00000060: 8555 67bd 8a20 163d 73e0 b3bd 521e 2ebd
00000070: a467 9c3d 40d1 edbc 7cb4 93bc 6bee abbd
00000080: 4105 4fbd 67b6 d03c c839 453c 0ae7 35bc
00000090: 77c8 e5bc b5b8 393c d726 24bd d6dd 25bc
000000a0: c1f2 33bd d283 19bc 30ff 0a3d e9d4 f4ba
000000b0: c37a 373d 40ca c9bc fc7c 16bd 0d38 54bd
000000c0: 700a d0bb caed 223b bad6 9d3c 5edf c53d
000000d0: f60b 9ebc 9a5a 3e3d 90be 003c 89b4 8a3d
000000e0: 2958 143c be4a aebc 7013 adbb 356e b9bd
000000f0: 9999 903d 92c5 4e3d 9516 b73b 4431 45bd
00000100: 94d5 12bd 3896 8c3c 34e0 20bd c5c3 99bc
00000110: 5b15 473d 7a91 b4bd 6126 3d3a 290a 60bd
00000120: 293f cdbc f084 fa3c 800d 663d e9e5 3f3c
00000130: 5e8e 58bd ea19 05bd 9d73 403c a696 b7bc
00000140: c385 80bd 140e 67bd 4e35 83bb 82b2 123c
00000150: c555 753d 1a5c c5bd 469c 343c bf0f 453c
00000160: df26 7bbd f804 b33d 9d5e 93bc e43c 8fbc
00000170: 9f49 03bd e23d 1dbd 2548 0b3d 9318 903d
00000180: 8467 dbbc 1ba0 b13c 9ffb 53bc a286 063d
00000190: ad70 113d 18e1 ebbc 7fe0 3f3b 47b1 9abd
000001a0: 796d 043d 06f4 373d bb40 f53b 24ec 4dbd
000001b0: 9ab7 87bd a72e 8dbd 9c0f 0cbd 57a9 0bbb
000001c0: 6c63 4b3c 1400 91bd 94fc a13d 6ec4 32bc
000001d0: 867b 253d 401e 84bd 94c9 7abc 7d96 94bc
000001e0: d80b 77bd 49ef b7bc fd89 1abc fc4b 98bd
000001f0: 2dee 10bd 65aa 32bd bf8e 97bc 2889 1e3c
00000200: c23a 8fbd 2cce a63c 0b9c e7bc d7bf 973d
00000210: 8bbe 89bb 1155 3ebd fece ec3d cbc5 05bd
00000220: 0ad1 58bd 96b5 1fbd 1bb2 99bc a37f 21bd
00000230: c435 33bc 50c7 84bd 17d4 e6bc cabf dbbd
00000240: 71a2 febb 9fc4 15bd a0ae 30bc ef2e 27bd
00000250: e7b2 0abd 05b2 eabd 074e f63b 88b6 6d3c
00000260: 7da3 a9bd 8d9b 8dbd 9004 1b3c 6b52 17bd
00000270: d587 3a3d 16ed 20bd dd2c d53d 3391 12bd
00000280: e9b9 94bd be98 04bd 675d 91bc 13af 8cbd
00000290: 02f5 60bc 4b92 7bbc 452b 0abd dc1f 88bd
000002a0: b06b c63c eedd 80bc be13 aabd 4712 bebd
000002b0: b752 b1bd ed35 55bd c90e bdbc b0fc 573c
000002c0: d169 b0bc 7c72 86bd 3231 80bc 1f49 04bd
000002d0: c549 efbc 1b38 66bd d47e 90bc d0dc 3e3c
000002e0: 8f6a 02be 425c 1abd 399e a43c e699 70bc
000002f0: 29b7 623b 113f 813d f6d5 0fbd c0b6 31bc
00000300: e49c 5e3d d6e8 35bd 9d91 2f3d b452 183c
00000310: 6e80 503b 82f3 563d 078b a1bd 187e fb3c
00000320: acec 303d f8bb b0bd 581b dcbc e1bd edbc
00000330: 0e67 893d 8a62 3e3d 27b7 75bd 3414 453d
00000340: c90e 9abc 1bac 723d 97fe 873b cf38 bfbb
00000350: 2cac cbbd bf15 b3bc ee7b 243c 3075 303d
00000360: e8f4 afbb c549 b7bc 2dd1 bb3c 68d8 853c
00000370: ed13 4c3c 54a1 1b3d 9581 8ebd d9a5 83bd
00000380: 4e55 003d c467 d1bc 27ac 063d 9102 a43d
00000390: d845 ebbc afa6 433d 382f 8cbc 7451 abbd
000003a0: 500c 0f3c 0f32 333d 2138 5dbc ec9a 153d
000003b0: 0c50 c53a 30b0 e0bc dae2 ef3c 9618 cbbd
000003c0: 6521 1ebd be4d aa3c 2727 783b 431b 20bc
000003d0: e8ba 323d 5f00 8dbc f63e 033d 6d45 26bd
000003e0: 8198 0d3d e7a7 7b3c bb5c 133d cab5 a93c
000003f0: 918a 06bd cdcb 163d baf3 7dbd 9da4 3cbc

bn3/gamma f4 [64]
1.0327469 1.0225358 0.99990153 1.0049615 1.0011402 1.0256926 1.0375983 1.0252429
0.99412125 0.9937697 1.0415981 1.0522702 0.9808051 1.0361513 0.9937185 1.0161824
1.0195888 0.99812466 1.000351 0.9968715 0.98765475 1.0842278 1.0240856 0.9925254
1.0112214 1.0202693 0.99303275 0.99770415 1.0123479 1.0244652 1.0087849 1.0637358
0.9886122 0.99405843 0.99940616 0.98741037 0.97577 0.9890314 0.96725625 1.0468136
0.97880065 0.9808881 1.0006583 1.0209498 1.003174 1.0148995 0.99926066 0.9946735
0.99502856 1.0178962 1.0150371 1.0185245 1.0424817 1.0731406 1.0215873 0.99843705
1.0041074 1.0043875 0.9792062 1.0458543 1.0302466 0.99781895 1.0029529 1.0039799
00000000: 0d31 843f 74e2 823f 8cf9 7f3f 94a2 803f
00000010: 5d25 803f e549 833f 05d0 843f 293b 833f
00000020: bb7e 7e3f b167 7e3f 1653 853f cab0 863f
00000030: 0b16 7b3f 9ba0 843f 5664 7e3f 4412 823f
00000040: e381 823f 1985 7f3f 800b 803f f832 7f3f
00000050: f1d6 7c3f fac7 8a3f 3d15 833f 2516 7e3f
00000060: b46f 813f 2f98 823f 6537 7e3f 8a69 7f3f
00000070: 9e94 813f ad21 833f dd1f 813f 7f28 883f
00000080: b015 7d3f 9d7a 7e3f 15d9 7f3f edc6 7c3f
00000090: 10cc 793f 2931 7d3f 1b9e 773f fdfd 853f
000000a0: ae92 7a3f 7c1b 7b3f 9215 803f 7cae 823f
000000b0: 0168 803f 3ae8 813f 8ccf 7f3f eca2 7e3f
000000c0: 31ba 7e3f 6c4a 823f bcec 813f 035f 823f
000000d0: 0a70 853f ac5c 893f 5fc3 823f 9299 7f3f
000000e0: 9786 803f c58f 803f 42ad 7a3f 8ede 853f
000000f0: 1fdf 833f 1071 7f3f c360 803f 6a82 803f

conv1_7/W f4 [2, 32, 3, 3]
0.08520709 0.025458813 0.06504459 -0.18110025 -0.047824617 -0.018608373 0.044106383 -0.015789652
-0.03459109 -0.033621687 -0.051688712 -0.07068662 0.14729877 0.11016287 -0.008019014 0.03080663
-0.020840986 0.14367057 -0.009367876 0.03133524 -0.04419042 0.019676972 0.07951581 -0.030771445
0.013866369 0.097224295 0.18690152 0.041427523 0.090068884 -0.020772872 0.061967906 0.015908625
0.07818899 0.17284659 0.14378051 0.10308671 -0.08141268 -0.030923871 -0.06712412 0.06123589
0.043665726 -0.05023621 0.049975652 0.054630954 0.118273094 0.1408992 -0.047585413 -0.042639658
0.046355404 0.2678172 0.08365529 0.08628137 0.11409198 -0.034843355 0.020788612 0.08061675
-0.077452235 -0.00391717 0.050619993 0.06894458 0.12070198 0.08601435 0.0315563 0.042065203
-0.045894187 0.09606744 -0.026067065 0.07046697 0.053988066 -0.030320467 0.049179334 -0.019586122
0.046150632 0.022951959 -0.040746797 0.039544795 -0.04297154 -0.058400553 0.030777762 -0.1363879
0.12726054 -0.10261409 0.082451396 0.17633256 0.1510884 0.05519086 -0.04081811 0.18677127
-0.11561951 0.16581681 0.07935335 0.09156319 0.02015817 0.18377084 0.086847305 0.057057522
-0.06786739 0.019584658 0.0634929 0.034842856 0.0893351 0.013340208 0.0819682 -0.06888036
0.039406583 -0.029683288 0.025262196 0.11085039 0.02810049 0.00010175201 0.0399988 0.06221127
0.049843565 0.11324363 -0.040592592 -0.119088516 0.048324823 0.014140861 0.064052396 0.074554525
0.06738314 -0.002057536 0.022086177 0.03847857 -0.011851898 0.035417672 0.09336698 0.09101739
-0.16263802 -0.15212286 0.039764337 0.075525075 0.049139533 0.09515195 -0.026360964 0.050070565
0.040990386 0.053323854 0.15792453 0.0038130411 0.08479671 -0.0138801485 -0.11228467 0.05060579
0.10461764 0.05440688 0.12291241 0.18662672 0.011232063 0.054896016 0.009134807 -0.024410177
-0.16159612 -0.009022662 0.03642922 -0.12150027 -0.04488546 0.04833416 0.040477768 0.034252707
0.042810038 0.051828057 0.056581337 0.20576762 0.049038313 0.043142095 0.1637397 -0.02049249
0.012478019 0.13925363 0.036960006 -0.05226612 -0.015680132 0.100143775 -0.04807419 0.21149595
0.065560184 0.049834356 0.04911518 0.07651212 0.005828028 0.08166882 0.060871962 0.06063498
0.07867984 0.0065452694 0.11342871 0.09895654 0.17363578 0.07875828 0.05903546 -0.04404058
-0.07603348 0.12540941 0.17380743 0.08540276 0.12682761 0.103727706 -0.00021146044 0.08400506
-0.04260823 0.06434467 -0.12740637 0.032806218 0.006835306 -0.05413897 -0.013103716 -0.008216736
-0.011884083 -0.044688355 0.005828506 0.117853604 -0.052350327 0.04972247 0.01977504 0.11798311
-0.01651279 0.08317979 0.116660155 0.1850965 0.12296938 0.03170634 0.093993634 0.0029484476
-0.0013766668 0.1324357 0.075378194 0.066017665 0.13206522 0.025550202 0.071287505 0.03785319
-0.15676561 -0.014097387 -0.036162924 0.016677253 0.08463129 -0.091357306 -0.08852775 -0.005695684
0.05175831 -0.029362438 0.08915514 0.1135505 0.061578665 0.11161598 0.038257796 0.026308306
0.042338267 0.05090442 0.088299125 0.01837403 0.1463531 0.006068433 0.06878558 0.08021392
00000000: 0e81 ae3d 008f d03c 1936 853d 5872 39be
00000010: bfe3 43bd 9670 98bc e5a8 343d 4d59 81bc
00000020: 63af 0dbd e5b6 09bd 8bb7 53bd 26c4 90bd
00000030: 7dd5 163e 129d e13d 2f62 03bc 305e fc3c
00000040: b7ba aabc 611e 133e b87b 19bc 6159 003d
00000050: 0401 35bd 9a31 a13c 2fd9 a23d 6614 fcbc
00000060: c42f 633c 881d c73d 1d63 3f3e e8af 293d
00000070: 0976 b83d df2b aabc 0fd2 7d3d ce52 823c
00000080: 8d21 a03d b2fe 303e 333b 133e 201f d33d
00000090: b1bb a6bd 0f54 fdbc 5f78 89bd 7cd2 7a3d
000000a0: d5da 323d 7cc4 4dbd 45b3 4c3d b5c4 5f3d
000000b0: 2a39 f23d e147 103e ece8 42bd eca6 2ebd
000000c0: 2adf 3d3d 561f 893e 7753 ab3d 49b4 b03d
000000d0: 0ea9 e93d e8b7 0ebd e14c aa3c 651a a53d
000000e0: 479f 9ebd 9b5b 80bb e956 4f3d d132 8d3d
000000f0: 9a32 f73d 4b28 b03d 2e41 013d 904c 2c3d
00000100: 8bfb 3bbd 02bf c43d 998a d5bc fd50 903d
00000110: 9722 5d3d a162 f8bc 4570 493d 1373 a0bc
00000120: 7208 3d3d bf05 bc3c 1de6 26bd b9f9 213d
00000130: ed02 30bd 6b35 6fbd a521 fc3c 45a9 0bbe
00000140: 9650 023e 5627 d2bd 47dc a83d 8690 343e
00000150: ebb6 1a3e d00f 623d e430 27bd f840 3f3e
00000160: ecc9 ecbd e2cb 293e 0284 a23d 7b85 bb3d
00000170: bf22 a53c 6c2e 3c3e 00dd b13d 26b5 693d
00000180: 0ffe 8abd 0170 a03c 9108 823d 62b7 0e3d
00000190: 52f5 b63d e390 5a3c f2de a73d 2511 8dbd
000001a0: cc68 213d 5e2a f3bc aaf2 ce3c 8705 e33d
000001b0: 0033 e63c b263 d538 c8d5 233d 3fd1 7e3d
000001c0: c428 4c3d 47ec e73d 6b44 26bd aee4 f3bd
000001d0: 40f0 453d 12af 673c e72d 833d 0bb0 983d
000001e0: 2c00 8a3d bad7 06bb 12ee b43c b49b 1d3d
000001f0: 772e 42bc 1f12 113d 3037 bf3d 5367 ba3d
00000200: 958a 26be 18c6 1bbe eedf 223d e4ac 9a3d
00000210: 8946 493d 07df c23d f3f2 d7bc cb16 4d3d
00000220: 89e5 273d 1d6a 5a3d f8b6 213e 37e4 793b
00000230: e6a9 ad3d 9069 63bc 81f5 e5bd 0448 4f3d
00000240: c641 d63d c0d9 5e3d 80b9 fb3d 131b 3f3e
00000250: b006 383c a5da 603d 28aa 153c daf7 c7bc
00000260: 7479 25be cad3 13bc ce36 153d 22d5 f8bd
00000270: d1d9 37bd 0afa 453d 04cc 253d 914c 0c3d
00000280: 9459 2f3d a849 543d d5c1 673d bfb4 523e
00000290: 66dc 483d c4b5 303d 61ab 273e dedf a7bc
000002a0: 9b70 4c3c 8198 0e3e 6063 173d 0015 56bd
000002b0: 9f73 80bc 2e18 cd3d 71e9 44bd 6592 583e
000002c0: 6b44 863d 1c1f 4c3d 002d 493d 63b2 9c3d
000002d0: 0bf9 be3b fb41 a73d e154 793d 635c 783d
000002e0: e522 a13d b379 d63b 504d e83d baa9 ca3d
000002f0: 94cd 313e 054c a13d 2bcf 713d e563 34bd
00000300: 71b7 9bbd 536b 003e 93fa 313e a4e7 ae3d
00000310: 19df 013e 316f d43d 7bbb 5db9 d80a ac3d
00000320: f885 2ebd 23c7 833d d176 02be d05f 063d
00000330: b4fa df3b d3c0 5dbd f8b0 56bc 7d9f 06bc
00000340: 75b5 42bc 230b 37bd 0dfd be3b 3b5d f13d
00000350: 4c6d 56bd caa9 4b3d 44ff a13c 21a1 f13d
00000360: d545 87bc 2a5a aa3d 85eb ee3d f089 3d3e
00000370: 5fd7 fb3d 82de 013d bc7f c03d be3a 413b
00000380: 4671 b4ba 399d 073e e25f 9a3d 4534 873d
00000390: 1b3c 073e a84e d13c 2fff 913d f20b 1b3d
000003a0: 2a87 20be baf8 66bc 931f 14bd bc9e 883c
000003b0: 2b53 ad3d 8a19 bbbd 094e b5bd dca2 babb
000003c0: 8600 543d 7f89 f0bc f896 b63d 2a8d e83d
000003d0: e939 7c3d eb96 e43d 35b4 1c3d 8484 d73c
000003e0: e46a 2d3d 2781 503d 2cd6 b43d 2285 963c
000003f0: 96dd 153e b5d9 c63b 74df 8c3d 3247 a43d
