loto6_cnn/model/loto6_20_430.model (npz, 468508 bytes, 38 tensors)

conv1_2/b f4 [64]
00000000: bca4 ffb8 753c bab8 af1c 5738 df4c 10b9
00000010: 5396 2136 9041 c438 aa4c 21b8 4fde 3db9
00000020: a52a cf37 2e14 bf39 ae3d 2db8 b505 57b9
00000030: 3151 8437 b094 7737 aeac 6ab7 4459 c5b8
00000040: 145f e9b7 1ebf 88b7 fe6f f637 11ef d8b6
00000050: dd02 b638 8059 5c38 051c 3737 f56d cfb8
00000060: a47e 45b8 a7ce 9db7 ff3e a3b6 3714 c8b7
00000070: e7f0 bdb7 291c de38 ed7c 3137 bdb6 e4b5
00000080: aa1c 9537 1d45 deb6 302b 4bb8 6d59 09b9
00000090: 4679 ab38 e99d 2eb9 5be9 9f36 0af7 28b8
000000a0: c563 8f38 cc94 04b8 a686 be37 2462 56b7
000000b0: a0b8 6737 f741 cb37 1231 1438 d9b6 a7b8
000000c0: 6710 cdb7 3098 0f38 a4ef 5238 476c ec37
000000d0: be20 0a36 9c2d 4238 3ad2 1f39 2855 32b9
000000e0: 245b 01b9 5916 8bb6 1f7c 9438 b29c 9835
000000f0: e300 3636 1cd0 4338 95f7 ccb8 859a e1b7
-0.00012190032 -8.880432e-05 5.128671e-05 -0.00013761547 2.407837e-06 9.35822e-05 -3.845679e-05 -0.00018107261
2.469618e-05 0.00036445394 -4.1303858e-05 -0.00020506124 1.5773434e-05 1.4756966e-05 -1.3987692e-05 -9.410319e-05
-2.7820039e-05 -1.630146e-05 2.9377636e-05 -6.4651326e-06 8.6789696e-05 5.253544e-05 1.0914174e-05 -9.89101e-05
-4.7086403e-05 -1.8812088e-05 -4.8651123e-06 -2.3851271e-05 -2.2642735e-05 0.0001059103 1.0579109e-05 -1.7040508e-06
1.7775532e-05 -6.6241614e-06 -4.8439193e-05 -0.00013098652 8.176504e-05 -0.00016652759 4.7657354e-06 -4.0284394e-05
6.837355e-05 -3.160983e-05 2.2712466e-05 -1.2778244e-05 1.3811659e-05 2.4230203e-05 3.533165e-05 -7.9972386e-05
-2.4445542e-05 3.4235592e-05 5.0291084e-05 2.8183813e-05 2.058266e-06 4.629568e-05 0.00015241737 -0.00017007126
-0.00012336351 -4.1451244e-06 7.080309e-05 1.1370487e-06 2.712063e-06 4.668544e-05 -9.773594e-05 -2.6894044e-05

conv1_4/b f4 [32]
00000000: 4d11 ec38 550c 8eb8 9aed 94b9 2167 2639
00000010: c4c4 8039 89bb 2bb9 33f5 1e38 cc8c d237
00000020: 13b9 19b9 25f6 48b7 0a87 8ab9 3a0a f637
00000030: 9990 de37 0d99 ba38 7239 0339 3233 10b9
00000040: 65c5 0fb9 be32 31b5 6cf9 f438 105b 85b9
00000050: d0f4 d238 6ff1 b1b8 d40d e1b8 4983 d339
00000060: 205c b935 a611 16b7 a7e2 beb7 0edb 11b8
00000070: df59 85b8 6038 eab8 2ad9 97b8 22f5 05b9
0.000112565795 -6.773385e-05 -0.00028405787 0.00015869412 0.00024560664 -0.00016377693 3.7898495e-05 2.5099514e-05
-0.00014660163 -1.1978239e-05 -0.00026422023 2.9330247e-05 2.6531796e-05 8.897679e-05 0.00012514534 -0.00013751982
-0.00013711078 -6.601148e-07 0.00011681285 -0.00025435584 0.0001005918 -8.484988e-05 -0.00010731412 0.0004034287
1.3810386e-06 -8.944806e-06 -2.2755308e-05 -3.4774705e-05 -6.358674e-05 -0.0001116849 -7.240691e-05 -0.00012775187

bn4/avg_mean f4 [32]
00000000: de73 20bf 63c7 53c0 b89e d13f 4cd7 21c0
00000010: 408c 473d cac5 97bf 84af fcbf 01a9 3b3e
00000020: 06da 26bf b4ff 1ebf 1891 46c0 a640 a6bf
00000030: 6ad8 73be 81be 903e be7b a9bf cdd4 15c0
00000040: 164f dcbe 19ee 72bf 4b8b 7ac0 3d6f 30c0
00000050: 768a fcbe 34c4 123c 6e2f aebd 7a64 ebbf
00000060: 37eb 81bd 9b65 92bf 4010 d2be b2bc 343e
00000070: a7a4 49c0 8174 9a3f 35e5 e0be fba1 983e
-0.626768 -3.3090446 1.6376562 -2.5287657 0.048717737 -1.1857235 -1.9741063 0.18326189
-0.6517643 -0.6210892 -3.1026058 -1.2988479 -0.23813024 0.28270343 -1.3240888 -2.3411133
-0.43029088 -0.9489456 -3.9147518 -2.7567894 -0.49324387 0.008957911 -0.0850514 -1.8390038
-0.06343692 -1.1437258 -0.41028023 0.17650107 -3.1506746 1.2066804 -0.4392487 0.2981108

conv1_5/b f4 [32]
00000000: 3971 03b8 a75f 21b8 ab39 d438 6c7d 99b8
00000010: a665 3039 28f8 c038 577e 0a38 8cca 0d39
00000020: 32c6 a738 9478 fd37 2bd1 dfb8 0f8a 35b8
00000030: 746d eeb7 14af 89b9 a83f a337 76fe 2838
00000040: 905e a138 c019 60b8 faea 1339 777c c2b8
00000050: 64c0 1839 ae29 bc37 7a27 0338 7ea6 a439
00000060: 5523 8238 ce8d 2d3a 4fae 0fb9 7b30 6939
00000070: abfc d2b8 d568 8f38 347c aeb7 7352 c5b7
-3.133828e-05 -3.8474474e-05 0.00010119689 -7.31897e-05 0.00016822535 9.201496e-05 3.3019427e-05 0.00013522262
8.000097e-05 3.0216099e-05 -0.00010672429 -4.328234e-05 -2.8422779e-05 -0.0002626112 1.9460756e-05 4.0291307e-05
7.694692e-05 -5.3429743e-05 0.00014106548 -9.273824e-05 0.0001456752 2.2430755e-05 3.12696e-05 0.00031404564
6.205464e-05 0.0006620557 -0.00013702478 0.00022238672 -0.000100606434 6.838298e-05 -2.0800253e-05 -2.3522623e-05

bn5/avg_mean f4 [32]
00000000: a00e b9bd f80a 30be 0cc9 00be 009d 20bf
00000010: f590 093e 242e 74bf ff95 b1be cba1 ed3e
00000020: 3eb6 eebd 9f61 5e3e 212b 73be d39a d0be
00000030: f92d 253c 40ab bdbe 248c 34be 6040 c5bd
00000040: f064 ea3e b774 0fbe 0e92 4fbf 55e6 61be
00000050: 2afc 9ebc 79b9 07bf 6969 cebe cbe3 403f
00000060: 201d 1ebe 623e 453f d5e7 85be 44b8 15bf
00000070: ad0a 6bbe ac6f 1a3d fd62 d6be 637c 96be
-0.090359926 -0.17191684 -0.12576693 -0.62739563 0.13434203 -0.95382905 -0.3468475 0.464125
-0.11655854 0.21716927 -0.23746921 -0.40743122 0.0100817615 -0.37044716 -0.17631584 -0.09631419
0.45780134 -0.14009367 -0.81082237 -0.22060521 -0.01940735 -0.53017384 -0.40314797 0.75347584
-0.15440798 0.77048314 -0.26153436 -0.5848429 -0.22953291 0.037704155 -0.41872397 -0.29391775

bn1/gamma f4 [64]
00000000: d8f7 7a3f b087 7b3f 4a0c 813f ec6b 7f3f
00000010: 827d 783f fd37 813f d8f0 7c3f c101 7d3f
00000020: d97a 7d3f 8f08 803f fad8 803f 6c0f 803f
00000030: ac3c 7e3f 1e22 803f a187 7c3f 514e 823f
00000040: cfa8 7a3f 6fbd 7b3f 2cb1 7e3f 8b24 823f
00000050: dfe4 843f 97f9 803f 09b1 803f 8532 7f3f
00000060: 82d3 813f fa4e 803f b53b 7b3f 93e4 7e3f
00000070: 736a 793f 3efb 7e3f 4dc7 743f 1d0c 7d3f
00000080: 2557 7b3f 2c53 813f 7549 793f 53c0 7d3f
00000090: 772a 803f 6299 873f 2414 813f 275d 823f
000000a0: ddc6 7b3f 3e93 793f c29f 803f 8989 7a3f
000000b0: 41f2 803f 3841 7a3f 1672 803f 188d 803f
000000c0: 4df7 7a3f d4fc 7d3f 0296 7c3f 9f91 803f
000000d0: 793d 7d3f 3d9b 773f ac2a 7d3f 7a9f 833f
000000e0: 81b8 7a3f 848b 773f 702b 7b3f d6d0 7c3f
000000f0: 3f2b 7a3f 3118 823f b237 783f 7ede 7b3f
0.9803443 0.9825392 1.0081875 0.9977405 0.9706651 1.0095211 0.98805 0.988308
0.99015576 1.0002612 1.0066216 1.0004706 0.9931133 1.0010412 0.98644453 1.018015
0.9791383 0.9833593 0.9948909 1.0167402 1.0382346 1.0076169 1.0054027 0.9968646
1.0142672 1.0024102 0.9813798 0.99567527 0.97428054 0.99602115 0.9561661 0.9884661
0.98179847 1.0103507 0.9737771 0.9912159 1.0012959 1.0593684 1.0084271 1.0184678
0.98350316 0.974903 1.0048754 0.9786611 1.007393 0.97755766 1.0034816 1.0043058
0.980336 0.9921391 0.98666394 1.004444 0.98921925 0.9672125 0.9889324 1.0283043
0.9793778 0.9669726 0.98113155 0.9875616 0.9772224 1.0163633 0.96959984 0.9838637

conv1_3/b f4 [64]
00000000: e953 9cb7 7df1 c637 9264 58b7 cea6 b7b7
00000010: 272d 3538 4e95 1a37 5326 ddb8 59a9 dc36
00000020: 43fe 3338 e098 d737 7154 7a37 5dae 4c38
00000030: 7de4 d537 2d42 8138 8760 9fb8 66ae 01b9
00000040: e411 eeb6 21a8 0939 f0ef 6837 25f2 2a38
00000050: 30f5 eb37 db80 c438 f2e7 02b8 19cf 8936
00000060: 34c4 aa37 54e4 c737 38f8 1538 16bd 5238
00000070: 309d 18b7 ccb9 2d37 1923 04b8 a776 ea38
00000080: 6cde d3b6 07e1 a7b7 0e3a 04b8 d319 d6b7
00000090: d3ad cc38 0bd1 08b7 f024 0eb6 9fef a0b6
000000a0: a753 a1b7 7891 eb38 8302 4b38 418a 87b7
000000b0: 82f1 dab7 7447 a8b7 8d23 b6b8 069b e8b7
000000c0: 1a34 d6b8 a07a 02b8 a269 d3b7 8143 23b8
000000d0: 5619 4836 47c5 2ab8 d928 11b8 519c 0738
000000e0: 7771 9538 5cca 6cb7 a69c ceb8 1416 5db7
000000f0: a322 d8b7 d17e ac37 3c35 c1b7 44b0 9f38
-1.8635723e-05 2.3715891e-05 -1.2898019e-05 -2.1892974e-05 4.3195814e-05 9.213878e-06 -0.0001054524 6.5762256e-06
4.2913725e-05 2.5701185e-05 1.4920822e-05 4.879978e-05 2.5497977e-05 6.1635255e-05 -7.5996904e-05 -0.00012367367
-7.0950355e-06 0.00013127971 1.3884142e-05 4.0756673e-05 2.8128357e-05 9.3700095e-05 -3.121043e-05 4.1070275e-06
2.0356943e-05 2.3828972e-05 3.575554e-05 5.0244e-05 -9.096504e-06 1.0354863e-05 -3.150394e-05 0.0001118009
-6.3141833e-06 -2.0012738e-05 -3.152532e-05 -2.5522813e-05 9.759855e-05 -8.154903e-06 -2.118115e-06 -4.796267e-06
-1.923165e-05 0.00011232769 4.840131e-05 -1.6157634e-05 -2.6100086e-05 -2.0060434e-05 -8.685058e-05 -2.7728744e-05
-0.0001021402 -3.110862e-05 -2.520235e-05 -3.8925096e-05 2.981707e-06 -4.0714887e-05 -3.4608736e-05 3.233209e-05
7.126008e-05 -1.4113812e-05 -9.8520235e-05 -1.3177767e-05 -2.5765336e-05 2.0563051e-05 -2.3032182e-05 7.614543e-05

bn2/avg_var f4 [64]
00000000: aa4d d23e 5c39 363f a68a da3e 5d2e 193f
00000010: 8bb9 1e3f 9b20 d73e f2d4 f13e c1c6 cf3e
00000020: 33a8 d63e b485 da3e f28f 083f c258 f63e
00000030: 1b1a e63e 6bb1 df3e bb39 8c3e cf78 283f
00000040: 97dd 153f bdd3 b83e 3deb d13e a41b 8b3f
00000050: 948e ae3e 3c0a b83e 4ce1 c03e 2d7c 013f
00000060: 5a65 da3e 5e29 bb3e 13f0 243f c6dc 3f3f
00000070: d78c 213f a68d 263f b245 043f 7482 b53e
00000080: 3603 563f 1b9d 473f b9d7 0f3f 7265 1f3f
00000090: f38e c13e b289 993e ad06 1f3f a267 923e
000000a0: 5cc4 d83e aea8 8b3e f824 133f e2ea 083f
000000b0: d111 093f f750 dc3e 6a30 033f bdeb c23e
000000c0: a472 153f 0488 073f 6d02 3c3f f195 bd3e
000000d0: 0bcb ce3e 1b62 f93e 06b3 c03e 8e79 383f
000000e0: ff36 003f b601 f73e 14ac 283f fa6f cc3e
000000f0: 449e 9e3e 825f f53e 85b0 083f 82b6 fc3e
0.41074878 0.71181273 0.42683905 0.5983637 0.62001866 0.42017063 0.47232777 0.40581325
0.419252 0.42680132 0.53344643 0.48114592 0.44941792 0.43690047 0.27387795 0.6580934
0.58541244 0.36099043 0.40999785 1.086781 0.34093153 0.35945308 0.37671888 0.505801
0.4265545 0.36554998 0.64428824 0.7494625 0.6310553 0.6505989 0.51668847 0.3545109
0.8359865 0.779741 0.5618854 0.6226417 0.37804374 0.29987866 0.6211956 0.2859469
0.4233731 0.2727713 0.57478285 0.534834 0.5354281 0.4303052 0.5124575 0.3807048
0.5837805 0.5294192 0.734412 0.3702846 0.40389284 0.4870766 0.37636584 0.7206048
0.5008392 0.48243493 0.6588757 0.3992918 0.30980122 0.4792443 0.5339435 0.49357992

bn2/gamma f4 [64]
00000000: a07c 833f e6eb 773f b8c5 783f fb0f 7c3f
00000010: 8ff4 7e3f 0bb9 823f 8ac7 7e3f 30be 773f
00000020: 71ca 7a3f 82b0 7c3f 5a98 7a3f cbbe 823f
00000030: 991c 7d3f c328 803f bf05 803f 580b 7e3f
00000040: b01c 793f 1eff 7d3f 5c1b 7b3f 364f 7c3f
00000050: 52c1 833f e6d3 7c3f 0437 803f 7ffb 803f
00000060: 1fca 813f d32c 853f 12a1 783f ae17 803f
00000070: f6ac 833f c7a7 783f 9062 7e3f 239f 7f3f
00000080: e531 7b3f 883e 7f3f 585d 7d3f 3bc0 823f
00000090: 7661 7e3f 56de 7d3f 2559 793f 421d 783f
000000a0: f177 813f a096 7e3f 8323 7e3f 8f66 7f3f
000000b0: 1bb0 803f c877 803f e1f6 813f a233 813f
000000c0: 1d90 7e3f c9a3 823f 985a 7e3f 5362 823f
000000d0: ed49 783f fc5b 843f 838d 7e3f 118f 7a3f
000000e0: 7c84 803f 4110 7e3f 1168 793f bf49 8a3f
000000f0: 0090 7d3f 05d7 803f b65b 773f 09f8 823f
1.0272408 0.9684433 0.97176695 0.98461884 0.99591917 1.0212721 0.9952322 0.9677458
0.9796515 0.9870683 0.9788872 1.0214475 0.9887176 1.001244 1.0001754 0.9923606
0.973094 0.992174 0.9808862 0.98558366 1.0293372 0.9876083 1.001679 1.007675
1.0139807 1.0404304 0.97120774 1.0007226 1.0287158 0.9713101 0.99369144 0.998522
0.9812301 0.9970479 0.98970556 1.0214914 0.99367464 0.9916738 0.9740165 0.96919644
1.0114728 0.99448586 0.99272937 0.99765867 1.0053743 1.0036554 1.0153466 1.0093882
0.9943865 1.0206233 0.99356985 1.0186256 0.969878 1.0340571 0.9943468 0.9787455
1.0040431 0.9924355 0.9742442 1.0803756 0.9904785 1.0065619 0.96624315 1.0231944

conv1_1/b f4 [64]
00000000: 25ce 3338 33cc 0738 bf90 cb38 4805 4737
00000010: 4d3e aab8 375e a038 af58 cbb8 2d54 bf36
00000020: fd88 adb9 f49a 82b8 f298 e637 f66b 2a35
00000030: 37ec 2838 4392 4638 457c d5b8 b58b d9b7
00000040: 8069 a038 6b29 fd38 b73d 99b8 b70c acb8
00000050: 4a7c 3b38 bb36 8a37 4252 cbb7 be7f 1439
00000060: bacd 3938 3e93 2638 ad21 9d37 6044 1f38
00000070: c584 a938 6560 db37 a01d e838 f6bd 85b8
00000080: 0e55 d138 f57f 2338 2afc 16b9 7977 b7b8
00000090: 9db5 34b9 65d3 80b7 a027 2db8 6779 9a38
000000a0: 3bf2 8337 eabb 3339 83e5 c7b8 17cd 4436
000000b0: 29df b8b8 6976 ee37 f560 2938 3e09 d436
000000c0: 7e2f a537 48e9 48b6 0554 c838 616e e137
000000d0: b263 cd37 054f a8b8 e1d3 a6b9 3bbf 9237
000000e0: 0a16 0b38 7f98 2d38 6122 1638 741f 4838
000000f0: 6fd2 2838 48ab 6bb8 01e9 39b9 6b1c 9e36
4.2868913e-05 3.2376684e-05 9.7067554e-05 1.1862554e-05 -8.117836e-05 7.6469434e-05 -9.696313e-05 5.702043e-06
-0.00033099196 -6.227745e-05 2.7489357e-05 6.348704e-07 4.0274314e-05 4.7343096e-05 -0.000101797785 -2.5933472e-05
7.6490454e-05 0.00012071695 -7.307104e-05 -8.2039674e-05 4.4700028e-05 1.6476368e-05 -2.423779e-05 0.00014161968
4.4299035e-05 3.9714614e-05 1.873154e-05 3.7972233e-05 8.083278e-05 2.6151722e-05 0.0001106814 -6.377317e-05
9.981739e-05 3.8981398e-05 -0.00014399053 -8.7483735e-05 -0.00017233794 -1.5357227e-05 -4.1283318e-05 7.365905e-05
1.5729214e-05 0.00017140774 -9.531809e-05 2.9325654e-06 -8.8153705e-05 2.842695e-05 4.0383038e-05 6.3191683e-06
1.9691648e-05 -2.993811e-06 9.552393e-05 2.687349e-05 2.4484329e-05 -8.025583e-05 -0.0003181985 1.7493605e-05
3.3160708e-05 4.1388437e-05 3.5794805e-05 4.771301e-05 4.0250303e-05 -5.6187884e-05 -0.00017729776 4.712075e-06

bn1/avg_var f4 [64]
00000000: b5f9 fe3d bac6 b23e 9305 1c3e aab6 a13e
00000010: 4260 c13e 786c 6e3e 7c78 a13e 18d7 b43e
00000020: 5482 023e 50d4 783e 7340 dc3e f382 c33e
00000030: 862c c23e aa0d 363e 63fe 383e a832 cf3e
00000040: cc27 eb3d ea28 ff3e c46a b23e ae5b 5a3e
00000050: 7ab5 813e afda 853e d879 8d3e ef0a 193e
00000060: e136 813e 4b4c 533e d6bf 423e 52ee ab3e
00000070: 7b81 693e 47f2 043f 03b8 d93d 6733 a23e
00000080: 62ac e13d d84f a83e e37b 5e3e f45b 873e
00000090: 1f78 693e e076 0d3e 2aee ba3e dca6 ae3e
000000a0: ae76 7b3e 5753 bb3d cb47 f13d e46d 4d3e
000000b0: 23f6 d03d 9a87 2d3e dfb2 003f 6de5 4c3e
000000c0: a482 a73e 3ee3 dc3e 972c 413e 97eb 073e
000000d0: e841 ca3e 0002 7d3e ee63 213e 6af4 d83d
000000e0: a862 6c3e fcdc b53e 4467 093f 96bc f23e
000000f0: 6107 203e 1a40 773e 7cb0 913e 8c69 183e
0.124499716 0.3491724 0.15236501 0.31584674 0.3776875 0.23283565 0.31537235 0.35320354
0.12745029 0.24299741 0.4301792 0.38185844 0.37924594 0.1777865 0.18065791 0.40468335
0.114822 0.49835902 0.3484708 0.21324036 0.25333768 0.26143405 0.27632022 0.14945577
0.25237182 0.20634572 0.19018492 0.3358026 0.22803299 0.51932186 0.106308006 0.31679842
0.110192075 0.32873416 0.21726947 0.26437342 0.22799729 0.13814878 0.3650983 0.3411168
0.24556991 0.09146755 0.117812715 0.20061451 0.10203197 0.16946259 0.50272936 0.20009394
0.32716858 0.43142122 0.18864666 0.13273464 0.39503407 0.24707794 0.15760776 0.10593493
0.2308451 0.3552016 0.53673196 0.47409505 0.15627815 0.24145547 0.2845496 0.14884013

bn2/beta f4 [64]
00000000: 561b e03c f618 91bc ca66 5dbc 16a3 8a39
00000010: 2fbc 083c 3426 c43c 7f8e 433c b0cb a1bc
00000020: 8896 87bb 3bcf 1bba 43f2 593c 9eab e13c
00000030: 093d d7bb bfca 353d 092f ef3b dbd8 873b
00000040: d61f 82bc ee07 cb3c 6834 d23a e01f 9a3b
00000050: b029 aeb7 36fe efbb c3b7 93bc c541 f43c
00000060: 39b9 0e3d 7053 243d 4c07 02bc 159e b43b
00000070: cf03 333d 1c32 7bbc 767c a13c cc7b 963c
00000080: e493 26ba b423 473c 4d0c b0ba 9d10 51bc
00000090: c22f 9a3c f1ec e83b ae77 e7bc 1303 143c
000000a0: 818e c43c 96b5 0fbb 47b6 f33a e717 833c
000000b0: 1cd7 98b9 4435 343c 6a05 a03c 9d65 813c
000000c0: 2cba 273c 3092 103d 7768 8dbb bb73 6a3c
000000d0: 84b6 f4bc a235 4e3c c62e 7fbb 7962 d4bb
000000e0: 4615 e73c 0c20 663a 5673 89bb d0ca ebbc
000000f0: 5abf 263c ce9a 0ebc f1a9 e3bc 53f3 cb3c
0.027356785 -0.017712098 -0.013513276 0.0002644292 0.008345648 0.023943998 0.011935829 -0.019750446
-0.004137818 -0.00059436605 0.013302389 0.027547654 -0.0065685553 0.044382807 0.007299308 0.0041457242
-0.015884321 0.024784055 0.0016037347 0.004703507 -2.0761829e-05 -0.0073240055 -0.01803196 0.029816518
0.03484461 0.040118635 -0.00793631 0.005512009 0.043704804 -0.015331771 0.019712668 0.018369578
-0.0006354435 0.012154508 -0.00134314 -0.012760309 0.0188216 0.0071083237 -0.02825531 0.009033936
0.023993732 -0.0021928302 0.0018593752 0.016002608 -0.00029151968 0.010999028 0.019533832 0.015795523
0.010237258 0.035295665 -0.0043154317 0.014309819 -0.029872186 0.012586029 -0.0038937791 -0.0064814654
0.028208386 0.0008778579 -0.0041946573 -0.028783232 0.010177458 -0.0087039005 -0.027790995 0.0248963

bn4/gamma f4 [32]
00000000: 4a2d 803f bc01 903f 1019 823f 251b 873f
00000010: 384c 863f 6608 8c3f 8feb 8b3f 5757 8a3f
00000020: 5648 843f f4ce 8c3f 0bbb 8a3f 06da 853f
00000030: 78e1 863f b5ae 823f 898a 8a3f aad0 833f
00000040: 2b58 8e3f 59c2 873f a04d 8e3f 8f71 8b3f
00000050: ee68 873f 02b3 8b3f 8d55 873f 018f 853f
00000060: 06eb 853f 58b4 863f 717b 903f 825c 893f
00000070: 850d 8e3f 8fc5 833f df3d 8d3f 0913 863f
1.0013821 1.1250529 1.0163898 1.0555159 1.049201 1.0940063 1.0931262 1.0807904
1.0334575 1.1000657 1.0838331 1.045716 1.0537558 1.0209566 1.0823528 1.0298054
1.1120657 1.0606185 1.1117439 1.089403 1.0578897 1.0914004 1.0572983 1.0434266
1.0462348 1.0523787 1.1287671 1.0731356 1.1097876 1.0294665 1.1034507 1.0474559

conv1_7/b f4 [2]
00000000: f716 2c3d a7b1 cb3b
0.04201409 0.006216246

conv1_6/W f4 [32, 32, 3, 3]
00000000: c81e b8bc 461c 2ebc b33f 3b3d 99a0 04bb
00000010: 8f82 b8bc 50b3 c33d c5a0 c33c 6508 e7bb
00000020: 8f9f 523d 67f2 cc3d f892 9fbd bf42 a53d
00000030: b4b0 ebb8 871a ddbc 8266 d13c 9501 403b
00000040: 07bd a73b 4199 e6ba 6f62 953d fcc5 8cbc
00000050: 953e 833d 4745 a03c 6d95 d33d 37b0 773c
00000060: 6aba 2abd c511 5c3c 53a5 2cbd 8857 4abd
00000070: 4bc7 2e3c 0886 c83b ce9b 7dbd 98f5 b93d
00000080: ac4c aa3d 244b 1dbc 20fc fe3c a37b b63d
00000090: 3b09 d0bc 6fad 55bd d6fa 79bd 5cd3 a8bd
000000a0: 6d88 5b3b 568c 9abd c8f5 dabc 5f2a 82bc
000000b0: 6526 80bd b3d8 d3bd 838d bdbd 93d9 1fbc
000000c0: 7fb2 afbb f953 30bd d543 96bd 2836 c139
000000d0: 0926 3dbd 73d0 80bd 355f 9a3d c2f0 38bc
000000e0: df12 5ebd 28f7 7abd 5167 41bd ffdf 82bd
000000f0: 7846 48bc b6a7 56bd 3208 1dbc 573e 3fbd
00000100: 6bf9 ef3d 4ba5 b53c 7017 f3bd bf7b 14ba
00000110: d223 febc d5f5 753d 5002 c6bd 968a 3b3d
00000120: ac7c 92bc 9175 333c 97f8 b13d 69ee f93a
00000130: 868e 94bd 72e5 8ebb 8680 ae3c 083a 663d
00000140: 5f9b 9abd 00dc 823d 3d9e 84bd 1818 e63c
00000150: a396 673c def7 773d cf2e 0c3d eb78 e23c
00000160: 7804 02be 1a1e a2bd 090a 903b f900 8d3c
00000170: 9ac5 47bd 0c01 abbc ec3f d2bc 31f7 20bd
00000180: 1bfb 3e3c 9aa7 6b3d e33c 0bbd ce28 a0bb
00000190: 8f93 d7bd 41ce cb3c d2ae 803d fdc6 4a3d
000001a0: f392 7d3c 9074 b53c e527 c03d 3a3e 9cbc
000001b0: 6e1b 46bc 99ca 8e3d 5ed3 09bd 1711 093e
000001c0: 2d97 b9bb a3a1 3d3d 9907 813d a8bc da3a
000001d0: 81ef 563c 900d 07be 506f 5f3d 53dc e43c
000001e0: c455 67bd 181d bbbd 12d4 aabd 6817 7a3d
000001f0: b11c 303c b5c6 b5bd ace9 26bc a10d 12bd
00000200: dcbd 2bbd d9f3 ddbb b5e4 8d3d f0b5 74bc
00000210: 0fc7 19bd 45e6 b93c 033f eabc 8462 7dbc
00000220: 2640 0cbd b473 35bd 34a1 d2bd a289 86bd
00000230: 99c8 083e 128c 06bd 1459 993b 9c56 85bd
00000240: e8dc 9e3d e06e c5bc c717 61bd 99bf b73c
00000250: 246c 113d d9ac b1bd 271b e7bd d920 c3bd
00000260: b118 723d c138 3d3d a48c d8bd 8c56 5e3d
00000270: ed18 3b3d 3401 f7bd 9ac8 b03d e1c9 cd3c
00000280: 7a0e 323c b63e 593d 3803 71bd 7c69 fbbb
00000290: 9bc1 213d cd86 ae3d 0be9 75bd 0dfd 063d
000002a0: c43f bdbc 9601 5bbd 5e37 ed3c 7dac f23c
000002b0: 95ca d13d 3ffa ef3b 78b0 683d 4a98 09bd
000002c0: f825 a8bc e25b 453d a2cb af3d d22b afbc
000002d0: aeca 7abd f2f4 063d 30dc 48bd 411f 4e3d
000002e0: 9e8a 15bd 7847 9fbc 589b 4e3d 295e e0bc
000002f0: bf9e f9bc 152f 49bc 21eb 38bd d768 bbbc
00000300: c0bf 49bc b8d3 adbd 8b4a 78bd 30fa a0bd
00000310: d9c5 e83d 6a74 a53d 416f 673d f872 b13c
00000320: 1eb5 d5bc 3c96 f73c b335 0f3d 0443 a0bc
00000330: 838b 78bd a291 b23c 92b4 e8bc 2ee1 693d
00000340: 6563 21bd 012d 16be b454 433d fd1f 143c
00000350: b86a 7d3d f6bf 783d 68b5 de3b 8643 c0bd
00000360: a848 a5bd 07cd 8dbd bf97 c5bd 5b55 143d
00000370: e62b 143d 9446 453d bcd2 aebc 45b5 bebd
00000380: d39d ca3d 6f01 19bd 08f4 aa3d 8f53 003c
00000390: 0013 813c 1d11 a33c fbfc 7cbd 59d7 3d3d
000003a0: cc5e 513c baaf 873d b860 07bc b134 913c
000003b0: 6bc0 db3d c6ff 333d 98b3 29bb 64fc 5abd
000003c0: 08dd 553d 7708 d33c 3205 183d 610e 093d
000003d0: 8a17 e5bd 102d d43d 3530 ea3c c9be 9ebd
000003e0: 27cf 82bd df86 793d ee2d 663d 9007 883c
000003f0: 3ca2 633b fa58 4c3d 8bed 953c 1057 fabd
-0.022475615 -0.010626858 0.045715045 -0.0020237325 -0.022523193 0.095556855 0.023880372 -0.0070505613
0.0514217 0.10007172 -0.07791704 0.080693714 -0.00011238587 -0.026990188 0.025561575 0.0029297818
0.0051189694 -0.0017593281 0.07294165 -0.01718425 0.06408421 0.019564284 0.10331235 0.0151176965
-0.041681685 0.013431971 -0.042149853 -0.049399883 0.010667632 0.0061194934 -0.061916165 0.090800464
0.08315405 -0.009600434 0.031126082 0.089103006 -0.025395026 -0.052167352 -0.06103023 -0.082434386
0.0033498064 -0.07546298 -0.026728526 -0.015889345 -0.06257323 -0.103440665 -0.09255507 -0.009756464
-0.0053618546 -0.043048833 -0.07337157 0.00036852178 -0.04617885 -0.062897585 0.075376906 -0.01128787
-0.054217216 -0.061270863 -0.04721767 -0.0639038 -0.012223832 -0.052406035 -0.009584473 -0.04669031
0.117174946 0.022173544 -0.11869705 -0.00056641916 -0.03102294 0.060048897 -0.0966841 0.045786463
-0.017881714 0.010953323 0.08689993 0.0019068244 -0.07253747 -0.004360848 0.02130152 0.056207687
-0.07549166 0.06389618 -0.06475494 0.02808766 0.014135036 0.06053912 0.034224328 0.027645549
-0.12697017 -0.07915898 0.0043957275 0.017212378 -0.048772432 -0.020874523 -0.025665246 -0.03929824
0.011656548 0.057532884 -0.033993613 -0.004887677 -0.105261914 0.024878623 0.06283344 0.049506176
0.01547693 0.022150308 0.09382609 -0.01907264 -0.012091501 0.06972236 -0.03364884 0.13385426
-0.0056637735 0.046296727 0.06300277 0.0016688304 0.013118626 -0.13188767 0.054549515 0.02793709
-0.056478277 -0.091364086 -0.083412305 0.06105748 0.010749028 -0.08875791 -0.010187548 -0.03565753
-0.04192911 -0.0067734537 0.06928388 -0.014935955 -0.037543353 0.022692809 -0.0285945 -0.0154653825
-0.034240864 -0.044299796 -0.10284653 -0.0656922 0.13357772 -0.032848425 0.0046798084 -0.0651066
0.07756978 -0.02410072 -0.054954316 0.022430228 0.03550352 -0.08675546 -0.11284476 -0.095277496
0.05910558 0.046196703 -0.105737 0.054281756 0.045678068 -0.12060776 0.08632012 0.025120677
0.010867709 0.05303832 -0.05884096 -0.007672487 0.039491277 0.08521805 -0.0600367 0.03295617
-0.023101695 -0.05346831 0.028957065 0.029623264 0.102437176 0.007323533 0.05680892 -0.0335925
-0.020525917 0.04818333 0.08583762 -0.0213832 -0.061228447 0.03294844 -0.049038112 0.050322775
-0.03650915 -0.019443259 0.050441116 -0.027388649 -0.030471204 -0.012279292 -0.04514611 -0.02287714
-0.012313783 -0.08487648 -0.060617965 -0.078602195 0.113658614 0.08078845 0.056502584 0.021661267
-0.02608734 0.030223005 0.03496332 -0.019563206 -0.060679924 0.021797959 -0.028406415 0.057099514
-0.03940143 -0.14665605 0.0476882 0.00904083 0.061869353 0.060729943 0.0067965277 -0.09387879
-0.08070499 -0.069238715 -0.09648084 0.036214214 0.036174677 0.04816301 -0.02134072 -0.09311918
0.09893384 -0.037354883 0.083473265 0.007832422 0.01575613 0.019905621 -0.0617647 0.04634795
0.012778949 0.06625314 -0.008262806 0.01772532 0.1073006 0.043945096 -0.00258944 -0.053463355
0.052212745 0.025760872 0.03711433 0.03346098 -0.1118613 0.103601575 0.02858744 -0.07751233
-0.063871674 0.06091964 0.056196146 0.016605169 0.003473415 0.049889542 0.018301746 -0.12223637

conv1_4/W f4 [32, 64, 3, 3]
00000000: daef 9b3b 21ef 7ebd ba05 86bd 3012 0f3d
00000010: 80d2 843d e604 23bb b00e cc3b edcd 9dbc
00000020: 4b44 223b 028f 28bd e503 bfbd 0633 92bd
00000030: 5a72 c0b9 584f 9d3d 6363 363c c123 59bc
00000040: d9e9 9f3d 0849 b53d 684d 9b3d bf19 d2bc
00000050: bf6b 26bc bfe2 943d 2cda f53b 255a 803d
00000060: 1eb8 f5bc 3957 b6bc 5b8d b83d d069 313c
00000070: 9fa3 c7bd caf7 47bd 54cc 543c 48f3 73bd
00000080: 4e31 19bd 04d6 2cbc 729b 59bc 61c8 11bd
00000090: 47ed 94bc a87e 073d 8ceb 9d3a 9ea6 8bbc
000000a0: c47a 3ebc bb1b e8bb c53b ad3c f2ea 23bc
000000b0: d78d 853d 2a01 70bd e56a 88bd 1206 453b
000000c0: 6523 303b 7f7c 80bd 03b9 4e3d e83a 623c
000000d0: 1811 c83b 7e10 fabc f1d6 413c afd0 473d
000000e0: 4441 473d 89d2 c5bd 2b22 d8bb 6cb9 533d
000000f0: a2a2 c7bc c315 903b e796 a3bc dbc2 3c3d
00000100: 66b5 cbbb 0db0 7839 21a8 9e3d 3723 d83c
00000110: 07b4 4dbc 762c 963d 8dad 39bd c0a2 10bd
00000120: b608 293c d3c7 4fbd 5ae1 1bbc 7b6b 2d3c
00000130: 5965 f7bc f698 b5bd 805c 2ebd aaf0 0c3c
00000140: 0e1f 5a3d e81e 4e3d 20f1 a03c fa31 df3c
00000150: 4c80 60bb f5d5 f13c 4e68 d6bd 07ef 3d3c
00000160: 5c70 c5bd b767 65bd d600 24bd ed83 4ebd
00000170: 29e4 813c ee1c 1c3d 40e2 6ebd 193b 2dbd
00000180: 8b05 edbc b243 0c3b c2e2 edba 0972 ad3d
00000190: affc c63b b2bc 40bd bbbc 273c 9388 90bd
000001a0: 1016 623c b754 a4bc 400a 633c c501 7d3b
000001b0: 8334 323d eddc 7d3d 2f89 1d3d 4e6a f5bc
000001c0: 04d7 74bc 5996 053b 99bc a73d 5948 783d
000001d0: 82fb a1bc 5295 0f3d 314b 823d 7370 d9bb
000001e0: 3e9f 743d 8848 89bd 1505 b1bb cec9 8f3d
000001f0: d10b 4f3b 385e 0bbd 0c25 1c3b a753 73bd
00000200: 1cb8 133d 9167 d63d 5a46 963c 3f05 e2b9
00000210: 27b9 88bd e155 8fbd 08f2 903d 02b3 b0bd
00000220: e77e 4a3d 3ae5 7bbc 9acf abba 495f 893b
00000230: 36ac 85bb 1de3 93bd 191a 1bbb 5898 d1bc
00000240: 1264 0dba 6916 80b9 607b 44bd 6a29 d43c
00000250: f471 263c e31b 2b3d 181c 4abd 546d 53bd
00000260: e05d 4dbd 1e55 93bd 0608 79bd 377d 943c
00000270: d8b2 0e3c a2e0 acbc 07de 22be 9d96 163b
00000280: 2ab1 913d 7019 d839 7510 013b f26d 023d
00000290: bc35 39bc 4352 613d 8475 2bbc 4f34 87b9
000002a0: 69ba b8bc 82c0 053d f772 4c3d d60f 03bd
000002b0: a88f 933d 08e1 c23b 85ae 4c3d 14b1 7f3d
000002c0: f7b5 f03c 4c7a eabc e2ff 8fbd 9d41 b73c
000002d0: d12c 61bd a49f a1bb dd59 a5bc 1ead ecbc
000002e0: 1d6f 933c ca29 87bd fb86 3c3b eccf 1fbc
000002f0: 6f16 163b 3910 923d 5c76 d83a 985c 2c3b
00000300: 1299 7fbc a12c e3bb 73e1 a03c f0f0 85bc
00000310: a15c bcbc f155 fabb ad0a e43c 3eb1 993c
00000320: 3700 bbbc c0cf 843c e4a6 163d 666c d23c
00000330: 1c56 9cbd 2435 263d 32f9 003e 806c 243d
00000340: 1739 7cbc 793f adbc db10 0bbd ccef 09bd
00000350: 338f 7dbc 500b 24bd fe84 54bc aec5 73bd
00000360: f11a 12bd 4fe9 bd3c 8ece 94bc 9846 35bd
00000370: 725c 233d 5a5d 593d 5a18 023c caae 293d
00000380: 4a56 393c faa3 573b d0e0 16bd 9284 8abc
00000390: 46e5 3ebd 579b 17bd 5268 6ebd a106 c33c
000003a0: b45c 9bbc 4797 8f3a 678a afbd 233d 4ebd
000003b0: 13dc 25bd 290a cdbb 644f d53c 087b 0fbb
000003c0: 0177 6bbc 03d7 413c 8d64 1abc 2ac5 aa3c
000003d0: 2999 333d 6e06 4d3d 0042 c03d bcfe 463c
000003e0: 7162 a2bb 56e2 a1ba e7a5 b03d c7e9 143d
000003f0: da34 f2bc e1b3 b93c bb53 923b 0936 ac3b
0.004758817 -0.06223977 -0.06544061 0.034929454 0.06485462 -0.0024874746 0.006227337 -0.019263232
0.0024759944 -0.041152008 -0.09326915 -0.07138638 -0.00036706292 0.07681149 0.011132094 -0.013253153
0.07808275 0.0885182 0.075831234 -0.025647042 -0.010157525 0.07269811 0.0075028148 0.06267194
-0.02999502 -0.022258388 0.090113364 0.01082845 -0.09748005 -0.048820294 0.012988169 -0.059558183
-0.037400536 -0.010549072 -0.01328169 -0.035591487 -0.018179549 0.033079773 0.0012048348 -0.017047223
-0.011625949 -0.007083384 0.021146664 -0.010004746 0.065211944 -0.05859486 -0.066610135 0.0030063433
0.0026876566 -0.06273746 0.05046941 0.01380799 0.0061055534 -0.030525442 0.011831031 0.048783
0.048646227 -0.09659297 -0.00659587 0.051690504 -0.024369542 0.0043971254 -0.019969417 0.046084266
-0.0062166927 0.00023716707 0.07746912 0.02638398 -0.012555129 0.07332699 -0.045331527 -0.03531146
0.010317018 -0.050727677 -0.009514177 0.010584707 -0.030199694 -0.088670656 -0.042568684 0.008602301
0.053252272 0.050322443 0.019646227 0.02724551 -0.0034256158 0.029520968 -0.10469113 0.011592633
-0.096405715 -0.056007113 -0.04003986 -0.050418783 0.015855866 0.038113527 -0.058321238 -0.042292688
-0.028933307 0.0021402654 -0.0018149244 0.08469016 0.0060726027 -0.047054954 0.010237868 -0.070572995
0.013799205 -0.020059926 0.013857424 0.003860579 0.04350711 0.06197827 0.038460907 -0.029957917
-0.014943842 0.0020383804 0.08190269 0.06061587 -0.019773249 0.035054512 0.06361998 -0.0066357194
0.059722178 -0.06703287 -0.005402217 0.07020913 0.0031592736 -0.0340254 0.0023825793 -0.05940595
0.036064252 0.104689725 0.018344093 -0.00043109988 -0.0667594 -0.06998802 0.07077414 -0.08627893
0.04943743 -0.015374476 -0.0013108135 0.004192267 -0.004079367 -0.07221053 -0.0023666678 -0.025585338
-0.0005393635 -0.0002443076 -0.047969222 0.025898654 0.0101590045 0.04177464 -0.0493432 -0.051617935
-0.050138354 -0.07193969 -0.060798667 0.018126113 0.008709632 -0.021103207 -0.15905009 0.0022977956
0.071138695 0.00041217683 0.0019693647 0.031843133 -0.011304315 0.05501009 -0.01046503 -0.0002578818
-0.022549825 0.032654293 0.049914327 -0.031997524 0.07205135 0.005947236 0.049971122 0.062424734
0.029383643 -0.028622769 -0.07031228 0.022370154 -0.05497438 -0.0049323607 -0.020184452 -0.028891142
0.017997319 -0.065997675 0.0028766978 -0.009754162 0.0022901555 0.071320005 0.0016514766 0.0026300307
-0.01560046 -0.0069328104 0.019638753 -0.01635024 -0.022993388 -0.0076396395 0.027837122 0.018761273
-0.02282725 0.016212344 0.036780253 0.025686454 -0.076336116 0.040578023 0.1259506 0.040142536
-0.015394471 -0.02114843 -0.03395162 -0.033675954 -0.015476036 -0.04004985 -0.012971161 -0.059514694
-0.035670225 0.02318254 -0.0181649 -0.044256777 0.039883085 0.053067543 0.007940376 0.041426457
0.011312077 0.0032904134 -0.03683549 -0.016908918 -0.04660537 -0.037013378 -0.058204956 0.023806872
-0.018965103 0.0010955118 -0.0857132 -0.050351273 -0.040493082 -0.0062573147 0.026038833 -0.00218934
-0.014371634 0.011831048 -0.009423387 0.020845968 0.043847237 0.05005496 0.093875885 0.012145694
-0.004955583 -0.0012350779 0.08625393 0.03635576 -0.029566217 0.02266878 0.004465548 0.005255465

bn1/avg_mean f4 [64]
00000000: b174 ad3a b280 42bd 524a 8f3d 306e 96bd
00000010: 7260 363d 5e57 803d dead 55bc bfb4 b5bc
00000020: 4676 c03d 4143 803d 9fd1 d2bd 1f02 5fbd
00000030: 7858 a1bd 6084 2abd 8f08 c9bd a664 ffbc
00000040: 889f 01bd 9191 cb3d 1d48 a53c f563 15be
00000050: 5f1e 58bc d22d a1bd cd0f a53d 9454 f1bd
00000060: c850 b23c 88db f9bd 6ca2 85bd bcec 993c
00000070: 5dd1 64bd 9e50 a6bc 54ae 77bd 86bd 93bd
00000080: e1b2 883d ce4c 913d d9ae 9ebd 637c d0bd
00000090: e1e1 1f3d bb0d a4bc 8cb6 b53c 1e43 ec3c
000000a0: d1cd 603d a49b 92bd 2b1f eabd 3ffc 91bd
000000b0: d218 6e3d e99e a9bd 2ca3 66bd e5f3 b9bd
000000c0: 73c7 3f3d 9a0b aa3c 4531 3e3d 21a7 cbbd
000000d0: 6bb4 d4bc 731d a03d a567 0fbe 3e60 6bbd
000000e0: 794d d23c f04a 8ebd 202a c1bc 7f25 193d
000000f0: 4eaf 76bd 2277 04be 369e 8d3d 80cd f7bc
0.0013233629 -0.047486015 0.06996597 -0.07345235 0.04452557 0.06266664 -0.013041941 -0.022180913
0.09397559 0.06262828 -0.10293888 -0.054445382 -0.07878202 -0.04163015 -0.098160855 -0.031175923
-0.03164628 0.09939874 0.020175988 -0.14588912 -0.013190835 -0.07870068 0.080596544 -0.1178371
0.021767035 -0.122000754 -0.0652512 0.018789642 -0.055863727 -0.020302113 -0.060468987 -0.07213883
0.066747434 0.070947275 -0.07748193 -0.10179975 0.039033774 -0.020026078 0.022181772 0.028840598
0.05488378 -0.07158592 -0.11431726 -0.0712819 0.05812914 -0.08282263 -0.056307957 -0.09079722
0.04682107 0.020757485 0.046433706 -0.09943987 -0.025964936 0.07818117 -0.14004381 -0.05746483
0.025671707 -0.06947887 -0.023579657 0.037389275 -0.060225777 -0.1293607 0.06914942 -0.030249357

bn4/beta f4 [32]
00000000: 5627 2dbc b939 083e a8a2 a83c 9af4 463d
00000010: e261 bd3c 6cc6 cc3d f505 e03d 1ece a73d
00000020: c68a 543c fb82 ef3d ec5f df3d ff24 863d
00000030: 086e 133d 9198 f03c 0b14 ba3d 9326 363d
00000040: 32b6 ef3d 0d16 383d 3fad d03d 8fe7 b33d
00000050: 2e86 993d 6d87 d43d 83f1 903c 7e67 063d
00000060: 21ef 6b3d 8b0b 633d 5fec 1d3d 3909 d03d
00000070: d9cc 0a3e 84ab ff3b a882 af3d 260b e03d
-0.01056846 0.1330327 0.020585373 0.048573114 0.023117963 0.099987835 0.10938636 0.081936106
0.012972539 0.116949044 0.109069675 0.06550025 0.035993606 0.029369624 0.09085854 0.04447038
0.11704673 0.044942904 0.10189294 0.08784401 0.07496296 0.10377393 0.017693287 0.03281354
0.057601098 0.05543093 0.0385555 0.10158009 0.13554706 0.0078024287 0.085698426 0.109396264

conv1_2/W f4 [64, 64, 3, 3]
00000000: 5ede 4cbd befe 9c3d 72d0 b83c 47c3 3c3d
00000010: d1b5 cdbc 4bbe 7abd 819d eb3b 422b 0cbb
00000020: 4c26 babd 4e80 7a3d a0ec 1abb 203c 933d
00000030: af69 b9bc b487 db3c 5124 573d 579b 50bd
00000040: 27ac 4ebd d22f 16bd 1c90 14bc 4242 58bd
00000050: 4f9e 973d 63e4 85bc 443a 1e3d bc7b 083d
00000060: 9113 64bd 4dc2 143d 01b2 b3bd a2e0 2fbd
00000070: 4313 9c3d 65f9 eebc bc4e 8ebc b1e3 adbd
00000080: a47f 4fbd 0fd5 d03c 406a 4f3c 90b4 3ebc
00000090: 89d3 e3bc c53a 393c e138 25bd b6e3 21bc
000000a0: e66b 32bd c138 1abc 7f0c 0b3d fd19 f7ba
000000b0: 6df9 373d 3f27 c7bc b8b6 17bd a8a4 53bd
000000c0: b5a4 b9bb b5dd 1d3b 79ed 9a3c e041 c63d
000000d0: b973 9bbc 67ad 3b3d ff76 f93b 9c91 8a3d
000000e0: db05 143c de91 a9bc 9c3a b1bb 9290 b7bd
000000f0: 9fc2 913d 6e7b 4d3d 8a75 b03b 6f03 45bd
00000100: 15da 12bd e93d 8b3c c935 21bd 382c 99bc
00000110: 0951 473d 5eb9 b5bd 9009 433a a755 61bd
00000120: 84c7 cbbc 7fcf f93c fd5e 633d 60f3 3e3c
00000130: 47a0 54bd 0025 05bd 04ed 423c ba2d b9bc
00000140: 77a8 80bd 1ae4 67bd 9974 77bb 7034 123c
00000150: 3cbc 763d 696a c5bd d30e 373c 4025 433c
00000160: 2d81 7bbd 115d b33d 3fe8 94bc 23cb 90bc
00000170: 0277 01bd a05d 1abd a6fe 0b3d aec8 8f3d
00000180: 90e0 d9bc 4a78 b53c 95d5 4fbc a259 083d
00000190: edb1 113d eeea ecbc 2f3e 463b 0bc3 9abd
000001a0: 63b2 023d 4d95 393d 6f34 f63b f941 4fbd
000001b0: 668f 88bd a44f 8dbd e408 0cbd 16a7 3bbb
000001c0: fde2 553c 01a5 90bd 8ae2 a13d c0e7 27bc
000001d0: 6869 253d 3511 84bd 22a4 78bc 4c2f 9cbc
000001e0: c594 76bd fee6 b7bc d671 11bc 9ab3 97bd
000001f0: cca4 11bd b954 34bd 2448 9dbc d586 153c
00000200: 59f8 8dbd c307 ad3c 0a97 e9bc e6f5 963d
00000210: 352f 63bb 3974 3cbd 7cea ec3d 742f 07bd
00000220: 64cc 56bd b6c1 1dbd 0938 9dbc 6971 1ebd
00000230: 4fdd 36bc c054 84bd 5f01 e5bc 9e6a dbbd
00000240: 4a05 01bc 97f4 18bd fc0d 27bc 949e 26bd
00000250: ec6e 0cbd 6f82 e9bd 96c1 003c 6206 673c
00000260: 6de6 a8bd 84fc 8dbd eeed 193c 4092 16bd
00000270: 8662 393d 0119 20bd af06 d53d 71f0 11bd
00000280: cdf7 94bd a200 04bd c87a 91bc c827 8dbd
00000290: 2216 64bc 2a66 80bc fe08 0bbd 5671 88bd
000002a0: 6bd0 cb3c 7553 7dbc b626 a9bd c55a bdbd
000002b0: 3d86 b2bd c838 54bd 0b71 b7bc be72 543c
000002c0: b3a6 b1bc c05e 84bd ab36 7cbc 44ba 04bd
000002d0: 859b efbc 654a 69bd 783c 94bc 3b4c 3a3c
000002e0: 72c4 02be 6667 1abd 0252 a63c 2f84 6ebc
000002f0: 37bb 5f3b 6974 823d 1422 11bd 0163 2cbc
00000300: 905e 5d3d 7300 35bd 2214 323d 4fc8 233c
00000310: ed8a 4d3b 1d23 563d 9236 a3bd 358b f83c
00000320: e371 303d 3b25 b1bd 645d dabc 9939 f1bc
00000330: 2262 883d 0d5e 403d 6ca4 76bd 55d0 443d
00000340: 98ef 9dbc d6bf 773d 57ac 983b 3573 b2bb
00000350: 547a cbbd e45b b6bc ad37 283c e08c 2d3d
00000360: 8cbb b5bb 9b9e b4bc 187c b93c 6659 873c
00000370: 4adb 433c 5d62 1d3d 005b 8ebd e9d6 82bd
00000380: ec0a 023d 30f2 d3bc cfc4 043d 3b4d a33d
00000390: 0c81 efbc 776a 413d 0b5d 8ebc 8d2e abbd
000003a0: 853d 103c ca30 363d 3793 5fbc f316 133d
000003b0: b7df 7b3a 892d e3bc b722 f03c dc9c cbbd
000003c0: 8bd8 20bd 2638 aa3c 5427 553b 7110 22bc
000003d0: 3f2e 323d 7aef 90bc c847 003d fd03 26bd
000003e0: 1340 0e3d cd53 7b3c 2a46 163d 367f a63c
000003f0: 3101 07bd acfb 173d e7d0 7fbd 8431 35bc
-0.050016753 0.07665776 0.022560332 0.04608467 -0.02511111 -0.061216634 0.007190407 -0.0021388088
-0.09089336 0.061157517 -0.0023639575 0.07189202 -0.022633402 0.026798107 0.05252487 -0.050929394
-0.050457146 -0.0366667 -0.0090675615 -0.052797563 0.07403242 -0.016344255 0.038629785 0.033321127
-0.055682722 0.036318112 -0.08774186 -0.042938836 0.076208614 -0.029171655 -0.017371528 -0.08490694
-0.050658837 0.02549222 0.012659609 -0.011639729 -0.027810829 0.011305516 -0.040337447 -0.009880951
-0.04355993 -0.009412945 0.033947464 -0.001885235 0.044915605 -0.024310706 -0.03703949 -0.0516707
-0.0056653866 0.0024088447 0.018912064 0.096805334 -0.01897608 0.045819666 0.0076130624 0.06766054
0.009034599 -0.020699438 -0.005408598 -0.089631215 0.07117199 0.05016654 0.0053851055 -0.048098978
-0.03585251 0.016997295 -0.039357934 -0.018697843 0.048661266 -0.088732466 0.00074400846 -0.055013325
-0.02487541 0.03049445 0.05551051 0.011654705 -0.051910665 -0.03250599 0.011897329 -0.022604812
-0.06282132 -0.05661402 -0.0037758707 0.008923635 0.060238108 -0.09639437 0.011172968 0.011910737
-0.06140249 0.087579854 -0.01817715 -0.017674988 -0.031607635 -0.037686944 0.0341784 0.070206985
-0.026596338 0.022152085 -0.012685199 0.033288606 0.035570074 -0.028920617 0.0030249467 -0.07556733
0.031908404 0.0453084 0.007513575 -0.050600026 -0.06667976 -0.06899956 -0.034188166 -0.0028633527
0.0130546065 -0.07062722 0.07904537 -0.010248125 0.040383726 -0.064485945 -0.015175851 -0.019065522
-0.06020047 -0.022449013 -0.008877238 -0.07407303 -0.035557553 -0.04402611 -0.019199438 0.009126385
-0.06932134 0.021121865 -0.028514404 0.0737112 -0.0034665589 -0.046009276 0.11568162 -0.03300424
-0.052441016 -0.038514815 -0.019191759 -0.038682375 -0.0111611625 -0.06461477 -0.027954755 -0.10713695
-0.007874796 -0.037342634 -0.010196205 -0.040678576 -0.03428547 -0.11401831 0.0078586545 0.014100643
-0.08247075 -0.06932929 0.009395106 -0.03676057 0.045259975 -0.039086346 0.104016654 -0.035629693
-0.07273827 -0.032227166 -0.017758742 -0.06892353 -0.0139212925 -0.015673716 -0.033944122 -0.06662242
0.024879655 -0.015461792 -0.08259337 -0.092458285 -0.0871701 -0.051811963 -0.02239277 0.01296681
-0.021685934 -0.06463385 -0.015393893 -0.0324042 -0.029248962 -0.056955714 -0.01809524 0.011370714
-0.1277025 -0.037696265 0.020302776 -0.014557882 0.0034138688 0.0636986 -0.03543289 -0.010521651
0.05404526 -0.04418988 0.04347623 0.009996488 0.0031363324 0.05227958 -0.07969393 0.030339817
0.04307736 -0.08649679 -0.02665586 -0.02944641 0.06659342 0.046964694 -0.0602154 0.048050243
-0.019279286 0.060485683 0.0046592164 -0.0054458627 -0.099354416 -0.022260614 0.01026718 0.042370677
-0.005546039 -0.022048285 0.02264218 0.01652212 0.011954138 0.038423885 -0.069509506 -0.06388647
0.031748697 -0.02587232 0.032414254 0.07973715 -0.029236339 0.047220673 -0.01737835 -0.08358488
0.00880373 0.044480123 -0.013645939 0.035910558 0.0009608226 -0.027731674 0.029313428 -0.09942028
-0.03926901 0.020778727 0.0032524662 -0.009891615 0.043501135 -0.017692316 0.031318456 -0.040531147
0.034729075 0.015339804 0.036688007 0.02032433 -0.03296012 0.037105247 -0.062455084 -0.011059169

bn3/gamma f4 [64]
00000000: 6f3e 843f 93fd 823f 7afa 7f3f 78c4 803f
00000010: 9b29 803f 8e6b 833f 57fd 843f e868 833f
00000020: beb5 7e3f 387a 7e3f c07a 853f e6ea 863f
00000030: 5742 7b3f c5c0 843f 355e 7e3f 942d 823f
00000040: 0d90 823f 648d 7f3f 7018 803f 385d 7f3f
00000050: ede4 7c3f be36 8b3f d936 833f e248 7e3f
00000060: 9a80 813f 49bd 823f 8e51 7e3f 29b0 7f3f
00000070: 279f 813f 5041 833f 8332 813f b75c 883f
00000080: 6006 7d3f e391 7e3f 59ec 7f3f 53c1 7c3f
00000090: d7c8 793f f429 7d3f 4876 773f 4012 863f
000000a0: 13a7 7a3f 112a 7b3f 8431 803f 14b9 823f
000000b0: a593 803f e3f4 813f 8bf0 7f3f 9ad2 7e3f
000000c0: 68d3 7e3f c755 823f a20b 823f ef79 823f
000000d0: 839c 853f 00ba 893f b2d3 823f 87c2 7f3f
000000e0: 1587 803f c699 803f d4a4 7a3f fd3e 863f
000000f0: ba03 843f dd72 7f3f 6c73 803f 4586 803f
1.0331553 1.0233635 0.9999157 1.0059958 1.0012697 1.0267198 1.0389813 1.026639
0.99496067 0.9940524 1.0428085 1.0540435 0.981481 1.0371329 0.993625 1.0170159
1.0200211 0.9982512 1.0007458 0.99751616 0.98786813 1.0876081 1.0251113 0.9932996
1.0117371 1.0214015 0.9934319 0.99878174 1.0126694 1.0254307 1.009354 1.0653294
0.9883785 0.99441355 0.9997001 0.9873249 0.9757208 0.9889214 0.9666486 1.047432
0.97911185 0.98111063 1.0015111 1.0212731 1.0045058 1.0152858 0.99976414 0.995401
0.9954133 1.0182427 1.01598 1.0193461 1.0438389 1.0759888 1.0220854 0.999062
1.0041224 1.0046928 0.9790776 1.0487972 1.0313637 0.9978464 1.0035224 1.0040976

conv1_7/W f4 [2, 32, 3, 3]
00000000: 904e ae3d dcdf ce3c 4448 873d a621 3abe
00000010: e178 45bd 054f 9abc caed 333d b3b3 7dbc
00000020: 9c32 0ebd abd3 07bd 6349 58bd 1b48 92bd
00000030: f7bd 173e 4dbe e43d 00bc 01bc 766d 003d
00000040: e755 aabc 7182 133e bd26 0ebc 190d 003d
00000050: a35e 34bd 5c7e a23c 97ec a43d ddcd f9bc
00000060: 602f 733c f0da c73d f180 403e 84a7 2b3d
00000070: 1df3 b93d 0da3 aabc 3d6d 803d efab 863c
00000080: e711 a03d 1cdc 313e 2e84 143e 9569 d53d
00000090: 67b8 a6bd a0aa 04bd c50b 8ebd e74a 7d3d
000000a0: fd7a 343d c255 53bd c59e 4c3d 9489 613d
000000b0: 312e f23d 15d0 0f3e 5519 42bd 2c75 2ebd
000000c0: 001a 403d 0e75 8a3e cf73 ab3d 6861 b23d
000000d0: 337d ec3d ad0d 10bd 4bc2 a83c 7f41 a73d
000000e0: b015 a1bd 49ea 89bb 7e57 513d 1204 8d3d
000000f0: 3d63 f93d eab0 b33d f8df 003d 90e9 293d
00000100: 8298 41bd 9b4b c63d e1c0 e9bc 3f80 923d
00000110: 6623 603d 421b f5bc 060d 4c3d 81ec a4bc
00000120: 67e5 3e3d 62e7 be3c 1394 25bd d598 223d
00000130: a410 33bd cad4 72bd a97a fb3c 42a1 0dbe
00000140: 9dae 023e 7f9e d1bd 1aee a93d 6e85 353e
00000150: 93a0 1b3e 58be 5c3d 9e02 28bd 5503 403e
00000160: f77b eebd 2a4f 2a3e 7d0c a43d 78f2 bc3d
00000170: e84f a43c f47f 3d3e d4c5 b43d 0946 6b3d
00000180: ad5c 8dbd 56ca a73c dc6f 833d 2c6a 103d
00000190: 9a1b b83d 2b84 603c eb83 a93d ead9 90bd
000001a0: fbf9 243d 6f8a f8bc 3dd1 d13c 9479 e33d
000001b0: a4da e43c d4fe cab8 e544 233d e103 803d
000001c0: a488 4f3d fe4e e93d b7c2 25bd 4bf4 f7bd
000001d0: 324c 483d d514 703c cc7e 843d 680e 9b3d
000001e0: 661a 8b3d 9677 a4ba f3d8 b43c c301 213d
000001f0: ba9e 38bc 8245 143d 18eb c03d edaa bb3d
00000200: 4fb0 27be 339c 1fbe 70b8 273d 2bb9 9b3d
00000210: f535 4b3d 20ef c33d 61ee d8bc 3711 4f3d
00000220: 8ec3 283d baa1 5d3d c2c3 223e a646 9d3b
00000230: f690 af3d c235 5ebc 5a53 e8bd bd17 523d
00000240: 0029 d73d 133a 5f3d 48ba fc3d ed52 3f3e
00000250: d8fb 2f3c 78bf 633d 9885 1f3c 8753 cbbc
00000260: e5d5 27be dd90 16bc 4cab 183d 4b90 fabd
00000270: b14d 39bd 386f 423d 9f1e 293d 0f9b 0e3d
00000280: c3fe 333d 6fe1 513d 6e75 673d d1be 543e
00000290: 000f 4a3d b8d0 333d c425 2a3e 0eed adbc
000002a0: 6363 4f3c f16f 103e 1fe2 183d c99f 57bd
000002b0: 6b17 80bc f6f7 cd3d dafd 48bd bf9c 5a3e
000002c0: b7d4 853d 76df 4d3d f226 4c3d c198 9d3d
000002d0: 1d55 d13b eead a73d 1d7c 7a3d 23f7 7b3d
000002e0: 1045 a33d 5758 f23b a414 e93d dffb cc3d
000002f0: 71be 323e a599 a13d d979 743d 35aa 34bd
00000300: 5389 9fbd 4020 023e f864 333e 0b49 af3d
00000310: 74e4 023e 92f6 d53d cc5b 1f38 6cae ac3d
00000320: 50d1 31bd 0f96 843d 0657 06be 954e 073d
00000330: 2a2d d73b d741 5dbd 9b38 5cbc 6862 10bc
00000340: a4ce 46bc a4b3 37bd bec8 a33b ac61 f33d
00000350: 7018 5cbd 7641 4b3d 652d a33c d420 f23d
00000360: b37e 8dbc 44e9 ac3d e334 f03d f2e5 3e3e
00000370: 05f0 fc3d e2de 023d d327 c13d 0d18 753b
00000380: decb 1dbb 93a4 083e a3d2 9a3d 0067 863d
00000390: 2540 083e e840 d33c 5fdd 913d 578b 1c3d
000003a0: b69c 22be 0d1a 69bc 62df 16bd c544 893c
000003b0: 0e13 ae3d 0927 bebd c62f babd a510 9dbb
000003c0: adf9 543d dea4 eebc 3be6 b63d db57 ea3d
000003d0: 05c5 7e3d 6758 e73d 2eea 1e3d 2e2b dd3c
000003e0: ded2 2e3d 306e 533d 6f11 b63d 2687 9c3c
000003f0: e48f 163e 0f43 df3b c3a6 8c3d 3893 a63d
0.08511078 0.025253229 0.066055804 -0.18176898 -0.048210982 -0.018836508 0.043927945 -0.015484738
-0.034716234 -0.033160847 -0.052804362 -0.07142659 0.1481856 0.111691095 -0.007918358 0.03135439
-0.020792915 0.14405228 -0.008676228 0.03126249 -0.044035565 0.019835643 0.080529384 -0.030493671
0.014842838 0.09758556 0.18799187 0.041907802 0.09079573 -0.020829702 0.062708355 0.016439406
0.078159146 0.17369121 0.14503548 0.10420529 -0.08140641 -0.032389283 -0.069358386 0.06183901
0.044062603 -0.051595457 0.049956102 0.055062845 0.118252166 0.14044221 -0.04738744 -0.042592213
0.046899796 0.2704243 0.08371698 0.08709985 0.11547317 -0.035169292 0.020600459 0.08166789
-0.07865465 -0.004208837 0.05110883 0.06885542 0.12177131 0.08773978 0.031463593 0.04148251
-0.047264583 0.09682389 -0.028534355 0.07153367 0.05472126 -0.029920224 0.049817108 -0.020132305
0.046605494 0.023303691 -0.040424418 0.039696533 -0.04371704 -0.059284963 0.030698137 -0.13831046
0.12761922 -0.10235309 0.082973674 0.1772668 0.15197973 0.053892463 -0.04101812 0.18751271
-0.11644738 0.16631761 0.080101945 0.09225935 0.020057634 0.18505841 0.08826795 0.057439838
-0.06902442 0.020482223 0.0641782 0.035257503 0.089896396 0.013703386 0.082771145 -0.07072814
0.040277462 -0.030339448 0.025612468 0.111071736 0.027936287 -9.679576e-05 0.039860625 0.0625074
0.05066742 0.1139202 -0.040468898 -0.12107142 0.04890079 0.014653404 0.06469497 0.07571107
0.067921445 -0.0012547846 0.022076106 0.03930832 -0.011268312 0.0361991 0.094198406 0.09163461
-0.1637585 -0.15586929 0.040947378 0.07603677 0.049612004 0.09567094 -0.026480855 0.050553527
0.04120212 0.054109313 0.15894988 0.0047996817 0.08572571 -0.013562622 -0.11344023 0.05129217
0.10505867 0.054498743 0.12340218 0.18683977 0.010741197 0.05560252 0.009736441 -0.024820102
-0.16390188 -0.009189812 0.037272736 -0.12234553 -0.045240108 0.047469348 0.04128897 0.034815844
0.04394413 0.05124038 0.056508474 0.20775916 0.04933071 0.04390022 0.16615969 -0.0212312
0.012657973 0.14105202 0.03732502 -0.052642617 -0.015636167 0.100570604 -0.049070217 0.21348856
0.06534713 0.050261937 0.04984183 0.07695151 0.00638832 0.08187471 0.06115352 0.061514985
0.07972157 0.007395785 0.1138089 0.10008978 0.1745546 0.078906335 0.059686515 -0.044107635
-0.077898644 0.12707615 0.17518985 0.08558854 0.1278246 0.1044742 3.7994047e-05 0.08431706
-0.043412507 0.06473934 -0.13119134 0.033033926 0.0065666633 -0.054017868 -0.01344123 -0.008812524
-0.012134228 -0.044849053 0.0049982956 0.11883864 -0.053734243 0.049622975 0.019919107 0.11822668
-0.017272329 0.084429294 0.11728837 0.18642405 0.123504676 0.03195084 0.09431424 0.0037398369
-0.0024077813 0.1334403 0.07559707 0.065626144 0.13305719 0.025787786 0.07122301 0.038218822
-0.15880093 -0.014227402 -0.03683413 0.016756425 0.08499728 -0.09284789 -0.09091143 -0.004793244
0.051995922 -0.02913135 0.08930632 0.11442538 0.06219961 0.11296158 0.03879755 0.026998129
0.042681567 0.051618755 0.08890044 0.019107413 0.14703327 0.006813414 0.06867745 0.081335485
