loto6_cnn/model/loto6_20_620.model (npz, 468602 bytes, 38 tensors)

conv1_2/b f4 [64]
-0.000121905374 -8.8802466e-05 5.1287087e-05 -0.00013761564 2.410561e-06 9.358325e-05 -3.845685e-05 -0.00018107273
2.4699682e-05 0.00036445365 -4.1303512e-05 -0.0002050627 1.5773736e-05 1.4758062e-05 -1.3986365e-05 -9.41036e-05
-2.7820692e-05 -1.6304333e-05 2.9379273e-05 -6.46466e-06 8.6800996e-05 5.2545907e-05 1.0914038e-05 -9.8906145e-05
-4.7088583e-05 -1.8806955e-05 -4.863651e-06 -2.3849645e-05 -2.2643331e-05 0.00010591647 1.0577337e-05 -1.704672e-06
1.7775465e-05 -6.624893e-06 -4.8439924e-05 -0.00013098383 8.176945e-05 -0.0001665275 4.766402e-06 -4.0284947e-05
6.837242e-05 -3.161477e-05 2.2712327e-05 -1.2779978e-05 1.3810847e-05 2.423018e-05 3.5339195e-05 -7.99708e-05
-2.444412e-05 3.4235607e-05 5.029373e-05 2.818269e-05 2.0622103e-06 4.6295823e-05 0.00015241398 -0.00017007084
-0.00012336271 -4.1372314e-06 7.080367e-05 1.1273007e-06 2.713078e-06 4.6685684e-05 -9.7730925e-05 -2.6886175e-05
00000000: 73a7 ffb8 763b bab8 171d 5738 eb4c 10b9
00000010: 1fc5 2136 2042 c438 ba4c 21b8 57de 3db9
00000020: 2a32 cf37 2414 bf39 4f3d 2db8 1906 57b9
00000030: d751 8437 6599 7737 fba6 6ab7 7c59 c5b8
00000040: 7b60 e9b7 4ac5 88b7 8273 f637 02eb d8b6
00000050: ee08 b638 bd64 5c38 701b 3737 d56b cfb8
00000060: fb80 45b8 a1c3 9db7 7232 a3b6 b910 c8b7
00000070: 2ff2 bdb7 791f de38 5175 3137 15cc e4b5
00000080: 851c 9537 664b deb6 f92b 4bb8 b458 09b9
00000090: a47b ab38 e39d 2eb9 15ef 9f36 a2f7 28b8
000000a0: 2a63 8f38 1a9a 04b8 5a86 be37 9669 56b7
000000b0: 23b5 6737 ea41 cb37 2c39 1438 ffb5 a7b8
000000c0: 590d cdb7 3498 0f38 7bf2 5238 de69 ec37
000000d0: 8164 0a36 c32d 4238 51d1 1f39 0b55 32b9
000000e0: ed5a 01b9 8cd2 8ab6 6e7c 9438 c24d 9735
000000f0: 5312 3636 5fd0 4338 e4f4 ccb8 9f89 e1b7

conv1_4/b f4 [32]
0.00011256558 -6.7724184e-05 -0.00028405726 0.00015869174 0.0002456066 -0.00016376974 3.7892052e-05 2.509954e-05
-0.00014659858 -1.1978301e-05 -0.000264222 2.9330275e-05 2.6531647e-05 8.897695e-05 0.00012513953 -0.00013751748
-0.0001371086 -6.630931e-07 0.00011681842 -0.00025435636 0.00010059215 -8.48496e-05 -0.000107316184 0.0004034325
1.3819867e-06 -8.945243e-06 -2.27549e-05 -3.4773246e-05 -6.358781e-05 -0.00011168016 -7.2407005e-05 -0.00012775163
00000000: 3011 ec38 2507 8eb8 85ed 94b9 7d66 2639
00000010: c3c4 8039 9bb9 2bb9 48ee 1e38 da8c d237
00000020: 42b8 19b9 69f6 48b7 4787 8ab9 490a f637
00000030: 4790 de37 2399 ba38 e337 0339 9132 10b9
00000040: cfc4 0fb9 69ff 31b5 69fc f438 225b 85b9
00000050: 00f5 d238 48f1 b1b8 f00e e1b8 cb83 d339
00000060: b47c b935 8713 16b7 c7e1 beb7 7dd9 11b8
00000070: 725a 85b8 d435 eab8 37d9 97b8 11f5 05b9

bn4/avg_mean f4 [32]
-0.5427678 -3.3364918 1.7293425 -2.4991963 -0.07008989 -1.4294169 -2.0173779 0.2154498
-0.65751135 -0.70638883 -3.1576498 -1.2554146 -0.0688216 0.32934576 -1.1704367 -2.2353375
-0.5636724 -1.1669525 -4.0984316 -2.9403167 -0.48467225 0.025171876 -0.084288746 -1.918962
-0.40048766 -1.0739377 -0.3624009 0.11236468 -3.3837898 1.2461959 -0.3515665 0.31188732
00000000: d5f2 0abf 1589 55c0 185b dd3f d5f2 1fc0
00000010: 4a8b 8fbd 22f7 b6bf b81c 01c0 df9e 5c3e
00000020: aa52 28bf e6d5 34bf ef16 4ac0 6db1 a0bf
00000030: 57f2 8cbd 02a0 a83e dfd0 95bf c50f 0fc0
00000040: d64c 10bf b35e 95bf 5a26 83c0 262e 3cc0
00000050: f626 f8be 4035 ce3c 949f acbd 8ca0 f5bf
00000060: b80c cdbe ca76 89bf 9c8c b9be 741f e63d
00000070: 0390 58c0 5983 9f3f 8600 b4be b2af 9f3e

conv1_5/b f4 [32]
-3.133839e-05 -3.847659e-05 0.000101197 -7.31981e-05 0.00016822576 9.201203e-05 3.301773e-05 0.0001352239
7.9999e-05 3.0216748e-05 -0.00010672297 -4.3284104e-05 -2.8422422e-05 -0.00026260802 1.9460447e-05 4.028986e-05
7.695137e-05 -5.342741e-05 0.00014107357 -9.27387e-05 0.00014567634 2.2433127e-05 3.1277275e-05 0.00031404803
6.205214e-05 0.00066205673 -0.00013702243 0.0002223861 -0.000100607474 6.838224e-05 -2.079454e-05 -2.352113e-05
00000000: 5771 03b8 ed61 21b8 ba39 d438 ee81 99b8
00000010: c265 3039 95f6 c038 857c 0a38 e4ca 0d39
00000020: 23c5 a738 f979 fd37 75d0 dfb8 f48b 35b8
00000030: b06c eeb7 a7ae 89b9 fe3e a337 e8fc 2838
00000040: f460 a138 3f17 60b8 26ed 1339 b67c c2b8
00000050: b2c0 1839 c62e bc37 b82f 0338 d0a6 a439
00000060: fd21 8238 e08d 2d3a aead 0fb9 5030 6939
00000070: 3afd d2b8 7068 8f38 ef6f aeb7 3e4f c5b7

bn5/avg_mean f4 [32]
-0.044774137 -0.19148014 -0.09793365 -0.6473262 0.13430034 -1.0206183 -0.36759788 0.48029828
-0.11315026 0.16833372 -0.2503013 -0.48319218 0.05052454 -0.34281564 -0.15745819 -0.05741672
0.42990395 -0.19211054 -0.8458478 -0.2704539 -0.017759275 -0.53639567 -0.3784259 0.6550414
-0.25264448 0.7766172 -0.21634714 -0.6017443 -0.30032063 0.075319834 -0.4800209 -0.30814955
00000000: 1665 37bd 5f13 44be 7091 c8bd 2bb7 25bf
00000010: 0786 093e 9fa3 82bf ca35 bcbe a8e9 f53e
00000020: 53bb e7bd ad5f 2c3e 7e27 80be f764 f7be
00000030: d2f2 4e3d 8885 afbe b83c 21be cb2d 6bbd
00000040: 5f1c dc3e a0b8 44be 7b89 58bf ef78 8abe
00000050: e67b 91bc 3a51 09bf 0ac1 c1be cbb0 273f
00000060: 9e5a 81be 63d0 463f 1b8a 5dbe ea0b 1abf
00000070: a0c3 99be 4941 9a3d 4dc5 f5be c7c5 9dbe

bn1/gamma f4 [64]
0.9789723 0.98065585 1.0071993 0.996561 0.97003096 1.0086963 0.9876766 0.9883913
0.9879195 0.9998426 1.0065794 0.99840564 0.991814 0.9999794 0.9861499 1.0181469
0.9778456 0.983666 0.9955581 1.0161787 1.0383837 1.0071819 1.00436 0.99647045
1.014879 1.0000513 0.98028266 0.995092 0.97343177 0.9962657 0.9524447 0.9861649
0.97922575 1.0115674 0.9729916 0.99056584 1.0011947 1.063163 1.007579 1.018318
0.9819963 0.9729271 1.0025012 0.9768172 1.006294 0.97586524 1.0041326 1.0054438
0.97920924 0.9923416 0.9856222 1.0034502 0.98764443 0.9662036 0.9882632 1.0280457
0.9781029 0.9665492 0.98160243 0.9865137 0.97549254 1.0162711 0.9689353 0.98120797
00000000: ee9d 7a3f 430c 7b3f e8eb 803f 9f1e 7f3f
00000010: f353 783f f61c 813f 60d8 7c3f 3607 7d3f
00000020: 4be8 7c3f aff5 7f3f 98d7 803f 8397 7f3f
00000030: 86e7 7d3f a6fe 7f3f 5274 7c3f a352 823f
00000040: 1754 7a3f 89d1 7b3f e5dc 7e3f 2512 823f
00000050: c2e9 843f 56eb 803f de8e 803f b018 7f3f
00000060: 8ee7 813f ae01 803f cef3 7a3f 59be 7e3f
00000070: d332 793f 450b 7f3f 6ad3 733f 4e75 7c3f
00000080: 8aae 7a3f 0a7b 813f fa15 793f b995 7d3f
00000090: 2627 803f ba15 883f 59f8 803f 3f58 823f
000000a0: 1c64 7b3f c011 793f f651 803f b110 7a3f
000000b0: 3ece 803f 4ed2 793f 6b87 803f 62b2 803f
000000c0: 75ad 7a3f 190a 7e3f bd51 7c3f 0e71 803f
000000d0: 44d6 7c3f 1e59 773f d1fe 7c3f 0097 833f
000000e0: f464 7a3f c56f 773f 4c4a 7b3f 298c 7c3f
000000f0: e1b9 793f 2c15 823f 250c 783f 7230 7b3f

conv1_3/b f4 [64]
-1.863108e-05 2.3714323e-05 -1.289795e-05 -2.189206e-05 4.319632e-05 9.213057e-06 -0.000105453844 6.576697e-06
4.2916257e-05 2.5697873e-05 1.492175e-05 4.879892e-05 2.5498633e-05 6.164107e-05 -7.599502e-05 -0.00012367446
-7.095073e-06 0.0001312791 1.3883344e-05 4.0757634e-05 2.8128477e-05 9.3685616e-05 -3.121179e-05 4.107607e-06
2.0357424e-05 2.3828141e-05 3.5756737e-05 5.0245086e-05 -9.09706e-06 1.0355859e-05 -3.150358e-05 0.000111801644
-6.3133234e-06 -2.0012989e-05 -3.1525055e-05 -2.5522751e-05 9.759981e-05 -8.155633e-06 -2.1203393e-06 -4.795014e-06
-1.9231311e-05 0.00011232636 4.840278e-05 -1.615867e-05 -2.610207e-05 -2.006036e-05 -8.684453e-05 -2.7723803e-05
-0.0001021389 -3.1109113e-05 -2.5202573e-05 -3.8923426e-05 2.9867501e-06 -4.071941e-05 -3.4608816e-05 3.2332733e-05
7.1260576e-05 -1.4114195e-05 -9.85211e-05 -1.3176494e-05 -2.5766254e-05 2.0563453e-05 -2.3031142e-05 7.614506e-05
00000000: f149 9cb7 1fee c637 4664 58b7 d7a4 b7b7
00000010: b22d 3538 c791 1a37 1a27 ddb8 66ad dc36
00000020: fb00 3438 c391 d737 6e58 7a37 71ad 4c38
00000030: e6e5 d537 4c45 8138 845f 9fb8 9cae 01b9
00000040: 3712 eeb6 f7a7 0939 82ec 6837 2df3 2a38
00000050: 72f5 eb37 1579 c438 68e9 02b8 13d4 8936
00000060: 3cc5 aa37 8be2 c737 81f9 1538 40be 5238
00000070: 939f 18b7 13be 2d37 b622 04b8 0d77 ea38
00000080: 09d7 d3b6 91e1 a7b7 c539 04b8 b119 d6b7
00000090: 80ae cc38 2dd4 08b7 274b 0eb6 dbe4 a0b6
000000a0: ed52 a1b7 c190 eb38 1704 4b38 7b8c 87b7
000000b0: c5f5 dab7 4c47 a8b7 4d20 b6b8 6a90 e8b7
000000c0: 6833 d6b8 287b 02b8 1d6a d3b7 b641 23b8
000000d0: fa6f 4836 22ca 2ab8 ef28 11b8 029d 0738
000000e0: bb71 9538 02cc 6cb7 1d9d ceb8 9c10 5db7
000000f0: 9c24 d8b7 ae7f ac37 0033 c1b7 11b0 9f38

bn2/avg_var f4 [64]
0.41308576 0.75539106 0.4408916 0.6191926 0.59823394 0.4225374 0.47829035 0.41064924
0.44189838 0.42678443 0.54699576 0.48851517 0.4525767 0.44666523 0.2784971 0.6523722
0.5930514 0.34800714 0.3946876 1.0806161 0.34229413 0.36567006 0.36617553 0.521216
0.42064738 0.3717835 0.6472117 0.7699228 0.637869 0.66443485 0.5409357 0.36323386
0.81135637 0.7648108 0.54740006 0.64103305 0.36612418 0.3015775 0.6274979 0.28786117
0.4254389 0.27445754 0.5647604 0.5490656 0.5357475 0.44223914 0.5065073 0.37849948
0.59073627 0.5494861 0.71609396 0.3762183 0.41780865 0.47517645 0.38243794 0.724745
0.50858116 0.47259364 0.6760815 0.40139624 0.3110155 0.4876754 0.54425055 0.4935068
00000000: fa7f d33e 4f61 413f 8bbc e13e 6883 1e3f
00000010: dc25 193f d256 d83e 79e2 f43e 9e40 d23e
00000020: 8140 e23e 7d83 da3e ea07 0c3f a91e fa3e
00000030: 22b8 e73e 4eb1 e43e 2c97 8e3e dd01 273f
00000040: 37d2 173f fe2d b23e 7e14 ca3e a151 8a3f
00000050: 2d41 af3e 1b39 bb3e 5c7b bb3e 696e 053f
00000060: 185f d73e 685a be3e aaaf 253f a919 453f
00000070: 624b 233f 6718 2a3f c37a 0a3f caf9 b93e
00000080: 0db5 4f3f a4ca 433f 6922 0c3f be1a 243f
00000090: a174 bb3e 5e68 9a3e b4a3 203f 8a62 933e
000000a0: 21d3 d93e b385 8c3e 2394 103f 908f 0c3f
000000b0: c026 093f 2b6d e23e 76aa 013f afca c13e
000000c0: 7e3a 173f 1fab 0c3f ef51 373f af9f c03e
000000d0: 04eb d53e 544a f33e e8ce c33e e388 393f
000000e0: 6032 023f cbf7 f13e ad13 2d3f cf83 cd3e
000000f0: 6c3d 9f3e 97b0 f93e 0154 0b3f ecac fc3e

bn2/gamma f4 [64]
1.0273869 0.96759206 0.9716453 0.9842225 0.9960077 1.0221053 0.99447244 0.9664715
0.98001957 0.98655653 0.97857714 1.0234863 0.98747206 0.99897075 1.0011442 0.99263924
0.97237635 0.9922126 0.9816881 0.98588765 1.0291038 0.98808163 1.0031676 1.0068809
1.0128304 1.0399952 0.9709989 1.0002223 1.0270209 0.97136855 0.9934943 0.9974092
0.98053956 0.99615365 0.9888667 1.022462 0.99240077 0.99064946 0.973336 0.96814317
1.0110364 0.99303085 0.9928648 0.99782914 1.0057386 1.0029652 1.0144252 1.0088805
0.9940632 1.0202227 0.99309325 1.0173378 0.9688314 1.0343962 0.9950481 0.97810954
1.0047926 0.99275523 0.97248 1.0823827 0.9900412 1.0079496 0.9643468 1.0253325
00000000: 6a81 833f 1db4 773f bfbd 783f 01f6 7b3f
00000010: 5cfa 7e3f 59d4 823f bf95 7e3f ad6a 773f
00000020: 90e2 7a3f f88e 7c3f 0884 7a3f 9901 833f
00000030: f8ca 7c3f 8cbc 7f3f 7e25 803f 9b1d 7e3f
00000040: a8ed 783f a501 7e3f e94f 7b3f 2263 7c3f
00000050: acb9 833f ebf2 7c3f cc67 803f 79e1 803f
00000060: 6da4 813f 901e 853f 6293 783f 4907 803f
00000070: 6c75 833f 9cab 783f a455 7e3f 3656 7f3f
00000080: a404 7b3f ed03 7f3f 5e26 7d3f 09e0 823f
00000090: fa0d 7e3f 349b 7d3f 8c2c 793f 3bd8 773f
000000a0: a469 813f 4537 7e3f 632c 7e3f bb71 7f3f
000000b0: 0bbc 803f 2a61 803f afd8 813f ff22 813f
000000c0: ed7a 7e3f a896 823f 5c3b 7e3f 2038 823f
000000d0: 5605 783f 1867 843f 79bb 7e3f 6365 7a3f
000000e0: 0b9d 803f 3525 7e3f 73f4 783f 848b 8a3f
000000f0: 5773 7d3f 7e04 813f 6fdf 763f 183e 833f

conv1_1/b f4 [64]
4.286251e-05 3.237186e-05 9.706495e-05 1.1859173e-05 -8.117906e-05 7.646723e-05 -9.696178e-05 5.702343e-06
-0.00033098675 -6.2276515e-05 2.7488462e-05 6.3692926e-07 4.0277613e-05 4.7342557e-05 -0.00010180155 -2.5937072e-05
7.648728e-05 0.0001207177 -7.3069015e-05 -8.204239e-05 4.470599e-05 1.648129e-05 -2.4239716e-05 0.00014162088
4.430458e-05 3.9714865e-05 1.8735185e-05 3.7970185e-05 8.083329e-05 2.6152089e-05 0.00011068075 -6.377408e-05
9.981659e-05 3.8979284e-05 -0.00014399238 -8.748453e-05 -0.0001723336 -1.5372418e-05 -4.1285206e-05 7.365663e-05
1.5725504e-05 0.00017140867 -9.531981e-05 2.9395421e-06 -8.815899e-05 2.8427963e-05 4.038267e-05 6.312068e-06
1.96915e-05 -2.9901576e-06 9.55212e-05 2.6870795e-05 2.448189e-05 -8.025651e-05 -0.00031819468 1.748823e-05
3.3160788e-05 4.1387022e-05 3.5794983e-05 4.7714217e-05 4.0251365e-05 -5.618048e-05 -0.00017729824 4.705852e-06
00000000: 45c7 3338 05c7 0738 598f cb38 c3f6 4637
00000010: ad3e aab8 085d a038 f657 cbb8 c156 bf36
00000020: 4a88 adb9 739a 82b8 0697 e637 72f9 2a35
00000030: c2ef 2838 af91 4638 4a7e d5b8 7093 d9b7
00000040: cc67 a038 d229 fd38 a13c 99b8 2c0e acb8
00000050: b182 3b38 4d41 8a37 6556 cbb7 1180 1439
00000060: aed3 3938 8393 2638 8129 9d37 2d42 1f38
00000070: 0b85 a938 2f61 db37 461d e838 73be 85b8
00000080: a054 d138 b07d 2338 a9fc 16b9 e677 b7b8
00000090: 73b4 34b9 04f4 80b7 a729 2db8 1a78 9a38
000000a0: 43ea 8337 2abc 3339 6fe6 c7b8 f344 4536
000000b0: ffe1 b8b8 9678 ee37 9060 2938 40cc d336
000000c0: 2d2f a537 84aa 48b6 8e52 c838 9868 e137
000000d0: 755e cd37 634f a8b8 5ed3 a6b9 b0b3 9237
000000e0: 2016 0b38 fa96 2d38 9222 1638 c020 4838
000000f0: 93d3 2838 55a3 6bb8 22e9 39b9 f6e6 9d36

bn1/avg_var f4 [64]
0.12349584 0.3711183 0.15265292 0.32509843 0.39025152 0.23935385 0.3306041 0.3491711
0.1293755 0.2521764 0.4341312 0.40275154 0.3931587 0.1809814 0.19292732 0.40321457
0.11696115 0.5035199 0.35673043 0.21929096 0.26764756 0.27227348 0.28128675 0.14901967
0.25919247 0.21262091 0.20112446 0.3395772 0.23528817 0.5248797 0.10708707 0.3319908
0.109027766 0.33221313 0.22456233 0.27204293 0.2329625 0.1403741 0.36987668 0.34216082
0.25450492 0.09251039 0.118436396 0.20908599 0.10016209 0.17398861 0.50750256 0.20814444
0.33386427 0.4378098 0.19502777 0.13262825 0.4119212 0.25212967 0.17111164 0.10402902
0.23340046 0.36061698 0.5407334 0.48838106 0.15969227 0.24813153 0.2936208 0.15443811
00000000: 63eb fc3d 3803 be3e 0c51 1c3e 4d73 a63e
00000010: 0ccf c73e 2d19 753e f144 a93e 8ec6 b23e
00000020: 037b 043e 441d 813e 7246 de3e 7335 ce3e
00000030: 194c c93e 3053 393e bd8e 453e 2472 ce3e
00000040: 5489 ef3d aee6 003f 5fa5 b63e cf8d 603e
00000050: 1a09 893e 6e67 8b3e d104 903e 9d98 183e
00000060: e0b4 843e 4cb9 593e 92f3 4d3e 10dd ad3e
00000070: 62ef 703e 845e 063f 7750 db3d b3fa a93e
00000080: f349 df3d d717 aa3e abf3 653e 3649 8b3e
00000090: b98d 6e3e 3abe 0f3e 7a60 bd3e b42f af3e
000000a0: 784e 823e 1676 bd3d c88e f23d a31a 563e
000000b0: c821 cd3d 122a 323e b0eb 013f d123 553e
000000c0: 42f0 aa3e 9b28 e03e 5cb5 473e b3cf 073e
000000d0: 56e7 d23e 2417 813e e437 2f3e 2b0d d53d
000000e0: 8800 6f3e caa2 b83e 816d 0a3f 150d fa3e
000000f0: 5f86 233e 3116 7e3e 7755 963e 0625 1e3e

bn2/beta f4 [64]
0.026523538 -0.018497052 -0.013250603 0.00059808296 0.008364165 0.023797294 0.011797018 -0.020969618
-0.003621373 -0.0012091029 0.013187695 0.02736454 -0.007783326 0.04434558 0.0070751715 0.0043669767
-0.017146477 0.02588747 0.002970222 0.006194088 -0.00066652073 -0.007184688 -0.02001477 0.03125918
0.034631778 0.04139182 -0.006171871 0.004944857 0.04403759 -0.015540403 0.020300357 0.019402126
-0.001110026 0.013204881 0.00015005427 -0.015785152 0.017988212 0.006637592 -0.028356593 0.00948158
0.024031628 -0.0043272832 0.0025224618 0.01736493 -0.00089210225 0.011357243 0.016497422 0.015152867
0.010100629 0.035431627 -0.0045453897 0.012535619 -0.031080851 0.0117574 -0.0031183348 -0.0066614756
0.029570226 0.0011817394 -0.0054809917 -0.034810934 0.011179519 -0.009850748 -0.028350605 0.026136644
00000000: e447 d93c 2187 97bc 0f19 59bc abc8 1c3a
00000010: da09 093c 8bf2 c23c 4848 413c 7ac8 abbc
00000020: 8f54 6dbb c37a 9eba 3411 583c 9a2b e03c
00000030: 450b ffbb b6a3 353d d7d6 e73b db18 8f3b
00000040: c576 8cbc f611 d43c 0ea8 423b c7f7 ca3b
00000050: 73b9 2eba 886d ebbb 04f6 a3bc a009 003d
00000060: 0dda 0d3d 788a 293d 683d cabb 7808 a23b
00000070: c360 343d 2d9d 7ebc ef4c a63c 35f1 9e3c
00000080: 4b7e 91ba 4959 583c e357 1d39 dd4f 81bc
00000090: 045c 933c 2880 d93b 164c e8bc a158 1b3c
000000a0: fadd c43c e2cb 8dbb e34f 253b e640 8e3c
000000b0: f8db 69ba bb13 3a3c 9a25 873c bb43 783c
000000c0: 1c7d 253c c120 113d 7ef1 94bb 3262 4d3c
000000d0: 459d febc 1ca2 403c fa5c 4cbb 8248 dabb
000000e0: 423d f23c 98e4 9a3a e499 b3bb e995 0ebd
000000f0: 4d2a 373c 0865 21bc 873f e8bc 841c d63c

bn4/gamma f4 [32]
1.0039194 1.1341263 1.0196159 1.059028 1.0530069 1.0994022 1.1003019 1.0895426
1.0391495 1.1063532 1.0877382 1.049314 1.0587324 1.0243824 1.0903194 1.0342605
1.1189198 1.0732366 1.1178775 1.0937694 1.0603467 1.095415 1.0668507 1.0459406
1.0460576 1.0553663 1.1495447 1.0769954 1.1166034 1.0376264 1.1069466 1.0530993
00000000: 6e80 803f 0d2b 913f c682 823f 3b8e 873f
00000010: eec8 863f 36b9 8c3f b1d6 8c3f 2276 8b3f
00000020: da02 853f fb9c 8d3f 013b 8b3f ec4f 863f
00000030: 8b84 873f f61e 833f 968f 8b3f a662 843f
00000040: c438 8f3f d15f 893f 9c16 8f3f a300 8c3f
00000050: 71b9 873f 8f36 8c3f 908e 883f 62e1 853f
00000060: 37e5 853f 3e16 873f 4824 933f fcda 893f
00000070: dcec 8e3f f1d0 843f 6db0 8d3f f5cb 863f

conv1_7/b f4 [2]
0.042906426 0.0052329157
00000000: a6be 2f3d e178 ab3b

conv1_6/W f4 [32, 32, 3, 3]
-0.022636006 -0.009898465 0.04766874 -0.0022937527 -0.018787649 0.09719505 0.022973053 -0.007139283
0.054344434 0.099565946 -0.07453268 0.08648428 -0.0018660063 -0.026569007 0.02695109 0.0017947378
0.0038705566 -0.0006931265 0.07029779 -0.017530631 0.06544366 0.01897009 0.10280532 0.015091458
-0.04380537 0.01158859 -0.04173934 -0.050175756 0.011015267 0.006795238 -0.06362645 0.09072654
0.084825315 -0.010669412 0.030623099 0.089383006 -0.0250492 -0.046815895 -0.053902965 -0.083316386
0.00382626 -0.07050566 -0.02841702 -0.016914448 -0.06058992 -0.102338806 -0.09012751 -0.008246591
-0.0082792295 -0.043898493 -0.073705174 0.00076059846 -0.045720194 -0.061959557 0.07542698 -0.00784917
-0.050567698 -0.061927322 -0.045261536 -0.05797856 -0.01317309 -0.054007728 -0.008849928 -0.0459248
0.121025845 0.027471269 -0.119187355 0.0055336026 -0.029153148 0.05911571 -0.09551494 0.048110187
-0.01770722 0.0122110415 0.08786571 0.0027293654 -0.07193405 -0.0015124871 0.020139717 0.055831917
-0.0729002 0.064707056 -0.06475264 0.027283205 0.016268188 0.061836053 0.038954727 0.0253546
-0.12664051 -0.07694992 0.004068236 0.018786905 -0.046006337 -0.024027262 -0.028045215 -0.03815732
0.011319358 0.059148163 -0.03360038 -0.0044771205 -0.10656034 0.024375262 0.06307951 0.05003545
0.018103687 0.021854123 0.09610843 -0.017662898 -0.012732333 0.069662094 -0.033138707 0.13587631
-0.006285352 0.045238912 0.06412711 0.0017363292 0.015200905 -0.13316958 0.054746084 0.028547538
-0.05745655 -0.09191732 -0.08294631 0.05965975 0.010662298 -0.08809994 -0.011139313 -0.03658112
-0.03575811 -0.0076415814 0.07173931 -0.010487296 -0.03726395 0.021673314 -0.026784018 -0.014814685
-0.033259466 -0.0443745 -0.10277451 -0.067484565 0.13284793 -0.03213113 0.0042869663 -0.0646167
0.07719176 -0.023258783 -0.051903635 0.023176853 0.040756587 -0.08566425 -0.11230308 -0.09288722
0.06346993 0.047043152 -0.10622432 0.055165704 0.04582524 -0.11668574 0.08930859 0.024292422
0.012803333 0.054383203 -0.058424797 -0.0065285247 0.039980233 0.08443092 -0.060001113 0.032215383
-0.02237146 -0.053596172 0.02928957 0.029289637 0.10348196 0.009512356 0.05478272 -0.032057047
-0.019624213 0.04669426 0.08391827 -0.019888569 -0.06396388 0.031902026 -0.047017373 0.047971632
-0.037072998 -0.018512474 0.04832587 -0.027802484 -0.029901808 -0.013418062 -0.046252903 -0.021380877
-0.015130321 -0.08520868 -0.05958032 -0.07853058 0.113915384 0.08150061 0.060436044 0.022222184
-0.026101986 0.030989313 0.037058555 -0.015342171 -0.06365986 0.025170863 -0.026507562 0.058527045
-0.03430908 -0.14353707 0.04870268 0.014910038 0.06569969 0.06027985 0.008207119 -0.09013643
-0.08049936 -0.06766607 -0.095497236 0.035832133 0.036636 0.04910149 -0.02096728 -0.091425255
0.09866378 -0.037414 0.08536939 0.01004668 0.017073983 0.021253817 -0.05703795 0.045821328
0.0129497275 0.07209226 -0.005425614 0.0179204 0.10725779 0.045516532 0.000520183 -0.050769467
0.05192583 0.027681513 0.038577665 0.033147883 -0.11102336 0.104592845 0.028444882 -0.077218264
-0.06470625 0.06065605 0.05592207 0.017064922 0.0042536315 0.05349979 0.022028971 -0.12332864
00000000: 256f b9bc 2c2d 22bc 4c40 433d c952 16bb
00000010: 8ee8 99bc 330e c73d fc31 bc3c a6f0 e9bb
00000020: 4598 5e3d 3be9 cb3d 97a4 98bd ac1e b13d
00000030: c894 f4ba 3fa7 d9bc 88c8 dc3c 683d eb3a
00000040: 2aa9 7d3b efb2 35ba 4af8 8f3d 669c 8fbc
00000050: 5307 863d 2a67 9b3c 988b d23d 2a42 773c
00000060: 426d 33bd 12de 3d3c dff6 2abd 1885 4dbd
00000070: 6179 343c 96aa de3b 964e 82bd d6ce b93d
00000080: e5b8 ad3d c2ce 2ebc 4bdd fa3c 700e b73d
00000090: fb33 cdbc 06c2 3fbd 5bc9 5cbd c8a1 aabd
000000a0: fec1 7a3b 4565 90bd cfca e8bc 2b90 8abc
000000b0: 232d 78bd 0297 d1bd c694 b8bd b61c 07bc
000000c0: 9ba5 07bc e8ce 33bd bdf2 96bd e662 473a
000000d0: 1945 3bbd 4ec9 7dbd 7679 9a3d ce99 00bc
000000e0: 1320 4fbd 81a7 7dbd 2964 39bd ed7a 6dbd
000000f0: f2d3 57bc 3537 5dbd 4aff 10bc a51b 3cbd
00000100: 66dc f73d 6d0b e13c 8018 f4bd 3953 b53b
00000110: 95d2 eebc 5123 723d 569d c3bd 300f 453d
00000120: bb0e 91bc d210 483c f0f2 b33d 27df 323b
00000130: 2952 93bd a53e c6ba 0cfc a43c 02b0 643d
00000140: b34c 95bd 2285 843d 089d 84bd 0781 df3c
00000150: dd44 853c cd47 7d3d fe8e 1f3d 73b4 cf3c
00000160: 0dae 01be eb97 9dbd d64e 853b ffe6 993c
00000170: 2471 3cbd d2d4 c4bc 14bf e5bc da4a 1cbd
00000180: d474 393c 5845 723d 8da0 09bd cfb4 92bb
00000190: 4f3c dabd a1ae c73c d52f 813d f9f1 4c3d
000001a0: 2f4e 943c 6b07 b33c 7fd4 c43d c8b1 90bc
000001b0: 469b 50bc 00ab 8e3d 74bc 07bd 2923 0b3e
000001c0: 5bf5 cdbb 704c 393d 1355 833d 8a95 e33a
000001d0: 370d 793c 9b5d 08be 6e3d 603d 87dc e93c
000001e0: 8f57 6bbd 263f bcbd c1df a9bd c85d 743d
000001f0: ebb0 2e3c be6d b4bd aa81 36bc 16d6 15bd
00000200: 1977 12bd 3b66 fabb 0fec 923d e8d2 2bbc
00000210: 15a2 18bd 3c8c b13c 286a dbbc 4bb9 72bc
00000220: 143b 08bd 09c2 35bd 717b d2bd 5935 8abd
00000230: 4a09 083e ef9b 03bd ae79 8c3b c355 84bd
00000240: b716 9e3d 3489 bebc e898 54bd 62dd bd3c
00000250: 61f0 263d bd70 afbd 28ff e5bd a83b bebd
00000260: 86fc 813d 52b0 403d 238c d9bd 6ff5 613d
00000270: 3fb3 3b3d eff8 eebd 6ce7 b63d e700 c73c
00000280: 12c5 513c ecc0 5e3d d74e 6fbd 3ced d5bb
00000290: 50c2 233d 1eea ac3d bac3 75bd 47f4 033d
000002a0: 5a44 b7bc a987 5bbd aef0 ef3c d2f0 ef3c
000002b0: 5aee d33d b6d9 1b3c d863 603d 404e 03bd
000002c0: f5c2 a0bc 7b42 3f3d 58dd ab3d 5aed a2bc
000002d0: 7fff 82bd b3ab 023d 4a95 40bd e77d 443d
000002e0: dbd9 17bd 79a7 97bc 59f1 453d 09c2 e3bc
000002f0: a3f4 f4bc 6ed7 5bbc af73 3dbd f326 afbc
00000300: 2ae5 77bc e381 aebd 7e0a 74bd a4d4 a0bd
00000310: 784c e93d cbe9 a63d c98b 773d 4c0b b63c
00000320: d5d3 d5bc 4ddd fd3c b6ca 173d bb5d 7bbc
00000330: 1a60 82bd 2033 ce3c 6326 d9bc 0eba 6f3d
00000340: ae87 0cbd 62fb 12be 767c 473d 3b49 743c
00000350: 8f8d 863d 01e8 763d 2777 063c 7399 b8bd
00000360: d9dc a4bd 8294 8abd 0e94 c3bd b7c4 123d
00000370: a10f 163d a51e 493d 93c3 abbc 2a3d bbbd
00000380: 3c10 ca3d 6c3f 19bd 26d6 ae3d d59a 243c
00000390: bdde 8b3c 7c1c ae3c a0a0 69bd 25af 3b3d
000003a0: 182b 543c 1ba5 933d 59c9 b1bb cdcd 923c
000003b0: f9a9 db3d 8b6f 3a3d e45c 083a a5f3 4fbd
000003c0: 2eb0 543d 57c4 e23c 9d03 1e3d 13c6 073d
000003d0: 3760 e3bd c634 d63d 3e05 e93c 9c24 9ebd
000003e0: b684 84bd 7a72 783d 8a0e 653d bccb 8b3c
000003f0: 0c62 8b3b 9922 5b3d 1a76 b43c ba93 fcbd

conv1_4/W f4 [32, 64, 3, 3]
0.0060753385 -0.06162073 -0.065145545 0.03579211 0.06567846 -0.0014891216 0.006397008 -0.019437226
0.0031767872 -0.041566417 -0.093672454 -0.07062705 -0.0013626147 0.07621838 0.011932412 -0.013924968
0.077857934 0.08869102 0.074908264 -0.026088892 -0.009874369 0.07150799 0.007456497 0.064030245
-0.03249846 -0.022883466 0.09018743 0.010838473 -0.097306184 -0.048427276 0.013851764 -0.061290186
-0.036943734 -0.010358518 -0.013584066 -0.03508748 -0.01778341 0.034234088 0.0019925116 -0.017541861
-0.011940912 -0.005398511 0.0210531 -0.010309774 0.0654555 -0.059673276 -0.06630769 0.004800041
0.00034225042 -0.06341829 0.051579017 0.0132122105 0.0049648923 -0.029226504 0.010798489 0.04899321
0.049817096 -0.09549143 -0.007666709 0.050975975 -0.024356322 0.003486229 -0.019729292 0.04603704
-0.0069643916 0.00018957767 0.077437915 0.026916163 -0.011704994 0.07330571 -0.046598166 -0.035321016
0.010583463 -0.05072912 -0.008736111 0.008785682 -0.03049733 -0.087742284 -0.043589003 0.007784851
0.05388854 0.049179498 0.019381192 0.026793227 -0.004426282 0.02875223 -0.103774734 0.009691509
-0.09686921 -0.05466283 -0.037640058 -0.049397845 0.016515017 0.03773625 -0.05556077 -0.040611695
-0.02854711 0.002225224 -0.0014791465 0.084241174 0.0065604276 -0.045743313 0.009827652 -0.0717072
0.014238646 -0.020969545 0.013305875 0.0039082104 0.043632284 0.06174191 0.03880797 -0.029436817
-0.015015449 0.0022348636 0.08117336 0.059539173 -0.019846544 0.03509122 0.06333757 -0.0061802412
0.059577502 -0.06667281 -0.0055573233 0.07006055 0.004019651 -0.03412309 0.0024469132 -0.05875858
0.037414093 0.10337254 0.019140955 0.002161368 -0.06818651 -0.07070886 0.072020784 -0.08406323
0.04977709 -0.015129176 -0.00034168566 0.0048544877 -0.0034766675 -0.072355114 -0.0029354729 -0.025083274
-0.0016918891 -0.0002912037 -0.046594843 0.025512235 0.010237201 0.043264 -0.04960487 -0.05149439
-0.048877534 -0.072026 -0.061672263 0.018500524 0.0073623173 -0.022630371 -0.1592176 0.0019608322
0.06988036 0.00024343519 0.0021970219 0.031147562 -0.011329681 0.055121858 -0.0105477935 -2.5324355e-06
-0.022722386 0.03175061 0.050270554 -0.0317674 0.07306963 0.0065179635 0.048627898 0.06328173
0.03136038 -0.029339787 -0.06998421 0.022440504 -0.055502187 -0.005405546 -0.02023435 -0.029881533
0.018156098 -0.06582859 0.0015229215 -0.009709858 0.0025145032 0.07370172 0.0027653445 0.003273806
-0.016993795 -0.0029918521 0.021446604 -0.015998948 -0.021034138 -0.0070462795 0.03006375 0.019047273
-0.02200609 0.01484421 0.03744012 0.02836682 -0.07839036 0.04061241 0.12646252 0.04038106
-0.015866514 -0.021089768 -0.03296631 -0.034627166 -0.015866183 -0.039295074 -0.013673089 -0.05961498
-0.034506515 0.02379801 -0.017085804 -0.042488314 0.040171474 0.0538144 0.008161509 0.040780082
0.012442672 0.0032910574 -0.037080348 -0.01607019 -0.044797435 -0.03744729 -0.057985604 0.024823442
-0.018437264 0.0015290758 -0.08551056 -0.05052338 -0.04030766 -0.005926508 0.024282338 -0.001846909
-0.014241125 0.0109395 -0.009462753 0.0231589 0.0435349 0.049498934 0.09405604 0.012113513
-0.0048811394 -0.00040480588 0.085388914 0.03593557 -0.028897326 0.022867775 0.005601782 0.0047208695
00000000: a213 c73b 0566 7cbd 076b 85bd bf9a 123d
00000010: 6e82 863d a12e c3ba fe9d d13b d13a 9fbc
00000020: a531 503b 8c41 2abd 58d7 bfbd eaa4 90bd
00000030: c399 b2ba 6218 9c3d 2a80 433c 8d25 64bc
00000040: fb73 9f3d a3a3 b53d 8169 993d 5fb8 d5bc
00000050: 1bc8 21bc c872 923d a155 f43b 4a22 833d
00000060: 1b1d 05bd 1b76 bbbc 30b4 b83d da93 313c
00000070: 7748 c7bd ae5b 46bd 82f2 623c 6b0b 7bbd
00000080: 5052 17bd c6b6 29bc b48f 5ebc e4b7 0fbd
00000090: 84ae 91bc 0b39 0c3d cc94 023b f3b3 8fbc
000000a0: d1a3 43bc fee5 b0bb 8d77 ac3c 54ea 28bc
000000b0: 880d 863d f76b 74bd 54cc 87bd aa49 9d3b
000000c0: 1370 b339 73e1 81bd 8544 533d 0778 583c
000000d0: 89b0 a23b 6c6c efbc 25ec 303c 1bad 483d
000000e0: 030d 4c3d 0391 c3bd 0439 fbbb 2fcc 503d
000000f0: e986 c7bc 3879 643b 539f a1bc 5691 3c3d
00000100: 8d35 e4bb 5ec9 4639 c597 9e3d 497f dc3c
00000110: 4ec6 3fbc 4e21 963d b8dd 3ebd c5ac 10bd
00000120: 4366 2d3c 56c9 4fbd e821 0fbc d2f1 0f3c
00000130: 89d5 f9bc 3ab2 b3bd 628a 32bd 1018 ff3b
00000140: 3bba 5c3d 7170 493d 4ec5 9e3c 787d db3c
00000150: 580a 91bb cc89 eb3c d987 d4bd 23c9 1e3c
00000160: 5d63 c6bd 22e6 5fbd 762c 1abd 6555 4abd
00000170: 804a 873c 5391 1a3d b193 63bd 7358 26bd
00000180: a1db e9bc 10d5 113b ecdf c1ba a386 ac3d
00000190: dbf8 d63b 575d 3bbd 2904 213c 39db 92bd
000001a0: 3649 693c 53c8 abbc e200 5a3c 7210 803b
000001b0: c4b7 323d 16e5 7c3d 1bf5 1e3d 7b25 f1bc
000001c0: 5c03 76bc ca76 123b 383e a63d 59df 733d
000001d0: 3895 a2bc d0bb 0f3d 21b7 813d 9f83 cabb
000001e0: 8a07 743d c18b 88bd 351a b6bb e87b 8f3d
000001f0: 47b7 833b a7c4 0bbd 645c 203b d6ac 70bd
00000200: 853f 193d fbb4 d33d 7ecd 9c3c bda5 0d3b
00000210: 5ea5 8bbd cfcf 90bd a27f 933d 5829 acbd
00000220: 10e3 4b3d 5de0 77bc 4624 b3b9 6512 9f3b
00000230: cdd8 63bb eb2e 94bd 1061 40bb 707b cdbc
00000240: 61c2 ddba b3ac 98b9 3cda 3ebd 09ff d03c
00000250: efb9 273c 9835 313d 7a2e 4bbd c8eb 52bd
00000260: cf33 48bd 5e82 93bd 0e9c 7cbd 698e 973c
00000270: 983f f13b 5463 b9bc f009 23be 4e81 003b
00000280: 6f1d 8f3d a342 7f39 e9fb 0f3b 2c29 ff3c
00000290: 20a0 39bc 75c7 613d a7d0 2cbc e9f2 29b6
000002a0: 4c24 babc ed0c 023d 7fe8 4d3d 891e 02bd
000002b0: 88a5 953d a494 d53b 0c2e 473d da99 813d
000002c0: be73 003d fe59 f0bc e253 8fbd 26d5 b73c
000002d0: 4356 63bd 0221 b1bb 82c2 a5bc 1eca f4bc
000002e0: 19bc 943c 24d1 86bd c49c c73a 1916 1fbc
000002f0: 5dca 243b edf0 963d c83a 353b 5a8d 563b
00000300: 9236 8bbc f312 44bb cab0 af3c 3a10 83bc
00000310: c94f acbc 7ae4 e6bb 4148 f63c 0709 9c3c
00000320: 1e46 b4bc 2135 733c d05a 193d 8961 e83c
00000330: 208b a0bd 3359 263d 647f 013e 9c66 253d
00000340: 7efa 81bc 73c4 acbc ae07 07bd 37d5 0dbd
00000350: ccf9 81bc dff3 20bd 1805 60bc d62e 74bd
00000360: b456 0dbd 0bf4 c23c 87f7 8bbc 3a08 2ebd
00000370: d88a 243d 7d6c 5c3d dab7 053c 0409 273d
00000380: 59dc 4b3c c8ae 573b 90e1 17bd a2a5 83bc
00000390: 847d 37bd 5462 19bd 5082 6dbd 885a cb3c
000003a0: bf09 97bc 456b c83a 2920 afbd 9bf1 4ebd
000003b0: a519 25bd 2733 c2bb c1eb c63c fc13 f2ba
000003c0: 9c53 69bc 973b 333c aa09 1bbc bcb7 bd3c
000003d0: a751 323d 65bf 4a3d 74a0 c03d c277 463c
000003e0: f7f1 9fbb 203c d4b9 62e0 ae3d 2d31 133d
000003f0: 16ba ecbc 3355 bb3c 278f b73b 86b1 9a3b

bn1/avg_mean f4 [64]
0.0059364303 -0.05058156 0.06607805 -0.07283706 0.045178797 0.06116141 -0.018211365 -0.021286046
0.090017766 0.061326187 -0.10565679 -0.057917647 -0.07809744 -0.041022442 -0.09688991 -0.031907402
-0.03093767 0.09878573 0.02002278 -0.1426372 -0.00997697 -0.08124289 0.08330103 -0.1207363
0.020520728 -0.12618092 -0.06365965 0.017063832 -0.053521033 -0.021444583 -0.05896299 -0.07661572
0.064726345 0.07213297 -0.077285096 -0.10546832 0.039216332 -0.015332166 0.021718586 0.02587256
0.05324031 -0.071528204 -0.11556253 -0.07286412 0.057643928 -0.08621996 -0.05784762 -0.09273861
0.04585493 0.020494945 0.046244405 -0.09699996 -0.028823612 0.07543801 -0.14329815 -0.059225738
0.021673111 -0.07245548 -0.02336039 0.038352884 -0.059995744 -0.13028175 0.07008175 -0.032230027
00000000: 6386 c23b 9c2e 4fbd ee53 873d 992b 95bd
00000010: 670d 393d 6384 7a3d 0030 95bc 1360 aebc
00000020: 3c5b b83d 2b31 7b3d 9662 d8bd 0e3b 6dbd
00000030: 8df1 9fbd 2607 28bd 386e c6bd 56b1 02bd
00000040: ff70 fdbc 2c50 ca3d d006 a43c 7c0f 12be
00000050: 7276 23bc ac62 a6bd bb99 aa3d 9844 f7bd
00000060: 161b a83c 9235 01be fe5f 82bd 73c9 8b3c
00000070: df38 5bbd 8dac afbc 2d83 71bd b4e8 9cbd
00000080: 3f8f 843d 73ba 933d a647 9ebd c6ff d7bd
00000090: 4ea1 203d c433 7bbc 2deb b13c b1f2 d33c
000000a0: 8312 5a3d 617d 92bd 0cac ecbd c939 95bd
000000b0: 0a1c 6c3d 1794 b0bd a0f1 6cbd beed bdbd
000000c0: 61d2 3b3d 04e5 a73c c66a 3d3d eaa7 c6bd
000000d0: 7f1f ecbc 3e7f 9a3d c0bc 12be b096 72bd
000000e0: cf8b b13c 8a63 94bd 4a5e bfbc ea17 1d3d
000000f0: 19be 75bd 9468 05be 0587 8f3d a203 04bd

bn4/beta f4 [32]
-0.008857335 0.14253704 0.023882257 0.051545266 0.023981899 0.10444685 0.11630182 0.08804031
0.015831279 0.12122757 0.1144444 0.06893357 0.038023755 0.03386905 0.09887275 0.050193377
0.12202044 0.05300955 0.10746751 0.092097394 0.07849174 0.10851923 0.020245248 0.033902757
0.057401232 0.0574316 0.044459328 0.107263364 0.14307036 0.012025844 0.088613465 0.11951813
00000000: 5b1e 11bc 3bf5 113e b9a4 c33c 2121 533d
00000010: b075 c43c 3be8 d53d a62f ee3d 7a4e b43d
00000020: 99b0 813c 2946 f83d d361 ea3d 0b2d 8d3d
00000030: ccbe 1b3d 46ba 0a3d cc7d ca3d 9297 4d3d
00000040: dae5 f93d 8b20 593d ed17 dc3d 8f9d bc3d
00000050: 47c0 a03d 543f de3d 5dd9 a53c 9edd 0a3d
00000060: 8e1d 6b3d 663d 6b3d fc1a 363d e5ac db3d
00000070: 0981 123e 0c08 453c fa7a b53d ecc5 f43d

conv1_2/W f4 [64, 64, 3, 3]
-0.049988467 0.078030474 0.021564148 0.047679175 -0.026391096 -0.059140194 0.005992994 -0.0014195542
-0.09138425 0.06075689 -0.0030773638 0.0712608 -0.02364372 0.026546624 0.052918393 -0.050090488
-0.05131984 -0.038072377 -0.009040661 -0.05402191 0.07289173 -0.016940055 0.038938127 0.033910114
-0.05276663 0.03496653 -0.08716973 -0.04426331 0.07511763 -0.027833693 -0.01564461 -0.086000636
-0.0508954 0.025405312 0.014473317 -0.013282595 -0.02730618 0.01133616 -0.040910542 -0.009138801
-0.042770572 -0.008966726 0.033657607 -0.0020372942 0.04511289 -0.022980945 -0.036833655 -0.051051155
-0.0038215944 0.0026478907 0.018521478 0.09732466 -0.017757626 0.04438128 0.0066503542 0.0665845
0.009483684 -0.018452749 -0.006461387 -0.08713357 0.07286789 0.050721582 0.0047212695 -0.047975812
-0.03576531 0.016249917 -0.040262893 -0.020018494 0.048667464 -0.09026074 0.00057494605 -0.056061585
-0.02462115 0.029605836 0.052771684 0.012699608 -0.04980044 -0.031824578 0.012684198 -0.022201292
-0.06286172 -0.05721706 -0.0030553327 0.00841004 0.060402676 -0.095603846 0.011508735 0.011219207
-0.06195598 0.08807269 -0.019150004 -0.017694032 -0.030246098 -0.035934445 0.034511946 0.07017464
-0.026304271 0.02254375 -0.012229298 0.033783168 0.035436597 -0.028469551 0.0026388338 -0.07516873
0.03190806 0.04710958 0.0077175824 -0.051088486 -0.06636409 -0.068675585 -0.033450518 -0.0046413657
0.016143478 -0.07096946 0.07921537 -0.009847137 0.0404884 -0.064703256 -0.014094136 -0.021181807
-0.061235204 -0.022023937 -0.0071948823 -0.07388629 -0.034994617 -0.045289513 -0.020668102 0.0074864645
-0.067899376 0.022675347 -0.028573385 0.07261982 -0.0020636786 -0.0449657 0.116857864 -0.032065704
-0.050972518 -0.038325205 -0.020954942 -0.03602626 -0.011879587 -0.063868105 -0.026863888 -0.10590734
-0.009571697 -0.03863594 -0.008395845 -0.039042618 -0.034765102 -0.1128984 0.008474767 0.013379294
-0.08200795 -0.069015376 0.008889792 -0.036539122 0.043894023 -0.039014015 0.10385742 -0.035119157
-0.0728687 -0.031500496 -0.017461516 -0.068544775 -0.014049611 -0.015549973 -0.033932578 -0.06585155
0.026179401 -0.015153473 -0.08254964 -0.09129853 -0.08630629 -0.05095022 -0.019741774 0.0114555955
-0.022797672 -0.062473055 -0.015720956 -0.032113124 -0.029129965 -0.05809511 -0.019095765 0.0107038375
-0.12803781 -0.037115216 0.020858366 -0.01467147 0.0033666606 0.06692958 -0.03515673 -0.009229699
0.052245785 -0.043733083 0.045179535 0.011078092 0.003221317 0.05292792 -0.08105395 0.028557042
0.042894475 -0.0872107 -0.026433356 -0.030824484 0.06628991 0.047715 -0.060631927 0.049093686
-0.020034516 0.06318635 0.0044849766 -0.004432438 -0.098868206 -0.023327496 0.011737399 0.040155273
-0.0062920693 -0.020996647 0.023352005 0.017331846 0.01183044 0.03923492 -0.070558265 -0.062372785
0.030868312 -0.026986744 0.03227967 0.079369955 -0.030136857 0.045437075 -0.017897481 -0.08237726
0.009345935 0.046706647 -0.013428578 0.03457272 -0.00075345417 -0.029193494 0.02815776 -0.1001467
-0.03996919 0.021585993 0.0019261389 -0.009779015 0.042627286 -0.019082611 0.03023856 -0.040168423
0.034765437 0.015831826 0.03759448 0.019277757 -0.033556826 0.038443875 -0.063501716 -0.009847992
00000000: b5c0 4cbd 71ce 9f3d 4ca7 b03c 3d4b 433d
00000010: 2432 d8bc fd3c 72bd e160 c43b 5610 baba
00000020: aa27 bbbd 37dc 783d 99ad 49bb 2ff1 913d
00000030: 7ab0 c1bc 4e78 d93c f5c0 583d af2b 4dbd
00000040: c134 52bd c8f1 1bbd 481f 14bc 1446 5dbd
00000050: 4248 953d dfc5 8abc 967d 1f3d 55e5 0a3d
00000060: d221 58bd 1039 0f3d 0b86 b2bd 724d 35bd
00000070: 46d7 993d 7c03 e4bc 2029 80bc 1a21 b0bd
00000080: b277 50bd cd1e d03c 7e21 6d3c 3e9f 59bc
00000090: 36b1 dfbc 4dbb 393c d091 27bd e9ba 15bc
000000a0: 3230 2fbd 2de9 12bc 8fdc 093d 2084 05bb
000000b0: 4bc8 383d 8942 bcbc e3de 16bd 041b 51bd
000000c0: b773 7abb 3c88 2d3b 5bba 973c 2752 c73d
000000d0: 7178 91bc 25c9 353d 37eb d93b 745d 883d
000000e0: 7461 1b3c 382a 97bc 0bba d3bb 1673 b2bd
000000f0: c33b 953d 6fc1 4f3d e1b4 9a3b 4982 44bd
00000100: a57e 12bd 8c1e 853c b4ea 24bd d3fd a3bc
00000110: 8957 473d 9fda b8bd fab7 163a d5a0 65bd
00000120: 4bb2 c9bc f087 f23c 1f27 583d 0412 503c
00000130: 8cfb 4bbd 7d5a 02bd 62d1 4f3c 7cdf b5bc
00000140: a5bd 80bd 705c 6abd fa3b 48bb 44ca 093c
00000150: cc68 773d f3cb c3bd 228f 3c3c c4d0 373c
00000160: 8ec5 7dbd 745f b43d 78e0 9cbc 13f3 90bc
00000170: aac6 f7bc ff2f 13bd 665c 0d3d b9b7 8f3d
00000180: 0e7c d7bc acad b83c 655d 48bc 3860 0a3d
00000190: f725 113d fa38 e9bc 49f0 2c3b 10f2 99bd
000001a0: 07b2 023d faf5 403d c6e3 fc3b 2942 51bd
000001b0: e5e9 87bd c9a5 8cbd 6903 09bd 9916 98bb
000001c0: 543f 843c 7058 91bd ab3b a23d e355 21bc
000001d0: 2ad7 253d 2483 84bd 17eb 66bc 7885 adbc
000001e0: c4d1 7abd 8b6b b4bc 0cc3 ebbb b251 97bd
000001f0: 8456 0fbd 7f81 39bd 2750 a9bc 0451 f53b
00000200: d40e 8bbd a6c1 b93c bb12 eabc b3b9 943d
00000210: c83e 07bb f42d 38bd 2d53 ef3d 5457 03bd
00000220: 8fc8 50bd e4fa 1cbd b3a9 abbc 4690 13bd
00000230: 99a2 42bc 48cd 82bd a811 dcbc f3e5 d8bd
00000240: 9bd2 1cbc b840 1ebd ba8e 09bc 27eb 1fbd
00000250: da65 0ebd 4737 e7bd c0d9 0a3c d434 5b3c
00000260: c9f3 a7bd ef57 8dbd 7da6 113c 0caa 15bd
00000270: 38ca 333d 29cd 1fbd 33b3 d43d 1bd9 0fbd
00000280: 2f3c 95bd aa06 01bd 740b 8fbc 3461 8cbd
00000290: 5730 66bc 50c5 7ebc e3fc 0abd 2ddd 86bd
000002a0: 2f76 d63c 4646 78bc c90f a9bd b9fa babd
000002b0: 5ac1 b0bd 2eb1 50bd 80b9 a1bc 40b0 3b3c
000002c0: 2fc2 babc bfe3 7fbd 3cc9 80bc 0d89 03bd
000002d0: f7a1 eebc 23f5 6dbd b96e 9cbc 265f 2f3c
000002e0: 581c 03be 2006 18bd 2adf aa3c 9b60 70bc
000002f0: 31a3 5c3b 6012 893d 8100 10bd 2a38 17bc
00000300: adff 553d 7621 33bd 2d0e 393d e380 353c
00000310: bb1c 533b f2ca 583d 9dff a5bd 75f0 e93c
00000320: 1eb2 2f3d 869b b2bd c48a d8bc a183 fcbc
00000330: 01c3 873d ce70 433d 2f59 78bd 7616 493d
00000340: 6d1f a4bc d867 813d b6f6 923b fc3d 91bb
00000350: 6a7b cabd 4e19 bfbc 384e 403c db79 243d
00000360: b42d cebb 2901 acbc b44c bf3c 84fb 8d3c
00000370: 76d4 413c ccb4 203d da80 90bd 9b7a 7fbd
00000380: 8bdf fc3c 4e13 ddbc b037 043d b78c a23d
00000390: 92e1 f6bc 3a1c 3a3d bd9d 92bc 69b5 a8bd
000003a0: b11f 193c 784f 3f3d 8a03 5cbc 209c 0d3d
000003b0: 7483 45ba 3227 efbc 1aab e63c b719 cdbd
000003c0: bcb6 23bd 1cd5 b03c 7f76 fc3a 2938 20bc
000003d0: f399 2e3d 2353 9cbc dbb6 f73c a587 24bd
000003e0: 3466 0e3d bfb1 813c abfc 193d 63ec 9d3c
000003f0: e272 09bd 5377 1d3d 300d 82bd 7959 21bc

bn3/gamma f4 [64]
1.0341821 1.0243407 1.0001997 1.008324 1.0018572 1.0288732 1.0415617 1.0308288
0.99663866 0.9948172 1.0461607 1.0564237 0.98313123 1.0395247 0.99410933 1.0180879
1.0213487 0.99851733 1.0019336 0.99925464 0.9889076 1.0958923 1.0274776 0.9942031
1.0125412 1.0234693 0.99432325 1.0017052 1.0131083 1.0275635 1.0109861 1.0687417
0.9879554 0.99499106 0.9999279 0.9872339 0.9750144 0.98832417 0.9647921 1.0492289
0.98074865 0.98181134 1.0040334 1.0205022 1.0072471 1.0163033 1.0008165 0.99679
0.9961799 1.0191562 1.0175804 1.0215201 1.0455806 1.0828079 1.0231781 1.0009209
1.0042137 1.0055699 0.97923386 1.0560759 1.033595 0.9977183 1.0047014 1.0052189
00000000: 1460 843f 991d 833f 8b06 803f c310 813f
00000010: db3c 803f 1eb2 833f e551 853f 33f2 833f
00000020: b623 7f3f 57ac 7e3f 98e8 853f e438 873f
00000030: 7dae 7b3f 250f 853f f37d 7e3f b450 823f
00000040: 8ebb 823f d59e 7f3f 5c3f 803f 27cf 7f3f
00000050: 0c29 7d3f 3346 8c3f 6384 833f 1884 7e3f
00000060: f39a 813f 0b01 833f f88b 7e3f e037 803f
00000070: 88ad 813f 3387 833f fe67 813f 87cc 883f
00000080: a5ea 7c3f bcb7 7e3f 46fb 7f3f 5cbb 7c3f
00000090: 8b9a 793f d002 7d3f 9dfc 763f 224d 863f
000000a0: 5812 7b3f fd57 7b3f 2b84 803f d19f 823f
000000b0: 79ed 803f 3a16 823f c11a 803f a12d 7f3f
000000c0: a505 7f3f b673 823f 1340 823f 2cc1 823f
000000d0: 96d5 853f 7399 8a3f 80f7 823f 2d1e 803f
000000e0: 138a 803f 84b6 803f 12af 7a3f 7f2d 873f
000000f0: d74c 843f 776a 7f3f 0e9a 803f 03ab 803f

conv1_7/W f4 [2, 32, 3, 3]
0.08414895 0.024132075 0.06791343 -0.18445276 -0.05010102 -0.020268751 0.042899195 -0.015551805
-0.035819214 -0.03259129 -0.056195684 -0.074162714 0.14976759 0.11491516 -0.009050759 0.032426503
-0.021154324 0.14437373 -0.007266535 0.030522732 -0.044284 0.019718712 0.08262053 -0.030481666
0.016804056 0.09789863 0.19030559 0.042591486 0.09208371 -0.021702547 0.06401509 0.017256167
0.077447996 0.17531571 0.14777532 0.10617732 -0.08222436 -0.037027672 -0.07578448 0.062600926
0.044202637 -0.056269724 0.04939794 0.055532333 0.117300004 0.13866702 -0.047520682 -0.042760458
0.047247022 0.27593583 0.08308836 0.08840575 0.11822096 -0.03616255 0.019329552 0.08340393
-0.08213522 -0.0060288534 0.050984386 0.067999445 0.1239329 0.091375865 0.030424135 0.0386986
-0.051519174 0.09805246 -0.036762346 0.07309391 0.055631503 -0.029643513 0.050126307 -0.0219003
0.046859518 0.023325104 -0.040112942 0.039129626 -0.04637697 -0.06222535 0.029498164 -0.14409944
0.12776588 -0.10283061 0.08356533 0.17894925 0.15275311 0.04999181 -0.042371113 0.18830647
-0.118968844 0.1668906 0.08113708 0.093380615 0.019200368 0.1874686 0.09095141 0.057544697
-0.07290861 0.022103757 0.06547676 0.035178013 0.09074946 0.014030188 0.08345635 -0.075965375
0.041781504 -0.03299498 0.025906613 0.110833265 0.026831707 -0.0011389938 0.03887811 0.062261373
0.05211985 0.11469505 -0.040659245 -0.126817 0.04948104 0.015316407 0.06572171 0.07802533
0.06858944 0.00034369237 0.021503992 0.04066616 -0.010290639 0.03779087 0.095188916 0.09223996
-0.16729397 -0.16703826 0.04278752 0.07665396 0.049868807 0.0958149 -0.027508864 0.051124707
0.041201852 0.055351645 0.16079737 0.0066095605 0.0869646 -0.01313777 -0.11666819 0.052462067
0.105146475 0.05402663 0.123868905 0.18603285 0.0084107695 0.056591045 0.0105948625 -0.026653068
-0.1710044 -0.010689262 0.03861206 -0.12493752 -0.047869325 0.044509884 0.042794216 0.035584338
0.04617676 0.048888877 0.05550114 0.21146633 0.049692485 0.045129016 0.17114952 -0.02349926
0.012623367 0.14475746 0.037950877 -0.054415807 -0.016154354 0.1012316 -0.05221346 0.21769184
0.06427315 0.050726224 0.050914213 0.07778238 0.0072454168 0.08193766 0.06127753 0.06284658
0.08184738 0.008997775 0.11398268 0.10237086 0.17645124 0.07870178 0.060439087 -0.044950075
-0.08359892 0.13029961 0.17801821 0.08508368 0.12942173 0.10581663 -0.0012494907 0.08421471
-0.045894593 0.06410293 -0.14209151 0.03295478 0.0046212347 -0.054539308 -0.015431728 -0.011302324
-0.013498363 -0.045635838 0.0020211223 0.12048827 -0.058090232 0.048643354 0.019334612 0.11837368
-0.019921584 0.086668655 0.11821816 0.1888871 0.124203734 0.031863764 0.094511725 0.0053368197
-0.0056014587 0.13498512 0.07534916 0.063899845 0.13443962 0.025420679 0.070211224 0.0385392
-0.16475178 -0.01543105 -0.040156957 0.016019385 0.08523686 -0.098248966 -0.09817276 -0.0033871273
0.051674943 -0.02966767 0.088621296 0.11594988 0.06320481 0.11558913 0.039550208 0.028388364
0.042990103 0.05279136 0.090130106 0.020361211 0.14795645 0.007899393 0.06780348 0.083161145
00000000: 4956 ac3d a1b0 c53c 3216 8b3d 2fe1 3cbe
00000010: ba36 4dbd a70a a6bc 11b7 2f3d ffcc 7ebc
00000020: 2bb7 12bd 727e 05bd 722d 66bd 9fe2 97bd
00000030: ad5c 193e a458 eb3d a249 14bc a7d1 043d
00000040: d54b adbc b5d6 133e 1d1c eebb cf0a fa3c
00000050: 2463 35bd 2389 a13c f434 a93d b0b4 f9bc
00000060: a9a8 893c 147f c83d 78df 423e 6974 2e3d
00000070: 6296 bc3d 8ac9 b1bc 581a 833d ce5c 8d3c
00000080: 0e9d 9e3d f685 333e 6a52 173e 7f73 d93d
00000090: 3f65 a8bd 54aa 17bd e534 9bbd ea34 803d
000000a0: d30d 353d 157b 66bd 7f55 4a3d df75 633d
000000b0: fc3a f03d bafe 0d3e 0ca5 42bd 9725 2fbd
000000c0: 1886 413d 7647 8d3e 3b2a aa3d 130e b53d
000000d0: d51d f23d 2f1f 14bd 0259 9e3c aecf aa3d
000000e0: 8336 a8bd b08d c5bb 01d5 503d 4b43 8b3d
000000f0: 88d0 fd3d 4523 bb3d 093c f93c 6c82 1e3d
00000100: c505 53bd bacf c83d 1d94 16bd 43b2 953d
00000110: dcdd 633d f4d6 f2bc 3e51 4d3d 4268 b3bc
00000120: c4ef 3f3d 4a14 bf3c 784d 24bd 6346 203d
00000130: c7f5 3dbd 02e0 7ebd 22a6 f13c ce8e 13be
00000140: 0fd5 023e db98 d2bd 4d24 ab3d 793e 373e
00000150: 506b 1c3e 36c4 4c3d 558d 2dbd 69d3 403e
00000160: f0a5 f3bd 5fe5 2a3e 332b a63d 563e bf3d
00000170: 174a 9d3c c5f7 3f3e bc44 ba3d fdb3 6b3d
00000180: 1c51 95bd f012 b53c ae18 863d d216 103d
00000190: dada b93d e0de 653c 2aeb aa3d bc93 9bbd
000001a0: 1523 2b3d bf25 07bd 1b3a d43c 8dfc e23d
000001b0: 2bce db3c 4a4a 95ba a73e 1f3d c805 7f3d
000001c0: a07b 553d 3de5 ea3d 4f8a 26bd 51dc 01be
000001d0: a2ac 4a3d abf1 7a3c 1b99 863d bfcb 9f3d
000001e0: 9f78 8c3d 9c31 b439 2429 b03c 8f91 263d
000001f0: 119a 28bc 99ca 1a3d 68f2 c23d 4ee8 bc3d
00000200: 1c4f 2bbe 140c 2bbe f741 2f3d c0fc 9c3d
00000210: 3c43 4c3d 9a3a c43d 455a e1bc 2468 513d
00000220: 46c3 283d 68b8 623d 11a8 243e 0395 d83b
00000230: 7f1a b23d cd3f 57bc bbef eebd 77e2 563d
00000240: 0957 d73d 074b 5d3d fbae fd3d 657f 3e3e
00000250: 53cd 093c 03cc 673d 1396 2d3c 8957 dabc
00000260: c71b 2fbe 0422 2fbc ae27 1e3d 3edf ffbd
00000270: a012 44bd ff4f 363d fd48 2f3d e2c0 113d
00000280: d823 3d3d b43f 483d 2a55 633d a18a 583e
00000290: 598a 4b3d 34d9 383d d241 2f3e 8581 c0bc
000002a0: 3dd2 4e3c 4d3b 143e 6172 1b3d 1ce3 5ebd
000002b0: 2356 84bc 8352 cf3d c8dd 55bd 9cea 5e3e
000002c0: a4a1 833d 4dc6 4f3d 6c8b 503d 5e4c 9f3d
000002d0: f66a ed3b efce a73d 26fe 7a3d b5b5 803d
000002e0: 999f a73d 676b 133c c06f e93d d0a7 d13d
000002f0: a2af 343e 662e a13d fa8e 773d 921d 38bd
00000300: e935 abbd 436d 053e 684a 363e 5a40 ae3d
00000310: 2187 043e 64b6 d83d f3c5 a3ba c378 ac3d
00000320: f8fb 3bbd 6648 833d 7080 11be 97fb 063d
00000330: ba6d 973b 9c64 5fbd 5cd5 7cbc 622d 39bc
00000340: 3d28 5dbc a5ec 3abd ce74 043b 8ec2 f63d
00000350: 06f0 6dbd 413e 473d 9f63 9e3c e66d f23d
00000360: 9732 a3bc 567f b13d 5d1c f23d 9f6b 413e
00000370: 875e fe3d 9483 023d 5d8f c13d 7de0 ae3b
00000380: 718c b7bb 8a39 0a3e a950 9a3d ecdd 823d
00000390: 8aaa 093e 073f d03c e7ca 8f3d 48db 1d3d
000003a0: b1b4 28be 84d2 7cbc 9f7b 24bd 163b 833c
000003b0: aa90 ae3d c136 c9bd cd0e c9bd 91fa 5dbb
000003c0: 1ba9 533d 9d09 f3bc 157f b53d 2177 ed3d
000003d0: 8671 813d feb9 ec3d 66ff 213d b78e e83c
000003e0: 6416 303d c13b 583d 2296 b83d 8ecc a63c
000003f0: e581 173e 756c 013c 8ddc 8a3d 6450 aa3d
