loto6_cnn/model/loto6_20_910.model (npz, 468556 bytes, 38 tensors)

conv1_2/b f4 [64]
00000000: 4fa8 ffb8 833b bab8 121d 5738 eb4c 10b9
00000010: 42c6 2136 0c42 c438 f44c 21b8 57de 3db9
00000020: 6433 cf37 2414 bf39 613d 2db8 ad05 57b9
00000030: eb51 8437 aa97 7737 7da3 6ab7 8259 c5b8
00000040: 6b60 e9b7 70c7 88b7 c573 f637 9ce9 d8b6
00000050: d807 b638 bf68 5c38 711a 3737 0e6b cfb8
00000060: 3380 45b8 d2c0 9db7 4237 a3b6 3f10 c8b7
00000070: a7f6 bdb7 ab1f de38 9976 3137 5ba7 e4b5
00000080: c91c 9537 284a deb6 d92b 4bb8 d158 09b9
00000090: fc7a ab38 e39d 2eb9 deef 9f36 9bf7 28b8
000000a0: 7862 8f38 3d99 04b8 5f87 be37 e169 56b7
000000b0: 90b6 6737 693e cb37 dd3a 1438 f7b5 a7b8
000000c0: 720d cdb7 3898 0f38 9cf2 5238 0c6b ec37
000000d0: 506d 0a36 162d 4238 2bd1 1f39 0b55 32b9
000000e0: 075b 01b9 cdd5 8ab6 717c 9438 8165 9735
000000f0: a81c 3636 22d1 4338 eef4 ccb8 618f e1b7
-0.000121906975 -8.880256e-05 5.128707e-05 -0.00013761564 2.410627e-06 9.3583105e-05 -3.845706e-05 -0.00018107273
2.4700254e-05 0.00036445365 -4.1303578e-05 -0.00020506112 1.5773772e-05 1.4757659e-05 -1.3985552e-05 -9.410364e-05
-2.7820663e-05 -1.6305334e-05 2.9379395e-05 -6.4644973e-06 8.679897e-05 5.254964e-05 1.0913806e-05 -9.89047e-05
-4.7087855e-05 -1.8805647e-05 -4.8642114e-06 -2.3849423e-05 -2.2645412e-05 0.000105916835 1.0577635e-05 -1.7036031e-06
1.7775588e-05 -6.6247485e-06 -4.8439808e-05 -0.00013098425 8.176823e-05 -0.0001665275 4.7664935e-06 -4.0284922e-05
6.8371126e-05 -3.1613967e-05 2.2712802e-05 -1.2780046e-05 1.3811179e-05 2.4228548e-05 3.534077e-05 -7.997074e-05
-2.4444165e-05 3.423562e-05 5.029385e-05 2.818324e-05 2.062723e-06 4.6295194e-05 0.00015241343 -0.00017007084
-0.00012336309 -4.13761e-06 7.080369e-05 1.1279918e-06 2.7136794e-06 4.6686393e-05 -9.7731e-05 -2.6888856e-05

conv1_4/b f4 [32]
00000000: 3011 ec38 5c07 8eb8 85ed 94b9 7666 2639
00000010: c3c4 8039 97b9 2bb9 f9ed 1e38 e68c d237
00000020: 42b8 19b9 01f7 48b7 4687 8ab9 b809 f637
00000030: 6e90 de37 2399 ba38 e737 0339 9032 10b9
00000040: cfc4 0fb9 1426 32b5 54fc f438 1c5b 85b9
00000050: 00f5 d238 48f1 b1b8 f20e e1b8 ca83 d339
00000060: 667c b935 7913 16b7 a5e1 beb7 85d9 11b8
00000070: 0a5b 85b8 7035 eab8 37d9 97b8 11f5 05b9
0.00011256558 -6.7724584e-05 -0.00028405726 0.00015869163 0.0002456066 -0.00016376968 3.7891765e-05 2.5099562e-05
-0.00014659858 -1.1978439e-05 -0.00026422198 2.933001e-05 2.6531718e-05 8.897695e-05 0.00012513959 -0.00013751746
-0.0001371086 -6.636558e-07 0.000116818264 -0.0002543562 0.00010059215 -8.48496e-05 -0.0001073162 0.00040343247
1.3819779e-06 -8.945231e-06 -2.2754839e-05 -3.4773275e-05 -6.3588916e-05 -0.00011167943 -7.2407005e-05 -0.00012775163

bn4/avg_mean f4 [32]
00000000: 7526 02bf 7f32 56c0 b9f7 df3f 5312 1dc0
00000010: 322b 9fbd 548f c5bf 6cf2 01c0 b767 813e
00000020: 0611 28bf 8c90 3abf c43e 4ac0 218e 9bbf
00000030: 9665 3abd 9355 aa3e 456b 8fbf 2834 0cc0
00000040: 9785 13bf d307 9bbf df7b 84c0 8269 3fc0
00000050: 3e18 f3be ffcf ab3c 1eae a8bd 6918 f2bf
00000060: d698 e8be 0627 83bf d529 b0be 70ee da3d
00000070: fd42 5dc0 e58a 9c3f c22b 9cbe 8287 993e
-0.5083993 -3.346832 1.7497474 -2.4542434 -0.07771911 -1.5434365 -2.0304213 0.2527444
-0.65650976 -0.7287681 -3.160081 -1.2152749 -0.045507036 0.33268413 -1.1204611 -2.1906834
-0.57625717 -1.2111763 -4.140121 -2.9908147 -0.47479433 0.020973204 -0.08236335 -1.8913699
-0.45429105 -1.0246284 -0.34406915 0.106900096 -3.4572136 1.2229887 -0.30502135 0.29986197

conv1_5/b f4 [32]
00000000: 5971 03b8 c261 21b8 bd39 d438 f681 99b8
00000010: c665 3039 08f7 c038 8b7c 0a38 e4ca 0d39
00000020: 23c5 a738 2079 fd37 87d0 dfb8 f18b 35b8
00000030: d46c eeb7 a7ae 89b9 423f a337 e3fc 2838
00000040: df60 a138 a317 60b8 afec 1339 bf7c c2b8
00000050: b2c0 1839 2d2d bc37 f72f 0338 d0a6 a439
00000060: 0922 8238 e08d 2d3a aead 0fb9 5530 6939
00000070: 3bfd d2b8 7068 8f38 6c6f aeb7 9f4e c5b7
-3.1338397e-05 -3.8476435e-05 0.00010119702 -7.3198156e-05 0.00016822582 9.2012866e-05 3.3017754e-05 0.0001352239
7.9999e-05 3.0216353e-05 -0.0001067231 -4.3284093e-05 -2.8422488e-05 -0.00026260802 1.9460571e-05 4.028984e-05
7.695122e-05 -5.3427775e-05 0.00014107184 -9.273877e-05 0.00014567634 2.2432383e-05 3.1277505e-05 0.00031404803
6.2052226e-05 0.00066205673 -0.00013702243 0.00022238617 -0.00010060748 6.838224e-05 -2.0794301e-05 -2.352084e-05

bn5/avg_mean f4 [32]
00000000: fd6e 91bc 98cb 43be 1b0e b6bd c462 25bf
00000010: 5ccf 0f3e c1d5 84bf 3b4a c1be 283e f83e
00000020: 4704 d3bd e70e 223e b26d 84be 26d0 fbbe
00000030: 5eab 923d f892 a7be 6fb5 1fbe d892 48bd
00000040: 4795 dc3e 83fc 4ebe ef3b 5abf 6fd2 93be
00000050: 87bb 35bc e3cb 09bf 97ea b8be 479c 203f
00000060: 7a3e 8cbe f02f 473f d08c 4cbe 39cb 1bbf
00000070: 338e a3be 77b7 be3d 7808 00bf 9e49 9ebe
-0.017753119 -0.19120634 -0.08889409 -0.6460383 0.14043945 -1.0377733 -0.37751946 0.4848492
-0.1030355 0.15825997 -0.2586494 -0.49182242 0.07161592 -0.32729316 -0.15596555 -0.048968166
0.4308264 -0.20213513 -0.852477 -0.28871486 -0.011092073 -0.5382673 -0.36116478 0.6273846
-0.27391416 0.7780752 -0.1997559 -0.6085697 -0.31944427 0.09312337 -0.5001292 -0.3091554

bn1/gamma f4 [64]
00000000: be8f 7a3f 87d8 7a3f 54e9 803f 1331 7f3f
00000010: 8a42 783f 61ff 803f 83d8 7c3f 3c13 7d3f
00000020: a7b4 7c3f 9bdc 7f3f dace 803f f685 7f3f
00000030: a2d1 7d3f 3203 803f 5b5c 7c3f f045 823f
00000040: df23 7a3f 17ea 7b3f 410e 7f3f 8704 823f
00000050: d5f7 843f 91ee 803f 6586 803f 0c07 7f3f
00000060: 6ef3 813f 00d5 7f3f 88d5 7a3f 44b3 7e3f
00000070: ac1e 793f f014 7f3f 0e96 733f 0d3c 7c3f
00000080: 9499 7a3f ce85 813f 70f6 783f 568c 7d3f
00000090: 6a10 803f 6c57 883f b8e5 803f e25f 823f
000000a0: a02b 7b3f eff3 783f b437 803f 9ffd 793f
000000b0: 62ba 803f 73ba 793f e87f 803f 1396 803f
000000c0: 01ab 7a3f 66f0 7d3f be48 7c3f a95d 803f
000000d0: 24df 7c3f a146 773f 96f7 7c3f 4a78 833f
000000e0: 6846 7a3f 5760 773f e15b 7b3f 017c 7c3f
000000f0: e4ac 793f cb0e 823f eb23 783f 6df6 7a3f
0.97875583 0.97986645 1.0071206 0.99684256 0.9697653 1.0077935 0.9876787 0.98857474
0.98713154 0.9994599 1.0063126 0.99813783 0.99148 1.0000975 0.98578423 1.0177593
0.97710985 0.9840407 0.99631125 1.0157632 1.0388132 1.0072805 1.0041014 0.9962013
1.0152414 0.9993439 0.9798207 0.9949229 0.97312427 0.99641323 0.9515084 0.9852913
0.9789059 1.0118959 0.97251034 0.9904226 1.0005009 1.0651679 1.0070105 1.0185511
0.9811344 0.97247213 1.0016999 0.9765262 1.005688 0.97550124 1.0039034 1.0045799
0.9791718 0.99194944 0.98548496 1.0028583 0.98777986 0.96592146 0.98815286 1.0271084
0.9776368 0.9663138 0.9818707 0.98626715 0.97529435 1.0160764 0.96929806 0.98032266

conv1_3/b f4 [64]
00000000: 834a 9cb7 1dee c637 0c64 58b7 13a5 b7b7
00000010: be2d 3538 3391 1a37 0827 ddb8 51ac dc36
00000020: 4101 3438 0393 d737 2759 7a37 87ad 4c38
00000030: 53e6 d537 7145 8138 805f 9fb8 a9ae 01b9
00000040: 4611 eeb6 f7a7 0939 c9ec 6837 35f3 2a38
00000050: 65f5 eb37 0479 c438 94e9 02b8 94d4 8936
00000060: 56c5 aa37 aee2 c737 48f9 1538 35be 5238
00000070: e09f 18b7 1ebc 2d37 ac22 04b8 f576 ea38
00000080: eed4 d3b6 c5e1 a7b7 c839 04b8 c119 d6b7
00000090: 85ae cc38 43d4 08b7 9354 0eb6 d8e5 a0b6
000000a0: 5b53 a1b7 c590 eb38 1c04 4b38 b98c 87b7
000000b0: 47f5 dab7 7847 a8b7 2620 b6b8 2890 e8b7
000000c0: 6833 d6b8 257b 02b8 1d6a d3b7 e541 23b8
000000d0: 4069 4836 96ca 2ab8 d028 11b8 fe9c 0738
000000e0: d571 9538 3bcc 6cb7 129d ceb8 ff09 5db7
000000f0: 3924 d8b7 8f7f ac37 6033 c1b7 fbaf 9f38
-1.8631346e-05 2.371432e-05 -1.2897897e-05 -2.1892169e-05 4.3196364e-05 9.212922e-06 -0.00010545371 6.576571e-06
4.2916512e-05 2.5698455e-05 1.4921919e-05 4.8799e-05 2.5498832e-05 6.164134e-05 -7.599499e-05 -0.00012367465
-7.0949636e-06 0.0001312791 1.3883408e-05 4.0757663e-05 2.8128454e-05 9.368549e-05 -3.1211952e-05 4.1076655e-06
2.0357471e-05 2.3828205e-05 3.575653e-05 5.0245046e-05 -9.09713e-06 1.0355403e-05 -3.1503543e-05 0.00011180147
-6.3130783e-06 -2.0013083e-05 -3.1525065e-05 -2.552278e-05 9.759985e-05 -8.155653e-06 -2.1208878e-06 -4.795129e-06
-1.9231511e-05 0.00011232639 4.84028e-05 -1.6158783e-05 -2.6101841e-05 -2.006044e-05 -8.6844244e-05 -2.7723683e-05
-0.0001021389 -3.1109103e-05 -2.5202573e-05 -3.8923597e-05 2.9863586e-06 -4.071983e-05 -3.4608704e-05 3.233272e-05
7.1260765e-05 -1.4114247e-05 -9.852102e-05 -1.3174954e-05 -2.5766074e-05 2.0563397e-05 -2.3031316e-05 7.61449e-05

bn2/avg_var f4 [64]
00000000: 0db7 d33e 2fc1 433f 3858 e53e e236 1e3f
00000010: 95fb 193f 83c6 d93e 05b3 f43e ae1b d13e
00000020: 7234 e23e 1cb3 d93e c0c9 0a3f fcb9 fb3e
00000030: dd36 ec3e b8e9 e43e dfcc 8e3e e027 253f
00000040: 471c 1c3f 5961 af3e 13e7 ca3e 4e7e 893f
00000050: cf1f ab3e 5acd bd3e 9efb bb3e 67fd 063f
00000060: ae1f d83e a051 bc3e 27cf 253f 1a8c 463f
00000070: c535 253f 5b7c 2a3f 1a33 0e3f f21a b93e
00000080: 93f8 513f 3a65 423f 7a70 093f a432 243f
00000090: 0a99 b73e ada1 9a3e a677 213f 644c 963e
000000a0: b6cf d93e 42c6 8c3e f3b6 0e3f 7deb 0a3f
000000b0: 6121 083f bf2d e13e 2e0a 043f 33b8 c13e
000000c0: 1cf3 193f 3a84 0f3f dd9d 383f 0fa1 bd3e
000000d0: f03d d63e 4d51 f13e e230 c13e 064a 3c3f
000000e0: ff8a 023f 07a4 f63e 9960 2c3f 02c1 cd3e
000000f0: a1b6 9f3e e23f fa3e 9e81 0c3f adff fb3e
0.41350594 0.7646665 0.44793868 0.61802495 0.6014951 0.42534265 0.4779283 0.4084143
0.44180638 0.42519462 0.54214096 0.49165332 0.46135607 0.44709563 0.2789068 0.6451397
0.6098065 0.34253958 0.3962942 1.074167 0.33422706 0.37070733 0.36715406 0.5273041
0.4221167 0.36781025 0.64769214 0.7755753 0.6453517 0.66596 0.55546725 0.3615337
0.8201992 0.7593571 0.5368725 0.6413977 0.35858947 0.30201474 0.63073194 0.29355156
0.42541283 0.2749501 0.5574791 0.54265577 0.5317593 0.43980214 0.5157803 0.37835845
0.6013658 0.56061137 0.7211588 0.3703694 0.4184413 0.4713234 0.37732607 0.7355045
0.5099334 0.48172018 0.67334896 0.40186316 0.31194022 0.48876864 0.5488528 0.49218503

bn2/gamma f4 [64]
00000000: 7c7a 833f f39e 773f 1dae 783f d4f9 7b3f
00000010: 6cf7 7e3f 13e1 823f cba6 7e3f d774 773f
00000020: f7e8 7a3f fd8a 7c3f fe81 7a3f b013 833f
00000030: f4ac 7c3f 0d8e 7f3f ab1c 803f 1e35 7e3f
00000040: 96dc 783f 5b00 7e3f d36c 7b3f 4f62 7c3f
00000050: 65c2 833f e605 7d3f dd73 803f 57dc 803f
00000060: 929f 813f 4118 853f 7291 783f 2a03 803f
00000070: 7757 833f a0aa 783f 0659 7e3f 302f 7f3f
00000080: 91d7 7a3f aef0 7e3f 2825 7d3f dedf 823f
00000090: 4c03 7e3f a889 7d3f af25 793f bb96 773f
000000a0: 215e 813f a10b 7e3f 4e25 7e3f a788 7f3f
000000b0: 57cb 803f e560 803f a8d5 813f 8f1c 813f
000000c0: 4484 7e3f aa94 823f 1144 7e3f d423 823f
000000d0: 9cf0 773f 9564 843f fddf 7e3f 5f53 7a3f
000000e0: f8aa 803f d129 7e3f 54bf 783f bdb7 8a3f
000000f0: b84e 7d3f 5716 813f 16d5 763f 934f 833f
1.0271754 0.9672691 0.97140676 0.9842808 0.99596286 1.0224937 0.99473256 0.9666266
0.98011726 0.9864958 0.978546 1.0240383 0.98701406 0.9982613 1.0008749 0.992998
0.9721159 0.9921929 0.9821293 0.98587507 1.02937 0.98837125 1.0035359 1.0067242
1.0126822 1.0398027 0.9709693 1.0000966 1.0261067 0.97135353 0.9935459 0.9968138
0.9798518 0.99586 0.9888482 1.0224569 0.9922378 0.9903817 0.97323126 0.9671437
1.0106851 0.99236494 0.9927567 0.9981789 1.0062054 1.002957 1.0143328 1.008684
0.9942057 1.0201619 0.9932261 1.0167184 0.96851516 1.0343195 0.9956053 0.97783464
1.0052176 0.99282557 0.97166944 1.0837322 0.9894824 1.0084943 0.96418893 1.0258659

conv1_1/b f4 [64]
00000000: 9fc7 3338 07c7 0738 308f cb38 c7f8 4637
00000010: 993e aab8 1d5d a038 4658 cbb8 ec52 bf36
00000020: 4788 adb9 599a 82b8 9497 e637 febd 2a35
00000030: fcef 2838 a692 4638 5a7e d5b8 a493 d9b7
00000040: e867 a038 e429 fd38 e83c 99b8 af0e acb8
00000050: 0882 3b38 d740 8a37 8d54 cbb7 0080 1439
00000060: 71d4 3938 fd91 2638 182a 9d37 4442 1f38
00000070: 4c85 a938 dc60 db37 3f1d e838 7cbe 85b8
00000080: c354 d138 567d 2338 acfc 16b9 3178 b7b8
00000090: 6bb4 34b9 28f7 80b7 2d29 2db8 7578 9a38
000000a0: d5e8 8337 50bc 3339 bce5 c7b8 9353 4536
000000b0: 8de1 b8b8 b17a ee37 5c60 2938 3bc9 d336
000000c0: f82e a537 f2b1 48b6 7952 c838 9066 e137
000000d0: 0f60 cd37 f54e a8b8 66d3 a6b9 89b5 9237
000000e0: 5316 0b38 1a97 2d38 9822 1638 e620 4838
000000f0: 5cd5 2838 59a3 6bb8 20e9 39b9 0dec 9d36
4.2862837e-05 3.2371867e-05 9.706465e-05 1.1859643e-05 -8.1178914e-05 7.646738e-05 -9.6962365e-05 5.701897e-06
-0.00033098666 -6.2276325e-05 2.748872e-05 6.360641e-07 4.0277824e-05 4.7343456e-05 -0.00010180166 -2.5937166e-05
7.6487486e-05 0.00012071783 -7.306953e-05 -8.204334e-05 4.4705375e-05 1.6481075e-05 -2.4238858e-05 0.00014162064
4.430529e-05 3.9713446e-05 1.873546e-05 3.797027e-05 8.0833765e-05 2.6151938e-05 0.000110680696 -6.377415e-05
9.981685e-05 3.8978957e-05 -0.00014399242 -8.7485074e-05 -0.00017233349 -1.537388e-05 -4.1284762e-05 7.365729e-05
1.5724838e-05 0.00017140922 -9.531851e-05 2.9403934e-06 -8.815816e-05 2.8428944e-05 4.038248e-05 6.3117163e-06
1.9691404e-05 -2.99059e-06 9.552105e-05 2.686985e-05 2.4482635e-05 -8.025571e-05 -0.0003181949 1.748909e-05
3.3160974e-05 4.138714e-05 3.5795005e-05 4.7714355e-05 4.0253028e-05 -5.6180495e-05 -0.0001772982 4.7064445e-06

bn1/avg_var f4 [64]
00000000: 3b2d fd3d 1b78 c03e c333 1e3e 8946 a63e
00000010: 72cb c93e f602 7b3e 4466 ab3e e7b5 b23e
00000020: 0cd5 073e 6c24 813e 9188 df3e 6977 d03e
00000030: 2454 ca3e 823e 3d3e d7d7 4d3e 8541 cd3e
00000040: c146 f13d 774b 013f aeb9 b33e 0cb0 633e
00000050: 8e87 8a3e b103 8c3e 526e 903e f1dd 1a3e
00000060: c521 843e 0283 5b3e 72c2 503e 919a af3e
00000070: a8de 6f3e cc33 073f 4194 dd3d 72fc aa3e
00000080: 581a dc3d c5c1 ac3e f0e5 683e 9d97 8a3e
00000090: c28b 733e 5cb4 0d3e f49b bf3e 80c6 af3e
000000a0: f936 863e 4993 c03d 9ca9 f23d 8411 5b3e
000000b0: f074 c93d c632 303e 7514 033f b60a 5b3e
000000c0: a7cd aa3e f5f2 e43e 2c50 4b3e 6b2f 073e
000000d0: f779 d33e 8e47 833e 7b5b 323e c689 da3d
000000e0: 7124 6f3e cf5c b93e 86ff 0b3f 007b fa3e
000000f0: 55dc 223e f4ee 823e 132d 973e 28e3 223e
0.12362143 0.37591633 0.15449433 0.3247569 0.3941303 0.24512848 0.3347646 0.34904405
0.13264865 0.252231 0.4365888 0.40716103 0.3951732 0.18480876 0.20101868 0.4008905
0.11781073 0.50505775 0.351026 0.22235125 0.27056545 0.27346566 0.28209168 0.15123726
0.25807014 0.21436694 0.20386675 0.34297612 0.2342478 0.5281341 0.10819293 0.33395725
0.10747212 0.33741584 0.22743964 0.27068797 0.23783782 0.13838333 0.3742367 0.3433113
0.26213816 0.094030924 0.11848757 0.213934 0.09836757 0.17206869 0.5120309 0.21390805
0.33360025 0.44716612 0.19854802 0.13201682 0.4130399 0.2564053 0.1741771 0.106708094
0.23353745 0.3620362 0.5468677 0.48921967 0.15904362 0.25572932 0.29526576 0.15906966

bn2/beta f4 [64]
00000000: d6d7 d53c a564 98bc 0a43 59bc 0b5c 8e3a
00000010: 0e22 0f3c a9da c83c 227f 423c 7d2c abbc
00000020: 70dc 68bb 8997 9bba 9bc3 573c 6359 dc3c
00000030: 434c 00bc 17e7 373d aa34 e53b 7a8f 963b
00000040: d9b3 90bc c566 d53c c123 383b 8160 cb3b
00000050: 0638 7cb9 d39f f1bb cbd9 a5bc f445 023d
00000060: 2a70 0e3d 1c18 2c3d e1d5 c0bb 8eee ab3b
00000070: f23c 363d 9b2e 81bc a7c3 a83c bc20 9d3c
00000080: cb0a 08bb 1a89 5d3c 8917 3d3a 2874 84bc
00000090: 0abb 903c c530 e13b b2db ebbc b00d 1d3c
000000a0: 971a c63c ad2b 98bb 23b3 383b 24de 953c
000000b0: 30f5 42ba 3c5f 3f3c e252 863c 5d6e 6e3c
000000c0: 7969 2c3c 0610 123d 430f 95bb cd42 433c
000000d0: b9a6 01bd e43d 383c 7fc7 49bb 0977 cebb
000000e0: f7c8 f83c 1410 ce3a cb9b c2bb a985 14bd
000000f0: 6a4f 413c cfea 2bbc e722 e7bc e8fc d73c
0.026103895 -0.018602679 -0.013260612 0.0010861171 0.008736147 0.024518328 0.011871131 -0.020895237
-0.0035531782 -0.0011870723 0.013169195 0.026898092 -0.007830682 0.04489812 0.0069948034 0.0045947405
-0.017663883 0.02604998 0.0028097483 0.0062065725 -0.00024053463 -0.007373789 -0.020245453 0.031804994
0.034774937 0.04201518 -0.0058848714 0.005246944 0.044491716 -0.015769294 0.020601107 0.019180648
-0.0020758386 0.013521457 0.0007213285 -0.016168669 0.017667312 0.006872269 -0.028791282 0.009585783
0.0241826 -0.0046438784 0.0028182946 0.018294401 -0.00074370485 0.0116804205 0.016396943 0.01455268
0.0105231935 0.035659812 -0.0045489385 0.011917782 -0.03165314 0.011245225 -0.0030789075 -0.006300811
0.030369265 0.0015721344 -0.005938982 -0.03626028 0.011798719 -0.010492994 -0.028214885 0.026365712

bn4/gamma f4 [32]
00000000: 659f 803f 2b9f 913f 78b7 823f eacb 873f
00000010: ed22 873f 130e 8d3f ae3e 8d3f ddec 8b3f
00000020: 9368 853f 0205 8e3f 4480 8b3f 2490 863f
00000030: d2cf 873f 994d 833f f9fc 8b3f 909d 843f
00000040: fdb0 8f3f ddd9 893f 9a77 8f3f e246 8c3f
00000050: 16ed 873f a07a 8c3f 963d 893f 1810 863f
00000060: 20f9 853f 8448 873f a21b 943f b019 8a3f
00000070: ff48 8f3f 6864 853f 35ec 8d3f f821 873f
1.0048643 1.1376699 1.021224 1.0609105 1.0557534 1.101992 1.1034753 1.093166
1.0422539 1.1095278 1.0898519 1.0512738 1.0610297 1.0258056 1.0936576 1.0360584
1.1225888 1.0769612 1.1208375 1.0959132 1.0619228 1.0974922 1.072192 1.0473661
1.0466652 1.0569005 1.1570933 1.0789089 1.1194152 1.0421267 1.108771 1.0557241

conv1_7/b f4 [2]
00000000: 2804 333d c436 a63b
0.043705136 0.0050724465

conv1_6/W f4 [32, 32, 3, 3]
00000000: 22f7 b7bc 7940 1fbc 643b 453d 1d06 20bb
00000010: 16b7 8fbc 2203 c83d a3c6 b93c 981d e7bb
00000020: 0a20 633d d576 cb3d 9b70 97bd ffdd b33d
00000030: 5972 10bb 67b7 d6bc 6b3f e33c 9223 c93a
00000040: d332 513b 69cd eab9 6179 8e3d 178c 92bc
00000050: 5937 863d 386b 993c fef6 d13d ebce 7b3c
00000060: 48fd 34bd 41d3 383c 7e21 2abd fd10 4ebd
00000070: 66f2 343c c350 e53b 270b 83bd 2b80 b93d
00000080: c05f ae3d d1f7 33bc a157 fb3c 8161 b73d
00000090: 4839 ccbc 6d5d 39bd b986 55bd 123c abbd
000000a0: 9a75 8a3b fd7e 8cbd ed5f ebbc 84d2 8dbc
000000b0: 1fb8 76bd 64cd d1bd 8a04 b7bd 193c fdbb
000000c0: 74e6 13bc 1770 34bd 3619 97bd d8d9 693a
000000d0: c909 3abd 047d 7cbd 194d 9a3d 55ad e8bb
000000e0: 0c26 4cbd cc41 7fbd 5094 36bd a109 66bd
000000f0: 9f8e 5bbc 0dd9 5dbd 5f45 08bc f278 39bd
00000100: c906 fa3d 6a87 ed3c 2575 f4bd c025 003c
00000110: cc88 e6bc 620e 713d 40ca c2bd ea30 493d
00000120: a809 8fbc 4c46 503c 497c b43d f770 553b
00000130: da69 93bd b904 50ba a9c8 a23c da51 633d
00000140: e5f5 93bd def6 843d d4d1 84bd 12b8 dd3c
00000150: 05ca 8b3c 91e3 7d3d 3ca2 243d 9d41 cb3c
00000160: 7030 01be 50ec 9bbd 56ef 7e3b 959a 9f3c
00000170: d069 39bd 544c cabc 905b ebbc 9c02 1abd
00000180: 4fd9 3e3c 86f1 733d 6ae7 08bd f53b 89bb
00000190: 7d28 dbbd 4fbb c73c c978 813d dd32 4d3d
000001a0: b2ff 973c 6813 b33c 4e16 c63d 0c03 8abc
000001b0: 52e3 4fbc 699d 8e3d 676e 07bd 7809 0c3e
000001c0: c95a d0bb 8239 383d 51f7 833d 423e d83a
000001d0: 50a2 7f3c 0ac5 08be 3adf 5f3d 919e eb3c
000001e0: 0fdb 6bbd 9e7b bcbd 78bd a9bd 6a02 733d
000001f0: d020 2b3c 07ce b3bd 3fbf 3abc 154b 15bd
00000200: 5dbf 0cbd b29d fbbb ea7d 933d 4237 14bc
00000210: 2f22 18bd fb49 b13c cadb d5bc c19f 6cbc
00000220: fa2b 08bd 70d2 35bd 91bd d1bd 597c 8abd
00000230: 46e8 073e bb3d 02bd 1b8a 7b3b 4858 84bd
00000240: c00e 9e3d 34cb bcbc 69cc 50bd a401 c13c
00000250: a869 2f3d 5ccc aebd f0ca e5bd e343 bdbd
00000260: 90a0 833d 1b2a 413d 45ae d9bd e748 633d
00000270: 5f8d 3c3d 784f edbd 6793 b83d 6f98 c53c
00000280: ff8c 603c ea2f 623d 40b1 6fbd 838b c6bb
00000290: cb23 243d 842b ac3d 7244 76bd affe 013d
000002a0: ee51 b8bc fae4 5bbd 0eb0 f13c 12ea ef3c
000002b0: 1d23 d43d eac0 253c 59d3 5d3d 9ef0 01bd
000002c0: 1392 9abc 357f 3d3d 7ab1 aa3d d1ce 9fbc
000002d0: 79e6 83bd 9f21 ff3c 85a0 3fbd e688 423d
000002e0: 8c6f 18bd 2952 94bc 3484 453d 4a8d e3bc
000002f0: ba36 f2bc 3efa 61bc b30a 3ebd 767b abbc
00000300: fd69 81bc d9fc aebd 887a 72bd 327a a0bd
00000310: e605 ea3d 3ba5 a73d 17db 7d3d 0b4f b73c
00000320: 20d4 d3bc 953f 003d 7866 1a3d 1da5 65bc
00000330: 5da0 83bd ea3a d93c 68e4 d0bc 5960 723d
00000340: adae 05bd e60e 12be d82a 493d 1e02 863c
00000350: 5ecb 893d d767 753d deca 0b3c 1f5f b5bd
00000360: c47d a4bd 6977 89bd c2af c2bd da45 123d
00000370: 8677 173d 3649 4a3d 8fdb aabc c1e3 babd
00000380: c8be c93d c193 18bd fed5 b03d 769e 2f3c
00000390: e94c 903c 6839 b23c be0b 64bd 9cc8 3b3d
000003a0: 7886 513c 9843 973d 1b8d 99bb 43ce 943c
000003b0: 7d85 db3d d366 3d3d 2823 9c3a a397 4bbd
000003c0: 70cc 533d 04de e83c 858d 223d da9b 063d
000003d0: 4591 e2bd e609 d73d 7d42 ec3c 5689 9dbd
000003e0: 74e6 84bd a64e 773d e12a 643d eeac 8b3c
000003f0: b8f5 873b 5918 623d 3301 bd3c 47e3 fcbd
-0.02245671 -0.009719961 0.048152342 -0.0024417706 -0.017543357 0.097662225 0.022677725 -0.0070530884
0.055450477 0.09934775 -0.07394525 0.08782577 -0.0022040813 -0.0262105 0.027740201 0.0015345684
0.0031921163 -0.00044785 0.06956745 -0.017889066 0.065535255 0.018727884 0.10252188 0.015369157
-0.04418686 0.011280836 -0.041535847 -0.05030917 0.01104412 0.006998153 -0.063986115 0.09057649
0.085143566 -0.010984377 0.030681433 0.08954144 -0.024929658 -0.045255113 -0.052130435 -0.08361067
0.004225445 -0.068601586 -0.028732264 -0.017312296 -0.060234185 -0.10244253 -0.08936413 -0.0077281115
-0.009027112 -0.04405221 -0.073778555 0.0008920706 -0.045419488 -0.06164266 0.075342365 -0.007100741
-0.04984097 -0.06231861 -0.044575036 -0.056161527 -0.013400703 -0.054162074 -0.008317321 -0.045281358
0.122083254 0.028995235 -0.11936406 0.0078215 -0.028141402 0.058851607 -0.095112324 0.049118914
-0.01746066 0.012712073 0.08812768 0.0032568553 -0.07197924 -0.0007935274 0.019871073 0.05549798
-0.07224635 0.06492399 -0.06485334 0.02706531 0.017064104 0.061984602 0.04019378 0.02481156
-0.12616134 -0.076134324 0.003889998 0.01948289 -0.045266926 -0.0246946 -0.028730184 -0.037600145
0.01164849 0.059556507 -0.03342382 -0.0041880556 -0.10701082 0.024381308 0.06321866 0.050097335
0.018554542 0.02185984 0.09672223 -0.016847156 -0.012688475 0.06963617 -0.033064272 0.13675487
-0.0063584787 0.04497672 0.06443656 0.0016498046 0.015602663 -0.13356414 0.054656245 0.028762134
-0.057581957 -0.092032656 -0.082880914 0.059328474 0.010444835 -0.08779531 -0.011398136 -0.036448557
-0.034362186 -0.007678711 0.072017506 -0.009046378 -0.037141975 0.021641722 -0.02610578 -0.014442385
-0.033245064 -0.044390142 -0.10241235 -0.06761999 0.13272199 -0.031797152 0.0038381878 -0.06462151
0.07717657 -0.023046114 -0.05097619 0.023560353 0.04282537 -0.08535072 -0.11220348 -0.09241464
0.06427109 0.047159296 -0.106289424 0.055489447 0.04603326 -0.11587423 0.0901249 0.024120538
0.013705491 0.055221476 -0.05851865 -0.0060591116 0.040073197 0.084067374 -0.06012387 0.031737026
-0.022500005 -0.053685166 0.029502895 0.029286418 0.1035826 0.010116795 0.054156635 -0.03172361
-0.018868482 0.046263892 0.08334632 -0.019507797 -0.064404435 0.031143961 -0.046783943 0.047493838
-0.037215754 -0.018105583 0.04822178 -0.027777333 -0.029567111 -0.013792573 -0.046396922 -0.020932894
-0.01579761 -0.085443206 -0.059198886 -0.07835807 0.11426906 0.08185812 0.06197652 0.022376558
-0.025857985 0.031310637 0.037695378 -0.014016417 -0.06427071 0.02651735 -0.025499538 0.059173916
-0.032637287 -0.14263496 0.049113125 0.016358431 0.06728242 0.059913483 0.008532254 -0.088560335
-0.080318004 -0.06712229 -0.095061794 0.035711147 0.03697922 0.049386226 -0.020856647 -0.09125472
0.09850842 -0.037250284 0.08634566 0.010718932 0.017614799 0.021755889 -0.05567526 0.045845613
0.0127884075 0.07385939 -0.0046860105 0.01816476 0.1071882 0.04624064 0.0011912333 -0.04970516
0.05170864 0.028426178 0.039685745 0.032863475 -0.11062864 0.10499935 0.028840298 -0.076922104
-0.06489268 0.06037774 0.055704955 0.017050233 0.004149165 0.055199 0.02307186 -0.12348037

conv1_4/W f4 [32, 64, 3, 3]
00000000: 38a8 cd3b 184e 7bbd 0200 85bd 9955 133d
00000010: 6ba8 863d dc48 8cba 7e8c e23b 8b2a 9dbc
00000020: 5e69 673b 7829 2abd 8cbf bfbd c0cf 90bd
00000030: a302 caba 01a1 9b3d 2e64 413c e619 65bc
00000040: eac2 9f3d ca35 b53d 641d 9a3d df23 d7bc
00000050: 99b0 26bc 8617 923d d5c8 f53b 49ee 823d
00000060: ffef 05bd 2d85 babc daf0 b63d d120 323c
00000070: c033 c7bd 75ff 45bd 21b2 683c 247a 7cbd
00000080: 0fa9 17bd 8161 25bc dcc7 5fbc 1d0f 0fbd
00000090: 75cc 91bc 8f5a 0d3d 165a 093b 091a 92bc
000000a0: 625f 45bc c40f a9bb 69c0 ab3c ece4 27bc
000000b0: 57d8 853d 0fc0 74bd 02f9 87bd 4d9a ad3b
000000c0: f960 f2b8 42cb 81bd 4e31 543d 6fed 5a3c
000000d0: ec57 a03b cc85 eebc ec72 283c dde1 483d
000000e0: fee8 4b3d f7fa c2bd 6515 fbbb 8f6e 503d
000000f0: e552 c8bc cde1 543b 04b4 a0bc 6143 3c3d
00000100: 47d0 e7bb 2abc 06b9 cb93 9e3d 08fa de3c
00000110: 672c 41bc a0d4 963d 72b2 3ebd cabe 0fbd
00000120: 8719 303c bb60 4fbd 1f73 11bc 3609 0b3c
00000130: 1fe4 fbbc f591 b3bd 2a2f 33bd fdf8 f93b
00000140: 299f 5d3d 9cf2 493d 002f 9e3c d913 d73c
00000150: 7050 8ebb 1bbd e83c 77f1 d4bd 970d 1b3c
00000160: 75a6 c6bd cb53 60bd 4d46 18bd 25e3 48bd
00000170: ea29 843c 920f 1a3d 2004 60bd 496d 25bd
00000180: 5026 e9bc 8b54 183b a86a b9ba 6e9f ac3d
00000190: 2835 d83b e686 39bd fab9 1f3c 73df 93bd
000001a0: b84b 693c 64b7 abbc 9cc7 553c 382a 693b
000001b0: e82b 323d b1b9 7d3d f858 1e3d e130 efbc
000001c0: bff1 6fbc dac7 0c3b f970 a63d 2ae8 733d
000001d0: 5624 a3bc f303 0f3d 1b42 813d 5ec0 d0bb
000001e0: b97a 743d 3047 88bd 9977 c4bb dcad 8f3d
000001f0: f048 903b a9d5 0bbd 1455 323b 6555 6fbd
00000200: af53 193d c7e5 d23d 18b0 9f3c 874e 463b
00000210: 78e6 8bbd a305 91bd bf14 943d de7c aabd
00000220: c035 4c3d 02cd 7abc 7d7d 4bb9 ee1d a33b
00000230: 2ff7 55bb 2676 94bd 1d2b 42bb 604e ccbc
00000240: 39dd e8ba 44d4 60b9 d3c8 3fbd 4e78 d33c
00000250: b247 283c 516b 333d ef96 49bd 604f 51bd
00000260: 9a7b 47bd 4dcc 92bd 77c0 7dbd e4e0 973c
00000270: 1cee ec3b db26 bbbc 3559 23be bf0d 1b3b
00000280: 480c 8f3d 8c37 c937 eca4 0d3b 7ef6 ff3c
00000290: 33bb 3cbc 2ff0 623d 4649 26bc f5fb da37
000002a0: 66cb b8bc 06ba 023d 1185 4e3d 3863 02bd
000002b0: 5217 963d 5eb5 d23b 39fb 453d 0d6b 813d
000002c0: c854 013d e7d8 f1bc ba21 8fbd 0f36 b83c
000002d0: 083b 62bd 4567 a9bb a853 a8bc 7192 f1bc
000002e0: dfe6 953c d5bc 87bd 95dc ae3a c3d2 1cbc
000002f0: 3047 1e3b f68e 983d 9d82 533b cca2 4c3b
00000300: 5bd2 8cbc 0f29 08bb 1ee5 b03c e0f9 7dbc
00000310: 1cfc a7bc 5199 dfbb d5f9 fa3c 2f0b a03c
00000320: d64d b2bc 5ef2 6d3c d4de 1a3d c53e ec3c
00000330: 6d50 a0bd 280b 283d bac0 013e 2adf 243d
00000340: a591 82bc 5592 adbc 4e84 06bd 95e0 0ebd
00000350: dacf 82bc e649 20bd b945 61bc 02db 72bd
00000360: 3f5a 0abd 711b c63c c8cc 89bc 0f84 2cbd
00000370: 60ac 233d 775c 5e3d 59b9 063c eb9f 253d
00000380: 11e6 4e3c 72a0 573b 01ac 18bd 70e4 82bc
00000390: f331 35bd 4f09 1abd e271 6dbd 6af7 cb3c
000003a0: 4d66 96bc 0462 e23a f0ce aebd ddbb 4fbd
000003b0: 7bed 24bd 69db b7bb 96f0 c33c fa01 e2ba
000003c0: b39b 68bc 7e6d 2d3c 2fe1 1cbc 9ba5 bf3c
000003d0: 0365 333d 04fc 493d 16aa c03d 73fb 4e3c
000003e0: 33de 9abb 6ead b2b8 e17a af3d bd4a 133d
000003f0: 2167 e9bc d42e bb3c 05eb ba3b d8ec 9b3b
0.0062761568 -0.061353773 -0.06494142 0.035970304 0.06575092 -0.0010702866 0.0069137206 -0.019185325
0.0035310606 -0.041543454 -0.093627065 -0.07070875 -0.0015412163 0.075990684 0.01180367 -0.013983225
0.07800849 0.0884815 0.07525137 -0.026262222 -0.01017394 0.07133393 0.0075007477 0.063931055
-0.03269958 -0.022768581 0.089326575 0.010872082 -0.097266674 -0.048339326 0.0142026255 -0.06163992
-0.03702646 -0.0100940475 -0.01365849 -0.034926523 -0.017797688 0.03451019 0.0020958236 -0.01783468
-0.012046667 -0.00515935 0.020965772 -0.01024745 0.06535404 -0.059753474 -0.06639291 0.005297935
-0.00011557522 -0.063375965 0.051804833 0.013362273 0.0048932936 -0.029116534 0.010281306 0.049043525
0.049782746 -0.09520524 -0.0076624625 0.050886687 -0.02445359 0.003248322 -0.019617088 0.045962695
-0.007074389 -0.00012849332 0.07743033 0.027218834 -0.0117903715 0.07364774 -0.046556897 -0.03509406
0.010748274 -0.05062936 -0.008877545 0.008486083 -0.030748425 -0.087680735 -0.04374615 0.0076285587
0.054106865 0.049303636 0.01930952 0.026254581 -0.004343085 0.028410485 -0.10397618 0.009463689
-0.09699718 -0.05476741 -0.03717642 -0.049044747 0.016133267 0.037612505 -0.054691434 -0.040387426
-0.028460652 0.002324375 -0.0014146166 0.08428846 0.0065981336 -0.045294665 0.00974893 -0.07220354
0.014239244 -0.02096147 0.013048079 0.0035578143 0.043498904 0.061944667 0.038659066 -0.029198112
-0.014645039 0.0021481426 0.081270166 0.05954758 -0.019914787 0.034915876 0.06311437 -0.006370588
0.05968735 -0.06654203 -0.0059957025 0.07015583 0.004403226 -0.03413931 0.0027211355 -0.058431048
0.037433323 0.10297733 0.019493148 0.0030259208 -0.06831068 -0.07081153 0.072305195 -0.08324598
0.049855947 -0.015307667 -0.00019406337 0.004977933 -0.0032648554 -0.072490975 -0.0029627748 -0.024939716
-0.0017766125 -0.0002144138 -0.04682238 0.025814202 0.010271 0.043803517 -0.049216207 -0.05110109
-0.04870186 -0.071678735 -0.061951127 0.018539853 0.0072305333 -0.022845676 -0.15951999 0.0023659316
0.06984764 2.3986933e-05 0.0021613194 0.031245466 -0.011519241 0.05540484 -0.010149306 2.6104952e-05
-0.022557925 0.031915687 0.05041987 -0.031832904 0.07328667 0.006430312 0.048335288 0.063192464
0.031574994 -0.029522372 -0.06988855 0.022486715 -0.055232078 -0.0051697814 -0.020547703 -0.029488774
0.018298564 -0.06627814 0.0013340885 -0.009571734 0.0024151318 0.07449143 0.0032273897 0.0031224964
-0.017190149 -0.0020776426 0.021593627 -0.015501469 -0.020505957 -0.0068236967 0.030636707 0.019536583
-0.02176563 0.014523117 0.03781016 0.028838525 -0.0782784 0.041026264 0.12671176 0.04025189
-0.01593859 -0.02118794 -0.03284102 -0.034882147 -0.015968252 -0.039132975 -0.013749533 -0.059290893
-0.03377747 0.024183007 -0.01682128 -0.04211813 0.03995931 0.0542874 0.008222901 0.040435713
0.012628094 0.003290203 -0.03727341 -0.015978068 -0.04423709 -0.037606534 -0.057969935 0.02489825
-0.018359328 0.0017271643 -0.08535564 -0.05071627 -0.04026554 -0.0056108725 0.023918431 -0.0017243021
-0.014197278 0.010585187 -0.009575172 0.023394397 0.043797504 0.049312606 0.09407441 0.012633192
-0.0047261952 -8.520005e-05 0.08568359 0.035959948 -0.028491559 0.022849478 0.005704286 0.0047584586

bn1/avg_mean f4 [64]
00000000: ec81 ee3b 1247 56bd f79b 883d 1c4b 94bd
00000010: f9e8 3a3d 5ae6 753d 4f55 9dbc 69ad afbc
00000020: bf58 b33d 4a4d 7e3d a9cd dbbd 517d 6ebd
00000030: 4e53 9ebd 393e 1ebd 2938 c5bd 6ac1 04bd
00000040: 116d 01bd 1ece c93d 7eaf a23c 9064 11be
00000050: 3e3a 00bc 55be a4bd 71f1 aa3d 6f2b f9bd
00000060: c46d ab3c a8af 02be 24f8 7bbd 6bcb 873c
00000070: 6a6f 57bd 69db b1bc 2e1a 71bd 20d8 9cbd
00000080: b452 7d3d 3c70 943d 8cb4 9fbd be76 dabd
00000090: c06f 223d c34b 44bc b263 b13c bd49 d63c
000000a0: e4d3 543d 2d77 8fbd 4a6d edbd 5896 96bd
000000b0: 42a9 6e3d c98d b1bd a047 6dbd 15e6 bdbd
000000c0: ffaf 393d 5162 a43c 1a6d 433d b109 c7bd
000000d0: be8c f1bc 8e42 983d ca40 11be bc73 72bd
000000e0: 395b a63c da4d 95bd 17f5 b7bc 91b8 1c3d
000000f0: 1693 6fbd f6bb 06be c4d1 8e3d a827 0abd
0.0072786715 -0.05231387 0.06670373 -0.072408885 0.045632336 0.060034133 -0.019205717 -0.021444993
0.08757161 0.062085427 -0.10732586 -0.05822498 -0.07730733 -0.03863356 -0.09629852 -0.032411017
-0.031598154 0.09853767 0.019859072 -0.14198518 -0.007826386 -0.080441155 0.083468325 -0.121664874
0.020926364 -0.1276232 -0.061515942 0.01657649 -0.052596487 -0.021711068 -0.058862858 -0.0765841
0.06184645 0.072479695 -0.077981085 -0.106671795 0.039657354 -0.011980954 0.021653984 0.026158208
0.051959887 -0.07005153 -0.11593111 -0.073528945 0.058266886 -0.086696215 -0.057929635 -0.092724
0.04533386 0.020066412 0.04771147 -0.09718645 -0.029486056 0.07434569 -0.14184871 -0.059192404
0.02030717 -0.0729024 -0.022455735 0.038261954 -0.05848988 -0.13157639 0.06973603 -0.033729225

bn4/beta f4 [32]
00000000: 657d 08bc b1bc 153e 9921 d13c abe3 5a3d
00000010: 3b19 cf3c e3a5 da3d afe6 f43d c188 b93d
00000020: 4eb6 903c 5f3a fd3d 6360 f03d 1af5 903d
00000030: b20f 203d 5f0f 133d 7b6e d03d 38ce 553d
00000040: f668 ff3d b4ab 613d a243 e23d fb5a c13d
00000050: cd3f a53d 9ea4 e33d 7a52 b23c d68d 0e3d
00000060: 76de 6d3d 390b 703d 2530 3f3d 0645 e13d
00000070: 51e0 153e cce5 653c e470 b93d 929f fc3d
-0.008330678 0.14622761 0.025528716 0.053439777 0.025280586 0.10676172 0.11958062 0.09059287
0.017665055 0.12364649 0.11737134 0.070779994 0.03907747 0.03590333 0.101773225 0.05219862
0.124711916 0.05509539 0.11048056 0.09441181 0.0806881 0.111153826 0.021767844 0.034803234
0.058073483 0.058604453 0.046676774 0.10999493 0.14636351 0.014031839 0.09054735 0.12335123

conv1_2/W f4 [64, 64, 3, 3]
00000000: ae35 4fbd 7f02 a03d e2f4 af3c 362c 473d
00000010: b460 d6bc ce72 70bd d71b bc3b 7107 c2ba
00000020: 91a1 babd a327 793d d423 7cbb ac3c 913d
00000030: 6cfa c3bc c51f d83c 546b 583d f30a 4fbd
00000040: 3fd0 53bd 5865 1abd d65a 10bc 7311 5dbd
00000050: 4b21 953d 1407 8cbc 60b4 1e3d 9417 0b3d
00000060: b3a3 55bd 5ac8 0a3d 3fa4 b1bd 1f8f 36bd
00000070: e1e3 983d 7774 e1bc a6f7 70bc 542b b1bd
00000080: ade3 50bd a1f3 ce3c 947e 7b3c 54ea 66bc
00000090: 5687 e1bc fadf 3a3c 9c73 29bd d362 1fbc
000000a0: 2eb6 2dbd f2f1 14bc 303a 083d dd65 30bb
000000b0: fc14 3a3d c632 b0bc 8258 14bd 0470 51bd
000000c0: 2ddd 67bb acf4 4d3b 92dd 943c acc6 c63d
000000d0: 4261 92bc a734 323d 4d90 b73b 1918 873d
000000e0: cc4c 1b3c 9bf8 90bc be6d f5bb 84f8 b0bd
000000f0: bb0b 953d a751 4f3d 1dca 883b 2cde 42bd
00000100: 6629 11bd efd6 853c 1173 24bd a049 a0bc
00000110: 9a34 473d fef9 b8bd fdc2 683a 4b0a 67bd
00000120: 2c67 cebc 7114 f33c 5d67 543d 7eb0 5d3c
00000130: 4ff5 49bd 2386 01bd 5a14 4f3c 3785 b4bc
00000140: 7425 81bd be79 6bbd 037c 16bb 7782 013c
00000150: 2df9 763d 2649 c2bd a38c 3f3c 9fc6 313c
00000160: 55a2 7fbd bf76 b33d a0fc 9ebc 4ed8 96bc
00000170: e751 f4bc bbfd 12bd 312b 0f3d 923c 8f3d
00000180: 4b62 ddbc 0f73 b73c 728f 3bbc ce66 0d3d
00000190: eb7e 113d 6b57 ebbc 433d 1d3b 50de 98bd
000001a0: 8a0e fe3c 71bd 423d 46cf ef3b a8ab 51bd
000001b0: d777 87bd 6303 8bbd 10d1 08bd ea5e a9bb
000001c0: 94e4 903c bd18 91bd 33f8 a13d 7f99 19bc
000001d0: 98b3 263d 8bf5 84bd 0b00 52bc c0b5 b0bc
000001e0: 95fd 7bbd 3794 aebc bfb0 e0bb 3010 98bd
000001f0: a6fb 0dbd 3e69 38bd cb48 abbc 02e3 013c
00000200: 85b4 89bd a052 b63c 71a4 edbc d2e0 923d
00000210: d856 0cbb 2bc9 36bd 7344 ef3d 38bf 02bd
00000220: 5f91 4dbd 97d6 1dbd 552d b3bc 1fa1 13bd
00000230: 801c 42bc 5758 84bd e827 d7bc aa50 d7bd
00000240: 8729 18bc 5dca 1fbd 9930 05bc 9d25 21bd
00000250: 2e2d 0ebd ca3c e6bd 3453 103c 04a3 5a3c
00000260: 14f1 a9bd 7068 8cbd 57b8 203c 43bc 16bd
00000270: d137 343d 3bdd 1ebd 4cf6 d43d a70e 0fbd
00000280: 0d32 95bd d8ec 01bd 0574 8cbc 3a3f 8cbd
00000290: bb31 61bc 7875 85bc 8947 08bd f7c7 86bd
000002a0: 6ced d13c c2d6 78bc 5ae7 a6bd c98d bcbd
000002b0: cd44 b0bd a270 50bd 841c 9dbc 6290 3a3c
000002c0: e35d bcbc 2e6e 80bd 40a2 82bc b6b9 02bd
000002d0: 7322 efbc 3cd0 6fbd f3a1 a1bc ffec 293c
000002e0: 02a3 02be 6add 17bd d0b4 ab3c c99d 6dbc
000002f0: 9d36 6f3b f842 8a3d 5e91 11bd 54a1 17bc
00000300: 7ec3 533d 3c7d 2fbd b3ea 383d 3f60 353c
00000310: 2ad4 3c3b 771e 5b3d bc2b a7bd 55e2 e73c
00000320: 21e3 323d 5238 b3bd 402b dabc bafe ffbc
00000330: 59a6 893d f0e3 433d 80a6 79bd ba00 473d
00000340: fa0b a5bc a330 813d 45e3 823b 5649 8ebb
00000350: 1c5e cabd f88f c5bc 64e5 433c 5e8d 213d
00000360: 7dcb d7bb b524 acbc b631 c33c 1ab8 8e3c
00000370: f66a 3d3c bfb6 1d3d 0c8e 91bd 0eb8 7cbd
00000380: 1e14 f83c a68c debc f058 053d ef9e a23d
00000390: d640 fdbc c009 363d 3652 95bc 55c1 a8bd
000003a0: a341 1b3c 82bc 403d a575 5bbc 7270 0c3d
000003b0: 1e48 3cba 4344 f1bc 692c e63c 3bcb ccbd
000003c0: 72e1 23bd ba0f b53c f216 eb3a 9249 1dbc
000003d0: 888d 2e3d 491a 96bc 717e f33c e67b 23bd
000003e0: b087 0f3d 055c 803c 8664 1b3d 05ae 9d3c
000003f0: dd50 08bd 1b57 1e3d f7fe 81bd e362 25bc
-0.050588302 0.07812976 0.021479074 0.048626147 -0.026169159 -0.058703236 0.0057406235 -0.0014803243
-0.091128476 0.060828816 -0.0038473504 0.0709165 -0.023923121 0.026382336 0.05283673 -0.05054755
-0.05171227 -0.037694305 -0.0088107195 -0.05397172 0.07281741 -0.017093219 0.038746238 0.033958033
-0.05215807 0.033882476 -0.086739056 -0.044570085 0.074653395 -0.027521355 -0.0147074815 -0.08650842
-0.05099838 0.025262656 0.015350003 -0.014093954 -0.027530354 0.011405939 -0.04137002 -0.009728151
-0.04241007 -0.009090887 0.033258617 -0.0026916184 0.04543017 -0.021508586 -0.03621722 -0.051132217
-0.0035379634 0.0031426353 0.01817206 0.097058624 -0.017868642 0.043507244 0.005601919 0.06596393
0.009478759 -0.01769667 -0.007489889 -0.086411506 0.07277628 0.05061498 0.0041744844 -0.04757516
-0.03543987 0.01633784 -0.0401488 -0.019566357 0.04863415 -0.09032057 0.0008879153 -0.0564063
-0.02519568 0.029672833 0.051856387 0.013530849 -0.04930621 -0.031622063 0.01263913 -0.022036178
-0.06305972 -0.05748915 -0.00229621 0.00790464 0.060296226 -0.09486608 0.011691245 0.010850578
-0.06241067 0.087628834 -0.01940757 -0.018413689 -0.02982421 -0.035886507 0.0349533 0.06993975
-0.027024409 0.022393731 -0.011447774 0.03452187 0.03552143 -0.028728208 0.0023992814 -0.07464278
0.031012792 0.047543947 0.00731841 -0.051189095 -0.066146545 -0.06787755 -0.033402503 -0.0051687853
0.01768712 -0.070847966 0.07908668 -0.009374975 0.040698618 -0.06492146 -0.012817393 -0.02157104
-0.06152113 -0.021310909 -0.0068570073 -0.074249625 -0.03466382 -0.04502224 -0.020908734 0.007927658
-0.067238845 0.022256196 -0.029009076 0.07171787 -0.0021414068 -0.044625442 0.116829775 -0.03192064
-0.050187465 -0.038534727 -0.021872202 -0.03604233 -0.011847615 -0.06462162 -0.026264146 -0.10513432
-0.009287245 -0.039011348 -0.008129262 -0.03934251 -0.034711055 -0.11242063 0.0088089 0.01334453
-0.08297935 -0.06855857 0.009809575 -0.036800634 0.043998543 -0.0387852 0.1039854 -0.034926083
-0.07284937 -0.031720012 -0.017145166 -0.06847997 -0.013744767 -0.016291365 -0.033271346 -0.06581109
0.025625907 -0.015187921 -0.081495956 -0.09206731 -0.08606873 -0.050888665 -0.019178636 0.011386963
-0.022993987 -0.06271015 -0.015946507 -0.03191539 -0.029191231 -0.058548197 -0.019730544 0.010371446
-0.12757495 -0.03707639 0.020960242 -0.014502951 0.0036501058 0.067510545 -0.035539024 -0.009254772
0.051700108 -0.042844042 0.0451457 0.01107031 0.0028812983 0.05349585 -0.081626385 0.028306166
0.04367364 -0.087509766 -0.026631951 -0.031249393 0.067211814 0.0478248 -0.060949802 0.048584677
-0.020147312 0.06308105 0.003994378 -0.0043422384 -0.09881231 -0.024116501 0.011956546 0.03944146
-0.006585537 -0.021013597 0.023827415 0.01742177 0.011561146 0.03850436 -0.071071714 -0.061698966
0.03028303 -0.027166676 0.03255552 0.079404704 -0.030914705 0.044442892 -0.018227678 -0.0824
0.009476098 0.047054775 -0.013394748 0.034286924 -0.0007182377 -0.029451495 0.028097348 -0.09999701
-0.040009923 0.022102226 0.0017935915 -0.00960006 0.042615443 -0.01832308 0.029723378 -0.03991308
0.03504151 0.015668878 0.037937663 0.019248018 -0.033280242 0.03865729 -0.06347459 -0.010094377

bn3/gamma f4 [64]
00000000: 766a 843f 1018 833f 0804 803f ad2a 813f
00000010: 973a 803f 5ec1 833f 7958 853f 2d18 843f
00000020: 9834 7f3f baae 7e3f 520b 863f a14f 873f
00000030: 73d7 7b3f 671d 853f 6c7a 7e3f 6058 823f
00000040: 60c4 823f 98a4 7f3f a94b 803f d6e9 7f3f
00000050: 7430 7d3f 7890 8c3f 299c 833f a991 7e3f
00000060: d4a0 813f fd16 833f db93 7e3f 654b 803f
00000070: 6ab9 813f bb8c 833f 0575 813f 67dc 883f
00000080: 7cdd 7c3f 13bd 7e3f 45fd 7f3f dbc5 7c3f
00000090: 0d90 793f 4ff3 7c3f e4f0 763f 525f 863f
000000a0: 2e29 7b3f 9757 7b3f 099c 803f 25a2 823f
000000b0: abfe 803f 7314 823f e91d 803f c13a 7f3f
000000c0: 3f24 7f3f 6a7b 823f 2e47 823f 6dd1 823f
000000d0: 3ac9 853f 70d9 8a3f f7f6 823f 8e35 803f
000000e0: f884 803f 64b2 803f 02ba 7a3f 6c6a 873f
000000f0: 865d 843f b36c 7f3f 08a2 803f 83af 803f
1.0344989 1.0241718 1.000123 1.0091149 1.001788 1.0293386 1.0417625 1.0319878
0.99689627 0.9948536 1.0472205 1.0571176 0.98375624 1.0399598 0.9940555 1.018322
1.0216179 0.99860525 1.002309 0.9996618 0.9890206 1.0981588 1.0282031 0.9944101
1.0127206 1.024139 0.9944436 1.0023009 1.0134709 1.0277323 1.0113837 1.0692261
0.9877546 0.99507254 0.99995834 0.98739403 0.9748543 0.9880876 0.9646132 1.049784
0.9810971 0.98180526 1.0047618 1.0205733 1.0077718 1.0162491 1.0009128 0.99699026
0.9966468 1.0193913 1.0177972 1.0220162 1.0452034 1.0847607 1.0231618 1.0016344
1.0040579 1.005444 0.97940075 1.0579352 1.0341041 0.99775237 1.0049448 1.0053562

conv1_7/W f4 [2, 32, 3, 3]
00000000: c963 ab3d f6ee c13c 129d 8d3d 0c9c 3ebe
00000010: bb11 52bd a728 aebc b8a1 2d3d b229 7ebc
00000020: 42fe 14bd 8979 02bd a4e1 6dbd 83c1 9abd
00000030: 5fca 1a3e 3f62 f03d ea04 1abc 1f00 093d
00000040: 0b03 acbc 7415 143e 45f8 c1bb f218 f93c
00000050: b5f7 33bd aa6e a43c ac3a ac3d c085 f7bc
00000060: d610 963c 0881 c93d ca6c 443e fcdd 313d
00000070: fc66 bf3d 9988 b0bc dd45 853d 5655 943c
00000080: 645e 9e3d 8bd4 343e 8974 193e 2cd7 dc3d
00000090: 13dd a8bd 29f1 22bd 416c a3bd 6666 813d
000000a0: 7f3e 363d a095 72bd 6cc7 483d 6f20 663d
000000b0: 1940 ef3d 6991 0d3e 2b6f 40bd faed 2ebd
000000c0: f0a5 453d d439 8f3e 7d3e a93d 6d26 b73d
000000d0: a220 f63d c595 15bd d1f0 9a3c b9bb ad3d
000000e0: 4d20 acbd 09b6 e3bb bd94 503d 9e9b 8a3d
000000f0: 2a61 003e 8731 c03d f533 f63c 1de0 183d
00000100: 64fd 5bbd 599b ca3d 6e4a 2bbd e39e 973d
00000110: 6ffe 643d 136d eebc da6b 4d3d 7ca4 bbbc
00000120: bf3f 423d 765a be3c 7788 23bd 70b5 1e3d
00000130: 0cde 44bd a84b 83bd de56 ee3c a0e3 16be
00000140: aadd 023e c905 d2bd 9f15 ac3d 7595 383e
00000150: 2821 1d3e 3574 433d d72f 30bd 27b1 413e
00000160: 26a3 f5bd 0d53 2b3e a59c a73d ace8 c03d
00000170: e06b 9c3c f9d9 413e dd62 be3d b52b 6e3d
00000180: e5d2 99bd f216 c03c 13f3 873d f12d 113d
00000190: f51d bb3d b82d 6e3c 2a3d ac3d e4fe a1bd
000001a0: 6846 2f3d 8462 0bbd 6531 d73c 2fc0 e23d
000001b0: 9033 db3c e68d f0ba 9584 1c3d cd5c 7e3d
000001c0: 130f 593d 9035 ec3d e6a3 25bd 4887 05be
000001d0: d309 4c3d 2a39 833c 1c7d 883d 62b9 a33d
000001e0: 4941 8d3d 2229 cd3a 67c9 af3c 75b1 2b3d
000001f0: 2e84 1abc 9f54 213d 67b5 c43d 2334 be3d
00000200: e16c 2dbe 42d9 31be ebae 333d de8b 9d3d
00000210: c395 4c3d ef8b c43d 45f2 e5bc 7b13 543d
00000220: fd6e 293d e7d6 663d 7816 263e 3e99 013c
00000230: 142e b43d 6109 4dbc 4a56 f2bd ade2 5a3d
00000240: 2a44 d83d abea 5d3d 5150 fe3d 1618 3e3e
00000250: eae6 e83b 42d1 693d 9040 453c 0e43 e1bc
00000260: 6d8d 33be 5dad 3cbc c9e0 213d e664 01be
00000270: 144b 49bd 058f 2f3d 42cd 323d b487 153d
00000280: 770c 433d ece6 413d 3991 643d 7251 5b3e
00000290: 2c4d 4d3d 50eb 3e3d e1c3 323e d50c cbbc
000002a0: ce30 5f3c 9ff4 163e 142a 1e3d e4e5 61bd
000002b0: d6f1 83bc ac99 d03d 78e7 5bbd 10e4 613e
000002c0: 0975 823d 69ac 503d d9f9 533d 8748 a13d
000002d0: fcf8 033c 4bc4 a83d 3db7 7e3d b6d8 823d
000002e0: ed1b ab3d f35d 2e3c c889 e93d d20b d53d
000002f0: 5c36 363e 6e8f a13d 9b49 7b3d 8672 38bd
00000300: 3259 b1bd cdca 073e 3e4b 383e f2ae ad3d
00000310: 13cb 053e 4cec da3d 4917 06bb 8e39 ac3d
00000320: d5c4 41bd fd0f 833d 796f 18be c894 063d
00000330: ea6c 843b e519 5fbd 7d1b 8abc ed20 4cbc
00000340: 8eae 6bbc 618b 3cbd 5683 193a 32d4 f83d
00000350: c0dd 79bd 1dfa 443d 3ab3 9c3c 76c6 f23d
00000360: 5ad7 adbc 09e8 b43d 4fd7 f33d 6c1b 433e
00000370: 74fd ff3d 38b2 023d adf4 c23d 6223 d73b
00000380: f344 ebbb f995 0b3e 0d46 9a3d 6307 813d
00000390: f3cb 0a3e fbb4 ce3c e2f6 8e3d 2ff3 1f3d
000003a0: ad0e 2cbe af79 82bc e192 2cbd b58a 7f3c
000003b0: d612 af3d f8a8 cfbd 23f2 d2bd b997 2fbb
000003c0: d459 553d 181a f7bc 4c37 b43d e3da ef3d
000003d0: c0b7 833d ffec f03d 8bd5 243d 3e00 f13c
000003e0: 7788 323d 1977 5d3d 4302 bb3d fcb5 b13c
000003f0: 7e1f 183e 476d 153c 1667 8a3d eb63 ad3d
0.08368642 0.023673516 0.069147244 -0.18614215 -0.05128644 -0.021259619 0.042390555 -0.015512871
-0.03637529 -0.031854186 -0.058076516 -0.07556441 0.15116261 0.11737489 -0.009400586 0.03344738
-0.020997545 0.14461309 -0.0059194886 0.030407403 -0.043937404 0.0200723 0.08409628 -0.030215144
0.018318575 0.09839064 0.19182125 0.04342459 0.093458146 -0.02154951 0.06507466 0.018107098
0.07732847 0.17659204 0.14985861 0.10783228 -0.082452916 -0.03978077 -0.07979632 0.06318359
0.044493195 -0.059224725 0.04901831 0.056183275 0.116821475 0.13825001 -0.046981018 -0.04270742
0.048253953 0.27973807 0.08263872 0.08942876 0.12017943 -0.036519784 0.018913658 0.08483071
-0.084045984 -0.0069491905 0.050923098 0.06767963 0.12537065 0.093844466 0.030054072 0.037323106
-0.05370845 0.098929115 -0.04181903 0.07403352 0.05590671 -0.029104745 0.050151683 -0.02290558
0.047424074 0.023236495 -0.039925065 0.03874725 -0.048063323 -0.06410915 0.029094156 -0.1473527
0.1277987 -0.1025501 0.084025614 0.18025763 0.1534468 0.047718246 -0.043014374 0.18915235
-0.11994009 0.167309 0.081841744 0.09419379 0.019094408 0.18930806 0.092962004 0.05814715
-0.07510928 0.023448441 0.066381596 0.035444204 0.09136573 0.014537267 0.084101036 -0.07909945
0.042791754 -0.0340295 0.02626867 0.11071812 0.026757985 -0.0018352836 0.038212378 0.06210022
0.05299289 0.11533654 -0.04043951 -0.13039887 0.049814057 0.016018469 0.06664488 0.07994343
0.06897218 0.0015652517 0.02145834 0.041917283 -0.009430928 0.03938734 0.09604912 0.09287288
-0.16936065 -0.17368034 0.043867987 0.07692693 0.04994751 0.09597003 -0.028069625 0.05177639
0.041365612 0.05635729 0.16219509 0.007910071 0.08797851 -0.012514443 -0.118328646 0.05343883
0.10559876 0.054178875 0.12417663 0.18563876 0.007107605 0.05708433 0.012039319 -0.027497794
-0.17534418 -0.011515942 0.039521012 -0.12636146 -0.049143866 0.042861003 0.04365278 0.03650637
0.04761931 0.047339365 0.055802558 0.21417788 0.050122425 0.04661113 0.17457534 -0.024786392
0.013622476 0.14741753 0.038614348 -0.05515088 -0.016106527 0.101855606 -0.053687543 0.22059655
0.06369979 0.050945673 0.051751945 0.078751616 0.008054968 0.08240565 0.06218647 0.063889906
0.08354936 0.010642516 0.11403233 0.10402645 0.17794174 0.07888685 0.061349493 -0.045031093
-0.08659591 0.13260956 0.17997453 0.08480634 0.13065748 0.10689601 -0.0020460656 0.08409415
-0.047306854 0.06399534 -0.14886273 0.032856733 0.004041304 -0.054468054 -0.01685881 -0.012459022
-0.014384879 -0.04603136 0.00058560574 0.12149848 -0.061002493 0.04809009 0.01912843 0.1185426
-0.021220852 0.0883332 0.11906301 0.1905343 0.12499514 0.031908244 0.095193245 0.0065654973
-0.0071798502 0.13631429 0.075328924 0.06300237 0.13554363 0.025232783 0.06980683 0.039050277
-0.16802473 -0.015927164 -0.042132262 0.015597035 0.085485145 -0.1013965 -0.1030009 -0.0026793315
0.05208762 -0.03016381 0.087996095 0.11711671 0.06431532 0.117639534 0.040242713 0.02941906
0.043587174 0.05406866 0.09131291 0.021693222 0.14855763 0.009120292 0.06757943 0.084663235
