loto6_cnn/model/loto6_20_640.model (npz, 468615 bytes, 38 tensors)

conv1_2/b f4 [64]
-0.000121905614 -8.880259e-05 5.128714e-05 -0.00013761564 2.4106175e-06 9.358377e-05 -3.845693e-05 -0.00018107273
2.469976e-05 0.00036445365 -4.1303487e-05 -0.0002050631 1.5773801e-05 1.4757916e-05 -1.3986104e-05 -9.4103634e-05
-2.7820686e-05 -1.6304486e-05 2.9379324e-05 -6.464593e-06 8.680121e-05 5.2547235e-05 1.0913853e-05 -9.8905264e-05
-4.7088313e-05 -1.8805766e-05 -4.863641e-06 -2.3849594e-05 -2.2643346e-05 0.00010591673 1.0578078e-05 -1.7043185e-06
1.7775392e-05 -6.624663e-06 -4.8439877e-05 -0.00013098332 8.176908e-05 -0.0001665275 4.766336e-06 -4.0284824e-05
6.837216e-05 -3.1614665e-05 2.2712693e-05 -1.2780022e-05 1.3810991e-05 2.422972e-05 3.53394e-05 -7.997072e-05
-2.4444125e-05 3.423559e-05 5.029376e-05 2.8182722e-05 2.0623063e-06 4.6294866e-05 0.00015241386 -0.00017007084
-0.00012336293 -4.137281e-06 7.080367e-05 1.1273784e-06 2.7129465e-06 4.668689e-05 -9.7731005e-05 -2.6885993e-05
00000000: 94a7 ffb8 873b bab8 261d 5738 eb4c 10b9
00000010: 18c6 2136 6742 c438 d04c 21b8 57de 3db9
00000020: 5532 cf37 2414 bf39 483d 2db8 3506 57b9
00000030: fb51 8437 c498 7737 dca5 6ab7 8159 c5b8
00000040: 7860 e9b7 9ec5 88b7 9e73 f637 6eea d8b6
00000050: 0b09 b638 2a66 5c38 a41a 3737 5c6b cfb8
00000060: b180 45b8 13c1 9db7 5c32 a3b6 9d10 c8b7
00000070: 37f2 bdb7 9d1f de38 8078 3137 f0bf e4b5
00000080: 5d1c 9537 6c49 deb6 ec2b 4bb8 9158 09b9
00000090: 717b ab38 e39d 2eb9 84ee 9f36 80f7 28b8
000000a0: 0663 8f38 fd99 04b8 2387 be37 c769 56b7
000000b0: c1b5 6737 ed40 cb37 6439 1438 f4b5 a7b8
000000c0: 5c0d cdb7 2f98 0f38 83f2 5238 ef69 ec37
000000d0: 2766 0a36 bc2c 4238 49d1 1f39 0b55 32b9
000000e0: fc5a 01b9 f9d2 8ab6 6e7c 9438 6d50 9735
000000f0: 1110 3636 abd1 4338 eff4 ccb8 3b89 e1b7

conv1_4/b f4 [32]
0.00011256558 -6.772408e-05 -0.00028405726 0.00015869162 0.0002456066 -0.00016376974 3.789178e-05 2.5099527e-05
-0.00014659858 -1.1978497e-05 -0.000264222 2.9330326e-05 2.6531688e-05 8.897695e-05 0.00012513937 -0.00013751753
-0.0001371086 -6.631587e-07 0.00011681834 -0.00025435636 0.00010059215 -8.48496e-05 -0.00010731618 0.00040343247
1.3819347e-06 -8.945329e-06 -2.275495e-05 -3.4773264e-05 -6.358824e-05 -0.00011167986 -7.2407005e-05 -0.00012775163
00000000: 3011 ec38 1707 8eb8 85ed 94b9 7566 2639
00000010: c3c4 8039 9bb9 2bb9 fded 1e38 d38c d237
00000020: 42b8 19b9 41f7 48b7 4787 8ab9 650a f637
00000030: 5e90 de37 2399 ba38 d837 0339 9532 10b9
00000040: cfc4 0fb9 eb03 32b5 5efc f438 225b 85b9
00000050: 00f5 d238 48f1 b1b8 ef0e e1b8 ca83 d339
00000060: ea7a b935 e513 16b7 e2e1 beb7 82d9 11b8
00000070: ad5a 85b8 ab35 eab8 37d9 97b8 11f5 05b9

bn4/avg_mean f4 [32]
-0.54015756 -3.3405354 1.7286876 -2.4954696 -0.08587612 -1.4439048 -2.018823 0.21890263
-0.65810394 -0.71335196 -3.159577 -1.2551266 -0.07339252 0.33098692 -1.1651096 -2.2342339
-0.5652191 -1.1716866 -4.104112 -2.9478166 -0.4852581 0.026762366 -0.08446337 -1.9160789
-0.4078139 -1.0650762 -0.36368188 0.11444852 -3.4003382 1.2415326 -0.34616753 0.31219745
00000000: c447 0abf 55cb 55c0 a345 dd3f c6b5 1fc0
00000010: d2df afbd dfd1 b8bf 6534 01c0 0328 603e
00000020: 8079 28bf 3c9e 36bf 8236 4ac0 fda7 a0bf
00000030: d14e 96bd 1e77 a93e 5022 95bf b0fd 0ec0
00000040: 33b2 10bf d4f9 95bf e354 83c0 07a9 3cc0
00000050: c073 f8be c03c db3c 22fb acbd 1342 f5bf
00000060: fccc d0be 6b54 88bf 8334 babe fc63 ea3d
00000070: 249f 59c0 8aea 9e3f df3c b1be 58d8 9f3e

conv1_5/b f4 [32]
-3.133839e-05 -3.8476475e-05 0.00010119702 -7.3198076e-05 0.00016822576 9.201284e-05 3.30178e-05 0.0001352239
7.9999e-05 3.0216688e-05 -0.00010672302 -4.3284006e-05 -2.842242e-05 -0.00026260802 1.9460542e-05 4.0289848e-05
7.695125e-05 -5.3427655e-05 0.0001410734 -9.273874e-05 0.00014567634 2.2432705e-05 3.1277275e-05 0.00031404803
6.2052146e-05 0.00066205673 -0.00013702243 0.00022238606 -0.00010060748 6.838224e-05 -2.079452e-05 -2.352109e-05
00000000: 5771 03b8 cd61 21b8 bd39 d438 eb81 99b8
00000010: c265 3039 04f7 c038 987c 0a38 e4ca 0d39
00000020: 23c5 a738 d879 fd37 7cd0 dfb8 d98b 35b8
00000030: af6c eeb7 a7ae 89b9 323f a337 e5fc 2838
00000040: e360 a138 8217 60b8 1aed 1339 bb7c c2b8
00000050: b2c0 1839 de2d bc37 b82f 0338 d0a6 a439
00000060: fe21 8238 e08d 2d3a aead 0fb9 4e30 6939
00000070: 3bfd d2b8 7068 8f38 e46f aeb7 284f c5b7

bn5/avg_mean f4 [32]
-0.04157896 -0.19287662 -0.0955955 -0.6468416 0.13427733 -1.0237421 -0.36778745 0.4800326
-0.1124818 0.16547133 -0.24944964 -0.48414108 0.053617485 -0.33987167 -0.15847178 -0.054133136
0.4288782 -0.19397788 -0.84665775 -0.27327567 -0.016778745 -0.5361486 -0.37555733 0.6497415
-0.25471112 0.7759126 -0.21336167 -0.60290444 -0.30399576 0.0778563 -0.48269176 -0.3081073
00000000: b34e 2abd 7381 45be 93c7 c3bd 6997 25bf
00000010: ff7f 093e fb09 83bf a34e bcbe d5c6 f53e
00000020: dc5c e6bd 5171 293e ba6f 7fbe 57e1 f7be
00000030: 029e 5b3d a903 aebe 6d46 22be b5ba 5dbd
00000040: ec95 db3e 23a2 46be 90be 58bf caea 8bbe
00000050: 9473 89bc 0941 09bf 0d49 c0be 7555 263f
00000060: 7f69 82be 35a2 463f 7b7b 5abe f257 1abf
00000070: 55a5 9bbe 2073 9f3d 6023 f7be 3dc0 9dbe

bn1/gamma f4 [64]
0.9789771 0.9805663 1.007083 0.9965726 0.96995497 1.0085886 0.9876186 0.98844326
0.9878478 0.9997832 1.0066268 0.99838156 0.99168104 1.0000505 0.98612845 1.0182364
0.9778634 0.98375857 0.99567735 1.016342 1.0383527 1.0071687 1.004236 0.99646133
1.0148585 0.99994653 0.9803104 0.9951539 0.9733756 0.99634063 0.9524203 0.98593855
0.979022 1.0117234 0.9728768 0.9904403 1.0011334 1.0633479 1.0074761 1.0182277
0.9820356 0.9728581 1.0024633 0.9767586 1.0061531 0.97584057 1.0041344 1.0053481
0.9792343 0.9922968 0.985653 1.0033942 0.9876235 0.96609384 0.9882251 1.0277313
0.9781205 0.96655643 0.9816977 0.98636395 0.97542095 1.0161188 0.9690351 0.9810169
00000000: 3e9e 7a3f 6506 7b3f 19e8 803f 621f 7f3f
00000010: f84e 783f 6e19 813f 93d4 7c3f 9e0a 7d3f
00000020: 98e3 7c3f cbf1 7f3f 26d9 803f ef95 7f3f
00000030: cfde 7d3f a801 803f ea72 7c3f 9255 823f
00000040: 4155 7a3f 9ad7 7b3f b6e4 7e3f 7f17 823f
00000050: bee8 843f e7ea 803f ce8a 803f 1718 7f3f
00000060: e2e6 813f 7ffc 7f3f 9ff5 7a3f 68c2 7e3f
00000070: 252f 793f 2e10 7f3f d1d1 733f 7866 7c3f
00000080: 30a1 7a3f 2780 813f 740e 793f 7f8d 7d3f
00000090: 2425 803f c91b 883f faf4 803f 4955 823f
000000a0: af66 7b3f 3a0d 793f b850 803f da0c 7a3f
000000b0: a0c9 803f b0d0 793f 7a87 803f 3faf 803f
000000c0: 19af 7a3f 2a07 7e3f c153 7c3f 396f 803f
000000d0: e5d4 7c3f ed51 773f 52fc 7c3f b38c 833f
000000e0: 1b66 7a3f 3e70 773f 8a50 7b3f 5982 7c3f
000000f0: 30b5 793f 2e10 823f af12 783f ec23 7b3f

conv1_3/b f4 [64]
-1.8631219e-05 2.3714352e-05 -1.2897942e-05 -2.1891925e-05 4.319626e-05 9.213384e-06 -0.00010545389 6.5766685e-06
4.2916625e-05 2.5698035e-05 1.49216985e-05 4.8798935e-05 2.5498699e-05 6.16412e-05 -7.5995e-05 -0.00012367466
-7.095119e-06 0.0001312791 1.3883427e-05 4.075768e-05 2.8128494e-05 9.3685994e-05 -3.1211803e-05 4.107604e-06
2.0357453e-05 2.3828174e-05 3.5756853e-05 5.0244955e-05 -9.096998e-06 1.0355855e-05 -3.1503554e-05 0.000111801455
-6.3131442e-06 -2.001302e-05 -3.152509e-05 -2.5522731e-05 9.759985e-05 -8.15575e-06 -2.120374e-06 -4.7949457e-06
-1.9231315e-05 0.00011232634 4.8402795e-05 -1.615884e-05 -2.6101889e-05 -2.0060392e-05 -8.684432e-05 -2.7723563e-05
-0.0001021389 -3.1109103e-05 -2.5202558e-05 -3.892357e-05 2.9869398e-06 -4.0719777e-05 -3.4608798e-05 3.2332744e-05
7.126064e-05 -1.4114234e-05 -9.85211e-05 -1.3175961e-05 -2.576615e-05 2.056352e-05 -2.303123e-05 7.614498e-05
00000000: 3d4a 9cb7 2fee c637 3d64 58b7 8da4 b7b7
00000010: a22d 3538 2f93 1a37 2027 ddb8 27ad dc36
00000020: 6001 3438 1c92 d737 3558 7a37 75ad 4c38
00000030: 0ae6 d537 5e45 8138 815f 9fb8 aaae 01b9
00000040: 9c12 eeb6 f7a7 0939 ddec 6837 3af3 2a38
00000050: 7bf5 eb37 4979 c438 6be9 02b8 0dd4 8936
00000060: 4cc5 aa37 9de2 c737 a1f9 1538 1cbe 5238
00000070: 4f9f 18b7 0fbe 2d37 af22 04b8 f376 ea38
00000080: 7fd5 d3b6 a2e1 a7b7 cf39 04b8 a619 d6b7
00000090: 85ae cc38 aed4 08b7 bf4b 0eb6 45e4 a0b6
000000a0: ef52 a1b7 bf90 eb38 1b04 4b38 d88c 87b7
000000b0: 61f5 dab7 5d47 a8b7 3020 b6b8 e68f e8b7
000000c0: 6833 d6b8 257b 02b8 156a d3b7 dd41 23b8
000000d0: 3c73 4836 87ca 2ab8 ea28 11b8 059d 0738
000000e0: c471 9538 2ccc 6cb7 1d9d ceb8 520e 5db7
000000f0: 6324 d8b7 d37f ac37 3133 c1b7 06b0 9f38

bn2/avg_var f4 [64]
0.41444203 0.75421166 0.44273236 0.61866117 0.59891665 0.42099246 0.47936907 0.40999573
0.44154456 0.42699468 0.54625785 0.48886395 0.4528496 0.4462556 0.27872074 0.6502748
0.593565 0.3459009 0.39307156 1.0825813 0.33905652 0.36687905 0.3681691 0.52012366
0.42154807 0.3690717 0.6490871 0.77362835 0.63754714 0.6647122 0.5410678 0.36390132
0.8151829 0.76414627 0.545467 0.6421468 0.3662118 0.30184984 0.6234902 0.28738898
0.42534268 0.2742671 0.56538653 0.5508513 0.5345238 0.44020152 0.5065296 0.37633714
0.59341156 0.5500743 0.71657777 0.37605527 0.4161616 0.47486597 0.38217026 0.72441536
0.5081246 0.47411582 0.67734027 0.40052247 0.3120102 0.48824948 0.54339343 0.4924817
00000000: bf31 d43e 0414 413f d1ad e23e 9460 1e3f
00000010: 9a52 193f 538c d73e dd6f f53e f6ea d13e
00000020: 2112 e23e 0c9f da3e 8ed7 0b3f 604c fa3e
00000030: e7db e73e 9d7b e43e 7cb4 8e3e 6978 263f
00000040: e0f3 173f ec19 b13e ad40 c93e 0692 8a3f
00000050: d198 ad3e 92d7 bb3e a980 bc3e d326 053f
00000060: 26d5 d73e f7f6 bc3e 922a 263f 820c 463f
00000070: 4a36 233f 942a 2a3f 6b83 0a3f 4651 ba3e
00000080: d4af 503f 179f 433f baa3 0b3f bc63 243f
00000090: 1d80 bb3e 108c 9a3e 0e9d 1f3f a624 933e
000000a0: 84c6 d93e bd6c 8c3e 2cbd 103f 9704 0d3f
000000b0: 8dd6 083f 1862 e13e edab 013f 43af c03e
000000c0: d2e9 173f abd1 0c3f a471 373f 518a c03e
000000d0: 2213 d53e a221 f33e d2ab c33e 4973 393f
000000e0: 7414 023f 4fbf f23e 2c66 2d3f 4811 cd3e
000000f0: cdbf 9f3e d6fb f93e d51b 0b3f 9026 fc3e

bn2/gamma f4 [64]
1.0272704 0.967584 0.97162724 0.98422676 0.99585557 1.0222187 0.99441403 0.96640533
0.9800007 0.98654515 0.9785876 1.0235329 0.98743 0.99893767 1.0011799 0.9928136
0.9723462 0.9921945 0.9817884 0.98586386 1.0292095 0.9880789 1.0032226 1.0068123
1.0127624 1.04002 0.97091734 1.000187 1.0269246 0.97129625 0.9934623 0.9973526
0.98042065 0.9961816 0.98892885 1.0224856 0.9923586 0.9905928 0.9733226 0.9678349
1.010809 0.9929955 0.9927515 0.9978709 1.005855 1.0029399 1.0143521 1.0087485
0.99400455 1.0202712 0.9931534 1.0173278 0.96871305 1.0344756 0.99505055 0.9781194
1.0048759 0.99269354 0.9723551 1.0827199 0.99005914 1.0080531 0.96443075 1.0254551
00000000: 997d 833f 96b3 773f 90bc 783f 49f6 7b3f
00000010: 64f0 7e3f 10d8 823f eb91 7e3f 5766 773f
00000020: 53e1 7a3f 398e 7c3f b884 7a3f 2003 833f
00000030: 36c8 7c3f 61ba 7f3f aa26 803f 0829 7e3f
00000040: aeeb 783f 7500 7e3f 7c56 7b3f 9361 7c3f
00000050: 23bd 833f bdf2 7c3f 9969 803f 3adf 803f
00000060: 33a2 813f 601f 853f 0a8e 783f 2106 803f
00000070: 4472 833f dfa6 783f 8c53 7e3f 8052 7f3f
00000080: d9fc 7a3f c205 7f3f 712a 7d3f cfe0 823f
00000090: 370b 7e3f 7d97 7d3f ab2b 793f 07c4 773f
000000a0: 3062 813f f434 7e3f f624 7e3f 7874 7f3f
000000b0: dbbf 803f 5660 803f 4ad6 813f ac1e 813f
000000c0: 1577 7e3f 3f98 823f 4d3f 7e3f cc37 823f
000000d0: 94fd 773f b269 843f a2bb 7e3f 0866 7a3f
000000e0: c69f 803f 2a21 7e3f 44ec 783f 9196 8a3f
000000f0: 8474 7d3f e207 813f efe4 763f 1d42 833f

conv1_1/b f4 [64]
4.286246e-05 3.2371914e-05 9.7064745e-05 1.1858871e-05 -8.117891e-05 7.6467186e-05 -9.696168e-05 5.702285e-06
-0.00033098675 -6.227653e-05 2.7488804e-05 6.37091e-07 4.027788e-05 4.73429e-05 -0.00010180162 -2.5937426e-05
7.6487566e-05 0.0001207177 -7.306904e-05 -8.2042796e-05 4.470573e-05 1.648132e-05 -2.4239744e-05 0.0001416208
4.4304725e-05 3.971436e-05 1.8735018e-05 3.797023e-05 8.083345e-05 2.6152033e-05 0.000110680805 -6.377409e-05
9.9816665e-05 3.897905e-05 -0.00014399232 -8.7484565e-05 -0.00017233349 -1.537246e-05 -4.1284882e-05 7.3656905e-05
1.5725263e-05 0.00017140867 -9.5319614e-05 2.940203e-06 -8.815918e-05 2.8428185e-05 4.038259e-05 6.3120724e-06
1.9691477e-05 -2.990181e-06 9.552094e-05 2.687085e-05 2.4481986e-05 -8.025616e-05 -0.00031819454 1.7488543e-05
3.3160213e-05 4.138718e-05 3.579497e-05 4.7714362e-05 4.0252155e-05 -5.6180463e-05 -0.00017729822 4.7057915e-06
00000000: 37c7 3338 14c7 0738 3d8f cb38 77f5 4637
00000010: 983e aab8 025d a038 e857 cbb8 4156 bf36
00000020: 4a88 adb9 759a 82b8 c297 e637 8f04 2b35
00000030: 0bf0 2838 0d92 4638 547e d5b8 3394 d9b7
00000040: f367 a038 d229 fd38 a43c 99b8 640e acb8
00000050: 6982 3b38 5d41 8a37 7456 cbb7 0b80 1439
00000060: d6d3 3938 f892 2638 2529 9d37 3942 1f38
00000070: 2185 a938 1061 db37 4e1d e838 74be 85b8
00000080: aa54 d138 707d 2338 a5fc 16b9 eb77 b7b8
00000090: 6bb4 34b9 1bf4 80b7 4e29 2db8 4078 9a38
000000a0: bfe9 8337 2abc 3339 54e6 c7b8 4e50 4536
000000b0: 19e2 b8b8 1079 ee37 7a60 2938 4acc d336
000000c0: 202f a537 ebaa 48b6 6a52 c838 b668 e137
000000d0: aa5e cd37 334f a8b8 59d3 a6b9 5cb4 9237
000000e0: 8215 0b38 2597 2d38 8e22 1638 e820 4838
000000f0: 6cd4 2838 50a3 6bb8 21e9 39b9 71e6 9d36

bn1/avg_var f4 [64]
0.123695776 0.3719329 0.15268672 0.32495713 0.38984078 0.24022919 0.33296886 0.34894848
0.12887299 0.25241563 0.4333113 0.40424618 0.39325368 0.18214174 0.19356488 0.40255487
0.11746783 0.5027655 0.35577822 0.21857774 0.26913652 0.2725175 0.2810309 0.15037514
0.25945875 0.21397656 0.20090045 0.33905366 0.23596598 0.5268181 0.10743055 0.33376524
0.108590394 0.33159962 0.22541942 0.27181846 0.23312232 0.14034332 0.37142462 0.3438195
0.2546801 0.09278792 0.11821374 0.20948765 0.099824786 0.17287786 0.50858575 0.208517
0.33524665 0.43948567 0.1958242 0.13302137 0.41259244 0.25235525 0.17200167 0.10475009
0.23428641 0.360143 0.54161924 0.48983327 0.1594649 0.25076234 0.29400522 0.15552452
00000000: 3654 fd3d fd6d be3e e859 1c3e c860 a63e
00000010: 3699 c73e a4fe 753e e57a aa3e 60a9 b23e
00000020: 48f7 033e 9f3c 813e fbda dd3e 5bf9 ce3e
00000030: 8c58 c93e 5d83 3a3e df35 463e ac1b ce3e
00000040: f992 f03d 3db5 003f 9028 b63e d8d2 5f3e
00000050: 43cc 893e 6a87 8b3e 48e3 8f3e f1fb 193e
00000060: c7d7 843e ac1c 5b3e d9b8 4d3e 7198 ad3e
00000070: 11a1 713e 8ddd 063f 8c04 dc3d 47e3 aa3e
00000080: a464 de3d 6dc7 a93e 59d4 663e ca2b 8b3e
00000090: 9eb7 6e3e 29b6 0f3e 5e2b be3e 1c09 b03e
000000a0: 6e65 823e 9807 be3d 0c1a f23d ee83 563e
000000b0: f070 cc3d e506 313e ad32 023f 7b85 553e
000000c0: 73a5 ab3e 4404 e13e 2486 483e c136 083e
000000d0: 513f d33e b534 813e 3521 303e 3787 d63d
000000e0: c7e8 6f3e aa64 b83e 8fa7 0a3f 6dcb fa3e
000000f0: c44a 233e ec63 803e da87 963e d241 1f3e

bn2/beta f4 [64]
0.026321923 -0.018457586 -0.013269041 0.0006475095 0.0082875965 0.023871083 0.011779882 -0.02095958
-0.0036305878 -0.0011703765 0.013271527 0.027295401 -0.0077950545 0.0444674 0.0071672094 0.004560642
-0.017140802 0.025860071 0.003113318 0.006220524 -0.00058595004 -0.0073185116 -0.020039242 0.03128709
0.034614023 0.041507162 -0.006129868 0.0049638934 0.044092506 -0.01558222 0.020270346 0.019381432
-0.0012748657 0.0133406995 0.00037623732 -0.01592452 0.017950503 0.006609655 -0.02834911 0.009339629
0.023909008 -0.0043868953 0.0025395278 0.017429056 -0.0007588695 0.011457147 0.01644491 0.014979613
0.010084744 0.03546836 -0.004520293 0.01248835 -0.03114157 0.0116431415 -0.0030878098 -0.0065520206
0.029678155 0.0011610913 -0.0054973494 -0.035025716 0.011317853 -0.00992638 -0.028280756 0.02616829
00000000: 13a1 d73c 5d34 97bc 6466 59bc a1bd 293a
00000010: b3c8 073c 4a8d c33c 6800 413c 6db3 abbc
00000020: 28ef 6dbb 5267 99ba d270 593c 9b9a df3c
00000030: a86d ffbb 7323 363d e9da ea3b 7071 953b
00000040: de6a 8cbc 80d8 d33c cf08 4c3b 8ad5 cb3b
00000050: 719a 19ba 20d0 efbb 5629 a4bc e426 003d
00000060: 6fc7 0d3d 6a03 2a3d 0fdd c8bb 28a8 a23b
00000070: 589a 343d 914c 7fbc ff0d a63c cfc5 9e3c
00000080: 6519 a7ba f392 5a3c b841 c539 2474 82bc
00000090: ef0c 933c ce95 d83b 653c e8bc 3e05 193c
000000a0: d3dc c33c f2bf 8fbb 356e 263b 61c7 8e3c
000000b0: dfee 46ba c2b6 3b3c 7ab7 863c 0d6d 753c
000000c0: 7b3a 253c 4547 113d f71e 94bb f09b 4c3c
000000d0: 9b1c ffbc e0c2 3e3c da5c 4abb 55b2 d6bb
000000e0: 9a1f f33c c22f 983a 1c23 b4bb 2077 0fbd
000000f0: 846e 393c 41a2 22bc 0bad e7bc e25e d63c

bn4/gamma f4 [32]
1.0040638 1.1345847 1.0198143 1.0592276 1.053232 1.0996635 1.1006312 1.0899816
1.0394421 1.1066478 1.088003 1.0495207 1.0590205 1.0245734 1.0907042 1.0345036
1.1192245 1.0737543 1.1181742 1.0940044 1.0604875 1.0956424 1.0673522 1.0460504
1.046022 1.0555501 1.1505955 1.0772449 1.1170013 1.0381752 1.1071756 1.053391
00000000: 2a85 803f 123a 913f 4689 823f c594 873f
00000010: 4ed0 863f c6c1 8c3f 7ce1 8c3f 8484 8b3f
00000020: 700c 853f a3a6 8d3f af43 8b3f b256 863f
00000030: fc8d 873f 3925 833f 329c 8b3f 9d6a 843f
00000040: c042 8f3f c870 893f 5520 8f3f 5608 8c3f
00000050: 0ebe 873f 033e 8c3f ff9e 883f fbe4 853f
00000060: 0de4 853f 441c 873f b746 933f 29e3 893f
00000070: e6f9 8e3f ede2 843f eeb7 8d3f 84d5 863f

conv1_7/b f4 [2]
0.042961653 0.0051780725
00000000: 8ff8 2f3d d2ac a93b

conv1_6/W f4 [32, 32, 3, 3]
-0.022614883 -0.009882278 0.047700588 -0.002283038 -0.018628996 0.09729919 0.022935605 -0.0071527576
0.054525737 0.09950009 -0.07440461 0.08668537 -0.0019218237 -0.026523756 0.027084077 0.0017178016
0.003751907 -0.0006710177 0.07015658 -0.017579114 0.06549022 0.018934513 0.10274989 0.015138069
-0.043893807 0.011520787 -0.041718215 -0.050212152 0.011055851 0.006813168 -0.06367773 0.09069609
0.084885165 -0.010693059 0.03062767 0.08937206 -0.025058147 -0.046551596 -0.05361336 -0.083350115
0.003886623 -0.070175685 -0.028476585 -0.016983476 -0.0605575 -0.10236966 -0.090014994 -0.008170427
-0.008391785 -0.043926157 -0.07370891 0.00076627446 -0.045698687 -0.061919745 0.07538892 -0.00772253
-0.050448295 -0.061929397 -0.045161564 -0.057660393 -0.013226406 -0.054036833 -0.008809598 -0.04581707
0.12118833 0.027660074 -0.11916916 0.0058641643 -0.029014153 0.05902613 -0.09549643 0.048302848
-0.017691275 0.01227135 0.08790317 0.0027635647 -0.071934834 -0.0013805078 0.02014052 0.0558047
-0.072787605 0.064745456 -0.06479143 0.027264904 0.016388461 0.061943572 0.039165042 0.025245555
-0.12655637 -0.07678418 0.0040208185 0.01891694 -0.04585653 -0.024154142 -0.028150111 -0.038074415
0.011423039 0.059175637 -0.03357697 -0.0044454853 -0.10661572 0.024389302 0.0630928 0.050078206
0.018163133 0.021885127 0.09619526 -0.01753761 -0.012729955 0.06962777 -0.03306749 0.1359758
-0.006323387 0.045195233 0.064193636 0.0017900111 0.015247382 -0.13324852 0.054734215 0.028553342
-0.057492115 -0.09195613 -0.08293495 0.05962453 0.010642764 -0.08806002 -0.011249243 -0.03660343
-0.035533503 -0.007538476 0.07177102 -0.010247239 -0.037233602 0.021646887 -0.026697164 -0.014768264
-0.03324842 -0.044376604 -0.10271992 -0.067509264 0.1328127 -0.032049526 0.0042534247 -0.064602874
0.077210344 -0.023236532 -0.05175215 0.02321823 0.041018795 -0.08566934 -0.11232589 -0.092760935
0.06366206 0.04701218 -0.10627869 0.055199128 0.04586868 -0.11652506 0.08936077 0.024265163
0.012922292 0.054508984 -0.058442324 -0.006474335 0.040000726 0.08436204 -0.060019128 0.032208342
-0.02235182 -0.053612888 0.029327394 0.029270964 0.103498265 0.0095909815 0.05469955 -0.032003507
-0.019466845 0.046636004 0.08380113 -0.01980677 -0.06406543 0.03182159 -0.046947293 0.0478931
-0.037100878 -0.01841711 0.048288368 -0.027838042 -0.029855557 -0.013517716 -0.046290237 -0.02132041
-0.015167669 -0.08525262 -0.059504736 -0.078527346 0.11397123 0.08153947 0.060625024 0.022213344
-0.026082367 0.031034283 0.03719824 -0.0151712885 -0.063759066 0.025347106 -0.026356649 0.05859501
-0.03405736 -0.14342812 0.0487722 0.0151272565 0.06596594 0.060254578 0.008289544 -0.089898676
-0.08045238 -0.0676244 -0.095422134 0.03579641 0.036697 0.049166813 -0.020969091 -0.091407135
0.098681994 -0.037404165 0.08550011 0.010153917 0.01713905 0.021316832 -0.056801096 0.04584728
0.012989841 0.07234521 -0.0053004497 0.01791542 0.107239135 0.04565729 0.0006390229 -0.05064348
0.05190295 0.027792761 0.038727228 0.033118524 -0.11097474 0.10462858 0.028477004 -0.07720308
-0.06472753 0.060631692 0.05591344 0.017061217 0.0042411746 0.053742956 0.022162827 -0.1233175
00000000: d942 b9bc 47e9 21bc b161 433d 069f 15bb
00000010: d69b 98bc cc44 c73d 73e3 bb3c ae61 eabb
00000020: 6156 5f3d b4c6 cb3d 7261 98bd 1988 b13d
00000030: b4e5 fbba 5948 d9bc 6ddf dd3c db27 e13a
00000040: 8ee2 753b 3ce7 2fba 41ae 8f3d 1302 90bc
00000050: bd1f 863d 8d1c 9b3c 896e d23d aa05 783c
00000060: fec9 33bd afc1 3c3c b8e0 2abd 42ab 4dbd
00000070: 9a23 353c ff40 df3b 7869 82bd dfbe b93d
00000080: 46d8 ad3d f131 2fbc e1e6 fa3c b308 b73d
00000090: be46 cdbc e3ac 3ebd af99 5bbd 77b3 aabd
000000a0: b7b6 7e3b 45b8 8fbd ba47 e9bc ee20 8bbc
000000b0: 240b 78bd 2fa7 d1bd c859 b8bd 41dd 05bc
000000c0: b37d 09bc eaeb 33bd b2f4 96bd cfdf 483a
000000d0: 8c2e 3bbd 8f9f 7dbd 8265 9a3d 470d fdbb
000000e0: dfa2 4ebd aea9 7dbd 55fb 38bd 4e2d 6cbd
000000f0: 91b3 58bc ba55 5dbd 2256 10bc aeaa 3bbd
00000100: 9631 f83d 6197 e23c f60e f4bd 2d28 c03b
00000110: 17af edbc 62c5 713d a293 c3bd 35d9 453d
00000120: 4bed 90bc c60d 493c 9406 b43d ec1c 353b
00000130: 9252 93bd 28f2 b4ba bbfd a43c 7893 643d
00000140: ab11 95bd 4499 843d 5fb1 84bd a65a df3c
00000150: 1841 863c 8bb8 7d3d 866b 203d c4cf ce3c
00000160: fe97 01be 0641 9dbd 12c1 833b b3f7 9a3c
00000170: 0fd4 3bbd e8de c5bc 109b e6bc ebf3 1bbd
00000180: b327 3b3c 2762 723d 0188 09bd 6fab 91bb
00000190: 5859 dabd 13cc c73c cc36 813d ce1e 4d3d
000001a0: daca 943c 7048 b33c 0502 c53d 09ab 8fbc
000001b0: 4d91 50bc 0199 8e3d c771 07bd 3d3d 0b3e
000001c0: 6a34 cfbb a31e 393d f477 833d ce9e ea3a
000001d0: 28d0 793c 4d72 08be fc30 603d b3e8 e93c
000001e0: da7c 6bbd 7f53 bcbd cdd9 a9bd da38 743d
000001f0: fd5e 2e3c d058 b4bd bf4e 38bc 7aed 15bd
00000200: 948b 11bd 5205 f7bb affc 923d 09e4 27bc
00000210: 4382 18bd d054 b13c 03b4 dabc 97f6 71bc
00000220: 7f2f 08bd 3ec4 35bd d25e d2bd 4c42 8abd
00000230: 0d00 083e 5d46 03bd 5060 8b3b 834e 84bd
00000240: 7520 9e3d 8a5a bebc 10fa 53bd 2834 be3c
00000250: 5303 283d 6873 afbd 1e0b e6bd 72f9 bdbd
00000260: 4161 823d d88f 403d a4a8 d9bd 7b18 623d
00000270: cce0 3b3d b1a4 eebd c802 b73d bcc7 c63c
00000280: 05b8 533c d044 5f3d 3861 6fbd a926 d4bb
00000290: cdd7 233d 01c6 ac3d 9ed6 75bd e5ec 033d
000002a0: 2a1b b7bc 3099 5bbd 0140 f03c a9c9 ef3c
000002b0: e6f6 d33d 7e23 1d3c a30c 603d 1c16 03bd
000002c0: ef78 9fbc 6505 3f3d ed9f ab3d cf41 a2bc
000002d0: bc34 83bd 5b57 023d ce4b 40bd 8e2b 443d
000002e0: 17f7 17bd 7bdf 96bc 06ca 453d 9b0c e4bc
000002f0: a493 f4bc 6979 5dbc d59a 3dbd 24a8 aebc
00000300: d181 78bc ed98 aebd 3dbb 73bd f2d2 a0bd
00000310: c069 e93d 2afe a63d f251 783d c2f8 b53c
00000320: b0aa d5bc 9c3b fe3c 2f5d 183d ff90 78bc
00000330: 1d94 82bd bca4 cf3c e6e9 d7bc 5201 703d
00000340: bb7f 0bbd d2de 12be 5cc5 473d 50d8 773c
00000350: 2719 873d 81cd 763d ded0 073c cc1c b8bd
00000360: 38c4 a4bd a97e 8abd ae6c c3bd 429f 123d
00000370: 984f 163d 2463 493d 5fc7 abbc aa33 bbbd
00000380: c919 ca3d 1c35 19bd af1a af3d 9d5c 263c
00000390: 3167 8c3c a3a0 ae3c 44a8 68bd 5cca 3b3d
000003a0: 58d3 543c ba29 943d 65af adbb 5cc3 923c
000003b0: 31a0 db3d 2303 3b3d 1a84 273a 8a6f 4fbd
000003c0: 3098 543d a5ad e33c 71a0 1e3d 4aa7 073d
000003d0: b946 e3bd 8247 d63d 9b48 e93c a61c 9ebd
000003e0: de8f 84bd f058 783d 7e05 653d f7c3 8b3c
000003f0: 8df9 8a3b 9321 5c3d d18e b53c e38d fcbd

conv1_4/W f4 [32, 64, 3, 3]
0.0060356767 -0.061601646 -0.06515434 0.035893857 0.06576686 -0.0013862215 0.0064310385 -0.019415436
0.0032334158 -0.041574594 -0.09371605 -0.070611864 -0.0014004143 0.07613361 0.011909386 -0.013939003
0.077832416 0.088694714 0.07488442 -0.026145656 -0.009883188 0.07145555 0.007454138 0.06403657
-0.03255537 -0.022875402 0.0901392 0.01079326 -0.09731919 -0.048424967 0.013960178 -0.06140322
-0.036902755 -0.010290352 -0.013605897 -0.03508898 -0.01778277 0.034205448 0.0019784498 -0.017577717
-0.011971267 -0.0053310487 0.021027287 -0.010322326 0.06543496 -0.059701823 -0.066286944 0.004870201
0.00029056746 -0.06343151 0.051602576 0.013224709 0.0049315323 -0.029191457 0.010779971 0.0489699
0.049846523 -0.09544093 -0.007694057 0.051005524 -0.024332203 0.0034232377 -0.019675044 0.046016227
-0.0070215757 0.00015685946 0.07745115 0.026959235 -0.011655622 0.07330219 -0.046659455 -0.035254057
0.010590731 -0.0507023 -0.008736652 0.008733338 -0.030474748 -0.0876765 -0.043642204 0.007757855
0.053931087 0.04912787 0.019349704 0.02674753 -0.004461203 0.028741095 -0.10380644 0.00958359
-0.09686408 -0.054643143 -0.03753204 -0.04937286 0.0164764 0.037782993 -0.05543711 -0.04049977
-0.028573664 0.0022089693 -0.0014059107 0.08423187 0.0065797768 -0.045672994 0.0098329 -0.0717467
0.014264252 -0.02100331 0.013254046 0.003890003 0.043555308 0.061722968 0.038796403 -0.029437685
-0.015000691 0.002237839 0.08120115 0.05949795 -0.019803897 0.03511684 0.06327361 -0.0061884266
0.059560202 -0.06661807 -0.005552306 0.07002662 0.0040512728 -0.034138378 0.002416779 -0.058747254
0.037394755 0.103358336 0.019205017 0.002312065 -0.06823533 -0.07074587 0.07208157 -0.08397901
0.049703773 -0.01515228 -0.0002630024 0.00488614 -0.0034011307 -0.072366886 -0.002923755 -0.025055595
-0.0017147377 -0.0003060348 -0.0466055 0.025502337 0.010219728 0.04333586 -0.049568098 -0.05145774
-0.04884583 -0.07199102 -0.06173935 0.018534465 0.0073158676 -0.022646908 -0.1591983 0.0019764353
0.06985704 0.00020696415 0.0021632614 0.031084051 -0.011316587 0.055158474 -0.010544716 6.4502833e-06
-0.02269595 0.031751093 0.05034947 -0.03179524 0.07308589 0.0065010777 0.048581902 0.06330572
0.031476226 -0.02934508 -0.06996386 0.022446515 -0.05548592 -0.0054343757 -0.0202305 -0.029877618
0.01818445 -0.06587889 0.0014788976 -0.009693474 0.0025261254 0.073819354 0.0027713657 0.003227242
-0.01705575 -0.0027955037 0.021537265 -0.015973415 -0.020963693 -0.006969336 0.030206839 0.018989358
-0.02203627 0.014768343 0.037462257 0.028472308 -0.07840572 0.04062316 0.12658548 0.040389292
-0.015955312 -0.021080649 -0.03293935 -0.034679618 -0.015859818 -0.039264694 -0.013722254 -0.059598356
-0.034462843 0.023824068 -0.01706299 -0.04239246 0.040148478 0.05390338 0.008206106 0.040741544
0.012466771 0.0032841547 -0.037099577 -0.016030647 -0.04471191 -0.037467953 -0.058004223 0.024892516
-0.018394884 0.0015498498 -0.085482016 -0.050551817 -0.040289953 -0.005852302 0.024202924 -0.0018087118
-0.014210499 0.010881014 -0.009462815 0.023248628 0.043507934 0.049484544 0.09401933 0.012134876
-0.004821673 -0.00033533762 0.08535268 0.03597144 -0.02886785 0.022881838 0.0056416215 0.0047179502
00000000: edc6 c53b 0252 7cbd a36f 85bd 7005 133d
00000010: c7b0 863d e0b1 b5ba 76bb d23b 1f0d 9fbc
00000020: b7e7 533b 1f4a 2abd 33ee bfbd f49c 90bd
00000030: 1b8e b7ba f0eb 9b3d 961f 433c 6b60 64bc
00000040: 9a66 9f3d 93a5 b53d 015d 993d 6a2f d6bc
00000050: 18ed 21bc 4a57 923d d741 f43b 9b25 833d
00000060: c858 05bd 3265 bbbc e79a b83d 37d6 303c
00000070: 494f c7bd 4259 46bd 3bb9 643c f181 7bbd
00000080: 5827 17bd dd98 28bc 45eb 5ebc 76b9 0fbd
00000090: 2cad 91bc 031b 0c3d e1a8 013b 25ff 8fbc
000000a0: 2223 44bc 14b0 aebb 6b41 ac3c f91e 29bc
000000b0: c402 863d e689 74bd 73c1 87bd 3596 9f3b
000000c0: 4e57 9839 61e8 81bd 395d 533d 73ac 583c
000000d0: b198 a13b ec22 efbc 7a9e 303c a994 483d
000000e0: de2b 4c3d 8976 c3bd 6e1e fcbb 2beb 503d
000000f0: 5454 c7bc 6658 603b 8f2d a1bc 837b 3c3d
00000100: 3f15 e6bb a47a 2439 b59e 9e3d 9dd9 dc3c
00000110: 39f7 3ebc 751f 963d fc1d 3fbd 8f66 10bd
00000120: bf84 2d3c 37ad 4fbd 2d24 0fbc 4616 0f3c
00000130: 2ea6 f9bc bd8f b3bd 2bc2 32bd 9b35 fe3b
00000140: d8e6 5c3d 4e3a 493d 4583 9e3c a31d db3c
00000150: 482f 92bb 7272 eb3c 7998 d4bd 7d04 1d3c
00000160: ad60 c6bd 7dd1 5fbd 32bb 19bd 323b 4abd
00000170: 84f9 863c 57c2 1a3d 0612 63bd 16e3 25bd
00000180: 5113 eabc 5bc4 103b 8946 b8ba c281 ac3d
00000190: 2b9b d73b 9b13 3bbd 2c1a 213c efef 92bd
000001a0: 9cb4 693c 220f acbc 8027 593c 6cef 7e3b
000001b0: 0d67 323d 39d1 7c3d fae8 1e3d 4d27 f1bc
000001c0: 75c5 75bc b5a8 123b ca4c a63d 1fb4 733d
000001d0: c83b a2bc add6 0f3d 9895 813d 49c8 cabb
000001e0: 66f5 733d 0e6f 88bd 1ef0 b5bb 1e6a 8f3d
000001f0: 8ac0 843b afd4 0bbd d362 1e3b f6a0 70bd
00000200: 3e2b 193d 89ad d33d d753 9d3c 0486 173b
00000210: f7be 8bbd 36e3 90bd 819f 933d 30fd abbd
00000220: 2f96 4b3d 4541 78bc 96e3 89b9 ea1b a03b
00000230: 81e5 5ebb 1735 94bd 789c 3fbb 6441 cdbc
00000240: 0dc1 e0ba 4c73 a0b9 69e5 3ebd 47ea d03c
00000250: a570 273c f180 313d eb07 4bbd 5ac5 52bd
00000260: 9112 48bd 0770 93bd 67e2 7cbd 97d5 973c
00000270: f2b9 ef3b 0286 b9bc e104 23be 1587 013b
00000280: 3511 8f3d 8404 5939 81c5 0d3b fba3 fe3c
00000290: 3569 39bc daed 613d bfc3 2cbc 836f d836
000002a0: dbec b9bc 6f0d 023d 3f3b 4e3d ba3b 02bd
000002b0: 0eae 953d fe06 d53b d1fd 463d 6ea6 813d
000002c0: 37ed 003d 1865 f0bc 3649 8fbd c1e1 b73c
000002d0: 3445 63bd d912 b2bb 6fba a5bc e8c1 f4bc
000002e0: 8ef7 943c 83eb 86bd 92d7 c13a 60d1 1ebc
000002f0: 5a8d 253b 9a2e 973d cd9f 353b 2380 533b
00000300: 80b8 8bbc c534 37bb eb6e b03c aeda 82bc
00000310: 0dbc abbc 075f e4bb 5574 f73c 928f 9b3c
00000320: 6885 b4bc ecf6 713c 0672 193d c23e e93c
00000330: 2e93 a0bd 7864 263d a09f 013e 3e6f 253d
00000340: b7b4 82bc 53b1 acbc 69eb 06bd 370c 0ebd
00000350: 73ec 81bc 04d4 20bd 4ed3 60bc 681d 74bd
00000360: e928 0dbd b12a c33c afc7 8bbc b7a3 2dbd
00000370: bb72 243d cac9 5c3d e772 063c 9be0 263d
00000380: 6d41 4c3c f93a 573b baf5 17bd b452 83bc
00000390: d623 37bd ff77 19bd d695 6dbd 64eb cb3c
000003a0: deb0 96bc 5424 cb3a 3211 afbd 6c0f 4fbd
000003b0: 1407 25bd abc4 bfbb 3645 c63c 4c12 edba
000003c0: 27d3 68bc 4846 323c ec09 1bbc e873 be3c
000003d0: 6035 323d 4eb0 4a3d 358d c03d 5cd1 463c
000003e0: 20ff 9dbb 41d0 afb9 63cd ae3d ca56 133d
000003f0: 457c ecbc b172 bb3c 5add b83b 0999 9a3b

bn1/avg_mean f4 [64]
0.0064280955 -0.051058013 0.06628339 -0.07245467 0.045092393 0.060928393 -0.018726159 -0.021291988
0.08948238 0.06169135 -0.105772436 -0.058564477 -0.07846814 -0.040105022 -0.09680071 -0.03162192
-0.03071976 0.099037156 0.019690337 -0.14219822 -0.009430079 -0.081606895 0.082820356 -0.12076457
0.020493649 -0.12667526 -0.063389465 0.016773261 -0.05347242 -0.021382848 -0.058507465 -0.07647415
0.0643606 0.072176956 -0.07732797 -0.10547028 0.0390082 -0.014505696 0.021695051 0.0259917
0.053613298 -0.07150459 -0.115827344 -0.07312274 0.05756257 -0.08588686 -0.057512157 -0.09259321
0.046026092 0.020068035 0.046895824 -0.09708133 -0.02881676 0.075290814 -0.1431359 -0.05976959
0.021643039 -0.072662696 -0.023134895 0.038839616 -0.059269123 -0.13062862 0.0697731 -0.032551005
00000000: c6a2 d23b 3522 51bd 96bf 873d 1d63 94bd
00000010: cdb2 383d 0d90 793d 9a67 99bc 896c aebc
00000020: 8a42 b73d 12b0 7c3d 389f d8bd 4ee1 6fbd
00000030: e7b3 a0bd 2a45 24bd 733f c6bd fd85 01bd
00000040: 02a8 fbbc fed3 ca3d a14d a13c 699c 11be
00000050: 9e80 1abc 8421 a7bd b89d a93d 6a53 f7bd
00000060: 4ce2 a73c 29b7 01be 56d2 81bd 1468 893c
00000070: e505 5bbd 152b afbc 86a5 6fbd 7b9e 9cbd
00000080: 7ecf 833d 83d1 933d 205e 9ebd cd00 d8bd
00000090: 10c7 1f3d 4ca9 6dbc d2b9 b13c 8cec d43c
000000a0: 9e99 5b3d 0071 92bd e336 edbd 60c1 95bd
000000b0: bbc6 6b3d 73e5 afbd de91 6bbd 82a1 bdbd
000000c0: db85 3c3d b865 a43c d615 403d 94d2 c6bd
000000d0: 2011 ecbc 1232 9a3d 3892 12be f5d0 74bd
000000e0: be4c b13c 2ed0 94bd 6485 bdbc 4a16 1f3d
000000f0: 2ec4 72bd 82c3 05be 33e5 8e3d 3454 05bd

bn4/beta f4 [32]
-0.008739847 0.1430148 0.024070384 0.051737376 0.024046862 0.10466759 0.11673555 0.08837389
0.015998235 0.12143047 0.11478768 0.06913345 0.038145814 0.03412153 0.09926542 0.05048666
0.12225849 0.053296775 0.10774314 0.09231937 0.078702554 0.10880726 0.020373352 0.033966154
0.0574049 0.057544384 0.044774234 0.107602835 0.14350808 0.012308031 0.0888068 0.12003735
00000000: 9331 0fbc 7972 123e 412f c53c 92ea 533d
00000010: edfd c43c f65b d63d 0c13 ef3d 5ffd b43d
00000020: bb0e 833c 8ab0 f83d ce15 eb3d d795 8d3d
00000030: c93e 1c3d 04c3 0b3d ab4b cb3d 1acb 4e3d
00000040: a962 fa3d b84d 5a3d 6fa8 dc3d f011 bd3d
00000050: ce2e a13d 57d6 de3d 04e6 a63c 1820 0b3d
00000060: 6721 6b3d a9b3 6b3d 3065 373d e05e dc3d
00000070: c8f3 123e a0a7 493c 57e0 b53d 24d6 f53d

conv1_2/W f4 [64, 64, 3, 3]
-0.05002913 0.07821444 0.021537378 0.047835626 -0.026312415 -0.0589961 0.0058053886 -0.0015777018
-0.09131 0.060615323 -0.003140765 0.071333125 -0.023675784 0.02650876 0.052936405 -0.05015574
-0.051286608 -0.037996814 -0.008934166 -0.054028608 0.07273992 -0.01702802 0.03879182 0.0338549
-0.052607983 0.034811307 -0.0871414 -0.04451503 0.075053364 -0.027790964 -0.015610743 -0.085919924
-0.050892103 0.025384478 0.014468062 -0.013409531 -0.027306747 0.011359756 -0.04090283 -0.009315078
-0.042762876 -0.008899965 0.033681765 -0.0020378663 0.045173205 -0.02289035 -0.036720082 -0.051151395
-0.0037171312 0.002577502 0.018418236 0.09729938 -0.017708635 0.044391986 0.006438713 0.06650096
0.009580103 -0.018385863 -0.0065984344 -0.08697692 0.072882995 0.050771717 0.004657052 -0.04790329
-0.03570354 0.016066024 -0.04028171 -0.020073306 0.048420448 -0.09032348 0.00040064802 -0.056175824
-0.024743875 0.02965752 0.05262574 0.012836051 -0.04980063 -0.03187966 0.012661633 -0.022010742
-0.06277792 -0.057159897 -0.0030359535 0.008237099 0.060427904 -0.0956714 0.01154313 0.011062917
-0.062018372 0.088188685 -0.01922399 -0.01781575 -0.030118903 -0.035916883 0.03467078 0.07018737
-0.02633202 0.022616686 -0.012142387 0.03377931 0.035501633 -0.028433507 0.0026017637 -0.0750983
0.031818446 0.047171883 0.0076933955 -0.05115424 -0.06644639 -0.06858111 -0.033383004 -0.0046761767
0.016373586 -0.071091756 0.07918922 -0.009773309 0.040467206 -0.064786255 -0.013933612 -0.021390596
-0.061307903 -0.022033574 -0.00718165 -0.073995896 -0.03500263 -0.04546691 -0.020650977 0.0075014164
-0.067859024 0.02268485 -0.028570421 0.072498426 -0.0020650567 -0.045029726 0.116903305 -0.031944927
-0.050877903 -0.038318165 -0.020939825 -0.03581929 -0.011885853 -0.06385063 -0.026770659 -0.10571104
-0.009589225 -0.038677942 -0.008227415 -0.039057754 -0.03480519 -0.11280448 0.008564746 0.013325273
-0.082073316 -0.06895384 0.00884917 -0.036760215 0.043945365 -0.03907931 0.10385329 -0.035167515
-0.073005505 -0.031465784 -0.017594948 -0.068559304 -0.01408527 -0.015587305 -0.033799432 -0.06576674
0.026117548 -0.01511385 -0.08247284 -0.09147826 -0.08642769 -0.05101216 -0.01945459 0.01163567
-0.02273492 -0.062481895 -0.015908934 -0.03215486 -0.029250504 -0.058178186 -0.019236533 0.010602104
-0.12802885 -0.037126094 0.020791924 -0.014716437 0.003346332 0.067053914 -0.035238266 -0.0091900565
0.05214811 -0.04370365 0.045140773 0.011021471 0.0031675075 0.053031217 -0.08110681 0.028307557
0.04273817 -0.087160334 -0.026395524 -0.03087347 0.06640958 0.047745597 -0.060771585 0.04918949
-0.019917086 0.063193515 0.004519 -0.004310272 -0.098814644 -0.023510663 0.011816243 0.040031295
-0.0064601568 -0.020982003 0.023378696 0.017339507 0.011870696 0.039163787 -0.070685156 -0.062246174
0.030755656 -0.027096033 0.032260098 0.07938878 -0.0301376 0.045362253 -0.01794434 -0.08245591
0.009225971 0.046789203 -0.013434023 0.0346394 -0.0007754813 -0.029401261 0.028123077 -0.10013987
-0.039983544 0.021738434 0.0017414336 -0.009783965 0.04267277 -0.019107074 0.030162754 -0.040138517
0.0346637 0.015786923 0.037623875 0.019199058 -0.03344224 0.038417432 -0.06350964 -0.009864158
00000000: 58eb 4cbd e42e a03d 286f b03c 4aef 433d
00000010: 228d d7bc e5a5 71bd 213b be3b e3ca ceba
00000020: bd00 bbbd c647 783d 4bd5 4dbb 1a17 923d
00000030: b8f3 c1bc e628 d93c d8d3 583d 1b70 4dbd
00000040: e811 52bd 8ca2 1bbd 9c60 12bc 1a4d 5dbd
00000050: abf8 943d 597e 8bbc 2ce4 1e3d 70ab 0a3d
00000060: 787b 57bd 4d96 0e3d 3177 b2bd 6455 36bd
00000070: 94b5 993d e0a9 e3bc 34c4 7fbc c9f6 afbd
00000080: 3d74 50bd 1cf3 cf3c 730b 6d3c a6b3 5bbc
00000090: 66b2 dfbc 451e 3a3c ba89 27bd 459e 18bc
000000a0: 2028 2fbd 29d1 11bc e4f5 093d b98d 05bb
000000b0: 8a07 393d 8b84 bbbc cc67 16bd 2084 51bd
000000c0: 1d9b 73bb 4feb 283b d7e1 963c e644 c73d
000000d0: b311 91bc 5fd4 353d d7fb d23b a831 883d
000000e0: ddf5 1c3c f39d 96bc ae37 d8bb f520 b2bd
000000f0: ae43 953d 01f6 4f3d 2f9a 983b 3d36 44bd
00000100: e03d 12bd e59c 833c 6ffe 24bd c670 a4bc
00000110: 8554 463d 84fb b8bd 110e d239 9f18 66bd
00000120: abb3 cabc 54f4 f23c 178e 573d 4d4e 523c
00000130: bffb 4bbd 3f94 02bd bd72 4f3c df4f b4bc
00000140: b691 80bd 7f20 6abd d9f6 46bb e6f4 063c
00000150: 4083 773d 5eef c3bd 651f 3d3c 3d41 353c
00000160: fa06 7ebd 459c b43d a17b 9dbc 56f2 91bc
00000170: ebbb f6bc 951d 13bd f302 0e3d 65be 8f3d
00000180: 40b6 d7bc a146 b93c ddf0 46bc 2c5c 0a3d
00000190: 296a 113d 63ed e8bc 5a82 2a3b 23cd 99bd
000001a0: 0f54 023d 4e37 413d e118 fc3b 1c87 51bd
000001b0: 0b15 88bd 4174 8cbd 9ebc 08bd 9d3a 99bb
000001c0: e621 863c 8e98 91bd f52d a23d 3b20 20bc
000001d0: f1c0 253d a8ae 84bd ce49 64bc 553b afbc
000001e0: ff1d 7bbd c17f b4bc 0c54 ebbb 298b 97bd
000001f0: eb5e 0fbd 833b 3abd 3d2c a9bc 71ce f53b
00000200: acf9 8abd 94d5 b93c 840c eabc 0e7a 943d
00000210: e755 07bb 1771 38bd 006b ef3d afd8 02bd
00000220: 5965 50bd 82f3 1cbd ff89 abbc 3fb7 12bd
00000230: e1bc 42bc 1ec4 82bd 244e dbbc 087f d8bd
00000240: 201c 1dbc c36c 1ebd 48cc 06bc 06fb 1fbd
00000250: e38f 0ebd 0906 e7bd 2653 0c3c 3f52 5a3c
00000260: 0e16 a8bd ac37 8dbd 1cfc 103c e191 16bd
00000270: 0e00 343d a011 20bd 09b1 d43d d00b 10bd
00000280: e983 95bd 44e2 00bd 4823 90bc d268 8cbd
00000290: e8c5 66bc e561 7fbc 4671 0abd b6b0 86bd
000002a0: 78f4 d53c 15a0 77bc 85e7 a8bd f458 bbbd
000002b0: 0001 b1bd 20f2 50bd 3b5f 9fbc 8aa3 3e3c
000002c0: 953e babc 04ed 7fbd 7453 82bc d1b4 03bd
000002d0: c19e efbc 404c 6ebd ef95 9dbc 72b4 2d3c
000002e0: ff19 03be 8811 18bd d353 aa3c 361d 71bc
000002f0: 234e 5b3b 9053 893d 0056 10bd e491 16bc
00000300: 4299 553d 9902 33bd 88e5 383d 6693 343c
00000310: f595 4f3b 4337 593d 541b a6bd 40e5 e73c
00000320: 380e 2f3d 1e81 b2bd 6d3b d8bc 5cea fcbc
00000330: bf01 883d e390 433d a0eb 78bd eb7a 493d
00000340: 2829 a3bc 9a6b 813d 1f14 943b 2f3d 8dbb
00000350: 555f cabd 6f99 c0bc ea98 413c dbf7 233d
00000360: b9af d3bb 73e2 abbc ae84 bf3c 950b 8e3c
00000370: 4f7d 423c 356a 203d 61c3 90bd d8f5 7ebd
00000380: 49f3 fb3c 80f8 ddbc 2a23 043d 9696 a23d
00000390: 21e3 f6bc c5cd 393d 0200 93bc a5de a8bd
000003a0: 8728 173c 09a6 3f3d 601a 5cbc 0be2 0d3d
000003b0: ab49 4bba eada f0bc 5e62 e63c 2216 cdbd
000003c0: c9c5 23bd cd14 b23c d140 e43a ec4c 20bc
000003d0: a4c9 2e3d 7086 9cbc e117 f73c 4968 24bd
000003e0: 86fb 0d3d 9453 813c 7e1b 1a3d 5847 9d3c
000003f0: bbfa 08bd 995b 1d3d 5811 82bd 479d 21bc

bn3/gamma f4 [64]
1.0341471 1.0243676 1.0002412 1.008416 1.0018297 1.028976 1.0416296 1.0311141
0.9966626 0.9948628 1.0463715 1.056514 0.98314357 1.0396258 0.9941281 1.0182372
1.0213271 0.9984859 1.0020015 0.9992848 0.9889329 1.0962275 1.0275444 0.99419975
1.0125971 1.0236237 0.9943855 1.0018021 1.013161 1.0276272 1.0110573 1.0688587
0.98794085 0.99502045 0.99990547 0.9871922 0.97496706 0.9882633 0.96471715 1.0493312
0.98072135 0.9818326 1.0041606 1.0204533 1.0073183 1.0163659 1.0009041 0.99677837
0.9962195 1.0191758 1.0176244 1.0216193 1.0455729 1.0831608 1.0231993 1.0010139
1.0041913 1.005584 0.9791855 1.0564721 1.0337085 0.9977558 1.0047805 1.0052539
00000000: ef5e 843f 7a1e 833f e707 803f c713 813f
00000010: f53b 803f 7cb5 833f 1e54 853f 8cfb 833f
00000020: 4825 7f3f 54af 7e3f 80ef 853f da3b 873f
00000030: 4caf 7b3f 7512 853f 2e7f 7e3f 9955 823f
00000040: d9ba 823f c69c 7f3f 9641 803f 21d1 7f3f
00000050: b52a 7d3f 2f51 8c3f 9386 833f e083 7e3f
00000060: c89c 813f 1a06 833f 0c90 7e3f 0d3b 803f
00000070: 42af 813f 4a89 833f 536a 813f 5dd0 883f
00000080: b1e9 7c3f a9b9 7e3f cef9 7f3f a1b8 7c3f
00000090: 7197 793f d3fe 7c3f b4f7 763f 7c50 863f
000000a0: 8e10 7b3f 6259 7b3f 5688 803f 379e 823f
000000b0: ceef 803f 4718 823f a01d 803f de2c 7f3f
000000c0: 3e08 7f3f 5a74 823f 8441 823f 6cc4 823f
000000d0: 55d5 853f 03a5 8a3f 32f8 823f 3921 803f
000000e0: 5789 803f fab6 803f e7ab 7a3f 7a3a 873f
000000f0: 8f50 843f ed6c 7f3f a69c 803f 29ac 803f

conv1_7/W f4 [2, 32, 3, 3]
0.08410307 0.024098974 0.06802312 -0.18460707 -0.05020807 -0.020355243 0.042844716 -0.015578182
-0.035884503 -0.032543156 -0.056353718 -0.07429049 0.14988282 0.11508048 -0.009120442 0.03251454
-0.021157041 0.1443861 -0.007184919 0.03049419 -0.04428276 0.01972081 0.082730815 -0.030480456
0.016912777 0.09794023 0.19043018 0.042636853 0.09216105 -0.021716682 0.06411021 0.017311335
0.07742626 0.1754329 0.1479259 0.106272854 -0.08226317 -0.037264567 -0.07611453 0.062641114
0.044188626 -0.056563325 0.049380157 0.05555839 0.1172285 0.13861609 -0.047515824 -0.04275223
0.04732726 0.27620134 0.08306098 0.088508345 0.11836417 -0.03619495 0.019292438 0.083511814
-0.08229933 -0.0061020358 0.050957616 0.06794749 0.12404813 0.0915546 0.030364055 0.038568895
-0.051694084 0.09810907 -0.037222855 0.073151186 0.055647936 -0.029632093 0.05010041 -0.021969406
0.04690674 0.023340253 -0.040074047 0.039110396 -0.046514217 -0.06237651 0.029433126 -0.1444161
0.12774837 -0.10277537 0.083622396 0.17907688 0.15278119 0.049797937 -0.042426467 0.18835448
-0.11907987 0.16690189 0.081204705 0.09344588 0.019175433 0.18765335 0.09110316 0.05755779
-0.07310303 0.022210518 0.065540805 0.035214808 0.09082376 0.014069683 0.08348644 -0.07621754
0.041845515 -0.033126943 0.025909904 0.110805504 0.026797788 -0.0011864413 0.038836528 0.062259138
0.05220721 0.114745475 -0.0406752 -0.12711571 0.049514435 0.0153826 0.06579711 0.07816891
0.06863459 0.0004387479 0.021493604 0.040754046 -0.010227681 0.03788982 0.095286734 0.09229761
-0.16748333 -0.16762395 0.04287029 0.07666315 0.04984995 0.09579289 -0.02754744 0.05116161
0.041218914 0.055430237 0.16092196 0.006735059 0.08705249 -0.013112054 -0.1167992 0.05254313
0.10515376 0.05405364 0.12391661 0.18599719 0.008327522 0.05665141 0.010666435 -0.026745565
-0.17138265 -0.010726478 0.0387031 -0.12505248 -0.04801999 0.044363573 0.04286243 0.035632856
0.046279885 0.048752803 0.05552427 0.21164854 0.049732413 0.045273308 0.17139977 -0.023603208
0.012704733 0.14497142 0.037975814 -0.054485135 -0.016163431 0.10127871 -0.052360367 0.2178975
0.06420973 0.050744064 0.050962996 0.07785309 0.007312182 0.08195169 0.061301436 0.06293475
0.08197226 0.00910146 0.113993235 0.10251294 0.1765569 0.07872378 0.060487125 -0.04499219
-0.08387844 0.13047181 0.17816144 0.08504291 0.12951787 0.10589546 -0.0012967506 0.08423157
-0.04599627 0.0640437 -0.14266562 0.032931477 0.00452922 -0.054588318 -0.015569958 -0.01141752
-0.0135616325 -0.045665063 0.0018856999 0.120554216 -0.05833909 0.048581596 0.019284738 0.11837214
-0.020030737 0.086790204 0.118285894 0.18902281 0.12424864 0.03188917 0.0945535 0.0054329946
-0.005761303 0.13510133 0.07535596 0.06383239 0.13454749 0.025416885 0.07017301 0.038558215
-0.1650472 -0.015492286 -0.040307578 0.016025413 0.0852644 -0.09856226 -0.09858217 -0.0033314973
0.051640797 -0.02974081 0.08855957 0.116053335 0.063288964 0.115749285 0.03959208 0.028477833
0.043033645 0.052878276 0.090222605 0.020433428 0.14801922 0.007977345 0.06779266 0.08329484
00000000: 3b3e ac3d 366b c53c b54f 8b3d a309 3dbe
00000010: faa6 4dbd 0ac0 a6bc f17d 2f3d a23b 7fbc
00000020: a1fb 12bd f94b 05bd 28d3 66bd 9d25 98bd
00000030: e27a 193e 51af eb3d e86d 15bc f72d 053d
00000040: 8851 adbc f3d9 133e 786f ebbb f4ce f93c
00000050: d761 35bd 898d a13c c66e a93d 26b2 f9bc
00000060: aa8c 8a3c e394 c83d 2100 433e fba3 2e3d
00000070: efbe bc3d 2fe7 b1bc 374c 833d 80d0 8d3c
00000080: a991 9e3d afa4 333e e379 173e 95a5 d93d
00000090: 9879 a8bd bba2 18bd efe1 9bbd fc49 803d
000000a0: 22ff 343d f2ae 67bd d942 4a3d 3291 633d
000000b0: 7f15 f03d 60f1 0d3e f49f 42bd f61c 2fbd
000000c0: 3bda 413d 436a 8d3e e01b aa3d dd43 b53d
000000d0: ea68 f23d 2841 14bd 2d0b 9e3c 3e08 ab3d
000000e0: 8d8c a8bd 96f3 c7bb efb8 503d 0e28 8b3d
000000f0: f20c fe3d fa80 bb3d 0abe f83c 6bfa 1d3d
00000100: 2dbd 53bd 68ed c83d fe76 18bd 4ad0 953d
00000110: 17ef 633d 01bf f2bc 1636 4d3d 2ff9 b3bc
00000120: 4821 403d 0f34 bf3c af24 24bd 3932 203d
00000130: b185 3ebd 837e 7fbd bd1d f13c d0e1 13be
00000140: 78d0 023e e57b d2bd 3842 ab3d ee5f 373e
00000150: ac72 1c3e ecf8 4b3d 60c7 2dbd ffdf 403e
00000160: 26e0 f3bd 54e8 2a3e a74e a63d 8e60 bf3d
00000170: cc15 9d3c 3328 403e 4b94 ba3d b8c1 6b3d
00000180: 0bb7 95bd d5f2 b53c 423a 863d 673d 103d
00000190: cf01 ba3d 8784 663c f0fa aa3d f117 9cbd
000001a0: 3466 2b3d 1eb0 07bd 0241 d43c ffed e23d
000001b0: 0987 db3c 5d82 9bba 0d13 1f3d 7003 7f3d
000001c0: 3ad7 553d adff ea3d 0a9b 26bd 9f2a 02be
000001d0: a6cf 4a3d 4d07 7c3c a3c0 863d 0617 a03d
000001e0: 4b90 8c3d bf07 e639 5b13 b03c b7ed 263d
000001f0: 0192 27bc 5b32 1b3d b125 c33d 8806 bd3d
00000200: c080 2bbe 9da5 2bbe c298 2f3d 9201 9d3d
00000210: 762f 4c3d 102f c43d 2bab e1bc d68e 513d
00000220: 2ad5 283d d10a 633d bac8 243e c5b1 dc3b
00000230: 9348 b23d f1d3 56bc 6b34 efbd 7737 573d
00000240: db5a d73d 5a67 5d3d fec7 fd3d 0c76 3e3e
00000250: 2970 083c 4f0b 683d 45c2 2e3c 8419 dbbc
00000260: ef7e 2fbe 1cbe 2fbc 2487 1e3d c20d 00be
00000270: 9cb0 44bd 94b6 353d 8490 2f3d c2f3 113d
00000280: fa8f 3d3d 05b1 473d 6b6d 633d 65ba 583e
00000290: 37b4 4b3d 8170 393d 6c83 2f3e 845b c1bc
000002a0: 8327 503c 6373 143e 878c 1b3d ce2b 5fbd
000002b0: 2c69 84bc 366b cf3d d377 56bd 8620 5f3e
000002c0: 6480 833d 02d9 4f3d 93be 503d 7171 9f3d
000002d0: 079b ef3b 4ad6 a73d 3717 7b3d efe3 803d
000002e0: 12e1 a73d 4a1e 153c 4975 e93d 4ef2 d13d
000002f0: 55cb 343e ef39 a13d 59c1 773d bb49 38bd
00000300: 76c8 abbd 679a 053e f46f 363e fa2a ae3d
00000310: 55a0 043e b8df d83d bbf7 a9ba 9a81 ac3d
00000320: 9666 3cbd 5829 833d f016 12be 28e3 063d
00000330: da69 943b 0098 5fbd 2319 7fbc 8d10 3bbc
00000340: 9c31 5ebc 4a0b 3bbd 9729 f73a 21e5 f63d
00000350: f8f4 6ebd 7ffd 463d 07fb 9d3c 186d f23d
00000360: 8017 a4bc 10bf b13d e03f f23d 328f 413e
00000370: 1276 fe3d 389e 023d 44a5 c13d 4307 b23b
00000380: 50c9 bcbb 0158 0a3e 3a54 9a3d 8eba 823d
00000390: d1c6 093e 1237 d03c deb6 8f3d 38ef 1d3d
000003a0: 2202 29be 5bd3 7dbc 8f19 25bd ba47 833c
000003b0: 1a9f ae3d 03db c9bd 73e5 c9bd 4055 5abb
000003c0: 4d85 533d 00a3 f3bc b85e b53d 5fad ed3d
000003d0: a59d 813d f60d ed3d 4e2b 223d 584a e93c
000003e0: 0c44 303d e496 583d a1c6 b83d 0164 a73c
000003f0: 5a92 173e 69b3 023c e1d6 8a3d 7c96 aa3d
