loto6_cnn/model/loto6_20_710.model (npz, 468544 bytes, 38 tensors)

conv1_2/b f4 [64]
00000000: 73a8 ffb8 833b bab8 3a1d 5738 eb4c 10b9
00000010: 87c5 2136 7e42 c438 df4c 21b8 57de 3db9
00000020: 2432 cf37 2414 bf39 643d 2db8 c305 57b9
00000030: ee51 8437 9e98 7737 51a4 6ab7 8259 c5b8
00000040: 4160 e9b7 3cc7 88b7 dc73 f637 6aea d8b6
00000050: 2b09 b638 3968 5c38 6519 3737 eb6a cfb8
00000060: 7f80 45b8 e9bf 9db7 0234 a3b6 1a10 c8b7
00000070: 34f5 bdb7 cc1f de38 6179 3137 4db4 e4b5
00000080: c31d 9537 e148 deb6 e42b 4bb8 ca58 09b9
00000090: 1a7b ab38 e39d 2eb9 daf0 9f36 89f7 28b8
000000a0: 3662 8f38 2c99 04b8 3f87 be37 fd69 56b7
000000b0: b3b6 6737 6a3e cb37 173a 1438 fbb5 a7b8
000000c0: 620d cdb7 3a98 0f38 99f2 5238 876a ec37
000000d0: 4a6a 0a36 332d 4238 1ad1 1f39 0b55 32b9
000000e0: f15a 01b9 62d5 8ab6 717c 9438 e373 9735
000000f0: 3407 3636 15d2 4338 dbf4 ccb8 a38b e1b7
-0.00012190724 -8.880256e-05 5.1287214e-05 -0.00013761564 2.4105846e-06 9.3583934e-05 -3.8456983e-05 -0.00018107273
2.4699671e-05 0.00036445365 -4.130359e-05 -0.00020506144 1.5773778e-05 1.4757881e-05 -1.3985745e-05 -9.410364e-05
-2.7820586e-05 -1.630524e-05 2.9379436e-05 -6.464591e-06 8.680144e-05 5.2549152e-05 1.0913563e-05 -9.890444e-05
-4.708813e-05 -1.8805224e-05 -4.863833e-06 -2.3849356e-05 -2.2644737e-05 0.000105917075 1.0578283e-05 -1.7039798e-06
1.7776043e-05 -6.6246e-06 -4.8439848e-05 -0.00013098415 8.176845e-05 -0.0001665275 4.766608e-06 -4.0284856e-05
6.8370646e-05 -3.1613905e-05 2.2712744e-05 -1.2780071e-05 1.3811211e-05 2.422855e-05 3.534005e-05 -7.997077e-05
-2.4444136e-05 3.423563e-05 5.029384e-05 2.8182998e-05 2.062547e-06 4.62953e-05 0.00015241318 -0.00017007084
-0.00012336277 -4.1375615e-06 7.080369e-05 1.1284104e-06 2.7124306e-06 4.6687277e-05 -9.773086e-05 -2.6887114e-05

conv1_4/b f4 [32]
00000000: 3011 ec38 7607 8eb8 85ed 94b9 7266 2639
00000010: c3c4 8039 97b9 2bb9 e5ed 1e38 e28c d237
00000020: 42b8 19b9 eef6 48b7 4687 8ab9 d409 f637
00000030: 5b90 de37 2399 ba38 e037 0339 9032 10b9
00000040: cfc4 0fb9 250e 32b5 38fc f438 245b 85b9
00000050: 00f5 d238 48f1 b1b8 ef0e e1b8 ca83 d339
00000060: 517a b935 8213 16b7 bee1 beb7 82d9 11b8
00000070: fd5a 85b8 7935 eab8 37d9 97b8 11f5 05b9
0.00011256558 -6.772477e-05 -0.00028405726 0.00015869158 0.0002456066 -0.00016376968 3.7891692e-05 2.5099554e-05
-0.00014659858 -1.1978422e-05 -0.00026422198 2.9330062e-05 2.6531683e-05 8.897695e-05 0.00012513949 -0.00013751746
-0.0001371086 -6.633075e-07 0.00011681806 -0.00025435642 0.00010059215 -8.48496e-05 -0.00010731618 0.00040343247
1.3819173e-06 -8.945239e-06 -2.2754884e-05 -3.4773264e-05 -6.358882e-05 -0.000111679496 -7.2407005e-05 -0.00012775163

bn4/avg_mean f4 [32]
00000000: 175a 07bf c0bf 55c0 f944 de3f 4c4a 1ec0
00000010: 7db0 99bd 0bc1 bcbf a9ea 00c0 625c 713e
00000020: 0e1b 25bf d3db 37bf fe04 4ac0 dce5 9ebf
00000030: b52d 7cbd 0bd9 a93e 26fe 91bf a8b6 0dc0
00000040: d279 0ebf dcce 97bf c9ea 83c0 f236 3dc0
00000050: e429 f7be 22bd cd3c e3d2 92bd 29b6 f3bf
00000060: b93b dbbe 15ed 86bf 0d0e b5be 8ab2 f33d
00000070: 538d 5bc0 5ea6 9e3f 3904 a7be 4412 a43e
-0.5287184 -3.3398285 1.7364799 -2.4732847 -0.075043656 -1.4746412 -2.0143225 0.23570397
-0.6449441 -0.718198 -3.1565547 -1.2413898 -0.061567027 0.33173403 -1.1405685 -2.2142735
-0.55654633 -1.1860003 -4.1224103 -2.9564786 -0.48274148 0.0251146 -0.0716913 -1.9039966
-0.42819002 -1.0541102 -0.35362282 0.11899288 -3.4305007 1.2394521 -0.3262041 0.32045186

conv1_5/b f4 [32]
00000000: 5971 03b8 c861 21b8 bd39 d438 fe81 99b8
00000010: c665 3039 53f7 c038 7c7c 0a38 e4ca 0d39
00000020: 23c5 a738 6579 fd37 86d0 dfb8 e98b 35b8
00000030: c66c eeb7 a7ae 89b9 573f a337 e6fc 2838
00000040: de60 a138 8a17 60b8 cfec 1339 bf7c c2b8
00000050: b2c0 1839 352d bc37 f02f 0338 d0a6 a439
00000060: 0722 8238 e08d 2d3a aead 0fb9 5530 6939
00000070: 3efd d2b8 7068 8f38 276f aeb7 ae4e c5b7
-3.1338397e-05 -3.8476457e-05 0.00010119702 -7.3198215e-05 0.00016822582 9.201341e-05 3.30177e-05 0.0001352239
7.9999e-05 3.0216479e-05 -0.00010672309 -4.3284064e-05 -2.8422462e-05 -0.00026260802 1.946061e-05 4.028985e-05
7.695121e-05 -5.3427684e-05 0.0001410723 -9.273877e-05 0.00014567634 2.2432398e-05 3.127748e-05 0.00031404803
6.205221e-05 0.00066205673 -0.00013702243 0.00022238617 -0.0001006075 6.838224e-05 -2.0794176e-05 -2.3520868e-05

bn5/avg_mean f4 [32]
00000000: 0e7c f4bc 3bf4 43be fbd3 b9bd cc3c 25bf
00000010: 3dde 0d3e 028e 83bf b073 bdbe 26b6 f63e
00000020: 6bd9 e2bd 60ff 253e 663b 81be a1dc fabe
00000030: fab5 803d 281e abbe c188 22be c608 50bd
00000040: 3db5 db3e a4a1 4bbe de38 59bf 6da5 8fbe
00000050: da16 50bc a658 09bf 780e bdbe 2e60 233f
00000060: e857 86be 1c3c 473f 6e73 51be fd63 1bbf
00000070: 8b07 9ebe ec3e aa3d 88a3 fbbe a1d8 9dbe
-0.02984431 -0.19136135 -0.09073635 -0.64545894 0.13854308 -1.0277712 -0.37002325 0.48185843
-0.110766254 0.16210699 -0.2524063 -0.48996451 0.06284709 -0.33421445 -0.1587248 -0.050789617
0.4291171 -0.1988588 -0.848524 -0.28055897 -0.012700761 -0.5365089 -0.369251 0.63818634
-0.26238942 0.77826095 -0.20454189 -0.60699445 -0.3086513 0.08312783 -0.49148202 -0.30829337

bn1/gamma f4 [64]
00000000: 2e83 7a3f f5fa 7a3f 0deb 803f 1c1f 7f3f
00000010: 9f3f 783f fd13 813f 2fdb 7c3f 7513 7d3f
00000020: 9ccf 7c3f 8ded 7f3f 26d1 803f 1a8b 7f3f
00000030: 5cd7 7d3f e6f3 7f3f ee70 7c3f 8e4c 823f
00000040: 533d 7a3f 17e2 7b3f 88f5 7e3f 6a11 823f
00000050: 63e6 843f 07eb 803f c286 803f 2018 7f3f
00000060: 8eeb 813f 32e7 7f3f 54ed 7a3f 89c0 7e3f
00000070: b71f 793f 4f14 7f3f 3dbb 733f 134f 7c3f
00000080: f295 7a3f 8082 813f 570e 793f 0294 7d3f
00000090: e222 803f 1b31 883f 5bf0 803f 2a5d 823f
000000a0: cd4f 7b3f dd16 793f de45 803f 63ed 793f
000000b0: dbbd 803f a1c1 793f 4b82 803f a7aa 803f
000000c0: c3ac 7a3f 1205 7e3f 3842 7c3f 1b6b 803f
000000d0: 67cd 7c3f 3644 773f ebff 7c3f 1a88 833f
000000e0: 835a 7a3f 8262 773f 7a52 7b3f 7f81 7c3f
000000f0: dcab 793f 780e 823f 7e0d 783f 111b 7b3f
0.97856414 0.9803918 1.0071732 0.99656844 0.9697208 1.0084225 0.9877195 0.98857814
0.98754287 0.9997185 1.0063827 0.9982163 0.9915674 0.99981534 0.9860982 1.0179613
0.97749823 0.9839186 0.995934 1.0161564 1.0382808 1.0071725 1.0041125 0.99646187
1.015001 0.9996215 0.98018384 0.99512535 0.9731402 0.99640363 0.9520758 0.9855816
0.9788505 1.011795 0.97287506 0.99053967 1.0010645 1.0639986 1.0073351 1.0184681
0.9816864 0.9730051 1.0021322 0.9762785 1.0057939 0.9756108 1.0039762 1.0052079
0.97919863 0.99226487 0.9853854 1.0032686 0.9875092 0.96588457 0.98828 1.027591
0.9779436 0.96634686 0.98172724 0.98635095 0.9752786 1.0160666 0.9689559 0.98088175

conv1_3/b f4 [64]
00000000: 1c4a 9cb7 a3ed c637 1464 58b7 69a4 b7b7
00000010: b72d 3538 0c91 1a37 0c27 ddb8 7bac dc36
00000020: 3301 3438 2b92 d737 6759 7a37 73ad 4c38
00000030: 30e6 d537 8845 8138 805f 9fb8 a7ae 01b9
00000040: 6511 eeb6 f7a7 0939 adec 6837 3af3 2a38
00000050: 77f5 eb37 2a79 c438 86e9 02b8 ded4 8936
00000060: 4cc5 aa37 b2e2 c737 47f9 1538 2dbe 5238
00000070: 1f9f 18b7 afbc 2d37 aa22 04b8 0077 ea38
00000080: 20d5 d3b6 c7e1 a7b7 c739 04b8 be19 d6b7
00000090: 85ae cc38 6ed4 08b7 3356 0eb6 62e5 a0b6
000000a0: 1753 a1b7 c290 eb38 1c04 4b38 118d 87b7
000000b0: 60f5 dab7 8a47 a8b7 3020 b6b8 f98f e8b7
000000c0: 6833 d6b8 257b 02b8 156a d3b7 f741 23b8
000000d0: bd6d 4836 89ca 2ab8 d828 11b8 049d 0738
000000e0: d271 9538 36cc 6cb7 159d ceb8 6a0a 5db7
000000f0: 2224 d8b7 b87f ac37 5333 c1b7 feaf 9f38
-1.8631159e-05 2.3714098e-05 -1.28979045e-05 -2.189186e-05 4.3196338e-05 9.212887e-06 -0.00010545374 6.5765903e-06
4.291646e-05 2.5698062e-05 1.4921977e-05 4.8798927e-05 2.5498768e-05 6.1641505e-05 -7.599499e-05 -0.00012367462
-7.0949777e-06 0.0001312791 1.3883383e-05 4.075768e-05 2.8128487e-05 9.368577e-05 -3.12119e-05 4.107699e-06
2.0357453e-05 2.3828212e-05 3.5756526e-05 5.0245017e-05 -9.096954e-06 1.0355535e-05 -3.1503536e-05 0.00011180155
-6.313101e-06 -2.0013087e-05 -3.152506e-05 -2.5522775e-05 9.759985e-05 -8.155692e-06 -2.1209823e-06 -4.7950753e-06
-1.9231387e-05 0.000112326365 4.84028e-05 -1.6158943e-05 -2.6101887e-05 -2.0060474e-05 -8.684432e-05 -2.7723598e-05
-0.0001021389 -3.1109103e-05 -2.5202558e-05 -3.8923663e-05 2.9866198e-06 -4.0719784e-05 -3.4608733e-05 3.233274e-05
7.126074e-05 -1.4114243e-05 -9.852104e-05 -1.3175051e-05 -2.5766032e-05 2.0563471e-05 -2.3031293e-05 7.614492e-05

bn2/avg_var f4 [64]
00000000: 52af d13e fbc4 413f b7a9 e33e ae09 1f3f
00000010: e042 183f a294 d83e 9227 f53e 9e9f d33e
00000020: 3002 e23e 4ca0 da3e 766d 0c3f 83d1 f93e
00000030: 0dde e93e c842 e63e 8336 8e3e 4e98 253f
00000040: 6151 183f 82f5 b03e cd3d ca3e cb84 8a3f
00000050: dc0b ae3e 5640 bc3e f7e0 bb3e 9ec2 053f
00000060: bb05 d83e b718 bf3e 2301 263f 71fb 463f
00000070: adb0 233f 8b1a 2a3f 05b9 0b3f 2290 b83e
00000080: d649 503f 37b4 443f fe12 0b3f b114 253f
00000090: 4f02 ba3e 8195 9b3e f37b 1e3f d819 953e
000000a0: e5c3 d93e 211d 8c3e 8569 103f 80c4 0b3f
000000b0: 2eda 073f 8b7f e33e 33d1 013f 816a c13e
000000c0: 680c 193f 731c 0d3f 1ef4 383f eed1 bf3e
000000d0: c87b d73e cada f53e aad4 c13e 7f04 393f
000000e0: 5cbf 023f 42b5 f43e 1e5f 2d3f 62d2 cd3e
000000f0: 774b 9f3e db7a f93e d09b 0b3f f28a f93e
0.4095407 0.75691193 0.4446542 0.62124145 0.59477043 0.42300898 0.47881752 0.41332716
0.44142294 0.42700422 0.54854524 0.48792657 0.45677224 0.44972825 0.27775964 0.64685524
0.59499174 0.34562308 0.39500275 1.0821775 0.33993423 0.36767834 0.36695072 0.5225009
0.42191872 0.37323543 0.64845484 0.7772742 0.6394146 0.6644675 0.5457919 0.36047465
0.81362665 0.76837486 0.54325855 0.644847 0.36329886 0.303875 0.6190788 0.2912128
0.42532268 0.27365974 0.5641101 0.5459671 0.5306729 0.44433245 0.5070984 0.3777657
0.59784555 0.55121535 0.72247493 0.3746485 0.42086625 0.48018485 0.37857562 0.72272485
0.5107324 0.4779454 0.6772326 0.40199572 0.31112263 0.48726544 0.54534626 0.4873882

bn2/gamma f4 [64]
00000000: 0981 833f d6a6 773f 17c2 783f 59f2 7b3f
00000010: 08e4 7e3f 5fdd 823f c199 7e3f ed66 773f
00000020: b6e5 7a3f ce94 7c3f f686 7a3f 240a 833f
00000030: dfb4 7c3f 76a9 7f3f 4725 803f ed31 7e3f
00000040: edef 783f a803 7e3f 4f61 7b3f 7663 7c3f
00000050: 38c1 833f 61fe 7c3f b56d 803f c4de 803f
00000060: 8b9f 813f db19 853f 3588 783f bc02 803f
00000070: c865 833f aaad 783f 5c58 7e3f f342 7f3f
00000080: c9ed 7a3f d7f5 7e3f c52e 7d3f dcdf 823f
00000090: 3b0d 7e3f ba91 7d3f 8a2c 793f 7bac 773f
000000a0: f157 813f 3723 7e3f c31b 7e3f 7983 7f3f
000000b0: 52c4 803f ba5e 803f 03d4 813f 7c1a 813f
000000c0: b572 7e3f 4593 823f 1737 7e3f a526 823f
000000d0: cced 773f a96a 843f b8c2 7e3f e35c 7a3f
000000e0: 42a4 803f 8f2a 7e3f efd0 783f d5a9 8a3f
000000f0: 6064 7d3f e50d 813f eedd 763f 994f 833f
1.0273753 0.96738946 0.9717116 0.9841667 0.995667 1.0223807 0.9945336 0.9664143
0.9800676 0.9866456 0.97862184 1.023747 0.9871349 0.9986795 1.0011376 0.9929493
0.972411 0.9922433 0.98195356 0.98589265 1.0293341 0.9882565 1.003348 1.0067983
1.0126814 1.0398515 0.97082835 1.0000834 1.0265436 0.9713999 0.99353576 0.9971153
0.9801908 0.9959387 0.9889949 1.0224566 0.9923894 0.99050486 0.97333586 0.9674756
1.0104963 0.99272484 0.9926111 0.99809986 1.0059912 1.0028908 1.0142826 1.0086207
0.9939378 1.0201193 0.9930281 1.0168043 0.96847224 1.034505 0.9951587 0.97797984
1.0050128 0.9928369 0.9719381 1.0833079 0.98981285 1.0082365 0.9643239 1.0258666

conv1_1/b f4 [64]
00000000: 0bc8 3338 d9c6 0738 378f cb38 f8f8 4637
00000010: a63e aab8 f95c a038 2c58 cbb8 a353 bf36
00000020: 4a88 adb9 599a 82b8 1398 e637 75dc 2a35
00000030: ebef 2838 5392 4638 2e7e d5b8 bd93 d9b7
00000040: f367 a038 e229 fd38 d53c 99b8 760e acb8
00000050: a582 3b38 a541 8a37 5555 cbb7 1380 1439
00000060: 60d4 3938 4c92 2638 3829 9d37 2542 1f38
00000070: 4285 a938 c560 db37 251d e838 58be 85b8
00000080: b954 d138 767d 2338 aefc 16b9 fe77 b7b8
00000090: 68b4 34b9 06f6 80b7 f528 2db8 5078 9a38
000000a0: 9fe9 8337 4fbc 3339 d5e5 c7b8 3351 4536
000000b0: 9de1 b8b8 7579 ee37 6e60 2938 cdc4 d336
000000c0: e92e a537 1bb1 48b6 6652 c838 1c67 e137
000000d0: de5f cd37 fa4e a8b8 66d3 a6b9 d7b6 9237
000000e0: 8e15 0b38 a296 2d38 8e22 1638 e520 4838
000000f0: fad4 2838 2ea3 6bb8 20e9 39b9 08e7 9d36
4.286323e-05 3.23717e-05 9.70647e-05 1.1859687e-05 -8.117901e-05 7.646712e-05 -9.6962176e-05 5.70198e-06
-0.00033098675 -6.2276325e-05 2.7488952e-05 6.365074e-07 4.0277762e-05 4.7343154e-05 -0.00010180134 -2.5937212e-05
7.6487566e-05 0.000120717814 -7.3069394e-05 -8.204293e-05 4.4705946e-05 1.648145e-05 -2.4239222e-05 0.00014162091
4.4305227e-05 3.9713734e-05 1.8735052e-05 3.7970156e-05 8.083369e-05 2.6151896e-05 0.00011068051 -6.3773885e-05
9.9816774e-05 3.8979073e-05 -0.00014399245 -8.74847e-05 -0.00017233344 -1.5373353e-05 -4.128456e-05 7.365702e-05
1.5725205e-05 0.0001714092 -9.531869e-05 2.9402552e-06 -8.8158275e-05 2.8428369e-05 4.0382547e-05 6.3112007e-06
1.9691377e-05 -2.9905411e-06 9.552091e-05 2.6870104e-05 2.4482546e-05 -8.025575e-05 -0.0003181949 1.7489698e-05
3.3160257e-05 4.1386702e-05 3.579497e-05 4.771435e-05 4.025267e-05 -5.618034e-05 -0.0001772982 4.70586e-06

bn1/avg_var f4 [64]
00000000: 4ad3 fe3d aa57 bf3e 0a1e 1b3e 8683 a53e
00000010: 3654 c93e 8a5c 783e b859 aa3e a3c9 b33e
00000020: 9474 043e 9037 813e 8152 df3e 0732 d03e
00000030: 30dd c93e 5de3 3c3e 6a4c 483e 6d0f cf3e
00000040: b4b6 f13d 7723 013f 27c9 b43e 2870 623e
00000050: d3f7 8a3e 8bfb 8b3e 178d 8f3e 78ff 1a3e
00000060: 6b67 843e 72ac 5a3e 124a 4d3e 317c ad3e
00000070: 8429 733e 3529 073f ae23 dc3d 5076 ab3e
00000080: d00a df3d 0857 aa3e 2f70 673e fdd0 8a3e
00000090: 56df 6f3e 552c 0f3e a641 be3e e157 af3e
000000a0: a71b 833e d9f4 bc3d ab13 f33d 447f 583e
000000b0: 7724 cc3d 6ff4 303e 0c78 023f dce5 563e
000000c0: 186e ab3e 0aa0 e23e 0e3f 4b3e 5dca 073e
000000d0: 5eef d33e 1bd3 823e 8cb1 313e 5499 d63d
000000e0: 7ff0 6f3e c940 b93e 7007 0b3f 43ce fb3e
000000f0: bd55 223e c059 813e fb81 973e 089c 1f3e
0.12442644 0.3737157 0.15148178 0.32326907 0.3932206 0.24254051 0.33271575 0.35114774
0.12935096 0.25237703 0.43617633 0.40663168 0.39426565 0.18446107 0.195604 0.40441456
0.11802426 0.5044474 0.35309717 0.22113097 0.271422 0.2734035 0.2803733 0.15136516
0.25860152 0.21354845 0.20047787 0.33883813 0.23746306 0.5279725 0.10748993 0.33488703
0.10890734 0.33269525 0.22601388 0.2711257 0.2342504 0.13981755 0.3715946 0.34246734
0.25607035 0.092263885 0.11868986 0.21142298 0.099678926 0.17280744 0.50964427 0.20986122
0.33482432 0.44262725 0.19848272 0.13260789 0.4139356 0.25551686 0.17352885 0.10478464
0.23431586 0.3618224 0.54308224 0.49180803 0.15853019 0.25263786 0.29591355 0.15586865

bn2/beta f4 [64]
00000000: c539 d73c e89e 98bc 6664 57bc ce16 303a
00000010: 7e26 063c be6d c43c 7cbf 403c 2915 acbc
00000020: bd91 70bb cc7b 83ba c434 593c c9b7 dc3c
00000030: 9740 01bc 01cc 363d 0cf0 e43b 3a16 953b
00000040: b20b 8ebc b022 d43c dc64 3a3b 9dba ce3b
00000050: cc40 11ba 0144 f2bb 70fd a3bc f63f 013d
00000060: c0fe 0c3d a8e3 2a3d b860 c8bb ad8a a63b
00000070: 3d86 353d bfc3 7dbc c13b a73c c7d7 9c3c
00000080: b57e c9ba f24d 583c e969 253a 210a 84bc
00000090: f6a5 913c 18c3 db3b 5a54 e8bc 176c 183c
000000a0: 5416 c43c afc5 90bb a883 283b ae9c 933c
000000b0: aac4 32ba bab5 3d3c b18b 843c cf4c 723c
000000c0: 718d 293c 325b 113d c138 99bb b123 453c
000000d0: 4fa4 00bd 5815 3b3c 7cdd 48bb 9253 d0bb
000000e0: 603f f53c c598 b83a c1bb bdbb 257c 11bd
000000f0: 2a89 3d3c e447 25bc 23ef e6bc f276 d73c
0.026272664 -0.01863046 -0.013146495 0.00067172654 0.008187888 0.02397811 0.011764403 -0.021006184
-0.003670796 -0.0010031401 0.013257209 0.026943104 -0.007888935 0.044628147 0.0069866236 0.0045497688
-0.017339561 0.025895447 0.0028441465 0.006308867 -0.00055409665 -0.0073933606 -0.02001831 0.03155514
0.034422636 0.041721016 -0.0061150454 0.0050824494 0.044317473 -0.015488564 0.020414235 0.01914586
-0.0015372845 0.013202177 0.00063100323 -0.016118111 0.017779332 0.0067066066 -0.028360534 0.009303114
0.023936428 -0.004418097 0.002571324 0.018019047 -0.00068194664 0.0115789715 0.016179891 0.01478882
0.010348664 0.03548736 -0.004675955 0.012032435 -0.031406697 0.011418663 -0.0030649593 -0.0063576186
0.029937446 0.0014083615 -0.0057902043 -0.035518784 0.011568347 -0.010087941 -0.028190201 0.026301835

bn4/gamma f4 [32]
00000000: 7590 803f f960 913f a699 823f 55a5 873f
00000010: d6ec 863f 73dc 8c3f 2503 8d3f 17b2 8b3f
00000020: 352b 853f 2ec8 8d3f 7e56 8b3f f06b 863f
00000030: f7a1 873f 4034 833f e5bf 8b3f 527d 843f
00000040: 996f 8f3f 3b9d 893f 043c 8f3f 251d 8c3f
00000050: 81ca 873f a052 8c3f 4bd4 883f d4f3 853f
00000060: e2e4 853f fa29 873f 81a1 933f 45f4 893f
00000070: 861a 8f3f 0413 853f 6dcc 8d3f c4f1 863f
1.0044085 1.1357719 1.020314 1.059733 1.0541027 1.1004776 1.1016585 1.0913724
1.0403811 1.1076715 1.088577 1.050169 1.0596303 1.025032 1.0917937 1.0350745
1.1205932 1.0751108 1.119019 1.0946394 1.0608674 1.0962715 1.0689787 1.0465035
1.0460474 1.0559685 1.1533662 1.077767 1.1179969 1.0396428 1.1078011 1.0542531

conv1_7/b f4 [2]
00000000: 6999 303d 2856 a63b
0.043115053 0.0050761886

conv1_6/W f4 [32, 32, 3, 3]
00000000: ec64 b9bc 0df6 21bc b405 443d d882 17bb
00000010: f785 94bc 40c3 c73d 9207 bb3c 9a64 e7bb
00000020: b20e 613d 3e9e cb3d e9d9 97bd 9b7e b23d
00000030: bfc7 03bb 8e96 d7bc 1651 e13c 393b cb3a
00000040: 3ccf 613b 7788 0bba fce8 8e3d b62f 91bc
00000050: 3c0e 863d 31b7 9a3c 3a32 d23d 3c33 7a3c
00000060: 5497 34bd 0748 3a3c f994 2abd 500e 4ebd
00000070: 97b0 363c 28c6 df3b 39b0 82bd b293 b93d
00000080: a92b ae3d 455d 31bc 39a6 fa3c de33 b73d
00000090: 49f4 ccbc 0a08 3cbd 171c 59bd 70d6 aabd
000000a0: ad92 873b c9fd 8dbd 7e4e eabc dc3e 8cbc
000000b0: aa1b 77bd 5eac d1bd 4ab3 b7bd ba39 02bc
000000c0: ac75 0dbc 11dd 33bd b60c 97bd 14a4 473a
000000d0: 58ed 3abd f227 7dbd a539 9a3d 027e f3bb
000000e0: 9ec0 4dbd f4fa 7dbd 6c45 37bd 0710 69bd
000000f0: 951f 5abc 6db9 5dbd 8085 0cbc dfbb 3abd
00000100: 58b2 f83d fb6f e73c 4901 f4bd 14eb e33b
00000110: 546e eabc 3bf7 703d 1a38 c3bd 33a9 473d
00000120: 0abc 90bc f206 4e3c c015 b43d 0672 433b
00000130: b994 93bd a79b 8aba 54e5 a43c 0758 643d
00000140: 5456 94bd 3dc8 843d 8bce 84bd 73b3 dd3c
00000150: e848 893c 2af5 7d3d d1da 223d 7d20 cd3c
00000160: 1566 01be 0670 9cbd 6c98 803b c29a 9d3c
00000170: 52aa 3abd eb5d c8bc f274 e8bc 4c16 1bbd
00000180: 02f7 3c3c 49eb 723d a053 09bd b8f7 8bbb
00000190: 5ed9 dabd a571 c73c 2d34 813d 951a 4d3d
000001a0: 86d8 963c 13ca b33c dd91 c53d e8af 8cbc
000001b0: f016 52bc b2a4 8e3d 4543 07bd 3fb4 0b3e
000001c0: d2ea d1bb b6a9 383d 3bbf 833d 2374 e53a
000001d0: a78c 7c3c 249f 08be 124e 603d eaae ea3c
000001e0: 59f8 6bbd 8180 bcbd dde5 a9bd 62e1 733d
000001f0: f82d 2d3c df1a b4bd e7e0 3abc 69e9 15bd
00000200: 1978 0fbd 48db f5bb be6f 933d aab2 1cbc
00000210: e236 18bd d6eb b13c ce87 d8bc 1555 6fbc
00000220: 2eff 07bd ebbc 35bd 2e13 d2bd 716a 8abd
00000230: 44ee 073e eec4 02bd 8212 843b 3150 84bd
00000240: fd24 9e3d ae8e bebc 348c 52bd 3ac0 bf3c
00000250: c28e 2b3d 084d afbd 9201 e6bd db72 bdbd
00000260: bd06 833d 01e3 403d 6dd9 d9bd 5988 623d
00000270: c031 3c3d c3cf edbd 18bc b73d 67be c63c
00000280: 8581 5a3c 1212 613d 646a 6fbd ffa5 ccbb
00000290: 55e0 233d ef54 ac3d 570a 76bd 9441 033d
000002a0: 43bf b7bc cff1 5bbd 8aee f03c 1630 ef3c
000002b0: 5713 d43d 5cf1 1f3c ca2c 5f3d 1a52 02bd
000002c0: 6868 9cbc a46f 3e3d f32f ab3d 1c05 a1bc
000002d0: 5fc3 83bd a00c 013d 1036 40bd 4d60 433d
000002e0: 4319 18bd 0670 95bc c389 453d a24a e4bc
000002f0: 03bf f3bc aa07 61bc 47e4 3dbd d55b adbc
00000300: 599a 7cbc 78b8 aebd 43f6 72bd 41b9 a0bd
00000310: 51b7 e93d dd42 a73d 5c18 7b3d 29db b53c
00000320: 223a d5bc 272a ff3c 0e9c 193d 256a 6fbc
00000330: 45fd 82bd 9a3a d43c fcce d3bc 77be 703d
00000340: 5e94 08bd a38b 12be f392 483d 2950 813c
00000350: 2b71 883d d169 763d 9c39 0d3c 4db4 b6bd
00000360: 8f6b a4bd 0007 8abd f700 c3bd fd4f 123d
00000370: 78fd 163d 16c3 493d a99d abbc 2022 bbbd
00000380: baf5 c93d e34a 19bd 73d4 af3d 02de 293c
00000390: b2a9 8e3c 41ec af3c a957 66bd c8e4 3b3d
000003a0: 8505 553c 47ac 953d f877 a3bb b9d3 923c
000003b0: 6c8c db3d 6027 3c3d aabe 6f3a 74be 4dbd
000003c0: b897 543d fcba e63c 5e5a 203d f348 073d
000003d0: eeea e2bd 9b96 d63d 9193 ea3c 4be9 9dbd
000003e0: 90c5 84bd 5804 783d ff98 643d 7476 8b3c
000003f0: caa3 8b3b f930 5f3d ef46 b93c 95ac fcbd
-0.022631131 -0.009885323 0.047857 -0.002311876 -0.018130286 0.09754038 0.022830758 -0.007061553
0.054945655 0.09942292 -0.0741461 0.08715554 -0.0020108072 -0.026316907 0.027504485 0.0015505321
0.0034455797 -0.0005322764 0.06978032 -0.017722946 0.06545684 0.01888618 0.10263486 0.015271004
-0.04408963 0.011369712 -0.041645978 -0.05030662 0.011150501 0.006829042 -0.06381268 0.09061374
0.08504421 -0.01082546 0.03059684 0.0894544 -0.025018828 -0.045906104 -0.053005304 -0.08341682
0.004137358 -0.06933171 -0.028601881 -0.017119817 -0.060329117 -0.102379546 -0.089697435 -0.007948333
-0.008634012 -0.043911997 -0.07375471 0.0007615697 -0.045636505 -0.061805673 0.07530526 -0.007430793
-0.050232522 -0.062006906 -0.04474394 -0.05690005 -0.013313194 -0.054131914 -0.008576751 -0.045589324
0.12143391 0.028251639 -0.119143076 0.0069555137 -0.028617062 0.058829527 -0.09532185 0.048745345
-0.017667789 0.012574898 0.08793211 0.0029822602 -0.07206101 -0.0010574952 0.020128883 0.055748012
-0.07243028 0.06483505 -0.064847074 0.027063107 0.016758397 0.062001385 0.03975946 0.025039906
-0.12636597 -0.07638554 0.00392442 0.019238833 -0.045572586 -0.024458846 -0.028376076 -0.03786306
0.011533501 0.059306417 -0.033527017 -0.0042714737 -0.10685991 0.024346182 0.0630878 0.05007418
0.018413793 0.021946942 0.09646962 -0.017173722 -0.012822852 0.06965007 -0.033023138 0.13642977
-0.0064061666 0.045083724 0.06432959 0.0017505925 0.0154143935 -0.13341957 0.054761954 0.028647859
-0.05760989 -0.09204198 -0.08295796 0.059541114 0.010570042 -0.08794188 -0.01140616 -0.03659955
-0.035026643 -0.007502947 0.071990475 -0.009564081 -0.037161715 0.0217189 -0.026431944 -0.0146076875
-0.033202343 -0.04436962 -0.102575645 -0.06758583 0.13274485 -0.031926088 0.0040305266 -0.06460608
0.07721899 -0.023261394 -0.05140324 0.02340709 0.04188419 -0.085596144 -0.11230768 -0.092504226
0.063977696 0.047091488 -0.10637174 0.055305813 0.045945883 -0.11611893 0.08971423 0.024260713
0.013336544 0.054948874 -0.05845107 -0.006245374 0.04000886 0.08414637 -0.060068455 0.032044962
-0.022430068 -0.053697404 0.02941062 0.029197734 0.10355251 0.009762134 0.054486074 -0.03181658
-0.019092754 0.046493188 0.08358755 -0.019655757 -0.064337485 0.03150618 -0.046926558 0.04769926
-0.037133466 -0.018241894 0.048227083 -0.027867619 -0.029754167 -0.013734737 -0.04636028 -0.021161953
-0.015417659 -0.08531278 -0.059316885 -0.078478344 0.11411918 0.0816705 0.061302528 0.02219923
-0.026028696 0.03114803 0.03750234 -0.014612709 -0.063959636 0.02590685 -0.025855534 0.05877539
-0.03334462 -0.1431108 0.048968267 0.015785294 0.0666221 0.06015951 0.008619692 -0.089211084
-0.08028328 -0.067396164 -0.095216684 0.035720814 0.03686282 0.049258314 -0.020949202 -0.09137368
0.09861322 -0.037424933 0.08585443 0.010367872 0.017414901 0.02147496 -0.056235943 0.04587248
0.013001804 0.0730825 -0.0049886666 0.017923223 0.10720143 0.04593599 0.00091455376 -0.05023046
0.051902503 0.028165333 0.03914868 0.033028554 -0.110799655 0.104779445 0.028634818 -0.07710513
-0.064829946 0.060551018 0.05580997 0.017024256 0.0042614685 0.054490063 0.022616832 -0.12337605

conv1_4/W f4 [32, 64, 3, 3]
00000000: 3695 c93b 1907 7cbd 1a58 85bd d741 133d
00000010: 50bd 863d 9f5d 9eba 2f40 d83b 6004 9fbc
00000020: c678 5a3b ee1f 2abd f115 c0bd eea9 90bd
00000030: b33f c2ba e0a8 9b3d 1bad 423c efae 64bc
00000040: 1280 9f3d 0b86 b53d a982 993d 113d d6bc
00000050: 872c 24bc 2f46 923d 58b9 f23b 371d 833d
00000060: f5ac 05bd e679 bbbc b113 b83d edc2 313c
00000070: de2d c7bd 4d4f 46bd 42ab 673c 9c24 7cbd
00000080: 10eb 16bd cb96 26bc f36b 5fbc 9f83 0fbd
00000090: 8b6c 91bc 209e 0c3d 85f1 ff3a f0e0 90bc
000000a0: 582d 45bc 226f aabb 58e0 ab3c 548b 29bc
000000b0: 58db 853d 8d8c 74bd 21d3 87bd 562a a33b
000000c0: a717 0939 91e9 81bd 029a 533d 90e9 593c
000000d0: c4c9 9f3b f4e5 eebc 874d 2c3c 2f33 483d
000000e0: d315 4c3d 1f3d c3bd 2328 fcbb 4dc0 503d
000000f0: fcc3 c7bc 9846 5a3b 39b7 a1bc 17ba 3c3d
00000100: 2622 e5bb 4c0c 8738 ae98 9e3d e37c dd3c
00000110: 3ad2 3fbc 895f 963d 5076 3fbd c557 10bd
00000120: 51b8 2d3c 2679 4fbd e354 0ebc 63c4 0c3c
00000130: b2b3 fabc b1ad b3bd f50c 33bd 0b85 fc3b
00000140: fa38 5d3d 8213 493d 3229 9e3c c224 d93c
00000150: d70e 92bb 69f9 e93c 5dbb d4bd 72c6 1a3c
00000160: 3dd0 c6bd 7e0b 60bd fc25 19bd deb5 49bd
00000170: 4a62 873c 347f 1a3d 2fd6 61bd 507f 25bd
00000180: 18de e9bc b657 0e3b 6133 aaba 7abb ac3d
00000190: 6dd0 d83b c555 3abd c7fc 1f3c 714f 93bd
000001a0: 89d2 6a3c c51f acbc 1e35 573c 9a15 783b
000001b0: ea45 323d 5f4b 7d3d a631 1f3d b7bb f0bc
000001c0: e731 74bc d284 143b b669 a63d 3dab 733d
000001d0: 4e64 a2bc 1f97 0f3d 6360 813d 3af8 cabb
000001e0: c508 743d 474e 88bd 5b10 babb f591 8f3d
000001f0: be20 8a3b 86be 0bbd f0d0 203b 8765 70bd
00000200: 1246 193d ea7d d33d eef9 9d3c 5a82 2e3b
00000210: 22dd 8bbd bbe3 90bd 4afa 933d 4a64 abbd
00000220: f9f7 4b3d f5e2 77bc 89cc 24b9 a642 a23b
00000230: 468c 54bb aa84 94bd 0128 3abb fbfd ccbc
00000240: d5b7 e4ba a165 c9b9 5b79 3fbd ca3d d23c
00000250: eb57 273c 371a 323d ff74 4abd e537 52bd
00000260: 46dc 47bd b148 93bd c957 7dbd da86 973c
00000270: 3db0 ef3b 1f8b babc 6025 23be 02e3 073b
00000280: c5f7 8e3d 2e08 0d39 8f85 103b 57a0 fe3c
00000290: e8bd 3abc 763e 623d ec6a 29bc 6ca2 67b8
000002a0: 79ef b9bc f533 023d ba44 4e3d 7e45 02bd
000002b0: 95ad 953d 8ab0 d33b 5743 463d 87a7 813d
000002c0: 6116 013d 6f6b f0bc 964c 8fbd a111 b83c
000002d0: f649 62bd f232 afbb f7ac a6bc c021 f4bc
000002e0: fc7e 953c ec3b 87bd ab2d b93a 0633 1fbc
000002f0: 5b1e 223b 47c2 973d cda1 3e3b 4ef9 533b
00000300: ba15 8dbc 7081 1fbb e24f b13c 8fa4 80bc
00000310: 1525 abbc 0041 debb 0583 f93c 5954 9d3c
00000320: b99c b3bc 7d03 703c 18c0 193d c3cc ea3c
00000330: 3086 a0bd baf2 263d c7b9 013e 6058 253d
00000340: e012 83bc 957b adbc 9083 06bd 0791 0ebd
00000350: e49e 82bc 4287 20bd 0b54 61bc acd4 73bd
00000360: 81e3 0bbd 5870 c43c 2ab8 8abc 8b0d 2dbd
00000370: 5554 243d 4392 5d3d ed03 063c 6daa 263d
00000380: a189 4d3c a12f 593b 8442 18bd c5ab 82bc
00000390: 9ecf 35bd c760 19bd 675e 6dbd 3f84 cc3c
000003a0: bf21 96bc 44a0 d73a 80d0 aebd 5549 4fbd
000003b0: aac1 24bd 3440 babb 79f3 c43c 791d e4ba
000003c0: bf18 68bc 4f4b 2f3c 3777 1cbc 3213 c03c
000003d0: bcac 323d 51a7 4a3d 509b c03d 7c45 493c
000003e0: eea1 9ebb 59f6 1eb9 5907 af3d c90a 133d
000003f0: f312 ebbc e4d0 bb3c 9809 bd3b 8693 9b3b
0.0061518205 -0.061530206 -0.06510945 0.03595146 0.06579077 -0.0012082345 0.006599448 -0.019411266
0.0033336147 -0.041534357 -0.09379185 -0.070636615 -0.0014820009 0.0760057 0.011882092 -0.013957723
0.07788099 0.08863457 0.074956246 -0.026152166 -0.010020382 0.07142293 0.0074073486 0.06402057
-0.032635648 -0.022885274 0.08988131 0.010849697 -0.09725545 -0.04841547 0.014139952 -0.06155835
-0.036845267 -0.010167788 -0.013636577 -0.035037633 -0.017751953 0.034330487 0.0019526934 -0.017685384
-0.012034737 -0.0052012363 0.020980999 -0.01034816 0.06535977 -0.059704352 -0.066320665 0.004979412
0.0001307415 -0.063433774 0.051660545 0.013300315 0.0048763473 -0.029162385 0.010516531 0.048876937
0.0498255 -0.09533142 -0.0076952144 0.050964642 -0.024385445 0.0033306237 -0.019740688 0.046075907
-0.006992596 6.439592e-05 0.07743965 0.02703709 -0.011707837 0.07342441 -0.04674369 -0.035239954
0.0106030265 -0.050652646 -0.008687231 0.008591744 -0.030603264 -0.087733634 -0.04371353 0.0077062896
0.054009415 0.04909087 0.019306753 0.026506785 -0.0044573355 0.02856131 -0.10387299 0.009446727
-0.09707687 -0.05469846 -0.03738974 -0.049245708 0.01652636 0.037718967 -0.055135902 -0.040404618
-0.028548285 0.002171976 -0.0012985283 0.08434196 0.006616643 -0.045491952 0.009764857 -0.071928866
0.014332422 -0.021011243 0.013135223 0.0037854672 0.043523706 0.061839458 0.038865708 -0.029386384
-0.014904476 0.0022662175 0.081256315 0.059489477 -0.01982322 0.03505623 0.063172124 -0.0061941417
0.059578676 -0.06655555 -0.0056782193 0.07010261 0.004215329 -0.034117244 0.00245386 -0.058690574
0.03742034 0.103267506 0.019284215 0.0026627989 -0.06829287 -0.07074686 0.07225473 -0.08368738
0.049797032 -0.015129794 -0.00015716454 0.004951793 -0.0032432242 -0.07251866 -0.0028405192 -0.025023451
-0.0017449806 -0.00038413427 -0.046746593 0.025664229 0.010213832 0.04348203 -0.049427982 -0.051322836
-0.048794053 -0.07191599 -0.061851297 0.01849692 0.0073147104 -0.022771416 -0.15932226 0.0020734672
0.06980852 0.00013449855 0.0022052263 0.031082315 -0.011397816 0.05523535 -0.010340434 -5.522596e-05
-0.022697197 0.03178783 0.05035851 -0.031804554 0.07308499 0.006460254 0.048404064 0.063307814
0.031515483 -0.029348103 -0.069970295 0.022469344 -0.055246316 -0.0053466493 -0.020346148 -0.02980125
0.018249027 -0.06603226 0.001412799 -0.009716755 0.0024737332 0.07410102 0.002908814 0.0032344642
-0.017222274 -0.0024338625 0.021644536 -0.015703468 -0.020891706 -0.006782651 0.030457983 0.01920526
-0.021925317 0.014649269 0.03753671 0.028662091 -0.07838094 0.040758826 0.12668525 0.040367484
-0.016000211 -0.021177093 -0.03284031 -0.034806278 -0.015944906 -0.039191492 -0.013752948 -0.05952899
-0.03415251 0.02397935 -0.01693352 -0.042249244 0.040119488 0.054094564 0.008179647 0.040689874
0.01254502 0.0033139961 -0.03717281 -0.015951047 -0.044387452 -0.03744581 -0.057951357 0.024965404
-0.018326638 0.0016450961 -0.08535862 -0.050607044 -0.040223755 -0.005683923 0.024041878 -0.0017403803
-0.014166056 0.010699107 -0.009549907 0.023446653 0.043621764 0.04947597 0.094046235 0.012284633
-0.004841081 -0.00015159826 0.08546323 0.035898957 -0.02869556 0.022926755 0.005768966 0.004747811

bn1/avg_mean f4 [64]
00000000: 7b63 dd3b 5260 55bd 1d89 873d bf5e 93bd
00000010: 1566 363d b33e 7a3d c9c3 a0bc 730e afbc
00000020: 8427 b63d 518f 7d3d 9586 dbbd 2cea 6fbd
00000030: b4e2 9fbd 0bdc 21bd 5eda c7bd df7d 04bd
00000040: 4374 02bd 7b97 ca3d 1faf a23c feb8 11be
00000050: 38f1 1dbc 9218 a7bd c658 aa3d 180c f9bd
00000060: 5621 aa3c e625 02be 1184 81bd 145d 893c
00000070: 6cdd 57bd 5032 adbc 2cf8 70bd 456f 9ebd
00000080: 08b4 813d 6428 943d 6bbb 9fbd 41b3 d8bd
00000090: 94a0 1f3d 0c4a 63bc 2f45 af3c afa9 ce3c
000000a0: fbe1 573d 9ea6 91bd 337b edbd 41a4 95bd
000000b0: b5fd 6b3d 47f1 b0bd eb6c 6cbd 48c7 bdbd
000000c0: eb95 3d3d 9305 a63c a645 423d 1f54 c6bd
000000d0: ef74 f5bc a9f6 973d bde9 12be 731e 74bd
000000e0: b28e a73c 8baa 95bd 81d2 bbbc c77c 223d
000000f0: 9582 71bd f5a6 05be dc88 8f3d 9532 09bd
0.0067562438 -0.05209381 0.06617949 -0.07195806 0.044530947 0.06109495 -0.019624608 -0.021369195
0.08894256 0.061904255 -0.10719029 -0.058572933 -0.07806912 -0.03951649 -0.09758447 -0.032346603
-0.031849157 0.09892174 0.019858895 -0.14230725 -0.009640031 -0.08158983 0.083177134 -0.1216051
0.020767849 -0.1270977 -0.06324018 0.016768016 -0.0527014 -0.021142155 -0.058830425 -0.07736067
0.06333166 0.072342664 -0.07799419 -0.10581065 0.0389715 -0.013872635 0.021395294 0.025227396
0.052705746 -0.07111858 -0.11595764 -0.073067196 0.057615 -0.0863977 -0.05772106 -0.092665255
0.04628555 0.02026633 0.047429703 -0.096840136 -0.029962985 0.074200936 -0.14346977 -0.05959935
0.020453785 -0.07307919 -0.022927525 0.03966978 -0.058962423 -0.1305197 0.07008526 -0.033495504

bn4/beta f4 [32]
00000000: 99bd 0cbc 8da6 133e 2840 c93c 75f7 553d
00000010: 2b0a c83c a2ae d73d e93d f13d 7ae6 b63d
00000020: b865 873c 7953 fa3d a2e1 ec3d e8d6 8e3d
00000030: dd7f 1d3d 7568 0e3d 7653 cd3d d8ef 513d
00000040: c651 fc3d 79c4 5d3d 2c32 de3d f95a be3d
00000050: 384c a23d a391 e03d de93 aa3c d712 0c3d
00000060: b2ad 6b3d 2d3f 6d3d 4f1d 3b3d 0c19 de3d
00000070: 3102 143e 8eff 543c 3d18 b73d 4a8c f83d
-0.0085901255 0.14419003 0.024566725 0.052237947 0.024418911 0.105313554 0.117793866 0.08930679
0.016527995 0.122229524 0.115664735 0.06974584 0.038452018 0.034767587 0.100256845 0.051254123
0.123202845 0.05414245 0.10849413 0.092946954 0.07924694 0.10965278 0.020822462 0.034197655
0.057538696 0.057921577 0.045682248 0.10844621 0.14453961 0.013000382 0.0894017 0.12136133

conv1_2/W f4 [64, 64, 3, 3]
00000000: 6b3a 4ebd 4d14 a03d 45f0 b13c ef46 463d
00000010: cc19 d5bc 1947 70bd 26ac c73b c62b ccba
00000020: 24c2 babd ebd8 783d 43dd 50bb fbc7 913d
00000030: 3aa2 c2bc 00f4 d73c e3f3 573d e512 4dbd
00000040: 138b 52bd 8388 1abd 08a3 0ebc 5267 5dbd
00000050: 3d28 953d 43f8 8bbc fd0d 1e3d 2823 0b3d
00000060: 583b 57bd af0a 0d3d 4bfc b1bd 078f 36bd
00000070: ef32 993d a364 e3bc 1356 79bc 7e28 b0bd
00000080: caa0 50bd adf7 d03c 1b2e 6f3c 73af 5fbc
00000090: e2f0 e0bc 05eb 3b3c c3d0 28bd 3502 1ebc
000000a0: 5590 2fbd 8e51 11bc 5679 0a3d 1ede 0dbb
000000b0: 1bf0 383d dcfb b7bc 5293 16bd 5728 51bd
000000c0: f269 72bb 853f 443b 94ba 933c ce9c c73d
000000d0: 0495 91bc 691c 353d 9dba c63b 8eb4 873d
000000e0: b38e 1a3c 64ab 92bc 5f8e e6bb b82e b1bd
000000f0: f873 953d 2c18 503d 3111 923b 33b2 43bd
00000100: eb44 12bd 6d0a 853c 82f9 24bd bb3b a4bc
00000110: b4d0 463d b750 b9bd e17c ba39 65be 65bd
00000120: 6790 cabc 63f4 f03c 5fbe 563d 613e 5b3c
00000130: 310c 4bbd 208a 02bd 9b2f 4f3c f844 b1bc
00000140: 88df 80bd 462e 6bbd 965e 2dbb 031f 053c
00000150: 4220 773d 2222 c3bd 1fa0 3f3c 43af 2e3c
00000160: 75d9 7dbd f750 b43d 0178 9cbc d839 94bc
00000170: 7cd1 f4bc f71c 13bd f78a 0e3d 05fa 8f3d
00000180: 6bca d8bc 4ff3 b93c 8c01 41bc 3130 0c3d
00000190: ea67 113d dcf1 e9bc 99ab 2a3b 864f 99bd
000001a0: 33c7 013d f875 423d fdfd fc3b 7f4a 50bd
000001b0: 510b 88bd 81ee 8bbd 1c47 08bd 435f a0bb
000001c0: 0b88 893c 58c8 91bd c023 a23d 1b12 1cbc
000001d0: e87c 273d 0506 85bd 0429 5dbc fb23 b0bc
000001e0: 4b93 7cbd 8ef4 b4bc b424 ddbb a61b 98bd
000001f0: 4ce8 0dbd 0b8d 39bd a0fb a9bc 85ae ff3b
00000200: 23c9 8abd 367b bb3c 0589 edbc 7e26 943d
00000210: ef84 f6ba f223 37bd b5dd ef3d 566a 01bd
00000220: 2637 4fbd 00f2 1dbd 350a b0bc bf0c 12bd
00000230: 9df0 44bc bd2b 83bd 5c4e dabc 30bb d7bd
00000240: a5bf 1abc da47 1ebd 8f04 05bc 57f4 1ebd
00000250: a1b6 0ebd afba e6bd 3c5f 113c 9034 563c
00000260: f080 a8bd f11a 8dbd 76b3 163c f995 17bd
00000270: e98b 333d f4e7 1ebd 09dc d43d a52b 10bd
00000280: abef 94bd ffa9 00bd 248d 8fbc 4106 8cbd
00000290: f457 67bc 24e8 80bc 7482 09bd 72c6 86bd
000002a0: e59e d53c b514 7bbc 29e0 a7bd 2694 bbbd
000002b0: a090 b0bd 910c 51bd 58bb 99bc d239 393c
000002c0: b0c0 b9bc fbd8 7fbd 02f7 81bc 7664 03bd
000002d0: abaf efbc 7754 6fbd db73 a1bc cd60 2d3c
000002e0: aaf2 02be 6797 17bd 8c07 ac3c 6d64 6cbc
000002f0: 3253 633b 4987 893d d14d 10bd c447 17bc
00000300: f0e4 533d bec6 32bd 3606 393d 57e0 363c
00000310: c394 573b 3bc4 593d e1ec a6bd 316d e63c
00000320: 3f95 2f3d 24c5 b2bd bfed d9bc 436d fcbc
00000330: a6e8 883d 6426 443d 1d03 79bd fe1a 4a3d
00000340: 9621 a2bc e403 823d b2ed 923b ea5a 8cbb
00000350: b807 cabd 657d c2bc 7153 403c e56a 233d
00000360: 66a4 d3bb d7d2 aabc 9664 c03c bd50 8f3c
00000370: 2b60 453c 1831 1f3d 7f2d 91bd f526 7ebd
00000380: d350 fb3c 7bc8 debc 7de3 033d 7259 a23d
00000390: ecd0 f7bc 284d 383d 9da8 93bc 91c9 a8bd
000003a0: 1f5e 153c 4c92 3f3d 1497 5bbc e458 0c3d
000003b0: 68c6 78ba aaee f2bc 8fdd e43c 6f67 ccbd
000003c0: c05f 23bd d22f b13c eda2 f33a c07a 1cbc
000003d0: 107c 2e3d 43c1 97bc acc8 f53c 23bb 24bd
000003e0: 8228 0f3d ad6d 813c f793 1a3d a470 9f3c
000003f0: 8a35 08bd 419d 1e3d 9f6c 82bd 0f16 23bc
-0.05034868 0.07816372 0.021721015 0.04840749 -0.026013277 -0.058661554 0.0060935197 -0.001557701
-0.09119061 0.060753744 -0.0031870164 0.07118221 -0.023758996 0.026361465 0.052722823 -0.050066847
-0.051402163 -0.037727844 -0.008705862 -0.054053612 0.072830655 -0.017086154 0.03858756 0.033969074
-0.05254683 0.034434017 -0.08690699 -0.044569995 0.07480418 -0.027757948 -0.015218276 -0.08601473
-0.05093459 0.025508726 0.014598395 -0.01365267 -0.027458612 0.011469607 -0.041214716 -0.009644081
-0.042862255 -0.008869542 0.03380712 -0.0021647285 0.045150857 -0.022458963 -0.03676159 -0.05106386
-0.0036989418 0.0029945087 0.018033303 0.09746705 -0.017771251 0.044216547 0.0060647265 0.06626235
0.009433436 -0.017903991 -0.007036015 -0.08651489 0.0729751 0.050804302 0.004457616 -0.047777366
-0.035710257 0.016240323 -0.04027701 -0.020048013 0.04853888 -0.09048598 0.00035569727 -0.056089777
-0.02472706 0.029413408 0.052427646 0.0133815715 -0.049572174 -0.031870008 0.012645627 -0.021639332
-0.06292635 -0.057417177 -0.0026454083 0.00812507 0.060333498 -0.09527995 0.011695891 0.010661903
-0.06197496 0.08804505 -0.019100191 -0.018093988 -0.029885046 -0.035916295 0.034800496 0.07030109
-0.026463708 0.022699026 -0.011780154 0.034225646 0.03549949 -0.02855771 0.0026042222 -0.07485871
0.03168411 0.047475785 0.0077207075 -0.050852295 -0.066427834 -0.068326004 -0.03327094 -0.0048941686
0.016788503 -0.07118291 0.07916975 -0.009525801 0.040890604 -0.06495289 -0.013498548 -0.021501532
-0.061663907 -0.022089269 -0.00674876 -0.074271485 -0.034645364 -0.045300525 -0.020749867 0.007802787
-0.06776645 0.0228859 -0.028996 0.07233904 -0.0018807928 -0.044712014 0.11712209 -0.03159555
-0.050589703 -0.038560867 -0.021489242 -0.035656687 -0.012020257 -0.06404827 -0.026648693 -0.1053375
-0.009445106 -0.03864274 -0.008118763 -0.03880724 -0.034842137 -0.11266076 0.008872803 0.013074055
-0.08227718 -0.06889904 0.00919806 -0.03700826 0.0438346 -0.038795426 0.10393531 -0.035197873
-0.072722755 -0.03141212 -0.017523356 -0.0683713 -0.014120091 -0.015735693 -0.033571675 -0.06580819
0.026076743 -0.015324761 -0.08197052 -0.091591164 -0.08621335 -0.051037375 -0.01876609 0.011305289
-0.022674888 -0.062462788 -0.015864853 -0.03207823 -0.02925857 -0.05843016 -0.019708565 0.010582161
-0.12787881 -0.037009623 0.020999692 -0.01442824 0.003468704 0.06715257 -0.03523046 -0.009233419
0.051732004 -0.043646567 0.04517194 0.011161885 0.0032895065 0.053165656 -0.0815065 0.028128238
0.04286694 -0.08729008 -0.026602624 -0.030813819 0.06684999 0.047888175 -0.060793985 0.049342148
-0.019791406 0.06348398 0.004483902 -0.0042832987 -0.098647535 -0.023741433 0.011738644 0.039896864
-0.006458807 -0.02085249 0.023485463 0.017494554 0.012046854 0.03886518 -0.07088756 -0.06204887
0.030678188 -0.027195206 0.03219937 0.079272166 -0.030250989 0.044995457 -0.018024737 -0.08241571
0.0091166785 0.04677038 -0.013402719 0.03426446 -0.0009490014 -0.02965482 0.027937679 -0.09980666
-0.039886236 0.021629248 0.0018587984 -0.00955075 0.042598784 -0.018524772 0.030002914 -0.04021753
0.03495074 0.015799368 0.037738767 0.01946289 -0.033254184 0.038724188 -0.06368374 -0.00995399

bn3/gamma f4 [64]
00000000: 4264 843f a21e 833f 4d09 803f 8f20 813f
00000010: 0d3c 803f dbba 833f 7059 853f fa09 843f
00000020: 152d 7f3f 19b0 7e3f 9001 863f 2841 873f
00000030: 98c3 7b3f 3919 853f 0780 7e3f 2e5a 823f
00000040: 03c0 823f aea4 7f3f 6245 803f 9ddd 7f3f
00000050: 372d 7d3f 9977 8c3f b08b 833f f68c 7e3f
00000060: c3a0 813f e30f 833f 0499 7e3f f345 803f
00000070: e6b1 813f 5e8d 833f 5170 813f efd8 883f
00000080: 5ae6 7c3f a0b5 7e3f 2900 803f 14be 7c3f
00000090: 8695 793f b9f8 7c3f 93f2 763f 2358 863f
000000a0: 7c1f 7b3f 915d 7b3f fb93 803f eba1 823f
000000b0: fdfa 803f c915 823f 6a1d 803f f634 7f3f
000000c0: 1410 7f3f d376 823f 2a44 823f f9c7 823f
000000d0: b1d0 853f f6c0 8a3f 7df5 823f 362a 803f
000000e0: 3f88 803f 9eb4 803f ddad 7a3f ea52 873f
000000f0: fd53 843f 4071 7f3f aea1 803f 6fb2 803f
1.0343096 1.0243723 1.0002838 1.0088061 1.0018326 1.0291399 1.0417919 1.0315545
0.99678165 0.99487454 1.0469227 1.0566759 0.9834533 1.0398322 0.99414104 1.0183771
1.0214847 0.99860656 1.0021174 0.9994753 0.9889712 1.0973998 1.0277004 0.9943384
1.0127186 1.0239223 0.99452233 1.0021347 1.0132415 1.0277517 1.0112401 1.0691203
0.9878899 0.9949589 1.0000049 0.98727536 0.9749378 0.9881702 0.9646389 1.0495647
0.98094916 0.98189646 1.004516 1.0205663 1.0076596 1.0162898 1.0008976 0.99690187
0.9963391 1.0192512 1.0177052 1.0217277 1.0454313 1.0840137 1.0231167 1.0012882
1.0041579 1.005512 0.97921544 1.0572178 1.0338131 0.9978218 1.0049341 1.0054454

conv1_7/W f4 [2, 32, 3, 3]
00000000: 60f5 ab3d 0b4a c43c 7bf6 8b3d 057b 3dbe
00000010: cbd5 4ebd ecce a8bc 2dc8 2e3d cda2 7fbc
00000020: e4c4 13bd 6397 04bd 8bb8 68bd 46f0 98bd
00000030: fbc5 193e ffc6 ec3d dce2 18bc 8211 063d
00000040: 987c adbc bbd7 133e 75f0 e2bb 7762 f93c
00000050: 7f4f 35bd d7e4 a13c b624 aa3d 89e3 f9bc
00000060: ae26 8d3c 99c0 c83d 2b52 433e 723c 2f3d
00000070: a541 bd3d ca6a b2bc a9cd 833d 9f0b 8f3c
00000080: 4d6d 9e3d 58f1 333e 85ef 173e af51 da3d
00000090: 2d9c a8bd f74a 1bbd c2ee 9dbd 6b73 803d
000000a0: 6f25 353d 13fb 6abd 21c5 493d c4ec 633d
000000b0: 46ca ef3d 5fc8 0d3e 1e6f 42bd ae1b 2fbd
000000c0: 385b 423d 8dd8 8d3e 30ce a93d 4fd6 b53d
000000d0: dd3f f33d 56ae 14bd 3608 9d3c 65ac ab3d
000000e0: c19d a9bd 110d cfbb 1066 503d ace4 8a3d
000000f0: 8ee1 fe3d a08e bc3d 9d47 f73c 3a80 1c3d
00000100: c63b 56bd 7d46 c93d 2a50 1ebd 3e50 963d
00000110: ac23 643d fe2c f2bc 3e33 4d3d 878b b6bc
00000120: 5d52 403d cc92 bf3c 8cde 23bd dc00 203d
00000130: b01e 40bd b7be 80bd 72c6 ef3c dfd3 14be
00000140: b2ca 023e 9393 d2bd 2582 ab3d 28ad 373e
00000150: 869b 1c3e 9ba6 493d 44bd 2ebd d902 413e
00000160: 097a f4bd cdf6 2a3e e296 a63d 84d0 bf3d
00000170: 8533 9c3c 1f8f 403e 2b6a bb3d 7604 6c3d
00000180: cbe3 96bd a9ec b73c 27b0 863d 1a83 103d
00000190: 6b49 ba3d 18ab 673c 8442 ab3d 2cbd 9dbd
000001a0: 393f 2c3d 6359 09bd d9e4 d43c 6ac8 e23d
000001b0: b1be da3c caed afba 998f 1e3d 33cd 7e3d
000001c0: 60a1 563d 3226 eb3d e895 26bd 1018 03be
000001d0: cef8 4a3d b044 7e3c 782b 873d 0fdf a03d
000001e0: 60c4 8c3d 3861 3b3a 786d af3c 6906 283d
000001f0: 45ca 24bc 6a79 1c3d 3b5f c33d ec47 bd3d
00000200: d60d 2cbe ad74 2dbe 0f71 303d 3f20 9d3d
00000210: 6088 4c3d 6d07 c43d 4817 e3bc 5407 523d
00000220: cad7 283d 38fb 633d b813 253e 2cbb e53b
00000230: 42ac b23d 10dc 54bc 4611 f0bd bdf1 573d
00000240: e780 d73d b756 5d3d 0d05 fe3d 1b3b 3e3e
00000250: eca5 033c 4682 683d 636a 323c e0e8 dcbc
00000260: 9dab 30be 9fe7 32bc 5b66 1f3d 626c 00be
00000270: b41b 46bd dbb5 333d a28d 303d 0cd2 123d
00000280: 18f3 3e3d 41fa 453d 7928 633d 8554 593e
00000290: b8f2 4b3d 4705 3b3d 2042 303e 2204 c4bc
000002a0: 020b 553c bd01 153e 9014 1c3d ba22 60bd
000002b0: 9180 84bc 92b4 cf3d 553f 58bd 66ce 5f3e
000002c0: cc1d 833d 7547 503d 1943 513d 3ac6 9f3d
000002d0: 7bc3 f53b a5fe a73d 2c7d 7b3d 3d62 813d
000002e0: 13a1 a83d 89ce 193c 5c79 e93d afb7 d23d
000002f0: d810 353e e525 a13d 9564 783d eab8 38bd
00000300: cb90 adbd a21a 063e 9fe6 363e 13fb ad3d
00000310: dbe6 043e 0e42 d93d 8121 b7ba 2c7c ac3d
00000320: 10ee 3dbd d62a 833d 2ce0 13be 6bba 063d
00000330: 8a07 8b3b b5bf 5fbd f8ce 82bc be7e 41bc
00000340: 02fe 60bc 6991 3bbd c0e8 c63a 0769 f73d
00000350: 1407 72bd 9e68 463d f4c4 9c3c b977 f23d
00000360: a1bc a6bc 2d7a b23d 029d f23d d5f0 413e
00000370: 36b3 fe3d 987e 023d cce2 c13d acbb bb3b
00000380: 0fea cbbb 32a1 0a3e 045c 9a3d eb4a 823d
00000390: 6507 0a3e cea6 cf3c fd6a 8f3d 2a41 1e3d
000003a0: 69e8 29be 7796 80bc 1d56 27bd 8641 823c
000003b0: 80a7 ae3d d58e cbbd 5c72 ccbd e70a 50bb
000003c0: ad69 533d 06c3 f4bc eef0 b43d eb3c ee3d
000003d0: e507 823d 6aef ed3d 45d7 223d 7e49 eb3c
000003e0: 727e 303d 358e 593d 7f48 b93d 187f a93c
000003f0: a8b6 173e 231c 063c dba5 8a3d 0a46 ab3d
0.08396411 0.023961088 0.06834122 -0.1850396 -0.050496858 -0.02060648 0.04267137 -0.01560278
-0.03607644 -0.032370936 -0.05681662 -0.074677035 0.1501693 0.11561393 -0.009331431 0.03273154
-0.021177575 0.14437763 -0.0069256374 0.03044246 -0.044265267 0.01976244 0.08307783 -0.030504005
0.017230358 0.0980236 0.19074313 0.042782255 0.09241036 -0.021779437 0.06435711 0.017461596
0.07735691 0.17572534 0.14837463 0.10660111 -0.08232913 -0.03791329 -0.07711555 0.06272014
0.044225153 -0.05736835 0.049260262 0.05564572 0.117085025 0.13845967 -0.04746925 -0.042751007
0.047450274 0.27704278 0.0829128 0.08878767 0.11877415 -0.036299072 0.019168954 0.08382491
-0.08282042 -0.0063186963 0.050878584 0.06781897 0.12445365 0.09206891 0.030185515 0.038208224
-0.0523031 0.09827898 -0.03865067 0.07339524 0.05569808 -0.02956247 0.050097696 -0.022283329
0.046953548 0.023385428 -0.04000716 0.03906332 -0.046904266 -0.06286376 0.02926943 -0.14533947
0.12772635 -0.10282054 0.083744325 0.17937148 0.15293702 0.049231153 -0.042660967 0.18848743
-0.11937339 0.1669571 0.08134247 0.09365943 0.019067535 0.18804596 0.09151109 0.05762144
-0.07367667 0.022451716 0.06576567 0.03528128 0.090960346 0.014139913 0.08362296 -0.07702097
0.04205248 -0.03353251 0.02598803 0.11073382 0.026702257 -0.0013422307 0.038711164 0.062207412
0.052399993 0.114818946 -0.040670305 -0.12802148 0.049553685 0.015519306 0.06600088 0.07855045
0.06873393 0.00071479706 0.021414503 0.04102174 -0.01005799 0.038201727 0.09539648 0.09242234
-0.16802153 -0.1693904 0.04307657 0.07672166 0.049934745 0.09571729 -0.027721062 0.05127652
0.041221417 0.055659503 0.16120803 0.007010838 0.08724262 -0.01299192 -0.11722045 0.052720774
0.10522633 0.054037776 0.12403307 0.18577234 0.008035164 0.056764863 0.010889622 -0.026966512
-0.17252965 -0.010919481 0.038915973 -0.12541345 -0.048366264 0.043874603 0.04310382 0.035844848
0.04661855 0.048334364 0.05545852 0.21223648 0.04979202 0.04565933 0.17212725 -0.023927752
0.013003113 0.14551444 0.038105547 -0.054720618 -0.016174586 0.10141863 -0.052794773 0.21856079
0.06402168 0.050849397 0.05108938 0.078014806 0.0075001097 0.082028665 0.06139867 0.063175656
0.082338475 0.009387621 0.114001006 0.10288941 0.17682207 0.07868556 0.060642797 -0.045098223
-0.08474883 0.13096097 0.17861412 0.08495154 0.1297869 0.10608302 -0.0013971777 0.084221214
-0.046369612 0.06404655 -0.14440984 0.032892626 0.004242842 -0.054626185 -0.015967831 -0.011810003
-0.013732435 -0.04579297 0.0015175566 0.12080579 -0.05908878 0.048439614 0.019136883 0.118392415
-0.020353617 0.087147094 0.11846353 0.18939526 0.124365255 0.03185901 0.09467086 0.0057291593
-0.0062229703 0.13538054 0.07537082 0.06361946 0.13479383 0.025348093 0.07002828 0.038636364
-0.16592564 -0.015696747 -0.04085361 0.015900385 0.08528042 -0.099393524 -0.0998275 -0.003174478
0.051614452 -0.02987815 0.08835016 0.11632713 0.06349162 0.1161793 0.03975608 0.028721567
0.043089338 0.053114135 0.09047031 0.020690486 0.14815772 0.008185419 0.06769916 0.08362968
