loto6_cnn/model/loto6_20_40.model (npz, 468579 bytes, 38 tensors)

conv1_2/b f4 [64]
-0.00012164484 -8.9441375e-05 5.023543e-05 -0.00013758188 2.3151756e-06 9.058754e-05 -3.7691963e-05 -0.00018098032
2.5254945e-05 0.00036369203 -4.168713e-05 -0.00020505235 1.5677315e-05 1.4884637e-05 -1.24949565e-05 -9.4021176e-05
-2.813613e-05 -1.6377497e-05 2.9495479e-05 -6.6946673e-06 8.033045e-05 5.2696e-05 9.40988e-06 -9.623011e-05
-4.8343856e-05 -2.4326864e-05 -5.620208e-06 -2.423969e-05 -2.036973e-05 0.0001059837 1.1403464e-05 -6.958644e-07
1.7722363e-05 -5.3305544e-06 -4.788967e-05 -0.00013374483 7.878676e-05 -0.00016704609 5.2891687e-06 -4.080081e-05
7.1343056e-05 -3.3270488e-05 2.198835e-05 -1.2688696e-05 1.310158e-05 2.3881876e-05 3.2882836e-05 -7.781703e-05
-2.4181778e-05 3.4189474e-05 5.0421782e-05 2.802162e-05 2.4294682e-06 4.518227e-05 0.00015009342 -0.00016935433
-0.00012179723 -3.631827e-06 6.950356e-05 7.775405e-06 -1.1213327e-07 5.098481e-05 -9.640342e-05 -2.4694054e-05
00000000: 941b ffb8 7992 bbb8 e2b3 5238 db43 10b9
00000010: 6a5e 1b36 d1f9 bd38 7017 1eb8 89c5 3db9
00000020: 95da d337 ebad be39 37d9 2eb8 5203 57b9
00000030: c782 8337 07b9 7937 6ea1 51b7 3c2d c5b8
00000040: e105 ecb7 6862 89b7 0f6d f737 c1a2 e0b6
00000050: 1577 a838 e605 5d38 20df 1d37 26cf c9b8
00000060: d2c4 4ab8 8b11 ccb7 3895 bcb6 5756 cbb7
00000070: a9df aab7 9143 de38 8151 3f37 70cb 3ab5
00000080: 7caa 9437 1ddd b2b6 24dd 48b8 db3d 0cb9
00000090: 523a a538 1829 2fb9 9d79 b136 8921 2bb8
000000a0: 039e 9538 ea8b 0bb8 9f73 b837 89e1 54b7
000000b0: dcce 5b37 f055 c837 adeb 0938 b331 a3b8
000000c0: f9d9 cab7 ab66 0f38 fa7b 5338 f90f eb37
000000d0: f209 2336 1882 3d38 6562 1d39 b594 31b9
000000e0: 646d ffb8 50ba 73b6 71c2 9138 1c73 0237
000000f0: ebcd f0b3 86d8 5538 312c cab8 1426 cfb7

conv1_4/b f4 [32]
0.000112456306 -6.504856e-05 -0.00028556708 0.00016020515 0.00024553778 -0.00016511802 3.7899794e-05 2.5262685e-05
-0.0001471348 -1.2407077e-05 -0.00026017055 3.0221852e-05 2.6226671e-05 8.860547e-05 0.00012202755 -0.00014080037
-0.00013737971 -6.679072e-07 0.000117694864 -0.00024828815 9.938537e-05 -8.424032e-05 -0.000106939166 0.00040704632
6.155634e-06 -9.902274e-06 -2.2286715e-05 -3.4008594e-05 -6.713077e-05 -0.00011181977 -7.372099e-05 -0.00012695526
00000000: 85d6 eb38 ae6a 88b8 2ab8 95b9 befc 2739
00000010: 86bb 8039 8823 2db9 98f6 1e38 34eb d337
00000020: 3248 1ab9 fd27 50b7 8067 88b9 ef84 fd37
00000030: 5901 dc37 b3d1 b938 0be9 ff38 d0a3 13b9
00000040: 960d 10b9 3c4a 33b5 f3d2 f638 ac2c 82b9
00000050: 1d6d d038 2daa b0b8 8744 e0b8 d568 d539
00000060: 7e8c ce36 f121 26b7 5bf4 bab7 73a4 0eb8
00000070: 8fc8 8cb8 c880 eab8 a89a 9ab8 4b1f 05b9

bn4/avg_mean f4 [32]
-0.7098647 -2.831749 1.4475014 -2.6866472 -0.0443311 -0.40610123 -1.6062592 0.17276064
-0.6908301 -0.3844788 -2.7027698 -1.5690523 -0.57057583 0.1533246 -1.5281099 -2.36907
-0.033821862 -0.15069655 -3.1556602 -2.255622 -0.51359296 0.09581074 -0.014272535 -1.5540725
0.8369558 -1.219378 -0.39966062 0.17504808 -2.1561673 1.1385632 -0.64008456 0.28738105
00000000: b1b9 35bf 603b 35c0 ba47 b93f 07f2 2bc0
00000010: 8794 35bd 80ec cfbe e799 cdbf 2ae8 303e
00000020: 3eda 30bf 68da c4be 2efa 2cc0 b5d6 c8bf
00000030: 4211 12bf 2001 1d3e 1b99 c3bf d89e 17c0
00000040: cb88 0abd 3250 1abe 56f6 49c0 1c5c 10c0
00000050: d47a 03bf 6c38 c43d 5ad7 69bc d9eb c6bf
00000060: bc42 563f 9414 9cbf 51a0 ccbe ce3f 333e
00000070: a5fe 09c0 70bc 913f 95dc 23bf 9c23 933e

conv1_5/b f4 [32]
-3.1247735e-05 -3.829642e-05 0.00010072195 -7.1312454e-05 0.00016853727 8.743606e-05 3.326973e-05 0.00013793979
7.979434e-05 2.8649047e-05 -0.00010706046 -4.3358792e-05 -2.8877896e-05 -0.0002642945 1.8927349e-05 3.8971746e-05
7.639259e-05 -5.4764118e-05 0.00014551691 -9.388492e-05 0.00014586937 1.3357501e-05 3.140918e-05 0.0003107161
6.204512e-05 0.00066227507 -0.0001367688 0.00022297484 -0.000100210265 6.884722e-05 -1.8034034e-05 -2.3517974e-05
00000000: 0010 03b8 78a0 20b8 af3a d338 958d 95b8
00000010: 61b9 3039 e15d b738 1a8b 0b38 eea3 1039
00000020: 4357 a738 5c53 f037 a685 e0b8 26dc 35b8
00000030: cf3e f2b7 0291 8ab9 2cc6 9e37 9875 2338
00000040: f634 a038 86b2 65b8 e695 1839 15e4 c4b8
00000050: 83f4 1839 081a 6037 5abd 0338 9ce7 a239
00000060: 381e 8238 879c 2d3a 9869 0fb9 5ace 6939
00000070: fa27 d2b8 1262 9038 cb47 97b7 7748 c5b7

bn5/avg_mean f4 [32]
-0.05223413 -0.046856645 0.0429876 -0.40511066 0.12516284 -0.6665308 -0.15750879 0.4794058
-0.14529179 0.25962833 -0.15426382 -0.15776275 -0.02974564 -0.38315472 -0.32973027 -0.23845424
0.4242186 0.055116754 -0.55919576 -0.042658653 -0.029720284 -0.34646693 -0.36041895 0.7429421
0.08823381 0.6995247 -0.2768229 -0.3764737 0.007892445 0.028472632 -0.36127278 -0.098647535
00000000: 75f3 55bd c1ec 3fbd c413 303d aa6a cfbe
00000010: b02a 003e c3a1 2abf fc49 21be ad74 f53e
00000020: 5fc7 14be 01ee 843e 56f7 1dbe 8f8c 21be
00000030: 21ad f3bc db2c c4be 68d2 a8be 592d 74be
00000040: 2e33 d93e 1bc2 613d 7427 0fbf d7ba 2ebd
00000050: f477 f3bc 1d64 b1be d588 b8be 7431 3e3f
00000060: eeb3 b43d 0d14 333f bbbb 8dbe 29c1 c0be
00000070: 504f 013c 703f e93c bff8 b8be b807 cabd

bn1/gamma f4 [64]
0.99122643 0.9853615 1.0117846 1.0009433 0.9752171 1.0132439 0.9941138 0.98736537
1.0050223 0.9980636 1.002105 1.0082531 0.9964479 1.0061811 0.9894703 1.0177152
0.9892494 0.98279464 0.991661 1.0188265 1.0356543 1.0085179 1.0074579 1.0032003
1.0102255 1.0129915 0.9875812 0.9944576 0.9832696 0.99094605 0.97827905 0.9943342
0.9958844 1.0068259 0.9811809 0.9922341 1.0018271 1.039721 1.0086887 1.0205989
0.9948531 0.99306226 1.0136732 0.9865386 1.0136843 0.98778564 1.0001978 1.0013111
0.9810056 0.99153244 0.99176884 1.0128412 0.9912726 0.9743899 0.99285555 1.0227525
0.9865922 0.9710045 0.9789161 0.99278224 0.98513496 1.0178473 0.97721606 0.9901437
00000000: 04c1 7d3f a740 7c3f 2882 813f e91e 803f
00000010: d4a7 793f fab1 813f 3e7e 7e3f fac3 7c3f
00000020: 92a4 803f 1981 7f3f fa44 803f 700e 813f
00000030: 3617 7f3f 8bca 803f ed4d 7d3f 7e44 823f
00000040: 733f 7d3f 6e98 7b3f 7fdd 7d3f e868 823f
00000050: 5290 843f 1d17 813f 61f4 803f de68 803f
00000060: 124f 813f b5a9 813f 1fd2 7c3f c694 7e3f
00000070: 8eb7 7b3f a4ae 7d3f 7f70 7a3f b08c 7e3f
00000080: 48f2 7e3f acdf 803f ac2e 7b3f 0e03 7e3f
00000090: df3b 803f 9415 853f b61c 813f fca2 823f
000000a0: b1ae 7e3f 5439 7e3f 0bc0 813f cb8d 7c3f
000000b0: 68c0 813f 85df 7c3f 7b06 803f f62a 803f
000000c0: 2f23 7b3f 12d5 7d3f 90e4 7d3f c8a4 813f
000000d0: 0bc4 7d3f 9e71 793f c82b 7e3f 8ee9 823f
000000e0: 4e91 7c3f c093 783f 3f9a 7a3f fa26 7e3f
000000f0: ce31 7c3f d248 823f d52a 7a3f 0f7a 7d3f

conv1_3/b f4 [64]
-1.8356144e-05 2.1407888e-05 -1.2830356e-05 -2.2255872e-05 4.2093136e-05 9.340679e-06 -0.000104739964 6.8255795e-06
4.256258e-05 2.469929e-05 1.4834905e-05 4.9599115e-05 2.5466681e-05 6.275159e-05 -7.5675365e-05 -0.00012398908
-7.6078813e-06 0.00013100455 1.3696047e-05 4.0797397e-05 2.8192764e-05 8.7913315e-05 -3.0404257e-05 4.348884e-06
2.0422516e-05 2.3731744e-05 3.6619836e-05 5.0071543e-05 -9.552756e-06 1.1240507e-05 -3.1003987e-05 0.00011104727
-6.335634e-06 -2.0131598e-05 -3.1708798e-05 -2.606317e-05 9.670376e-05 -8.147863e-06 -1.5748259e-06 -4.612217e-06
-2.0690097e-05 0.00011252702 4.866166e-05 -1.6218828e-05 -2.6365102e-05 -1.9795581e-05 -8.5693704e-05 -2.6546822e-05
-0.000102002225 -3.1097774e-05 -2.4988663e-05 -3.904105e-05 4.853217e-06 -4.0376017e-05 -3.4820547e-05 3.2587446e-05
7.130399e-05 -1.4062913e-05 -9.907379e-05 -1.3544497e-05 -2.613533e-05 2.0658877e-05 -2.3035696e-05 7.424366e-05
00000000: 85fb 99b7 1795 b337 f641 57b7 1fb2 bab7
00000010: 298d 3038 e9b5 1c37 d7a7 dbb8 4807 e536
00000020: 3985 3238 5231 cf37 6fe3 7837 a508 5038
00000030: 48a1 d537 8199 8338 e7b3 9eb8 1103 02b9
00000040: 3447 ffb6 445e 0939 13c8 6537 df1d 2b38
00000050: 807f ec37 1a5e b838 a50c ffb7 a1ec 9136
00000060: 0551 ab37 8813 c737 4098 1938 e903 5238
00000070: c644 20b7 9c95 3c37 470a 02b8 0de2 e838
00000080: af96 d4b6 47e0 a8b7 10ff 04b8 3ba2 dab7
00000090: 70cd ca38 ceb2 08b7 9b5e d3b5 a4c2 9ab6
000000a0: a58f adb7 7cfc eb38 0f1a 4c38 ab0d 88b7
000000b0: a02a ddb7 b00e a6b7 75b6 b3b8 deb0 deb7
000000c0: 07ea d5b8 fb6e 02b8 bf9e d1b7 02c0 23b8
000000d0: d1d8 a236 6b59 29b8 470c 12b8 81ae 0838
000000e0: 0a89 9538 c0ef 6bb7 d6c5 cfb8 2c3d 63b7
000000f0: 323d dbb7 9a4c ad37 c83c c1b7 43b3 9b38

bn2/avg_var f4 [64]
0.379329 0.6228668 0.34434447 0.51005936 0.6176601 0.3895102 0.37243095 0.37973848
0.34454578 0.41346854 0.39996862 0.4151834 0.40185043 0.37056935 0.26257506 0.61056006
0.5731185 0.36404246 0.3834258 0.9553888 0.3251787 0.33152664 0.3697892 0.4325527
0.40673548 0.33561987 0.5967539 0.68985116 0.53523386 0.56784445 0.47142017 0.34276778
0.77812135 0.7298643 0.51847696 0.5490133 0.36583477 0.2691312 0.5691934 0.25962245
0.3936104 0.268449 0.5835155 0.48789722 0.4971155 0.40481055 0.47833493 0.39286354
0.5043734 0.46670946 0.6984548 0.35285673 0.3696672 0.42181158 0.36649138 0.66888416
0.4478987 0.5744323 0.55045205 0.386831 0.28501874 0.43575203 0.46875975 0.4681329
00000000: 6937 c23e 3374 1f3f eb4d b03e 4093 023f
00000010: f91e 1e3f e26d c73e 45af be3e 156d c23e
00000020: 4e68 b03e 26b2 d33e b0c8 cc3e eb92 d43e
00000030: 57bf cd3e 44bb bd3e 3d70 863e aa4d 1c3f
00000040: e5b7 123f c663 ba3e 6350 c43e 5c94 743f
00000050: d37d a63e dcbd a93e 0355 bd3e 8c77 dd3e
00000060: a23f d03e 5ed6 ab3e ddc4 183f 169a 303f
00000070: 1605 093f 415e 113f fc5d f13e 427f af3e
00000080: f632 473f 63d8 3a3f e8ba 043f 238c 0c3f
00000090: b24e bb3e 91cb 893e a9b6 113f 3ced 843e
000000a0: 4d87 c93e 2672 893e 4661 153f aacd f93e
000000b0: ec85 fe3e 5443 cf3e 51e8 f43e 6925 c93e
000000c0: 9d1e 013f 8bf4 ee3e efcd 323f a3a9 b43e
000000d0: 0545 bd3e b0f7 d73e c2a4 bb3e fe3b 2b3f
000000e0: fa52 e53e ff0d 133f 6dea 0c3f b60e c63e
000000f0: faed 913e e41a df3e 4701 f03e 1eaf ef3e

bn2/gamma f4 [64]
1.0235971 0.9740965 0.97558343 0.98624164 0.9977772 1.0148116 1.0007155 0.9734611
0.9828362 0.99102074 0.98727137 1.00813 0.99233264 1.0082124 1.0035205 0.9935068
0.97818583 0.9918838 0.9840354 0.98693407 1.0293782 0.992827 0.99614 1.0050792
1.0164 1.0365647 0.9698315 1.0009215 1.0295645 0.9719935 0.9964926 1.0029193
0.9828154 0.99925065 0.9956202 1.0151389 0.9983141 1.0024071 0.9782872 0.9790134
1.0056792 0.99943274 0.9920878 0.99932116 1.0051986 1.0066241 1.0125504 1.012929
0.9986317 1.023214 0.99532306 1.019097 0.9789683 1.0286593 0.99353856 0.98395497
1.0008353 0.98790383 0.98296475 1.0654202 0.99386466 0.9977655 0.97945994 1.0169739
00000000: 3b05 833f 635e 793f d6bf 793f 557a 7c3f
00000010: 546e 7f3f 59e5 813f 7217 803f bf34 793f
00000020: 279b 7b3f 89b3 7d3f d1bd 7c3f 670a 813f
00000030: 8309 7e3f 1b0d 813f 5c73 803f 7656 7e3f
00000040: 636a 7a3f 19ec 7d3f bee9 7b3f b6a7 7c3f
00000050: aac2 833f e929 7e3f 0803 7f3f 6fa6 803f
00000060: 6519 823f 27ae 843f e146 783f 321e 803f
00000070: c5c8 833f 91d4 783f 241a 7f3f a95f 803f
00000080: ca99 7b3f e4ce 7f3f f7e0 7e3f 12f0 813f
00000090: 8391 7f3f e04e 803f 0871 7a3f 9fa0 7a3f
000000a0: 19ba 803f d3da 7f3f 77f9 7d3f 83d3 7f3f
000000b0: 59aa 803f 0fd9 803f 409b 813f a8a7 813f
000000c0: 54a6 7f3f adf8 823f 7ecd 7e3f c571 823f
000000d0: ab9d 7a3f 1cab 833f 8b58 7e3f 79e4 7b3f
000000e0: 5f1b 803f 44e7 7c3f 94a3 7b3f b05f 883f
000000f0: ea6d 7e3f 8f6d 7f3f e3bd 7a3f 332c 823f

conv1_1/b f4 [64]
4.1475414e-05 3.1806485e-05 9.419726e-05 1.1754587e-05 -8.3217165e-05 7.599933e-05 -9.732523e-05 5.4719535e-06
-0.0003316992 -6.318554e-05 2.6662176e-05 2.3798634e-06 3.9898583e-05 4.7506328e-05 -0.000102809645 -2.5448975e-05
7.664271e-05 0.000120600074 -7.2133844e-05 -8.41577e-05 4.6648114e-05 1.6277432e-05 -2.4797602e-05 0.00014013484
4.4486587e-05 3.527672e-05 1.8404331e-05 3.8581762e-05 7.977137e-05 2.6340573e-05 0.000110611305 -6.443466e-05
9.9972145e-05 4.0352086e-05 -0.00014392789 -8.951282e-05 -0.00017261712 -1.49099815e-05 -4.1005896e-05 7.608382e-05
1.7450091e-05 0.00016773159 -9.122777e-05 1.041476e-06 -8.6632775e-05 2.8835962e-05 4.0214924e-05 6.763288e-06
1.9821713e-05 -1.9982447e-06 9.517639e-05 3.0349256e-05 2.5394836e-05 -8.2931096e-05 -0.0003176247 2.0553725e-05
3.2450353e-05 4.1787378e-05 3.6008896e-05 4.710836e-05 4.34658e-05 -5.570911e-05 -0.0001759192 6.0548223e-06
00000000: e3f5 2d38 f467 0538 c58b c538 9135 4537
00000010: e084 aeb8 d461 9f38 161b ccb8 b99b b736
00000020: eae7 adb9 7a82 84b8 96a8 df37 beb5 1f36
00000030: c758 2738 8841 4738 829b d7b8 427b d5b7
00000040: 3ebb a038 acea fc38 9046 97b8 d27d b0b8
00000050: 08a8 4338 858b 8837 7204 d0b7 29f1 1239
00000060: 1c97 3a38 17f6 1338 0063 9a37 dad2 2138
00000070: ee4a a738 f3f5 dc37 fef7 e738 1821 87b8
00000080: 23a8 d138 b93f 2938 59eb 16b9 d4b8 bbb8
00000090: 8e00 35b9 e225 7ab7 bffd 2bb8 318f 9f38
000000a0: c961 9237 1be1 2f39 8951 bfb8 d8c8 8b35
000000b0: 9eae b5b8 c2e4 f137 72ac 2838 34f0 e236
000000c0: ce46 a637 9519 06b6 6f99 c738 8896 fe37
000000d0: ff06 d537 4beb adb8 de86 a6b9 ca6a ac37
000000e0: 4d1b 0838 db44 2f38 4208 1738 3796 4538
000000f0: 0c4f 3638 34a9 69b8 f376 38b9 872a cb36

bn1/avg_var f4 [64]
0.12402395 0.28173405 0.13707632 0.31138724 0.30028298 0.18332368 0.24206954 0.32596067
0.122961424 0.21244574 0.4050474 0.29228792 0.33115444 0.16225709 0.14406998 0.37907532
0.11055893 0.45859686 0.30953962 0.17143369 0.20583586 0.22080117 0.2540617 0.13676219
0.21516357 0.16840266 0.15942723 0.29409236 0.18637455 0.51602274 0.107723184 0.26701018
0.1138147 0.29121247 0.19386196 0.23337893 0.21717054 0.12820052 0.3514927 0.28466493
0.19247246 0.08888971 0.11908821 0.17502528 0.09987405 0.1499648 0.47608784 0.1537293
0.31386286 0.3990234 0.1477266 0.13538925 0.33290622 0.21199843 0.12773928 0.1169059
0.18053187 0.3292144 0.47978216 0.42604268 0.13431199 0.18606856 0.23543537 0.12530467
00000000: 4500 fe3d 723f 903e bc5d 0c3e 266e 9f3e
00000010: b1be 993e 34b9 3b3e 14e1 773e 51e4 a63e
00000020: 33d3 fb3d 608b 593e 5f62 cf3e c3a6 953e
00000030: 138d a93e b926 263e 1587 133e 2916 c23e
00000040: b86c e23d 35cd ea3e fa7b 9e3e 508c 2f3e
00000050: a3c6 523e b419 623e 6014 823e 630b 0c3e
00000060: d753 5c3e bf71 2c3e e440 233e 4693 963e
00000070: f8d8 3e3e 111a 043f f99d dc3d 8fb5 883e
00000080: ae17 e93d cd19 953e c083 463e e3fa 6e3e
00000090: f461 5e3e ff46 033e daf6 b33e 9abf 913e
000000a0: 8017 453e cf0b b63d 85e4 f33d d439 333e
000000b0: c48a cc3d 5f90 193e c9c1 f33e 376b 1d3e
000000c0: a2b2 a03e cc4c cc3e a445 173e 7ba3 0a3e
000000d0: af72 aa3e 1e16 593e 16ce 023e 5c6c ef3d
000000e0: 59dd 383e ca8e a83e 02a6 f53e 4422 da3e
000000f0: 1589 093e c288 3e3e f815 713e de4f 003e

bn2/beta f4 [64]
0.02710239 -0.015530604 -0.0139523195 -0.0018602198 0.0057631778 0.02026328 0.0139586385 -0.016380418
-0.0052450905 0.0004191704 0.015565823 0.018310022 -0.0089880945 0.039474625 0.012674777 0.00271365
-0.009298072 0.019590234 0.004493047 -0.00072206964 0.010396778 -0.003380906 -0.015555887 0.022586288
0.032205738 0.033064235 -0.015795311 0.005465414 0.0410005 -0.016729487 0.01799734 0.017463535
-0.00306228 0.0075345472 -0.001970924 0.00045287923 0.020518385 0.011095257 -0.023800822 0.006634045
0.018794201 0.0036130114 -0.0026108716 0.01207606 0.0051842434 0.008213971 0.02296446 0.017268464
0.009569554 0.035114553 -0.0055649905 0.02314675 -0.01827462 0.01759145 -0.0063640224 -0.005173631
0.018091872 -0.0044631734 -0.0019495036 0.0033318074 0.0066700894 -0.003606655 -0.01926864 0.021180894
00000000: d505 de3c 1374 7ebc 4598 64bc 9ed2 f3ba
00000010: 0ad9 bc3b 2eff a53c c6b2 643c 3a30 86bc
00000020: 02df abbb 19c4 db39 cb07 7f3c e6fe 953c
00000030: cd42 13bc 25b0 213d dea9 4f3c 7ed7 313b
00000040: f156 18bc b37b a03c 693a 933b 4649 3dba
00000050: 3f57 2a3c 3192 5dbb 1ede 7ebc e106 b93c
00000060: 2aea 033d 5d6e 073d 2b65 81bc 3717 b33b
00000070: 24f0 273d 470c 89bc 286f 933c b00f 8f3c
00000080: 88b0 48bb 5de4 f63b 9e2a 01bb 6c70 ed39
00000090: 2c16 a83c e1c8 353c f1f9 c2bc 6762 d93b
000000a0: 4cf6 993c 46c8 6c3b 281b 2bbb abda 453c
000000b0: 96e0 a93b e493 063c f71f bc3c 9876 8d3c
000000c0: 9ec9 1c3c 47d4 0f3d 865a b6bb 419e bd3c
000000d0: a8b4 95bc f21b 903c 4a89 d0bb 9087 a9bb
000000e0: 6835 943c d03f 92bb 7c86 ffba 745a 5a3b
000000f0: c490 da3b a15d 6cbb 44d9 9dbc 8e83 ad3c

bn4/gamma f4 [32]
0.99259865 1.0687139 1.0050306 1.0295075 1.0212955 1.0442657 1.0386574 1.0314658
1.0097737 1.0560364 1.0486094 1.0254265 1.0220267 1.004253 1.0374063 1.0013461
1.0610275 1.0114535 1.0622149 1.0561712 1.0356327 1.0550051 1.0180696 1.0190756
1.0270095 1.0173613 1.0408942 1.0343103 1.0496304 0.99763674 1.0618961 1.0137513
00000000: f21a 7e3f 9ecb 883f d8a4 803f e7c6 833f
00000010: d0b9 823f 80aa 853f baf2 843f 1207 843f
00000020: 4440 813f 332c 873f d538 863f 2d41 833f
00000030: c5d1 823f 5d8b 803f bbc9 843f 1c2c 803f
00000040: c0cf 873f 4f77 813f a8f6 873f 9e30 873f
00000050: 9d8f 843f 680a 873f 1b50 823f 1271 823f
00000060: 0c75 833f e538 823f 053c 853f 4864 843f
00000070: 4a5a 863f 1f65 7f3f 36ec 873f 9ac2 813f

conv1_7/b f4 [2]
0.028434532 0.004105931
00000000: 89ef e83c 0c8b 863b

conv1_6/W f4 [32, 32, 3, 3]
-0.02125546 -0.018173061 0.039386608 0.0013466653 -0.031079467 0.08968954 0.020188907 -0.0039476813
0.040562887 0.10228517 -0.09403021 0.06279361 0.013507034 -0.023701387 0.023591943 0.0020642749
0.0027243 -0.0053483536 0.07923746 -0.018511152 0.057208605 0.018219631 0.10948 0.016597563
-0.036037173 0.014286354 -0.041872934 -0.04269054 0.00955696 0.0034508265 -0.05414977 0.09199798
0.0771917 -0.0057546147 0.033673324 0.08639677 -0.025717627 -0.07126029 -0.084326714 -0.07584467
0.008850871 -0.087473325 -0.026762104 -0.013708849 -0.07167576 -0.106495686 -0.10053758 -0.013923327
0.014060565 -0.033217624 -0.07287326 -0.0053738435 -0.04893004 -0.06652126 0.076202884 -0.0202536
-0.065310895 -0.062219866 -0.045204293 -0.07791674 -0.01061181 -0.044923466 -0.013160234 -0.048350397
0.10176693 0.0106678745 -0.110373095 -0.015193886 -0.033365533 0.057616726 -0.10035062 0.037105124
-0.019042382 0.002753208 0.0849091 -0.0002916307 -0.077963226 -0.015285267 0.025746198 0.054658398
-0.07892154 0.059249163 -0.06349846 0.032226756 0.0025186902 0.05063187 0.023315918 0.04079663
-0.12927002 -0.07968728 0.006368415 0.011902962 -0.056369197 -0.0032922882 -0.010166641 -0.04367429
0.0015062595 0.057913106 -0.03645478 -0.007987315 -0.09956613 0.02884309 0.06414386 0.046742212
0.010635504 0.01743901 0.08331659 -0.018832376 -0.011604317 0.06932316 -0.03676587 0.12952971
0.003615937 0.053446494 0.059258237 -0.011260704 0.007098519 -0.12827884 0.054183517 0.026786024
-0.053853728 -0.0885848 -0.086398095 0.062324777 0.011719489 -0.09031521 -0.0044295746 -0.031352453
-0.064926706 -0.019156868 0.06848687 -0.025670953 -0.04147017 0.028531834 -0.030750124 -0.017539926
-0.036971148 -0.04259972 -0.09825432 -0.059437066 0.13767315 -0.03751794 -0.0010369527 -0.06667951
0.07960051 -0.026880132 -0.059431996 0.021567399 0.016873898 -0.088029034 -0.115967736 -0.10465358
0.04289908 0.039881617 -0.1020105 0.052911647 0.04117815 -0.13619107 0.079627246 0.03092755
0.0018911649 0.0542241 -0.059333477 -0.011604812 0.037360888 0.08639374 -0.059218694 0.030992905
-0.029399155 -0.051540475 0.027880028 0.02996487 0.09341952 0.0009655354 0.061406437 -0.034196157
-0.02298208 0.051536325 0.09695095 -0.026014408 -0.05332352 0.03269487 -0.056105528 0.06132227
-0.028711462 -0.020797903 0.05566806 -0.024234207 -0.032289587 -0.00843968 -0.038932376 -0.028633906
-0.011518672 -0.07892354 -0.06192637 -0.08286027 0.1158998 0.08046665 0.03841938 0.02109539
-0.024190431 0.02848254 0.023724603 -0.02782775 -0.041369706 0.0088503845 -0.029424446 0.053764395
-0.049682185 -0.15235595 0.039614506 -0.009442075 0.054065112 0.059505276 0.0029416215 -0.09832631
-0.08188983 -0.07222004 -0.097253986 0.038340528 0.03142718 0.045042455 -0.021869285 -0.09810316
0.09465743 -0.038578335 0.07363332 0.0012964103 0.013279111 0.017291633 -0.07695925 0.046055738
0.010258461 0.050308887 -0.021026177 0.019090975 0.1092096 0.033550683 -0.016324183 -0.05621131
0.05459009 0.020472365 0.038324866 0.035769876 -0.113946594 0.10122319 0.031887297 -0.076771304
-0.06401648 0.06332082 0.053412233 0.011873063 0.004462867 0.039831482 0.0048266384 -0.11449959
00000000: ee1f aebc acdf 94bc da53 213d 9782 b03a
00000010: 5e9a febc 26af b73d 3563 a53c 8d5b 81bb
00000020: 4525 263d e37a d13d e992 c0bd f099 803d
00000030: 9b4c 5d3c 6929 c2bc e443 c13c c948 073b
00000040: 2b8a 323b 3e41 afbb 4047 a23d b3a4 97bc
00000050: 9253 6a3d 5641 953c 0d37 e03d 9df7 873c
00000060: b79b 13bd 5011 6a3c f482 2bbd 47dc 2ebd
00000070: cc94 1c3c 4327 623b 26cc 5dbd 7069 bc3d
00000080: af16 9e3d 3591 bcbb 0aed 093d caf0 b03d
00000090: c6ad d2bc eaf0 91bd 7cb3 acbd 7354 9bbd
000000a0: 3e03 113c 3725 b3bd 333c dbbc 159b 60bc
000000b0: beca 92bd 691a dabd a6e6 cdbd ab1e 64bc
000000c0: 495e 663c 340f 08bd 933e 95bd 1117 b0bb
000000d0: de6a 48bd 4c3c 88bd 4210 9c3d e1ea a5bc
000000e0: b8c1 85bd 42da 7ebd 2328 39bd d092 9fbd
000000f0: 28dd 2dbc ab01 38bd 069e 57bc 110b 46bd
00000100: 2e6b d03d 4fc8 2e3c 4a0b e2bd c7ef 78bc
00000110: 4caa 08bd 84ff 6b3d a084 cdbd 8bfb 173d
00000120: c5fe 9bbc 2a6f 343b d2e4 ad3d 03e6 98b9
00000130: 2fab 9fbd 0e6f 7abc b1e9 d23c 7ce1 5f3d
00000140: 9ea1 a1bd 40af 723d 7b0b 82bd 3400 043d
00000150: 9c10 253b 5d63 4f3d 0601 bf3c 5e1a 273d
00000160: 5c5f 04be 1633 a3bd 23ae d03b a404 433c
00000170: 63e3 66bd 6ec3 57bb fc91 26bc d0e3 32bd
00000180: af6d c53a 4b36 6d3d 9b51 15bd 3add 02bc
00000190: 54e9 cbbd 5848 ec3c db5d 833d c374 3f3d
000001a0: 8940 2e3c 41dc 8e3c e3a1 aa3d 5b46 9abc
000001b0: 0920 3ebc 4df9 8d3d cf97 16bd 70a3 043e
000001c0: 5bf9 6c3b b6ea 5a3d c4b8 723d d17e 38bc
000001d0: b19a e83b 875b 03be 89ef 5d3d 5d6e db3c
000001e0: ba95 5cbd f36b b5bd 7cf1 b0bd 4448 7f3d
000001f0: 1903 403c 2ef7 b8bd f725 91bb 6e6b 00bd
00000200: 4bf8 84bd ddee 9cbc d842 8c3d e44b d2bc
00000210: a0dc 29bd 98bb e93c afe7 fbbc e4af 8fbc
00000220: 0f6f 17bd 0b7d 2ebd 9039 c9bd 4874 73bd
00000230: 31fa 0c3e 69ac 19bd 5cea 87ba 448f 88bd
00000240: 9805 a33d b933 dcbc f76e 73bd 1dae b03c
00000250: 213b 8a3c 9148 b4bd 7e80 edbd 9e54 d6bd
00000260: f2b6 2f3d e85a 233d e2ea d0bd e2b9 583d
00000270: 6baa 283d ac75 0bbe 9c13 a33d c65b fd3c
00000280: f7e0 f73a 171a 5e3d a907 73bd 1c22 3ebc
00000290: bb07 193d 33ef b03d 4d8f 72bd d5e4 fd3c
000002a0: 7fd6 f0bc 1b1c 53bd a864 e43c e378 f53c
000002b0: bc52 bf3d fc1b 7d3a 5185 7b3d 4511 0cbd
000002c0: ea44 bcbc c117 533d 388e c63d 2b1c d5bc
000002d0: c369 5abd 0eeb 053d e9ce 65bd 102d 7b3d
000002e0: 4d34 ebbc 5d60 aabc 3104 643d d186 c6bc
000002f0: 1642 04bd 9546 0abc 8e77 1fbd a791 eabc
00000300: d0b8 3cbc aaa2 a1bd 81a6 7dbd a5b2 a9bd
00000310: e05c ed3d b3cb a43d a45d 1d3d 3dd0 ac3c
00000320: 032b c6bc 3754 e93c 195a c23c 06f7 e3bc
00000330: 4873 29bd 3401 113c 890b f1bc 0e38 5c3d
00000340: 8c7f 4bbd 3303 1cbe d242 223d efb2 1abc
00000350: 6173 5d3d cebb 733d 38c8 403b 4e5f c9bd
00000360: dbb5 a7bd 1ae8 93bd 192d c7bd f50a 1d3d
00000370: c9b9 003d 707e 383d 3727 b3bc 4fea c8bd
00000380: c1db c13d 5104 1ebd 11cd 963d 50ec a93a
00000390: a190 593c 2fa7 8d3c d09c 9dbd f1a4 3c3d
000003a0: 1b13 283c b110 4e3d 173f acbc ad64 9c3c
000003b0: 48a9 df3d 716c 093d 4bba 85bc d53d 66bd
000003c0: dc99 5f3d a9b5 a73c 89fa 1c3d 6f83 123d
000003d0: d55c e9bd 1b4e cf3d 419c 023d 463a 9dbd
000003e0: 131b 83bd 59ae 813d c9c6 5a3d 3c87 423c
000003f0: 3e3d 923b 5626 233d c728 9e3b c37e eabd

conv1_4/W f4 [32, 64, 3, 3]
0.004607932 -0.065271735 -0.067735046 0.037754536 0.06344837 -0.0063268845 0.0065769437 -0.018795107
0.0015132314 -0.038641423 -0.092101984 -0.073682085 0.0025369052 0.07889519 0.008115006 -0.01015592
0.07639492 0.0872012 0.07732917 -0.024501732 -0.010229769 0.074180625 0.004930501 0.06043707
-0.023088815 -0.02653188 0.08773062 0.013862881 -0.098594084 -0.05069342 0.0175065 -0.054513328
-0.04015704 -0.006915456 -0.012585229 -0.036512483 -0.017995737 0.032992154 -0.00014754744 -0.013564115
-0.011350436 -0.009951957 0.023822822 -0.010180457 0.06381076 -0.05306908 -0.06709845 -0.0014465883
0.012674085 -0.058406066 0.046500918 0.013694572 0.008524256 -0.033247028 0.017022327 0.04595181
0.045041617 -0.09265393 -0.0049713347 0.048714526 -0.024330718 0.007197782 -0.022423068 0.046960514
-0.004500124 0.00090832106 0.07814639 0.025677778 -0.012509173 0.0748782 -0.042762414 -0.035729986
0.010891852 -0.050879426 -0.012520574 0.015108693 -0.02975276 -0.09089386 -0.03900835 0.009715912
0.05242072 0.051109847 0.020406047 0.029087946 -0.0036650319 0.029589243 -0.10654066 0.015128884
-0.09840664 -0.05637434 -0.044558074 -0.052701846 0.016867504 0.0410026 -0.068084285 -0.043544933
-0.027594864 -0.00023144411 -0.003919372 0.087292545 0.004800665 -0.05155983 0.01414332 -0.06772698
0.012991759 -0.019828817 0.015366411 0.004335338 0.04340174 0.061418135 0.038541324 -0.030143937
-0.016837727 0.00248249 0.08303135 0.059453968 -0.021933807 0.035602015 0.061913967 -0.007527154
0.059412587 -0.07034944 -0.005406317 0.07062659 0.0003315059 -0.034519695 0.004409598 -0.062586576
0.03471663 0.1099208 0.015259266 -0.0032583 -0.06291676 -0.070099644 0.068021834 -0.08870171
0.049815122 -0.017651338 -0.0018655122 0.004335557 -0.004923889 -0.071186565 -0.0034680949 -0.027270522
0.0025478126 -0.0020101785 -0.048984196 0.027788512 0.01218695 0.038326465 -0.048096646 -0.050910242
-0.05387448 -0.07264153 -0.059595294 0.017741475 0.0115931565 -0.018230097 -0.15802073 0.0021601615
0.0731495 0.0010136642 0.0022128923 0.03194862 -0.012046576 0.056272604 -0.0097453315 -0.001515285
-0.02068357 0.03651721 0.049134254 -0.03174358 0.06946063 0.0057991995 0.053341012 0.057579756
0.025406878 -0.026704349 -0.07111116 0.019864846 -0.056714818 -0.0041744537 -0.019005137 -0.029102255
0.017469825 -0.064360544 0.0053403815 -0.009933742 0.0017696457 0.06707664 0.0003854696 0.004481838
-0.011882013 -0.018115064 0.019072356 -0.011787374 -0.028520359 -0.008937186 0.022741925 0.016888415
-0.022741182 0.018391285 0.03219526 0.021671817 -0.06993367 0.040745348 0.12173961 0.0427736
-0.017618751 -0.022070501 -0.03306629 -0.030921495 -0.015248292 -0.04087499 -0.010750283 -0.05971857
-0.033434585 0.023073554 -0.022420492 -0.04533315 0.044594012 0.048878558 0.009820744 0.042897355
0.009081836 0.0061986307 -0.036376696 -0.018528454 -0.043066245 -0.03205517 -0.058116093 0.026129326
-0.018231042 0.0024856455 -0.08542259 -0.051283073 -0.03966881 -0.0040057674 0.027825555 -0.0039186277
-0.014106769 0.012824849 -0.010052316 0.017105885 0.042267527 0.050543662 0.09573484 0.007528275
-0.0044721006 0.0010906064 0.08439333 0.03504455 -0.028963765 0.021435505 0.0023434854 0.009542966
00000000: 23fe 963b 30ad 85bd acb8 8abd 80a4 1a3d
00000010: 38f1 813d c151 cfbb 6783 d73b 32f8 99bc
00000020: 9f57 c63a 7846 1ebd f79f bcbd a2e6 96bd
00000030: 3542 263b cd93 a13d cdf4 043c 0465 26bc
00000040: f174 9c3d 8b96 b23d c25e 9e3d dbb7 c8bc
00000050: c39a 27bc 03ec 973d 0a90 a13b dc8c 773d
00000060: c124 bdbc 6359 d9bc 1cac b33d 2321 633c
00000070: b2eb c9bd e7a3 4fbd cb69 8f3c 5e49 5fbd
00000080: b57b 24bd 0d9b e2bb 4732 4ebc 1d8e 15bd
00000090: cc6b 93bc c822 073d f7b6 1ab9 063c 5ebc
000000a0: 2ef7 39bc 880d 23bc 1428 c33c eecb 26bc
000000b0: 37af 823d f75e 59bd ea6a 89bd 739b bdba
000000c0: f7a6 4f3c 333b 6fbd bf77 3e3d 335f 603c
000000d0: 52a9 0b3c 092e 08bd 6872 8b3c f737 3c3d
000000e0: 8f7d 383d 58c1 bdbd 94e6 a2bb e288 473d
000000f0: 3751 c7bc 5fdb eb3b 95b0 b7bc ab59 403d
00000100: c775 93bb 651c 6e3a 370b a03d 345a d23c
00000110: 46f3 4cbc be59 993d a427 2fbd 9b59 12bd
00000120: bd73 323c f266 50bd 1823 4dbc 748a 773c
00000130: 0fbc f3bc 8f26 babd 38c7 1fbd 7d2f 1f3c
00000140: 1cb7 563d 8f58 513d 952a a73c d849 ee3c
00000150: 0831 70bb 2465 f23c fd31 dabd 24df 773c
00000160: 6c89 c9bd c8e8 66bd 8782 36bd e4dd 57bd
00000170: b82d 8a3c 58f2 273d c66f 8bbd 2c5c 32bd
00000180: a00e e2bc ceaf 72b9 136e 80bb 6fc6 b23d
00000190: e64e 9d3b 6630 53bd 62b9 673c 71b4 8abd
000001a0: 63db 543c 0b70 a2bc 66c3 7b3c 730f 8e3b
000001b0: 06c6 313d 9591 7b3d 82dd 1d3d 6bf0 f6bc
000001c0: 46ef 89bc 45b1 223b 570c aa3d 0186 733d
000001d0: 87ae b3bc 6bd3 113d 8099 7d3d 58a6 f6bb
000001e0: 9d5a 733d 5e13 90bd 7927 b1bb aca4 903d
000001f0: f8cd ad39 8664 0dbd 647e 903b 642d 80bd
00000200: 0633 0e3d 281e e13d 0002 7a3c 3489 55bb
00000210: 81da 80bd 6790 8fbd 084f 8b3d 3ea9 b5bd
00000220: f10a 4c3d 8a99 90bc 3484 f4ba 4a11 8e3b
00000230: 9358 a1bb 43ca 91bd fa48 63bb 6e66 dfbc
00000240: 34f9 263b 33bd 03bb a7a3 48bd bca4 e33c
00000250: c6ab 473c 36fc 1c3d fd00 45bd 4287 50bd
00000260: 7dab 5cbd 15c5 94bd 321a 74bd 9256 913c
00000270: 39f1 3d3c 4957 95bc 30d0 21be 7f91 0d3b
00000280: 68cf 953d eddc 843a 2c06 113b 8edc 023d
00000290: 005f 45bc 1a7e 663d e2aa 1fbc 879c c6ba
000002a0: 9770 a9bc 1293 153d 0041 493d 8e05 02bd
000002b0: 6041 8e3d 3607 be3b 1b7c 5a3d c0d8 6b3d
000002c0: 1622 d03c 14c3 dabc baa2 91bd 9abb a23c
000002d0: cc4d 68bd dbc9 88bb a9b0 9bbc da67 eebc
000002e0: e11c 8f3c 76cf 83bd 5efe ae3b 22c1 22bc
000002f0: 75f3 e73a 7a5f 893d db18 ca39 62dc 923b
00000300: c6ac 42bc 0b66 94bc a13d 9c3c d41f 41bc
00000310: 87a3 e9bc 466d 12bc 464d ba3c 9359 8a3c
00000320: b74b babc 52a9 963c 2ddf 033d 1889 b13c
00000330: 6239 8fbd 98e4 263d 9e52 f93d 5f33 2f3d
00000340: 3355 90bc 32cd b4bc 8570 07bd 134f fdbc
00000350: f9d3 79bc 896c 27bd f421 30bc 769b 74bd
00000360: b4f2 08bd c004 bd3c 2eab b7bc 41af 39bd
00000370: 36a8 363d e234 483d 30e7 203c 23b5 2f3d
00000380: fbcb 143c e21d cb3b bbff 14bd fcc8 97bc
00000390: 3b66 30bd 484c 03bd 240b 6ebd 2b0d d63c
000003a0: 4459 95bc 36e6 223b 0af2 aebd 330e 52bd
000003b0: c37b 22bd d042 83bb 6bf2 e33c d567 80bb
000003c0: 1420 67bc 511f 523c 78b2 24bc a421 8c3c
000003d0: b720 2d3d df06 4f3d a110 c43d bfaf f63b
000003e0: b38a 92bb aef2 8e3a 69d6 ac3d e08a 0f3d
000003f0: 6b45 edbc 8399 af3c 2995 193b 1a5a 1c3c

bn1/avg_mean f4 [64]
0.0077461414 -0.030572508 0.071182534 -0.07496924 0.047104828 0.07118845 0.008638487 -0.027633471
0.107751064 0.060149238 -0.08265253 -0.02688654 -0.08339155 -0.040872194 -0.10176019 -0.02433762
-0.034812868 0.09217946 0.025859402 -0.15141955 -0.030900478 -0.0844961 0.07308234 -0.09881115
0.02155559 -0.10536717 -0.06932257 0.025710631 -0.054951802 -0.017188976 -0.060332306 -0.054300144
0.07238728 0.061358366 -0.07732071 -0.09250549 0.044450987 -0.04192177 0.02839959 0.035153635
0.06499939 -0.07079519 -0.100270964 -0.060239192 0.055949032 -0.06181771 -0.043897487 -0.08503799
0.05442615 0.020800287 0.06553299 -0.09633827 -0.019732697 0.09388697 -0.12538745 -0.044360176
0.048393227 -0.05366757 -0.029829739 0.03625962 -0.050918106 -0.11663182 0.077185184 -0.030601054
00000000: 58d3 fd3b 3273 fabc 26c8 913d 7989 99bd
00000010: fef0 403d 40cb 913d 7188 0d3c 975f e2bc
00000020: 97ac dc3d 0c5f 763d bb45 a9bd 2941 dcbc
00000030: 30c9 aabd 9a69 27bd a667 d0bd b05f c7bc
00000040: f097 0ebd 96c8 bc3d 19d7 d33c ba0d 1bbe
00000050: 0023 fdbc 4b0c adbd 32ac 953d 805d cabd
00000060: 5995 b03c beca d7bd fef8 8dbd 1a9f d23c
00000070: 2415 61bd e5cf 8cbc 021f 77bd d469 5ebd
00000080: c83f 943d e952 7b3d 525a 9ebd 8573 bdbd
00000090: 3d12 363d 29b6 2bbd 42a6 e83c 42fd 0f3d
000000a0: 661e 853d 12fd 90bd dd5a cdbd 5fbd 76bd
000000b0: d02a 653d 9134 7dbd dacd 33bd 6628 aebd
000000c0: f4ed 5e3d 5d65 aa3c 2936 863d 004d c5bd
000000d0: 77a6 a1bc d047 c03d 9165 00be 04b3 35bd
000000e0: fa37 463d 87d2 5bbd 7f5d f4bc f884 143d
000000f0: 818f 50bd aadc eebd 4413 9e3d 10af fabc

bn4/beta f4 [32]
-0.015610886 0.07076131 0.007331351 0.02706363 0.010243405 0.050857123 0.048624348 0.03545646
-0.0011086894 0.07315398 0.06406342 0.04007174 0.014636362 0.010973666 0.043728106 0.008450362
0.068890154 -0.004955874 0.059912596 0.05405041 0.04473518 0.064722426 0.0019804821 0.014811258
0.034975488 0.02444202 0.0036629615 0.050201703 0.06995102 -0.009231596 0.053195827 0.048909098
00000000: cdc4 7fbc 4eeb 903d d43b f03b 8cb4 dd3c
00000010: f4d3 273c 8f4f 503d 532a 473d cb3a 113d
00000020: 7151 91ba c1d1 953d af33 833d 4422 243d
00000030: 5acd 6f3c e4ca 333c 3e1c 333d 6373 0a3c
00000040: 4816 8d3d e264 a2bb e966 753d f663 5d3d
00000050: 3c3c 373d 318d 843d faca 013b ebaa 723c
00000060: 7542 0f3d a23a c83c 4c0e 703b 4da0 4d3d
00000070: 7b42 8f3d 1f40 17bc dee3 593d e854 483d

conv1_2/W f4 [64, 64, 3, 3]
-0.04051353 0.06897095 0.025517581 0.047614004 -0.023247022 -0.062214576 0.020933885 -0.0075472216
-0.09477632 0.065161094 -0.0031620217 0.07503775 -0.018833008 0.027676208 0.048849437 -0.049497228
-0.049534757 -0.036342133 -0.00051878474 -0.046827506 0.075328134 -0.012370562 0.04214145 0.029026685
-0.055345323 0.03738841 -0.08682288 -0.035451222 0.0767807 -0.027753063 -0.021329908 -0.07464689
-0.048893478 0.032721877 0.007641066 -0.0061302013 -0.029575154 0.010215153 -0.03597461 -0.011015912
-0.04707009 -0.0076920222 0.035534427 0.00050862104 0.045281887 -0.027626647 -0.037636958 -0.052704148
-0.010058917 0.0010260899 0.02286623 0.09887927 -0.020984981 0.05351418 0.0093564475 0.06980997
0.008291904 -0.023913614 -0.0030823818 -0.09879497 0.07043799 0.053272985 0.00513348 -0.04771429
-0.03333627 0.017851206 -0.034823727 -0.01802676 0.049204383 -0.0821259 -0.0037813995 -0.050883364
-0.026342371 0.034981776 0.06202309 0.0069527645 -0.058793522 -0.037725355 0.013131766 -0.014574904
-0.059299417 -0.054077372 -0.0037842875 0.012546192 0.05924477 -0.09666676 0.014654403 0.008628123
-0.06223013 0.091258354 -0.01496589 -0.015010149 -0.032730754 -0.04087462 0.028376723 0.068493925
-0.024126897 0.020407246 -0.014429934 0.032349814 0.03298447 -0.028214559 0.008865162 -0.073023275
0.03589279 0.046718378 0.0038028618 -0.04445573 -0.06253118 -0.06453826 -0.03572696 0.0054253275
0.008383553 -0.07224391 0.08382869 -0.014598934 0.038660046 -0.06473878 -0.010246838 -0.0075811
-0.05639932 -0.025928756 -0.012165505 -0.07679693 -0.03720551 -0.040571466 -0.014926507 0.010416896
-0.074526705 0.021096256 -0.025369577 0.07816493 -0.0072040656 -0.05187472 0.1141716 -0.030273484
-0.058761388 -0.045579206 -0.017451014 -0.044868074 -0.00977195 -0.062333986 -0.028786844 -0.10765921
-0.00848181 -0.030693864 -0.011450775 -0.041285 -0.03184825 -0.11741 0.007021019 0.01675422
-0.086441614 -0.065601364 0.00742293 -0.035219193 0.04806307 -0.042266127 0.10877982 -0.038607072
-0.07277944 -0.027896766 -0.015873572 -0.06330773 -0.0067309 -0.008938749 -0.031144075 -0.063451424
0.02223725 -0.018866474 -0.08597835 -0.094834685 -0.0837102 -0.054350648 -0.022306334 0.015331044
-0.020669848 -0.07108642 -0.016214747 -0.034250006 -0.024018131 -0.054612786 -0.01203212 0.018275933
-0.12116919 -0.037363585 0.022344535 -0.016812291 0.00562922 0.061475612 -0.033194054 -0.015953498
0.06306825 -0.046997126 0.036310997 0.004216609 0.0005328632 0.056310616 -0.07116664 0.034342553
0.042300675 -0.0846041 -0.025560519 -0.024154661 0.07033995 0.04127812 -0.05484349 0.049210373
-0.014507493 0.05189853 0.0077671227 -0.008199748 -0.10014588 -0.017495172 0.006710865 0.046152305
0.0020037768 -0.026763432 0.024850747 0.015009046 0.01960645 0.03469467 -0.06970247 -0.0681961
0.026050542 -0.021667644 0.035489496 0.08231629 -0.024695309 0.051573645 -0.015854228 -0.08325804
0.008956124 0.03830001 -0.010194248 0.045341205 0.0031022516 -0.0239233 0.030278545 -0.09832059
-0.027869586 0.02017854 0.006049526 -0.010163868 0.046749048 -0.014028945 0.03523949 -0.037623607
0.03179812 0.016240148 0.025140746 0.023060624 -0.029973838 0.03556522 -0.06003578 -0.010637447
00000000: 84f1 25bd a440 8d3d 3f0a d13c e706 433d
00000010: 8a70 bebc b6d4 7ebd 8a7d ab3c af4e f7bb
00000020: 161a c2bd 2e73 853d ec39 4fbb 64ad 993d
00000030: ae47 9abc 37b9 e23c 5916 483d 9bbd 4abd
00000040: f5e4 4abd 7ddb 14bd 0eff 07ba 33ce 3fbd
00000050: a345 9a3d e6ad 4abc 839c 2c3d 5fc9 ed3c
00000060: c7b1 62bd 9724 193d 32d0 b1bd 4d35 11bd
00000070: 333f 9d3d 645a e3bc 0fbc aebc 78e0 98bd
00000080: 8744 48bd 6007 063d e861 fa3b dbdf c8bb
00000090: 9847 f2bc 755d 273c 1d5a 13bd 157c 34bc
000000a0: 91cc 40bd 5c0d fcbb 8c8c 113d fb54 053a
000000b0: 8079 393d 4751 e2bc 3629 1abd 4ee0 57bd
000000c0: 28ce 24bc dd7d 863a f651 bb3c 3781 ca3d
000000d0: b2e8 abbc af31 5b3d c94b 193c 88f8 8e3d
000000e0: c4da 073c 7ce6 c3bc c901 4abb 0455 cabd
000000f0: cb41 903d c634 5a3d c036 a83b 0f70 43bd
00000100: 9d8b 08bd b13c 923c 53a3 0ebd dbac 93bc
00000110: 898a 493d a031 a8bd 5bd1 77bb 136b 50bd
00000120: f5cb d7bc 0d49 0f3d ec0b 7e3d 04d4 e33b
00000130: 7ad1 70bd e785 1abd 9e26 573c 94cb 6ebc
00000140: f2e3 72bd 3c80 5dbd cf01 78bb 8b8e 4d3c
00000150: a5aa 723d 39f9 c5bd 0519 703c f95c 0d3c
00000160: 05e5 7ebd a9e5 ba3d 7e33 75bc 21ed 75bc
00000170: af10 06bd 256c 27bd 4d76 e83c 8b46 8c3d
00000180: c5a5 c5bc 192d a73c 886b 6cbc 3d81 043d
00000190: b91a 073d 3822 e7bc 2f3f 113c 3a8d 95bd
000001a0: 5104 133d c55b 3f3d 6f39 793b 3617 36bd
000001b0: 5910 80bd a32c 84bd 6f56 12bd f2c6 b13b
000001c0: 2b5b 093c 9df4 93bd 60ae ab3d 5e30 6fbc
000001d0: ff59 1e3d c495 84bd 5be2 27bc e06a f8bb
000001e0: f902 67bd 8b68 d4bc d451 47bc b547 9dbd
000001f0: ce64 18bd 442e 26bd 4f8e 74bc a1ab 2a3c
00000200: 75a1 98bd 0ed2 ac3c dcd3 cfbc ef14 a03d
00000210: 1510 ecbb 967a 54bd cdd2 e93d 1900 f8bc
00000220: c8af 70bd 43b1 3abd 6ef5 8ebc 96c7 37bd
00000230: 871a 20bc ec51 7fbd 63d2 ebbc 6f7c dcbd
00000240: 4af7 0abc b371 fbbc 089c 3bbc 761a 29bd
00000250: 5073 02bd a774 f0bd 9310 e63b 2540 893c
00000260: 4d08 b1bd 025a 86bd 0d3c f33b 0042 10bd
00000270: c8dd 443d 3f1f 2dbd f4c7 de3d 7322 1ebd
00000280: 630d 95bd c287 e4bc 4b09 82bc 7ca7 81bd
00000290: e28e dcbb d573 12bc dc21 ffbc d2f2 81bd
000002a0: e52a b63c dd8d 9abc 6b15 b0bd b038 c2bd
000002b0: 4170 abbd c99e 5ebd c6bb b6bc 0f2f 7b3c
000002c0: d053 a9bc c295 91bd cad4 84bc bc49 0cbd
000002d0: acc1 c4bc a8b1 5fbd 5e22 45bc 69b7 953c
000002e0: 8d27 f8bd 8f0a 19bd e30b b73c eeb9 89bc
000002f0: 5275 b83b dacd 7b3d 7df6 07bd e9b0 82bc
00000300: ed29 813d 0f80 40bd d7ba 143d 7b2b 8a3b
00000310: d8af 0b3a f6a5 663d d1bf 91bd c7aa 0c3d
00000320: 7943 2d3d ea44 adbd 4b64 d1bc ffdf c5bc
00000330: 640e 903d 3f13 293d 91a3 60bd d190 493d
00000340: d6b0 6dbc 8e93 543d 5983 fe3b 3c58 06bc
00000350: 4819 cdbd 0952 8fbc d1e6 db3b 330a 3d3d
00000360: cc51 033b fc3e dbbc cb93 cb3c 80e8 753c
00000370: b59d a03c 001c 0e3d 2bc0 8ebd 66aa 8bbd
00000380: f267 d53c 5880 b1bc 6f5d 113d 7195 a83d
00000390: d14d cabc e33e 533d bae0 81bc 3183 aabd
000003a0: b5bc 123c 79e0 1c3d c605 27bc b3b7 393d
000003b0: 254f 4b3b ccfa c3bc b60a f83c 4e5c c9bd
000003c0: c24e e4bc 774d a53c 1a3b c63b 5a86 26bc
000003d0: ee7b 3f3d a9d9 65bc 4957 103d 361b 1abd
000003e0: bf3e 023d 0f0a 853c f7f3 cd3c a2e9 bc3c
000003f0: b28b f5bc d6ac 113d 14e8 75bd b048 2ebc

bn3/gamma f4 [64]
1.0250876 1.0110927 0.99907815 0.9934635 1.0026819 1.0151209 1.0186577 1.0076869
0.98731613 0.99190676 1.02677 1.0257065 0.9739876 1.0254446 0.99612284 1.0046116
1.016025 1.0000066 0.99878865 0.99029297 0.9852668 1.0467131 1.014366 0.98090714
1.0060779 1.0101879 0.9863815 0.9923101 1.0038685 1.013197 1.0052141 1.0417452
0.99356025 0.9932951 0.9947286 0.98823524 0.98019326 0.99277765 0.97498447 1.0383081
0.9768316 0.97892755 0.99354607 1.0183525 0.9937983 1.0109127 0.99713516 0.9869705
0.9937779 1.0137644 1.0058186 1.0090523 1.0254738 1.0416657 1.0167452 0.9921446
1.0043128 1.0001088 0.97975963 1.0205188 1.0148431 0.9987131 0.9967845 1.0042913
00000000: 1236 833f 7c6b 813f 96c3 7f3f a053 7e3f
00000010: e157 803f 7bef 813f 6063 823f e2fb 803f
00000020: c0c0 7c3f 9aed 7d3f 336d 833f 5a4a 833f
00000030: 4057 793f c541 833f e801 7f3f 1d97 803f
00000040: 1b0d 823f 3700 803f 9db0 7f3f d783 7d3f
00000050: 723a 7c3f b2fa 853f bfd6 813f bb1c 7b3f
00000060: 29c7 803f d64d 813f 7f83 7c3f 0908 7e3f
00000070: c37e 803f 70b0 813f dbaa 803f e857 853f
00000080: f759 7e3f 9648 7e3f 89a6 7e3f fcfc 7c3f
00000090: f2ed 7a3f ad26 7e3f 9598 793f 48e7 843f
000000a0: a311 7a3f ff9a 7a3f 0959 7e3f 6059 823f
000000b0: 9169 7e3f 9665 813f 4044 7f3f 19aa 7c3f
000000c0: 3a68 7e3f 08c3 813f aabe 803f a028 813f
000000d0: ba42 833f 4d55 853f b524 823f 30fd 7d3f
000000e0: 528d 803f 9103 803f 87d1 7a3f 5ca0 823f
000000f0: 61e6 813f a9ab 7f3f 452d 7f3f 9e8c 803f

conv1_7/W f4 [2, 32, 3, 3]
0.08065524 0.022058 0.04855413 -0.18058641 -0.0513142 -0.022752114 0.04097025 -0.025698463
-0.041442726 -0.046736754 -0.04755631 -0.07090375 0.13055563 0.08907178 -0.019857062 0.019397032
-0.026555922 0.13210517 -0.02258448 0.025203485 -0.052523132 0.011089235 0.06238426 -0.040862586
-0.002352211 0.08731781 0.16979508 0.028155647 0.07592398 -0.028742064 0.046907008 0.0038267167
0.07153584 0.15741555 0.12539649 0.08207683 -0.0904651 -0.025820853 -0.052920155 0.047754023
0.03130635 -0.045372814 0.043523364 0.044144478 0.11109352 0.13168095 -0.056679465 -0.047637504
0.028951919 0.23388019 0.0763044 0.06707497 0.09183212 -0.035817724 0.0123584885 0.060901802
-0.07240937 -0.012230925 0.037239578 0.06415884 0.101429075 0.061196487 0.02663779 0.035136137
-0.041514337 0.08168388 -0.016155249 0.051237617 0.040735587 -0.04426923 0.032164805 -0.019194545
0.031850778 0.011643734 -0.050238315 0.028354598 -0.043441553 -0.056578062 0.021255711 -0.1261581
0.11773306 -0.11904688 0.06940294 0.1602232 0.1267086 0.060473505 -0.046141885 0.1662997
-0.1147317 0.15396422 0.06292133 0.0765751 0.013168321 0.16166012 0.063883975 0.045165792
-0.066619426 0.0040619927 0.051572036 0.019465046 0.07629421 0.0030253353 0.061586272 -0.059661455
0.023625541 -0.03305966 0.015117725 0.102312155 0.02143011 -0.0030425596 0.035256963 0.05076979
0.034349836 0.09747262 -0.04894406 -0.106038764 0.034895275 0.00032115146 0.049340792 0.056001347
0.05315476 -0.017839866 0.016490668 0.022769924 -0.024758661 0.022448644 0.07386731 0.07479139
-0.15875347 -0.13008773 0.019124541 0.065110184 0.03324625 0.081013866 -0.029473923 0.037457168
0.032036476 0.037196636 0.1406352 -0.01370665 0.06619932 -0.023018856 -0.10693031 0.037316162
0.0885246 0.04531101 0.10991973 0.17134772 0.0065880925 0.040213984 -0.0074523636 -0.03143509
-0.14832325 -0.01890697 0.020184511 -0.11915958 -0.054476865 0.05055577 0.027479267 0.018748974
0.024838518 0.05165999 0.040837716 0.17514105 0.040677857 0.023083474 0.12922771 -0.017139595
-0.003513861 0.11267007 0.02877308 -0.056668796 -0.022670764 0.08983336 -0.044837438 0.18383718
0.062420435 0.038932648 0.034035906 0.06666741 -0.008785014 0.07151453 0.05098651 0.04189838
0.06051307 -0.009553711 0.10099253 0.08082676 0.15872711 0.06684654 0.040944133 -0.050452136
-0.06953162 0.099171564 0.15389076 0.07232109 0.105360046 0.090512834 -0.020172687 0.07168457
-0.039707195 0.04449213 -0.09987345 0.025191605 -0.0026476386 -0.0620265 -0.016540261 -0.015577979
-0.017369207 -0.048078127 0.0039277165 0.100584015 -0.04576635 0.04064353 0.010253949 0.11105952
-0.02133203 0.062320445 0.10269276 0.16203961 0.11099268 0.023928234 0.08015563 -0.012372578
0.001648113 0.11095031 0.06466257 0.062544584 0.10995242 0.014187041 0.064467095 0.025503712
-0.14557602 -0.01883661 -0.03982617 0.007416118 0.0733979 -0.08658843 -0.07292227 -0.020648679
0.040885706 -0.039681677 0.080043584 0.09627564 0.048634365 0.089659296 0.02530214 0.013348565
0.031136204 0.035621457 0.076313026 0.0046986393 0.12825626 -0.009915771 0.06221946 0.058182545
00000000: 932e a53d fbb2 b43c b2e0 463d a5eb 38be
00000010: d72e 52bd a462 babc 6cd0 273d 9585 d2bc
00000020: d9bf 29bd 0a6f 3fbd 68ca 42bd fc35 91bd
00000030: 60b0 053e 446b b63d 47ab a2bc 86e6 9e3c
00000040: ce8b d9bc 9446 073e 1603 b9bc 8a77 ce3c
00000050: 7f22 57bd 9faf 353c a386 7f3d 875f 27bd
00000060: 8d27 1abb aed3 b23d c3de 2d3e aca6 e63c
00000070: 087e 9b3d 7a74 ebbc 9021 403d a7c9 7a3b
00000080: 6281 923d 8b31 213e f067 003e e617 a83d
00000090: c445 b9bd 4186 d3bc cec2 58bd b999 433d
000000a0: 163b 003d d8d8 39bd 8e45 323d d7d0 343d
000000b0: 0085 e33d 5fd7 063e ba28 68bd 8b1f 43bd
000000c0: 932c ed3c 4a7e 6f3e 7b45 9c3d 9a5e 893d
000000d0: 7b12 bc3d 9bb5 12bd 427b 4a3c 2b74 793d
000000e0: 5d4b 94bd 3864 48bc 8788 183d b665 833d
000000f0: 0cba cf3d 2ba9 7a3d 7f37 da3c e9ea 0f3d
00000100: f00a 2abd e149 a73d 0358 84bc 89de 513d
00000110: 5cda 263d a753 35bd 3ebf 033d e13d 9dbc
00000120: f675 023d 5cc5 3e3c b1c6 4dbd e747 e83c
00000130: c5ef 31bd 66be 67bd 7520 ae3c 972f 01be
00000140: 081e f13d dace f3bd 2123 8e3d 8d11 243e
00000150: e6bf 013e 11b3 773d 46ff 3cbd 784a 2a3e
00000160: 74f8 eabd cca8 1d3e e6dc 803d 68d3 9c3d
00000170: f1bf 573c 3b8a 253e 9ad5 823d c4ff 383d
00000180: c46f 88bd 771a 853b 333d 533d 2975 9f3c
00000190: 2440 9c3d b444 463b e341 7c3d 925f 74bd
000001a0: 5a8a c13c 9169 07bd 56b0 773c 0989 d13d
000001b0: 338e af3c ae65 47bb 9b69 103d fcf3 4f3d
000001c0: 6ab2 0c3d ba9f c73d 9179 48bd da2a d9bd
000001d0: 59ee 0e3d 3860 a839 9219 4a3d ab61 653d
000001e0: ceb8 593d e924 92bc 7017 873c fe87 ba3c
000001f0: add2 cabc 38e6 b73c bf47 973d 3a2c 993d
00000200: 4590 22be b835 05be 12ab 9c3c 7d58 853d
00000210: 382d 083d 99ea a53d 4c73 f1bc b06c 193d
00000220: ae38 033d 805b 183d ad02 103e db91 60bc
00000230: 8293 873d 0a92 bcbc 47fe dabd d5d8 183d
00000240: 634c b53d 0a98 393d 981d e13d c775 2f3e
00000250: ede0 d73b 6bb7 243d f532 f4bb 15c2 00bd
00000260: 0de2 17be cae2 9abc fd59 a53c f009 f4bd
00000270: 2223 5fbd 9113 4f3d 331c e13c 7397 993c
00000280: 267a cb3c 6d99 533d 7345 273d 2d58 333e
00000290: d39d 263d 8e19 bd3c 4554 043e 5668 8cbc
000002a0: ce48 66bb 91bf e63d 86b5 eb3c 8a1d 68bd
000002b0: 0ab8 b9bc 8dfa b73d 76a7 37bd d03f 3c3e
000002c0: 92ac 7f3d d777 1f3d 3c69 0b3d ec88 883d
000002d0: 05ef 0fbc 3676 923d 3bd7 503d a39d 2b3d
000002e0: 8edc 773d 2b87 1cbc 2cd5 ce3d 8088 a53d
000002f0: 5c89 223e d7e6 883d 09b5 273d e6a6 4ebd
00000300: 9866 8ebd 761a cb3d 8a95 1d3e 141d 943d
00000310: 02c7 d73d cb5e b93d 3141 a5bc 5ccf 923d
00000320: 03a4 22bd 613d 363d 748a ccbd a05e ce3c
00000330: 0184 2dbb 800f 7ebd 717f 87bc c83a 7fbc
00000340: de49 8ebc 92ed 44bd 13b4 803b fefe cd3d
00000350: 7f75 3bbd d579 263d 2e00 283c 2c73 e33d
00000360: 82c0 aebc b943 7f3d 9550 d23d b6ed 253e
00000370: 2150 e33d 2505 c43c a328 a43d 5ab6 4abc
00000380: 7f05 d83a eb39 e33d cf6d 843d 6017 803d
00000390: bc2e e13d c370 683c 5307 843d 29ed d03c
000003a0: e111 15be 3c4f 9abc c420 23bd e802 f33b
000003b0: a351 963d 4655 b1bd 4558 95bd 6b27 a9bc
000003c0: c577 273d 4189 22bd e4ed a33d 2a2c c53d
000003d0: d434 473d 4b9f b73d 6f46 cf3c f1b3 5a3c
000003e0: 5a11 ff3c cee7 113d 014a 9c3d 0bf7 993b
000003f0: 9c55 033e c275 22bc d5d9 7e3d d250 6e3d
