loto6_cnn/model/loto6_20_850.model (npz, 468586 bytes, 38 tensors)

conv1_2/b f4 [64]
-0.00012190685 -8.880256e-05 5.1287087e-05 -0.00013761564 2.4105962e-06 9.358304e-05 -3.845707e-05 -0.00018107273
2.4700012e-05 0.00036445365 -4.1303607e-05 -0.00020506106 1.5773774e-05 1.4757696e-05 -1.3985541e-05 -9.410364e-05
-2.7820673e-05 -1.6305474e-05 2.9379395e-05 -6.4644905e-06 8.679888e-05 5.254986e-05 1.0913664e-05 -9.890477e-05
-4.7087837e-05 -1.8806328e-05 -4.864147e-06 -2.3849416e-05 -2.264544e-05 0.0001059168 1.057764e-05 -1.7037967e-06
1.7775697e-05 -6.6247467e-06 -4.8439822e-05 -0.00013098423 8.176826e-05 -0.0001665275 4.7664744e-06 -4.0284922e-05
6.837118e-05 -3.16141e-05 2.271265e-05 -1.2780082e-05 1.3811149e-05 2.4228417e-05 3.5340745e-05 -7.997083e-05
-2.444418e-05 3.423562e-05 5.0293787e-05 2.8183233e-05 2.06269e-06 4.62952e-05 0.00015241362 -0.00017007084
-0.0001233631 -4.13766e-06 7.080369e-05 1.1275497e-06 2.7133926e-06 4.668664e-05 -9.773104e-05 -2.6888772e-05
00000000: 3ea8 ffb8 833b bab8 171d 5738 eb4c 10b9
00000010: bac5 2136 0342 c438 f74c 21b8 57de 3db9
00000020: df32 cf37 2414 bf39 693d 2db8 a905 57b9
00000030: ec51 8437 d297 7737 71a3 6ab7 8259 c5b8
00000040: 7160 e9b7 bdc7 88b7 c573 f637 8de9 d8b6
00000050: cb07 b638 fc68 5c38 d419 3737 186b cfb8
00000060: 2e80 45b8 48c2 9db7 b436 a3b6 3b10 c8b7
00000070: b6f6 bdb7 a61f de38 9e76 3137 02ae e4b5
00000080: 051d 9537 244a deb6 dd2b 4bb8 d058 09b9
00000090: 007b ab38 e39d 2eb9 b4ef 9f36 9bf7 28b8
000000a0: 7f62 8f38 6299 04b8 0b87 be37 096a 56b7
000000b0: 6fb6 6737 213e cb37 d63a 1438 03b6 a7b8
000000c0: 7a0d cdb7 3898 0f38 8bf2 5238 086b ec37
000000d0: bf6c 0a36 182d 4238 38d1 1f39 0b55 32b9
000000e0: 085b 01b9 3bd6 8ab6 717c 9438 5056 9735
000000f0: bb17 3636 66d1 4338 f4f4 ccb8 338f e1b7

conv1_4/b f4 [32]
0.00011256558 -6.772458e-05 -0.00028405726 0.00015869163 0.0002456066 -0.00016376968 3.789167e-05 2.5099567e-05
-0.00014659858 -1.1978478e-05 -0.00026422198 2.933003e-05 2.6531707e-05 8.897695e-05 0.00012513959 -0.00013751746
-0.0001371086 -6.636797e-07 0.00011681819 -0.0002543562 0.00010059215 -8.48496e-05 -0.0001073162 0.00040343247
1.382044e-06 -8.945242e-06 -2.2754843e-05 -3.4773275e-05 -6.3588916e-05 -0.000111679416 -7.2407005e-05 -0.00012775163
00000000: 3011 ec38 5b07 8eb8 85ed 94b9 7666 2639
00000010: c3c4 8039 97b9 2bb9 dfed 1e38 e98c d237
00000020: 42b8 19b9 2cf7 48b7 4687 8ab9 c309 f637
00000030: 6890 de37 2399 ba38 e737 0339 9032 10b9
00000040: cfc4 0fb9 b927 32b5 4afc f438 1c5b 85b9
00000050: 00f5 d238 48f1 b1b8 f20e e1b8 ca83 d339
00000060: ac7e b935 8613 16b7 a7e1 beb7 85d9 11b8
00000070: 0a5b 85b8 6e35 eab8 37d9 97b8 11f5 05b9

bn4/avg_mean f4 [32]
-0.51074743 -3.3385 1.7489 -2.4545243 -0.076286845 -1.5240419 -2.0252635 0.24865898
-0.6445967 -0.7403942 -3.149352 -1.2281926 -0.04223787 0.3348777 -1.1178972 -2.2009263
-0.5648013 -1.2256556 -4.135438 -2.9883325 -0.48359314 0.034452356 -0.08255676 -1.8918325
-0.4536057 -1.0252428 -0.3392459 0.10798348 -3.4440353 1.2283202 -0.30418676 0.30254766
00000000: 58c0 02bf fca9 55c0 f5db df3f ed16 1dc0
00000010: 473c 9cbd ce13 c3bf eb9d 01c0 76a0 7e3e
00000020: 4a04 25bf 798a 3dbf fc8e 49c0 6a35 9dbf
00000030: 9e01 2dbd 1775 ab3e 4117 8fbf fadb 0cc0
00000040: d196 10bf 48e2 9cbf 8255 84c0 d740 3fc0
00000050: 8599 f7be ea1d 0d3d 8513 a9bd 9127 f2bf
00000060: 023f e8be 283b 83bf a3b1 adbe 7126 dd3d
00000070: 136b 5cc0 9939 9d3f 5ebe 9bbe 87e7 9a3e

conv1_5/b f4 [32]
-3.1338397e-05 -3.847643e-05 0.00010119702 -7.319813e-05 0.00016822582 9.2013215e-05 3.301772e-05 0.0001352239
7.9999e-05 3.0216384e-05 -0.0001067231 -4.3284097e-05 -2.842249e-05 -0.00026260802 1.9460578e-05 4.028984e-05
7.695122e-05 -5.342778e-05 0.00014107201 -9.273877e-05 0.00014567634 2.2432374e-05 3.127747e-05 0.00031404803
6.2052226e-05 0.00066205673 -0.00013702243 0.00022238617 -0.00010060752 6.838224e-05 -2.0794341e-05 -2.352087e-05
00000000: 5971 03b8 c161 21b8 bd39 d438 f281 99b8
00000010: c665 3039 38f7 c038 827c 0a38 e4ca 0d39
00000020: 23c5 a738 3179 fd37 87d0 dfb8 f28b 35b8
00000030: d56c eeb7 a7ae 89b9 463f a337 e3fc 2838
00000040: df60 a138 a417 60b8 bbec 1339 bf7c c2b8
00000050: b2c0 1839 282d bc37 ed2f 0338 d0a6 a439
00000060: 0922 8238 e08d 2d3a aead 0fb9 5530 6939
00000070: 40fd d2b8 7068 8f38 826f aeb7 af4e c5b7

bn5/avg_mean f4 [32]
-0.02062825 -0.19176811 -0.09009694 -0.6459034 0.13848078 -1.0376422 -0.37640217 0.48665416
-0.10553202 0.15755732 -0.2565789 -0.49254793 0.0657202 -0.32773998 -0.15805046 -0.04981143
0.42996168 -0.2030699 -0.8505888 -0.2889749 -0.011004697 -0.5399166 -0.36209106 0.62832314
-0.2762995 0.77875555 -0.20227635 -0.60826665 -0.31535366 0.08902606 -0.49888557 -0.31056318
00000000: 93fc a8bc dc5e 44be bf84 b8bd ed59 25bf
00000010: e8cd 0d3e 76d1 84bf c9b7 c0be bc2a f93e
00000020: 2c21 d8bd b556 213e 4f5e 83be 3e2f fcbe
00000030: 5098 863d 89cd a7be fbd7 21be 1207 4cbd
00000040: f023 dc3e 8ef1 4fbe 30c0 59bf 85f4 93be
00000050: 0b4d 34bc f937 0abf 0064 b9be c9d9 203f
00000060: 2177 8dbe 865c 473f 8821 4fbe 5db7 1bbf
00000070: 0976 a1be 4c53 b63d ee6d ffbe 2302 9fbe

bn1/gamma f4 [64]
0.97854114 0.980187 1.0072055 0.9967793 0.9698246 1.0080198 0.9879183 0.988336
0.98738474 0.9994256 1.0063723 0.99811685 0.9915301 1.0001382 0.98588115 1.017672
0.97727615 0.9841253 0.99607617 1.0162483 1.0386893 1.0072787 1.004129 0.99628323
1.0151992 0.9994621 0.9797186 0.99490887 0.97310615 0.996369 0.9515836 0.9853765
0.9787304 1.0117882 0.9726371 0.99039674 1.0009406 1.0645506 1.0074036 1.0184021
0.9813069 0.97251475 1.0018464 0.9767745 1.0055591 0.97557884 1.0039855 1.0047282
0.97905886 0.9922503 0.9853724 1.0028622 0.9877021 0.9657821 0.9880389 1.0274988
0.9777084 0.96634287 0.98185277 0.98610765 0.9751101 1.0163691 0.9689842 0.98005575
00000000: ac81 7a3f 89ed 7a3f 1cec 803f ee2c 7f3f
00000010: 6d46 783f cb06 813f 37e8 7c3f 9703 7d3f
00000020: 3fc5 7c3f 5bda 7f3f cfd0 803f 9684 7f3f
00000030: ebd4 7d3f 8704 803f b562 7c3f 1343 823f
00000040: c52e 7a3f a3ef 7b3f d9fe 7e3f 6d14 823f
00000050: c5f3 843f 82ee 803f 4d87 803f 6b0c 7f3f
00000060: 0cf2 813f c0dc 7f3f d7ce 7a3f 59b2 7e3f
00000070: 7c1d 793f 0a12 7f3f fc9a 733f a241 7c3f
00000080: 138e 7a3f 4782 813f bffe 783f a48a 7d3f
00000090: d21e 803f 3243 883f 9af2 803f 005b 823f
000000a0: ee36 7b3f baf6 783f 813c 803f e50d 7a3f
000000b0: 29b6 803f 89bf 793f 9982 803f ef9a 803f
000000c0: 9aa3 7a3f 1e04 7e3f 5e41 7c3f ca5d 803f
000000d0: 0bda 7c3f 7f3d 773f 1ef0 7c3f 1585 833f
000000e0: 194b 7a3f 3f62 773f b45a 7b3f 8d71 7c3f
000000f0: d1a0 793f 6218 823f 590f 783f efe4 7a3f

conv1_3/b f4 [64]
-1.863133e-05 2.37144e-05 -1.2897909e-05 -2.1892107e-05 4.3196378e-05 9.213021e-06 -0.0001054537 6.5765753e-06
4.2916512e-05 2.569845e-05 1.492191e-05 4.879897e-05 2.5498808e-05 6.164138e-05 -7.599499e-05 -0.00012367465
-7.0949764e-06 0.0001312791 1.3883418e-05 4.0757663e-05 2.8128454e-05 9.368552e-05 -3.1211952e-05 4.107696e-06
2.035748e-05 2.3828163e-05 3.5756522e-05 5.0245046e-05 -9.097079e-06 1.0355396e-05 -3.1503543e-05 0.00011180151
-6.313091e-06 -2.0013089e-05 -3.1525065e-05 -2.5522782e-05 9.759985e-05 -8.155654e-06 -2.1208375e-06 -4.795137e-06
-1.9231491e-05 0.00011232639 4.84028e-05 -1.6158809e-05 -2.610183e-05 -2.006044e-05 -8.684424e-05 -2.7723576e-05
-0.0001021389 -3.1109103e-05 -2.5202586e-05 -3.8923576e-05 2.9865366e-06 -4.0719842e-05 -3.4608704e-05 3.233272e-05
7.1260765e-05 -1.4114221e-05 -9.852102e-05 -1.3174955e-05 -2.576604e-05 2.0563391e-05 -2.3031282e-05 7.614498e-05
00000000: 7a4a 9cb7 49ee c637 1964 58b7 f1a4 b7b7
00000010: c22d 3538 a091 1a37 0627 ddb8 5aac dc36
00000020: 4101 3438 0093 d737 1e59 7a37 7fad 4c38
00000030: 46e6 d537 7745 8138 805f 9fb8 a9ae 01b9
00000040: 6211 eeb6 f7a7 0939 d4ec 6837 35f3 2a38
00000050: 65f5 eb37 0879 c438 94e9 02b8 d7d4 8936
00000060: 5bc5 aa37 97e2 c737 46f9 1538 35be 5238
00000070: a89f 18b7 16bc 2d37 ac22 04b8 fb76 ea38
00000080: 0ad5 d3b6 c8e1 a7b7 c839 04b8 c219 d6b7
00000090: 85ae cc38 44d4 08b7 b653 0eb6 eae5 a0b6
000000a0: 5053 a1b7 c590 eb38 1c04 4b38 c78c 87b7
000000b0: 41f5 dab7 7847 a8b7 2520 b6b8 ed8f e8b7
000000c0: 6833 d6b8 257b 02b8 246a d3b7 df41 23b8
000000d0: 4f6c 4836 99ca 2ab8 d028 11b8 fe9c 0738
000000e0: d571 9538 1ecc 6cb7 129d ceb8 000a 5db7
000000f0: 2624 d8b7 8c7f ac37 4d33 c1b7 06b0 9f38

bn2/avg_var f4 [64]
0.41361874 0.76113033 0.44813386 0.6250917 0.5976593 0.42520756 0.4743817 0.41035768
0.44124272 0.4224437 0.5411406 0.49304298 0.45620728 0.4485846 0.27893475 0.64416873
0.60533655 0.34193784 0.39678782 1.0825746 0.33648577 0.37190315 0.3669409 0.52712107
0.42222723 0.37235323 0.649648 0.77386785 0.6449646 0.67163146 0.5538685 0.35866377
0.8141027 0.7599007 0.53522474 0.6442614 0.3602551 0.30783132 0.6305031 0.2911085
0.425255 0.2762805 0.56410086 0.5375842 0.53760856 0.44327062 0.51542497 0.37702513
0.5984043 0.561609 0.7212039 0.37162 0.4234815 0.4734844 0.37893274 0.7243495
0.50783616 0.48025268 0.68112695 0.40333155 0.3087066 0.49283066 0.5481386 0.49802938
00000000: d6c5 d33e 70d9 423f cd71 e53e 0206 203f
00000010: 3300 193f ceb4 d93e 28e2 f23e 671a d23e
00000020: 91ea e13e 8a4a d83e 3188 0a3f 2170 fc3e
00000030: 0094 e93e e1ac e53e 89d0 8e3e 3ee8 243f
00000040: 56f7 1a3f 7a12 af3e c627 cb3e ce91 8a3f
00000050: dd47 ac3e 176a be3e addf bb3e 68f1 063f
00000060: 2b2e d83e 15a5 be3e 554f 263f 341c 463f
00000070: 661c 253f 0af0 2b3f 53ca 0d3f c7a2 b73e
00000080: 0969 503f da88 423f 7d04 093f 51ee 243f
00000090: 5b73 b83e 119c 9d3e a768 213f 2c0c 953e
000000a0: 06bb d93e a374 8d3e ea68 103f 1e9f 093f
000000b0: b7a0 093f 5ef4 e23e e4f2 033f 7009 c13e
000000c0: 0631 193f 9cc5 0f3f d2a0 383f fa44 be3e
000000d0: 91d2 d83e 8c6c f23e 7903 c23e f86e 393f
000000e0: 8d01 023f aee3 f53e 565e 2e3f 7981 ce3e
000000f0: cb0e 9e3e 4d54 fc3e d052 0c3f b5fd fe3e

bn2/gamma f4 [64]
1.027171 0.9673471 0.9714857 0.9842872 0.99600136 1.0226467 0.99463546 0.96648383
0.9800805 0.9865716 0.97849846 1.0239065 0.9869428 0.9983645 1.0010929 0.9929845
0.972069 0.9922993 0.98194814 0.9858718 1.0291506 0.9880613 1.0034494 1.0067761
1.0128531 1.0396059 0.97095346 1.0001732 1.0262218 0.97148305 0.99362886 0.9969617
0.9798366 0.9959172 0.9888348 1.022319 0.9923171 0.9902558 0.9732186 0.96736866
1.0108223 0.9924798 0.9926551 0.9981543 1.0060164 1.0028349 1.0141605 1.0088643
0.9941138 1.0202928 0.9930965 1.0166612 0.96845406 1.0341742 0.9956307 0.97809684
1.0051754 0.9927628 0.9716792 1.083773 0.9898081 1.0081683 0.96428716 1.0259094
00000000: 577a 833f 0fa4 773f 49b3 783f 3ffa 7b3f
00000010: f2f9 7e3f 16e6 823f 6ea0 7e3f 7c6b 773f
00000020: 8ee6 7a3f f58f 7c3f e07e 7a3f 5e0f 833f
00000030: 49a8 7c3f d194 7f3f d023 803f 3b34 7e3f
00000040: 84d9 783f 5407 7e3f f460 7b3f 1862 7c3f
00000050: 35bb 833f 96f1 7c3f 0871 803f 0ade 803f
00000060: 2ca5 813f ce11 853f 6890 783f ad05 803f
00000070: 3c5b 833f 1db3 783f 765e 7e3f e238 7f3f
00000080: 92d6 7a3f 6ef4 7e3f 4724 7d3f 59db 823f
00000090: 7e08 7e3f 6781 7d3f db24 793f 79a5 773f
000000a0: a062 813f 2813 7e3f a51e 7e3f 0a87 7f3f
000000b0: 25c5 803f e55c 803f 03d0 813f 7722 813f
000000c0: 3e7e 7e3f f498 823f 923b 7e3f f421 823f
000000d0: 9bec 773f d25f 843f a7e1 7e3f 8e64 7a3f
000000e0: 96a9 803f b425 7e3f f8bf 783f 13b9 8a3f
000000f0: 1064 7d3f a90b 813f 86db 763f 0051 833f

conv1_1/b f4 [64]
4.2862834e-05 3.2371816e-05 9.706468e-05 1.1859615e-05 -8.1178936e-05 7.646741e-05 -9.696231e-05 5.7017446e-06
-0.00033098672 -6.2276325e-05 2.7488706e-05 6.3620547e-07 4.027782e-05 4.7343307e-05 -0.00010180162 -2.593716e-05
7.64875e-05 0.00012071783 -7.306944e-05 -8.2043116e-05 4.470548e-05 1.6481212e-05 -2.4238934e-05 0.0001416207
4.430527e-05 3.9713424e-05 1.873536e-05 3.7970276e-05 8.0833765e-05 2.6151936e-05 0.00011068083 -6.377406e-05
9.981691e-05 3.8978942e-05 -0.00014399242 -8.748496e-05 -0.00017233349 -1.5374115e-05 -4.1284708e-05 7.365727e-05
1.5724867e-05 0.00017140931 -9.531853e-05 2.9403016e-06 -8.815807e-05 2.8428858e-05 4.038248e-05 6.311626e-06
1.9691404e-05 -2.9906444e-06 9.552107e-05 2.6869802e-05 2.4482604e-05 -8.025568e-05 -0.0003181949 1.748928e-05
3.3161094e-05 4.138703e-05 3.5795e-05 4.771437e-05 4.0252977e-05 -5.6180525e-05 -0.0001772982 4.7061885e-06
00000000: 9ec7 3338 f9c6 0738 348f cb38 a9f8 4637
00000010: 9c3e aab8 215d a038 3e58 cbb8 9d51 bf36
00000020: 4988 adb9 599a 82b8 8c97 e637 b5c7 2a35
00000030: fbef 2838 7d92 4638 547e d5b8 a193 d9b7
00000040: ea67 a038 e429 fd38 db3c 99b8 900e acb8
00000050: 2582 3b38 2241 8a37 b754 cbb7 0480 1439
00000060: 6cd4 3938 f791 2638 e129 9d37 4642 1f38
00000070: 4c85 a938 db60 db37 511d e838 70be 85b8
00000080: cc54 d138 527d 2338 acfc 16b9 2178 b7b8
00000090: 6bb4 34b9 a9f7 80b7 1e29 2db8 7278 9a38
000000a0: e5e8 8337 56bc 3339 bfe5 c7b8 ff51 4536
000000b0: 81e1 b8b8 827a ee37 5c60 2938 74c8 d336
000000c0: f82e a537 e1b2 48b6 7c52 c838 7666 e137
000000d0: fe5f cd37 f14e a8b8 66d3 a6b9 f1b5 9237
000000e0: 7416 0b38 fc96 2d38 9722 1638 ea20 4838
000000f0: 4ed5 2838 61a3 6bb8 20e9 39b9 dae9 9d36

bn1/avg_var f4 [64]
0.12402032 0.37653464 0.15329288 0.32541344 0.39446715 0.24341057 0.33130607 0.35041815
0.1307528 0.2518519 0.43693575 0.40740156 0.39395165 0.18607405 0.19827698 0.40283465
0.11708056 0.50717115 0.35376635 0.21834394 0.26765096 0.27539465 0.2819336 0.15172198
0.25752833 0.21328008 0.20354216 0.34241393 0.2366866 0.5275109 0.10796942 0.33587295
0.10767612 0.3359154 0.22829396 0.27261186 0.23630694 0.14088163 0.37259576 0.34342593
0.26188144 0.093365796 0.11801713 0.2128649 0.09886971 0.17255606 0.5116964 0.21349978
0.3339357 0.44475663 0.19731471 0.13287841 0.41336185 0.2565736 0.17562766 0.10515033
0.23187655 0.36298233 0.54786456 0.49402872 0.15934722 0.25066373 0.2974112 0.15806767
00000000: 5efe fd3d 26c9 c03e cff8 1c3e 979c a63e
00000010: 99f7 c93e 9f40 793e f3a0 a93e 026a b33e
00000020: 10e4 053e bbf2 803e 0bb6 df3e f096 d03e
00000030: 08b4 c93e 328a 3e3e 1f09 4b3e 5840 ce3e
00000040: efc7 ef3d f8d5 013f dd20 b53e 8e95 5f3e
00000050: 8c09 893e 8700 8d3e 9a59 903e 025d 1b3e
00000060: c1da 833e 1866 5a3e 5b6d 503e e150 af3e
00000070: f95d 723e f40a 073f 121f dd3d 8af7 ab3e
00000080: 4c85 dc3d 1afd ab3e e4c5 693e c893 8b3e
00000090: 72fa 713e 4643 103e dfc4 be3e 86d5 af3e
000000a0: 5315 863e 9136 bf3d f7b2 f13d 42f9 593e
000000b0: 347c ca3d 89b2 303e 89fe 023f b09f 5a3e
000000c0: 9ff9 aa3e 24b7 e33e de0c 4a3e 4711 083e
000000d0: 2aa4 d33e 9d5d 833e bdd7 333e 0e59 d73d
000000e0: 0c71 6d3e d2d8 b93e da40 0c3f 55f1 fc3e
000000f0: eb2b 233e ff56 803e 4846 983e 7edc 213e

bn2/beta f4 [64]
0.026136026 -0.018645938 -0.013233837 0.0010396758 0.008769117 0.024517119 0.0118617825 -0.020924544
-0.003579773 -0.001165947 0.013108134 0.026968297 -0.007840396 0.04475244 0.007083374 0.004639542
-0.01767314 0.026095767 0.0028143916 0.006217879 -0.0003703545 -0.0074046785 -0.020296346 0.031861216
0.034857016 0.041781534 -0.005898538 0.005290355 0.04449695 -0.015559035 0.02076759 0.019253982
-0.0020291985 0.013442938 0.00071262225 -0.016128069 0.017660419 0.006830989 -0.028777864 0.0096403975
0.024252884 -0.00470343 0.002766622 0.018192802 -0.00088802364 0.011555327 0.01645246 0.014659137
0.010532525 0.035817336 -0.0045316876 0.011978094 -0.031626835 0.011293624 -0.0029117588 -0.0062722582
0.030273141 0.0014646744 -0.005915181 -0.036184516 0.011897864 -0.0106230695 -0.028255867 0.026407357
00000000: 381b d63c 5ebf 98bc bcd2 58bc bb45 883a
00000010: 58ac 0f3c 20d8 c83c ec57 423c f369 abbc
00000020: a09a 6abb b0d2 98ba 80c3 563c 9eec dc3c
00000030: 0175 00bc 564e 373d a61b e83b 4d07 983b
00000040: 43c7 90bc cac6 d53c a871 383b 59bf cb3b
00000050: 242c c2b9 f2a2 f2bb 8644 a6bc e880 023d
00000060: 3bc6 0e3d 1d23 2b3d 8648 c1bb b75a ad3b
00000070: 6f42 363d 53eb 7ebc cb20 aa3c 87ba 9d3c
00000080: 4dfc 04bb c53f 5c3c 45cf 3a3a 031f 84bc
00000090: 95ac 903c 7dd6 df3b 8ebf ebbc c2f2 1d3c
000000a0: fcad c63c 3b1f 9abb 3750 353b 1209 953c
000000b0: 42ca 68ba 8e52 3d3c 4fc7 863c e12c 703c
000000c0: 9d90 2c3c 33b5 123d 8d7e 94bb c43f 443c
000000d0: 248b 01bd e408 393c 35d3 3ebb 8487 cdbb
000000e0: 61ff f73c 51fa bf3a 22d4 c1bb 3736 14bd
000000f0: 42ef 423c 620c 2ebc d978 e7bc 3e54 d83c

bn4/gamma f4 [32]
1.00485 1.1372362 1.0210379 1.06055 1.0551386 1.1016545 1.1030474 1.0926982
1.0418792 1.1090373 1.0894941 1.0510409 1.061064 1.0255318 1.0934017 1.0358061
1.1220547 1.0765852 1.1205221 1.0955433 1.0615381 1.0972435 1.0715159 1.0472939
1.0463768 1.0567294 1.1564174 1.0786628 1.1193733 1.0417042 1.1084838 1.0554742
00000000: ed9e 803f f590 913f 5fb1 823f 1ac0 873f
00000010: c80e 873f 0403 8d3f a830 8d3f 89dd 8b3f
00000020: 4c5c 853f eff4 8d3f 8b74 8b3f 8288 863f
00000030: f2d0 873f a044 833f 96f4 8b3f 4b95 843f
00000040: 7d9f 8f3f 8bcd 893f 456d 8f3f c33a 8c3f
00000050: 7be0 873f 7a72 8c3f 6f27 893f ba0d 863f
00000060: adef 853f e942 873f 7c05 943f 9f11 8a3f
00000070: a047 8f3f 9056 853f cce2 8d3f c719 873f

conv1_7/b f4 [2]
0.04350989 0.0050471765
00000000: 6d37 323d c962 a53b

conv1_6/W f4 [32, 32, 3, 3]
-0.022482514 -0.0098246485 0.048100293 -0.0024406242 -0.01764236 0.09766457 0.022767471 -0.007052395
0.05536229 0.09925476 -0.0741393 0.08764788 -0.0021614293 -0.02620605 0.027683036 0.0015605179
0.0032068847 -0.00049904815 0.06955737 -0.0179546 0.06543943 0.018776612 0.10254594 0.015339369
-0.044145357 0.011258719 -0.04152032 -0.050357807 0.011029873 0.0069300374 -0.06399262 0.090523094
0.085049756 -0.01087725 0.030661201 0.08948406 -0.025034692 -0.04549439 -0.052277118 -0.08357586
0.004177061 -0.068765625 -0.028684521 -0.017337976 -0.06028351 -0.102455646 -0.089407995 -0.007746363
-0.008970971 -0.044007115 -0.07381359 0.0008570529 -0.045482565 -0.061663255 0.07529919 -0.007202102
-0.049946904 -0.062331628 -0.04463611 -0.056302305 -0.013302838 -0.054158255 -0.008359264 -0.045322727
0.12185481 0.028824342 -0.11933168 0.007784501 -0.028154714 0.058841754 -0.09519917 0.04901774
-0.017501907 0.012686292 0.08807428 0.0031516678 -0.071923465 -0.00083260646 0.019987004 0.05552103
-0.07220517 0.064870246 -0.06480792 0.0270854 0.017051473 0.06203994 0.040179543 0.024855223
-0.12623043 -0.07610243 0.0038859693 0.019375052 -0.045246687 -0.024575245 -0.02863263 -0.03770002
0.011634965 0.059538227 -0.03347683 -0.0042044353 -0.10698067 0.024389764 0.06321104 0.050076358
0.01855584 0.021856487 0.09678153 -0.01690891 -0.012705209 0.06962242 -0.03317369 0.13670483
-0.0063018682 0.04507033 0.06448264 0.0017144624 0.015630687 -0.13353384 0.054628618 0.028734699
-0.0575997 -0.09205793 -0.08291504 0.059407186 0.010468814 -0.08783522 -0.011365714 -0.036481947
-0.03457941 -0.007646968 0.07203241 -0.009094936 -0.037133254 0.021685418 -0.026188971 -0.01443886
-0.033204675 -0.044399954 -0.1024257 -0.06757709 0.1327285 -0.031755924 0.003912745 -0.0646351
0.077219665 -0.023090856 -0.05110451 0.023514198 0.042731315 -0.08531534 -0.11218987 -0.09238797
0.064276434 0.04716623 -0.10625641 0.05544893 0.04599249 -0.11594814 0.09011515 0.024182666
0.013655432 0.05519139 -0.058538117 -0.0061055175 0.04007463 0.08408027 -0.060145292 0.031741478
-0.022444412 -0.053745102 0.029499656 0.029292384 0.10349837 0.010028322 0.054194823 -0.03169883
-0.018985545 0.046339214 0.08335171 -0.019532673 -0.06442883 0.031094283 -0.046863217 0.047587756
-0.037231244 -0.018219141 0.048247013 -0.027776036 -0.029611722 -0.013692178 -0.046369385 -0.021048596
-0.015735675 -0.08536617 -0.05921214 -0.078384764 0.11423871 0.08185644 0.06185446 0.022412037
-0.025867173 0.03125335 0.03764057 -0.014069124 -0.064241774 0.026445558 -0.02555422 0.059072867
-0.032779675 -0.14269401 0.049095184 0.016350562 0.06717319 0.06000635 0.008519433 -0.08861085
-0.08030079 -0.06720092 -0.09505759 0.035736218 0.03696067 0.04936973 -0.020836921 -0.091268696
0.0984682 -0.03729662 0.08624303 0.0106712375 0.01752173 0.021739703 -0.055747766 0.04593358
0.0128040705 0.073782615 -0.0047317697 0.01820295 0.10724124 0.046200182 0.0011513673 -0.049737755
0.051738225 0.028386213 0.039578076 0.032840878 -0.110717274 0.10495189 0.028846322 -0.07693172
-0.06492205 0.060439773 0.055758256 0.017062372 0.004143292 0.055089552 0.02301772 -0.12348457
00000000: 402d b8bc 90f7 20bc d004 453d e1f2 1fbb
00000010: b686 90bc 5d04 c83d d982 ba3c c717 e7bb
00000020: 92c3 623d 1446 cb3d 58d6 97bd bb80 b33d
00000030: c4a6 0dbb 12ae d6bc 89c7 e23c 4b8a cc3a
00000040: 992a 523b 8ed2 02ba 1874 8e3d 8615 93bc
00000050: 1c05 863d 69d1 993c 9b03 d23d fa51 7b3c
00000060: c3d1 34bd 7d76 383c 3611 2abd fd43 4ebd
00000070: a4b6 343c 5e15 e33b 900e 83bd 2c64 b93d
00000080: 912e ae3d 7e36 32bc 332d fb3c 6b43 b73d
00000090: 8e15 cdbc 5358 3abd 8820 56bd d229 abbd
000000a0: badf 883b fed4 8cbd cdfb eabc 5f08 8ebc
000000b0: d7eb 76bd 44d4 d1bd 8a1b b7bd 34d5 fdbb
000000c0: fbfa 12bc ce40 34bd 942b 97bd d9ab 603a
000000d0: ed4b 3abd 9c92 7cbd 7636 9a3d 9cff ebbb
000000e0: 2095 4cbd 734f 7fbd 5bd4 36bd 3f9d 66bd
000000f0: 26f4 59bc 0cd5 5dbd 4bf5 08bc 53a4 39bd
00000100: 048f f93d 0721 ec3c 2b64 f4bd 2115 ff3b
00000110: b7a4 e6bc 0d04 713d c8f7 c2bd d3c6 483d
00000120: 2960 8fbc 2ada 4f3c 4a60 b43d 368c 4e3b
00000130: 9c4c 93bd 4643 5aba c9bb a33c 056a 633d
00000140: 4ee0 93bd b1da 843d 04ba 84bd 33e2 dd3c
00000150: 88af 8b3c 981d 7e3d 4e93 243d 2e9d cb3c
00000160: 8d42 01be 97db 9bbd bfab 7e3b 6eb8 9e3c
00000170: 9754 39bd 0652 c9bc fa8e eabc 566b 1abd
00000180: 95a0 3e3c 5bde 733d 001f 09bd 5cc5 89bb
00000190: ae18 dbbd 0bcd c73c ca74 813d de1c 4d3d
000001a0: 6b02 983c 600c b33c 6535 c63d 8e84 8abc
000001b0: 8229 50bc 3396 8e3d 23e1 07bd 5afc 0b3e
000001c0: e77f cebb ab9b 383d 790f 843d d0b7 e03a
000001d0: ed0b 803c 18bd 08be 42c2 5f3d 0865 eb3c
000001e0: aaed 6bbd de88 bcbd 5ccf a9bd f354 733d
000001f0: 6385 2b3c f4e2 b3bd 4237 3abc 186e 15bd
00000200: 24a3 0dbd 6b93 fabb ba85 933d ed02 15bc
00000210: 0a19 18bd 9ea5 b13c 418a d6bc f890 6cbc
00000220: a001 08bd badc 35bd 91c4 d1bd db65 8abd
00000230: fbe9 073e 8012 02bd 7c36 803b 685f 84bd
00000240: 5825 9e3d 0929 bdbc f652 51bd d9a0 c03c
00000250: 0807 2f3d cfb9 aebd cdc3 e5bd e735 bdbd
00000260: 5da3 833d 6031 413d f69c d9bd 6b1e 633d
00000270: 9f62 3c3d 3876 edbd 4b8e b83d ba1a c63c
00000280: 08bb 5f3c 5e10 623d aac5 6fbd cb10 c8bb
00000290: 4c25 243d 4732 ac3d e95a 76bd 5a03 023d
000002a0: 58dd b7bc d323 5cbd 43a9 f13c 95f6 ef3c
000002b0: f4f6 d33d d54d 243c 64fb 5d3d a2d6 01bd
000002c0: 9387 9bbc 30ce 3d3d 4db4 aa3d fc02 a0bc
000002d0: 43f3 83bd 70b9 fe3c a5f3 3fbd 61eb 423d
000002e0: ca7f 18bd 4f40 95bc a99e 453d 928a e3bc
000002f0: 4894 f2bc 2855 60bc d3ed 3dbd 1b6e acbc
00000300: 1ae8 80bc 75d4 aebd 6e88 72bd 3188 a0bd
00000310: fcf5 e93d 59a4 a73d 1a5b 7d3d 7399 b73c
00000320: 65e7 d3bc 8303 003d 002d 1a3d 2f82 66bc
00000330: 3191 83bd 5ba4 d83c 1557 d1bc 64f6 713d
00000340: fb43 06bd 611e 12be 0818 493d 9df1 853c
00000350: 1992 893d 38c9 753d 1895 0b3c 9b79 b5bd
00000360: be74 a4bd a3a0 89bd 8ead c2bd 2460 123d
00000370: 1264 173d ea37 4a3d 31b2 aabc 15eb babd
00000380: b2a9 c93d 57c4 18bd 30a0 b03d 6ad6 2e3c
00000390: bb89 8f3c 7617 b23c c557 64bd d924 3c3d
000003a0: 2ac8 513c 571b 973d f60c 9bbb 5a1e 953c
000003b0: 4ca1 db3d 673c 3d3d 7ae9 963a d1b9 4bbd
000003c0: 76eb 533d 348a e83c 9f1c 223d 2884 063d
000003d0: bdbf e2bd 04f1 d63d 1f4f ec3c 618e 9dbd
000003e0: daf5 84bd b28f 773d c562 643d 63c6 8b3c
000003f0: 74c4 873b 95a5 613d a88f bc3c 7ae5 fcbd

conv1_4/W f4 [32, 64, 3, 3]
0.006479786 -0.061354548 -0.064976685 0.036005564 0.06577145 -0.0010841744 0.0069338656 -0.019182224
0.0035209344 -0.041516516 -0.0937675 -0.07073949 -0.0014970474 0.07594834 0.011748842 -0.014021019
0.07800875 0.088558204 0.07510506 -0.026258914 -0.010257362 0.07132013 0.0074386904 0.0638886
-0.03278811 -0.022776391 0.089436255 0.010949299 -0.097312115 -0.048322633 0.0142702665 -0.061638407
-0.036975794 -0.010126962 -0.013649721 -0.034952186 -0.017834505 0.03446842 0.0020066367 -0.017750649
-0.0120441215 -0.005064504 0.021034181 -0.010321489 0.06543029 -0.059851743 -0.06644214 0.0051846732
-4.5597128e-05 -0.063459255 0.051724818 0.01327729 0.004917023 -0.029035997 0.010395582 0.048908547
0.04990502 -0.095134646 -0.0077183414 0.050860826 -0.02428575 0.0033418655 -0.019616911 0.04607303
-0.0071264454 -7.7014745e-05 0.077419095 0.027158892 -0.011745851 0.07358978 -0.046655938 -0.034982435
0.010682324 -0.050636582 -0.008815264 0.008518588 -0.030735107 -0.08765775 -0.043784454 0.0076461076
0.054168407 0.049107354 0.019193284 0.026179893 -0.0044627343 0.028395118 -0.10404626 0.009407994
-0.0970538 -0.054750085 -0.0370999 -0.049033962 0.016357403 0.03772517 -0.054683257 -0.040251236
-0.02845624 0.0023175338 -0.0012885473 0.084275365 0.0064950027 -0.045427274 0.009834022 -0.0721492
0.014245075 -0.020975968 0.013023593 0.0035774189 0.043549247 0.061908487 0.03867652 -0.0291827
-0.014792427 0.0021664125 0.08128644 0.059446655 -0.019882184 0.034943003 0.063088834 -0.006425386
0.059700824 -0.06652571 -0.0059598717 0.070064284 0.0043412927 -0.03415226 0.0027036094 -0.058532946
0.037419464 0.103021175 0.019447606 0.0029739044 -0.068308674 -0.07072394 0.07231 -0.0831593
0.049839664 -0.015268012 -0.000102040096 0.005063422 -0.0031714009 -0.07242231 -0.0029220213 -0.024882428
-0.0018680402 -0.0003218028 -0.046837393 0.025793646 0.01030977 0.04366109 -0.049220618 -0.051115606
-0.04874553 -0.07170617 -0.061993454 0.018487126 0.007213592 -0.022844756 -0.1594455 0.0022393744
0.06982917 9.028917e-06 0.0021857626 0.031174514 -0.011468739 0.05541884 -0.010180663 6.2454455e-05
-0.022617117 0.03192004 0.05043557 -0.031803023 0.07323423 0.006434102 0.04834018 0.0631189
0.031633828 -0.029409042 -0.06995106 0.022511864 -0.055194173 -0.0053013316 -0.020607874 -0.029584182
0.018270032 -0.06621101 0.0013015036 -0.009655334 0.002394263 0.07450665 0.0031846685 0.0030889947
-0.017193565 -0.0020406593 0.021842645 -0.015535892 -0.020560779 -0.0067521157 0.030649183 0.019445512
-0.021903109 0.014493467 0.037576552 0.028838977 -0.078382865 0.040990148 0.12674688 0.04047176
-0.01605547 -0.021141822 -0.032662798 -0.03487246 -0.015976248 -0.039118126 -0.013796618 -0.05933189
-0.033800602 0.024061494 -0.016727092 -0.041967288 0.040082935 0.05426531 0.008378037 0.040546075
0.01268303 0.0032915745 -0.037265845 -0.015951399 -0.044109207 -0.037478603 -0.05786482 0.024907844
-0.018340932 0.0017707245 -0.0852965 -0.05072484 -0.0403511 -0.00571193 0.023936933 -0.0016919572
-0.014095104 0.010558055 -0.009561291 0.023485852 0.0437339 0.049261358 0.094082035 0.012508654
-0.0047273883 -3.0596817e-05 0.085583955 0.03593197 -0.028426984 0.02285151 0.005719358 0.004701473
00000000: 6254 d43b e84e 7bbd 7f12 85bd 927a 133d
00000010: 2fb3 863d db1a 8eba 7b35 e33b 0a24 9dbc
00000020: 7abf 663b 390d 2abd 2d09 c0bd dedf 90bd
00000030: 9338 c4ba ce8a 9b3d 377e 403c 6bb8 65bc
00000040: 0dc3 9f3d 015e b53d afd0 993d ef1c d7bc
00000050: 7f0e 28bc 4a10 923d 42c0 f33b 07d8 823d
00000060: d34c 06bd 8e95 babc 5b2a b73d b064 333c
00000070: 934b c7bd f4ed 45bd d6cd 693c 8e78 7cbd
00000080: ee73 17bd 8feb 25bc 14a3 5fbc 062a 0fbd
00000090: ab19 92bc c22e 0d3d c781 033b cf69 91bc
000000a0: b554 45bc 24f4 a5bb e04f ac3c 761b 29bc
000000b0: 5100 863d 1a27 75bd d112 88bd 31e4 a93b
000000c0: 8b3f 3fb8 edf6 81bd 67dd 533d fe88 593c
000000d0: fa1e a13b e6dc edbc 3b52 2a3c 5454 483d
000000e0: 3569 4c3d f4d5 c2bd 24ea fcbb 7153 503d
000000f0: e9f2 c6bc 3303 5b3b a5b3 a0bc 13b7 3c3d
00000100: f584 e9bb fa82 a1b8 e78d 9e3d 537c de3c
00000110: ab71 40bc 3db6 963d 4c1a 3fbd be49 0fbd
00000120: ea04 2f3c 4e68 4fbd e66d 10bc 8c91 0b3c
00000130: 31c8 fbbc e885 b3bd 5457 33bd 338c fa3b
00000140: b1df 5d3d cb24 493d 3c3b 9d3c 3777 d63c
00000150: 213c 92bb e19c e83c 3516 d5bd fd23 1a3c
00000160: 25c4 c6bd a041 60bd 11f6 17bd d6d7 48bd
00000170: f6ff 853c b585 1a3d 8dfb 5fbd 7bde 24bd
00000180: 101d e9bc c4e1 173b 79e4 a8ba 9098 ac3d
00000190: 08d4 d43b f311 3abd e11e 213c f6c2 93bd
000001a0: 2d64 693c cbd5 abbc e960 553c 2173 6a3b
000001b0: b260 323d c193 7d3d 456b 1e3d 8f10 efbc
000001c0: f05b 72bc 5ffa 0d3b 8179 a63d 567e 733d
000001d0: f6df a2bc 6520 0f3d b834 813d 0b8c d2bb
000001e0: da88 743d a23e 88bd 074b c3bb dd7d 8f3d
000001f0: 6741 8e3b 3de3 0bbd 0a2f 313b 3ec0 6fbd
00000200: 2745 193d c4fc d23d 9650 9f3c d6e5 423b
00000210: 6be5 8bbd b7d7 90bd 4417 943d 6c4f aabd
00000220: ad24 4c3d af26 7abc 5cfe d5b8 10eb a53b
00000230: 47d7 4fbb 2652 94bd 627f 3fbb 3cd6 cbbc
00000240: 07d9 f4ba a4b7 a8b9 91d8 3fbd 324d d33c
00000250: 4fea 283c f9d5 323d 8f9b 49bd 995e 51bd
00000260: 65a9 47bd afda 92bd d9ec 7dbd 5072 973c
00000270: ff5f ec3b ed24 bbbc ae45 23be 78c2 123b
00000280: 9902 8f3d e77a 1737 033f 0f3b b261 ff3c
00000290: 61e7 3bbc defe 623d cccc 26bc fbf9 8238
000002a0: 8847 b9bc 96be 023d 8795 4e3d e343 02bd
000002b0: d4fb 953d 29d5 d23b 5a00 463d 7b44 813d
000002c0: 7992 013d 3beb f0bc 8042 8fbd cd6a b83c
000002d0: 4913 62bd cbb6 adbb d8d1 a8bc 875a f2bc
000002e0: 09ab 953c a399 87bd 3797 aa3a 6831 1ebc
000002f0: 11e9 1c3b f196 983d dfb5 503b bb70 4a3b
00000300: 85d9 8cbc 95bc 05bb 59ef b23c 418a 7ebc
00000310: 146f a8bc da40 ddbb ff13 fb3c 324c 9f3c
00000320: 266e b3bc 0276 6d3c dfe9 193d b83f ec3c
00000330: 3287 a0bd 49e5 273d efc9 013e b7c5 253d
00000340: c386 83bc 9d31 adbc 6dc9 05bd 6dd6 0ebd
00000350: 9fe0 82bc 543a 20bd 360b 62bc ff05 73bd
00000360: 8072 0abd 9c1c c53c 4107 89bc e4e5 2bbd
00000370: 012e 243d 4d45 5e3d 0944 093c a413 263d
00000380: 7ccc 4f3c 75b7 573b 12a4 18bd 82ac 82bc
00000390: dbab 34bd 2a83 19bd a903 6dbd 890b cc3c
000003a0: b93f 96bc a817 e83a eeaf aebd dac4 4fbd
000003b0: 3247 25bd 242b bbbb 6317 c43c aac4 ddba
000003c0: 27ef 66bc b1fb 2c3c f6a6 1cbc 6765 c03c
000003d0: 5122 333d 47c6 493d 15ae c03d 19f1 4c3c
000003e0: 35e8 9abb 1555 00b8 a446 af3d 672d 133d
000003f0: b5df e8bc 1733 bb3c 7469 bb3b d00e 9a3b

bn1/avg_mean f4 [64]
0.0073674987 -0.05231675 0.06631443 -0.07168507 0.04564409 0.060327478 -0.018514892 -0.021066684
0.08898725 0.061985657 -0.10748768 -0.058458272 -0.07707232 -0.038541067 -0.0963192 -0.03266766
-0.031525012 0.09838528 0.019708602 -0.14122094 -0.007966956 -0.08102692 0.082377434 -0.121304855
0.02203256 -0.12727447 -0.062178485 0.017051015 -0.05254252 -0.021632496 -0.05870401 -0.07672041
0.062270213 0.07211937 -0.07819464 -0.10639344 0.039405115 -0.012486755 0.02141758 0.026017606
0.05190811 -0.070300914 -0.11553376 -0.07340653 0.058164306 -0.086248174 -0.05816882 -0.09312266
0.046024602 0.020040032 0.04755733 -0.09786409 -0.029260341 0.07341738 -0.14233482 -0.059594344
0.01997459 -0.07333887 -0.022837915 0.03848252 -0.05814231 -0.1312637 0.06995286 -0.033098366
00000000: 0f6b f13b 174a 56bd dccf 873d 9fcf 92bd
00000010: 4cf5 3a3d f219 773d 8bac 97bc 0a94 acbc
00000020: f33e b63d ace4 7d3d 8022 dcbd f171 6fbd
00000030: 18d8 9dbd 3ddd 1dbd 0043 c5bd 86ce 05bd
00000040: 5f20 01bd 397e c93d ef73 a13c 399c 10be
00000050: d687 02bc 71f1 a5bd 80b5 a83d ae6e f8bd
00000060: a17d b43c 3d54 02be deae 7ebd 92ae 8b3c
00000070: d336 57bd a236 b1bc 9e73 70bd 971f 9dbd
00000080: 0d0f 7f3d 52b3 933d 8324 a0bd cee4 d9bd
00000090: 4267 213d 3f95 4cbc ec73 af3c e022 d53c
000000a0: 999d 543d edf9 8fbd f79c ecbd 2a56 96bd
000000b0: b23d 6e3d e2a2 b0bd 6e42 6ebd 18b7 bebd
000000c0: 4b84 3c3d fe2a a43c 7acb 423d f86c c8bd
000000d0: 62b3 efbc da5b 963d 38c0 11be 3319 74bd
000000e0: c0a1 a33c b132 96bd 9416 bbbc d99f 1d3d
000000f0: a126 6ebd fe69 06be 7243 8f3d 2792 07bd

bn4/beta f4 [32]
-0.008287276 0.14579727 0.025305796 0.05308358 0.025118824 0.106486484 0.119236656 0.090321265
0.017447444 0.12336029 0.11700104 0.070532486 0.039139997 0.03555162 0.101587586 0.051974013
0.124384 0.05486444 0.10999801 0.09401134 0.08018512 0.1110252 0.021530831 0.034713067
0.057920046 0.05841812 0.04648889 0.109725446 0.14609665 0.01384895 0.0902651 0.12296239
00000000: 5bc7 07bc e14b 153e 1a4e cf3c 2b6e 593d
00000010: fec5 cd3c 9615 da3d 5932 f43d 5bfa b83d
00000020: f1ed 8e3c 52a4 fc3d 3e9e ef3d 5673 903d
00000030: 4351 203d 939e 113d 270d d03d b4e2 543d
00000040: 0abd fe3d 89b9 603d a346 e13d 0489 c03d
00000050: 1938 a43d 2e61 e33d 6d61 b03c 4a2f 0e3d
00000060: 923d 6d3d d747 6f3d 226b 3e3d bcb7 e03d
00000070: 5c9a 153e b5e6 623c e9dc b83d b5d3 fb3d

conv1_2/W f4 [64, 64, 3, 3]
-0.05012553 0.07836766 0.021550959 0.04845891 -0.026121974 -0.058679946 0.0058679185 -0.0015205824
-0.0910351 0.061063055 -0.0035776694 0.071180485 -0.024092948 0.026195545 0.052661125 -0.050420366
-0.05162079 -0.03779318 -0.008898519 -0.053901028 0.07287113 -0.017151622 0.038825765 0.033882827
-0.052114397 0.03434313 -0.086869664 -0.044343535 0.074428074 -0.02789324 -0.014863925 -0.08642926
-0.050936397 0.025265707 0.01490244 -0.01411909 -0.027541576 0.01140367 -0.041465543 -0.009510126
-0.042748403 -0.008961751 0.03337859 -0.0023322925 0.045330793 -0.021791825 -0.03629002 -0.051278863
-0.003378456 0.0030844829 0.017982015 0.09723405 -0.018008668 0.043532997 0.0058153733 0.06600188
0.009387916 -0.017857473 -0.007465208 -0.08687514 0.07286405 0.050755844 0.004377848 -0.047564663
-0.03542223 0.016342578 -0.040203054 -0.019644482 0.04847527 -0.090191916 0.0011130701 -0.0564188
-0.025083924 0.029516354 0.0522194 0.013532595 -0.049591385 -0.03172528 0.01254004 -0.021948623
-0.06303596 -0.057379704 -0.002415006 0.007708451 0.06057036 -0.09502821 0.011731767 0.011330135
-0.062250398 0.087829836 -0.019160083 -0.018515877 -0.029960021 -0.03593391 0.03481988 0.06993978
-0.027026175 0.022312371 -0.011497581 0.03456516 0.035298195 -0.02888477 0.002302266 -0.07478686
0.031278085 0.047533114 0.00739341 -0.05122757 -0.0660847 -0.06820377 -0.033177003 -0.0052078315
0.0174117 -0.07068021 0.07906268 -0.00947442 0.040580083 -0.06484576 -0.013112744 -0.021606019
-0.061383016 -0.021385247 -0.006680283 -0.07412928 -0.034621213 -0.045121204 -0.020823937 0.0078030396
-0.06752708 0.022428416 -0.029006395 0.07184097 -0.0020778708 -0.044777393 0.117066704 -0.03167703
-0.050362747 -0.038435873 -0.021864131 -0.03599116 -0.011839581 -0.06447679 -0.026394974 -0.10515388
-0.009159852 -0.038819984 -0.0084521 -0.039222352 -0.034710657 -0.1127569 0.009071235 0.013530468
-0.082635485 -0.06854214 0.0097718015 -0.037206616 0.044152968 -0.038766287 0.10381193 -0.03482468
-0.07284933 -0.03162856 -0.017093316 -0.06843404 -0.014056552 -0.015995285 -0.03324914 -0.06595717
0.025690258 -0.015542712 -0.08166758 -0.09191034 -0.08634184 -0.051125802 -0.018829336 0.011477882
-0.022761088 -0.06270403 -0.016430609 -0.031868268 -0.02905074 -0.058586743 -0.01969123 0.010338103
-0.12757953 -0.03723608 0.021138197 -0.014288753 0.0036446438 0.0673006 -0.035456643 -0.00935478
0.051684204 -0.04315678 0.045189586 0.011218636 0.0028719734 0.053221494 -0.081627116 0.028214386
0.043409947 -0.08745814 -0.026346134 -0.031036124 0.0672511 0.047884423 -0.06106342 0.048852477
-0.02012597 0.06327009 0.0040253657 -0.004419922 -0.09884927 -0.024082627 0.011731784 0.03966412
-0.0064637987 -0.020942144 0.0234953 0.017489795 0.011794683 0.038400635 -0.071013115 -0.061589494
0.030196948 -0.027105335 0.032362957 0.07926084 -0.030616308 0.044768568 -0.017973553 -0.08243306
0.009035973 0.04667414 -0.013387824 0.034336723 -0.0006837087 -0.029353991 0.027881242 -0.100042224
-0.03993369 0.022238644 0.0018382194 -0.009514519 0.04261119 -0.018332599 0.02975527 -0.03984806
0.034872532 0.015912194 0.03799844 0.019287456 -0.033009667 0.03871601 -0.063667394 -0.010028415
00000000: 6e50 4dbd 397f a03d a38b b03c da7c 463d
00000010: c0fd d5bc 625a 70bd ab47 c03b 474e c7ba
00000020: 9c70 babd 411d 7a3d 5577 6abb 13c7 913d
00000030: 935e c5bc 0a98 d63c 31b3 573d 9685 4ebd
00000040: 5270 53bd 06cd 1abd 18cb 11bc 53c7 5cbd
00000050: 763d 953d 8f81 8cbc c407 1f3d b8c8 0a3d
00000060: e875 55bd 62ab 0c3d b9e8 b1bd 91a1 35bd
00000070: bf6d 983d 5d80 e4bc d287 73bc d301 b1bd
00000080: afa2 50bd 07fa ce3c 5d29 743c c153 67bc
00000090: df9e e1bc 75d6 3a3c c6d7 29bd 5cd0 1bbc
000000a0: f318 2fbd 4fd4 12bc fdb7 083d 60d9 18bb
000000b0: c8ac 393d c584 b2bc d8a4 14bd c909 52bd
000000c0: 1669 5dbb 0925 4a3b 054f 933c a522 c73d
000000d0: ea86 93bc a84f 323d e38e be3b fe2b 873d
000000e0: c6cf 193c d649 92bc b49e f4bb 98eb b1bd
000000f0: bf39 953d 5ce5 4f3d 0d74 8f3b 2ad3 42bd
00000100: e616 11bd dfe0 853c f5ab 24bd 77ed a0bc
00000110: 018e 463d 8ab6 b8bd 6fe4 913a 6617 67bd
00000120: cd7c cdbc 48cc f13c 02e4 553d d1b7 5d3c
00000130: 5620 4bbd 5ef2 01bd bd74 4d3c 99cd b3bc
00000140: ff18 81bd fb06 6bbd 1445 1ebb 2c97 fc3b
00000150: a018 783d 269e c2bd 9936 403c 08a2 393c
00000160: 46fa 7ebd 21e0 b33d 9bf5 9cbc 9cae 97bc
00000170: b86e f5bc 702f 13bd 4a9f 0e3d 963c 8f3d
00000180: ff65 ddbc 6fc8 b63c 5a60 3cbc 3294 0d3d
00000190: d794 103d c19f ecbc 9de1 163b da29 99bd
000001a0: 731d 003d 15b2 423d 6b44 f23b 00d4 51bd
000001b0: 6a57 87bd 6bae 8bbd 9ce4 07bd 75a6 aabb
000001c0: fba2 8e3c c9c0 90bd 9deb a13d 993a 1bbc
000001d0: 4d37 263d dbcd 84bd d6d6 56bc 1bff b0bc
000001e0: c26c 7bbd 1d30 afbc 47e6 dabb 18d1 97bd
000001f0: f9ce 0dbd 03d1 38bd f696 aabc a4b0 ff3b
00000200: a34b 8abd ccbb b73c d29e edbc 5c21 933d
00000210: e32c 08bb 8068 37bd abc0 ef3d c6bf 01bd
00000220: 2b49 4ebd ef6e 1dbd 681c b3bc 776b 13bd
00000230: cdfa 41bc 680c 84bd 463a d8bc eb5a d7bd
00000240: 3413 16bc b401 1fbd ad7a 0abc 9ea7 20bd
00000250: c32c 0ebd 17ed e6bd 849f 143c e5ae 5d3c
00000260: cb3c a9bd d25f 8cbd e819 203c f765 18bd
00000270: bed9 343d 66c9 1ebd 599b d43d 53a4 0ebd
00000280: 0832 95bd f38c 01bd 4807 8cbc 2527 8cbd
00000290: 744d 66bc 8b08 83bc 4030 08bd 8e14 87bd
000002a0: 6074 d23c dca6 7ebc 5541 a7bd 7d3b bcbd
000002b0: fed3 b0bd 4a69 51bd fb3f 9abc ba0d 3c3c
000002c0: 7675 babc f86a 80bd 7c99 86bc 4d88 02bd
000002d0: d1fb edbc a7f8 6fbd 814f a1bc 2661 293c
000002e0: 35a4 02be dc84 18bd 032a ad3c 601b 6abc
000002f0: fada 6e3b e6d4 893d fc3a 11bd cb44 19bc
00000300: d1b2 533d 2ac5 30bd b718 393d 5fce 373c
00000310: b837 3c3b c8fe 593d 1e2c a7bd db21 e73c
00000320: a1ce 313d 411d b3bd d9d3 d7bc 783f febc
00000330: f2ba 893d 7522 443d a31d 7abd 8919 483d
00000340: 38df a4bc c093 813d 37e7 833b fed4 90bb
00000350: 7c71 cabd ee48 c5bc ab36 403c d876 223d
00000360: 46ce d3bb dc8e abbc 3779 c03c c246 8f3c
00000370: 7c3e 413c fc49 1d3d 536f 91bd 4445 7cbd
00000380: 975f f73c 020c debc 058f 043d 8253 a23d
00000390: 0dcf fabc 3f5f 373d 463d 93bc aad2 a8bd
000003a0: 9e0b 143c 622d 3f3d 9b58 5bbc aaa4 0c3d
000003b0: ea3a 33ba c877 f0bc 3467 e43c f0e2 ccbd
000003c0: 8291 23bd d12d b63c 68f0 f03a c9e2 1bbc
000003d0: 1289 2e3d 3f2e 96bc 53c1 f33c b837 23bd
000003e0: 80d6 0e3d 4a5a 823c 41a4 1b3d ba00 9e3c
000003f0: 2535 07bd ae94 1e3d 0d64 82bd 394e 24bc

bn3/gamma f4 [64]
1.0345504 1.0241561 1.0000788 1.0090775 1.0018421 1.029357 1.0417405 1.0318891
0.996786 0.9948179 1.0473608 1.0570266 0.9837379 1.0399494 0.99410474 1.0183951
1.0216643 0.99859756 1.0023105 0.99960965 0.98898894 1.0979949 1.0281081 0.9944361
1.0125558 1.0240014 0.99444765 1.0022839 1.0134516 1.0276811 1.0113757 1.069196
0.9877738 0.99499947 0.9999151 0.98739636 0.9748881 0.9880905 0.96472687 1.0496931
0.98113775 0.9818072 1.0047433 1.0205884 1.0077903 1.0162948 1.0009136 0.9968346
0.99660546 1.0194334 1.0178407 1.0219012 1.0453119 1.0844897 1.0231804 1.0014843
1.0041033 1.0053823 0.97933275 1.0578465 1.0341407 0.99772435 1.0049595 1.0055201
00000000: 266c 843f 8c17 833f 9502 803f 7429 813f
00000010: 5d3c 803f f8c1 833f c157 853f f114 843f
00000020: 5e2d 7f3f 63ac 7e3f eb0f 863f a64c 873f
00000030: 3fd6 7b3f 101d 853f a67d 7e3f c55a 823f
00000040: e5c5 823f 17a4 7f3f b64b 803f 6be6 7f3f
00000050: 612e 7d3f 198b 8c3f 0c99 833f 5d93 7e3f
00000060: 6e9b 813f 7a12 833f 1f94 7e3f d74a 803f
00000070: c8b8 813f 0e8b 833f c274 813f 6adb 883f
00000080: bede 7c3f 49b8 7e3f 70fa 7f3f 02c6 7c3f
00000090: 4492 793f 80f3 7c3f 57f8 763f 585c 863f
000000a0: d82b 7b3f b757 7b3f 6e9b 803f a4a2 823f
000000b0: 46ff 803f f315 823f f01d 803f 8d30 7f3f
000000c0: 8921 7f3f cb7c 823f 9b48 823f a9cd 823f
000000d0: c8cc 853f 8fd0 8a3f 93f7 823f a330 803f
000000e0: 7586 803f 5eb0 803f 8db5 7a3f 8467 873f
000000f0: b95e 843f dd6a 7f3f 83a2 803f e2b4 803f

conv1_7/W f4 [2, 32, 3, 3]
0.08390678 0.023713151 0.06886022 -0.18584228 -0.050996646 -0.021055786 0.042307846 -0.015503649
-0.036318436 -0.031952944 -0.057565328 -0.07535944 0.15081272 0.11674263 -0.009396444 0.033255424
-0.021099031 0.1444297 -0.006224944 0.030513082 -0.044245027 0.02003549 0.0837846 -0.030391436
0.017939178 0.098243766 0.19146349 0.043190464 0.09284649 -0.021816257 0.06485886 0.01789154
0.07728683 0.17619601 0.14938548 0.107496336 -0.08225472 -0.039014705 -0.07904088 0.06291284
0.044418745 -0.0587489 0.049079087 0.05591417 0.11683206 0.13828593 -0.047271624 -0.04267668
0.04780762 0.27886418 0.0827551 0.08921751 0.11981904 -0.03647819 0.018868703 0.084456734
-0.0837323 -0.006659361 0.050973568 0.06758598 0.1251397 0.093286484 0.030063149 0.037817676
-0.0533492 0.09865366 -0.04096654 0.07372819 0.05576643 -0.02945506 0.050218932 -0.022668783
0.047307644 0.023488676 -0.039922383 0.038966805 -0.047623027 -0.063746855 0.029152252 -0.1468523
0.12770389 -0.10250837 0.08402695 0.1799026 0.15347236 0.048285052 -0.04302104 0.18898928
-0.119811356 0.16711594 0.081897065 0.09405945 0.018908156 0.18883823 0.09247097 0.057815835
-0.0746901 0.023014616 0.06613509 0.03556708 0.0913004 0.014321966 0.08413282 -0.07842507
0.042471725 -0.033905637 0.026156876 0.11067495 0.02660273 -0.0014407749 0.038494322 0.06225391
0.052754257 0.115168355 -0.040492013 -0.12966579 0.049652424 0.016060898 0.06636875 0.079253726
0.06898562 0.001278754 0.021354174 0.04153169 -0.009689488 0.038910158 0.09561628 0.09269588
-0.16898696 -0.17246307 0.0435563 0.07671578 0.049975134 0.095929585 -0.027984375 0.051632475
0.041416146 0.05611798 0.1619871 0.0077056903 0.08774228 -0.012701958 -0.11792426 0.053073466
0.10557319 0.0541059 0.12427996 0.18573101 0.007550231 0.05694124 0.011286797 -0.027313685
-0.17454773 -0.0113901235 0.039338928 -0.12604222 -0.0489149 0.043219723 0.043431908 0.036338188
0.047407288 0.04763207 0.055466637 0.21341059 0.05000112 0.046168387 0.1739044 -0.024473444
0.013245121 0.14678304 0.038392264 -0.05507254 -0.016128333 0.10160146 -0.053619877 0.21999621
0.06373496 0.050939094 0.051613152 0.078502886 0.008121512 0.08230236 0.061658356 0.063768245
0.08311368 0.0101574585 0.113974296 0.10358868 0.17757161 0.078815185 0.061286088 -0.045214534
-0.08614513 0.13201012 0.17943531 0.08489465 0.13038974 0.10661457 -0.0016954365 0.084226735
-0.047064666 0.064295314 -0.14751145 0.032746974 0.0039814394 -0.05467398 -0.016581703 -0.012255199
-0.014018731 -0.046044577 0.0008005465 0.121441215 -0.0604425 0.04825434 0.019098448 0.118463725
-0.020909462 0.087973155 0.11886857 0.19022933 0.12487911 0.031943053 0.094920926 0.0063420585
-0.0069447337 0.13592549 0.07558312 0.06324845 0.13530464 0.02530757 0.06979041 0.03893556
-0.16745836 -0.015959807 -0.041612536 0.015566443 0.085348874 -0.100642465 -0.1021299 -0.0029314691
0.051842898 -0.030136041 0.08815535 0.11706032 0.0639077 0.11700902 0.0400835 0.029252738
0.04342966 0.053581458 0.09105941 0.021201422 0.14846848 0.008656947 0.06766719 0.08430643
00000000: 51d7 ab3d 1542 c23c 9606 8d3d 704d 3ebe
00000010: dce1 50bd 2f7d acbc fe4a 2d3d 0403 7ebc
00000020: a4c2 14bd 17e1 02bd 9fc9 6bbd 0d56 9abd
00000030: a66e 1a3e c316 ef3d 8bf3 19bc d736 083d
00000040: e0d7 acbc 61e5 133e 9dfa cbbb 92f6 f93c
00000050: 463a 35bd 7821 a43c 4397 ab3d 76f7 f8bc
00000060: 2ff5 923c 0734 c93d 010f 443e 7ce8 303d
00000070: 4d26 be3d 02b8 b2bc b9d4 843d 4791 923c
00000080: 8f48 9e3d ba6c 343e 82f8 183e 0a27 dc3d
00000090: 2a75 a8bd e2cd 1fbd 2fe0 a1bd 72d8 803d
000000a0: 6ef0 353d b0a2 70bd 2707 493d 4206 653d
000000b0: a645 ef3d d49a 0d3e e49f 41bd becd 2ebd
000000c0: ecd1 433d 49c7 8e3e 827b a93d abb7 b63d
000000d0: af63 f53d 286a 15bd 8a92 9a3c a7f7 ac3d
000000e0: d77b abbd c536 dabb a9c9 503d 856a 8a3d
000000f0: 9f24 003e fc0c bf3d fe46 f63c b5e6 1a3d
00000100: b184 5abd ee0a ca3d 88cc 27bd cefe 963d
00000110: 576b 643d bd4b f1bc 5eb2 4d3d e2b3 b9bc
00000120: a9c5 413d 536b c03c a785 23bd a89b 1f3d
00000130: 5d10 43bd b68d 82bd b4d0 ee3c 7360 16be
00000140: cfc4 023e e9ef d1bd 5216 ac3d 6338 383e
00000150: dc27 1d3e 8cc6 453d d436 30bd 6886 413e
00000160: a85f f5bd 7120 2b3e a6b9 a73d 3ea2 c03d
00000170: 47e5 9a3c cf5e 413e 6b61 bd3d 4cd0 6c3d
00000180: 20f7 98bd 2689 bc3c d671 873d c9ae 113d
00000190: b4fb ba3d aea6 6a3c d44d ac3d 539d a0bd
000001a0: d5f6 2d3d a3e0 0abd f246 d63c 8ca9 e23d
000001b0: f8ed d93c 62d8 bcba 39ac 1d3d f5fd 7e3d
000001c0: d914 583d 63dd eb3d f4da 25bd 1cc7 04be
000001d0: 5760 4b3d 2592 833c 57ec 873d c74f a23d
000001e0: 5548 8d3d dd9b a73a f3ee ae3c 221d 2a3d
000001f0: a9c0 1ebc 4260 1f3d 78d2 c33d 56d7 bd3d
00000200: eb0a 2dbe 299a 30be 1768 323d 2a1d 9d3d
00000210: bab2 4c3d bb76 c43d 7d3f e5bc 937c 533d
00000220: faa3 293d f8db 653d f2df 253e 0480 fc3b
00000230: 39b2 b33d e01b 50bc 4682 f1bd 9063 593d
00000240: c236 d83d 269e 5d3d 7e86 fe3d 4530 3e3e
00000250: ee67 f73b 383b 693d 42ec 383c f3c0 dfbc
00000260: a4bc 32be a49d 3abc db21 213d 3611 01be
00000270: fd5a 48bd 2a07 313d a8e5 313d 5ad7 143d
00000280: 252e 423d d819 433d fc30 633d 4e88 5a3e
00000290: f9cd 4c3d 101b 3d3d ff13 323e 887c c8bc
000002a0: 1002 593c 4b4e 163e 3541 1d3d be93 61bd
000002b0: 911f 84bc 6d14 d03d 84a0 5bbd b046 613e
000002c0: 7a87 823d 83a5 503d 5068 533d 1fc6 a03d
000002d0: 1710 053c 248e a83d 798d 7c3d ed98 823d
000002e0: 8137 aa3d 786b 263c 5b6b e93d 4d26 d43d
000002f0: 55d5 353e db69 a13d 1f07 7b3d e032 39bd
00000300: dc6c b0bd a92d 073e e4bd 373e 3fdd ad3d
00000310: e384 053e bd58 da3d 6939 deba 117f ac3d
00000320: e1c6 40bd 43ad 833d 3e0d 17be b121 063d
00000330: bc76 823b d3f1 5fbd 5ad6 87bc 08ca 48bc
00000340: d2ae 65bc 3d99 3cbd c4db 513a 2cb6 f83d
00000350: 8e92 77bd 58a6 453d 5974 9c3c 1c9d f23d
00000360: 524a abbc 452b b43d 5d71 f33d 7acb 423e
00000370: 9ec0 ff3d b8d6 023d e765 c23d 0bd1 cf3b
00000380: a690 e3bb 0d30 0b3e 53cb 9a3d 6788 813d
00000390: 4d8d 0a3e d251 cf3c 46ee 8e3d e57a 1f3d
000003a0: 347a 2bbe 24be 82bc e871 2abd 650a 7f3c
000003b0: 64cb ae3d a31d cebd 7b29 d1bd e41d 40bb
000003c0: 3859 543d dcdf f6bc cb8a b43d 52bd ef3d
000003d0: 0ae2 823d 6da2 ef3d 992e 243d 70a3 ef3c
000003e0: 4de3 313d 3b78 5b3d 5b7d ba3d 9bae ad3c
000003f0: 1f08 183e ded5 0d3c 1995 8a3d d9a8 ac3d
