loto6_cnn/model/loto6_20_1000.model (npz, 468580 bytes, 38 tensors)

conv1_2/b f4 [64]
00000000: 4ea8 ffb8 833b bab8 141d 5738 eb4c 10b9
00000010: 46c6 2136 0842 c438 fc4c 21b8 57de 3db9
00000020: 7633 cf37 2414 bf39 583d 2db8 ae05 57b9
00000030: f751 8437 7497 7737 93a3 6ab7 8259 c5b8
00000040: 7260 e9b7 50c7 88b7 c573 f637 6be9 d8b6
00000050: b407 b638 8268 5c38 bc1a 3737 016b cfb8
00000060: 3580 45b8 c9c0 9db7 ad36 a3b6 4710 c8b7
00000070: d7f6 bdb7 ab1f de38 0878 3137 00a8 e4b5
00000080: ae1c 9537 dc49 deb6 d92b 4bb8 d658 09b9
00000090: fb7a ab38 e39d 2eb9 38ef 9f36 97f7 28b8
000000a0: 6c62 8f38 4999 04b8 5b87 be37 d669 56b7
000000b0: 90b6 6737 ab3e cb37 e43a 1438 f6b5 a7b8
000000c0: 680d cdb7 3898 0f38 9af2 5238 0a6b ec37
000000d0: 826c 0a36 362d 4238 2ad1 1f39 0b55 32b9
000000e0: 075b 01b9 90d8 8ab6 717c 9438 3554 9735
000000f0: f51a 3636 59d1 4338 f5f4 ccb8 c18f e1b7
-0.00012190697 -8.880256e-05 5.1287076e-05 -0.00013761564 2.410628e-06 9.3583076e-05 -3.845709e-05 -0.00018107273
2.4700286e-05 0.00036445365 -4.1303545e-05 -0.00020506114 1.5773794e-05 1.475761e-05 -1.3985572e-05 -9.410364e-05
-2.7820675e-05 -1.6305275e-05 2.9379395e-05 -6.464475e-06 8.679871e-05 5.2549418e-05 1.0913875e-05 -9.89046e-05
-4.7087862e-05 -1.8805631e-05 -4.8641436e-06 -2.3849438e-05 -2.26455e-05 0.000105916835 1.0577969e-05 -1.7036218e-06
1.777554e-05 -6.624714e-06 -4.8439808e-05 -0.00013098432 8.176822e-05 -0.0001665275 4.766418e-06 -4.0284907e-05
6.837104e-05 -3.161401e-05 2.2712795e-05 -1.2780036e-05 1.3811179e-05 2.4228668e-05 3.5340796e-05 -7.9970734e-05
-2.4444147e-05 3.423562e-05 5.0293842e-05 2.8183236e-05 2.0626762e-06 4.629531e-05 0.00015241341 -0.00017007084
-0.00012336309 -4.1379317e-06 7.080369e-05 1.1274884e-06 2.7135804e-06 4.6686593e-05 -9.773105e-05 -2.688903e-05

conv1_4/b f4 [32]
00000000: 3011 ec38 5b07 8eb8 85ed 94b9 7666 2639
00000010: c3c4 8039 97b9 2bb9 04ee 1e38 e68c d237
00000020: 42b8 19b9 26f7 48b7 4687 8ab9 b709 f637
00000030: 7190 de37 2399 ba38 e937 0339 9032 10b9
00000040: cfc4 0fb9 9c29 32b5 4dfc f438 1c5b 85b9
00000050: 00f5 d238 48f1 b1b8 f20e e1b8 ca83 d339
00000060: 547c b935 5513 16b7 a5e1 beb7 85d9 11b8
00000070: 0d5b 85b8 6f35 eab8 37d9 97b8 11f5 05b9
0.00011256558 -6.772458e-05 -0.00028405726 0.00015869163 0.0002456066 -0.00016376968 3.7891805e-05 2.5099562e-05
-0.00014659858 -1.1978473e-05 -0.00026422198 2.9330009e-05 2.6531723e-05 8.897695e-05 0.00012513962 -0.00013751746
-0.0001371086 -6.6370717e-07 0.00011681821 -0.0002543562 0.00010059215 -8.48496e-05 -0.0001073162 0.00040343247
1.3819758e-06 -8.945198e-06 -2.2754839e-05 -3.4773275e-05 -6.358894e-05 -0.00011167942 -7.2407005e-05 -0.00012775163

bn4/avg_mean f4 [32]
00000000: c635 02bf 698b 54c0 606b df3f 45fa 1cc0
00000010: ba0b 84bd 8a37 c5bf 24ce 00c0 d41c 813e
00000020: 5152 22bf 7371 37bf 3a25 4ac0 c26e 9abf
00000030: 84cb 08bd 46db a73e 6c79 8cbf 0777 0bc0
00000040: 229b 0fbf 7206 9bbf 8f7f 84c0 0804 3fc0
00000050: a6bf f2be 0fec a63c 1669 50bd a9d7 efbf
00000060: 527a e3be 3f58 83bf 4f1a a7be 7e73 d63d
00000070: 8b35 5dc0 bbb5 9d3f 3e18 9cbe 42d4 a03e
-0.508633 -3.321009 1.7454643 -2.4527752 -0.06447549 -1.5407574 -2.0125818 0.25217307
-0.63406855 -0.71657485 -3.1585221 -1.2065051 -0.033397213 0.3278448 -1.0974555 -2.1791399
-0.5609609 -1.2111342 -4.140571 -2.984621 -0.4741184 0.020376233 -0.050881468 -1.8737689
-0.4442926 -1.0261306 -0.3263726 0.10471247 -3.456393 1.2321085 -0.30487245 0.3141194

conv1_5/b f4 [32]
00000000: 5971 03b8 c261 21b8 bd39 d438 f381 99b8
00000010: c665 3039 05f7 c038 847c 0a38 e4ca 0d39
00000020: 23c5 a738 1d79 fd37 87d0 dfb8 ed8b 35b8
00000030: d46c eeb7 a7ae 89b9 463f a337 e3fc 2838
00000040: df60 a138 a317 60b8 afec 1339 bf7c c2b8
00000050: b2c0 1839 322d bc37 f02f 0338 d0a6 a439
00000060: 0922 8238 e08d 2d3a aead 0fb9 5530 6939
00000070: 3bfd d2b8 7068 8f38 706f aeb7 9d4e c5b7
-3.1338397e-05 -3.8476435e-05 0.00010119702 -7.3198134e-05 0.00016822582 9.2012844e-05 3.3017728e-05 0.0001352239
7.9999e-05 3.0216348e-05 -0.0001067231 -4.328408e-05 -2.8422488e-05 -0.00026260802 1.9460578e-05 4.028984e-05
7.695122e-05 -5.3427775e-05 0.00014107184 -9.273877e-05 0.00014567634 2.2432392e-05 3.127748e-05 0.00031404803
6.2052226e-05 0.00066205673 -0.00013702243 0.00022238617 -0.00010060748 6.838224e-05 -2.0794309e-05 -2.3520837e-05

bn5/avg_mean f4 [32]
00000000: 8cc3 62bc c9ab 41be e926 b2bd ec34 25bf
00000010: e0de 113e b61c 85bf 1711 c1be 7184 f73e
00000020: 4f35 d0bd cf23 243e c50e 84be 7d65 fbbe
00000030: 678e 993d a789 a7be 2a7f 1ebe 6d23 48bd
00000040: 1aba dd3e 5cb9 4cbe 2814 5abf f40b 94be
00000050: 52ea 00bc 9255 09bf e556 b8be e218 213f
00000060: a4ef 8cbe 038e 473f 8317 4abe 3eec 1bbf
00000070: 8e13 a3be 2c18 c83d 5c37 ffbe dc6f 9dbe
-0.013840567 -0.18913187 -0.08698828 -0.6453388 0.14245176 -1.0399387 -0.3770835 0.48343232
-0.10166418 0.16029285 -0.25792518 -0.49100867 0.07497864 -0.32722208 -0.15478197 -0.04886191
0.43306047 -0.19992584 -0.85187006 -0.2891537 -0.007868366 -0.53646195 -0.36003795 0.62928593
-0.2752658 0.7795107 -0.19735532 -0.6090735 -0.31850857 0.097702354 -0.49846923 -0.30749404

bn1/gamma f4 [64]
00000000: 5098 7a3f 9cd4 7a3f f0f1 803f fb31 7f3f
00000010: c13f 783f 9a00 813f 92d5 7c3f 7416 7d3f
00000020: adc8 7c3f c3d7 7f3f 80cd 803f a282 7f3f
00000030: edd2 7d3f 1be7 7f3f 7b70 7c3f 9c47 823f
00000040: 7328 7a3f c6e6 7b3f c519 7f3f af04 823f
00000050: a0f8 843f 95ea 803f 6d89 803f ff05 7f3f
00000060: b6f4 813f 28d9 7f3f 30d5 7a3f fcb3 7e3f
00000070: 441b 793f 4e1b 7f3f 158f 733f af2c 7c3f
00000080: 1596 7a3f 8a8a 813f 3906 793f 4c7f 7d3f
00000090: ef11 803f 5556 883f efe8 803f ce61 823f
000000a0: 062f 7b3f a9fe 783f b032 803f 89fc 793f
000000b0: 30b2 803f edc4 793f 3e7c 803f 5b90 803f
000000c0: aa9a 7a3f 45f2 7d3f 0338 7c3f e857 803f
000000d0: fce0 7c3f ec57 773f 7fec 7c3f cd82 833f
000000e0: 763f 7a3f 4c67 773f aa50 7b3f 9f66 7c3f
000000f0: 8997 793f 410f 823f 5128 783f 39ef 7a3f
0.9788866 0.97980666 1.0073833 0.9968564 0.9697228 1.0078309 0.9876338 0.98862386
0.98743707 0.999386 1.0062714 0.99808705 0.9914997 0.99962014 0.9860913 1.0178103
0.9771797 0.9839901 0.99648696 1.0157679 1.0388374 1.0071589 1.0041939 0.99618524
1.0152805 0.9994073 0.9798155 0.99493384 0.9730723 0.9965104 0.951402 0.9850568
0.97885257 1.0120404 0.9727512 0.99022365 1.0005473 1.0651346 1.0071086 1.0186098
0.9811863 0.9726358 1.0015469 0.97650963 1.0054379 0.9756611 1.0037916 1.0044054
0.9789225 0.991978 0.9852297 1.0026827 0.987808 0.96618533 0.98798364 1.0274292
0.97753084 0.96641994 0.9816996 0.9859409 0.9749685 1.0160905 0.9693652 0.98021275

conv1_3/b f4 [64]
00000000: 7c4a 9cb7 f1ed c637 0e64 58b7 0aa5 b7b7
00000010: b72d 3538 9d91 1a37 0827 ddb8 38ac dc36
00000020: 3f01 3438 2d93 d737 4159 7a37 79ad 4c38
00000030: 52e6 d537 7145 8138 805f 9fb8 a9ae 01b9
00000040: 4511 eeb6 f7a7 0939 bcec 6837 35f3 2a38
00000050: 65f5 eb37 0679 c438 94e9 02b8 8dd4 8936
00000060: 5cc5 aa37 ace2 c737 4df9 1538 38be 5238
00000070: e99f 18b7 1bbc 2d37 ac22 04b8 f576 ea38
00000080: 1bd5 d3b6 c7e1 a7b7 c839 04b8 cb19 d6b7
00000090: 85ae cc38 54d4 08b7 b654 0eb6 d9e5 a0b6
000000a0: 6e53 a1b7 c590 eb38 1c04 4b38 a68c 87b7
000000b0: 45f5 dab7 7647 a8b7 2620 b6b8 3e90 e8b7
000000c0: 6833 d6b8 257b 02b8 1b6a d3b7 e541 23b8
000000d0: c16a 4836 92ca 2ab8 d028 11b8 fe9c 0738
000000e0: d571 9538 45cc 6cb7 129d ceb8 5809 5db7
000000f0: 0a24 d8b7 887f ac37 6033 c1b7 f5af 9f38
-1.8631334e-05 2.371424e-05 -1.2897899e-05 -2.1892152e-05 4.3196338e-05 9.2130185e-06 -0.00010545371 6.57656e-06
4.2916505e-05 2.5698531e-05 1.4921942e-05 4.879895e-05 2.549883e-05 6.164134e-05 -7.599499e-05 -0.00012367465
-7.094963e-06 0.0001312791 1.3883397e-05 4.0757663e-05 2.8128454e-05 9.368551e-05 -3.1211952e-05 4.1076623e-06
2.0357482e-05 2.3828201e-05 3.5756548e-05 5.0245057e-05 -9.097138e-06 1.03554e-05 -3.1503543e-05 0.00011180147
-6.3130988e-06 -2.0013087e-05 -3.1525065e-05 -2.5522799e-05 9.759985e-05 -8.155668e-06 -2.1208957e-06 -4.7951294e-06
-1.9231546e-05 0.00011232639 4.84028e-05 -1.6158749e-05 -2.6101838e-05 -2.0060437e-05 -8.6844244e-05 -2.7723723e-05
-0.0001021389 -3.1109103e-05 -2.520257e-05 -3.8923597e-05 2.9864461e-06 -4.0719817e-05 -3.4608704e-05 3.233272e-05
7.1260765e-05 -1.4114256e-05 -9.852102e-05 -1.3174802e-05 -2.5765989e-05 2.0563384e-05 -2.3031316e-05 7.6144854e-05

bn2/avg_var f4 [64]
00000000: 74a6 d43e 14c2 413f aa08 e73e cba5 1e3f
00000010: e8c1 1a3f a5cd db3e f477 f53e c1d8 d03e
00000020: a6cb e23e 329a db3e 4c28 093f 98db fb3e
00000030: 7719 ea3e 4ee4 e13e 31a5 8f3e dfcb 243f
00000040: bb87 193f ec7c ae3e c161 c93e 3bbd 883f
00000050: c70b ad3e 25b0 bd3e e23e bc3e c8e0 063f
00000060: b434 d93e 706d bc3e 2a87 263f f8a8 443f
00000070: 0cf5 243f 7e42 2c3f 4225 0e3f 57b7 b73e
00000080: 28bc 523f bb79 423f 0299 063f 8936 253f
00000090: a9ed b73e fa44 9d3e a2da 223f d65d 963e
000000a0: 5e6f d93e 9285 903e 13d8 0e3f a027 0b3f
000000b0: 99fc 073f 50d4 df3e 730b 043f 7d4e c23e
000000c0: ea38 1a3f 2a44 0f3f 44ba 383f 8e9f bc3e
000000d0: 860d d43e 2c0b f03e 753f c03e 1cae 3b3f
000000e0: 3cca 023f 900d f83e ac8a 2d3f 23d5 ce3e
000000f0: c991 9e3e 0462 fa3e 2d01 0e3f 6483 fc3e
0.41533244 0.75686765 0.45123798 0.6197173 0.6045213 0.42930332 0.4794308 0.4079037
0.44295996 0.4289108 0.53577113 0.49190974 0.45722553 0.44119495 0.2805572 0.6437358
0.59972733 0.34079683 0.39332393 1.0682749 0.33798048 0.3704845 0.36766726 0.5268674
0.42423022 0.36802244 0.65049994 0.76820326 0.6443641 0.6728896 0.555256 0.35882065
0.82318354 0.75966996 0.5257722 0.6453634 0.35923508 0.30716687 0.6361486 0.29368466
0.4246778 0.28226906 0.55798453 0.5435734 0.5311981 0.4371667 0.5157997 0.37950507
0.60243094 0.55963385 0.7215922 0.3684048 0.41416568 0.46883523 0.37548414 0.73312545
0.51089835 0.48447847 0.6778972 0.40396985 0.309706 0.48902905 0.55470544 0.49318993

bn2/gamma f4 [64]
00000000: da7d 833f b99d 773f 8db3 783f 74fa 7b3f
00000010: a5f1 7e3f 15e0 823f 1eab 7e3f c57b 773f
00000020: 39e5 7a3f ea8f 7c3f 2888 7a3f 7512 833f
00000030: 78ad 7c3f cc91 7f3f e515 803f bb2e 7e3f
00000040: 99db 783f a206 7e3f a477 7b3f df60 7c3f
00000050: 00c2 833f 79fb 7c3f 3675 803f b6db 803f
00000060: 059e 813f a816 853f b787 783f 9b02 803f
00000070: 7c53 833f 41aa 783f 3756 7e3f cb2e 7f3f
00000080: 79d4 7a3f 5ff3 7e3f 332b 7d3f c2df 823f
00000090: 8d03 7e3f 8085 7d3f e31d 793f 7596 773f
000000a0: 2c5b 813f b80a 7e3f 7f2e 7e3f a086 7f3f
000000b0: 57cf 803f 8b5b 803f f2d5 813f 7f20 813f
000000c0: 0780 7e3f 0f96 823f f53f 7e3f 9322 823f
000000d0: f2f2 773f 1469 843f 9ae6 7e3f 5b54 7a3f
000000e0: 0ea7 803f 2c28 7e3f b8ba 783f 48cc 8a3f
000000f0: b64e 7d3f 4114 813f e7d0 763f 2d54 833f
1.0272782 0.9672504 0.9714897 0.98429036 0.9958747 1.0224634 0.99479854 0.9667323
0.98006016 0.98657095 0.9786401 1.0240008 0.9870219 0.99831843 1.0006682 0.99290055
0.9721008 0.9922887 0.9822943 0.98585314 1.0293579 0.98821217 1.003577 1.006705
1.0126349 1.0397539 0.97082084 1.0000795 1.0259852 0.97134787 0.99350303 0.99680775
0.9798046 0.99590105 0.9889404 1.0224535 0.9922417 0.9903183 0.9731123 0.96713954
1.0105948 0.99235106 0.992897 0.99814796 1.0063275 1.0027937 1.0143416 1.0088042
0.99414104 1.0202044 0.9931634 1.0166801 0.9685508 1.0344567 0.9957062 0.97784966
1.0050981 0.9928005 0.9715991 1.0843592 0.9894823 1.0084306 0.9641251 1.0260063

conv1_1/b f4 [64]
00000000: 9cc7 3338 09c7 0738 308f cb38 a8f8 4637
00000010: 993e aab8 295d a038 4858 cbb8 4753 bf36
00000020: 4788 adb9 5d9a 82b8 a097 e637 37bb 2a35
00000030: 02f0 2838 a992 4638 587e d5b8 b593 d9b7
00000040: ef67 a038 e429 fd38 f43c 99b8 af0e acb8
00000050: 1c82 3b38 9c40 8a37 9c54 cbb7 0580 1439
00000060: 5ed4 3938 f591 2638 282a 9d37 4742 1f38
00000070: 4c85 a938 de60 db37 3f1d e838 75be 85b8
00000080: bf54 d138 607d 2338 acfc 16b9 4b78 b7b8
00000090: 6eb4 34b9 f4f5 80b7 2929 2db8 7678 9a38
000000a0: f1e8 8337 4abc 3339 c2e5 c7b8 f855 4536
000000b0: 7fe1 b8b8 9d7a ee37 6660 2938 9cca d336
000000c0: 202f a537 c6b1 48b6 7552 c838 bc66 e137
000000d0: 2c60 cd37 f54e a8b8 66d3 a6b9 0ab6 9237
000000e0: 5e16 0b38 1297 2d38 9822 1638 f620 4838
000000f0: 84d5 2838 74a3 6bb8 20e9 39b9 08ec 9d36
4.2862826e-05 3.2371874e-05 9.706465e-05 1.18596145e-05 -8.1178914e-05 7.646747e-05 -9.696238e-05 5.7019383e-06
-0.00033098666 -6.2276355e-05 2.7488742e-05 6.360237e-07 4.0277846e-05 4.7343467e-05 -0.00010180165 -2.5937197e-05
7.648754e-05 0.00012071783 -7.306962e-05 -8.204334e-05 4.4705448e-05 1.6480968e-05 -2.4238885e-05 0.00014162071
4.430522e-05 3.9713417e-05 1.8735489e-05 3.797028e-05 8.0833765e-05 2.6151942e-05 0.000110680696 -6.3774096e-05
9.981682e-05 3.8978993e-05 -0.00014399242 -8.748526e-05 -0.00017233353 -1.537332e-05 -4.1284748e-05 7.36573e-05
1.5724889e-05 0.00017140913 -9.531855e-05 2.9405328e-06 -8.8158056e-05 2.8428907e-05 4.0382518e-05 6.311877e-06
1.9691477e-05 -2.99058e-06 9.552102e-05 2.686993e-05 2.4482688e-05 -8.025571e-05 -0.0003181949 1.7489325e-05
3.3161014e-05 4.138711e-05 3.5795005e-05 4.7714413e-05 4.0253173e-05 -5.6180594e-05 -0.0001772982 4.7064423e-06

bn1/avg_var f4 [64]
00000000: d2c1 fc3d 19ff c13e 7f58 1f3e f4f4 a53e
00000010: 1ae9 c93e 18c1 793e a8f5 ac3e 8019 b33e
00000020: 6ad7 063e 94a2 813e 2301 e13e d245 d03e
00000030: 5dc1 ca3e e4c8 3d3e 9712 4c3e e957 cc3e
00000040: 61f1 f13d 03c7 013f 1d58 b23e 94ba 623e
00000050: a5ff 893e a976 8c3e 04c1 903e 0b94 1a3e
00000060: 1c1b 843e 0978 5b3e a9b7 513e 865a af3e
00000070: c918 713e 3758 063f 8b8d db3d 6cd7 ab3e
00000080: e607 dd3d d4ce ac3e 022b 693e f7de 8a3e
00000090: 5d84 743e c43d 0e3e aa19 bf3e 2184 af3e
000000a0: f9a6 843e 357b bc3d 576b f43d 6a66 5b3e
000000b0: 4b7a c83d ba55 303e 5311 033f 1887 5c3e
000000c0: 64d2 a93e 0c2a e43e 24f9 4c3e 4f93 063e
000000d0: a1b2 d23e 0871 813e 93e2 353e c973 d83d
000000e0: a5bd 6d3e 9028 b93e 0a63 0c3f 3cd0 fc3e
000000f0: a29b 223e 90b5 823e aead 963e e81e 243e
0.12341656 0.37889937 0.15561102 0.32413447 0.39435655 0.24390066 0.3378117 0.34980392
0.13168111 0.2531935 0.4394618 0.4067827 0.3960065 0.18533665 0.19928966 0.3991082
0.118136175 0.5069429 0.3483285 0.22141486 0.26952854 0.2743428 0.2827226 0.15095536
0.25801933 0.21432509 0.20480217 0.3424875 0.23544611 0.52478355 0.107203566 0.3356279
0.10792522 0.33751547 0.22770312 0.27123234 0.23878618 0.13890749 0.37324268 0.34280494
0.2590864 0.092031874 0.11934536 0.21425787 0.097889505 0.17220202 0.5119831 0.21535909
0.33168328 0.4456333 0.20016915 0.13142131 0.41151908 0.25281549 0.17762212 0.10568959
0.23216875 0.3616376 0.5483862 0.4937762 0.15879682 0.25529146 0.29429382 0.16027415

bn2/beta f4 [64]
00000000: 126e d63c e97e 98bc 67f9 58bc b879 983a
00000010: c61a 0c3c eea9 c93c 9c9a 443c 0357 aabc
00000020: 92fe 66bb f933 85ba 16d5 5a3c f700 dc3c
00000030: 05ba 00bc 88f8 373d dc4d e13b 9979 933b
00000040: be40 90bc b610 d63c 7080 403b 5b66 cb3b
00000050: ca3e 3fb9 0303 f5bb e361 a5bc b060 023d
00000060: eaa7 0e3d bac8 2b3d 7d04 c4bb d128 ad3b
00000070: 9a70 353d ab69 81bc 0002 a93c 8edf 9c3c
00000080: 169b 11bb c4f8 5e3c 5c75 5d3a 2ceb 84bc
00000090: 3a4c 903c 7b8f de3b af2d ecbc c9b5 1d3c
000000a0: 6649 c43c b8c0 97bb 5c0c 3a3b b1a3 953c
000000b0: 12c7 41ba 7c82 3f3c d554 863c 3d3c 6f3c
000000c0: d839 2b3c c724 123d eb18 98bb 8956 433c
000000d0: c8d3 01bd 8468 3a3c 406a 4bbb b9b1 ccbb
000000e0: b2a9 f83c 30d8 d03a 4764 c2bb 9966 14bd
000000f0: 50ec 423c 9890 2ebc 186f e7bc 2c0a d83c
0.026175532 -0.018615203 -0.013243056 0.0011632955 0.008551305 0.024617162 0.011999752 -0.020793444
-0.003524695 -0.0010162584 0.013356468 0.026855929 -0.0078568505 0.044914752 0.0068757366 0.0045005796
-0.017608996 0.026131015 0.002937343 0.00620727 -0.0001823857 -0.0074771657 -0.020188278 0.03183049
0.034828104 0.041939475 -0.0059819804 0.0052844067 0.04429684 -0.015797457 0.020630836 0.019149568
-0.0022217683 0.013609115 0.0008447969 -0.01622542 0.017614473 0.0067920065 -0.028830377 0.0096258605
0.02396078 -0.004631128 0.0028388714 0.01826653 -0.00073920295 0.011688825 0.016397873 0.014601764
0.010450803 0.035679605 -0.0046416423 0.011922487 -0.03169611 0.0113774575 -0.0031038672 -0.006246772
0.030354355 0.001593357 -0.005932364 -0.036230657 0.011897162 -0.010654591 -0.028251216 0.026372038

bn4/gamma f4 [32]
00000000: 47a3 803f 5da4 913f 6bbb 823f 13d2 873f
00000010: 952f 873f f119 8d3f d842 8d3f f3ee 8b3f
00000020: 3375 853f 6d0b 8e3f cc84 8b3f c38f 863f
00000030: 3fdc 873f d751 833f 0606 8c3f cca4 843f
00000040: eeb4 8f3f c1d9 893f fe7c 8f3f b149 8c3f
00000050: ccf0 873f d282 8c3f ba4e 893f f215 863f
00000060: 99fd 853f 494e 873f 6c24 943f 441a 8a3f
00000070: 5f47 8f3f 0571 853f 06f0 8d3f 2c26 873f
1.0049828 1.1378285 1.0213445 1.0610985 1.0561396 1.1023542 1.1036024 1.0932297
1.0426391 1.1097237 1.0899901 1.0512623 1.0614089 1.025935 1.0939338 1.0362792
1.122709 1.0769578 1.121002 1.0959989 1.062036 1.0977423 1.072715 1.0475447
1.0468017 1.0570766 1.1573615 1.0789266 1.1193656 1.0425116 1.1088874 1.0558524

conv1_7/b f4 [2]
00000000: 8e17 343d 40da a63b
0.043967776 0.0050919354

conv1_6/W f4 [32, 32, 3, 3]
00000000: 9112 b8bc afe0 1fbc 0e1d 453d 0394 1fbb
00000010: e934 8fbc 0515 c83d eaf0 b93c b0e9 e6bb
00000020: 1f4c 633d 4992 cb3d 2d53 97bd 9c04 b43d
00000030: 173a 12bb 6da5 d6bc f47e e33c 2740 ca3a
00000040: 6a7d 503b 8a00 00ba cb75 8e3d af6f 92bc
00000050: bb2b 863d af4a 993c 93e5 d13d e21a 7c3c
00000060: 28f6 34bd 2491 383c 4f10 2abd 4c4b 4ebd
00000070: 4e4a 353c bc06 e63b a719 83bd e586 b93d
00000080: e076 ae3d 009c 34bc 831e fb3c 6163 b73d
00000090: 9def cbbc ced1 38bd 1d51 55bd 6a39 abbd
000000a0: 6222 8b3b e153 8cbd fd8f ebbc 8dd9 8dbc
000000b0: aac9 76bd 48de d1bd 5be8 b6bd 23e0 fcbb
000000c0: 287b 15bc b765 34bd 311e 97bd ee3e 673a
000000d0: fc05 3abd 887f 7cbd 033e 9a3d 4157 e6bb
000000e0: c739 4cbd f927 7fbd b863 36bd f3b3 65bd
000000f0: 8477 5cbc f5dc 5dbd 383e 08bc 1460 39bd
00000100: 6622 fa3d c0f4 ed3c 698e f4bd 3e54 013c
00000110: 9937 e6bc 653d 713d fbbf c2bd 9e59 493d
00000120: 9250 8fbc 0c82 503c fc77 b43d 55da 583b
00000130: 0474 93bd 7f53 43ba 83db a23c 4a79 633d
00000140: 87e9 93bd 41da 843d 07e9 84bd 44f7 dd3c
00000150: f920 8c3c d5c6 7d3d f00e 253d ee1e cb3c
00000160: a725 01be f2d6 9bbd e6d0 7e3b 05a1 9f3c
00000170: d551 39bd 28b9 cabc 4f8d ebbc bbf6 19bd
00000180: 829f 3e3c b6f3 733d 48d3 08bd f347 89bb
00000190: 7542 dbbd 03a5 c73c ff76 813d 744d 4d3d
000001a0: 52f9 973c 1c28 b33c b426 c63d 5e83 89bc
000001b0: 4cd4 4fbc c7a4 8e3d 52a9 07bd c10e 0c3e
000001c0: b1b4 d0bb c833 383d 750a 843d e56c e23a
000001d0: 3cb1 7f3c 33cf 08be 76ad 5f3d d0a5 eb3c
000001e0: 28ef 6bbd 4d76 bcbd 5cb3 a9bd 9aed 723d
000001f0: 6b7b 2a3c 9bcc b3bd d007 3bbc 2531 15bd
00000200: 47f0 0cbd 7c56 fbbb 9592 933d 37bc 13bc
00000210: 4615 18bd 38b8 b13c dd3a d5bc e1ad 6cbc
00000220: f861 08bd 08c7 35bd 5fc3 d1bd ee6f 8abd
00000230: 1ee4 073e c620 02bd b8a9 783b 7157 84bd
00000240: b2fe 9d3d 3506 bdbc f4b0 50bd 751a c13c
00000250: 09b2 2f3d d8d8 aebd 8ea4 e5bd 4c1e bdbd
00000260: a5d6 833d df16 413d fdaa d9bd 623c 633d
00000270: 8b8c 3c3d 4d2b edbd 8eb3 b83d fb97 c53c
00000280: 2939 613c 2a73 623d 71d1 6fbd b776 c6bb
00000290: 8017 243d fc1b ac3d 9e31 76bd d5d4 013d
000002a0: 23a5 b8bc 24e0 5bbd 10e3 f13c b7d0 ef3c
000002b0: 0c1c d43d 04ef 243c f2c5 5d3d 12e6 01bd
000002c0: 9cd1 99bc ad6c 3d3d 949e aa3d 0eb1 9fbc
000002d0: 34df 83bd 2668 fe3c 6376 3fbd 8470 423d
000002e0: e95b 18bd 768c 94bc 6260 453d ab99 e3bc
000002f0: 591d f2bc e46d 62bc 4ff6 3dbd 8916 acbc
00000300: 0bf7 81bc 25f8 aebd 3366 72bd f479 a0bd
00000310: e1fc e93d c9ba a73d 87fe 7d3d f230 b73c
00000320: 45ce d3bc ca6e 003d f5b1 1a3d 8283 64bc
00000330: 0fa8 83bd d5a4 d93c 867a d0bc 9682 723d
00000340: 5169 05bd 140d 12be 126b 493d 4e7b 863c
00000350: 81e7 893d db74 753d ed21 0c3c 743b b5bd
00000360: 3d85 a4bd 8a7a 89bd d39a c2bd db25 123d
00000370: 6ca4 173d b161 4a3d 12d1 aabc f6d9 babd
00000380: f1c9 c93d d6aa 18bd 39e7 b03d 627f 2f3c
00000390: d398 903c 0383 b23c 1ae8 63bd 75d5 3b3d
000003a0: e78b 523c 9068 973d 92f4 98bb a8c9 943c
000003b0: 9e77 db3d a47d 3d3d c023 a43a 8867 4bbd
000003c0: fad2 533d f013 e93c 0aea 223d 189a 063d
000003d0: d49c e2bd fa0f d73d bd49 ec3c c47e 9dbd
000003e0: c5ed 84bd 0439 773d cd31 643d c6d2 8b3c
000003f0: cbcb 863b da48 623d aa23 bd3c f2f3 fcbd
-0.02246979 -0.009758159 0.04812341 -0.0024349696 -0.017481284 0.09769634 0.022697885 -0.0070469007
0.055492517 0.09940011 -0.073889114 0.08789942 -0.0022312456 -0.026201928 0.027770497 0.0015430496
0.0031813034 -0.0004882893 0.06956061 -0.01787552 0.0655131 0.01871237 0.10248866 0.015387269
-0.044180065 0.011265073 -0.04151946 -0.050364777 0.011065079 0.007019846 -0.06401377 0.09058932
0.08518767 -0.011023521 0.030654198 0.08954502 -0.02489453 -0.04512196 -0.05207931 -0.0836056
0.004246042 -0.06851936 -0.028755182 -0.01731565 -0.060250916 -0.10247475 -0.08931037 -0.007717149
-0.009123601 -0.044042315 -0.073788054 0.0008821328 -0.045415863 -0.06164506 0.07531359 -0.0070294444
-0.04985979 -0.06229398 -0.044528693 -0.056079816 -0.013456229 -0.0541658 -0.008315615 -0.045257643
0.12213592 0.02904737 -0.11941225 0.00789362 -0.028102683 0.05889644 -0.095092736 0.04915773
-0.017494474 0.012726318 0.08811948 0.003308912 -0.071998626 -0.00074511016 0.019880062 0.055535592
-0.07222276 0.06486941 -0.06489759 0.027095445 0.017105566 0.0619572 0.04029745 0.024795022
-0.1261202 -0.07609357 0.0038881837 0.01948596 -0.045244057 -0.024746493 -0.028753905 -0.037588816
0.011634709 0.059558593 -0.03340462 -0.004189485 -0.10706035 0.024370676 0.06321525 0.050122693
0.018551502 0.021869712 0.09675351 -0.016786274 -0.012684893 0.069650225 -0.03312046 0.13677503
-0.0063691963 0.044971257 0.06447307 0.0017274885 0.015606221 -0.1336029 0.054608785 0.028765589
-0.057601124 -0.092022516 -0.08286163 0.059308626 0.010405402 -0.0877926 -0.011415437 -0.03642382
-0.034408834 -0.007670222 0.07205693 -0.009017042 -0.037129663 0.021694288 -0.026029045 -0.014445753
-0.033296555 -0.044379264 -0.10242342 -0.0675963 0.13270614 -0.031769536 0.0037942957 -0.064619906
0.07714595 -0.023074249 -0.050950006 0.023572186 0.042894397 -0.085374534 -0.11213027 -0.09234294
0.064374246 0.047140952 -0.106283166 0.055477507 0.04603247 -0.115805246 0.09018622 0.024120321
0.013746538 0.05528561 -0.05854935 -0.0060566324 0.040061474 0.08403775 -0.060105912 0.031697113
-0.02253968 -0.053680554 0.029527217 0.029274328 0.10356912 0.010066751 0.054143853 -0.031713553
-0.018776707 0.04624622 0.083310276 -0.019493606 -0.06439057 0.031055521 -0.04674376 0.047470585
-0.037197027 -0.018133383 0.04818762 -0.027783236 -0.02955501 -0.013820145 -0.046377476 -0.02100684
-0.01586487 -0.085434236 -0.059179496 -0.07835761 0.11425186 0.08189923 0.062010314 0.022362206
-0.025855193 0.031355657 0.03776737 -0.0139473695 -0.06428539 0.026567856 -0.025449049 0.059206568
-0.03257114 -0.14262801 0.049174376 0.016416218 0.06733609 0.059925895 0.00855301 -0.088492304
-0.08033226 -0.067128256 -0.095021866 0.035680633 0.03702204 0.049409572 -0.020851646 -0.09123604
0.098529704 -0.037272297 0.08637852 0.010711523 0.017650997 0.021790987 -0.05564127 0.045857865
0.012850738 0.073929906 -0.004667827 0.018162563 0.107161745 0.0462624 0.0012522861 -0.049659282
0.051714875 0.02845189 0.03977398 0.0328618 -0.11065069 0.10501094 0.028843755 -0.07690194
-0.064906634 0.06035711 0.055711556 0.017068278 0.0041136495 0.055245258 0.023088295 -0.123512164

conv1_4/W f4 [32, 64, 3, 3]
00000000: 059d ce3b 08e0 7abd a4db 84bd 87f7 123d
00000010: 93e5 863d 8f4c 86ba fde0 dd3b 5c2e 9dbc
00000020: c642 673b f7fd 29bd 5dcf bfbd 24cc 90bd
00000030: 8bed d0ba 89cf 9b3d e82a 423c d1b1 66bc
00000040: a273 9f3d 2016 b53d a224 9a3d 2744 d6bc
00000050: 527e 28bc a42f 923d e509 fa3b abdc 823d
00000060: 91c2 05bd 7c7f b9bc 0dcd b63d f66a 313c
00000070: f04e c7bd 1ac7 45bd 100b 673c c68d 7cbd
00000080: 3d75 17bd 7a0b 27bc d4a4 60bc 19df 0ebd
00000090: ba72 92bc e8b8 0d3d 1a4e 0b3b 1a63 92bc
000000a0: 3e6b 46bc 973f a7bb 2237 ab3c 9cc0 27bc
000000b0: 99e3 853d 0794 74bd 80d9 87bd a061 b03b
000000c0: 49d7 29b9 35eb 81bd b16d 543d ef26 5a3c
000000d0: 4e41 9b3b 9610 efbc 0875 263c e2b8 483d
000000e0: 0281 4c3d aa09 c3bd a303 fbbb 04b0 503d
000000f0: 785c c9bc 142f 543b 71f9 9fbc cfec 3b3d
00000100: 76f2 e7bb 3f77 07b9 7680 9e3d 5cb8 df3c
00000110: 2f94 3fbc 55c8 963d 2ba9 3ebd 69c4 0fbd
00000120: 4723 313c 58ea 4ebd b1e0 11bc 6df1 083c
00000130: bbe1 fbbc 1a9c b3bd d931 33bd 17af f83b
00000140: a994 5d3d 910d 4a3d 8e3b 9e3c e475 d63c
00000150: 79a6 8dbb be04 ea3c 881c d5bd 4fdf 1b3c
00000160: 0c68 c6bd c0b0 60bd 47ba 18bd 4c06 49bd
00000170: 4c9f 833c cc29 1a3d 3aed 5fbd 8322 25bd
00000180: 10cf e9bc 2cd5 133b a681 afba e390 ac3d
00000190: d965 d83b 328d 39bd 96a3 1e3c eedb 93bd
000001a0: 5a3a 683c 6595 acbc 02df 573c d834 633b
000001b0: 3e0c 323d e610 7e3d 4acb 1e3d 717c efbc
000001c0: c222 6fbc 04c4 123b 5c73 a63d 4c0e 743d
000001d0: 0d33 a2bc f1d3 0e3d db88 813d 612f d1bb
000001e0: 7a0f 743d ed2d 88bd 2f0a c4bb b48e 8f3d
000001f0: 3bfc 903b 3a9b 0bbd 5540 2f3b 3529 6fbd
00000200: 9b4a 193d ffad d23d 7bb3 a03c d7fa 463b
00000210: 5bff 8bbd 8714 91bd 39f5 933d ee8c aabd
00000220: 3c7f 4c3d dfa1 79bc db39 a4b9 9851 a23b
00000230: 2e2c 53bb 53a2 94bd 2c50 41bb 95a9 cbbc
00000240: 9faf f1ba 1b7e 5bb9 6576 3fbd f303 d43c
00000250: 9392 293c bc91 333d 6dcb 49bd 6c36 51bd
00000260: 97a4 47bd 4bca 92bd 9318 7dbd f42f 983c
00000270: baea eb3b 9e79 babc 8465 23be c5b1 193b
00000280: 0432 8f3d 1a03 3ab8 60b5 093b d901 003d
00000290: 8132 3bbc cab9 623d 7274 26bc dbec 0639
000002a0: b6e4 b8bc 6589 023d fabf 4e3d 45aa 02bd
000002b0: de1c 963d d71d d13b 14b6 453d d387 813d
000002c0: 4f32 013d 42da f2bc ab0b 8fbd 664c b73c
000002d0: ba42 62bd a168 a7bb 3476 a8bc 0202 f1bc
000002e0: ebd0 963c 99c8 87bd 1148 b93a 4020 1abc
000002f0: 2587 193b a960 983d f157 5b3b fd65 4b3b
00000300: 6df0 8dbc 6b6d 03bb 271d b13c e3d3 7ebc
00000310: 4334 a9bc e2ee e1bb ee71 fa3c 2a17 9f3c
00000320: 21cc b2bc 3d56 6e3c ff6b 1b3d 4561 ed3c
00000330: d354 a0bd 590c 283d 6cd1 013e 8a61 243d
00000340: 3b32 82bc 1e18 adbc e8ff 06bd 18b8 0ebd
00000350: b205 82bc 1fcc 20bd 2de6 60bc 6f65 72bd
00000360: bd39 0abd c007 c63c 08b0 89bc 4cad 2cbd
00000370: ad94 233d 3356 5e3d 7dd9 043c 7588 253d
00000380: 6b4a 4e3c 39fc 4d3b fe87 18bd 2a70 82bc
00000390: 339c 35bd c1d9 19bd f775 6dbd 6514 ca3c
000003a0: 1f98 96bc 0be9 e93a b2d7 aebd d99f 4fbd
000003b0: fda2 24bd 99c0 b7bb a0ae c33c e2d1 e3ba
000003c0: 8b00 6abc 357f 2e3c 943c 1bbc aa44 bf3c
000003d0: 8bfb 333d ad5d 4a3d 836c c03d 7cf0 4f3c
000003e0: 1ada 95bb 6d67 20b9 f793 af3d 0602 143d
000003f0: 0655 e9bc 0c5b bb3c ada1 bc3b efa5 993b
0.0063053393 -0.06124881 -0.064872056 0.03588059 0.065867566 -0.0010246205 0.0067712055 -0.019187145
0.0035287603 -0.041501965 -0.09365723 -0.07070187 -0.0015939934 0.076079436 0.01185105 -0.014080481
0.07785727 0.08842111 0.075265184 -0.026155544 -0.010284023 0.07137993 0.007630574 0.06389745
-0.032656256 -0.022643797 0.08925829 0.010828724 -0.09731853 -0.04828558 0.014101759 -0.061658643
-0.03697704 -0.010195607 -0.013711173 -0.03488073 -0.017876972 0.03460017 0.002125627 -0.017869521
-0.0121105295 -0.005104016 0.020900313 -0.010238793 0.065375514 -0.059711482 -0.06633282 0.0053827316
-0.00016197296 -0.0634369 0.051862422 0.013314947 0.0047380095 -0.029182713 0.010159738 0.049004443
0.04992772 -0.09523328 -0.0076603456 0.05094911 -0.024580225 0.0032376694 -0.019528123 0.045880135
-0.007078464 -0.00012919026 0.07739346 0.02730959 -0.011693045 0.07362429 -0.04654805 -0.03509942
0.010811633 -0.050516456 -0.008903668 0.008358342 -0.030747285 -0.087700084 -0.04374871 0.0075892317
0.05409685 0.049329344 0.019315507 0.026179262 -0.0043228236 0.028566714 -0.104058325 0.00951369
-0.09687814 -0.054856062 -0.037287023 -0.04907827 0.01606717 0.037637517 -0.054669596 -0.040316116
-0.028541118 0.002255748 -0.0013390079 0.084260724 0.006603938 -0.04530067 0.009682557 -0.07219683
0.014174068 -0.02106733 0.013175728 0.0034668949 0.043468706 0.062027834 0.03876809 -0.029234143
-0.014595689 0.0022394666 0.08127472 0.059583947 -0.019799734 0.03487009 0.06324931 -0.006383822
0.059585072 -0.06649385 -0.0059826593 0.0700964 0.0044245995 -0.034083582 0.0026741226 -0.058388907
0.037424665 0.10287093 0.019616833 0.0030361915 -0.068358146 -0.070839934 0.07224507 -0.083276615
0.049926028 -0.015236347 -0.00031323623 0.0049535744 -0.0032222378 -0.072575234 -0.002949725 -0.024861136
-0.001843918 -0.00020932445 -0.04674377 0.02588079 0.010349887 0.043840155 -0.049266268 -0.05107729
-0.04874095 -0.071674906 -0.061791014 0.018577553 0.0071996124 -0.02276307 -0.15956694 0.0023451906
0.069919616 -4.4348744e-05 0.002101265 0.031251762 -0.011425615 0.055352964 -0.010159599 0.00012867471
-0.022569995 0.03186931 0.050476052 -0.031900663 0.07329725 0.006381731 0.048269346 0.063247345
0.03154212 -0.029645089 -0.06984647 0.022375297 -0.055239417 -0.0051089083 -0.020564176 -0.029419903
0.018410167 -0.06630058 0.0014135857 -0.009407103 0.00234265 0.074403115 0.0033469165 0.0031036132
-0.017326558 -0.0020054232 0.021620346 -0.015553447 -0.020654803 -0.006894932 0.030571904 0.019420225
-0.021825852 0.014546928 0.03794479 0.028977046 -0.07828679 0.0410274 0.12677544 0.040132083
-0.015893092 -0.021129664 -0.032958895 -0.034843534 -0.015871856 -0.039257165 -0.013726753 -0.059178766
-0.03374647 0.024173617 -0.016807571 -0.042157456 0.03993671 0.054281425 0.008108494 0.04041334
0.012590985 0.0031430854 -0.037239067 -0.015922625 -0.044338416 -0.037561182 -0.05797383 0.024667928
-0.018383084 0.0017845941 -0.08537234 -0.050689552 -0.0401945 -0.005607676 0.023886979 -0.0017381276
-0.014282356 0.010650446 -0.009474892 0.023348171 0.043941062 0.049405742 0.09395697 0.012691613
-0.004573119 -0.00015297318 0.08573144 0.036134742 -0.028482925 0.022870563 0.005756578 0.0046889703

bn1/avg_mean f4 [64]
00000000: 4dc9 e63b 3b3a 57bd 4300 883d 7642 93bd
00000010: 54ef 3b3d 533e 753d a20d a2bc 274b afbc
00000020: e3fb b23d bb13 7e3d 07af dcbd 6380 6dbd
00000030: 2038 9dbd e3a3 1ebd f02f c4bd 0862 05bd
00000040: c94e ffbc 240e ca3d f703 a63c aecc 10be
00000050: e1cd e7bb bd89 a3bd 0eb8 aa3d 7c19 f9bd
00000060: 1e8b ab3c 6939 02be ceea 7cbd 15b2 8b3c
00000070: 7a46 57bd 20b7 b0bc 9f6a 71bd 422d 9ebd
00000080: 1012 7d3d 516b 943d 7bf5 9ebd 722e dbbd
00000090: 188a 223d 5c9a 2abc 6e7f b23c e695 d53c
000000a0: 1b4f 533d 36e6 8dbd 15b3 eebd 93ab 96bd
000000b0: 0215 743d 5c2e b1bd 0f48 6ebd 4713 c0bd
000000c0: 5349 383d 7f01 a53c f653 443d a1d1 c7bd
000000d0: 4e32 f1bc 6869 983d 7d29 12be c597 72bd
000000e0: 88b2 a33c 220b 96bd 27df b8bc fc3d 1d3d
000000f0: b83c 70bd a3b1 06be 5164 8f3d dc3c 0bbd
0.00704304 -0.052545767 0.06640675 -0.07190411 0.045882538 0.05987389 -0.019781891 -0.02139814
0.0873945 0.062030535 -0.10775571 -0.057983767 -0.076767206 -0.038730513 -0.09579456 -0.032564193
-0.031165497 0.09865978 0.020265562 -0.14140579 -0.007074103 -0.07985256 0.08335887 -0.12163064
0.02094036 -0.12717213 -0.061747365 0.01705269 -0.052557446 -0.021571696 -0.058939572 -0.07723476
0.061784804 0.072470315 -0.077616654 -0.10702218 0.039682478 -0.010412779 0.021789279 0.026072454
0.051589113 -0.06928675 -0.11655251 -0.07356944 0.059590347 -0.086514205 -0.05817419 -0.09378677
0.044991802 0.020142315 0.047931634 -0.097567804 -0.029442932 0.0744198 -0.14273639 -0.05922677
0.019982591 -0.07326342 -0.022567345 0.03838919 -0.058651656 -0.131537 0.07001556 -0.033993587

bn4/beta f4 [32]
00000000: 17dc 08bc 8a23 163e f0e3 d23c 7596 5b3d
00000010: 8461 d23c 2928 db3d 7c8a f53d 3db9 b93d
00000020: 6b48 933c 2a83 fd3d 33fa f03d 2f44 913d
00000030: 90cb 203d 5ae1 133d 2503 d13d 5b78 563d
00000040: 1bc5 ff3d b755 623d 6dd7 e23d dc08 c23d
00000050: 1eb3 a53d 663a e43d cb09 b33c e1ad 0e3d
00000060: 7691 6e3d 4441 703d 06e4 3f3d f24f e13d
00000070: c939 163e 9ede 683c 265c b93d d63b fd3d
-0.008353255 0.14661995 0.025743455 0.053610284 0.025681265 0.10701019 0.119893044 0.090685345
0.017978868 0.12378533 0.11766472 0.07093083 0.039256632 0.036103584 0.10205678 0.052360874
0.12488767 0.055257525 0.110762455 0.09474346 0.080908045 0.11143951 0.021855256 0.034833793
0.05824419 0.058655992 0.04684832 0.110015765 0.14670481 0.014213232 0.09050779 0.123649284

conv1_2/W f4 [64, 64, 3, 3]
00000000: 7801 4fbd 806f a03d 7b5a ae3c c0ea 463d
00000010: 7d57 d4bc 0e3a 70bd 9864 c33b 2bd2 c4ba
00000020: 5563 babd c4b9 793d d6e4 80bb 9455 913d
00000030: 3b36 c3bc 4623 d83c eaf7 573d 566e 4fbd
00000040: 8a28 54bd 9d46 1abd c5c3 10bc 8276 5cbd
00000050: 3b52 953d 1b79 8bbc d07d 1f3d 7922 0a3d
00000060: c5c9 55bd 3536 0a3d c5ae b1bd 99b6 35bd
00000070: 55a9 983d 819b e0bc 5c1e 70bc e643 b1bd
00000080: a9e5 50bd 37a3 cd3c 09b5 7c3c 4a14 68bc
00000090: e401 e1bc 7909 3e3c 2c42 29bd 4f27 21bc
000000a0: 2ef7 2dbd c6f1 13bc 9554 083d cdac 3abb
000000b0: b1ff 393d b45a b0bc 755f 14bd 64a4 51bd
000000c0: 52f8 68bb 6f85 4e3b 565f 933c 6756 c73d
000000d0: 12f4 92bc 59d6 303d 3f56 ae3b 9a0a 873d
000000e0: 086e 1a3c 509b 90bc 5771 f8bb efc7 b0bd
000000f0: c9da 943d b200 503d 7995 843b 398e 42bd
00000100: 33c1 10bd 8761 863c d336 24bd b8b0 9fbc
00000110: efbf 463d f4ef b8bd 94fb 993a 76ef 67bd
00000120: 4f48 cebc 2170 f53c cf49 543d eb85 5b3c
00000130: 843f 4abd d13c 01bd 1270 4f3c bf7b b3bc
00000140: 8f50 81bd 8342 6bbd 5b5c 14bb 3e79 fe3b
00000150: 7a85 773d 2243 c2bd 0ba6 3d3c 201a 373c
00000160: 600b 80bd 4349 b33d 7772 9ebc d81a 98bc
00000170: bdbf f3bc 0e35 13bd 0cc8 0d3d c76a 8f3d
00000180: 5e70 debc a6ea b63c 630c 3ebc 22c7 0d3d
00000190: fd15 123d 4586 eabc 0ffc 153b d2eb 98bd
000001a0: a07a fd3c ffff 413d e758 f33b 94c5 51bd
000001b0: 8641 87bd 60b9 8abd 25c1 08bd 1453 a8bb
000001c0: 136e 913c 4023 91bd e9b1 a13d aab2 17bc
000001d0: 08b3 263d 6606 85bd 9670 51bc 1813 b0bc
000001e0: 369b 7bbd cfc4 afbc ca44 debb 29dc 97bd
000001f0: 7506 0ebd 8a1e 38bd c97e aabc 0da1 013c
00000200: d1e6 89bd 5fcb b63c 3fee edbc e9ad 923d
00000210: 1c83 09bb 75a1 37bd 3917 ef3d c35c 02bd
00000220: 5d9c 4dbd 81c6 1dbd 1350 b3bc 8463 13bd
00000230: 54a3 44bc d767 84bd ad57 d7bc 934a d7bd
00000240: f848 17bc a3ed 1fbd 8c5f 06bc aeff 20bd
00000250: 898d 0dbd dde9 e5bd e869 133c 9ecb 593c
00000260: abfa a9bd 0e4d 8cbd 7ba3 203c 7655 17bd
00000270: 9645 353d 51ed 1ebd 1dbe d43d 4503 0ebd
00000280: d13a 95bd 558e 02bd 5a88 8bbc f453 8cbd
00000290: 89a5 5dbc 992b 86bc 1146 08bd 5961 87bd
000002a0: eef6 cf3c 7aa1 79bc d4ce a6bd fc0b bdbd
000002b0: 5af3 afbd 569e 50bd af16 9ebc 37a4 3d3c
000002c0: 75c3 bdbc 39ec 80bd aa3c 84bc cd14 03bd
000002d0: bc45 f0bc 0abb 6fbd fbee a3bc 07d5 273c
000002e0: d976 02be 580c 18bd b464 ac3c 4c82 67bc
000002f0: 63d2 713b 9f57 8a3d 54f8 10bd 0bac 16bc
00000300: 2de3 533d c1aa 2fbd d304 393d deb2 343c
00000310: 2526 333b 0144 5a3d 9f26 a7bd 0601 e93c
00000320: ab06 323d 8d0a b3bd 1d62 d9bc 8e68 00bd
00000330: 5f09 8a3d c6e9 443d 5b17 7abd df10 473d
00000340: 356e a5bc 63d4 803d b32d 803b 0389 8bbb
00000350: ce81 cabd 7c1c c5bc 10fc 3f3c f787 213d
00000360: 853d d4bb 4ad7 abbc 0ffa c23c 1402 8f3c
00000370: b391 413c 9487 1d3d e303 92bd f9af 7cbd
00000380: 1f5a f83c e589 dfbc bd76 053d c69a a23d
00000390: bef6 fbbc cadc 353d 02a3 94bc 59bd a8bd
000003a0: 15a7 173c 1a2f 403d acd8 59bc d59d 0c3d
000003b0: 8c48 49ba 3f38 f1bc b0b8 e73c f7dd ccbd
000003c0: ae9f 23bd fb8d b63c 1222 d73a b798 1cbc
000003d0: dbfa 2e3d 646d 96bc 039d f33c edc0 22bd
000003e0: 3b40 0f3d b165 803c 0561 1c3d e5a8 9d3c
000003f0: f403 08bd 74e5 1e3d d3a1 81bd 3c76 27bc
-0.05053851 0.07833767 0.021283379 0.04856372 -0.025920624 -0.058649115 0.0059629194 -0.0015016248
-0.09100977 0.060968176 -0.0039335294 0.07096401 -0.02382957 0.026384007 0.052726664 -0.050642334
-0.051796474 -0.037665 -0.008835738 -0.053823955 0.07291075 -0.017025521 0.038938344 0.033724282
-0.052194376 0.033743102 -0.08675913 -0.04436359 0.074541725 -0.0274179 -0.014655676 -0.08655529
-0.05100027 0.025102241 0.0154240215 -0.014164994 -0.027466722 0.011598938 -0.041322872 -0.009836032
-0.042472057 -0.009029811 0.03328379 -0.0028484345 0.045409862 -0.021527626 -0.036223847 -0.051182166
-0.00355484 0.0031512638 0.017989796 0.09733277 -0.017938647 0.043173168 0.00532034 0.06593819
0.009425648 -0.017652184 -0.0075818705 -0.08631884 0.072682925 0.050781913 0.004046139 -0.047498915
-0.0353405 0.016403927 -0.040091347 -0.019493446 0.048522886 -0.090301424 0.001174795 -0.056624852
-0.025180964 0.029960694 0.0518282 0.013398628 -0.04937698 -0.03155214 0.012660997 -0.021909593
-0.063141935 -0.057436477 -0.0022638056 0.007765918 0.060430028 -0.09485461 0.011575232 0.011175662
-0.062521696 0.08754208 -0.01934169 -0.018567488 -0.029754514 -0.03593927 0.034614608 0.07002788
-0.02715319 0.022328686 -0.011599633 0.034613736 0.0356655 -0.028628478 0.0022885834 -0.07466854
0.030942261 0.047363278 0.0074263695 -0.051213816 -0.066042945 -0.06773639 -0.033387322 -0.005136857
0.017752683 -0.070868015 0.07895262 -0.009258905 0.04069808 -0.06495361 -0.01278319 -0.02149348
-0.061427318 -0.02145615 -0.0067831026 -0.07415039 -0.034674127 -0.044951 -0.020812409 0.007911933
-0.06733478 0.022313772 -0.029044269 0.07162077 -0.0020982688 -0.04483171 0.11674351 -0.031826746
-0.050197948 -0.038519386 -0.021888768 -0.035983577 -0.012001831 -0.064651184 -0.026286924 -0.10512271
-0.009233706 -0.039044987 -0.008201491 -0.039306335 -0.034558807 -0.112262465 0.008997418 0.013293175
-0.08299764 -0.068506345 0.009804602 -0.036946736 0.044255815 -0.03880054 0.10387824 -0.034671087
-0.07286609 -0.03187402 -0.01703279 -0.0685195 -0.013528236 -0.01637821 -0.033269946 -0.066103645
0.0253863 -0.015236253 -0.08144918 -0.092308015 -0.085913375 -0.05093225 -0.019297926 0.011574796
-0.02316449 -0.06295056 -0.016142208 -0.03200226 -0.029330127 -0.058527984 -0.020011416 0.010243661
-0.1274065 -0.037121147 0.021044113 -0.014130186 0.0036899082 0.06754994 -0.035393074 -0.009196292
0.051730324 -0.042887453 0.045170616 0.011028973 0.0027335968 0.05328751 -0.08161663 0.02844287
0.04346339 -0.08742247 -0.026536042 -0.03134971 0.06740069 0.048074506 -0.06105743 0.048600074
-0.020194152 0.062905096 0.003911698 -0.0042582764 -0.098880395 -0.024061434 0.011717811 0.039436307
-0.0064770603 -0.020976681 0.023800878 0.017457046 0.011814523 0.038459376 -0.071296476 -0.061691258
0.03031641 -0.027287433 0.03258394 0.07939677 -0.030757304 0.044400014 -0.018144134 -0.0823924
0.009256144 0.04691992 -0.0132962875 0.034330208 -0.0007678352 -0.029445766 0.028286308 -0.10003274
-0.039947204 0.022284498 0.0016413352 -0.009557894 0.042719703 -0.018362708 0.029737955 -0.03973477
0.034973364 0.01567349 0.038178463 0.019245574 -0.033206895 0.038793042 -0.06329694 -0.01022106

bn3/gamma f4 [64]
00000000: 676d 843f 5115 833f ef02 803f 5b2d 813f
00000010: 4b3b 803f ccc0 833f 3359 853f f91a 843f
00000020: 4d30 7f3f 68ad 7e3f 240f 863f 3050 873f
00000030: 21d9 7b3f b11c 853f 7d7c 7e3f 215c 823f
00000040: d4c3 823f 74a0 7f3f 284c 803f 20ea 7f3f
00000050: cc34 7d3f 9593 8c3f d69a 833f 9f93 7e3f
00000060: 1e9f 813f c515 833f e694 7e3f 3e4a 803f
00000070: 61b6 813f b88b 833f 1275 813f 72dc 883f
00000080: e2dc 7c3f 86bf 7e3f 3cfb 7f3f 5ac2 7c3f
00000090: 3a8c 793f e3ef 7c3f 42ed 763f e460 863f
000000a0: 4d27 7b3f f759 7b3f 819d 803f 86a2 823f
000000b0: 6cff 803f df11 823f ef1f 803f 0c36 7f3f
000000c0: 1421 7f3f 1e7b 823f 3a48 823f a8d1 823f
000000d0: 76c9 853f d2da 8a3f acf6 823f 0b36 803f
000000e0: 7387 803f ebb1 803f 72b5 7a3f 5d6a 873f
000000f0: 455d 843f 4371 7f3f 01a3 803f 4db0 803f
1.0345887 1.024088 1.0000895 1.0091966 1.0018095 1.0293212 1.0417846 1.0320731
0.99683076 0.99483347 1.047337 1.0571346 0.9837819 1.0399381 0.99408704 1.0184366
1.0216012 0.9985421 1.0023241 0.9996662 0.98908687 1.0982538 1.0281627 0.99444
1.0126684 1.0241019 0.9944595 1.0022657 1.0133783 1.0277014 1.0113852 1.0692275
0.9877454 0.9951099 0.9999273 0.98734057 0.97479594 0.9880354 0.96455777 1.0498319
0.98106843 0.9818415 1.0048066 1.0205848 1.0077949 1.0161704 1.0009745 0.99691844
0.9965985 1.0193822 1.0178292 1.0220232 1.0452106 1.0848029 1.0231528 1.0016493
1.0041336 1.0054296 0.97933114 1.0579334 1.0340964 0.997822 1.0049745 1.0053803

conv1_7/W f4 [2, 32, 3, 3]
00000000: 4074 ab3d bb9a c23c 6df3 8d3d e6c8 3ebe
00000010: 838e 52bd 7dc1 afbc 45c3 2d3d e480 78bc
00000020: 37b2 15bd c248 00bd 9a10 6ebd 11a1 9bbd
00000030: 4458 1b3e 902b f13d aa6f 18bc a90e 0a3d
00000040: f9f0 a7bc c36b 143e 11de afbb 45da fa3c
00000050: 6660 33bd 11ae a73c 1507 ad3d 07f3 f5bc
00000060: a8f5 983c a358 ca3d 59f4 443e edfc 323d
00000070: 6b5d c03d 5813 afbc 0d42 863d f045 973c
00000080: 751a 9e3d 1e35 353e d720 1a3e 9f98 dd3d
00000090: a5f3 a7bd fcce 23bd f1f4 a4bd 1150 823d
000000a0: cf34 373d 19cc 74bd 9541 493d 6d26 683d
000000b0: 541e f03d 7991 0d3e 8a05 40bd be47 2fbd
000000c0: 3ecc 463d 32a4 8f3e 2078 a93d 7539 b83d
000000d0: f6ee f73d 3a4e 15bd f928 9f3c 8397 ae3d
000000e0: 4d64 acbd 62b9 e5bb 292b 513d a063 8a3d
000000f0: d8f8 003e 0540 c13d 4212 f83c 4429 193d
00000100: 9f62 5dbd 0a75 ca3d 7b01 2ebd b2d2 973d
00000110: 7a89 663d ad37 ebbc 2742 503d 803d babc
00000120: 790c 423d 7c53 c23c 56ed 22bd 9951 213d
00000130: f3a0 45bd 12ce 83bd 87b8 ee3c 1586 17be
00000140: c4b4 023e 6c9c d1bd bcc3 ac3d 6904 393e
00000150: 37f9 1d3e 85c2 413d eece 30bd 36f6 413e
00000160: c3c8 f5bd 7f41 2b3e e5f9 a83d 6a42 c13d
00000170: edfc 9a3c 1f80 423e 9b82 bf3d 7366 6e3d
00000180: 9398 9abd 7452 c13c aa0f 893d 2252 133d
00000190: af1e bb3d 4a8f 703c b0fd ac3d 4ddf a2bd
000001a0: 89cd 2f3d 0b6c 0bbd 0874 d63c 1b0c e33d
000001b0: aa79 db3c 8304 d2ba fcd1 1b3d 5809 803d
000001c0: 71fb 593d e7f0 ec3d 08c6 25bd e820 06be
000001d0: b48f 4c3d e237 843c 944e 893d ca7a a43d
000001e0: 2175 8e3d 3148 023b 6579 b13c 683e 2c3d
000001f0: 8261 15bc 54b8 213d 35df c53d f915 bf3d
00000200: b5b6 2dbe ffbd 32be c6d5 333d 6bfe 9d3d
00000210: 6333 4d3d 0dd3 c43d e893 e4bc 4949 543d
00000220: 5fb9 2a3d a3f5 663d 9881 263e 3dea 0a3c
00000230: 95b7 b43d b418 4bbc bf8e f2bd 6401 5b3d
00000240: d598 d83d 6860 5d3d d766 fe3d 8ede 3d3e
00000250: a173 f13b 79fe 6a3d 8b0a 553c 0687 e2bc
00000260: 387f 34be a980 32bc 4125 233d 3d7b 01be
00000270: 6bf6 48bd 6b0a 2f3d 03be 323d 6f8f 173d
00000280: 196f 433d da3e 413d bd03 643d 71dc 5b3e
00000290: bead 4d3d 5f8f 423d 2e9f 333e cd9d cbbc
000002a0: f396 693c 605f 173e 643f 1e3d 6cf9 61bd
000002b0: d38d 81bc 95da d03d c18a 5bbd ce59 623e
000002c0: 1bdb 823d 7964 513d 0296 563d d09f a13d
000002d0: e5a0 103c 2107 a93d 6f81 803d 1d92 833d
000002e0: 22c2 ab3d b7ad 343c 46d4 e93d e214 d63d
000002f0: 59fa 363e 697e a23d ba6a 7c3d 5fb4 37bd
00000300: d04f b2bd 6c16 083e b0ee 383e b0b8 ad3d
00000310: b744 063e 2011 dc3d 4224 c7ba 0282 ac3d
00000320: d0bd 41bd e0f2 833d 9c70 19be b8a3 053d
00000330: 9446 893b bbd6 5fbd 1941 89bc 5103 4cbc
00000340: 9d0e 68bc e513 3dbd da30 6b3a 25b0 f93d
00000350: 385f 7cbd 7c52 453d 23cd 9d3c ead7 f23d
00000360: a153 aebc 590e b53d d86f f43d 657c 433e
00000370: 9683 003e d2f4 023d fd4b c43d 7de1 db3b
00000380: 19cb f4bb 5be7 0b3e c0cf 9a3d 01c9 803d
00000390: 776a 0b3e 949b cf3c 4953 8f3d e5f2 203d
000003a0: f1ad 2cbe fff2 82bc 2b71 2cbd 782e 803c
000003b0: 5b52 af3d e427 d0bd 90ff d4bd 07cc 35bb
000003c0: 5093 563d f86d f8bc 2d24 b43d ed0b f03d
000003d0: c859 843d 210c f23d ea31 273d 6376 f53c
000003e0: 6d26 333d c195 5f3d 7bb7 bb3d e936 b23c
000003f0: d71d 183e 9494 1e3c 2130 8a3d 7fca ae3d
0.08371782 0.023755422 0.069311954 -0.18631324 -0.05140544 -0.021454567 0.04242255 -0.015167449
-0.036546912 -0.031319387 -0.0581213 -0.0759908 0.1517039 0.11775887 -0.009303967 0.033705387
-0.020500647 0.14494233 -0.0053670486 0.030621657 -0.043793105 0.020468744 0.084486164 -0.030023111
0.018671826 0.09880187 0.19233836 0.04369824 0.09392818 -0.021371529 0.06555567 0.018465966
0.0771989 0.17696044 0.1505159 0.10820126 -0.082007684 -0.039992318 -0.08054531 0.06362928
0.044728097 -0.059764955 0.04913481 0.05667727 0.11724535 0.13825025 -0.046880282 -0.042793028
0.048534624 0.2805496 0.08274865 0.08995334 0.12106125 -0.036451556 0.019428717 0.08524992
-0.08417568 -0.0070106247 0.05106655 0.06757283 0.12594926 0.09436039 0.030282144 0.03739287
-0.05404913 0.09885605 -0.04248188 0.07413234 0.05628345 -0.028713072 0.050844338 -0.022734404
0.047375176 0.02372145 -0.039777122 0.03938446 -0.048249196 -0.06435789 0.029140724 -0.14797242
0.12764269 -0.10234913 0.08435771 0.18068089 0.15427099 0.04730465 -0.043166094 0.18941578
-0.12001183 0.16724204 0.082507886 0.094364956 0.018919433 0.18994187 0.09351083 0.058203172
-0.075486325 0.023598887 0.06692441 0.035967 0.09136712 0.0146826 0.084468246 -0.079527475
0.042920623 -0.034038585 0.026178375 0.11086293 0.026791412 -0.0016023073 0.038042054 0.06251782
0.05321831 0.11569386 -0.04047206 -0.1309849 0.049941733 0.016139928 0.06704441 0.08031233
0.06955934 0.0019879455 0.02166433 0.042051703 -0.009117486 0.03948243 0.09661714 0.09330363
-0.16964228 -0.1745529 0.043905042 0.07714542 0.050097834 0.09610567 -0.027902558 0.051827703
0.04168069 0.0563866 0.16260374 0.008478698 0.08824078 -0.012396026 -0.11843633 0.053468123
0.105760254 0.05404702 0.12421959 0.18541929 0.0073685204 0.05737159 0.013003002 -0.027652275
-0.17626655 -0.010894933 0.03983045 -0.12644668 -0.049063127 0.042734545 0.04363824 0.037002023
0.047713373 0.04717908 0.055667628 0.2147081 0.05021452 0.04750001 0.17541191 -0.024855519
0.0142571805 0.14782476 0.038634673 -0.055169508 -0.015814697 0.10197941 -0.053599123 0.2210457
0.06389447 0.05112121 0.052389152 0.0789181 0.008827423 0.08253313 0.062746875 0.06424353
0.08386637 0.011027745 0.11417441 0.10453202 0.17868938 0.07934267 0.06162522 -0.04484975
-0.08706629 0.13289803 0.18059802 0.08482492 0.1311215 0.10745454 -0.0015193301 0.084232345
-0.04730016 0.06442809 -0.14984363 0.032626837 0.004189322 -0.054648142 -0.016754674 -0.012451963
-0.01416364 -0.04616155 0.0008971818 0.121918 -0.061614245 0.048174366 0.019262856 0.118575886
-0.021280112 0.08840627 0.11935395 0.19090421 0.12550196 0.03197176 0.09584806 0.00671023
-0.0074705 0.13662474 0.075591564 0.062883385 0.13614832 0.02534274 0.06998307 0.039294142
-0.16863228 -0.01598501 -0.042100113 0.015647158 0.0856063 -0.101638585 -0.10400307 -0.0027740018
0.052386582 -0.030325875 0.087959625 0.11721025 0.06462437 0.1181872 0.040819086 0.029963678
0.043737818 0.054586176 0.091658555 0.021754699 0.14855133 0.0096789785 0.06747461 0.08534717
