loto6_cnn/model/loto6_20_550.model (npz, 468490 bytes, 38 tensors)

conv1_2/b f4 [64]
-0.00012190809 -8.880207e-05 5.128726e-05 -0.00013761564 2.4103101e-06 9.358492e-05 -3.8457387e-05 -0.00018107273
2.4698704e-05 0.0003644538 -4.1303665e-05 -0.00020506517 1.577326e-05 1.4758e-05 -1.3987809e-05 -9.410346e-05
-2.7820692e-05 -1.6303553e-05 2.9379127e-05 -6.464678e-06 8.680621e-05 5.25489e-05 1.09118355e-05 -9.890759e-05
-4.7088877e-05 -1.8809931e-05 -4.8639836e-06 -2.3849709e-05 -2.2642696e-05 0.00010591699 1.0575656e-05 -1.7043154e-06
1.77752e-05 -6.6251155e-06 -4.8439346e-05 -0.00013098215 8.1770224e-05 -0.00016652759 4.7662184e-06 -4.0285206e-05
6.8373636e-05 -3.16149e-05 2.2712602e-05 -1.2780527e-05 1.3810876e-05 2.423152e-05 3.5338446e-05 -7.997166e-05
-2.444389e-05 3.4235905e-05 5.0293624e-05 2.8182756e-05 2.0623131e-06 4.6298606e-05 0.00015241372 -0.00017007082
-0.00012336255 -4.1406793e-06 7.080357e-05 1.1278709e-06 2.7141143e-06 4.6688987e-05 -9.77298e-05 -2.688942e-05
00000000: e8a8 ffb8 403b bab8 471d 5738 eb4c 10b9
00000010: d0c0 2136 0543 c438 4e4d 21b8 57de 3db9
00000020: 1030 cf37 2914 bf39 793d 2db8 c306 57b9
00000030: d150 8437 2199 7737 2fad 6ab7 6959 c5b8
00000040: 7b60 e9b7 9dc3 88b7 3273 f637 29eb d8b6
00000050: bb0b b638 f467 5c38 fa11 3737 9c6c cfb8
00000060: 4c81 45b8 05ca 9db7 4d35 a3b6 dc10 c8b7
00000070: d2f0 bdb7 c01f de38 196e 3137 d5bf e4b5
00000080: f41b 9537 4f4d deb6 5a2b 4bb8 4158 09b9
00000090: 0e7c ab38 e99d 2eb9 81ed 9f36 e9f7 28b8
000000a0: d163 8f38 3e9a 04b8 f186 be37 f26b 56b7
000000b0: 43b5 6737 cb44 cb37 5e38 1438 75b6 a7b8
000000c0: db0c cdb7 8698 0f38 5ef2 5238 026a ec37
000000d0: 4566 0a36 c030 4238 3fd1 1f39 0a55 32b9
000000e0: e25a 01b9 2af0 8ab6 617c 9438 5961 9735
000000f0: 2124 3636 ebd3 4338 49f4 ccb8 9790 e1b7

conv1_4/b f4 [32]
0.000112565554 -6.772261e-05 -0.00028405752 0.0001586922 0.0002456066 -0.00016376983 3.7892376e-05 2.509945e-05
-0.00014659863 -1.1978218e-05 -0.00026422198 2.933042e-05 2.653181e-05 8.897691e-05 0.00012513845 -0.0001375165
-0.00013710865 -6.6270565e-07 0.00011681837 -0.00025435688 0.000100592035 -8.484952e-05 -0.00010731606 0.00040343186
1.3820296e-06 -8.945613e-06 -2.2755232e-05 -3.4773228e-05 -6.358708e-05 -0.000111680434 -7.2407005e-05 -0.00012775163
00000000: 2c11 ec38 4d06 8eb8 8eed 94b9 9d66 2639
00000010: c3c4 8039 a1b9 2bb9 a1ee 1e38 a98c d237
00000020: 45b8 19b9 0ef6 48b7 4687 8ab9 990a f637
00000030: a190 de37 1d99 ba38 9937 0339 4e32 10b9
00000040: d3c4 0fb9 c9e4 31b5 63fc f438 345b 85b9
00000050: f0f4 d238 3df1 b1b8 df0e e1b8 b583 d339
00000060: 2d7e b935 1e15 16b7 7de2 beb7 78d9 11b8
00000070: 0e5a 85b8 fa35 eab8 37d9 97b8 11f5 05b9

bn4/avg_mean f4 [32]
-0.5572031 -3.3475993 1.7029371 -2.5131168 -0.0398898 -1.3769257 -2.0248907 0.19072104
-0.66502637 -0.70178646 -3.1582408 -1.270031 -0.1129036 0.3202135 -1.2229177 -2.2658682
-0.53949624 -1.1313711 -4.0632305 -2.904294 -0.4867076 0.01502575 -0.1060732 -1.9239186
-0.35167554 -1.1003895 -0.37617707 0.13020575 -3.3289502 1.2465246 -0.372748 0.31426936
00000000: dda4 0ebf 113f 56c0 d8f9 d93f e8d6 20c0
00000010: 7d63 23bd 1a3f b0bf cf97 01c0 604c 433e
00000020: 2b3f 2abf 47a8 33bf 9e20 4ac0 6090 a2bf
00000030: 013a e7bd 06f3 a33e 9188 9cbf fc03 11c0
00000040: 6d1c 0abf c5d0 90bf fc05 82c0 f4df 39c0
00000050: bd31 f9be 902e 763c e83c d9bd f742 f6bf
00000060: d10e b4be 90d9 8cbf 489a c0be a854 053e
00000070: 850d 55c0 1e8e 9f3f d3d8 bebe eae7 a03e

conv1_5/b f4 [32]
-3.1338455e-05 -3.847612e-05 0.000101197256 -7.3198025e-05 0.00016822544 9.2013826e-05 3.3017845e-05 0.000135224
7.999914e-05 3.02173e-05 -0.00010672249 -4.328449e-05 -2.842235e-05 -0.00026260802 1.9459836e-05 4.0289895e-05
7.695122e-05 -5.3427062e-05 0.00014107501 -9.273863e-05 0.00014567634 2.2433569e-05 3.1276864e-05 0.00031404843
6.205205e-05 0.00066205673 -0.00013702245 0.00022238662 -0.00010060729 6.838235e-05 -2.0794494e-05 -2.352098e-05
00000000: 6971 03b8 6b61 21b8 dd39 d438 e481 99b8
00000010: ac65 3039 8cf7 c038 a47c 0a38 ebca 0d39
00000020: 36c5 a738 287b fd37 33d0 dfb8 5e8c 35b8
00000030: 886c eeb7 a7ae 89b9 ae3d a337 f2fc 2838
00000040: df60 a138 df16 60b8 89ed 1339 ac7c c2b8
00000050: b2c0 1839 b92f bc37 472f 0338 dea6 a439
00000060: f121 8238 e08d 2d3a afad 0fb9 7430 6939
00000070: 21fd d2b8 7f68 8f38 d66f aeb7 ec4e c5b7

bn5/avg_mean f4 [32]
-0.06272069 -0.19352278 -0.1071015 -0.6454427 0.12803051 -1.0076203 -0.36528692 0.47477648
-0.1182572 0.17869447 -0.24659553 -0.47164413 0.036017198 -0.35158688 -0.16064447 -0.06694931
0.4358597 -0.18049504 -0.83996624 -0.25912 -0.021714887 -0.5383273 -0.386237 0.6797048
-0.23295881 0.77569824 -0.22788866 -0.5989617 -0.2865221 0.063173115 -0.4654373 -0.30683783
00000000: b573 80bd d62a 46be 0858 dbbd bc3b 25bf
00000010: 6e1a 033e b4f9 80bf e306 bbbe e715 f33e
00000020: d530 f2bd affb 363e 8a83 7cbe 577b f1be
00000030: c586 133d 3203 b4be fc7f 24be b81c 89bd
00000040: 0129 df3e b1d3 38be 0708 57bf 60ab 84be
00000050: 6be3 b1bc d1cf 09bf dbc0 c5be 2201 2e3f
00000060: c18c 6ebe 2994 463f a55b 69be 8e55 19bf
00000070: 06b3 92be e860 813d cc4d eebe d919 9dbe

bn1/gamma f4 [64]
0.979239 0.9811045 1.0073341 0.99668336 0.9702318 1.0086663 0.98768675 0.9883488
0.9884174 1.0001199 1.006589 0.9989238 0.9922009 1.0001572 0.9859739 1.0183212
0.97824717 0.9836431 0.99510324 1.0162266 1.0384351 1.007408 1.004591 0.9965837
1.014675 1.0009148 0.98041594 0.9952506 0.9735613 0.99610966 0.95308846 0.986786
0.97969073 1.0112917 0.97311854 0.99082124 1.0011536 1.0622957 1.0079138 1.0183465
0.9823782 0.9730731 1.0029953 0.97742665 1.0066845 0.9762194 1.0040208 1.0050404
0.979598 0.9924471 0.98587346 1.0037589 0.9878798 0.9666083 0.9883643 1.0281869
0.9784009 0.96657056 0.9814488 0.98682725 0.97588354 1.0163972 0.9688948 0.98188865
00000000: 68af 7a3f aa29 7b3f 53f0 803f a426 7f3f
00000010: 1c61 783f fa1b 813f 0ad9 7c3f 6d04 7d3f
00000020: ec08 7d3f ee03 803f e9d7 803f 78b9 7f3f
00000030: e100 7e3f 2705 803f c968 7c3f 5958 823f
00000040: 686e 7a3f 09d0 7b3f 16bf 7e3f b713 823f
00000050: 71eb 843f bff2 803f 7096 803f 1c20 7f3f
00000060: dfe0 813f fa1d 803f 8afc 7a3f bec8 7e3f
00000070: 503b 793f 0b01 7f3f 9bfd 733f 029e 7c3f
00000080: 03cd 7a3f 0272 813f 4c1e 793f 76a6 7d3f
00000090: cd25 803f 4ef9 873f 5203 813f 2e59 823f
000000a0: 237d 7b3f 521b 793f 2662 803f a238 7a3f
000000b0: 0adb 803f 84e9 793f c183 803f 2aa5 803f
000000c0: efc6 7a3f 0311 7e3f 3462 7c3f 2c7b 803f
000000d0: b1e5 7c3f a473 773f 7105 7d3f a19b 833f
000000e0: 7b78 7a3f 2b71 773f 3b40 7b3f b6a0 7c3f
000000f0: 81d3 793f 4e19 823f 7d09 783f 0e5d 7b3f

conv1_3/b f4 [64]
-1.8631681e-05 2.3713872e-05 -1.2898104e-05 -2.189292e-05 4.319629e-05 9.213422e-06 -0.00010545411 6.576604e-06
4.2917196e-05 2.569926e-05 1.492198e-05 4.8799237e-05 2.5498779e-05 6.164089e-05 -7.5995005e-05 -0.00012367389
-7.0950896e-06 0.00013127904 1.3883537e-05 4.0757677e-05 2.8128505e-05 9.3688745e-05 -3.1211322e-05 4.1074245e-06
2.0357447e-05 2.3828388e-05 3.5755784e-05 5.024571e-05 -9.096738e-06 1.03551265e-05 -3.1503627e-05 0.000111801164
-6.313407e-06 -2.0013065e-05 -3.1525095e-05 -2.5522686e-05 9.75998e-05 -8.155273e-06 -2.1201004e-06 -4.7948492e-06
-1.9231673e-05 0.000112326394 4.8402715e-05 -1.6158869e-05 -2.6102001e-05 -2.0060352e-05 -8.684653e-05 -2.7725007e-05
-0.00010213916 -3.1109103e-05 -2.520281e-05 -3.8922604e-05 2.9900204e-06 -4.0719635e-05 -3.4608693e-05 3.2332835e-05
7.126057e-05 -1.4114229e-05 -9.8521006e-05 -1.3178373e-05 -2.5766207e-05 2.0563166e-05 -2.3031282e-05 7.614561e-05
00000000: 3b4b 9cb7 27ed c637 ef64 58b7 b0a6 b7b7
00000010: aa2d 3538 5993 1a37 3f27 ddb8 99ac dc36
00000020: fd01 3438 be94 d737 6b59 7a37 c8ad 4c38
00000030: 36e6 d537 3345 8138 825f 9fb8 75ae 01b9
00000040: 5b12 eeb6 f3a7 0939 56ed 6837 39f3 2a38
00000050: 81f5 eb37 c37a c438 e7e8 02b8 82d2 8936
00000060: 49c5 aa37 13e3 c737 7bf8 1538 ecbe 5238
00000070: 319e 18b7 eeba 2d37 c322 04b8 cb76 ea38
00000080: c1d7 d3b6 bbe1 a7b7 d039 04b8 8d19 d6b7
00000090: 7eae cc38 a1d2 08b7 0c47 0eb6 71e3 a0b6
000000a0: b453 a1b7 c690 eb38 0504 4b38 e88c 87b7
000000b0: 9ff5 dab7 4747 a8b7 6021 b6b8 0093 e8b7
000000c0: 8b33 d6b8 257b 02b8 9f6a d3b7 d440 23b8
000000d0: 29a8 4836 60ca 2ab8 cd28 11b8 1e9d 0738
000000e0: ba71 9538 27cc 6cb7 109d ceb8 ae18 5db7
000000f0: 8224 d8b7 107f ac37 4d33 c1b7 5db0 9f38

bn2/avg_var f4 [64]
0.41310817 0.7420119 0.43907362 0.6170934 0.6006746 0.42001545 0.48020375 0.41203794
0.4353588 0.42531142 0.549123 0.48584157 0.45074818 0.44223154 0.27780807 0.65358984
0.58776957 0.3529639 0.3953725 1.0808957 0.3395698 0.36430496 0.37091187 0.5148717
0.42031574 0.37041295 0.646654 0.76428795 0.6346271 0.6562258 0.5315327 0.36118534
0.8171487 0.7657597 0.5554111 0.64194435 0.36913386 0.30269927 0.6220982 0.2846751
0.42381462 0.27554053 0.5634229 0.5433656 0.5389833 0.43525806 0.5035135 0.3777186
0.58732516 0.5437111 0.7166944 0.37428877 0.4122704 0.47821802 0.38186127 0.7269697
0.50696886 0.47275245 0.6732024 0.39917848 0.30971038 0.48827896 0.5419761 0.49845085
00000000: ea82 d33e 7ef4 3d3f 42ce e03e d5f9 1d3f
00000010: d0c5 193f 440c d73e 44dd f53e a3f6 d23e
00000020: 59e7 de3e 6bc2 d93e 5393 0c3f 3ac0 f83e
00000030: 77c8 e63e 2c6c e23e dc3c 8e3e aa51 273f
00000040: 1178 163f afb7 b43e 446e ca3e ca5a 8a3f
00000050: 18dc ad3e 2e86 ba3e 29e8 bd3e a2ce 033f
00000060: a033 d73e c4a6 bd3e 1e8b 253f 60a8 433f
00000070: ec76 223f 6afe 273f 8712 083f 49ed b83e
00000080: a830 513f d408 443f 6c2f 0e3f 7756 243f
00000090: 1dff bc3e 66fb 9a3e d441 1f3f efc0 913e
000000a0: 3bfe d83e a613 8d3e 7c3c 103f 021a 0b3f
000000b0: cffa 093f 25da de3e 43e6 003f 5564 c13e
000000c0: f15a 163f a730 0b3f 4979 373f c7a2 bf3e
000000d0: 1b15 d33e fed8 f43e 5283 c33e b01a 3a3f
000000e0: b6c8 013f 9c0c f23e fe56 2c3f 1f61 cc3e
000000f0: 5c92 9e3e b3ff f93e f2be 0a3f f334 ff3e

bn2/gamma f4 [64]
1.0274777 0.96794575 0.971564 0.9842473 0.9960385 1.0218946 0.99453455 0.9665921
0.9800709 0.9866418 0.9783592 1.0229026 0.988009 0.999492 1.0007833 0.99242246
0.97268313 0.9922234 0.9813857 0.98579776 1.0289938 0.9876057 1.0029012 1.0073614
1.0130578 1.0399781 0.97138083 1.0003631 1.0275633 0.971469 0.9935779 0.9978402
0.98074013 0.99649453 0.9887361 1.0223048 0.9925468 0.9907509 0.97343487 0.9686211
1.0111278 0.9933642 0.992976 0.9978454 1.0055517 1.0031735 1.0147015 1.0087794
0.99425876 1.0204984 0.99326736 1.0178546 0.969223 1.0342572 0.9949127 0.9782243
1.0044209 0.9925612 0.9730441 1.0816848 0.9902809 1.0077698 0.9645784 1.0246778
00000000: 6484 833f 4bcb 773f 6bb8 783f a2f7 7b3f
00000010: 61fc 7e3f 71cd 823f d199 7e3f 9472 773f
00000020: ede5 7a3f 8f94 7c3f c075 7a3f 79ee 823f
00000030: 28ee 7c3f b5de 7f3f ab19 803f 660f 7e3f
00000040: c301 793f 5a02 7e3f 183c 7b3f 3e5d 7c3f
00000050: 12b6 833f bad3 7c3f 115f 803f 38f1 803f
00000060: e1ab 813f 011e 853f 6aac 783f e60b 803f
00000070: 3287 833f 31b2 783f 1f5b 7e3f 7572 7f3f
00000080: c911 7b3f 441a 7f3f cf1d 7d3f e2da 823f
00000090: 8c17 7e3f daa1 7d3f 0733 793f 8df7 773f
000000a0: a36c 813f 1e4d 7e3f ad33 7e3f cc72 7f3f
000000b0: ebb5 803f fd67 803f bde1 813f af1f 813f
000000c0: be87 7e3f b19f 823f c546 7e3f 0f49 823f
000000d0: 001f 783f 8a62 843f 99b2 7e3f e86c 7a3f
000000e0: dd90 803f 7e18 7e3f 6b19 793f a674 8a3f
000000f0: 0d83 7d3f 9afe 803f 9cee 763f a428 833f

conv1_1/b f4 [64]
4.2863165e-05 3.2372544e-05 9.706322e-05 1.1858621e-05 -8.117882e-05 7.646752e-05 -9.696189e-05 5.702312e-06
-0.0003309867 -6.227665e-05 2.7487544e-05 6.3628863e-07 4.0276598e-05 4.7343492e-05 -0.000101801255 -2.5938676e-05
7.6488155e-05 0.00012071803 -7.306955e-05 -8.204531e-05 4.470508e-05 1.6481943e-05 -2.4240757e-05 0.00014161739
4.4303142e-05 3.9714607e-05 1.8735489e-05 3.7970567e-05 8.083306e-05 2.6151625e-05 0.00011068028 -6.3774154e-05
9.9816694e-05 3.8978826e-05 -0.0001439918 -8.748498e-05 -0.00017233357 -1.5367577e-05 -4.128439e-05 7.365568e-05
1.5725034e-05 0.00017140829 -9.532107e-05 2.9394728e-06 -8.8163164e-05 2.842795e-05 4.0382507e-05 6.3142325e-06
1.9691659e-05 -2.9898672e-06 9.5520954e-05 2.6867614e-05 2.4482457e-05 -8.025744e-05 -0.00031819544 1.7490054e-05
3.316108e-05 4.138815e-05 3.5794557e-05 4.7714435e-05 4.0250543e-05 -5.618118e-05 -0.00017729853 4.705395e-06
00000000: f9c7 3338 c1c7 0738 6b8e cb38 64f4 4637
00000010: 8c3e aab8 305d a038 0558 cbb8 7d56 bf36
00000020: 4888 adb9 869a 82b8 0d95 e637 6ccd 2a35
00000030: abee 2838 b092 4638 227e d5b8 e296 d9b7
00000040: 4468 a038 002a fd38 ea3c 99b8 be0f acb8
00000050: b781 3b38 b442 8a37 a158 cbb7 217f 1439
00000060: 23d2 3938 3c93 2638 282a 9d37 9642 1f38
00000070: eb84 a938 3060 db37 061d e838 7dbe 85b8
00000080: ae54 d138 327d 2338 81fc 16b9 2478 b7b8
00000090: 71b4 34b9 9fe9 80b7 c728 2db8 9877 9a38
000000a0: 41e9 8337 10bc 3339 1ce7 c7b8 c243 4536
000000b0: 3de4 b8b8 8f78 ee37 6360 2938 d8de d336
000000c0: 842f a537 87a5 48b6 6c52 c838 c361 e137
000000d0: ad5f cd37 e34f a8b8 78d3 a6b9 9bb7 9237
000000e0: 7016 0b38 3098 2d38 1d22 1638 fc20 4838
000000f0: b1d2 2838 15a4 6bb8 36e9 39b9 09e3 9d36

bn1/avg_var f4 [64]
0.12356875 0.3659147 0.15361336 0.3242079 0.3871011 0.24052018 0.3275919 0.34887776
0.12785065 0.24851112 0.43357974 0.3971916 0.3875569 0.18104732 0.1904713 0.40380138
0.11683833 0.5027353 0.3596967 0.21924433 0.26537472 0.26864704 0.27925807 0.14826941
0.25721627 0.2101497 0.19887392 0.34005857 0.23378722 0.5254698 0.106894486 0.33077654
0.10936487 0.32935208 0.2213315 0.26950443 0.23081595 0.13848124 0.3693431 0.34234285
0.25221783 0.09200519 0.11871721 0.20598862 0.1009926 0.17383954 0.5048777 0.20695071
0.3340595 0.4355447 0.19381346 0.13182756 0.4097726 0.24917233 0.16777743 0.10435801
0.23334363 0.35867944 0.5388006 0.48389053 0.15815765 0.24541941 0.29098845 0.15286224
00000000: 9d11 fd3d 2c59 bb3e d24c 1d3e 94fe a53e
00000010: 1e32 c63e ec4a 763e 20ba a73e 1ba0 b23e
00000020: 48eb 023e b379 7e3e 2afe dd3e b35c cb3e
00000030: dc6d c63e 7864 393e e90a 433e 0ebf ce3e
00000040: ef48 ef3d 43b3 003f 2a2a b83e 9681 603e
00000050: 32df 873e 1b8c 893e eafa 8e3e f0d3 173e
00000060: dab1 833e 7c31 573e 9ba5 4b3e 281c ae3e
00000070: eb65 6f3e 3085 063f 7feb da3d 8b5b a93e
00000080: b0fa df3d d6a0 a83e baa4 623e 7cfc 893e
00000090: 045b 6c3e 07ce 0d3e 8a1a bd3e 9047 af3e
000000a0: b222 813e 386d bc3d 0222 f33d aeee 523e
000000b0: 35d5 ce3d fe02 323e aa3f 013f e3ea 533e
000000c0: d909 ab3e b7ff de3e 0977 463e cefd 063e
000000d0: b7cd d13e 0827 7f3e d9cd 2b3e a7b9 d53d
000000e0: a2f1 6e3e d5a4 b73e d6ee 093f 80c0 f73e
000000f0: 14f4 213e 3a4f 7b3e 70fc 943e eb87 1c3e

bn2/beta f4 [64]
0.026750311 -0.018109389 -0.013317784 0.00049021514 0.008353696 0.02380144 0.0117180245 -0.020730887
-0.0035494845 -0.0011022538 0.012826604 0.027479328 -0.007205904 0.044313267 0.0069905138 0.0039538597
-0.01678449 0.025753822 0.002719091 0.0059146127 -0.00046978792 -0.007374912 -0.019504614 0.03109997
0.03459782 0.040855266 -0.0063537806 0.0049309237 0.04395009 -0.015573826 0.020021658 0.01915729
-0.0008092455 0.013182575 -0.00035368453 -0.015149325 0.018122662 0.0065462585 -0.028163435 0.009628179
0.023960752 -0.0039616195 0.002454448 0.016882338 -0.0008899831 0.011246281 0.01726056 0.015378822
0.010288565 0.03544062 -0.0044237287 0.0129696075 -0.030814577 0.011977661 -0.003204225 -0.0066795694
0.029081486 0.0011277521 -0.005033105 -0.033522207 0.010741782 -0.00946423 -0.028412277 0.025861738
00000000: 7823 db3c 245a 94bc d632 5abc c881 003a
00000010: f1dd 083c 3dfb c23c f5fc 3f3c d2d3 a9bc
00000020: 789e 68bb 8079 90ba ad26 523c 541c e13c
00000030: 811f ecbb d481 353d ae10 e53b 618f 813b
00000040: a07f 89bc aef9 d23c c732 323b 5ecf c13b
00000050: de4d f6b9 3fa9 f1bb 24c8 9fbc 5dc5 fe3c
00000060: 72b6 0d3d da57 273d 6033 d0bb 9693 a13b
00000070: 0205 343d 5c29 7fbc 7604 a43c c0ef 9c3c
00000080: 8c23 54ba bafb 573c bc6e b9b9 e034 78bc
00000090: fa75 943c ff81 d63b 01b7 e6bc 82bf 1d3c
000000a0: 5749 c43c 79d0 81bb ceda 203b d44c 8a3c
000000b0: c14d 69ba 5242 383c 0566 8d3c 74f7 7b3c
000000c0: 5f91 283c 2f2a 113d edf4 90bb 7a7e 543c
000000d0: da6e fcbc f43d 443c fafd 51bb 4ae0 dabb
000000e0: 4c3c ee3c 15d1 933a bfec a4bb 954e 09bd
000000f0: 4dfe 2f3c dc0f 1bbc ddc0 e8bc ffdb d33c

bn4/gamma f4 [32]
1.0032405 1.131999 1.0187951 1.0581527 1.0519761 1.0983318 1.0986389 1.087357
1.0377175 1.1049393 1.086838 1.0483564 1.0575755 1.0235792 1.0884732 1.0332817
1.1172937 1.0706042 1.1165785 1.0927523 1.0597267 1.0944725 1.0643498 1.0453829
1.0461143 1.0546681 1.1442232 1.0761033 1.1151391 1.0353924 1.1061609 1.0518188
00000000: 2f6a 803f 58e5 903f e167 823f 8c71 873f
00000010: 27a7 863f 2396 8c3f 33a0 8c3f 842e 8b3f
00000020: edd3 843f a76e 8d3f 821d 8b3f 8b30 863f
00000030: a25e 873f a504 833f 1753 8b3f 9342 843f
00000040: 7b03 8f3f 8f09 893f 0bec 8e3f 4fdf 8b3f
00000050: 20a5 873f ad17 8c3f 9d3c 883f 1bcf 853f
00000060: 13e7 853f 5dff 863f e875 923f c1bd 893f
00000070: e1bc 8e3f bd87 843f ae96 8d3f 00a2 863f

conv1_7/b f4 [2]
0.04272273 0.005505754
00000000: 08fe 2e3d 9d69 b43b

conv1_6/W f4 [32, 32, 3, 3]
-0.022637222 -0.009952391 0.047272 -0.0024044488 -0.019645937 0.09674667 0.023197636 -0.0072653703
0.05357053 0.099579215 -0.075314336 0.08526083 -0.0014536942 -0.026757058 0.026430648 0.0021284516
0.00441363 -0.00082508335 0.071069054 -0.017339181 0.06530977 0.019114139 0.10293578 0.014978059
-0.043348428 0.012039405 -0.041852187 -0.050037067 0.010887076 0.006657364 -0.063217156 0.09081223
0.08451938 -0.010441354 0.030721217 0.089358315 -0.02519533 -0.048148345 -0.05554604 -0.08317621
0.0034789613 -0.07187455 -0.027993076 -0.016664058 -0.060930293 -0.10242524 -0.09072156 -0.008587335
-0.0076350234 -0.043830976 -0.07367238 0.0008599248 -0.04577327 -0.06207062 0.07541833 -0.008575511
-0.051320102 -0.061750535 -0.04598257 -0.059433397 -0.012887094 -0.053752612 -0.009025517 -0.046336204
0.12020827 0.026258659 -0.119228564 0.003964382 -0.029790793 0.05941071 -0.09581364 0.04740945
-0.017702466 0.011981063 0.08770855 0.0024478615 -0.0720585 -0.002109926 0.020326588 0.055991873
-0.07357962 0.06456655 -0.06467032 0.027496284 0.01562819 0.06155065 0.03776749 0.025837244
-0.12673116 -0.07760642 0.0041363966 0.018411005 -0.046672456 -0.023429325 -0.027532171 -0.038427252
0.011397065 0.05878193 -0.033663187 -0.004581777 -0.10612903 0.02447517 0.06295453 0.04990284
0.017695043 0.021881372 0.09570132 -0.01826899 -0.012497507 0.069671154 -0.0331675 0.1353026
-0.0061886264 0.045451988 0.063833475 0.0017795174 0.014812089 -0.13284647 0.054815724 0.02837646
-0.05716019 -0.09176849 -0.08296215 0.059956424 0.010696333 -0.08828131 -0.010896662 -0.036482554
-0.037102755 -0.0074972985 0.071226485 -0.011609694 -0.03731505 0.021736436 -0.027279006 -0.0149488915
-0.03336937 -0.044386003 -0.10289657 -0.0671981 0.13302976 -0.032301247 0.0046329773 -0.06467065
0.0772758 -0.02330937 -0.05264763 0.022906287 0.039426073 -0.08589143 -0.11246898 -0.0934476
0.06254635 0.04693394 -0.10610547 0.054973215 0.045593724 -0.11772816 0.08858857 0.024439396
0.012310027 0.053753298 -0.05839273 -0.006869131 0.039855648 0.08480046 -0.060015943 0.03245395
-0.022326147 -0.05352399 0.029205123 0.029345952 0.1033616 0.009049537 0.055221952 -0.032492623
-0.020050267 0.047055498 0.08435333 -0.02025373 -0.06343651 0.032375477 -0.047337145 0.048501782
-0.03699713 -0.01879493 0.048640803 -0.027651142 -0.030051066 -0.013132377 -0.046018127 -0.0215412
-0.014467802 -0.085113704 -0.059976537 -0.078479126 0.113733746 0.0813325 0.05947942 0.022130594
-0.02616679 0.030595453 0.03644266 -0.016351618 -0.06309695 0.024380576 -0.027232261 0.058112845
-0.035563465 -0.14418702 0.04841264 0.013373802 0.06450911 0.060444944 0.0076804557 -0.09125722
-0.08058512 -0.068027444 -0.095873274 0.035969254 0.036465798 0.048877984 -0.021009441 -0.09170371
0.09879599 -0.03740085 0.08489116 0.009562695 0.016693715 0.020766808 -0.058187686 0.045862377
0.012884696 0.07074128 -0.006078165 0.017844029 0.1073143 0.045014635 -0.00025298176 -0.051516507
0.051957503 0.027155602 0.03795779 0.033292327 -0.11125713 0.10433622 0.028408244 -0.07735141
-0.064498 0.06075664 0.05607107 0.017092895 0.0041307714 0.052361432 0.021193538 -0.123117216
00000000: b271 b9bc 5a0f 23bc 49a0 413d f593 1dbb
00000010: 84f0 a0bc 1e23 c63d f808 be3c 5812 eebb
00000020: c66c 5b3d 30f0 cb3d 673e 9abd 3b9d ae3d
00000030: e289 beba 9e31 dbbc 1685 d83c 7e7d 0b3b
00000040: 36a0 903b 684a 58ba a78c 913d e60a 8ebc
00000050: 21c1 853d 4195 9c3c ffcf d23d 8866 753c
00000060: 1f8e 31bd ed40 453c 336d 2bbd abf3 4cbd
00000070: b55f 323c 0426 da3b ff77 81bd c3fb b93d
00000080: 7f18 ad3d 3612 2bbc 10ab fb3c 7e01 b73d
00000090: 7066 cebc 3337 45bd 3f84 63bd 4a58 aabd
000000a0: 49ff 633b f732 93bd bc51 e5bc 1083 88bc
000000b0: 0b92 79bd 53c4 d1bd 3acc b9bd e5b1 0cbc
000000c0: 382f fabb 1c88 33bd 8be1 96bd 946c 613a
000000d0: c17c 3bbd c33d 7ebd ed74 9a3d 4d80 0cbc
000000e0: 0735 52bd 21ee 7cbd 3858 3cbd 6f70 73bd
000000f0: 6424 53bc b32b 5cbd c3df 13bc 08cb 3dbd
00000100: c12f f63d 661c d73c 1b2e f4bd a6e7 813b
00000110: d20b f4bc a558 733d f139 c4bd 6930 423d
00000120: c304 91bc 384c 443c 8aa0 b33d 4d6c 203b
00000130: 6893 93bd af46 0abb f283 a63c bc57 653d
00000140: e9b0 96bd 783b 843d df71 84bd e33f e13c
00000150: b106 803c 891c 7c3d 15b2 1a3d a1a8 d33c
00000160: d0c5 01be 1df0 9ebd 9c8a 873b add2 963c
00000170: 9e2b 3fbd dbee bfbc 268b e1bc e565 1dbd
00000180: c1ba 3a3c 52c5 703d 69e2 09bd bb22 96bb
00000190: 2d5a d9bd 2780 c83c 4eee 803d ec66 4c3d
000001a0: 32f5 903c 9040 b33c 0eff c33d d9a8 95bc
000001b0: 58c2 4cbc c0af 8e3d a5da 07bd c48c 0a3e
000001c0: f6c9 cabb dd2b 3a3d 20bb 823d b23e e93a
000001d0: 67ae 723c e808 08be 7486 603d c075 e83c
000001e0: ce20 6abd 1ef1 bbbd 0fe8 a9bd de94 753d
000001f0: ac3f 2f3c d5cc b4bd ea87 32bc bb6e 15bd
00000200: 0ff9 17bd e6ab f5bb 31df 913d 9636 3ebc
00000210: aad7 18bd 9c10 b23c 3978 dfbc 32ec 74bc
00000220: 52ae 08bd 19ce 35bd 70bb d2bd 289f 89bd
00000230: f438 083e 504e 04bd 3bd0 973b 0c72 84bd
00000240: c642 9e3d 4bf3 bebc 0ba5 57bd f7a5 bb3c
00000250: 3c7d 213d d9e7 afbd 2356 e6bd 7561 bfbd
00000260: 4d18 803d ce3d 403d d34d d9bd 982b 613d
00000270: 7cc0 3a3d 761b f1bd ed6d b53d 2135 c83c
00000280: ffaf 493c 6b2c 5c3d 372d 6fbd 7216 e1bb
00000290: ad3f 233d ddab ad3d 47d3 75bd 6fee 043d
000002a0: 53e5 b6bc f93b 5bbd 953f ef3c ec66 f03c
000002b0: 3faf d33d 8244 143c 6a30 623d fc16 05bd
000002c0: 7540 a4bc 44bd 403d 70c1 ac3d 26eb a5bc
000002d0: 00eb 81bd 269c 043d 98e4 41bd cea9 463d
000002e0: 4d8a 17bd d3f7 99bc 943b 473d a684 e2bc
000002f0: a72d f6bc 2e29 57bc 817d 3cbd 2c77 b0bc
00000300: 5c0a 6dbc 1850 aebd f5a9 75bd aab9 a0bd
00000310: 3ded e83d a791 a63d b1a0 733d 384b b53c
00000320: bc5b d6bc 51a3 fa3c e644 153d d4f3 85bc
00000330: f938 81bd c6b9 c73c 3116 dfbc bc07 6e3d
00000340: ffaa 11bd c3a5 13be 554c 463d cb1d 5b3c
00000350: 5a1d 843d 1e95 773d 55ac fb3b 11e5 babd
00000360: d009 a5bd f951 8bbd 3559 c4bd 7f54 133d
00000370: 295d 153d 4834 483d fe1b acbc 28cf bbbd
00000380: 8d55 ca3d a231 19bd 6bdb ad3d daac 1c3c
00000390: 42c1 883c 271f aa3c 3656 6ebd 30da 3b3d
000003a0: 551a 533c cee0 903d 582b c7bb a42d 923c
000003b0: 9ac7 db3d 4461 383d a3a2 84b9 f902 53bd
000003c0: 64d1 543d 6d75 de3c a179 1b3d 895d 083d
000003d0: c7da e3bd 3aae d53d 68b8 e83c 6b6a 9ebd
000003e0: 8717 84bd f4db 783d c7aa 653d 6606 8c3c
000003f0: 6c5b 873b f178 563d 129e ad3c e124 fcbd

conv1_4/W f4 [32, 64, 3, 3]
0.005846031 -0.06166981 -0.06510327 0.03547021 0.06542084 -0.0018895284 0.0063742283 -0.019456958
0.0029307986 -0.04149504 -0.09353264 -0.070705004 -0.0010960791 0.076396085 0.011850031 -0.013768853
0.07797158 0.08874969 0.07515944 -0.025900565 -0.009801471 0.07182606 0.007600853 0.063887715
-0.032037895 -0.022837533 0.0904105 0.01079817 -0.09730579 -0.048488114 0.013535075 -0.060909525
-0.03701184 -0.010415356 -0.013476037 -0.035132077 -0.017832205 0.034004617 0.0018310391 -0.017434476
-0.01171512 -0.0058282786 0.0210956 -0.010268662 0.065457314 -0.059500366 -0.06640676 0.00447168
0.00081344775 -0.06335946 0.051195495 0.013409926 0.0052634752 -0.029326934 0.011068568 0.048964273
0.04964418 -0.09572512 -0.0074566016 0.051155277 -0.02436171 0.003704674 -0.019789431 0.04608463
-0.0066946466 0.00028249016 0.077403635 0.026699457 -0.011857506 0.07330816 -0.04628913 -0.035393048
0.010506306 -0.050694387 -0.008782755 0.009214291 -0.030467823 -0.087941825 -0.043352198 0.0080052465
0.05372909 0.049487047 0.019506788 0.027014682 -0.0041844905 0.029045695 -0.103777565 0.010136576
-0.09660646 -0.05489532 -0.038157407 -0.04961318 0.016454171 0.037663657 -0.056217995 -0.041033234
-0.028508604 0.0021782732 -0.0016378473 0.08432179 0.0064991466 -0.046028867 0.009902882 -0.071446195
0.01406461 -0.020681156 0.013508004 0.004022366 0.043755963 0.061859924 0.03874423 -0.029548775
-0.015008226 0.0021603818 0.0812956 0.0598241 -0.019778889 0.035110015 0.06356917 -0.006221156
0.05958994 -0.0667722 -0.005493372 0.07008969 0.0038079182 -0.03408296 0.0024737667 -0.05878194
0.03725842 0.10364535 0.018772779 0.0013600361 -0.067882895 -0.07056868 0.071643755 -0.08462793
0.04982385 -0.015014191 -0.0006845357 0.0046630846 -0.0036850378 -0.07227961 -0.0028258166 -0.025104016
-0.001448195 -0.00032132262 -0.046733133 0.025484597 0.010219726 0.0429508 -0.049660217 -0.051561385
-0.049188938 -0.07198053 -0.061513703 0.018443234 0.007611301 -0.022388624 -0.15922984 0.0020453464
0.07010598 0.00031896256 0.0021547128 0.03132124 -0.01131885 0.05505073 -0.010581235 -7.4747477e-06
-0.02270988 0.03186492 0.050171982 -0.03168772 0.07294916 0.006501759 0.048942268 0.06308756
0.030941686 -0.029190704 -0.07003784 0.022372207 -0.055354238 -0.0053942255 -0.02020235 -0.029671676
0.018095644 -0.06574679 0.0018338014 -0.009710958 0.002506903 0.07325782 0.0024943468 0.0032006905
-0.016728142 -0.003917355 0.020973604 -0.016152134 -0.021391772 -0.007241103 0.029725604 0.019070553
-0.022110615 0.015078429 0.037291795 0.027811693 -0.07807141 0.040547103 0.1262865 0.040323116
-0.015739882 -0.02103377 -0.033283796 -0.03445589 -0.015808769 -0.039404362 -0.013510101 -0.05959211
-0.03489337 0.023607131 -0.017305695 -0.04292004 0.04009004 0.05349927 0.008044329 0.040972874
0.012237969 0.0032769516 -0.037009455 -0.016294206 -0.04532713 -0.03740405 -0.058040373 0.024560452
-0.018606786 0.0013674684 -0.085548565 -0.050428238 -0.040362928 -0.006042287 0.024751192 -0.0019163002
-0.014256388 0.01123643 -0.00942933 0.022785604 0.043647707 0.04961527 0.0939147 0.012141062
-0.0049675084 -0.00063374225 0.08553797 0.03601587 -0.029177224 0.022828745 0.0053415545 0.0047850125
00000000: 1090 bf3b 7c99 7cbd dd54 85bd 3649 113d
00000010: 5dfb 853d 0daa f7ba e7de d03b 3364 9fbc
00000020: a412 403b b4f6 29bd 0a8e bfbd c9cd 90bd
00000030: 50aa 8fba 8d75 9c3d a226 423c c196 61bc
00000040: 90af 9f3d 66c2 b53d 31ed 993d 6c2d d4bc
00000050: 5996 20bc 8b19 933d 9410 f93b 90d7 823d
00000060: 2b3a 03bd c715 bbbc 2429 b93d cfea 303c
00000070: 4248 c7bd 799b 46bd 38c2 5d3c 447c 79bd
00000080: ba99 17bd 2ba5 2abc 99ca 5cbc a7e6 0fbd
00000090: d814 92bc 6d48 0b3d 7aff ef3a bfd2 8ebc
000000a0: c6f0 3fbc 25fb bebb aed0 ac3c e43d 28bc
000000b0: 7c0e 863d a8b6 73bd 4400 88bd 2c87 923b
000000c0: 8e3d 553a 9bc2 81bd 5eb2 513d 4eb5 5b3c
000000d0: 3b79 ac3b 0a3f f0bc f058 353c c38e 483d
000000e0: b257 4b3d 880b c4bd 8256 f4bb 3288 513d
000000f0: 3592 c7bc 1eca 723b 721d a2bc 3dc3 3c3d
00000100: c45e dbbb 301b 9439 cc85 9e3d d2b8 da3c
00000110: fc45 42bc 9722 963d ac99 3dbd 4df8 10bd
00000120: a422 2c3c eba4 4fbd 8be5 0fbc 8af7 163c
00000130: a897 f9bc d81a b4bd 1392 31bd 7028 033c
00000140: 0913 5c3d eeb2 4a3d b3cc 9f3c e54d dd3c
00000150: 0d1e 89bb 3df1 ed3c 5589 d4bd e213 263c
00000160: 9cd9 c5bd ead9 60bd f14a 1cbd 3137 4bbd
00000170: e6ca 863c 3545 1a3d d744 66bd 7712 28bd
00000180: e08a e9bc 5cc1 0e3b 09ad d6ba e7b0 ac3d
00000190: cbf6 d43b c488 3cbd b33f 223c 6252 92bd
000001a0: 406f 663c 876b a9bc ad50 5d3c 0dce 833b
000001b0: 7439 333d d560 7d3d 45b2 1e3d 4610 f2bc
000001c0: 10e5 75bc 3195 0d3b 4f7e a63d 1e0a 753d
000001d0: 5607 a2bc 85cf 0f3d 8e30 823d d7da cbbb
000001e0: 9514 743d ddbf 88bd bf01 b4bb 2f8b 8f3d
000001f0: 448e 793b 939a 0bbd eb1e 223b 55c5 70bd
00000200: 499c 183d 0344 d43d 5fc9 993c 3d43 b23a
00000210: 3006 8bbd 5086 90bd f6b9 923d 6851 adbd
00000220: 1814 4c3d 15fe 75bc 6a72 33ba cacc 983b
00000230: ad80 71bb 5507 94bd 5631 39bb f0a6 cdbc
00000240: 5cd1 bdba 3177 a8b9 3e6b 3fbd 13c5 d03c
00000250: a370 273c 2eed 2f3d 8368 4bbd 0832 53bd
00000260: 577a 49bd 876a 93bd cbf5 7bbd 4416 973c
00000270: 3868 f93b 5968 b7bc 260d 23be 380b 063b
00000280: b993 8f3d 6e3a a739 1536 0d3b b34a 003d
00000290: b372 39bc e07c 613d eb5c 2dbc 98cf fab6
000002a0: 120a babc ca84 023d 2381 4d3d fcca 01bd
000002b0: 5f66 953d b50c d53b b077 483d 0d34 813d
000002c0: 6b79 fd3c 5821 efbc 0070 8fbd eb45 b73c
000002d0: 20bb 62bd 0bc2 b0bb 667f a5bc 0412 f3bc
000002e0: 513d 943c 41a6 86bd 2a5c f03a b61a 1fbc
000002f0: da4a 243b 3208 963d 3278 233b adc2 513b
00000300: 7509 89bc 285d 80bb d6d0 ab3c 7b51 84bc
00000310: cc3d afbc c646 edbb 1c83 f33c d939 9c3c
00000320: 5221 b5bc 840b 773c 48bf 183d 59d5 e33c
00000330: e7e3 9fbd b814 263d 4051 013e da29 253d
00000340: edf0 80bc 034f acbc 9754 08bd 9f21 0dbd
00000350: 6481 81bc 7866 21bd 7859 5dbc db16 74bd
00000360: 5aec 0ebd be63 c13c acc4 8dbc edcc 2fbd
00000370: 7435 243d 0d22 5b3d 5ccc 033c 2cd3 273d
00000380: c381 483c 20c2 563b 3a97 17bd 6d7b 85bc
00000390: f1a8 39bd fd34 19bd bebb 6dbd 0033 c93c
000003a0: 426d 98bc a03c b33a 1634 afbd d78d 4ebd
000003b0: 9953 25bd 61fe c5bb 03c3 ca3c 5d2c fbba
000003c0: a093 69bc 0119 383c 7a7d 1abc e0a8 ba3c
000003d0: f0c7 323d 6239 4b3d 5a56 c03d 4eeb 463c
000003e0: 7bc6 a2bb b921 26ba 882e af3d 6085 133d
000003f0: 1305 efbc 5903 bb3c 3508 af3b 98cb 9c3b

bn1/avg_mean f4 [64]
0.0038716374 -0.049757943 0.067333356 -0.07257251 0.044550728 0.061706156 -0.017412301 -0.02152849
0.09071615 0.061454363 -0.105476655 -0.057508547 -0.078714885 -0.040848944 -0.09669977 -0.03167706
-0.030708782 0.098668486 0.019686656 -0.14322288 -0.010246813 -0.08061386 0.082813576 -0.12011742
0.020973302 -0.12505162 -0.06435465 0.017341625 -0.05386262 -0.020592563 -0.059401903 -0.075999394
0.065291986 0.07145085 -0.07742529 -0.104819514 0.039147776 -0.015831053 0.021854332 0.026439177
0.05403991 -0.07110333 -0.11589681 -0.07280853 0.05829243 -0.08553748 -0.057255667 -0.0915025
0.046521425 0.02079521 0.045980856 -0.0974512 -0.028111503 0.076877 -0.14214602 -0.05848516
0.022443473 -0.0719944 -0.023360554 0.03753715 -0.060519215 -0.1302914 0.069836706 -0.031537507
00000000: 4cbb 7d3b fcce 4bbd 12e6 893d e5a0 94bd
00000010: d37a 363d 98bf 7c3d 3ea4 8ebc 845c b0bc
00000020: 64c9 b93d 92b7 7b3d 2504 d8bd 158e 6bbd
00000030: 4535 a1bd 3951 27bd 870a c6bd cebf 01bd
00000040: fc90 fbbc b412 ca3d e945 a13c 05a9 12be
00000050: 40e2 27bc e118 a5bd 2a9a a93d 1f00 f6bd
00000060: 34d0 ab3c 880d 00be 5fcc 83bd 0610 8e3c
00000070: 0d9f 5cbd bcb1 a8bc 694f 73bd 92a5 9bbd
00000080: ceb7 853d d354 923d 2791 9ebd 9dab d6bd
00000090: 6b59 203d 20b0 81bc db07 b33c f996 d83c
000000a0: f458 5d3d 9f9e 91bd 4f5b edbd a31c 95bd
000000b0: 0bc4 6e3d 462e afbd eb84 6abd aa65 bbbd
000000c0: 408d 3e3d b75a aa3c 6c56 3c3d 7f94 c7bd
000000d0: 184a e6bc b071 9d3d ba8e 11be 238e 6fbd
000000e0: 60db b73c cd71 93bd a25e bfbc 8ec0 193d
000000f0: ffe2 77bd 1c6b 05be 8c06 8f3d 792d 01bd

bn4/beta f4 [32]
-0.009321995 0.14030002 0.023038546 0.050788924 0.02368712 0.10357384 0.11476503 0.08668363
0.015120486 0.12023728 0.11316797 0.06805655 0.037591934 0.032739516 0.09705317 0.04894251
0.12076873 0.05156178 0.1062144 0.09118152 0.077647746 0.10736283 0.019623017 0.033654746
0.057385933 0.05697876 0.043040995 0.10598115 0.14135069 0.0109340595 0.08791487 0.11723823
00000000: 48bb 18bc cfaa 0f3e 55bb bc3c 0c08 503d
00000010: 7e0b c23c 851e d43d ee09 eb3d 3087 b13d
00000020: eabb 773c f73e f63d 9cc4 e73d 3c61 8b3d
00000030: 00fa 193d df19 063d d0c3 c63d f177 483d
00000040: 9955 f73d 7232 533d ef86 d93d 60bd ba3d
00000050: c805 9f3d 0be1 db3d 73c0 a03c 8fd9 093d
00000060: 830d 6b3d 8f62 693d c14b 303d a50c d93d
00000070: 3cbe 103e c524 333c b60c b43d 991a f03d

conv1_2/W f4 [64, 64, 3, 3]
-0.049967203 0.0775642 0.021910505 0.047022253 -0.02606955 -0.059646554 0.0063959234 -0.0016774475
-0.09137049 0.060726494 -0.0027611018 0.071459405 -0.023403268 0.026566848 0.05288543 -0.05049436
-0.051072467 -0.037936658 -0.009497532 -0.05380571 0.073170304 -0.017012013 0.03879755 0.033625808
-0.053480834 0.035276737 -0.08740719 -0.043803222 0.07551115 -0.02819827 -0.016239276 -0.085866384
-0.05080853 0.02527956 0.014091968 -0.012793664 -0.027321564 0.011350822 -0.04074324 -0.00919641
-0.043041945 -0.00892941 0.033712424 -0.002136531 0.044920996 -0.023670241 -0.03714777 -0.051054467
-0.0042693885 0.0026131847 0.018476196 0.097124055 -0.018014837 0.04468103 0.007005394 0.067036875
0.009378032 -0.018882325 -0.006145574 -0.08745885 0.0723513 0.050525125 0.00493575 -0.04814087
-0.035799205 0.016365742 -0.040199414 -0.019937258 0.048847634 -0.08979265 0.00059859664 -0.05581213
-0.024889039 0.02971859 0.053650916 0.012396673 -0.05056606 -0.031956434 0.012597867 -0.02255596
-0.06314326 -0.057327777 -0.0032286593 0.008577601 0.06018918 -0.0958902 0.011371886 0.01149251
-0.061911263 0.08793945 -0.018825825 -0.017582873 -0.030391773 -0.036252424 0.034476798 0.07031213
-0.026458548 0.022453425 -0.012572835 0.03368558 0.03553812 -0.028506761 0.0026337858 -0.07518418
0.03164954 0.046466555 0.007811134 -0.05108544 -0.06659944 -0.06886163 -0.033590507 -0.004209833
0.015105019 -0.07075151 0.079113305 -0.009779251 0.040582735 -0.06474246 -0.014503597 -0.020445071
-0.0609712 -0.02229421 -0.0077293324 -0.07376023 -0.03545011 -0.04512578 -0.020158933 0.007815933
-0.068166144 0.022350697 -0.028251473 0.073017225 -0.0022119766 -0.045279186 0.116655126 -0.032545544
-0.051726494 -0.03814158 -0.020284493 -0.036550492 -0.011721551 -0.06378165 -0.027180742 -0.10631789
-0.009132094 -0.038401738 -0.0084843 -0.03958787 -0.03466783 -0.113156006 0.008367273 0.01349577
-0.0818128 -0.06941087 0.009115532 -0.03654147 0.04409279 -0.039009742 0.10377788 -0.035122644
-0.07292046 -0.031667415 -0.01747798 -0.068751454 -0.013849595 -0.015758691 -0.034105733 -0.066321015
0.025924494 -0.015183424 -0.08240454 -0.091353424 -0.08633539 -0.05092674 -0.02107589 0.011975461
-0.022537546 -0.06291832 -0.015251019 -0.03247061 -0.029090969 -0.058051456 -0.01931937 0.010734735
-0.12806058 -0.03733191 0.020722188 -0.014617049 0.003383818 0.06599652 -0.035426386 -0.009523494
0.05265716 -0.04368725 0.04489846 0.010743694 0.0032986235 0.052557368 -0.08078764 0.029016687
0.04306697 -0.08714334 -0.026607389 -0.030336821 0.065869726 0.047576595 -0.060663242 0.048718855
-0.019698987 0.062676996 0.004590788 -0.0045854514 -0.09920775 -0.02281016 0.011514355 0.040655255
-0.0063409586 -0.021627285 0.023351511 0.0171416 0.011864047 0.039202657 -0.070188425 -0.06277614
0.031092005 -0.02671371 0.032303866 0.0794888 -0.030159647 0.045854647 -0.0178155 -0.08257119
0.009180965 0.04631837 -0.013547263 0.03434824 -0.00037932885 -0.028514251 0.028588615 -0.09971659
-0.040137272 0.021212352 0.0023044418 -0.010012315 0.042659204 -0.018806215 0.03077276 -0.040212467
0.03478155 0.015567756 0.037216615 0.01953611 -0.033667877 0.038046084 -0.063329846 -0.010212088
00000000: 69aa 4cbd fbd9 9e3d a97d b33c 689a 403d
00000010: cf8f d5bc f24f 74bd e594 d13b ccdd dbba
00000020: 7420 bbbd 58bc 783d 9af3 34bb 4f59 923d
00000030: 36b8 bfbc b8a2 d93c 659e 583d 2dd3 4ebd
00000040: 5d31 51bd 7863 1bbd 899b 1bbc 6063 5cbd
00000050: 50da 953d c75c 8bbc 2eea 1e3d 37bb 093d
00000060: b80e 5bbd 577e 103d 8a02 b3bd 026b 33bd
00000070: 97a5 9a3d 0f00 e7bc 3b08 85bc b7da afbd
00000080: 9b1c 50bd 1417 cf3c ffe1 663c 849c 51bc
00000090: 79d1 dfbc ccf8 393c 62e2 26bd 8aac 16bc
000000a0: c04c 30bd a94c 12bc 0a16 0a3d 0b05 0cbb
000000b0: 14ff 373d 18e8 c1bc 4328 18bd 7d1e 51bd
000000c0: 3ae6 8bbb f741 2b3b 645b 973c fae8 c63d
000000d0: da93 93bc 7503 373d 818d e53b a14a 893d
000000e0: 51a6 193c 1baf 9abc d060 c9bb a01d b3bd
000000f0: eb2c 943d 6ff3 4e3d 12bc a13b 5c2f 45bd
00000100: 30a2 12bd 7311 863c 24a8 24bd 7653 a3bc
00000110: 7514 483d 35e5 b7bd 24eb 1c3a 439b 64bd
00000120: 19e4 cbbc 6774 f33c 10c1 5b3d 6a1b 4b3c
00000130: 5b1e 4fbd c0e4 02bd 4967 4e3c 47c7 b8bc
00000140: 4151 81bd 88d0 6abd ea97 53bb 1189 0c3c
00000150: ee88 763d 1562 c4bd 2651 3a3c 154b 3c3c
00000160: aa96 7dbd 9919 b43d 9e38 9abc f509 90bc
00000170: 2bf8 f8bc 6c7d 14bd 8b37 0d3d ceff 8f3d
00000180: 99bf d8bc 3ff0 b73c 4bfe 4dbc e4f9 093d
00000190: 6b90 113d 0387 e9bc 989b 2c3b 2afa 99bd
000001a0: f3a2 013d b753 3e3d 8bf4 ff3b f73e 51bd
000001b0: 4a65 88bd 5407 8dbd 3396 09bd a4f2 89bb
000001c0: 0b7b 773c 2be6 90bd 2806 a23d 2739 20bc
000001d0: 153a 263d b297 84bd 7fa0 6dbc 6c7c a7bc
000001e0: f0bc 79bd 59a2 b6bc 5746 fdbb 9a0f 97bd
000001f0: 2234 11bd cfd5 38bd 5924 a5bc 660e 003c
00000200: b19a 8bbd cf18 b73c a26f e7bc 0e8a 953d
00000210: cff6 10bb ab76 39bd e2e8 ee3d 7a4e 05bd
00000220: 29df 53bd 583a 1cbd aa2b a6bc f8b5 15bd
00000230: c00b 40bc f49f 82bd 26aa debc 32bd d9bd
00000240: c79e 15bc 244b 1dbd bc01 0bbc e426 22bd
00000250: dbff 0dbd 56be e7bd e316 093c 5d1d 5d3c
00000260: 788d a7bd 4927 8ebd 5059 153c 82ac 15bd
00000270: a49a 343d aec8 1fbd 7f89 d43d c3dc 0fbd
00000280: 5257 95bd b1b5 01bd fb2d 8fbc 90cd 8cbd
00000290: 69e9 62bc 5f18 81bc 74b2 0bbd 50d3 87bd
000002a0: 9b5f d43c e5c3 78bc b6c3 a8bd 8117 bbbd
000002b0: 9cd0 b0bd 8f98 50bd 58a7 acbc b934 443c
000002c0: a9a0 b8bc 52db 80bd 69df 79bc e7ff 04bd
000002d0: 2f50 eebc 5dc7 6dbd a843 9ebc bee0 2f3c
000002e0: 5022 03be 58e9 18bd 94c1 a93c 597c 6fbc
000002f0: 0cc3 5d3b 2f29 873d 421b 11bd 6e08 1cbc
00000300: 09af 573d 67f1 32bd 73e7 373d 5206 303c
00000310: b82d 583b 6546 573d fd73 a5bd 67b4 ed3c
00000320: fe66 303d 3578 b2bd bdf7 d9bc ed84 f8bc
00000330: b5e6 863d addf 423d 057a 78bd 6c8d 473d
00000340: c55f a1bc cc5c 803d 526e 963b 8e41 96bb
00000350: 6f2d cbbd 5fdc babc b5a6 3c3c 2086 263d
00000360: d1c7 cfbb b42b b1bc ab4b bf3c 8a6c 8c3c
00000370: 6b61 423c f792 203d f3be 8fbd c790 80bd
00000380: a9b4 fe3c b6d6 dabc 0f51 043d 06cb a23d
00000390: 5d11 f7bc 15d2 3b3d d0f1 91bc 161b a9bd
000003a0: c26b 163c 55b8 3d3d 57f5 5dbc bdb0 0c3d
000003b0: a8e0 c6b9 b896 e9bc ac32 ea3c 3638 ccbd
000003c0: fb66 24bd 87c5 ad3c 1e06 173b b10a 24bc
000003d0: 6bbb 2e3d 7e0f 9abc 2817 fc3c d4b5 24bd
000003e0: 1977 0e3d e70f 7f3c 7370 183d 310a a03c
000003f0: 54e7 09bd 36d6 1b3d 14b3 81bd 9a50 27bc

bn3/gamma f4 [64]
1.0338539 1.0242809 1.0001845 1.0078125 1.0017316 1.0284151 1.0412155 1.0296912
0.99635303 0.99466515 1.0451555 1.0561951 0.9827528 1.039013 0.9939333 1.0178716
1.0210893 0.9984766 1.0015422 0.99881154 0.98872966 1.093997 1.0271113 0.9941253
1.0124241 1.0230403 0.9941717 1.0010531 1.0130382 1.0271994 1.0106646 1.0681672
0.9880181 0.9948172 0.9998918 0.9872888 0.97522336 0.98855305 0.96530855 1.0487169
0.98024035 0.9816671 1.0033314 1.0207944 1.0068274 1.0161941 1.0005549 0.99663097
0.9960139 1.0189526 1.0172105 1.0208919 1.0454565 1.0810827 1.0230262 1.0002911
1.0042276 1.0054317 0.9791653 1.054431 1.0332165 0.99773735 1.004447 1.0048685
00000000: 5355 843f a31b 833f 0c06 803f 0000 813f
00000010: be38 803f 1ba3 833f 8d46 853f eccc 833f
00000020: fe10 7f3f 60a2 7e3f a8c7 853f 6731 873f
00000030: b095 7b3f 61fe 843f 6a72 7e3f 9e49 823f
00000040: 0eb3 823f 2a9c 7f3f 8932 803f 1db2 7f3f
00000050: 631d 7d3f 1808 8c3f 6278 833f ff7e 7e3f
00000060: 1d97 813f fcf2 823f 0982 7e3f 8222 803f
00000070: 3cab 813f 457b 833f 755d 813f b4b9 883f
00000080: c1ee 7c3f 57ac 7e3f e9f8 7f3f f5be 7c3f
00000090: 3da8 793f d011 7d3f 761e 773f 5b3c 863f
000000a0: 08f1 7a3f 894e 7b3f 2a6d 803f 64a9 823f
000000b0: b8df 803f a612 823f 2f12 803f 3523 7f3f
000000c0: c4fa 7e3f 0a6d 823f f433 823f 96ac 823f
000000d0: 85d1 853f eb60 8a3f 86f2 823f 8a09 803f
000000e0: 888a 803f fcb1 803f 94aa 7a3f 98f7 863f
000000f0: 7040 843f b76b 7f3f b891 803f 889f 803f

conv1_7/W f4 [2, 32, 3, 3]
0.08441544 0.024430903 0.0675331 -0.18371706 -0.049553946 -0.019812766 0.04320946 -0.01549334
-0.035491064 -0.03273254 -0.055375982 -0.0734304 0.14939834 0.114180624 -0.008706008 0.032115843
-0.021082537 0.14436331 -0.00762251 0.030678455 -0.04420144 0.019762058 0.082149856 -0.030460704
0.016338212 0.09781586 0.1898042 0.04239759 0.0917748 -0.021480488 0.063682854 0.017069358
0.07763385 0.17491959 0.14712386 0.10570728 -0.08196574 -0.035831776 -0.07413908 0.06250616
0.044236943 -0.055018112 0.049560986 0.055431668 0.117602386 0.13904615 -0.047503877 -0.042721406
0.047172938 0.27469975 0.0833023 0.08803915 0.11757038 -0.035963755 0.01965718 0.08303061
-0.08130851 -0.0055328584 0.051153347 0.068267435 0.12345119 0.09051144 0.030707344 0.039433118
-0.050485227 0.0978144 -0.03464404 0.072862 0.05550778 -0.02962849 0.05011317 -0.021465814
0.046793383 0.02338105 -0.040120937 0.03936603 -0.04567125 -0.061448198 0.029810484 -0.14261895
0.12782905 -0.10272526 0.08343973 0.17859471 0.15268268 0.05096487 -0.04195664 0.18810278
-0.118385024 0.16680513 0.08092281 0.09313121 0.019439638 0.18690933 0.0903308 0.057557505
-0.07194827 0.021755518 0.06515773 0.035247084 0.09058314 0.013963035 0.083368726 -0.07468696
0.041500643 -0.032344837 0.025898123 0.11093907 0.02712833 -0.0008605401 0.03918984 0.062414095
0.051834527 0.114536494 -0.04061847 -0.12539728 0.049469925 0.015094717 0.065481454 0.077497765
0.06847125 -6.2080275e-05 0.021650814 0.040359143 -0.010510404 0.037392925 0.09505031 0.0921122
-0.16641365 -0.16424616 0.042526953 0.076585144 0.04997086 0.09583407 -0.02720945 0.051034316
0.041212466 0.055093836 0.16038945 0.0061841058 0.086710215 -0.013269846 -0.11595749 0.052227672
0.10514211 0.05414088 0.12377728 0.18625166 0.009009824 0.05644719 0.010380041 -0.02620699
-0.16917832 -0.010257192 0.03833219 -0.124327816 -0.047125272 0.045337662 0.04252878 0.035392977
0.04566005 0.0495325 0.055650923 0.21066043 0.049623374 0.044764277 0.17002684 -0.022949804
0.012481616 0.14393455 0.037801575 -0.053984627 -0.016030464 0.101093136 -0.051430903 0.21674757
0.06457647 0.050654188 0.050686415 0.077571586 0.0070187743 0.08188864 0.061233014 0.06255297
0.08135259 0.00860986 0.11398411 0.10182396 0.17600062 0.0787826 0.060231067 -0.04474927
-0.08214787 0.12963875 0.17738356 0.08529697 0.12901217 0.10551905 -0.00081174314 0.084347695
-0.04529666 0.06439266 -0.1393276 0.03308424 0.0051629003 -0.054322008 -0.0148326 -0.010683241
-0.013144474 -0.04540335 0.002817556 0.1201835 -0.05693844 0.048932724 0.019563278 0.11837519
-0.019338682 0.086204864 0.11800109 0.18835412 0.12404554 0.031959645 0.09441489 0.0049516717
-0.0048084 0.13463886 0.0754295 0.064366736 0.13418052 0.025587259 0.07050267 0.038466085
-0.1632937 -0.015043375 -0.039214123 0.016271979 0.08521051 -0.09676799 -0.0962366 -0.0035895354
0.051808514 -0.02941467 0.088857286 0.115562454 0.06295385 0.11500002 0.03936222 0.028048338
0.04292117 0.052497763 0.08980401 0.020051884 0.14774051 0.0076307408 0.06801966 0.08272283
00000000: 01e2 ac3d 5123 c83c cb4e 8a3d 5320 3cbe
00000010: 14f9 4abd 624e a2bc 67fc 303d c7d7 7dbc
00000020: 145f 11bd 8e12 06bd edd1 62bd ad62 96bd
00000030: e1fb 183e 88d7 e93d a5a3 0ebc e78b 033d
00000040: 49b5 acbc fad3 133e 40c6 f9bb 6251 fb3c
00000050: 920c 35bd 0ae4 a13c 2f3e a83d ba88 f9bc
00000060: b7d7 853c ae53 c83d 085c 423e 18a9 2d3d
00000070: 6df4 bb3d d9f7 afbc 286c 823d 0ad5 8b3c
00000080: 7ffe 9e3d 1f1e 333e a3a7 163e 0f7d d83d
00000090: a7dd a7bd 57c4 12bd 3bd6 97bd 3b03 803d
000000a0: cc31 353d ac5a 61bd 7600 4b3d 510c 633d
000000b0: 85d9 f03d 1d62 0e3e 6d93 42bd a4fc 2ebd
000000c0: 6938 413d 72a5 8c3e 659a aa3d df4d b43d
000000d0: bdc8 f03d bb4e 13bd 1808 a13c f40b aa3d
000000e0: 1385 a6bd fb4c b5bb 2c86 513d cccf 8b3d
000000f0: fad3 fc3d 105e b93d f88d fb3c 9f84 213d
00000100: 99c9 4ebd eb52 c83d e9e6 0dbd ac38 953d
00000110: 205c 633d 72b7 f2bc 7843 4d3d 13d9 afbc
00000120: 6baa 3f3d 9e89 bf3c da55 24bd 463e 213d
00000130: c711 3bbd 1bb1 7bbd 1e35 f43c b40a 12be
00000140: 9ee5 023e 9f61 d2bd 73e2 aa3d 88e1 363e
00000150: d958 1c3e 8ac0 503d bada 2bbd 049e 403e
00000160: d973 f2bd f7ce 2a3e dcba a53d 93bb be3d
00000170: e03f 9f3c 2965 3f3e 5bff b83d 6bc1 6b3d
00000180: 9d59 93bd a138 b23c 6a71 853d 3f5f 103d
00000190: a783 b93d 37c5 643c 39bd aa3d 7af5 98bd
000001a0: 94fc 293d 057c 04bd 4d28 d43c 0634 e33d
000001b0: 3b3c de3c de95 61ba 8785 203d eca5 7f3d
000001c0: 7150 543d 1c92 ea3d 8e5f 26bd 2568 00be
000001d0: faa0 4a3d d54f 773c 241b 863d 26b7 9e3d
000001e0: a83a 8c3d 1831 82b8 0c5d b13c a14f 253d
000001f0: d433 2cbc 5329 193d bda9 c23d 52a5 bc3d
00000200: 5768 2abe 2530 28be be30 2e3d acd8 9c3d
00000210: 3fae 4c3d a744 c43d 5ae6 debc 5c09 513d
00000220: 67ce 283d 13aa 613d 223d 243e 0aa4 ca3b
00000230: 2095 b13d c569 59bc 1f7b edbd afec 553d
00000240: bf54 d73d d4c2 5d3d f17e fd3d c1b8 3e3e
00000250: f19d 133c 2b35 673d 0c11 2a3c 0bb0 d6bc
00000260: 153d 2dbe c80d 28bc 3702 1d3d 959f febd
00000270: 6e06 41bd fcb3 393d a832 2e3d 3af8 103d
00000280: 0806 3b3d 97e2 4a3d 39f2 633d 5eb7 573e
00000290: e141 4b3d bf5a 373d 841b 2e3e 3a01 bcbc
000002a0: b17f 4c3c 9463 133e d3d5 1a3d fc1e 5dbd
000002b0: 5252 83bc eb09 cf3d 36a9 52bd 13f3 5d3e
000002c0: ab40 843d c47a 4f3d 8f9c 4f3d dadd 9e3d
000002d0: bffd e53b 3bb5 a73d 78cf 7a3d c61b 803d
000002e0: 309c a63d 5f10 0d3c 8070 e93d 1589 d03d
000002f0: 8239 343e c658 a13d dab4 763d 034b 37bd
00000300: 243d a8bd 05c0 043e 09a4 353e 2eb0 ae3d
00000310: c41b 043e 5f1a d83d 29cb 54ba 7cbe ac3d
00000320: fe88 39bd 4de0 833d e5ab 0ebe 5783 073d
00000330: 8c2d a93b c180 5ebd 6f04 73bc c308 2fbc
00000340: eb5b 57bc ddf8 39bd bfa6 383b c422 f63d
00000350: 4838 69bd ae6d 483d 2b43 a03c b16e f23d
00000360: 286c 9ebc 2d8c b03d 8eaa f13d e7df 403e
00000370: 970b fe3d 1ee8 023d 985c c13d a241 a23b
00000380: c88f 9dbb c5de 093e c87a 9a3d b5d2 833d
00000390: 9e66 093e 5f9c d13c b463 903d 9d8e 1d3d
000003a0: 7736 27be 7d78 76bc fd9e 20bd d04c 853c
000003b0: d982 ae3d 4c2e c6bd b217 c5bd 693e 6bbb
000003c0: 2a35 543d 09f7 f0bc cffa b53d 02ac ec3d
000003d0: f3ed 803d 2185 eb3d 473a 213d a1c5 e53c
000003e0: 1cce 2f3d e507 573d 2aeb b73d d943 a43c
000003f0: 4a49 173e 4b0b fa3b e44d 8b3d 966a a93d
