loto6_cnn/model/loto6_20_330.model (npz, 468585 bytes, 38 tensors)

conv1_2/b f4 [64]
0	0xb8ffaf1e	-0.00012191966
1	0xb8ba393e	-8.879833e-05
2	0x38571fff	5.1289793e-05
3	0xb9104c3e	-0.00013761313
4	0x36218b87	2.4072085e-06
5	0x38c42d92	9.3544964e-05
6	0xb8214d59	-3.8457427e-05
7	0xb93dde9a	-0.0001810737
8	0x37cf2a93	2.4696148e-05
9	0x39bf1445	0.0003644546
10	0xb82d41b0	-4.130759e-05
11	0xb9570681	-0.0002050642
12	0x37844ae0	1.5770493e-05
13	0x377790b3	1.4756038e-05
14	0xb76a5dab	-1.3969296e-05
15	0xb8c5575d	-9.409965e-05
16	0xb7e96382	-2.7822101e-05
17	0xb788b7bf	-1.6298027e-05
18	0x37f671e3	2.9378518e-05
19	0xb6d8fc55	-6.466677e-06
20	0x38b60eb3	8.681174e-05
21	0x385c67de	5.254882e-05
22	0x37372863	1.0917053e-05
23	0xb8cf67d8	-9.8898716e-05
24	0xb84584c1	-4.7092097e-05
25	0xb79de3d2	-1.8821946e-05
26	0xb6a339e1	-4.8645165e-06
27	0xb7c80a95	-2.3846786e-05
28	0xb7be260d	-2.2667484e-05
29	0x38de1c01	0.00010591001
30	0x3731463c	1.0566375e-05
31	0xb5e49585	-1.703084e-06
32	0x37952575	1.7779626e-05
33	0xb6de65bf	-6.6279604e-06
34	0xb84b2c13	-4.844002e-05
35	0xb9095887	-0.00013098317
36	0x38ab7b44	8.1768754e-05
37	0xb92e9cc9	-0.0001665234
38	0x369fac86	4.7586536e-06
39	0xb828fa7e	-4.028761e-05
40	0x388f753c	6.840608e-05
41	0xb804a25e	-3.162247e-05
42	0x37be7754	2.2705332e-05
43	0xb7565c48	-1.277688e-05
44	0x3767befe	1.3813142e-05
45	0x37cb6537	2.4246618e-05
46	0x381438a7	3.533871e-05
47	0xb8a7b54b	-7.996949e-05
48	0xb7cd1ec1	-2.4452225e-05
49	0x380f9816	3.4235498e-05
50	0x3852eed3	5.0290324e-05
51	0x37ec721e	2.8186532e-05
52	0x360af1ba	2.0704306e-06
53	0x384223cd	4.6286546e-05
54	0x391fd646	0.00015243245
55	0xb9325565	-0.00017007215
56	0xb90154d7	-0.00012334004
57	0xb68c3ad4	-4.1791736e-06
58	0x38947bb2	7.08023e-05
59	0x359d1846	1.1704476e-06
60	0x36354f0a	2.7017109e-06
61	0x3843e000	4.670024e-05
62	0xb8ccf672	-9.773382e-05
63	0xb7e19934	-2.6893431e-05

conv1_4/b f4 [32]
0	0x38ec0f8c	0.00011256253
1	0xb88e11e7	-6.774422e-05
2	0xb994ee9c	-0.00028406538
3	0x392667de	0.00015869687
4	0x3980c414	0.00024560152
5	0xb92bb3f1	-0.00016374864
6	0x381effb0	3.7908263e-05
7	0x37d28938	2.5097848e-05
8	0xb919b85f	-0.000146599
9	0xb74939a6	-1.1993956e-05
10	0xb98a8d11	-0.00026426514
11	0x37f61342	2.9334453e-05
12	0x37de9aec	2.6536603e-05
13	0x38ba9abd	8.8979934e-05
14	0x39033c7e	0.00012515669
15	0xb9103106	-0.00013751173
16	0xb90fc7c5	-0.00013711963
17	0xb5322097	-6.635759e-07
18	0x38f4fdab	0.00011682076
19	0xb9855bf0	-0.00025436236
20	0x38d2f772	0.000100596706
21	0xb8b1f1bd	-8.485045e-05
22	0xb8e10cbe	-0.000107312095
23	0x39d37e70	0.0004033926
24	0x35b98e4d	1.3824989e-06
25	0xb715e105	-8.9334835e-06
26	0xb7bed84e	-2.275049e-05
27	0xb811df20	-3.4778495e-05
28	0xb8857930	-6.364507e-05
29	0xb8ea3589	-0.00011167961
30	0xb897d907	-7.2406656e-05
31	0xb905f60a	-0.00012775525

bn4/avg_mean f4 [32]
0	0xbf2dc97e	-0.6788558
1	0xc04db50c	-3.2141752
2	0x3fcb56c1	1.588585
3	0xc020315a	-2.5030122
4	0x3debbedd	0.11511014
5	0xbf8138bf	-1.0095443
6	0xbff1ed0a	-1.8900464
7	0x3e5c48c7	0.21512137
8	0xbf25618f	-0.6460199
9	0xbf091468	-0.5354676
10	0xc042fc10	-3.0466347
11	0xbfa84146	-1.314492
12	0xbea0a332	-0.31374508
13	0x3e71054a	0.23537174
14	0xbfb1d561	-1.3893243
15	0xc017a98a	-2.3697228
16	0xbea1616e	-0.31519645
17	0xbf3e6396	-0.74370706
18	0xc0710403	-3.7658699
19	0xc027bd47	-2.6209276
20	0xbef28759	-0.47368887
21	0x3d29607a	0.041351773
22	0xbd2480f1	-0.04016203
23	0xbfdb8f21	-1.7153054
24	0x3e5b2f16	0.2140468
25	0xbf9395c8	-1.1530085
26	0xbec97c7a	-0.3935278
27	0x3e40fc78	0.18846309
28	0xc03db5ea	-2.9642282
29	0x3f967462	1.1754267
30	0xbef1f464	-0.47256768
31	0x3e90229a	0.281514

conv1_5/b f4 [32]
0	0xb803763d	-3.1342952e-05
1	0xb8216570	-3.8479862e-05
2	0x38d43761	0.00010119263
3	0xb899801e	-7.319472e-05
4	0x393064f5	0.00016822277
5	0x38c0e239	9.197411e-05
6	0x380a742b	3.3009954e-05
7	0x390dcbd2	0.00013522737
8	0x38a7c8a3	8.000552e-05
9	0x37fd7fd9	3.0219484e-05
10	0xb8dfdf7d	-0.000106750966
11	0xb8357cb8	-4.3269916e-05
12	0xb7ee66e3	-2.8419721e-05
13	0xb989acb7	-0.0002625936
14	0x37a36d93	1.9482139e-05
15	0x3828fe0a	4.0290914e-05
16	0x38a14787	7.690401e-05
17	0xb8601a1d	-5.343008e-05
18	0x3913f29e	0.00014109394
19	0xb8c27fba	-9.274432e-05
20	0x3918c2a3	0.00014568357
21	0x37bc1e0a	2.2425334e-05
22	0x380306cf	3.1239175e-05
23	0x39a4a790	0.0003140536
24	0x38821db9	6.204419e-05
25	0x3a2d8c62	0.0006620345
26	0xb90fadea	-0.00013702331
27	0x39693534	0.00022240431
28	0xb8d2f6f7	-0.00010059581
29	0x388f6a39	6.838557e-05
30	0xb7ae8235	-2.0803049e-05
31	0xb7c55821	-2.3525268e-05

bn5/avg_mean f4 [32]
0	0xbdc085de	-0.09400533
1	0xbe10ccbc	-0.141406
2	0xbdf3ba01	-0.11900712
3	0xbf18df9f	-0.5971622
4	0x3e1709ac	0.14749783
5	0xbf6507c7	-0.8946499
6	0xbea249d7	-0.3169696
7	0x3eeb524e	0.4596123
8	0xbde597d4	-0.112105995
9	0x3e7bc38d	0.24586315
10	0xbe65b40b	-0.22431962
11	0xbeb12f50	-0.3460641
12	0x3a3d975a	0.0007232331
13	0xbec13d79	-0.37742212
14	0xbe4f79aa	-0.20261255
15	0xbdf84b51	-0.121237405
16	0x3ef37536	0.47550362
17	0xbdcd2b6c	-0.10018048
18	0xbf44a26e	-0.7681035
19	0xbe419a93	-0.18906622
20	0xbc6a615c	-0.014305439
21	0xbf00acd5	-0.5026372
22	0xbed14006	-0.40869159
23	0x3f4b5749	0.7943006
24	0xbdab6161	-0.08368183
25	0x3f438049	0.7636762
26	0xbe8f9fc0	-0.28051567
27	0xbf0c9e61	-0.5492917
28	0xbe32a1f1	-0.17444588
29	0x3ce3b613	0.02779678
30	0xbec6428c	-0.38722646
31	0xbe89bb32	-0.2690063

bn1/gamma f4 [64]
0	0x3f7b7ecb	0.98240346
1	0x3f7bbbfd	0.9833372
2	0x3f8129ec	1.0090919
3	0x3f7fbf84	0.99901605
4	0x3f78a870	0.97132015
5	0x3f81504c	1.010263
6	0x3f7d368f	0.98911375
7	0x3f7d07f8	0.98840284
8	0x3f7dfa9a	0.9921051
9	0x3f8005f9	1.0001823
10	0x3f80c764	1.0060849
11	0x3f8037d8	1.0017042
12	0x3f7e71b1	0.9939223
13	0x3f804a0f	1.0022601
14	0x3f7ca146	0.98683584
15	0x3f824f5b	1.0180467
16	0x3f7b2031	0.98095995
17	0x3f7bb72f	0.9832639
18	0x3f7eb419	0.9949356
19	0x3f8234a3	1.0172313
20	0x3f84dc13	1.0379661
21	0x3f80feea	1.0077794
22	0x3f80bcc2	1.0057604
23	0x3f7f702c	0.99780536
24	0x3f81c045	1.0136801
25	0x3f809701	1.0046083
26	0x3f7b7a95	0.9823392
27	0x3f7ee8d3	0.9957401
28	0x3f79d491	0.97589976
29	0x3f7ee1f2	0.99563515
30	0x3f75d0dc	0.9602182
31	0x3f7d60cc	0.98975825
32	0x3f7bffb7	0.98437065
33	0x3f814062	1.0097773
34	0x3f799c20	0.9750385
35	0x3f7dcc78	0.9914012
36	0x3f802e28	1.0014086
37	0x3f87249a	1.0558045
38	0x3f8118c9	1.0085689
39	0x3f82637f	1.0186614
40	0x3f7c6520	0.98591805
41	0x3f7a5138	0.9778018
42	0x3f80d266	1.0064209
43	0x3f7ac1c7	0.9795193
44	0x3f812314	1.008883
45	0x3f7ac195	0.9795163
46	0x3f806526	1.0030868
47	0x3f807d32	1.0038207
48	0x3f7b0b06	0.98063695
49	0x3f7df9cc	0.99209285
50	0x3f7cc5ab	0.9873912
51	0x3f80b900	1.0056458
52	0x3f7d5b03	0.98967
53	0x3f77bf19	0.96775967
54	0x3f7d3fcf	0.9892549
55	0x3f838d96	1.0277584
56	0x3f7afde2	0.98043644
57	0x3f77a7c6	0.96740377
58	0x3f7b01b4	0.98049474
59	0x3f7d0715	0.9883893
60	0x3f7a893d	0.9786566
61	0x3f821c15	1.016482
62	0x3f78800c	0.97070384
63	0x3f7c308e	0.9851159

conv1_3/b f4 [64]
0	0xb79c6144	-1.8641942e-05
1	0x37c7079f	2.3726197e-05
2	0xb7586593	-1.2898253e-05
3	0xb7b7ab7c	-2.1895154e-05
4	0x383527b3	4.3190736e-05
5	0x371a9a42	9.215031e-06
6	0xb8dd22d4	-0.000105445884
7	0x36dcb5d7	6.57768e-06
8	0x38340f5c	4.292965e-05
9	0x37d7921f	2.569804e-05
10	0x377a2efb	1.49121e-05
11	0x384cb79b	4.8808386e-05
12	0x37d5f208	2.5504283e-05
13	0x388149c9	6.164943e-05
14	0xb89f5fa4	-7.599525e-05
15	0xb901b43d	-0.00012369543
16	0xb6ee1300	-7.0951646e-06
17	0x3909ab45	0.00013129141
18	0x3768ed75	1.3883565e-05
19	0x382af23d	4.075676e-05
20	0x37ebf972	2.813034e-05
21	0x38c48b23	9.3719245e-05
22	0xb802e591	-3.1208216e-05
23	0x3689b698	4.104175e-06
24	0x37aac40e	2.0356874e-05
25	0x37c7e70b	2.3830236e-05
26	0x3815fc2b	3.5759218e-05
27	0x3852b8e7	5.0240105e-05
28	0xb7187ed2	-9.089434e-06
29	0x372dbad6	1.0355105e-05
30	0xb8041ca2	-3.149792e-05
31	0x38ea6e1f	0.00011178501
32	0xb6d3acdf	-6.308415e-06
33	0xb7a7e147	-2.0012854e-05
34	0xb8043a9a	-3.152583e-05
35	0xb7d613c2	-2.5519988e-05
36	0x38ccab6c	9.759408e-05
37	0xb708bff5	-8.150925e-06
38	0xb60e0e61	-2.1168019e-06
39	0xb6a1236e	-4.8022985e-06
40	0xb7a148a8	-1.9226529e-05
41	0x38eb9109	0.00011232688
42	0x384b0352	4.8402064e-05
43	0xb7878939	-1.6157153e-05
44	0xb7db00ae	-2.6107151e-05
45	0xb7a83e67	-2.0056219e-05
46	0xb8b62a43	-8.686308e-05
47	0xb7e8956a	-2.7726132e-05
48	0xb8d631ba	-0.000102135775
49	0xb8027d7c	-3.111128e-05
50	0xb7d36496	-2.5199999e-05
51	0xb8233cdc	-3.8918908e-05
52	0x36480cf7	2.980987e-06
53	0xb82ac1d8	-4.071169e-05
54	0xb8112cd8	-3.4612458e-05
55	0x38079ce5	3.2332628e-05
56	0x38956cc5	7.1251336e-05
57	0xb76cd320	-1.41158525e-05
58	0xb8ce9d1f	-9.8521115e-05
59	0xb75cc358	-1.3158504e-05
60	0xb7d8121f	-2.5757645e-05
61	0x37ac84ad	2.056578e-05
62	0xb7c13736	-2.3033102e-05
63	0x389fae76	7.614207e-05

bn2/avg_var f4 [64]
0	0x3ed13d58	0.40867114
1	0x3f303d8e	0.68843925
2	0x3ed3bb3d	0.4135379
3	0x3f165f7a	0.58739436
4	0x3f20d1a3	0.6281988
5	0x3ed557e7	0.41668627
6	0x3eeb6983	0.45978937
7	0x3ecdd6e3	0.40203008
8	0x3ecc9b0b	0.39962038
9	0x3edce78c	0.43145406
10	0x3f03edf0	0.5153494
11	0x3ef4463b	0.47709832
12	0x3ee03622	0.437913
13	0x3ed8c028	0.42334104
14	0x3e8aa632	0.27079922
15	0x3f2645ff	0.64950556
16	0x3f16f277	0.5896372
17	0x3eba2ed0	0.3636384
18	0x3ecdf448	0.40225434
19	0x3f89da81	1.0769807
20	0x3eaecb9c	0.34139717
21	0x3eb4203f	0.35180852
22	0x3ec1e727	0.37871668
23	0x3eff1d25	0.49826923
24	0x3eda3e19	0.42625502
25	0x3eb65944	0.3561498
26	0x3f24178c	0.6409843
27	0x3f3e1e43	0.74264926
28	0x3f1e18b1	0.61756426
29	0x3f250a80	0.64469147
30	0x3f04f802	0.5194093
31	0x3eb558b9	0.35419253
32	0x3f570990	0.83998966
33	0x3f4890e8	0.7834611
34	0x3f0e579a	0.5560242
35	0x3f1d4d31	0.6144591
36	0x3ec0d26b	0.37660536
37	0x3e95133f	0.29116246
38	0x3f1d55a4	0.614588
39	0x3e905994	0.28193343
40	0x3ed77b3e	0.42086214
41	0x3e8bc6e9	0.27300194
42	0x3f148365	0.5801299
43	0x3f08bbca	0.53411543
44	0x3f084e14	0.5324414
45	0x3edba98b	0.4290279
46	0x3f01a6a8	0.5064492
47	0x3ec3e1ec	0.38258302
48	0x3f13c2cc	0.5771911
49	0x3f05c154	0.5224812
50	0x3f3e6d82	0.74385846
51	0x3ebc1512	0.36734825
52	0x3ecaa722	0.39580637
53	0x3ef56e03	0.47935495
54	0x3ebea7bd	0.3723735
55	0x3f36599e	0.71230495
56	0x3efa4b0b	0.48885378
57	0x3efd2aa2	0.4944659
58	0x3f2602a0	0.64847755
59	0x3ec9a91a	0.39386827
60	0x3e9c9978	0.30585837
61	0x3ef42eea	0.47692043
62	0x3f05e83a	0.52307475
63	0x3ef8ebdc	0.48617446

bn2/gamma f4 [64]
0	0x3f837a53	1.0271705
1	0x3f781abb	0.9691579
2	0x3f78d67d	0.97202283
3	0x3f7c0fea	0.9846178
4	0x3f7f01ed	0.99612314
5	0x3f82951d	1.0201756
6	0x3f7f0735	0.9962037
7	0x3f78033b	0.9687993
8	0x3f7ac04c	0.9794967
9	0x3f7ccf46	0.98753774
10	0x3f7ae795	0.98009616
11	0x3f82854c	1.0196929
12	0x3f7d5222	0.9895345
13	0x3f805dc3	1.0028614
14	0x3f801346	1.0005882
15	0x3f7e318d	0.9929436
16	0x3f7956ea	0.97398245
17	0x3f7dfc28	0.99212885
18	0x3f7b11cf	0.9807405
19	0x3f7c5c1b	0.9857804
20	0x3f83d6ed	1.0299965
21	0x3f7d1591	0.9886103
22	0x3f800f47	1.0004662
23	0x3f80fd5a	1.0077317
24	0x3f81de80	1.0146027
25	0x3f853b35	1.0408694
26	0x3f7871aa	0.9704844
27	0x3f801846	1.0007408
28	0x3f83c12c	1.0293326
29	0x3f7883ef	0.97076315
30	0x3f7e61ae	0.993678
31	0x3f7fd9cf	0.99941725
32	0x3f7b54fc	0.9817655
33	0x3f7f69fc	0.99771094
34	0x3f7db1b3	0.9909927
35	0x3f82a139	1.0205451
36	0x3f7ea4ad	0.99470025
37	0x3f7e3e84	0.9931414
38	0x3f798a58	0.9747672
39	0x3f785505	0.9700473
40	0x3f816c2d	1.0111138
41	0x3f7ed4e9	0.99543625
42	0x3f7e0f56	0.9924215
43	0x3f7f7a24	0.99795747
44	0x3f80ad66	1.0052917
45	0x3f808449	1.004037
46	0x3f81ef83	1.0151218
47	0x3f815260	1.0103264
48	0x3f7ea444	0.994694
49	0x3f82aa8a	1.0208294
50	0x3f7e75a6	0.9939827
51	0x3f827406	1.0191658
52	0x3f789cae	0.97114074
53	0x3f844773	1.0334305
54	0x3f7e7712	0.99400437
55	0x3f7ac2da	0.9795357
56	0x3f8074fa	1.0035698
57	0x3f7dee16	0.99191415
58	0x3f79b1e1	0.97537047
59	0x3f8a047f	1.0782622
60	0x3f7db7fe	0.99108875
61	0x3f80a014	1.0048852
62	0x3f780090	0.9687586
63	0x3f82cc1a	1.0218537

conv1_1/b f4 [64]
0	0x3833e773	4.289248e-05
1	0x3807ca0c	3.237468e-05
2	0x38cb9607	9.707739e-05
3	0x3746fea4	1.1861008e-05
4	0xb8aa402b	-8.118184e-05
5	0x38a05cb0	7.646659e-05
6	0xb8cb60df	-9.697838e-05
7	0x36bf6720	5.704249e-06
8	0xb9ad8b0e	-0.00033100735
9	0xb8829cd3	-6.228094e-05
10	0x37e68a31	2.7482487e-05
11	0x352950dc	6.307507e-07
12	0x3828fc73	4.0289433e-05
13	0x3846967b	4.7347025e-05
14	0xb8d57383	-0.00010178147
15	0xb7d9b590	-2.5952962e-05
16	0x38a071f1	7.650618e-05
17	0x38fd299d	0.00012071731
18	0xb8993dfb	-7.307153e-05
19	0xb8ac16f5	-8.205875e-05
20	0x383b944a	4.472238e-05
21	0x378a18a7	1.6462362e-05
22	0xb7cb4c89	-2.4235125e-05
23	0x39147ba1	0.00014160435
24	0x3839c9ac	4.429526e-05
25	0x3826733c	3.9684805e-05
26	0x379d0d88	1.872216e-05
27	0x381f4464	3.7972248e-05
28	0x38a985b8	8.083455e-05
29	0x37db5e55	2.6150761e-05
30	0x38e81ef3	0.00011068387
31	0xb885bd15	-6.3771535e-05
32	0x38d15295	9.981279e-05
33	0x382389bc	3.8990504e-05
34	0xb916f7a1	-0.00014397364
35	0xb8b77e29	-8.749619e-05
36	0xb934b577	-0.00017233739
37	0xb780e900	-1.5367288e-05
38	0xb82d1d0e	-4.1273473e-05
39	0x389a71de	7.364502e-05
40	0x3783eb3e	1.572596e-05
41	0x3933b9de	0.00017140011
42	0xb8c7f2d2	-9.534288e-05
43	0x36457ca7	2.9427845e-06
44	0xb8b8df02	-8.815342e-05
45	0x37ee62f7	2.8417895e-05
46	0x382963db	4.0385738e-05
47	0x36d40ba2	6.3194466e-06
48	0x37a53507	1.9694226e-05
49	0xb6484094	-2.9839912e-06
50	0x38c857b2	9.553078e-05
51	0x37e14fb0	2.6859198e-05
52	0x37cd537b	2.4476778e-05
53	0xb8a84c08	-8.025026e-05
54	0xb9a6d40b	-0.00031819972
55	0x3792b4a0	1.7488666e-05
56	0x380b0f85	3.3154636e-05
57	0x382d9aa0	4.139042e-05
58	0x38162248	3.5794714e-05
59	0x384819ea	4.770785e-05
60	0x3828ec88	4.027461e-05
61	0xb86bb0a8	-5.619289e-05
62	0xb939ec47	-0.00017730995
63	0x369ea877	4.728379e-06

bn1/avg_var f4 [64]
0	0x3dff795c	0.12474319
1	0x3eac4fba	0.33654577
2	0x3e1aaaaa	0.15104166
3	0x3e9e852a	0.3096097
4	0x3ebae110	0.36499834
5	0x3e634d3b	0.2219743
6	0x3e99ce43	0.30040178
7	0x3eb47d5d	0.35251895
8	0x3e0217c3	0.12704377
9	0x3e73b155	0.23798116
10	0x3eda5f95	0.42651048
11	0x3ebbcd97	0.3668029
12	0x3ebd0c6e	0.36923546
13	0x3e3449e0	0.17606306
14	0x3e31c972	0.17362002
15	0x3ecc84f1	0.39945176
16	0x3dea36f6	0.11436264
17	0x3efb62bb	0.49098763
18	0x3eabbc5d	0.33542147
19	0x3e54e886	0.20791826
20	0x3e7931e8	0.24335444
21	0x3e816d5d	0.2527875
22	0x3e8c6bde	0.27426046
23	0x3e187766	0.14889297
24	0x3e7dc1bd	0.24780937
25	0x3e4d51dc	0.20050758
26	0x3e3ba44b	0.18324392
27	0x3ea98d73	0.3311573
28	0x3e62837e	0.22120473
29	0x3f04969a	0.517923
30	0x3dd973ec	0.106178135
31	0x3e9d7ba0	0.3075838
32	0x3de3fd4c	0.11132297
33	0x3ea5956d	0.32340565
34	0x3e59084e	0.21194574
35	0x3e84f74b	0.2596992
36	0x3e677132	0.22601774
37	0x3e0fc2cd	0.14039154
38	0x3eba59af	0.36396548
39	0x3eac9806	0.33709735
40	0x3e70449f	0.23463677
41	0x3dba8e4f	0.091091745
42	0x3df22222	0.118229166
43	0x3e49f36a	0.19721761
44	0x3dd05f4d	0.10174427
45	0x3e29bee6	0.16576728
46	0x3f0028b8	0.5006213
47	0x3e45738a	0.19282356
48	0x3ea64e38	0.3248155
49	0x3ed99f63	0.42504415
50	0x3e39bd28	0.18138564
51	0x3e085ba4	0.13316208
52	0x3ec3aa0c	0.38215673
53	0x3e7a02a3	0.24415068
54	0x3e1b919e	0.15192267
55	0x3ddc854a	0.1076761
56	0x3e66b920	0.22531557
57	0x3eb2ae2b	0.34898505
58	0x3f07cbcb	0.5304534
59	0x3eedadc2	0.4642163
60	0x3e1c348b	0.15254419
61	0x3e6bc2f1	0.23023583
62	0x3e8d4f53	0.27599582
63	0x3e1427e7	0.14468347

bn2/beta f4 [64]
0	0x3ce20160	0.027588546
1	0xbc8e663c	-0.017382734
2	0xbc64fb9a	-0.013976002
3	0xb999ec99	-0.00029358713
4	0x3c00ecea	0.007868985
5	0x3cc0b1f8	0.023522362
6	0x3c506154	0.012718517
7	0xbc994bea	-0.018712956
8	0xbba008ed	-0.0048838765
9	0xb9d1448d	-0.0003991466
10	0x3c67b6fc	0.014142748
11	0x3cde4f06	0.02713729
12	0xbbd5ba1c	-0.00652243
13	0x3d365202	0.044511802
14	0x3c063dee	0.008193476
15	0x3b76a1f5	0.0037633155
16	0xbc6c7dc4	-0.014434282
17	0x3cc1ea07	0.023671163
18	0x3abb4e21	0.0014290252
19	0x3b6cef52	0.0036153388
20	0x3ac44df7	0.0014976849
21	0xbbda38f6	-0.0066596223
22	0xbc8e1d04	-0.01734782
23	0x3cee7cdb	0.02911227
24	0x3d0e5e43	0.034757864
25	0x3d211102	0.03932286
26	0xbc1da21e	-0.009621171
27	0x3bb31cb0	0.0054660663
28	0x3d32cd5b	0.043652873
29	0xbc80fa91	-0.01574448
30	0x3c9e9f82	0.019363169
31	0x3c94a040	0.01814282
32	0xb9ced3cf	-0.00039449192
33	0x3c3ae91c	0.011408117
34	0xbaf1369d	-0.0018403117
35	0xbc2be279	-0.010491007
36	0x3c9b0cce	0.018927004
37	0x3c005768	0.007833339
38	0xbce3c211	-0.027802499
39	0x3c07578a	0.008260617
40	0x3cbee8fb	0.023304453
41	0xba10fcca	-0.00055308326
42	0x3a928188	0.0011177519
43	0x3c7cd7df	0.015432327
44	0x3a1b20dc	0.0005917677
45	0x3c2808d4	0.010256011
46	0x3ca791f1	0.020455332
47	0x3c860c9d	0.016363436
48	0x3c201486	0.009770518
49	0x3d103949	0.03521088
50	0xbb8ba88e	-0.0042620366
51	0x3c859770	0.016307563
52	0xbcea050a	-0.028566856
53	0x3c5b1d69	0.013373711
54	0xbb9fcd71	-0.0048767854
55	0xbbcfdeb8	-0.006343689
56	0x3cdaaac3	0.026692754
57	0x39d312d3	0.0004025908
58	0xbb82b683	-0.0039890422
59	0xbcbf325a	-0.02333944
60	0x3c1ddf12	0.009635704
61	0xbbfc4f06	-0.00769985
62	0xbcd6e047	-0.02622999
63	0x3cc4f4ec	0.02404257

bn4/gamma f4 [32]
0	0x3f7fded1	0.99949366
1	0x3f8ed635	1.1159121
2	0x3f81cbe3	1.0140346
3	0x3f86a477	1.0518941
4	0x3f85c532	1.0450804
5	0x3f8b2273	1.0869888
6	0x3f8ae1dd	1.0850178
7	0x3f89435e	1.0723684
8	0x3f83b019	1.0288116
9	0x3f8bf549	1.093423
10	0x3f8a171e	1.0788305
11	0x3f8568b2	1.0422575
12	0x3f8639f1	1.0486432
13	0x3f82481a	1.0178254
14	0x3f8997d7	1.0749463
15	0x3f8336f1	1.0251142
16	0x3f8d5d0b	1.104402
17	0x3f8664a3	1.0499462
18	0x3f8d6342	1.1045916
19	0x3f8ace19	1.0844146
20	0x3f870aff	1.0550231
21	0x3f8b1206	1.0864875
22	0x3f86603c	1.0498118
23	0x3f852330	1.0401363
24	0x3f85b7ab	1.0446676
25	0x3f862158	1.0478926
26	0x3f8e4683	1.1115268
27	0x3f88b05b	1.067882
28	0x3f8cf2a4	1.1011548
29	0x3f82ed2e	1.0228631
30	0x3f8c8f44	1.0981221
31	0x3f8553ee	1.0416238

conv1_7/b f4 [2]
0	0x3d25d9cf	0.04049092
1	0x3bd2ed8a	0.0064370083

conv1_6/W f4 [32, 32, 3, 3]
0	0xbcb4a4ed	-0.022051299
1	0xbc3efc4c	-0.011656832
2	0x3d34fa63	0.0441841
3	0xba98b552	-0.0011650717
4	0xbccab8b3	-0.024746275
5	0x3dc0cc9f	0.094140284
6	0x3cc5ef02	0.02416182
7	0xbbd02fde	-0.0063533625
8	0x3d49dac9	0.049280915
9	0x3dcd854e	0.100351915
10	0xbda66d7b	-0.081263505
11	0x3d9c76cb	0.076398455
12	0x3b057cdf	0.0020368618
13	0xbcdb3c86	-0.026762258
14	0x3ccd909a	0.025093365
15	0x3b47630d	0.003042403
16	0x3b9e1284	0.0048239846
17	0xbb33823c	-0.0027390858
18	0x3d98f718	0.074690044
19	0xbc8e6fa5	-0.01738722
20	0x3d802b89	0.06258304
21	0x3ca2d1e5	0.019875476
22	0x3dd52571	0.10407532
23	0x3c7a86c1	0.015290917
24	0xbd240ca4	-0.040051118
25	0x3c688d3f	0.014193832
26	0xbd2d1d4b	-0.042264264
27	0xbd46de8e	-0.04855209
28	0x3c299c3a	0.010352189
29	0x3bb2a838	0.005452182
30	0xbd7835af	-0.06059807
31	0x3db97e8e	0.090573415
32	0x3da773be	0.08176373
33	0xbc10fc0a	-0.008849153
34	0x3d00666d	0.03134768
35	0x3db5b375	0.08872119
36	0xbcd11ca6	-0.025526356
37	0xbd677534	-0.056508258
38	0xbd888794	-0.066664845
39	0xbda65d6a	-0.08123286
40	0x3b843e21	0.0040357267
41	0xbda0ca35	-0.07851068
42	0xbcd574ab	-0.026056608
43	0xbc77e41f	-0.015130072
44	0xbd837b82	-0.064200416
45	0xbdd60d9c	-0.104518145
46	0xbdc1cd62	-0.09463002
47	0xbc32cccd	-0.010913086
48	0xbb0831cd	-0.0020781637
49	0xbd2a9b1e	-0.041651838
50	0xbd961d17	-0.07329767
51	0xba21c832	-0.0006171494
52	0xbd3f4639	-0.04669783
53	0xbd82ba9e	-0.06383251
54	0x3d9ae6fc	0.07563588
55	0xbc60f271	-0.013729678
56	0xbd6a7713	-0.057242464
57	0xbd79d431	-0.060993377
58	0xbd42766d	-0.04747622
59	0xbd8a2cda	-0.06746836
60	0xbc40649e	-0.011742739
61	0xbd51a423	-0.051181924
62	0xbc294acc	-0.010332774
63	0xbd4135e4	-0.047170535
64	0x3de8fcc8	0.11376339
65	0x3c9b8d3c	0.018988244
66	0xbdf0351e	-0.11728881
67	0xbb7cc406	-0.0038568988
68	0xbd029061	-0.03187597
69	0x3d758f37	0.059951033
70	0xbdc787a8	-0.09742671
71	0x3d342110	0.043976843
72	0xbc94a8b5	-0.018146852
73	0x3c1bd186	0.0095104035
74	0x3db09ca8	0.0862363
75	0x3ab8ca7a	0.0014098429
76	0xbd96bd2e	-0.07360302
77	0xbbdb32de	-0.0066894135
78	0x3cb724f2	0.022356484
79	0x3d6534cb	0.05595855
80	0xbd9ce7ee	-0.076614246
81	0x3d81ee07	0.06344228
82	0xbd84b731	-0.064802535
83	0x3ceb9c4b	0.02876105
84	0x3c47a744	0.012185875
85	0x3d701c4e	0.058620743
86	0x3d006e25	0.031355042
87	0x3cf4e4ca	0.029894251
88	0xbe0271fc	-0.12738794
89	0xbda399eb	-0.07988342
90	0x3b99774e	0.0046834117
91	0x3c833fcc	0.016021632
92	0xbd505cb7	-0.05086967
93	0xbc8fe924	-0.017567225
94	0xbcbdd386	-0.023172151
95	0xbd254694	-0.04035051
96	0x3c2e8fc4	0.010654394
97	0x3d6935a6	0.05693593
98	0xbd0cd233	-0.03438015
99	0xbbb447fa	-0.0055017443
100	0xbdd60172	-0.104494944
101	0x3cd0dc75	0.025495747
102	0x3d80a7c9	0.062820025
103	0x3d47c128	0.048768193
104	0x3c5f822b	0.013641874
105	0x3cb6550d	0.022257352
106	0x3dbc3893	0.09190478
107	0xbc9d516b	-0.019203862
108	0xbc45a21e	-0.0120625775
109	0x3d8ed81c	0.06974813
110	0xbd0c440d	-0.034244586
111	0x3e08141c	0.13288921
112	0xbb964c67	-0.0045867446
113	0x3d42118b	0.04738001
114	0x3d7f9050	0.062393486
115	0x382098d0	3.828929e-05
116	0x3c402efb	0.011729951
117	0xbe06402a	-0.13110414
118	0x3d5e68bb	0.054299098
119	0x3ce0e7ac	0.02745422
120	0xbd6522ef	-0.05594152
121	0xbdba78c9	-0.09105069
122	0xbdac8786	-0.084242865
123	0x3d7d7081	0.06187487
124	0x3c324c55	0.010882457
125	0xbdb68088	-0.08911234
126	0xbc19c389	-0.009384998
127	0xbd0ee753	-0.034888577
128	0xbd41d2c0	-0.047320127
129	0xbbfccbcb	-0.0077147237
130	0x3d8c1b2a	0.06841119
131	0xbc90a231	-0.017655464
132	0xbd1b41c3	-0.037904512
133	0x3cc43749	0.023952143
134	0xbcf1459b	-0.029452136
135	0xbc82f933	-0.015987968
136	0xbd0efe76	-0.03491064
137	0xbd34da1f	-0.04415333
138	0xbdd18a05	-0.10231403
139	0xbd83de06	-0.06438832
140	0x3e096dba	0.13420764
141	0xbd09d9f0	-0.033655107
142	0x3b7ece35	0.0038880233
143	0xbd865bf6	-0.06560509
144	0x3d9f5ff1	0.07781971
145	0xbccc82b6	-0.024964672
146	0xbd676f8c	-0.056502864
147	0x3cb630be	0.022240039
148	0x3d01a9d3	0.031656098
149	0xbdb33916	-0.08751123
150	0xbde7c10c	-0.11316118
151	0xbdc6a7bd	-0.09699962
152	0x3d634ee5	0.05549516
153	0x3d38d490	0.04512459
154	0xbdd7dab5	-0.10539762
155	0x3d5c072a	0.05371777
156	0x3d39ad42	0.045331247
157	0xbdfcf0a9	-0.1235059
158	0x3dad77a7	0.084700875
159	0x3cd842b9	0.026399003
160	0x3c1a7f31	0.009429739
161	0x3d5974ab	0.05308978
162	0xbd727fbd	-0.059203852
163	0xbc0b5339	-0.008503729
164	0x3d1f95cd	0.03896122
165	0x3dae55bc	0.08512446
166	0xbd76658d	-0.06015544
167	0x3d0679a6	0.032830857
168	0xbcc6bfed	-0.02426144
169	0xbd5abbb4	-0.053401664
170	0x3ceaa80c	0.028644584
171	0x3cf3fff1	0.029785128
172	0x3dcef894	0.10106006
173	0x3bb77f41	0.0055998866
174	0x3d6f05bd	0.05835508
175	0xbd0a9684	-0.03383495
176	0xbcad683e	-0.02116787
177	0x3d49c22b	0.04925744
178	0x3db3d62c	0.087810844
179	0xbcb7cca4	-0.022436447
180	0xbd71d8b9	-0.059044573
181	0x3d06e6b0	0.032934844
182	0xbd505e83	-0.050871383
183	0x3d57360d	0.05254178
184	0xbd12088e	-0.03565269
185	0xbca3b240	-0.019982457
186	0x3d55784d	0.05211668
187	0xbcde0d24	-0.027105875
188	0xbcfd694a	-0.030933995
189	0xbc3aedbd	-0.01140922
190	0xbd351e79	-0.044218514
191	0xbcc83b46	-0.024442326
192	0xbc33992d	-0.010961813
193	0xbdac543e	-0.084145054
194	0xbd79ec94	-0.061016634
195	0xbda1d36d	-0.079016544
196	0x3de99228	0.1140483
197	0x3da4add1	0.08040965
198	0x3d5adb75	0.053431947
199	0x3cad964b	0.02118983
200	0xbcd337bb	-0.02578341
201	0x3cf4b9d1	0.02987376
202	0x3d074ed0	0.033034146
203	0xbcb2860e	-0.021792438
204	0xbd6960f1	-0.056977216
205	0x3c9ee5e0	0.019396722
206	0xbcec48de	-0.02884334
207	0x3d665e39	0.0562422
208	0xbd2f67e2	-0.04282368
209	0xbe1860b6	-0.14880642
210	0x3d3fb447	0.046802785
211	0x3bb45441	0.005503208
212	0x3d74b4ed	0.059742857
213	0x3d786672	0.060644574
214	0x3bd00b1e	0.0063489815
215	0xbdc35b77	-0.0953893
216	0xbda51e86	-0.080624625
217	0xbd8fd512	-0.07023062
218	0xbdc673c8	-0.09690052
219	0x3d15efa0	0.036605477
220	0x3d11b669	0.03557435
221	0x3d42704e	0.047470383
222	0xbcb09f3a	-0.0215603
223	0xbdc18ec6	-0.0945106
224	0x3dc94462	0.09827496
225	0xbd196ebe	-0.037459128
226	0x3da77bc4	0.08177903
227	0x3bcce029	0.006252308
228	0x3c786735	0.015161325
229	0x3c9d945a	0.019235779
230	0xbd85028b	-0.06494626
231	0x3d3f551c	0.046712026
232	0x3c4cd586	0.01250208
233	0x3d8059c0	0.062671185
234	0xbc2c1013	-0.010501879
235	0x3c9316ef	0.017955272
236	0x3ddc2f3a	0.10751195
237	0x3d2da7a1	0.04239619
238	0xbba14317	-0.004921328
239	0xbd5f05c4	-0.054448858
240	0x3d586cdf	0.052838203
241	0x3ccbed2b	0.024893364
242	0x3d17d963	0.03707255
243	0x3d0a184a	0.03371457
244	0xbde62c94	-0.11238971
245	0x3dd2d625	0.10294751
246	0x3cec4fe1	0.028846683
247	0xbd9f25cc	-0.07770881
248	0xbd827b4f	-0.063711755
249	0x3d7b0d4c	0.061291978
250	0x3d6444aa	0.055729546
251	0x3c81202b	0.01576241
252	0x3b569b48	0.0032746363
253	0x3d43038a	0.047610797
254	0x3c7ba825	0.015359913
255	0xbdf7f1fd	-0.121067025

conv1_4/W f4 [32, 64, 3, 3]
0	0x3b8b898d	0.0042583407
1	0xbd80cc40	-0.062889576
2	0xbd874d6c	-0.06606564
3	0x3d0fd221	0.035112504
4	0x3d83d20c	0.06436548
5	0xbb5907cd	-0.0033116222
6	0x3bc91b39	0.0061372784
7	0xbc9cc5a8	-0.019137219
8	0x3b124ccd	0.002232361
9	0xbd267ba9	-0.040645275
10	0xbdbe8e5a	-0.09304495
11	0xbd937a21	-0.072010286
12	0x395e9357	0.00021226458
13	0x3d9e8488	0.07740122
14	0x3c2b2b11	0.01044728
15	0xbc51e876	-0.012811771
16	0x3d9f80bf	0.07788228
17	0x3db4753d	0.08811424
18	0x3d9c6c49	0.07637841
19	0xbccf8835	-0.025333503
20	0xbc2ab612	-0.0104193855
21	0x3d96100d	0.0732728
22	0x3bed479b	0.007241202
23	0x3d7cd053	0.06172211
24	0xbce62670	-0.0280945
25	0xbcb58813	-0.022159612
26	0x3db722d9	0.089421935
27	0x3c351494	0.0110522695
28	0xbdc85e1b	-0.09783574
29	0xbd49d0d8	-0.049271435
30	0x3c59b69f	0.013288169
31	0xbd6f4cdb	-0.058422904
32	0xbd1b19a3	-0.037866246
33	0xbc2ee062	-0.010673614
34	0xbc57b4d2	-0.0131656695
35	0xbd1346f1	-0.035956327
36	0xbc95bb0f	-0.018277673
37	0x3d0599fc	0.032617554
38	0x3a25e09a	0.0006327719
39	0xbc870b8a	-0.016484994
40	0xbc3ce108	-0.011528261
41	0xbc0299b8	-0.00797122
42	0x3caf8e8c	0.021430276
43	0xbc21f807	-0.0098857945
44	0x3d847056	0.06466739
45	0xbd6c5b67	-0.057704356
46	0xbd88c2c0	-0.066777706
47	0x3ae8958d	0.0017744765
48	0x3b984fbf	0.0046481784
49	0xbd7e4f9b	-0.062087636
50	0x3d4bcbc0	0.049754858
51	0x3c638db9	0.01388877
52	0x3bd8ccc2	0.006616206
53	0xbd011389	-0.03151277
54	0x3c4b7840	0.012418807
55	0x3d46410e	0.048401885
56	0x3d4336ba	0.047659613
57	0xbdc59c17	-0.096489124
58	0xbbca15b5	-0.0061671385
59	0x3d5358bb	0.05159829
60	0xbcc8030e	-0.02441552
61	0x3b9f06e6	0.0048531173
62	0xbca6e2e5	-0.020371864
63	0x3d3d392f	0.046197113
64	0xbbb94cf6	-0.0056549264
65	0x39912c55	0.00027689585
66	0x3d9eec03	0.077598594
67	0x3cd72a5d	0.026265318
68	0xbc54513a	-0.012958819
69	0x3d967cdc	0.07348034
70	0xbd36cec7	-0.044630792
71	0xbd111aaf	-0.035425838
72	0x3c26c6f9	0.010179275
73	0xbd50434a	-0.05084542
74	0xbc28a707	-0.010293729
75	0x3c3fb18d	0.011700046
76	0xbcf3ac0e	-0.029745128
77	0xbdb6f39e	-0.08933185
78	0xbd2ad27d	-0.041704644
79	0x3c13f002	0.00902939
80	0x3d588be0	0.05286777
81	0x3d5060d1	0.05087358
82	0x3ca25df3	0.01982019
83	0x3ce0f225	0.027459214
84	0xbb3f366a	-0.002917672
85	0x3cf3c2fd	0.029756064
86	0xbdd8033c	-0.10547492
87	0x3c50a7c8	0.012735315
88	0xbdc59d94	-0.09649196
89	0xbd6853b4	-0.05672045
90	0xbd29ccba	-0.041455008
91	0xbd50f5e6	-0.051015757
92	0x3c7efdc2	0.01556343
93	0x3d1d1d26	0.038357876
94	0xbd763982	-0.060113437
95	0xbd3097e6	-0.04311361
96	0xbcee332e	-0.029077139
97	0x3af188eb	0.0018427646
98	0xbb0f5ac3	-0.0021874167
99	0x3dae400f	0.08508312
100	0x3bbade99	0.0057028052
101	0xbd45266c	-0.048132345
102	0x3c31c54e	0.010850264
103	0xbd8f4a18	-0.06996554
104	0x3c5f2b01	0.013621093
105	0xbca2d466	-0.01987667
106	0x3c66a070	0.014076337
107	0x3b71de17	0.0036906058
108	0x3d3090bb	0.043106776
109	0x3d7e365b	0.062063556
110	0x3d1d485b	0.03839908
111	0xbcf9016b	-0.030396184
112	0xbc7588e1	-0.014986248
113	0x3b0ab484	0.0021164725
114	0x3da80fc6	0.082061335
115	0x3d7959ca	0.060876645
116	0xbca24401	-0.019807817
117	0x3d0f2a48	0.034952432
118	0x3d81e149	0.06341798
119	0xbbe84e33	-0.0070894
120	0x3d74c511	0.05975825
121	0xbd8a0eac	-0.0674108
122	0xbbb2e47b	-0.005459366
123	0x3d8fd557	0.07023113
124	0x3b246690	0.0025085546
125	0xbd0bb1d6	-0.034105144
126	0x3b25622b	0.0025235515
127	0xbd75dd61	-0.060025577
128	0x3d10606b	0.0352482
129	0x3dd836d2	0.10557331
130	0x3c92f011	0.017936738
131	0xbac5a90f	-0.0015080291
132	0xbd8743a6	-0.066047
133	0xbd8ef9c3	-0.06981232
134	0x3d8f5681	0.06998921
135	0xbdb2f073	-0.08737268
136	0x3d49c76b	0.049262445
137	0xbc838c9c	-0.016058259
138	0xbab411bb	-0.0013738194
139	0x3b85303d	0.0040645883
140	0xbb8f46f8	-0.004372474
141	0xbd93c016	-0.07214372
142	0xbb08f496	-0.0020897738
143	0xbcd438c9	-0.025905984
144	0x39accd84	0.00032959518
145	0xb9cc8f01	-0.00039016458
146	0xbd47c583	-0.048772346
147	0x3cd87bae	0.026426163
148	0x3c294cb2	0.010333227
149	0x3d26b13e	0.040696375
150	0xbd47aafd	-0.04874705
151	0xbd529c67	-0.05141869
152	0xbd50cd6a	-0.050977148
153	0xbd9347c2	-0.07191421
154	0xbd769144	-0.06019713
155	0x3c92cdde	0.01792043
156	0x3c1d2d72	0.009593355
157	0xbca4c8e5	-0.020115325
158	0xbe22b51d	-0.15889402
159	0x3b2a5b64	0.0025994414
160	0x3d932bfd	0.071861245
161	0x39f4db44	0.00046702672
162	0x3afc4cf8	0.0019249013
163	0x3d037ba7	0.032100346
164	0xbc3aaab6	-0.01139324
165	0x3d628048	0.05529812
166	0xbc2661a6	-0.010155117
167	0xba008594	-0.0004902717
168	0xbcb70e95	-0.02234582
169	0x3d099571	0.033589784
170	0x3d4c24b4	0.04983969
171	0xbd0381aa	-0.03210608
172	0x3d923d8b	0.07140645
173	0x3bb39a65	0.0054810517
174	0x3d4fb749	0.050711904
175	0x3d7c66b0	0.061621368
176	0x3ce74ab7	0.028233869
177	0xbce76280	-0.02824521
178	0xbd907eb3	-0.07055416
179	0x3cb2a166	0.021805476
180	0xbd6154f1	-0.055012647
181	0xbb93b861	-0.0045080637
182	0xbca4b304	-0.020104893
183	0xbce92e72	-0.02846453
184	0x3c943907	0.018093599
185	0xbd87627c	-0.06610581
186	0x3b6bb2cb	0.0035964723
187	0xbc1fa580	-0.009744048
188	0x3b025e96	0.0019892803
189	0x3d8f1aed	0.069875576
190	0x3a98235a	0.0011607215
191	0x3b17ad25	0.0023143974
192	0xbc75b242	-0.014996113
193	0xbc15561f	-0.009114771
194	0x3c9b60ee	0.018967118
195	0xbc831ed0	-0.016005903
196	0xbcc6ead6	-0.0242819
197	0xbc065b1b	-0.008200432
198	0x3cdaf14b	0.026726386
199	0x3c98eecd	0.018668557
200	0xbcbd48e2	-0.023106042
201	0x3c88fe47	0.016722811
202	0x3d14a7c9	0.036292825
203	0x3cc82a4a	0.024434227
204	0xbd991734	-0.07475129
205	0x3d26a87c	0.040688023
206	0x3e004db3	0.1252964
207	0x3d247b0e	0.040156417
208	0xbc7dc5a9	-0.01548902
209	0xbcb04106	-0.02151538
210	0xbd0bec76	-0.034161054
211	0xbd07a2ab	-0.033114117
212	0xbc7a5170	-0.015278205
213	0xbd258994	-0.040414408
214	0xbc4c4574	-0.012467731
215	0xbd739452	-0.05946762
216	0xbd12bdb7	-0.035825457
217	0x3cbc6063	0.02299518
218	0xbc9c87c1	-0.019107701
219	0xbd37802d	-0.044799972
220	0x3d257881	0.040398125
221	0x3d5701aa	0.05249182
222	0x3c03c211	0.0080418745
223	0x3d2af7e8	0.041740328
224	0x3c2f6259	0.0107046
225	0x3b66434b	0.0035135325
226	0xbd16b859	-0.0367969
227	0xbc8f061e	-0.017458972
228	0xbd4021b3	-0.046907138
229	0xbd1499fe	-0.03627967
230	0xbd6f477d	-0.058417786
231	0x3cc20a69	0.023686605
232	0xbc9c8004	-0.019104011
233	0x3a6da599	0.00090655085
234	0xbdb00ac5	-0.08595804
235	0xbd4f442a	-0.050602116
236	0xbd259354	-0.040423706
237	0xbbc5f653	-0.006041327
238	0x3cdc2ef0	0.02687785
239	0xbb26fc23	-0.0025479875
240	0xbc6d4f54	-0.014484245
241	0x3c48bf7b	0.012252684
242	0xbc1b419c	-0.009476092
243	0x3c9c77d4	0.019100107
244	0x3d33c73d	0.04389118
245	0x3d4e2331	0.05032653
246	0x3dc06122	0.093935266
247	0x3c41608d	0.011802805
248	0xbb9c6e85	-0.004773917
249	0xba95cd80	-0.0011429042
250	0x3db0fd02	0.086420074
251	0x3d155a62	0.03646315
252	0xbcf4a985	-0.02986599
253	0x3cb6e677	0.022326691
254	0x3b733225	0.0037108746
255	0x3bc04b44	0.0058683474

bn1/avg_mean f4 [64]
0	0x39998c64	0.00029287033
1	0xbd3a12ea	-0.045428194
2	0x3d91f613	0.07127013
3	0xbd962668	-0.07331544
4	0x3d399166	0.04530468
5	0x3d84e548	0.064890444
6	0xbc0b6b25	-0.008509432
7	0xbcb7da49	-0.022442954
8	0x3dc71206	0.097202346
9	0x3d815333	0.06314697
10	0xbdcc9626	-0.09989576
11	0xbd4f8cd7	-0.050671425
12	0xbda05f73	-0.078307055
13	0xbd2f9d86	-0.042874835
14	0xbdcb4226	-0.09924726
15	0xbcf16e50	-0.029471546
16	0xbd099bf8	-0.03359601
17	0x3dc90c59	0.09816808
18	0x3cb8058a	0.022463579
19	0xbe176b22	-0.14786962
20	0xbc81b2ac	-0.015832268
21	0xbd9f9fe4	-0.077941686
22	0x3da62ab0	0.08113611
23	0xbdec3bc1	-0.11534835
24	0x3caf5d38	0.021406755
25	0xbdf56803	-0.11982729
26	0xbd8a2394	-0.06745067
27	0x3ca16d25	0.019705364
28	0xbd69e6be	-0.05710482
29	0xbca659e4	-0.020306535
30	0xbd7be340	-0.06149602
31	0xbd8f2478	-0.06989378
32	0x3d8c51a4	0.06851509
33	0x3d8e9a01	0.06962968
34	0xbd9ff3f1	-0.078102
35	0xbdcc330a	-0.099706724
36	0x3d23dd38	0.040005893
37	0xbcc2d7fb	-0.023784628
38	0x3cba8bed	0.0227718
39	0x3cf6c1b2	0.030121658
40	0x3d656653	0.056005787
41	0xbd91b3df	-0.07114386
42	0xbde2c9b5	-0.11073629
43	0xbd8f326c	-0.06992039
44	0x3d6d1c7d	0.057888497
45	0xbda462d8	-0.080266654
46	0xbd5e977a	-0.054343678
47	0xbdb98e4c	-0.09060344
48	0x3d4408f6	0.04786011
49	0x3caae03f	0.020858882
50	0x3d40c0d7	0.047058906
51	0xbdc9ef15	-0.098600544
52	0xbcc81ab0	-0.024426788
53	0x3da48116	0.08032434
54	0xbe0eaff4	-0.13934308
55	0xbd6b2058	-0.057403892
56	0x3ced3aaf	0.028958647
57	0xbd88eeda	-0.06686182
58	0xbcce0dc8	-0.025153056
59	0x3d171a7c	0.03689049
60	0xbd716e9c	-0.058943376
61	0xbe03dbc5	-0.12876804
62	0x3d8eba1e	0.06969093
63	0xbcec8715	-0.028873006

bn4/beta f4 [32]
0	0xbc4134a4	-0.011792336
1	0x3dfcd535	0.123453535
2	0x3c932bea	0.017965276
3	0x3d3a7368	0.045520216
4	0x3cb1240d	0.021623636
5	0x3dbf52ac	0.0934194
6	0x3dcebe4e	0.100948915
7	0x3d9956d3	0.074872635
8	0x3c2b2233	0.010445165
9	0x3de3e0cc	0.11126861
10	0x3dd2a259	0.102848716
11	0x3d7d4f84	0.06184341
12	0x3d0758f5	0.03304382
13	0x3cd2e673	0.025744652
14	0x3da9f131	0.08297957
15	0x3d1e0ee1	0.03858841
16	0x3de2cf49	0.11074693
17	0x3d10fac6	0.035395406
18	0x3dc4053c	0.09571311
19	0x3da9deba	0.08294435
20	0x3d911a78	0.07085127
21	0x3dc9731c	0.098364085
22	0x3c762d13	0.015025395
23	0x3cfbe38d	0.030748153
24	0x3d64ea00	0.055887222
25	0x3d547f11	0.051878992
26	0x3d04c4e6	0.03241434
27	0x3dc15cdb	0.09441539
28	0x3e0140d0	0.1262238
29	0x3b8d2b2b	0.0043081245
30	0x3da717b4	0.08158818
31	0x3dca8ab7	0.09889739

conv1_2/W f4 [64, 64, 3, 3]
0	0xbd4a79ae	-0.04943245
1	0x3d9aec71	0.07564629
2	0x3cbe304d	0.023216391
3	0x3d3d855f	0.04626977
4	0xbccc35cb	-0.024927994
5	0xbd7d52f2	-0.06184668
6	0x3c151a9d	0.009100583
7	0xbb1944a3	-0.0023386858
8	0xbdba6a98	-0.091023624
9	0x3d7b794d	0.06139498
10	0xbb177058	-0.0023107734
11	0x3d945706	0.07243161
12	0xbcb1a1ce	-0.0216836
13	0x3cdaf312	0.026727233
14	0x3d55fa37	0.052240577
15	0xbd51d0d1	-0.051224533
16	0xbd4ce86d	-0.050026346
17	0xbd159063	-0.03651465
18	0xbbf2257d	-0.007389723
19	0xbd54f3c8	-0.0519903
20	0x3d983d6b	0.074335895
21	0xbc8426e2	-0.016131822
22	0x3d20d7b0	0.039268196
23	0x3d05a58b	0.032628577
24	0xbd6929ce	-0.056924634
25	0x3d16e6c0	0.036841154
26	0xbdb3e062	-0.08783032
27	0xbd2b0631	-0.04175395
28	0x3d9d4e2e	0.07680927
29	0xbcebda00	-0.028790474
30	0xbc97b4aa	-0.018518765
31	0xbdaa06fd	-0.08302114
32	0xbd4e8d5a	-0.050427772
33	0x3cd250cb	0.02567329
34	0x3c3da4a3	0.011574897
35	0xbc2e750c	-0.010648023
36	0xbce8199b	-0.028332522
37	0x3c3bf30d	0.011471522
38	0xbd2291e1	-0.039689902
39	0xbc266fb2	-0.010158466
40	0xbd34e395	-0.04416235
41	0xbc18f263	-0.009335133
42	0x3d0b488b	0.03400473
43	0xbade79b2	-0.0016973524
44	0x3d37cdd0	0.044874012
45	0xbccd4af4	-0.025060154
46	0xbd14e2ba	-0.036349036
47	0xbd54e19e	-0.051972978
48	0xbbde1ecb	-0.006778573
49	0x3b1d9801	0.00240469
50	0x3ca0593f	0.019573806
51	0x3dc5b482	0.0965357
52	0xbca007a8	-0.0195349
53	0x3d41a954	0.047280625
54	0x3c090b15	0.008364459
55	0x3d8b41c0	0.0679965
56	0x3c14762b	0.009061377
57	0xbcb141d2	-0.02163783
58	0xbba0157f	-0.004885375
59	0xbdbb0636	-0.09132044
60	0x3d905940	0.07048273
61	0x3d4f7a19	0.05065355
62	0x3bb4e3d2	0.0055203224
63	0xbd45cd81	-0.048291687
64	0xbd12933f	-0.035784956
65	0x3c8edd53	0.01743952
66	0xbd20fa23	-0.03930105
67	0xbc9b4e7b	-0.01895832
68	0x3d4782b7	0.048708644
69	0xbdb35dc8	-0.08758122
70	0x39e80f6d	0.0004426198
71	0xbd5ee491	-0.054417197
72	0xbcce5cab	-0.025190672
73	0x3cfd33e6	0.030908536
74	0x3d693538	0.05693552
75	0x3c3c9c07	0.011511809
76	0xbd5beb85	-0.053691406
77	0xbd068b5d	-0.03284775
78	0x3c3fa89e	0.011697916
79	0xbcb3cafe	-0.02194738
80	0xbd7fdc37	-0.062465873
81	0xbd66f364	-0.05638446
82	0xbb8499f2	-0.004046672
83	0x3c158f38	0.009128384
84	0x3d73a4d2	0.059483357
85	0xbdc54c93	-0.09633746
86	0x3c353db4	0.011062074
87	0x3c40bdea	0.011764029
88	0xbd7ad146	-0.061234735
89	0x3db35b9e	0.08757709
90	0xbc91b046	-0.017784249
91	0xbc8d2748	-0.017230645
92	0xbd03b24f	-0.03215247
93	0xbd1f35b1	-0.038869563
94	0x3d09f1f0	0.033677995
95	0x3d901927	0.070360474
96	0xbcdbf65d	-0.026850874
97	0x3caebe1b	0.021330884
98	0xbc5611cf	-0.013065769
99	0x3d06084a	0.03272275
100	0x3d117be0	0.035518527
101	0xbceaede7	-0.028677894
102	0x3b53d18d	0.0032320947
103	0xbd9a8901	-0.07545663
104	0x3d05fa1d	0.03270923
105	0x3d371e60	0.044706702
106	0x3bf07c1b	0.0073390133
107	0xbd4bb594	-0.049733713
108	0xbd86ec94	-0.065880924
109	0xbd8d2cf2	-0.06893338
110	0xbd0c6646	-0.034277223
111	0xbac0f156	-0.0014720361
112	0x3c412b76	0.011790147
113	0xbd9165e4	-0.07099512
114	0x3da2ceb1	0.079495795
115	0xbc3cf006	-0.011531835
116	0x3d252d6a	0.040326513
117	0xbd8464a2	-0.06464507
118	0xbc797772	-0.015226232
119	0xbc8a6375	-0.016893128
120	0xbd776a69	-0.060404215
121	0xbcba2b16	-0.022725623
122	0xbc21e6fe	-0.009881733
123	0xbd98ab87	-0.07454591
124	0xbd112f5a	-0.03544555
125	0xbd315292	-0.043291636
126	0xbc90df32	-0.017684553
127	0x3c23f89f	0.010008006
128	0xbd906089	-0.070496626
129	0x3ca3a8ec	0.01997801
130	0xbce49d97	-0.027907176
131	0x3d985c4b	0.074394785
132	0xbb9fa26e	-0.004871658
133	0xbd40bce6	-0.047055148
134	0x3decdc6a	0.11565478
135	0xbd04c014	-0.032409742
136	0xbd5b96dd	-0.05361067
137	0xbd21e4ed	-0.03952496
138	0xbc96a5b4	-0.01838956
139	0xbd2341e9	-0.03985778
140	0xbc30f312	-0.01080014
141	0xbd84b412	-0.06479658
142	0xbce7cf44	-0.028297074
143	0xbddc717e	-0.107638344
144	0xbc02757f	-0.007962584
145	0xbd127ec6	-0.03576543
146	0xbc37fe12	-0.011230009
147	0xbd27cc55	-0.04096635
148	0xbd09252b	-0.03348271
149	0xbdeb8064	-0.11499098
150	0x3bef7098	0.0073071234
151	0x3c72fbf3	0.014830577
152	0xbdaa6485	-0.08319954
153	0xbd8d57b6	-0.06901495
154	0x3c1b3bba	0.009474689
155	0xbd174a02	-0.036935814
156	0x3d3b05fa	0.045659997
157	0xbd21c968	-0.039498717
158	0x3dd59b7c	0.10430047
159	0xbd13d6af	-0.03609341
160	0xbd945bfd	-0.07244108
161	0xbd03feba	-0.032225348
162	0xbc8fae38	-0.017539129
163	0xbd8bc0d7	-0.06823891
164	0xbc58e55c	-0.013238277
165	0xbc70fae0	-0.014708251
166	0xbd08fa33	-0.033441734
167	0xbd878ecb	-0.066190325
168	0x3cc318da	0.023815561
169	0xbc83de49	-0.016097205
170	0xbdab0999	-0.0835144
171	0xbdbe74b9	-0.09299607
172	0xbdafee63	-0.085903905
173	0xbd560fed	-0.05226128
174	0xbcc13dc7	-0.023589028
175	0x3c5f7691	0.013639108
176	0xbcaed69a	-0.021342564
177	0xbd87e6f9	-0.066358514
178	0xbc80b369	-0.01571055
179	0xbd050780	-0.032477856
180	0xbcecb83b	-0.028896442
181	0xbd63d228	-0.055620342
182	0xbc8aeeaa	-0.016959507
183	0x3c4442ee	0.011978848
184	0xbe01e5f6	-0.1268538
185	0xbd1a3188	-0.037644893
186	0x3ca4c52b	0.020113548
187	0xbc75b2eb	-0.014996271
188	0x3b641b64	0.0034806365
189	0x3d80951c	0.0627844
190	0xbd0e61fe	-0.03476142
191	0xbc3b5441	-0.011433662
192	0x3d6101ba	0.054933287
193	0xbd36bb1e	-0.044612043
194	0x3d2c7855	0.042106945
195	0x3c0f61f7	0.008751384
196	0x3b4eda20	0.0031563118
197	0x3d58770c	0.052847907
198	0xbd9f80dd	-0.077882506
199	0x3cfd215d	0.030899698
200	0x3d315ccf	0.0433014
201	0xbdb0a35d	-0.08624909
202	0xbcdd9c94	-0.027052201
203	0xbce9cc76	-0.028539877
204	0x3d8addab	0.06780561
205	0x3d3bab23	0.045817506
206	0xbd741879	-0.05959365
207	0x3d4727e2	0.04862202
208	0xbc94a536	-0.018145185
209	0x3d700a1a	0.058603384
210	0x3b85cc3b	0.004083184
211	0xbbc92fa3	-0.006139712
212	0xbdcb90be	-0.09939717
213	0xbcaf278f	-0.021381168
214	0x3c1fc8a3	0.009752425
215	0x3d324ca9	0.04353014
216	0xbba4ec93	-0.0050330847
217	0xbcba2a0a	-0.022725124
218	0x3cbe1233	0.023202037
219	0x3c8400b1	0.016113611
220	0x3c5691f9	0.013096326
221	0x3d1b2b59	0.037883136
222	0xbd8e4d02	-0.06948282
223	0xbd848f51	-0.06472648
224	0x3cfc3fee	0.030792203
225	0xbccdff6b	-0.025146207
226	0x3d0877d3	0.0333174
227	0x3da4cce8	0.08046895
228	0xbce6d4b7	-0.028177602
229	0x3d45d2be	0.048296683
230	0xbc8a03c6	-0.016847502
231	0xbdab1444	-0.08353475
232	0x3c0fff90	0.008788958
233	0x3d304f09	0.043044124
234	0xbc589c1b	-0.013220812
235	0x3d18b37b	0.03728054
236	0x3b146228	0.0022641513
237	0xbcdde929	-0.027088718
238	0x3cf0915e	0.029366191
239	0xbdcabeea	-0.09899695
240	0xbd1ac612	-0.03778655
241	0x3ca83e01	0.020537378
242	0x3b8ad983	0.004237355
243	0xbc1dc62b	-0.009629766
244	0x3d335d3d	0.04379009
245	0xbc882d81	-0.01662326
246	0x3d05121e	0.03248798
247	0xbd26a4f0	-0.04068464
248	0x3d0cef19	0.03440771
249	0x3c7b1b3e	0.015326319
250	0x3d0ee7fd	0.03488921
251	0x3cad734f	0.021173147
252	0xbd068285	-0.032839317
253	0x3d161da3	0.036649358
254	0xbd7c40ca	-0.061585225
255	0xbc3f1fee	-0.0116653275

bn3/gamma f4 [64]
0	0x3f8419e8	1.0320406
1	0x3f82c06c	1.0214972
2	0x3f7ff64b	0.9998519
3	0x3f807b9f	1.0037726
4	0x3f8024ed	1.0011269
5	0x3f832929	1.0246936
6	0x3f8495e2	1.0358241
7	0x3f8302a2	1.0235178
8	0x3f7e407c	0.99317145
9	0x3f7e5768	0.9935212
10	0x3f852168	1.040082
11	0x3f866973	1.050093
12	0x3f7ae3eb	0.98004025
13	0x3f848266	1.0352294
14	0x3f7e6d57	0.9938559
15	0x3f81eed5	1.0151011
16	0x3f827903	1.019318
17	0x3f7f8091	0.9980555
18	0x3f800303	1.0000919
19	0x3f7f08d8	0.9962287
20	0x3f7cca3f	0.98746103
21	0x3f8a4ea4	1.0805249
22	0x3f82f366	1.0230529
23	0x3f7dd639	0.99155
24	0x3f8160f8	1.0107718
25	0x3f827273	1.0191177
26	0x3f7e1031	0.99243456
27	0x3f7f258c	0.99666667
28	0x3f8186dd	1.0119282
29	0x3f82fc16	1.023318
30	0x3f810d25	1.0082136
31	0x3f87e54f	1.0616854
32	0x3f7d274f	0.98888105
33	0x3f7e60af	0.9936628
34	0x3f7fbbd3	0.9989597
35	0x3f7ccab2	0.9874679
36	0x3f79d261	0.9758664
37	0x3f7d3c2a	0.9891993
38	0x3f77cb60	0.967947
39	0x3f85e52d	1.0460564
40	0x3f7a7b6a	0.97844565
41	0x3f7b0be1	0.98065
42	0x3f7ff5c6	0.99984396
43	0x3f82a0a5	1.0205275
44	0x3f8037af	1.0016993
45	0x3f81da80	1.0144806
46	0x3f7fb633	0.9988739
47	0x3f7e6998	0.99379873
48	0x3f7ea1a6	0.99465406
49	0x3f823da9	1.0175067
50	0x3f81cc6e	1.0140512
51	0x3f823d22	1.0174906
52	0x3f853906	1.0408027
53	0x3f88f2d0	1.06991
54	0x3f82b010	1.020998
55	0x3f7f695d	0.99770147
56	0x3f808587	1.0040749
57	0x3f808101	1.0039369
58	0x3f7ab03e	0.97925174
59	0x3f85776f	1.0427073
60	0x3f83b412	1.0289328
61	0x3f7f7572	0.9978858
62	0x3f804956	1.002238
63	0x3f807ff0	1.0039043

conv1_7/W f4 [2, 32, 3, 3]
0	0x3dae3c0f	0.08507549
1	0x3cd07b57	0.025449438
2	0x3d828143	0.06372311
3	0xbe39049b	-0.18068163
4	0xbd435009	-0.04768375
5	0xbc989b32	-0.01862869
6	0x3d347ff8	0.044067353
7	0xbc864b26	-0.016393255
8	0xbd0e7f51	-0.034789387
9	0xbd0d11b8	-0.034440726
10	0xbd500f9b	-0.050796133
11	0xbd8fdfa2	-0.070250764
12	0x3e1589ff	0.14603423
13	0x3dddb0d8	0.10824746
14	0xbc0d80c9	-0.008636662
15	0x3cf5edc6	0.030020606
16	0xbcacd917	-0.02109961
17	0x3e125e1e	0.14293715
18	0xbc29662f	-0.010339304
19	0x3cfed557	0.031107588
20	0xbd36c27a	-0.04461906
21	0x3c9d8ba8	0.019231632
22	0x3da01248	0.07815987
23	0xbd006533	-0.03134651
24	0x3c4e729d	0.012600568
25	0x3dc5c5f3	0.096568964
26	0x3e3df2ba	0.18549624
27	0x3d26475b	0.040595394
28	0x3db65da0	0.08904576
29	0xbcac9a48	-0.02106966
30	0x3d796de0	0.0608958
31	0x3c774ad8	0.015093528
32	0x3d9f8b43	0.07790234
33	0x3e2fcfc8	0.17169106
34	0x3e119b43	0.14219384
35	0x3dcfd04b	0.101471506
36	0xbda77456	-0.08176486
37	0xbcf3a37a	-0.029741038
38	0xbd854e71	-0.06509102
39	0x3d770812	0.06031043
40	0x3d2fd680	0.042929173
41	0xbd499643	-0.049215566
42	0x3d4bbda2	0.049741395
43	0x3d5cffb6	0.053954802
44	0x3df19760	0.117964506
45	0x3e1031e7	0.14081536
46	0xbd44e2bf	-0.048067804
47	0xbd2fa27a	-0.04287956
48	0x3d391fa7	0.0451962
49	0x3e878115	0.2646567
50	0x3daa9eca	0.08331068
51	0x3dae1343	0.08499768
52	0x3de5f9c6	0.11229281
53	0xbd0e1abf	-0.034693476
54	0x3ca84f42	0.020545606
55	0x3da20f62	0.0791309
56	0xbd9c99d1	-0.07646526
57	0xbb8660b5	-0.004100884
58	0x3d4b7b8e	0.049678378
59	0x3d8ce912	0.06880392
60	0x3df42dff	0.119228356
61	0x3dabb641	0.083843715
62	0x3d00859d	0.031377424
63	0x3d2c8086	0.042114757
64	0xbd37a1de	-0.044832103
65	0x3dc28d3b	0.09499594
66	0xbcc5b0fd	-0.024132246
67	0x3d8d462c	0.0689815
68	0x3d58c291	0.052919928
69	0xbcffc5b1	-0.031222196
70	0x3d44dfcb	0.048064988
71	0xbc9da34a	-0.019242901
72	0x3d398599	0.045293424
73	0x3cb69b72	0.022290919
74	0xbd295e47	-0.041349676
75	0x3d1fc6da	0.039008
76	0xbd2e22ae	-0.042513542
77	0xbd6c51b0	-0.05769509
78	0x3cf95bdf	0.030439315
79	0xbe09fa39	-0.13474359
80	0x3e01b252	0.1266568
81	0xbdd3d7f9	-0.10343928
82	0x3da70eed	0.08157144
83	0x3e334072	0.17505053
84	0x3e19268b	0.14956109
85	0x3d664f12	0.05622775
86	0xbd27813f	-0.040894743
87	0x3e3defad	0.1854846
88	0xbdebb688	-0.115094244
89	0x3e28f283	0.16498761
90	0x3da02cb7	0.07821029
91	0x3db96073	0.09051599
92	0x3ca324c3	0.01991499
93	0x3e3a612a	0.18201128
94	0x3dae084f	0.084976785
95	0x3d668486	0.056278728
96	0xbd895d0d	-0.06707201
97	0x3c96ac05	0.018392572
98	0x3d8017c0	0.0625453
99	0x3d0b1844	0.03395869
100	0x3db51cab	0.088433586
101	0x3c4fb3cb	0.012677143
102	0x3da523b4	0.080634505
103	0xbd89bde7	-0.06725674
104	0x3d1c808c	0.03820853
105	0xbcf12349	-0.02943577
106	0x3cc96c12	0.024587665
107	0x3de1f944	0.11033872
108	0x3ce4e1c0	0.027939677
109	0x38b2dda5	8.528986e-05
110	0x3d2334b6	0.03984519
111	0x3d7c2d99	0.061566923
112	0x3d4764fa	0.048680283
113	0x3de5a438	0.11212963
114	0xbd27e042	-0.040985353
115	0xbdf02c37	-0.11727183
116	0x3d423802	0.047416694
117	0x3c5867c3	0.0132083325
118	0x3d812143	0.06305172
119	0x3d959bfd	0.07305143
120	0x3d8825dc	0.06647846
121	0xbb4fb20c	-0.0031691818
122	0x3cb30d08	0.0218568
123	0x3d18bd2c	0.037289783
124	0xbc509621	-0.012731106
125	0x3d0cbfa9	0.03436247
126	0x3dbc7644	0.09202245
127	0x3db83c76	0.08995907
128	0xbe25a547	-0.1617633
129	0xbe186c0a	-0.14884964
130	0x3d1c4352	0.03815014
131	0x3d991749	0.074751444
132	0x3d450d6f	0.048108514
133	0x3dc0ed27	0.09420233
134	0xbcd8b332	-0.026452634
135	0x3d49b641	0.049246076
136	0x3d25de95	0.040495474
137	0x3d558138	0.052125186
138	0x3e204f1a	0.15655175
139	0x3b1fa06b	0.0024357091
140	0x3daabed5	0.083371796
141	0xbc6ce10d	-0.014457953
142	0xbde4032e	-0.11133419
143	0x3d4b37b3	0.049613666
144	0x3dd44b50	0.10365927
145	0x3d5cf848	0.053947717
146	0x3dfa030d	0.12207613
147	0x3e3e53ca	0.1858665
148	0x3c39cf5a	0.01134094
149	0x3d5c77da	0.053825237
150	0x3c03b6ab	0.008039157
151	0xbcc7e99a	-0.024403382
152	0xbe23628f	-0.15955566
153	0xbc192bdf	-0.009348839
154	0x3d102881	0.035194878
155	0xbdf78047	-0.12085014
156	0xbd38c3eb	-0.045108717
157	0x3d488e2c	0.04896371
158	0x3d218380	0.03943205
159	0x3d082497	0.03323802
160	0x3d291607	0.041280773
161	0x3d55cf33	0.052199554
162	0x3d6518ac	0.055931732
163	0x3e5020c0	0.20324993
164	0x3d46c051	0.04852325
165	0x3d2b6f06	0.041853927
166	0x3e249447	0.16072188
167	0xbca2ee22	-0.019888941
168	0x3c40a4c1	0.01175803
169	0x3e0c3a66	0.13694152
170	0x3d152976	0.036416493
171	0xbd55e796	-0.05222281
172	0xbc83177f	-0.016002415
173	0x3dcbb053	0.099457406
174	0xbd41fe30	-0.047361553
175	0x3e56126e	0.20905468
176	0x3d8647bc	0.06556651
177	0x3d4927b8	0.049110144
178	0x3d44afca	0.048019208
179	0x3d9b4306	0.07581143
180	0x3b9ffa81	0.0048821573
181	0x3da62277	0.081120424
182	0x3d76f9ef	0.06029695
183	0x3d72f97a	0.05931995
184	0x3d9e369e	0.07725261
185	0x3bafe292	0.0053675855
186	0x3de6ce46	0.11269812
187	0x3dc7b517	0.09751337
188	0x3e308d18	0.17241323
189	0x3da01f32	0.0781845
190	0x3d6d13bc	0.05788015
191	0xbd353aad	-0.04424541
192	0xbd98bc8d	-0.07457838
193	0x3dfc5723	0.123213075
194	0x3e303ca6	0.17210636
195	0x3dad89c3	0.084735416
196	0x3e004ef2	0.12530115
197	0x3dd252a4	0.10269669
198	0xba8ffdfe	-0.001098573
199	0x3daa9cef	0.08330714
200	0xbd2bf9b4	-0.041986182
201	0x3d81b529	0.06333382
202	0xbdfd90d1	-0.12381137
203	0x3d049178	0.032365292
204	0x3bd814bd	0.006594269
205	0xbd5faf63	-0.05461062
206	0xbc557ce3	-0.013030264
207	0xbc04806c	-0.008087259
208	0xbc42f334	-0.011898804
209	0xbd372fb7	-0.04472324
210	0x3bcc96df	0.006243571
211	0x3dee8efb	0.11648365
212	0xbd518776	-0.051154576
213	0x3d4a7035	0.049423415
214	0x3c9e1f6e	0.019302096
215	0x3df0b4d5	0.11753241
216	0xbc853cd8	-0.016264364
217	0x3da6e98a	0.08150013
218	0x3decfe23	0.1157191
219	0x3e3bb19d	0.18329473
220	0x3df9ff61	0.12206913
221	0x3cff62bb	0.031175008
222	0x3dbef214	0.093235165
223	0x3aed11f7	0.0018087019
224	0xba189f93	-0.0005822118
225	0x3e060f73	0.13091831
226	0x3d9933e4	0.074806005
227	0x3d87655f	0.06611132
228	0x3e05b23f	0.13056277
229	0x3ccc284a	0.024921555
230	0x3d917290	0.07101929
231	0x3d1829ec	0.037149355
232	0xbe1eb195	-0.1549743
233	0xbc68e8cc	-0.014215659
234	0xbd13311d	-0.03593551
235	0x3c851a41	0.01624787
236	0x3dabe950	0.0839411
237	0xbdb8d62e	-0.090252265
238	0xbdb0caea	-0.08632453
239	0xbbe0c2cb	-0.0068591586
240	0x3d5151e5	0.05110349
241	0xbcf5ae1b	-0.029990247
242	0x3db59326	0.08865957
243	0x3de5ee05	0.11227039
244	0x3d785de5	0.06063642
245	0x3de0f721	0.10984636
246	0x3d1947a2	0.03742183
247	0x3ccfabe8	0.025350526
248	0x3d2a906d	0.04164164
249	0x3d4c23f2	0.049838968
250	0x3db30e6d	0.08742986
251	0x3c8da5e6	0.01729102
252	0x3e14a568	0.14516222
253	0x3ba1f2ee	0.0049422896
254	0x3d8c7e50	0.0686003
255	0x3da0e0a8	0.0785535
