loto6_cnn/model/loto6_20_440.model (npz, 468569 bytes, 38 tensors)

conv1_2/b f4 [64]
-0.00012190119 -8.880432e-05 5.1285842e-05 -0.00013761556 2.4077021e-06 9.3582996e-05 -3.8458038e-05 -0.00018107262
2.4696514e-05 0.00036445374 -4.1303938e-05 -0.0002050581 1.5773161e-05 1.4757498e-05 -1.398999e-05 -9.4102696e-05
-2.7819446e-05 -1.6303859e-05 2.9378349e-05 -6.4649844e-06 8.678215e-05 5.2532996e-05 1.0911966e-05 -9.890945e-05
-4.7090074e-05 -1.880717e-05 -4.8651723e-06 -2.3850167e-05 -2.2642624e-05 0.00010590824 1.058042e-05 -1.7056337e-06
1.7775654e-05 -6.6243856e-06 -4.843936e-05 -0.0001309873 8.176577e-05 -0.00016652727 4.76538e-06 -4.028519e-05
6.8373134e-05 -3.1610998e-05 2.2712407e-05 -1.2779211e-05 1.3811507e-05 2.422956e-05 3.5331563e-05 -7.997376e-05
-2.4444076e-05 3.4235065e-05 5.0291757e-05 2.81823e-05 2.0595267e-06 4.6295892e-05 0.00015241571 -0.00017007157
-0.00012336488 -4.146448e-06 7.0803144e-05 1.1322563e-06 2.711297e-06 4.6685054e-05 -9.7735465e-05 -2.6890122e-05
00000000: 34a5 ffb8 753c bab8 c11b 5738 e54c 10b9
00000010: 0294 2136 fd41 c438 014e 21b8 50de 3db9
00000020: 5c2b cf37 2714 bf39 c43d 2db8 dd04 57b9
00000030: 9b50 8437 f996 7737 8db6 6ab7 0059 c5b8
00000040: ce5d e9b7 45c4 88b7 8671 f637 cbed d8b6
00000050: d0fe b538 e056 5c38 8912 3737 9b6d cfb8
00000060: 9582 45b8 17c4 9db7 833f a3b6 d811 c8b7
00000070: aaf0 bdb7 0e1b de38 8f82 3137 21ed e4b5
00000080: ed1c 9537 0a47 deb6 5e2b 4bb8 a359 09b9
00000090: aa79 ab38 d39d 2eb9 4de6 9f36 e5f7 28b8
000000a0: 8c63 8f38 0d96 04b8 8686 be37 4b66 56b7
000000b0: f9b7 6737 9540 cb37 fa30 1438 96b7 a7b8
000000c0: 410d cdb7 9f97 0f38 5df0 5238 0769 ec37
000000d0: 6636 0a36 d62d 4238 c8d1 1f39 3d55 32b9
000000e0: 825b 01b9 b821 8bb6 267c 9438 08f8 9735
000000f0: baf3 3536 b2cf 4338 54f7 ccb8 1992 e1b7

conv1_4/b f4 [32]
0.00011256586 -6.773312e-05 -0.00028405967 0.0001586951 0.00024560664 -0.00016377454 3.79001e-05 2.5099422e-05
-0.00014660122 -1.1977619e-05 -0.00026421735 2.9331215e-05 2.6531878e-05 8.8977686e-05 0.00012514366 -0.00013751733
-0.0001371108 -6.6187715e-07 0.000116812094 -0.00025435467 0.000100591744 -8.484974e-05 -0.00010731431 0.00040343034
1.3811882e-06 -8.94377e-06 -2.2755523e-05 -3.477434e-05 -6.358666e-05 -0.0001116821 -7.240705e-05 -0.00012775148
00000000: 5611 ec38 f10b 8eb8 d8ed 94b9 6467 2639
00000010: c4c4 8039 e5ba 2bb9 ecf6 1e38 998c d237
00000020: f7b8 19b9 7bf3 48b7 a786 8ab9 4e0c f637
00000030: c690 de37 8899 ba38 ff38 0339 8732 10b9
00000040: 66c5 0fb9 daab 31b5 04f9 f438 e85a 85b9
00000050: c8f4 d238 5bf1 b1b8 ee0d e1b8 8183 d339
00000060: 4461 b935 330d 16b7 1de3 beb7 aada 11b8
00000070: d459 85b8 df36 eab8 3dd9 97b8 07f5 05b9

bn4/avg_mean f4 [32]
-0.6196737 -3.3209186 1.6404861 -2.533259 0.038901206 -1.2035084 -1.9827074 0.18133341
-0.65226656 -0.6337214 -3.11145 -1.3008238 -0.22746716 0.2897218 -1.3170456 -2.3351462
-0.44127816 -0.9716444 -3.9293215 -2.773289 -0.49435955 0.0064072087 -0.09047538 -1.8521454
-0.094717704 -1.1424061 -0.40914035 0.17403692 -3.1683583 1.2101607 -0.43643662 0.30270088
00000000: f0a2 1ebf ee89 54c0 73fb d13f ea20 22c0
00000010: df56 1f3d 900c 9abf 5bc9 fdbf 77af 393e
00000020: f1fa 26bf 913b 22bf ff21 47c0 6581 a6bf
00000030: 27ed 68be 6a56 943e f394 a8bf 0973 15c0
00000040: 36ef e1be b0bd 78bf 017a 7bc0 917d 31c0
00000050: b21c fdbe 90f3 d13b 284b b9bd 1a13 edbf
00000060: 5bfb c1bd 5d3a 92bf d87a d1be bc36 323e
00000070: 62c6 4ac0 8ce6 9a3f 9f74 dfbe 9cfb 9a3e

conv1_5/b f4 [32]
-3.1338684e-05 -3.8476683e-05 0.000101197154 -7.319045e-05 0.00016822577 9.201892e-05 3.301918e-05 0.00013522443
8.000032e-05 3.0219027e-05 -0.00010672461 -4.32825e-05 -2.842281e-05 -0.0002626112 1.9460156e-05 4.0290695e-05
7.694793e-05 -5.3429343e-05 0.00014107453 -9.273819e-05 0.00014567596 2.2430342e-05 3.1269297e-05 0.000314045
6.205253e-05 0.00066205586 -0.00013702468 0.00022238694 -0.000100606885 6.838306e-05 -2.0798492e-05 -2.3521343e-05
00000000: a871 03b8 0662 21b8 cf39 d438 d37d 99b8
00000010: c365 3039 48fa c038 137e 0a38 08cb 0d39
00000020: d8c5 a738 de7e fd37 57d1 dfb8 3b8a 35b8
00000030: 856d eeb7 14af 89b9 5e3e a337 cefd 2838
00000040: 1b5f a138 5219 60b8 68ed 1339 707c c2b8
00000050: 98c0 1839 cb28 bc37 2727 0338 68a6 a439
00000060: 3322 8238 d18d 2d3a 48ae 0fb9 8a30 6939
00000070: e9fc d2b8 e068 8f38 6c78 aeb7 b34f c5b7

bn5/avg_mean f4 [32]
-0.08855266 -0.1754156 -0.12443749 -0.63105255 0.13236158 -0.9589783 -0.35033533 0.46519026
-0.11811457 0.21342333 -0.23894542 -0.41534126 0.01124452 -0.36952958 -0.17465916 -0.09415118
0.4557585 -0.14481625 -0.8142976 -0.22390252 -0.020529673 -0.5324509 -0.4020821 0.7467785
-0.16213247 0.7711862 -0.25864497 -0.58697057 -0.23565775 0.039162908 -0.4236504 -0.29563567
00000000: 195b b5bd 26a0 33be 15d9 febd a98c 21bf
00000010: cb89 073e 9a7f 75bf 275f b3be 6b2d ee3e
00000020: 0de6 f1bd a58b 5a3e 1cae 74be 9ca7 d4be
00000030: ef3a 383c fb32 bdbe dad9 32be 55d2 c0bd
00000040: 2e59 e93e b64a 14be cf75 50bf b446 65be
00000050: d82d a8bc b44e 08bf b4dd cdbe e02c 3f3f
00000060: 0e06 26be 756c 453f 1d6d 84be b443 16bf
00000070: 4450 71be 4969 203d b5e8 d8be 8f5d 97be

bn1/gamma f4 [64]
0.98024267 0.9823931 1.0081084 0.99765694 0.9706332 1.0094277 0.9879367 0.9882939
0.9900602 1.0002522 1.0066371 1.0003271 0.993032 1.0009856 0.9863783 1.018081
0.9790244 0.98337746 0.9948837 1.0166768 1.0382448 1.0075788 1.005348 0.9968029
1.0142969 1.0022768 0.9812899 0.9956677 0.97410357 0.99603236 0.95581007 0.9882917
0.98161125 1.0103946 0.97369474 0.99116164 1.0012522 1.0596849 1.0083642 1.0184438
0.9832952 0.97468317 1.0046892 0.9784821 1.0072781 0.9774034 1.0035276 1.0044318
0.9803 0.99212974 0.9866078 1.0044143 0.9890902 0.9671874 0.9889074 1.0282431
0.97923833 0.96698517 0.9811647 0.9875021 0.97709113 1.0164176 0.9694578 0.98375195
00000000: 2ff1 7a3f 1d7e 7b3f b209 813f 7266 7f3f
00000010: 6b7b 783f ed34 813f 6be9 7c3f d400 7d3f
00000020: 9674 7d3f 4408 803f 7cd9 803f b80a 803f
00000030: 5837 7e3f 4c20 803f 4a83 7c3f 7a50 823f
00000040: 58a1 7a3f a0be 7b3f b3b0 7e3f 7722 823f
00000050: 35e5 843f 58f8 803f 3eaf 803f 7a2e 7f3f
00000060: 7bd4 813f 9b4a 803f d135 7b3f 14e4 7e3f
00000070: da5e 793f fafb 7e3f f8af 743f af00 7d3f
00000080: e04a 7b3f 9c54 813f 0f44 793f c5bc 7d3f
00000090: 0829 803f c1a3 873f 1412 813f 5e5c 823f
000000a0: 3cb9 7b3f d684 793f a899 803f ce7d 7a3f
000000b0: 7dee 803f 1c37 7a3f 9873 803f 3991 803f
000000c0: f1f4 7a3f 37fc 7d3f 5492 7c3f a690 803f
000000d0: 0435 7d3f 9899 773f 0929 7d3f 789d 833f
000000e0: 5daf 7a3f 578c 773f 9c2d 7b3f f0cc 7c3f
000000f0: a522 7a3f f919 823f 632e 783f 2bd7 7b3f

conv1_3/b f4 [64]
-1.8633955e-05 2.371407e-05 -1.2897852e-05 -2.189312e-05 4.3196393e-05 9.21257e-06 -0.00010545447 6.576436e-06
4.2914202e-05 2.5698173e-05 1.4920729e-05 4.8800386e-05 2.5498593e-05 6.163844e-05 -7.599656e-05 -0.0001236723
-7.094398e-06 0.00013127956 1.38843025e-05 4.0756986e-05 2.8128465e-05 9.369808e-05 -3.121056e-05 4.106992e-06
2.0357225e-05 2.3829913e-05 3.575635e-05 5.0245657e-05 -9.096805e-06 1.0355266e-05 -3.1503736e-05 0.0001118013
-6.3140783e-06 -2.0012589e-05 -3.1525127e-05 -2.5522855e-05 9.759886e-05 -8.154674e-06 -2.1167507e-06 -4.7946373e-06
-1.9231647e-05 0.00011232785 4.840154e-05 -1.6158327e-05 -2.6100524e-05 -2.006011e-05 -8.684974e-05 -2.7726519e-05
-0.000102139624 -3.1108706e-05 -2.520299e-05 -3.892434e-05 2.9814178e-06 -4.0714775e-05 -3.460848e-05 3.2331947e-05
7.1260205e-05 -1.4113902e-05 -9.851994e-05 -1.3174712e-05 -2.5766558e-05 2.0563197e-05 -2.303153e-05 7.6145065e-05
00000000: 1d50 9cb7 94ed c637 da63 58b7 1ea7 b7b7
00000010: c62d 3538 b08f 1a37 7027 ddb8 28ab dc36
00000020: c6fe 3338 6892 d737 0b54 7a37 04af 4c38
00000030: d0e5 d537 e343 8138 5860 9fb8 08ae 01b9
00000040: 6a0c eeb6 17a8 0939 a0f0 6837 7bf2 2a38
00000050: 6bf5 eb37 c67f c438 15e8 02b8 cbce 8936
00000060: cfc4 aa37 59e6 c737 17f9 1538 ddbe 5238
00000070: 7b9e 18b7 87bb 2d37 e122 04b8 de76 ea38
00000080: 85dd d3b6 b5e0 a7b7 d939 04b8 ea19 d6b7
00000090: fdad cc38 0fd0 08b7 800d 0eb6 9fe1 a0b6
000000a0: a653 a1b7 8e91 eb38 c202 4b38 be8b 87b7
000000b0: 73f2 dab7 c246 a8b7 1923 b6b8 3f96 e8b7
000000c0: cb33 d6b8 b87a 02b8 026b d3b7 b142 23b8
000000d0: 5e14 4836 28c5 2ab8 9328 11b8 2a9c 0738
000000e0: 8871 9538 bfca 6cb7 7d9c ceb8 f508 5db7
000000f0: 4325 d8b7 217f ac37 d633 c1b7 12b0 9f38

bn2/avg_var f4 [64]
0.4128674 0.7156755 0.4278382 0.60087824 0.61975324 0.41861036 0.4736021 0.405137
0.41996795 0.42468336 0.53859067 0.48063463 0.44862124 0.43813196 0.2751266 0.6564289
0.5848202 0.3610699 0.40722567 1.0861984 0.3409574 0.36014277 0.37548667 0.50544965
0.42527473 0.36295727 0.643755 0.750704 0.63347554 0.6534871 0.5161718 0.35562807
0.8352456 0.7789123 0.5628611 0.6242887 0.37742794 0.29882622 0.62190515 0.28685918
0.42400685 0.27335647 0.5744918 0.5343551 0.53672516 0.4302588 0.5098164 0.37880406
0.58235306 0.53360003 0.7329633 0.37028512 0.40454128 0.48583132 0.3765117 0.7207111
0.5000439 0.48136616 0.6612487 0.39891443 0.3095079 0.47858173 0.53548247 0.495772
00000000: 5b63 d33e 8236 373f 9c0d db3e 28d3 193f
00000010: 26a8 1e3f 1954 d63e f97b f23e 1e6e cf3e
00000020: 0a06 d73e 1970 d93e 14e1 093f be15 f63e
00000030: afb1 e53e d552 e03e 65dd 8c3e b90b 283f
00000040: c7b6 153f 27de b83e e27f d03e 8d08 8b3f
00000050: f891 ae3e a264 b83e ca3f c03e 2665 013f
00000060: 9cbd d93e 89d5 b93e 21cd 243f 232e 403f
00000070: 742b 223f ee4a 273f d623 043f e214 b63e
00000080: a8d2 553f cc66 473f aa17 103f 62d1 1f3f
00000090: 3c3e c13e c0ff 983e 2d35 1f3f 35df 923e
000000a0: 6d17 d93e 61f5 8b3e e511 133f 7fcb 083f
000000b0: d266 093f e24a dc3e 5483 023f 9bf2 c13e
000000c0: 1715 153f 039a 083f 7ca3 3b3f 0396 bd3e
000000d0: 0920 cf3e e2be f83e 24c6 c03e 8680 383f
000000e0: e102 003f a075 f63e 9847 293f 833e cc3e
000000f0: d277 9e3e aa08 f53e 6115 093f d4d5 fd3e

bn2/gamma f4 [64]
1.0272388 0.96838576 0.9717598 0.9845928 0.995933 1.021394 0.9951309 0.9676658
0.9797223 0.9870326 0.97880775 1.0215565 0.98866284 1.001071 1.0001804 0.99236476
0.9730463 0.9922002 0.98093164 0.98558086 1.0292895 0.98756635 1.0017725 1.0077182
1.0139194 1.0403869 0.9712902 1.0007092 1.028599 0.9713624 0.9936766 0.99844736
0.981203 0.99698657 0.9895746 1.0216238 0.99356323 0.9915692 0.97396857 0.9691411
1.0114975 0.99438334 0.9927589 0.9976569 1.0053822 1.0036316 1.015334 1.0092984
0.9943715 1.0205829 0.9935389 1.0185311 0.96978945 1.0340618 0.9943946 0.9786936
1.0040936 0.9924447 0.9741281 1.0805143 0.99043447 1.0067 0.9659489 1.0233057
00000000: 907c 833f 21e8 773f 40c5 783f 460e 7c3f
00000010: 77f5 7e3f 0abd 823f e6c0 7e3f f2b8 773f
00000020: 15cf 7a3f 2bae 7c3f 2593 7a3f 5dc2 823f
00000030: 0219 7d3f 1823 803f e905 803f 9e0b 7e3f
00000040: 9019 793f d500 7e3f 561e 7b3f 074f 7c3f
00000050: c2bf 833f 26d1 7c3f 153a 803f e9fc 803f
00000060: 1cc8 813f 662b 853f 79a6 783f 3d17 803f
00000070: 22a9 833f 35ab 783f 9761 7e3f 3f9a 7f3f
00000080: 1f30 7b3f 833a 7f3f c354 7d3f 92c4 823f
00000090: 295a 7e3f 7bd7 7d3f 0156 793f a219 783f
000000a0: c078 813f e88f 7e3f 7325 7e3f 7166 7f3f
000000b0: 5db0 803f 0077 803f 77f6 813f b130 813f
000000c0: 218f 7e3f 76a2 823f 9158 7e3f 3a5f 823f
000000d0: 1f44 783f 235c 843f a590 7e3f aa8b 7a3f
000000e0: 2486 803f db10 7e3f 7660 793f 4b4e 8a3f
000000f0: 1d8d 7d3f 8cdb 803f 6d48 773f aefb 823f

conv1_1/b f4 [64]
4.2866635e-05 3.237522e-05 9.7065924e-05 1.186329e-05 -8.1177845e-05 7.64683e-05 -9.696243e-05 5.703203e-06
-0.00033099248 -6.227857e-05 2.7488666e-05 6.3454144e-07 4.0274237e-05 4.7344667e-05 -0.00010180229 -2.5935058e-05
7.649039e-05 0.000120717894 -7.307249e-05 -8.204043e-05 4.4702418e-05 1.6478316e-05 -2.4238054e-05 0.0001416153
4.4299766e-05 3.9715196e-05 1.8732264e-05 3.7971986e-05 8.083182e-05 2.6152074e-05 0.00011068001 -6.377126e-05
9.98192e-05 3.8980594e-05 -0.00014398829 -8.7483786e-05 -0.0001723348 -1.535745e-05 -4.1283598e-05 7.365925e-05
1.5730679e-05 0.0001714066 -9.5317155e-05 2.935828e-06 -8.815712e-05 2.8426144e-05 4.038302e-05 6.320374e-06
1.9691364e-05 -2.9930477e-06 9.5522126e-05 2.6870957e-05 2.448239e-05 -8.0256796e-05 -0.00031820138 1.7490622e-05
3.3158783e-05 4.1387564e-05 3.5794223e-05 4.7715042e-05 4.0249724e-05 -5.6186207e-05 -0.00017729809 4.7106664e-06
00000000: b3cb 3338 a1ca 0738 df8f cb38 7108 4737
00000010: 063e aab8 9b5d a038 4f58 cbb8 245e bf36
00000020: 0f89 adb9 8d9b 82b8 7697 e637 5b55 2a35
00000030: 22ec 2838 f393 4638 b07e d5b8 1d8f d9b7
00000040: 7769 a038 ed29 fd38 7f3e 99b8 1f0d acb8
00000050: db7e 3b38 ea3a 8a37 d352 cbb7 917e 1439
00000060: 83ce 3938 de93 2638 3b23 9d37 1c44 1f38
00000070: 4184 a938 2761 db37 e11c e838 efbc 85b8
00000080: 0656 d138 187f 2338 90fb 16b9 8077 b7b8
00000090: c5b4 34b9 dfd3 80b7 ed27 2db8 8279 9a38
000000a0: 60f5 8337 9cbb 3339 02e5 c7b8 2405 4536
000000b0: fee0 b8b8 ae74 ee37 f060 2938 9913 d436
000000c0: e22e a537 2bdc 48b6 0d53 c838 f168 e137
000000d0: 885f cd37 8a4f a8b8 44d4 a6b9 d3b8 9237
000000e0: f913 0b38 8f97 2d38 c121 1638 a321 4838
000000f0: d0d1 2838 7ba9 6bb8 18e9 39b9 5110 9e36

bn1/avg_var f4 [64]
0.12393791 0.35029644 0.15199782 0.3166271 0.37884694 0.23398685 0.31696776 0.35320273
0.1279418 0.24326172 0.431497 0.38278893 0.38070032 0.17853208 0.18188357 0.40622535
0.1150815 0.4993711 0.3504169 0.21363062 0.25423488 0.26142392 0.27560914 0.14964722
0.25429553 0.20665005 0.1915028 0.3359979 0.22907054 0.51978815 0.10657386 0.31805378
0.10972047 0.32786676 0.21779469 0.2647627 0.22744659 0.13823014 0.3658398 0.34174305
0.24602345 0.091616124 0.11830507 0.20223172 0.10161654 0.16967247 0.50362974 0.20067567
0.32824513 0.43250248 0.1894101 0.1322235 0.39687973 0.24719514 0.15795337 0.10569672
0.23117957 0.35474834 0.53815335 0.47439888 0.15649585 0.24023768 0.2854153 0.14849244
00000000: 29d3 fd3d 0e5a b33e 51a5 1b3e f21c a23e
00000010: 3af8 c13e 409a 6f3e 9949 a23e fdd6 b43e
00000020: 2d03 033e 9a19 793e 2ded dc3e e9fc c33e
00000030: 27eb c23e 1dd1 363e b03f 3a3e c5fc cf3e
00000040: d9af eb3d 92ad ff3e d869 b33e fcc1 5a3e
00000050: 132b 823e 5bd9 853e a41c 8d3e 1f3d 193e
00000060: 0633 823e 129c 533e 4f19 443e eb07 ac3e
00000070: 7891 6a3e d610 053f 6543 da3d f2d7 a23e
00000080: 20b5 e03d 27de a73e 9205 5f3e fa8e 873e
00000090: c2e7 683e 348c 0d3e 5b4f bb3e f2f8 ae3e
000000a0: 92ed 7b3e 3ca1 bb3d ee49 f23d d515 4f3e
000000b0: 551c d03d 9fbe 2d3e e1ed 003f ec7d 4d3e
000000c0: bf0f a83e f770 dd3e b9f4 413e 9965 073e
000000d0: d233 cb3e b920 7d3e 87be 213e 8677 d83d
000000e0: 56ba 6c3e 93a1 b53e 6bc4 093f 69e4 f23e
000000f0: 7340 203e de00 763e f421 923e 670e 183e

bn2/beta f4 [64]
0.027286913 -0.01770802 -0.013485783 0.00030042682 0.008375399 0.02399149 0.011848353 -0.019860378
-0.0040219924 -0.0006253204 0.013193936 0.02755007 -0.0065875575 0.044324655 0.007243376 0.0041523227
-0.015979066 0.024904948 0.0017000826 0.004799995 -0.00011565276 -0.0073593743 -0.018177383 0.029919377
0.034851994 0.040170997 -0.0077505354 0.0054806424 0.04369238 -0.015326046 0.019735105 0.018400619
-0.000643506 0.01225222 -0.0012562181 -0.012992601 0.018808205 0.007071409 -0.028268684 0.009093199
0.024026036 -0.0023800938 0.0019109595 0.016058156 -0.00034653547 0.011087451 0.019385338 0.01573858
0.010260417 0.035285532 -0.004293257 0.014070008 -0.02996167 0.012512332 -0.0038024904 -0.0064890403
0.028345821 0.0008890083 -0.00425436 -0.02927185 0.010249242 -0.008794231 -0.027942667 0.025010282
00000000: ce88 df3c 6910 91bc 79f3 5cbc 9b82 9d39
00000010: f838 093c cd89 c43c 981f 423c 3bb2 a2bc
00000020: ebca 83bb 8bec 23ba 612b 583c afb0 e13c
00000030: 70dc d7bb c58d 353d d859 ed3b 3510 883b
00000040: 88e6 82bc 7605 cc3c 4ed5 de3a 4749 9d3b
00000050: 9a8a f2b8 e826 f1bb bce8 94bc 7b19 f53c
00000060: f7c0 0e3d 588a 243d 34f8 fdbb f696 b33b
00000070: c8f6 323d 191a 7bbc 84ab a13c e5bc 963c
00000080: f5b0 28ba 89bd 483c afa7 a4ba ebde 54bc
00000090: aa13 9a3c 47b7 e73b ba93 e7bc a4fb 143c
000000a0: 40d2 c43c 59fb 1bbb 2979 fa3a 658c 833c
000000b0: 34af b5b9 24a8 353c 00ce 9e3c 32ee 803c
000000c0: 4f1b 283c 9087 103d 73ae 8cbb e485 663c
000000d0: 2d72 f5bc 8600 4d3c 3433 79bb 04a2 d4bb
000000e0: 7f35 e83c 560c 693a 2968 8bbb 85cb efbc
000000f0: 70ec 273c ae15 10bc 05e8 e4bc 5de2 cc3c

bn4/gamma f4 [32]
1.0015695 1.1257809 1.016614 1.0557988 1.0494945 1.0945023 1.0937256 1.0815037
1.033871 1.1005796 1.0841935 1.0459936 1.0541432 1.0212282 1.0829673 1.0301987
1.1126264 1.0616479 1.1123012 1.08977 1.0580977 1.0917407 1.057982 1.0436444
1.0462652 1.0526606 1.1303115 1.0734917 1.1104124 1.0300322 1.1038002 1.0479392
00000000: 6e33 803f 9719 903f 6820 823f 6a24 873f
00000010: d655 863f a718 8c3f 33ff 8b3f b76e 8a3f
00000020: e355 843f cbdf 8c3f dac6 8a3f 1ee3 853f
00000030: 2aee 863f 9bb7 823f ac9e 8a3f 8ddd 833f
00000040: 8b6a 8e3f 14e4 873f e35f 8e3f 957d 8b3f
00000050: bf6f 873f 29be 8b3f f46b 873f 2496 853f
00000060: 05ec 853f 95bd 863f 0cae 903f 2d68 893f
00000070: fe21 8e3f 18d8 833f 5349 8d3f df22 863f

conv1_7/b f4 [2]
0.042106707 0.0061618653
00000000: 1578 2c3d 79e9 c93b

conv1_6/W f4 [32, 32, 3, 3]
-0.022498298 -0.010554091 0.045875747 -0.0021044044 -0.02224434 0.09568334 0.023814956 -0.007088154
0.05163688 0.10004368 -0.077611126 0.08116785 -0.00028753953 -0.026986588 0.025630236 0.0028848362
0.0050909636 -0.001657351 0.07277329 -0.017175496 0.06421969 0.019522956 0.103267476 0.015110765
-0.04185931 0.013311066 -0.042138793 -0.049468342 0.010677729 0.00617768 -0.062034372 0.0908192
0.08329371 -0.009687028 0.03109168 0.0891358 -0.025372952 -0.05173023 -0.060459618 -0.082541265
0.0033222972 -0.07514107 -0.026829442 -0.015962811 -0.06240867 -0.10331846 -0.09237434 -0.0096340105
-0.005605544 -0.043153267 -0.073409535 0.0004569758 -0.046129156 -0.062802024 0.07537617 -0.011000575
-0.053925652 -0.061294604 -0.04713807 -0.06349103 -0.012287287 -0.052546997 -0.009529265 -0.04664176
0.11749244 0.022553695 -0.11881319 -0.00017237976 -0.030914115 0.06002854 -0.09659001 0.04594783
-0.01787551 0.011082315 0.08697924 0.0019439625 -0.07246148 -0.0041287243 0.021202268 0.05621164
-0.075328566 0.06390438 -0.06475254 0.028032413 0.0143099 0.06069678 0.034557205 0.027438432
-0.12694967 -0.07904336 0.004381706 0.01732272 -0.048561685 -0.02117482 -0.025867067 -0.039226074
0.011676682 0.05762873 -0.03396542 -0.004861899 -0.105336316 0.02484052 0.06284272 0.049563505
0.015705705 0.022124996 0.09402284 -0.019027028 -0.012114644 0.06972551 -0.03358778 0.133916
-0.005739091 0.04622226 0.06308751 0.0017488138 0.013285199 -0.13196494 0.054584928 0.027979447
-0.056545857 -0.09138724 -0.08334678 0.06094507 0.01074474 -0.08871436 -0.010268187 -0.035709765
-0.04141873 -0.0067822146 0.06944539 -0.014631032 -0.037513684 0.022587849 -0.028483963 -0.015416151
-0.03414495 -0.04430189 -0.10289019 -0.065847285 0.13352469 -0.032780997 0.0047226716 -0.065055735
0.0775427 -0.024011547 -0.054737635 0.022428531 0.035851203 -0.08665805 -0.1128134 -0.09508344
0.059475504 0.04626487 -0.10576923 0.05436204 0.045699272 -0.12033637 0.0865229 0.025020313
0.011011973 0.05306161 -0.058780584 -0.007595622 0.0395332 0.08522523 -0.060025778 0.032918278
-0.022993488 -0.053470444 0.028978998 0.029610327 0.10255682 0.0075042127 0.056643777 -0.03349911
-0.020492107 0.04806759 0.085676275 -0.02126942 -0.061422363 0.0329338 -0.04886767 0.05012378
-0.03655461 -0.01939253 0.05022661 -0.02742168 -0.030434597 -0.012352011 -0.045208752 -0.022734758
-0.012509859 -0.084908105 -0.060573813 -0.07858673 0.11363449 0.08083073 0.056758862 0.021712983
-0.026095957 0.030273309 0.03511657 -0.019278955 -0.06098703 0.02205525 -0.028322963 0.057189245
-0.03902217 -0.14641769 0.047758304 0.009449333 0.06210632 0.060730577 0.0068549053 -0.0936741
-0.08070986 -0.06912638 -0.09643092 0.03618105 0.0361959 0.048225187 -0.021314736 -0.09296655
0.098965056 -0.037376143 0.083623834 0.008006204 0.015800215 0.019988371 -0.06142682 0.046301946
0.01279566 0.06667743 -0.008055337 0.017729614 0.10730017 0.044085108 -0.0023472721 -0.053305056
0.052166384 0.025876144 0.03716158 0.033457 -0.11180936 0.103677884 0.028558057 -0.0775027
-0.06392093 0.06088957 0.056205098 0.016673384 0.0035282255 0.050113652 0.018617043 -0.12233429
00000000: 5a4e b8bc 11eb 2cbc 35e8 3b3d 0cea 09bb
00000010: c339 b6bc a1f5 c33d 9517 c33c bf43 e8bb
00000020: 3181 533d b3e3 cc3d 95f2 9ebd 543b a63d
00000030: e7c0 96b9 fa12 ddbc 80f6 d13c 850f 3d3b
00000040: 19d2 a63b 793b d9ba 2a0a 953d a0b3 8cbc
00000050: 9d85 833d 9bee 9f3c e67d d33d 2493 773c
00000060: ab74 2bbd a816 5a3c ba99 2cbd 519f 4abd
00000070: a4f1 2e3c 236e ca3b c117 7ebd 6bff b93d
00000080: e595 aa3d 57b6 1ebc fbb3 fe3c d58c b63d
00000090: f0da cfbc 14e3 53bd 81a4 77bd 650b a9bd
000000a0: e6ba 593b 90e3 99bd 6bc9 dbbc 71c4 82bc
000000b0: 3ca0 7fbd a198 d3bd c22e bdbd f8d7 1dbc
000000c0: b6ae b7bb 7bc1 30bd bd57 96bd 4196 ef39
000000d0: edf1 3cbd 599e 80bd d25e 9a3d c13b 34bc
000000e0: 25e1 5cbd 0d10 7bbd d913 41bd 9607 82bd
000000f0: 9e50 49bc 853b 57bd a220 1cbc 6e0b 3fbd
00000100: e09f f03d 87c2 b83c 5454 f3bd d7c0 34b9
00000110: 993f fdbc 7de0 753d fcd0 c5bd cb33 3c3d
00000120: a96f 92bc 9992 353c 2c22 b23d 8fcc fe3a
00000130: af66 94bd 404a 87bb 61b0 ad3c 2d3e 663d
00000140: dd45 9abd 4de0 823d fb9c 84bd 3ba4 e53c
00000150: 1274 6a3c 309d 783d db8b 0d3d 90c6 e03c
00000160: 18ff 01be 7ce1 a1bd 6a94 8f3b 60e8 8d3c
00000170: 9ee8 46bd d176 adbc 2ce7 d3bc 85ab 20bd
00000180: 8e4f 3f3c 1a0c 6c3d 531f 0bbd 9150 9fbb
00000190: 91ba d7bd 597e cb3c afb3 803d 1a03 4b3d
000001a0: 40a9 803c 7b3f b53c 0c8f c03d 92de 9bbc
000001b0: 807c 46bc 40cc 8e3d 5793 09bd 4721 093e
000001c0: fc0e bcbb 8d53 3d3d 0634 813d 7438 e53a
000001d0: 2aaa 593c d121 07be 7294 5f3d 2735 e53c
000001e0: a19c 67bd 3c29 bbbd b7b1 aabd 8aa1 793d
000001f0: b50a 303c e0af b5bd e63b 28bc 6744 12bd
00000200: b0a6 29bd 573d debb 6239 8e3d ffb6 6fbc
00000210: f3a7 19bd 270a b93c 3357 e9bc 0694 7cbc
00000220: 93db 0bbd e675 35bd 18b8 d2bd f1da 86bd
00000230: b2ba 083e 5e45 06bd a4c0 9a3b f13b 85bd
00000240: b5ce 9e3d ddb3 c4bc 9234 60bd 0abc b73c
00000250: b6d8 123d c779 b1bd b60a e7bd 1bbb c2bd
00000260: 969c 733d 3b80 3d3d 8a9d d8bd bbaa 5e3d
00000270: 292f 3b3d ea72 f6bd eb32 b13d 66f7 cc3c
00000280: 906b 343c 2157 593d e9c3 70bd b2e4 f8bb
00000290: 91ed 213d 918a ae3d 97dd 75bd 51d5 063d
000002a0: d75c bcbc d303 5bbd 5d65 ed3c 5b91 f23c
000002b0: 4f09 d23d e6e5 f53b 4e03 683d 5d36 09bd
000002c0: 10df a7bc 85e2 443d 0b77 af3d 353d aebc
000002d0: 0496 7bbd 98e5 063d 7729 48bd 984e 4d3d
000002e0: 49ba 15bd 15dd 9ebc 6bba 4d3d 6ea3 e0bc
000002f0: fa51 f9bc 1760 4abc d02c 39bd 3e3e babc
00000300: 27f6 4cbc 4de4 adbd 3f1c 78bd 14f2 a0bd
00000310: 33b9 e83d 958a a53d fb7b 683d 6ddf b13c
00000320: 30c7 d5bc bbff f73c 64d6 0f3d e6ee 9dbc
00000330: 89cd 79bd 36ad b43c 8f05 e8bc 453f 6a3d
00000340: b6d5 1fbd 85ee 15be 369e 433d 60d1 1a3c
00000350: 3263 7e3d a0c0 783d 1d9f e03b 35d8 bfbd
00000360: 364b a5bd 2292 8dbd 937d c5bd 9532 143d
00000370: 2742 143d c687 453d 3e9c aebc 3f65 bebd
00000380: 31ae ca3d ba17 19bd f942 ab3d 742c 033c
00000390: 746f 813c a7be a33c b09a 7bbd 1ca7 3d3d
000003a0: e3a4 513c 2d8e 883d 88fa 03bc b23d 913c
000003b0: 31c0 db3d 9692 343d b1d4 19bb 6756 5abd
000003c0: 6bac 553d 35fa d33c be36 183d 350a 093d
000003d0: 4efc e4bd 1255 d43d 96f2 e93c bcb9 9ebd
000003e0: fae8 82bd 5767 793d 5137 663d 9f96 883c
000003f0: cd39 673b f943 4d3d c582 983c 668a fabd

conv1_4/W f4 [32, 64, 3, 3]
0.0048720003 -0.06216821 -0.06537505 0.03493698 0.064882964 -0.002421435 0.0062555694 -0.019296307
0.002506368 -0.041192513 -0.093319975 -0.07131399 -0.000435918 0.0767509 0.011199318 -0.0132986335
0.078077674 0.088560894 0.0757612 -0.025687825 -0.010120215 0.07263489 0.0075228144 0.062788755
-0.030218532 -0.022305258 0.090188876 0.010837949 -0.09745012 -0.048771795 0.013001559 -0.059680194
-0.037363358 -0.010488287 -0.013307428 -0.035544347 -0.01813925 0.033161078 0.0012634231 -0.017081477
-0.011620691 -0.0069598504 0.021143638 -0.0100151915 0.06527501 -0.058687586 -0.06658626 0.00316765
0.0024859398 -0.06281774 0.050539806 0.0137816 0.006050107 -0.030409962 0.011773997 0.048808668
0.04873322 -0.09653084 -0.0066756923 0.051670793 -0.02434363 0.004343675 -0.019946562 0.046085555
-0.0062810583 0.00022774728 0.07746243 0.026398735 -0.012487021 0.07333586 -0.04541503 -0.035311315
0.0103503615 -0.050717473 -0.009414921 0.010437088 -0.030255036 -0.088598154 -0.042629316 0.008542756
0.053312946 0.050237216 0.019626196 0.02722048 -0.0035109704 0.029471323 -0.104582466 0.011448451
-0.096405394 -0.055882923 -0.03983689 -0.050358977 0.015918491 0.038095523 -0.058125213 -0.042166367
-0.028853938 0.0021540998 -0.0017751598 0.084648535 0.0061323736 -0.046931542 0.010189106 -0.070652686
0.013814805 -0.020111412 0.0138358595 0.0038956006 0.04358473 0.061965723 0.038478546 -0.02990901
-0.014952615 0.002030808 0.08187356 0.060541525 -0.019771965 0.035078827 0.06362292 -0.0065814913
0.059700653 -0.067016676 -0.005411504 0.070217736 0.003223173 -0.034021016 0.0024059135 -0.059337944
0.03619906 0.10460375 0.01838741 -0.00027576688 -0.0668414 -0.070055395 0.07087075 -0.08610148
0.049486905 -0.015308126 -0.0012763188 0.004227044 -0.0040415577 -0.07218041 -0.0024151925 -0.025554676
-0.0006499175 -0.00023506569 -0.047858678 0.025853321 0.010182006 0.041910343 -0.049406044 -0.051623292
-0.050046433 -0.07192487 -0.060864054 0.018163359 0.008592208 -0.021246253 -0.15907444 0.0022579876
0.07102433 0.00041885817 0.0019893888 0.031783022 -0.011300068 0.055021357 -0.010484607 -0.00023308574
-0.022566106 0.032555405 0.049937934 -0.0319473 0.07213694 0.006012798 0.049880646 0.06249601
0.029531272 -0.028666075 -0.07028874 0.02239166 -0.05499528 -0.0049918923 -0.020180145 -0.028954275
0.017983425 -0.06595792 0.002789097 -0.009752 0.002339263 0.07156794 0.0017338191 0.0027097769
-0.015687203 -0.006689961 0.019754177 -0.016338488 -0.022854254 -0.007575326 0.028033946 0.018777985
-0.022773763 0.016134067 0.03683055 0.025870446 -0.076500446 0.04055592 0.12598735 0.04016702
-0.015412134 -0.021121068 -0.03390854 -0.033754747 -0.015505047 -0.039981592 -0.013035115 -0.059523065
-0.035627007 0.023235094 -0.018060658 -0.04417479 0.039883565 0.05310267 0.007971398 0.04138946
0.0113921305 0.0032886656 -0.03684691 -0.016838785 -0.046537533 -0.037066136 -0.05818415 0.023869747
-0.01894405 0.0011296149 -0.08567578 -0.050336227 -0.04048752 -0.0062467763 0.025935927 -0.0021386407
-0.014358569 0.01175734 -0.009419287 0.021088837 0.04381772 0.05000553 0.09388745 0.0121441735
-0.004978561 -0.0011867827 0.08617931 0.03632604 -0.029509801 0.022705557 0.0045661614 0.0051899934
00000000: 4da5 9f3b 18a4 7ebd 5be3 85bd 141a 0f3d
00000010: 5ce1 843d f0b0 1ebb 85fb cc3b 4a13 9ebc
00000020: e141 243b 7bb9 28bd 8b1e bfbd 120d 92bd
00000030: ec8b e4b9 932f 9d3d 587d 373c 83e2 59bc
00000040: 30e7 9f3d 6a5f b53d b028 9b3d 466f d2bc
00000050: 42cf 25bc 9ac1 943d f181 f63b 6497 803d
00000060: db8c f7bc 84b9 b6bc f2b4 b83d a791 313c
00000070: ee93 c7bd efc4 47bd 7e04 553c 3873 74bd
00000080: 520a 19bd 10d7 2bbc 6607 5abc f396 11bd
00000090: c498 94bc e9d3 073d 7299 a53a 74ee 8bbc
000000a0: b664 3ebc 750f e4bb 6c35 ad3c c216 24bc
000000b0: e8ae 853d 6562 70bd 615e 88bd 5998 4f3b
000000c0: 26eb 223b 96a6 80bd d402 4f3d 38cc 613c
000000d0: fa3f c63b 501e f9bc b9e7 403c 99eb 473d
000000e0: 7c9c 473d f6b1 c5bd c4bf dabb c1a4 533d
000000f0: 4b6c c7bc 6355 8e3b f966 a3bc 35c4 3c3d
00000100: 56d1 cdbb 72cf 6e39 9fa4 9e3d 2942 d83c
00000110: 5d96 4cbc 1d31 963d 1c05 3abd 99a2 10bd
00000120: 9094 293c 20bd 4fbd 0a41 1abc 5200 2b3c
00000130: 69d9 f7bc f372 b5bd 149c 2ebd eaf6 0b3c
00000140: ad5e 5a3d 8ac5 4d3d 1ec7 a03c 7cfd de3c
00000150: 4f18 66bb d86d f13c 552f d6bd 4992 3b3c
00000160: 3170 c5bd 7ee5 64bd 022c 23bd 3745 4ebd
00000170: 7f67 823c 0d0a 1c3d b414 6ebd a4b6 2cbd
00000180: 185f ecbc cc2b 0d3b 7bac e8ba 365c ad3d
00000190: 14f2 c83b 4a3b 40bd 35f0 263c 5bb2 90bd
000001a0: 7e57 623c b0c0 a4bc cdaf 623c 554d 7f3b
000001b0: e785 323d c5cf 7d3d ae9b 1d3d bd03 f5bc
000001c0: d0fb 74bc 4e17 053b 53ad a73d 64fa 773d
000001d0: d1f8 a1bc d1ae 0f3d bc4c 823d 8da9 d7bb
000001e0: ac88 743d 0a40 89bd fc52 b1bb 51ce 8f3d
000001f0: df3b 533b 9f59 0bbd 88ac 1d3b 580c 73bd
00000200: 7745 143d 7e3a d63d 32a1 963c ce94 90b9
00000210: 25e4 88bd 3479 8fbd af24 913d f955 b0bd
00000220: c8b2 4a3d efce 7abc 274a a7ba 0483 8a3b
00000230: 0b6f 84bb 53d3 93bd 3548 1ebb 0a58 d1bc
00000240: 3a5f 2aba f77b 76b9 7607 44bd 58ca d33c
00000250: 6ed2 263c 2eaa 2b3d fe5d 4abd f272 53bd
00000260: 7dfd 4cbd 594d 93bd 964c 79bd 53cb 943c
00000270: 55c6 0c3c 9f0c aebc 69e4 22be bffa 133b
00000280: 3475 913d 319a db39 6860 023b ea2e 023d
00000290: ec23 39bc 135e 613d a1c7 2bbc 7a68 74b9
000002a0: 8edc b8bc d158 053d b88b 4c3d 2cdb 02bd
000002b0: 88bc 933d 0107 c53b a64f 4c3d d1fb 7f3d
000002c0: 91eb f13c 1ed5 eabc 8bf3 8fbd b76e b73c
000002d0: bb42 61bd 0793 a3bb d550 a5bc 8431 edbc
000002e0: fa51 933c f214 87bd 48c9 363b dac6 1fbc
000002f0: 524e 193b 3692 923d 5141 e33a 8396 313b
00000300: 7382 80bc 7637 dbbb 83d3 a13c 4bd8 85bc
00000310: d838 bbbc 713a f8bb 72a7 e53c 4ad4 993c
00000320: 0b90 babc 972b 843c a1db 163d 42ee d33c
00000330: 44ac 9cbd f71d 263d d402 013e 2c86 243d
00000340: 2d83 7cbc 1706 adbc aee3 0abd 6b42 0abd
00000350: e108 7ebc bdc3 23bd 3c91 55bc 75ce 73bd
00000360: a0ed 11bd 8657 be3c f2f3 93bc a0f0 34bd
00000370: f35c 233d 2f82 593d 779a 023c ff87 293d
00000380: 0fa6 3a3c a786 573b c9ec 16bd 7ef1 89bc
00000390: 249e 3ebd a9d2 17bd 8152 6ebd 7d8a c33c
000003a0: 8d30 9bbc 960f 943a c976 afbd 5c2d 4ebd
000003b0: 3ed6 25bd c2b1 ccbb 9577 d43c 7028 0cbb
000003c0: 3440 6bbc dca1 403c 5a53 1abc 7fc2 ac3c
000003d0: 367a 333d 99d2 4c3d 1048 c03d 5bf8 463c
000003e0: 3223 a3bb d28d 9bba c77e b03d 9dca 143d
000003f0: 8abe f1bc 0101 ba3c bd9f 953b d210 aa3b

bn1/avg_mean f4 [64]
0.0011066274 -0.04775964 0.06940156 -0.07358267 0.044445798 0.06274935 -0.013352763 -0.0222845
0.09358445 0.062324513 -0.10307683 -0.054269254 -0.07864847 -0.04202301 -0.09785001 -0.030962827
-0.031572353 0.09889549 0.019691044 -0.14533946 -0.012603179 -0.078939185 0.08074808 -0.117634736
0.021962756 -0.12255852 -0.06552152 0.018839506 -0.055764902 -0.020012386 -0.060052328 -0.07248349
0.06673573 0.07055544 -0.07726199 -0.1023143 0.038885023 -0.019139761 0.021789957 0.029034803
0.054986868 -0.07163045 -0.114620484 -0.071171075 0.058668908 -0.08343021 -0.056606077 -0.091067486
0.046614207 0.02093788 0.04630987 -0.09848055 -0.026295593 0.07847438 -0.14039081 -0.057860855
0.025328532 -0.06963179 -0.02370582 0.037643626 -0.06018645 -0.12906907 0.06940244 -0.030296456
00000000: 410c 913a 9d9f 43bd 6822 8e3d 83b2 96bd
00000010: cc0c 363d bb82 803d 8cc5 5abc fc8d b6bc
00000020: 34a9 bf3d fd47 7f3d f219 d3bd 7049 5ebd
00000030: 7312 a1bd 5220 2cbd 9665 c8bd c1a5 fdbc
00000040: 0352 01bd b889 ca3d 1d4f a13c ded3 14be
00000050: 907d 4ebc deaa a1bd 405f a53d 7bea f0bd
00000060: 3deb b33c f6ff fabd 2630 86bd 4f55 9a3c
00000070: bd69 64bd 04f1 a3bc 6ef9 75bd 3972 94bd
00000080: beac 883d 5f7f 903d 893b 9ebd 298a d1bd
00000090: e745 1f3d fdca 9cbc da80 b23c 65da ed3c
000000a0: e939 613d fcb2 92bd 25be eabd 24c2 91bd
000000b0: cf4e 703d 75dd aabd c6db 67bd 9781 babd
000000c0: 8aee 3e3d eb85 ab3c 6baf 3d3d 2cb0 c9bd
000000d0: db69 d7bc 2db7 a03d 9cc2 0fbe 81ff 6cbd
000000e0: c87d cf3c 1d9b 8ebd b532 c2bc 3430 1a3d
000000f0: 1186 76bd af2a 04be de22 8e3d 4630 f8bc

bn4/beta f4 [32]
-0.010445203 0.13380367 0.020823779 0.048809323 0.023196256 0.100422725 0.10998341 0.082481824
0.013184816 0.11733239 0.10951599 0.06577278 0.036191083 0.029709006 0.09150885 0.044973496
0.11747713 0.04569644 0.10237211 0.08821817 0.075259455 0.10416886 0.017910112 0.032916036
0.05762478 0.055630084 0.039063763 0.10209777 0.13621424 0.008101022 0.08596166 0.1102671
00000000: 5b22 2bbc d403 093e a196 aa3c 49ec 473d
00000010: 1306 be3c 6eaa cd3d fb3e e13d 3bec a83d
00000020: 2005 583c f74b f03d eb49 e03d e1b3 863d
00000030: 1a3d 143d 4d60 f33c fe68 bb3d 2136 383d
00000040: d997 f03d 312c 3b3d 78a8 d13d baab b43d
00000050: a121 9a3d 7c56 d53d 3ab8 923c f7d2 063d
00000060: f607 6c3d 5fdc 633d 5301 203d a318 d13d
00000070: bf7b 0b3e 26ba 043c ab0c b03d b8d3 e13d

conv1_2/W f4 [64, 64, 3, 3]
-0.049976323 0.07687895 0.022464143 0.04604906 -0.025172424 -0.06116369 0.007124653 -0.0021510252
-0.090938844 0.06110315 -0.0023695768 0.07187371 -0.02272505 0.02677875 0.052546173 -0.05086736
-0.050467577 -0.03673733 -0.009237562 -0.05294354 0.07397878 -0.016378226 0.03859454 0.033376344
-0.055480734 0.036255363 -0.08771584 -0.04304444 0.07615669 -0.02908406 -0.017263236 -0.08511026
-0.05069605 0.025507169 0.012741473 -0.011745811 -0.027756484 0.011293743 -0.040405083 -0.00985556
-0.04345685 -0.009384661 0.033938147 -0.0019034739 0.044935793 -0.02433725 -0.037088387 -0.051619753
-0.005548712 0.0023760796 0.018834349 0.09680889 -0.018938351 0.045695864 0.00758556 0.06765995
0.009028435 -0.020555928 -0.005406407 -0.08936951 0.071261644 0.050114874 0.005338945 -0.048102275
-0.035858087 0.016944088 -0.03938256 -0.018738572 0.048662327 -0.08880137 0.00074591435 -0.055070475
-0.024856677 0.03048538 0.055386953 0.011600311 -0.05171662 -0.032536212 0.011958526 -0.022587331
-0.06282628 -0.05673118 -0.0037146402 0.008930669 0.06033577 -0.09636597 0.011167537 0.011840764
-0.061441556 0.08757202 -0.018229334 -0.017653285 -0.03148737 -0.037532005 0.03425583 0.0701957
-0.026552545 0.022189908 -0.012625394 0.03334234 0.035576377 -0.028889459 0.003017337 -0.0755064
0.031857528 0.045380704 0.007474555 -0.050651513 -0.06680422 -0.06898478 -0.034178607 -0.0030367016
0.013176503 -0.07064436 0.07904609 -0.01014308 0.04042656 -0.06447627 -0.015175794 -0.019273678
-0.06021056 -0.022503786 -0.008740697 -0.0740285 -0.03559927 -0.04411006 -0.019330995 0.009006985
-0.06920975 0.021242436 -0.02848025 0.07363375 -0.0032962556 -0.045985002 0.11569171 -0.033100348
-0.052388825 -0.038446 -0.019289298 -0.038513456 -0.011210144 -0.064542115 -0.027909592 -0.107096225
-0.007991937 -0.03749137 -0.010060645 -0.04064456 -0.034334432 -0.11390905 0.0079525765 0.013935783
-0.08235553 -0.06937963 0.009361542 -0.03673724 0.045182474 -0.03906186 0.10400217 -0.03560866
-0.07274298 -0.032221206 -0.017756142 -0.06899658 -0.013940466 -0.015745208 -0.033978794 -0.06660818
0.024995452 -0.015447123 -0.08256259 -0.092328 -0.08720824 -0.051712073 -0.022304272 0.012896161
-0.021765437 -0.06438736 -0.01533381 -0.032465003 -0.029292006 -0.05713815 -0.018219251 0.011226834
-0.12776889 -0.03767841 0.020358775 -0.014564065 0.0033804888 0.06382969 -0.03549365 -0.010463779
0.053965006 -0.044153396 0.043632913 0.01011576 0.0031067608 0.05229622 -0.079824984 0.030254977
0.04301926 -0.086581916 -0.02662259 -0.029522698 0.066494144 0.047055114 -0.060290623 0.048115406
-0.019273173 0.060804516 0.0047022323 -0.005315088 -0.099291615 -0.022252683 0.01029016 0.042192444
-0.0056525166 -0.021998862 0.022632191 0.016508441 0.011854998 0.03851327 -0.0695395 -0.06377207
0.031797808 -0.02598063 0.032391336 0.07969487 -0.029366946 0.047135733 -0.017467378 -0.08353443
0.008819807 0.044631243 -0.013683439 0.03582635 0.0008417941 -0.027822658 0.029285608 -0.099458635
-0.03942762 0.020702707 0.0031305528 -0.009950418 0.04347071 -0.017826622 0.031191168 -0.040496755
0.03477323 0.015313569 0.03677825 0.020242898 -0.03300877 0.037140474 -0.062532164 -0.010973145
00000000: f9b3 4cbd b672 9d3d b906 b83c f09d 3c3d
00000010: 6636 cebc c786 7abd ec75 e93b 37f8 0cbb
00000020: 253e babd 4c47 7a3d e74a 1bbb 8632 933d
00000030: e229 babc 1c5f db3c a83a 573d 4b5a 50bd
00000040: 17b7 4ebd e279 16bd 2559 17bc 53db 58bd
00000050: 3082 973d a12b 86bc 4f15 1e3d a2b5 083d
00000060: c43f 63bd 8180 143d 5da4 b3bd 5e4f 30bd
00000070: 0af8 9b3d b241 eebc a16b 8dbc 4a4e aebd
00000080: a9a6 4fbd 69f4 d03c 9cc1 503c 8171 40bc
00000090: 9161 e3bc 6409 393c cd7f 25bd 3779 21bc
000000a0: cfff 31bd 1fc2 19bc ba02 0b3d fc7d f9ba
000000b0: 980e 383d ea5e c7bc fee9 17bd 3c6f 53bd
000000c0: f8d1 b5bb 00b8 1b3b 7e4a 9a3c bd43 c63d
000000d0: 9a24 9bbc 962b 3b3d 4a90 f83b 4d91 8a3d
000000e0: 00ec 133c e864 a8bc 3b28 b1bb 5d07 b7bd
000000f0: a0f1 913d 4145 4d3d 51f2 ae3b e406 45bd
00000100: eedf 12bd 54ce 8a3c 9b4f 21bd a281 99bc
00000110: 2652 473d 7edd b5bd 7789 433a 9491 61bd
00000120: 3ba0 cbbc 7abc f93c 6edd 623d 3b0f 3e3c
00000130: ced4 53bd b144 05bd b2ed 433c 1109 b9bc
00000140: 11ab 80bd f45e 68bd 5271 73bb f151 123c
00000150: a422 773d 865b c5bd 0cf8 363c c4ff 413c
00000160: 24aa 7bbd f658 b33d af55 95bc 9f9d 90bc
00000170: e7f8 00bd 29bb 19bd d74f 0c3d c3c2 8f3d
00000180: b984 d9bc 9cc7 b53c beda 4ebc fa91 083d
00000190: 89b8 113d 96a9 ecbc 84be 453b 19a3 9abd
000001a0: 0a7d 023d 1ee1 393d 1ded f43b f677 4fbd
000001b0: a7d0 88bd e447 8dbd defe 0bbd 6603 47bb
000001c0: 42e2 573c fdad 90bd ebe2 a13d 292f 26bc
000001d0: 5296 253d 220c 84bd e5a3 78bc d5e3 9dbc
000001e0: 599f 76bd dc59 b8bc 2435 0fbc 419c 97bd
000001f0: 8ad0 11bd c0ac 34bd 095c 9ebc 0992 133c
00000200: d7bd 8dbd 9e04 ae3c 6a4f e9bc 4bcd 963d
00000210: fe05 58bb c55a 3cbd c6ef ec3d 3b94 07bd
00000220: aa95 56bd 8e79 1dbd 9704 9ebc 49c0 1dbd
00000230: c0aa 37bc a82e 84bd a8a2 e4bc 4455 dbbd
00000240: 9df0 02bc 8d90 19bd 67d5 24bc e97a 26bd
00000250: 43a2 0cbd 2649 e9bd 864b 023c e952 643c
00000260: 04aa a8bd e816 8ebd 2761 193c ca79 16bd
00000270: 4211 393d 54ff 1fbd 17ff d43d 63da 11bd
00000280: 46fa 94bd 62fa 03bd 5475 91bc 144e 8dbd
00000290: 8d66 64bc 18fc 80bc 592d 0bbd df69 88bd
000002a0: 43c3 cc3c ee15 7dbc 9316 a9bd 7616 bdbd
000002b0: 3c9a b2bd 0ad0 53bd 73b7 b6bc 6b4a 533c
000002c0: 6e4d b2bc 85dd 83bd a93a 7bbc 06fa 04bd
000002d0: caf5 efbc b109 6abd 8a40 95bc c1f0 373c
000002e0: d9d5 02be ad54 1abd 72c7 a63c 1e9e 6ebc
000002f0: 318b 5d3b 24b9 823d ca61 11bd 4570 2bbc
00000300: 690a 5d3d 31da 34bd 6db8 323d 93bc 253c
00000310: cc9a 4b3b 9034 563d 487b a3bd 49d9 f73c
00000320: f734 303d dc51 b1bd 9e17 dabc 96d9 f1bc
00000330: 152e 883d ddbc 403d 4df3 76bd a914 453d
00000340: c6e2 9dbc 280e 793d 2f15 9a3b 312a aebb
00000350: 6759 cbbd 424b b6bc 0f98 283c fcd1 2c3d
00000360: bf38 b9bb f536 b4bc 2567 b93c b63c 873c
00000370: 773b 423c 17c0 1d3d ba6a 8ebd ee9a 82bd
00000380: 6b3e 023d 55d5 d4bc c7ac 043d 1037 a33d
00000390: f392 f0bc 6611 413d bf17 8fbc 1914 abbd
000003a0: f480 103c 40cf 363d 8130 60bc a7be 123d
000003b0: d9ab 5c3a 58ec e3bc 5fe8 ef3c f8b0 cbbd
000003c0: db7e 21bd b998 a93c f629 4d3b 1407 23bc
000003d0: 580e 323d 2309 92bc 9f84 ff3c eddf 25bd
000003e0: 606e 0e3d c4e5 7a3c caa4 163d 6fd4 a53c
000003f0: 3434 07bd 9c20 183d dd10 80bd b5c8 33bc

bn3/gamma f4 [64]
1.0331973 1.0235046 0.9999306 1.0062006 1.0013182 1.0269331 1.0392497 1.0269223
0.9951322 0.99409926 1.0430369 1.0543121 0.98163307 1.0372988 0.99362594 1.0171248
1.0201122 0.9982683 1.000824 0.9976254 0.9879366 1.0882691 1.0253296 0.9934487
1.0118488 1.0216184 0.99350965 0.99898213 1.0127139 1.0256058 1.0094614 1.0656084
0.98833966 0.9944517 0.99972945 0.987305 0.9757081 0.98888916 0.9665175 1.0475434
0.979179 0.9811503 1.0016795 1.021305 1.00477 1.0153906 0.9998913 0.9955084
0.9954803 1.0183026 1.0161076 1.019512 1.044087 1.0765511 1.0222017 0.9991747
1.0041223 1.0047563 0.9790552 1.0493708 1.0315855 0.9978515 1.0036328 1.0041088
00000000: cf3f 843f 3302 833f 74fb 7f3f 2ecb 803f
00000010: 322b 803f 8b72 833f 2206 853f 3172 833f
00000020: fcc0 7e3f 4a7d 7e3f 3c82 853f b3f3 863f
00000030: 4e4c 7b3f 35c6 843f 455e 7e3f 2531 823f
00000040: 0993 823f 838e 7f3f 001b 803f 6164 7f3f
00000050: 6ae9 7c3f 674c 8b3f 003e 833f a752 7e3f
00000060: 4384 813f 64c4 823f a656 7e3f 4bbd 7f3f
00000070: 9ca0 813f 0d47 833f 0836 813f db65 883f
00000080: d403 7d3f 6394 7e3f 45ee 7f3f 05c0 7c3f
00000090: 02c8 793f d727 7d3f b16d 773f e715 863f
000000a0: 7aab 7a3f ab2c 7b3f 0937 803f 1fba 823f
000000b0: 4e9c 803f 52f8 813f e0f8 7f3f a3d9 7e3f
000000c0: ccd7 7e3f bd57 823f d00f 823f 5f7f 823f
000000d0: a5a4 853f 6dcc 893f 81d7 823f eac9 7f3f
000000e0: 1487 803f db9b 803f 5da3 7a3f c851 863f
000000f0: fe0a 843f 3273 7f3f 0a77 803f a386 803f

conv1_7/W f4 [2, 32, 3, 3]
0.08506597 0.025193725 0.066226594 -0.18193084 -0.04831031 -0.018905763 0.043870315 -0.015458702
-0.034774356 -0.03310092 -0.053040247 -0.071596235 0.14832467 0.11195725 -0.007955625 0.031444296
-0.020798365 0.14410321 -0.008565759 0.031220369 -0.04402606 0.019840743 0.08069914 -0.03046493
0.015019698 0.09763072 0.18818364 0.041970666 0.09091526 -0.020870632 0.06282254 0.01652405
0.07813004 0.17383161 0.1452591 0.10438485 -0.08144859 -0.032700263 -0.069810316 0.0619184
0.04410499 -0.051894452 0.04992921 0.055123374 0.11821514 0.14031611 -0.047368083 -0.042598
0.04695555 0.2708954 0.083696 0.08721753 0.11571443 -0.035243586 0.020521214 0.081837505
-0.07890906 -0.0043109125 0.051159877 0.06881801 0.1219465 0.08803908 0.031414494 0.041316014
-0.047553673 0.09694959 -0.02907462 0.071708515 0.05482233 -0.029881015 0.04988945 -0.020254998
0.046662807 0.023339938 -0.040385302 0.03969393 -0.043890823 -0.059472486 0.030637886 -0.1387123
0.12766346 -0.102338985 0.08304423 0.17741816 0.15210065 0.053617816 -0.041078698 0.18761078
-0.11663246 0.16638567 0.08020749 0.09237296 0.020019332 0.18526857 0.08850721 0.057484083
-0.06927887 0.020636996 0.0642921 0.03529925 0.08997362 0.013751591 0.08288519 -0.071102455
0.0404268 -0.03051249 0.025658738 0.11108037 0.027878202 -0.0001554712 0.039815597 0.062536635
0.050794747 0.11400844 -0.040464435 -0.12147356 0.048987802 0.014723782 0.064792 0.07590845
0.06799784 -0.0011194149 0.022057015 0.03943796 -0.011180491 0.03633667 0.094308645 0.09171464
-0.16399717 -0.15664475 0.041146766 0.07611245 0.04966018 0.0957226 -0.02653005 0.050621897
0.041215524 0.054234907 0.15912548 0.004957028 0.085863255 -0.01351413 -0.113680415 0.05140665
0.10509055 0.054485966 0.12346297 0.18684055 0.010612228 0.055706825 0.009806891 -0.024933528
-0.16438386 -0.009267867 0.037399624 -0.122528054 -0.04536586 0.047287397 0.041430347 0.034880277
0.044134326 0.05109766 0.056441717 0.20810385 0.049368937 0.044002064 0.16659112 -0.02138571
0.012656796 0.14136913 0.03738516 -0.052748825 -0.015650686 0.10063297 -0.049288422 0.21384591
0.06528706 0.05031466 0.049947355 0.07702278 0.006460146 0.08188792 0.061189715 0.06164514
0.079893135 0.0075375726 0.11386237 0.10028816 0.17471725 0.07890215 0.05977044 -0.044139195
-0.07829654 0.12736058 0.17543365 0.085588984 0.12797318 0.10459512 2.8596858e-05 0.08433825
-0.04358529 0.06475985 -0.131959 0.03306413 0.006452973 -0.054027062 -0.013543215 -0.00897061
-0.01220602 -0.04489797 0.0047918265 0.11899681 -0.054024547 0.04956592 0.019914402 0.11825563
-0.017459672 0.084636755 0.11737944 0.18664977 0.123582065 0.03197409 0.09434266 0.0038722479
-0.0026275597 0.13359438 0.07560227 0.06552507 0.1332161 0.02579623 0.071180075 0.038261816
-0.1592234 -0.014276864 -0.037006192 0.016735096 0.085042715 -0.09318326 -0.09139736 -0.0046383496
0.051998045 -0.029130835 0.08929148 0.11456767 0.06229425 0.11318852 0.03887706 0.027118549
0.042728208 0.051730555 0.08900095 0.019222787 0.14712702 0.0069279238 0.06862705 0.081509024
00000000: 1137 ae3d 1263 ce3c cfa1 873d 144c 3abe
00000010: 08e1 45bd 42e0 9abc 5cb1 333d 7f46 7dbc
00000020: 8e6f 0ebd d594 07bd bb40 59bd 0ca1 92bd
00000030: 6ce2 173e d849 e53d 4f58 02bc bccb 003d
00000040: 5561 aabc cb8f 133e 6657 0cbc dcc1 ff3c
00000050: ab54 34bd 0e89 a23c 9745 a53d 9791 f9bc
00000060: 2e15 763c 9df2 c73d 36b3 403e 6fe9 2b3d
00000070: c831 ba3d e3f8 aabc 1ba9 803d 725d 873c
00000080: a402 a03d ea00 323e cdbe 143e b9c7 d53d
00000090: 85ce a6bd b6f0 05bd b6f8 8ebd 269e 7d3d
000000a0: 6fa7 343d 478f 54bd 9282 4c3d 0cc9 613d
000000b0: c81a f23d 07af 0f3e 0905 42bd 3e7b 2ebd
000000c0: 7654 403d cdb2 8a3e cf68 ab3d 1b9f b23d
000000d0: b0fb ec3d 945b 10bd 1b1c a83c 6c9a a73d
000000e0: 139b a1bd 8e42 8dbb 058d 513d 75f0 8c3d
000000f0: 16bf f93d d54d b43d 7cac 003d fb3a 293d
00000100: a4c7 42bd 828d c63d e62d eebc eadb 923d
00000110: 618d 603d 08c9 f4bc e158 4c3d cfed a5bc
00000120: 8021 3f3d 6633 bf3c 0f6b 25bd 1a96 223d
00000130: ddc6 33bd 6c99 73bd 4efc fa3c 990a 0ebe
00000140: 36ba 023e 1a97 d1bd 1813 aa3d 1bad 353e
00000150: 46c0 1b3e 5b9e 5b3d 2342 28bd 0a1d 403e
00000160: 00dd eebd 0161 2a3e d343 a43d 092e bd3d
00000170: 95ff a33c 0bb7 3d3e 4543 b53d 6e74 6b3d
00000180: 15e2 8dbd eb0e a93c 94ab 833d f295 103d
00000190: 1744 b83d 5a4e 613c b6bf a93d 2a9e 91bd
000001a0: 9296 253d 54f5 f9bc 4632 d23c 1b7e e33d
000001b0: d460 e43c fc05 23b9 ae15 233d 3513 803d
000001c0: 270e 503d 427d e93d 09be 25bd 21c7 f8bd
000001d0: 6fa7 483d 053c 713c abb1 843d e475 9b3d
000001e0: 7442 8b3d 55b9 92ba eab0 b43c b389 213d
000001f0: 612e 37bc c3d5 143d e424 c13d e3d4 bb3d
00000200: e0ee 27be 7b67 20be 8389 283d d8e0 9b3d
00000210: 7968 4b3d 360a c43d 8c55 d9bc e858 4f3d
00000220: 9cd1 283d 6c25 5e3d caf1 223e 916e a23b
00000230: 13d9 af3d 5f6a 5dbc 47d1 e8bd c88f 523d
00000240: b739 d73d ad2c 5f3d 27da fc3d 2153 3f3e
00000250: e9de 2d3c d72c 643d 15ad 203c 6641 ccbc
00000260: 3e54 28be 40d8 17bc 5930 193d fdef fabd
00000270: 8dd1 39bd 6eb0 413d deb2 293d 9fde 0e3d
00000280: 32c6 343d c84b 513d 6e2f 673d 2d19 553e
00000290: 1537 4a3d 823b 343d dd96 2a3e 1631 afbc
000002a0: 735e 4f3c 12c3 103e 2e21 193d 270f 58bd
000002b0: de35 80bc a918 ce3d a8e2 49bd 6cfa 5a3e
000002c0: 39b5 853d bf16 4e3d 9995 4c3d 1fbe 9d3d
000002d0: a2af d33b dbb4 a73d 11a2 7a3d 9d7f 7c3d
000002e0: 039f a33d befd f63b ad30 e93d e163 cd3d
000002f0: 14e9 323e 7397 a13d d9d1 743d 4dcb 34bd
00000300: f059 a0bd d06a 023e e1a4 333e 4749 af3d
00000310: 670b 033e f735 d63d 49e3 ef37 88b9 ac3d
00000320: 7d86 32bd d0a0 843d 4320 07be 416e 073d
00000330: 7673 d33b 7b4b 5dbd 5ce4 5dbc 77f9 12bc
00000340: c2fb 47bc efe6 37bd c104 9d3b 99b4 f33d
00000350: d848 5dbd a205 4b3d 8723 a33c 0230 f23d
00000360: 9607 8fbc 0956 ad3d a264 f03d 1e21 3f3e
00000370: 9818 fd3d 43f7 023d b936 c13d 8ac5 7d3b
00000380: 2333 2cbb f7cc 083e 5dd5 9a3d 0232 863d
00000390: cd69 083e 9e52 d33c dcc6 913d 6cb8 1c3d
000003a0: 750b 23be 82e9 69bc ce93 17bd 0a18 893c
000003b0: e02a ae3d ddd6 bebd 8a2e bbbd 4cfd 97bb
000003c0: e7fb 543d caa3 eebc 74de b63d 74a2 ea3d
000003d0: 4128 7f3d 62cf e73d 8d3d 1f3d b827 de3c
000003e0: c603 2f3d 6be3 533d 2146 b63d 1b79 9d3c
000003f0: 77a8 163e a303 e33b 578c 8c3d 34ee a63d
