loto6_cnn/model/loto6_20_530.model (npz, 468544 bytes, 38 tensors)

conv1_2/b f4 [64]
-0.00012190821 -8.880219e-05 5.1287276e-05 -0.00013761564 2.410652e-06 9.3585106e-05 -3.845776e-05 -0.00018107273
2.469766e-05 0.0003644538 -4.1303683e-05 -0.00020506272 1.5773354e-05 1.4757923e-05 -1.39875265e-05 -9.4103336e-05
-2.782104e-05 -1.6304622e-05 2.9379202e-05 -6.464769e-06 8.680643e-05 5.2545896e-05 1.0911702e-05 -9.890765e-05
-4.708903e-05 -1.8812241e-05 -4.8632514e-06 -2.3850465e-05 -2.2644286e-05 0.000105916835 1.0576733e-05 -1.7048161e-06
1.7775132e-05 -6.6250022e-06 -4.843919e-05 -0.00013098387 8.176994e-05 -0.00016652758 4.7662934e-06 -4.0285377e-05
6.837508e-05 -3.16155e-05 2.2713604e-05 -1.2781376e-05 1.3810678e-05 2.4231596e-05 3.5339322e-05 -7.9971054e-05
-2.444438e-05 3.4236265e-05 5.0293605e-05 2.8183526e-05 2.0620726e-06 4.629728e-05 0.00015241528 -0.00017007087
-0.00012336324 -4.140904e-06 7.080322e-05 1.1295275e-06 2.7141127e-06 4.6691915e-05 -9.773021e-05 -2.688925e-05
00000000: f9a8 ffb8 503b bab8 4b1d 5738 eb4c 10b9
00000010: b0c6 2136 1f43 c438 b54d 21b8 57de 3db9
00000020: d22d cf37 2914 bf39 7e3d 2db8 1b06 57b9
00000030: 0551 8437 cc98 7737 f8ab 6ab7 5859 c5b8
00000040: 3a61 e9b7 e9c5 88b7 5b73 f637 f1eb d8b6
00000050: d90b b638 ba64 5c38 6711 3737 a46c cfb8
00000060: 7681 45b8 fbce 9db7 032f a3b6 7c12 c8b7
00000070: 3cf4 bdb7 ab1f de38 b972 3137 09d1 e4b5
00000080: ce1b 9537 564c deb6 2f2b 4bb8 b758 09b9
00000090: e77b ab38 e89d 2eb9 26ee 9f36 18f8 28b8
000000a0: 9764 8f38 e29a 04b8 1889 be37 986f 56b7
000000b0: 69b4 6737 f544 cb37 4f39 1438 22b6 a7b8
000000c0: e80d cdb7 e998 0f38 59f2 5238 a96b ec37
000000d0: 2362 0a36 532f 4238 aad1 1f39 0d55 32b9
000000e0: 115b 01b9 18f2 8ab6 307c 9438 459a 9735
000000f0: 1a24 3636 10d7 4338 82f4 ccb8 3a90 e1b7

conv1_4/b f4 [32]
0.000112565554 -6.77244e-05 -0.00028405746 0.00015869207 0.0002456066 -0.00016376961 3.7892893e-05 2.5099565e-05
-0.00014659873 -1.1978541e-05 -0.00026422276 2.9330382e-05 2.6531836e-05 8.8976914e-05 0.00012513886 -0.00013751553
-0.00013710877 -6.627618e-07 0.00011681799 -0.00025435808 0.000100591984 -8.484962e-05 -0.00010731606 0.00040343177
1.3821307e-06 -8.945668e-06 -2.2755303e-05 -3.4773373e-05 -6.358815e-05 -0.00011168089 -7.240705e-05 -0.00012775163
00000000: 2c11 ec38 4307 8eb8 8ced 94b9 9466 2639
00000010: c3c4 8039 92b9 2bb9 2fef 1e38 e88c d237
00000020: 4cb8 19b9 71f7 48b7 6187 8ab9 840a f637
00000030: af90 de37 1e99 ba38 b537 0339 0b32 10b9
00000040: dbc4 0fb9 a5e8 31b5 2efc f438 5d5b 85b9
00000050: e9f4 d238 4bf1 b1b8 df0e e1b8 b283 d339
00000060: a681 b935 5a15 16b7 a4e2 beb7 a0d9 11b8
00000070: a15a 85b8 3936 eab8 3dd9 97b8 11f5 05b9

bn4/avg_mean f4 [32]
-0.56743014 -3.3526924 1.6931454 -2.5200994 -0.026500095 -1.3529661 -2.0213513 0.1900407
-0.66398776 -0.69840777 -3.1532886 -1.2729415 -0.13524017 0.3199271 -1.2339351 -2.2798617
-0.52397645 -1.1100446 -4.046094 -2.8850992 -0.4846438 0.011015674 -0.11235765 -1.918659
-0.31823343 -1.1138283 -0.379412 0.13635544 -3.3095636 1.2459918 -0.38355055 0.31960833
00000000: 1a43 11bf 8392 56c0 fdb8 d83f 4f49 21c0
00000010: ba16 d9bc fe2d adbf d25d 01c0 079a 423e
00000020: 1afb 29bf daca 32bf 7bcf 49c0 bfef a2bf
00000030: 667c 0abe 7ccd a33e 96f1 9dbf 41e9 11c0
00000040: 5223 06bf f115 8ebf 9a79 81c0 77a5 38c0
00000050: 3b23 f8be 167b 343c c51b e6bd 9e96 f5bf
00000060: 7eef a2be ed91 8ebf 4a42 c2be c3a0 0b3e
00000070: e4cf 53c0 a97c 9f3f bd60 c4be b4a3 a33e

conv1_5/b f4 [32]
-3.1338543e-05 -3.8476366e-05 0.00010119754 -7.319878e-05 0.00016822528 9.201344e-05 3.301832e-05 0.00013522383
7.99991e-05 3.0217376e-05 -0.00010672256 -4.3284683e-05 -2.842219e-05 -0.000262608 1.9459896e-05 4.028978e-05
7.695221e-05 -5.3427513e-05 0.00014107526 -9.273827e-05 0.00014567633 2.24341e-05 3.127535e-05 0.00031404843
6.2052255e-05 0.00066205673 -0.00013702239 0.00022238657 -0.00010060736 6.83823e-05 -2.079419e-05 -2.3521634e-05
00000000: 8171 03b8 af61 21b8 043a d438 4c82 99b8
00000010: a165 3039 57f7 c038 277d 0a38 dfca 0d39
00000020: 31c5 a738 527b fd37 3dd0 dfb8 938c 35b8
00000030: 306c eeb7 a6ae 89b9 cf3d a337 d2fc 2838
00000040: 6761 a138 5b17 60b8 9aed 1339 7b7c c2b8
00000050: b1c0 1839 dd30 bc37 a72d 0338 dea6 a439
00000060: 0d22 8238 e08d 2d3a abad 0fb9 7130 6939
00000070: 2afd d2b8 7868 8f38 2f6f aeb7 5350 c5b7

bn5/avg_mean f4 [32]
-0.06853457 -0.19320823 -0.10975968 -0.64508545 0.1258121 -1.0014124 -0.36350214 0.47300395
-0.1196009 0.18320929 -0.24458785 -0.46349663 0.03171982 -0.35491234 -0.16212487 -0.070688814
0.43818703 -0.17555867 -0.8375736 -0.255921 -0.02230914 -0.53757715 -0.38815072 0.6908552
-0.22245087 0.77474976 -0.23190683 -0.5980031 -0.2805342 0.059461374 -0.45904535 -0.30601445
00000000: da5b 8cbd 61d8 45be afc9 e0bd 5224 25bf
00000010: e3d4 003e 482e 80bf f41c babe 932d f23e
00000020: 51f1 f4bd 379b 3b3e 3d75 7abe 6e4f edbe
00000030: a4ec 013d 12b7 b5be 1004 26be 4cc5 90bd
00000040: 0d5a e03e a7c5 33be 396b 56bf 1408 83be
00000050: a8c1 b6bc a89e 09bf b1bb c6be e3db 303f
00000060: 29ca 63be 0056 463f fc78 6dbe bb16 19bf
00000070: 2ea2 8fbe c58d 733d fe07 ebbe edad 9cbe

bn1/gamma f4 [64]
0.9793415 0.9813367 1.0074587 0.9967189 0.9703023 1.0087317 0.98764986 0.9883586
0.9887073 1.0001835 1.0065938 0.99913895 0.9923647 1.0002786 0.9859873 1.0182838
0.97828245 0.98365074 0.9951292 1.0162041 1.0383853 1.0074459 1.0048398 0.9965939
1.0146313 1.0010493 0.980581 0.99534225 0.97353095 0.9961251 0.95317245 0.9869864
0.97997564 1.01109 0.9732772 0.99084926 1.0011812 1.0619996 1.0080166 1.0183978
0.9824183 0.9731639 1.0032468 0.9776174 1.0067986 0.97642636 1.0039291 1.0049901
0.97972834 0.992458 0.98594826 1.0038466 0.9880591 0.96674496 0.98853034 1.0282065
0.9783867 0.9665443 0.981352 0.98700887 0.97599125 1.016483 0.9688787 0.9821466
00000000: 20b6 7a3f e238 7b3f 68f4 803f f828 7f3f
00000010: bb65 783f 1f1e 813f 9fd6 7c3f 1205 7d3f
00000020: ec1b 7d3f 0306 803f 11d8 803f 92c7 7f3f
00000030: 9d0b 7e3f 2109 803f aa69 7c3f 2057 823f
00000040: b870 7a3f 89d0 7b3f cac0 7e3f fa12 823f
00000050: cfe9 843f fdf3 803f 979e 803f c720 7f3f
00000060: 70df 813f 6222 803f 5b07 7b3f c0ce 7e3f
00000070: 5339 793f 0e02 7f3f 1c03 743f 24ab 7c3f
00000080: afdf 7a3f 666b 813f b228 793f 4ca8 7d3f
00000090: b526 803f 9aef 873f b006 813f dc5a 823f
000000a0: c47f 7b3f 4521 793f 646a 803f 2245 7a3f
000000b0: c7de 803f 14f7 793f c080 803f 84a3 803f
000000c0: 7acf 7a3f ba11 7e3f 1b67 7c3f 0c7e 803f
000000d0: 71f1 7c3f 997c 773f 5310 7d3f 459c 833f
000000e0: 8d77 7a3f 726f 773f e239 7b3f 9dac 7c3f
000000f0: 90da 793f 1d1c 823f 6f08 783f f66d 7b3f

conv1_3/b f4 [64]
-1.8631787e-05 2.3713126e-05 -1.2898033e-05 -2.1892854e-05 4.3196054e-05 9.212806e-06 -0.00010545467 6.5764584e-06
4.291722e-05 2.56993e-05 1.4921966e-05 4.879884e-05 2.5498897e-05 6.164042e-05 -7.5995355e-05 -0.00012367363
-7.0947463e-06 0.00013127964 1.3883653e-05 4.0757634e-05 2.8128456e-05 9.369069e-05 -3.1211228e-05 4.107174e-06
2.035729e-05 2.3828361e-05 3.575582e-05 5.0246246e-05 -9.0967815e-06 1.03549555e-05 -3.1503478e-05 0.0001118007
-6.3136195e-06 -2.0013245e-05 -3.1525145e-05 -2.552242e-05 9.760004e-05 -8.155281e-06 -2.1198907e-06 -4.7948884e-06
-1.9231502e-05 0.00011232664 4.8402515e-05 -1.6158445e-05 -2.6101907e-05 -2.0060419e-05 -8.684619e-05 -2.7725462e-05
-0.00010213909 -3.110913e-05 -2.5203193e-05 -3.8923296e-05 2.9910225e-06 -4.0719755e-05 -3.460892e-05 3.233278e-05
7.126042e-05 -1.4114277e-05 -9.852114e-05 -1.3178251e-05 -2.5766032e-05 2.0563071e-05 -2.3031234e-05 7.614572e-05
00000000: 754b 9cb7 8deb c637 a164 58b7 8ca6 b7b7
00000010: 692d 3538 b390 1a37 8b27 ddb8 59ab dc36
00000020: 0402 3438 d494 d737 5b59 7a37 5bad 4c38
00000030: 77e6 d537 f344 8138 b25f 9fb8 63ae 01b9
00000040: 680f eeb6 1ca8 0939 d6ed 6837 2df3 2a38
00000050: 66f5 eb37 ce7b c438 cde8 02b8 5bd0 8936
00000060: f3c4 aa37 04e3 c737 85f8 1538 7fbf 5238
00000070: 619e 18b7 32ba 2d37 9a22 04b8 8b76 ea38
00000080: 94d9 d3b6 1ee2 a7b7 de39 04b8 fb18 d6b7
00000090: 9fae cc38 aad2 08b7 7243 0eb6 c7e3 a0b6
000000a0: 5653 a1b7 e890 eb38 ce03 4b38 ff8b 87b7
000000b0: 6bf5 dab7 6c47 a8b7 3121 b6b8 fa93 e8b7
000000c0: 8233 d6b8 2d7b 02b8 726b d3b7 9241 23b8
000000d0: 60b9 4836 81ca 2ab8 0b29 11b8 0f9d 0738
000000e0: a671 9538 5ccc 6cb7 229d ceb8 2818 5db7
000000f0: 2224 d8b7 dc7e ac37 3333 c1b7 6cb0 9f38

bn2/avg_var f4 [64]
0.4130287 0.7400979 0.44023633 0.6163117 0.6040911 0.41864142 0.48045123 0.41135547
0.43426263 0.42631525 0.5482017 0.48608175 0.45251203 0.4432606 0.27778554 0.6545389
0.58639467 0.3538102 0.39496148 1.0831655 0.34118488 0.36629224 0.371971 0.511892
0.4222448 0.37052792 0.6460883 0.762752 0.63766503 0.6522088 0.52662754 0.3608707
0.8204056 0.7686268 0.5592864 0.63996255 0.37245262 0.30359235 0.6210983 0.28552932
0.4242715 0.2761616 0.5637039 0.54149246 0.5388473 0.4321516 0.5040255 0.3783405
0.58704317 0.5403576 0.71539366 0.3745714 0.4112755 0.47787946 0.38125998 0.72340804
0.5063571 0.47459456 0.67292404 0.4001604 0.31029043 0.48452178 0.542235 0.49790537
00000000: 7f78 d33e 0e77 3d3f a866 e13e 9bc6 1d3f
00000010: b7a5 1a3f 2b58 d63e b4fd f53e 2f9d d23e
00000020: ac57 de3e fe45 da3e f256 0c3f b5df f83e
00000030: a8af e73e 0ef3 e23e e839 8e3e dd8f 273f
00000040: f61d 163f 9c26 b53e 6438 ca3e 2ba5 8a3f
00000050: c9af ae3e a88a bb3e fc72 be3e 5b0b 033f
00000060: 7830 d83e d6b5 bd3e 0b66 253f b743 433f
00000070: 043e 233f 28f7 263f 10d1 063f 0bc4 b83e
00000080: 1a06 523f bac4 443f 652d 0f3f 96d4 233f
00000090: 1cb2 be3e 7570 9b3e 4c00 1f3f e630 923e
000000a0: 1d3a d93e 0e65 8d3e e64e 103f 409f 0a3f
000000b0: e6f1 093f f942 dd3e d107 013f d9b5 c13e
000000c0: 7648 163f e054 0a3f 0a24 373f d3c7 bf3e
000000d0: b492 d23e 9eac f43e 8234 c33e 4531 393f
000000e0: 9ea0 013f 0ffe f23e c044 2c3f d3e1 cc3e
000000f0: 63de 9e3e 3d13 f83e eacf 0a3f 74ed fe3e

bn2/gamma f4 [64]
1.0274601 0.9680513 0.9715126 0.98429066 0.99592096 1.0218704 0.99449414 0.96674263
0.9800777 0.9866602 0.9783073 1.022727 0.98807615 0.99973553 1.0006958 0.99236387
0.9727074 0.9922405 0.9813377 0.9857659 1.0289742 0.9875175 1.0027349 1.0074822
1.0132185 1.0399755 0.97140783 1.0004021 1.0276914 0.9715923 0.9936305 0.99792236
0.9807951 0.996588 0.98885554 1.0221684 0.9927076 0.9908633 0.9734839 0.96880853
1.011217 0.99352866 0.9929673 0.99785143 1.0055059 1.0033559 1.0148005 1.0087707
0.99423885 1.020499 0.9933408 1.0179611 0.9692095 1.0341753 0.9949062 0.9783119
1.0044076 0.992548 0.97318333 1.0815635 0.990303 1.0076839 0.96463376 1.0244987
00000000: d083 833f 36d2 773f 0db5 783f 79fa 7b3f
00000010: adf4 7e3f a6cc 823f 2b97 7e3f 727c 773f
00000020: 5fe6 7a3f c395 7c3f 5972 7a3f b8e8 823f
00000030: 8ff2 7c3f abee 7f3f cd16 803f 8f0b 7e3f
00000040: 5a03 793f 7903 7e3f f338 7b3f 275b 7c3f
00000050: 6db5 833f f2cd 7c3f 9e59 803f 2df5 803f
00000060: 25b1 813f eb1d 853f 2fae 783f 2d0d 803f
00000070: 648b 833f 46ba 783f 925e 7e3f d777 7f3f
00000080: 6315 7b3f 6420 7f3f a325 7d3f 6ad6 823f
00000090: 1622 7e3f 38a9 7d3f 3e36 793f d603 783f
000000a0: 8f6f 813f e557 7e3f 1b33 7e3f 3173 7f3f
000000b0: 6bb4 803f f76d 803f fce4 813f 661f 813f
000000c0: 7086 7e3f b69f 823f 954b 7e3f 8d4c 823f
000000d0: 1d1e 783f db5f 843f 2cb2 7e3f a672 7a3f
000000e0: 6e90 803f a017 7e3f 8b22 793f ac70 8a3f
000000f0: 7f84 7d3f c9fb 803f 3df2 763f c622 833f

conv1_1/b f4 [64]
4.2863114e-05 3.2372638e-05 9.706225e-05 1.1858263e-05 -8.1178e-05 7.6468816e-05 -9.696336e-05 5.7030848e-06
-0.00033098765 -6.227638e-05 2.748821e-05 6.363543e-07 4.027599e-05 4.734417e-05 -0.000101801576 -2.5938012e-05
7.648928e-05 0.00012071799 -7.307083e-05 -8.2045386e-05 4.4705754e-05 1.648056e-05 -2.4240899e-05 0.00014161791
4.430305e-05 3.9715847e-05 1.8735267e-05 3.797049e-05 8.083288e-05 2.615162e-05 0.00011067964 -6.377364e-05
9.981682e-05 3.8979153e-05 -0.00014399126 -8.748414e-05 -0.00017233359 -1.5367012e-05 -4.128475e-05 7.365742e-05
1.5725733e-05 0.00017140775 -9.532229e-05 2.9400821e-06 -8.816214e-05 2.842879e-05 4.0382314e-05 6.3132784e-06
1.9692645e-05 -2.990033e-06 9.5521056e-05 2.686764e-05 2.4481718e-05 -8.025741e-05 -0.00031819503 1.7490143e-05
3.3161054e-05 4.1388106e-05 3.5794197e-05 4.771481e-05 4.024952e-05 -5.6180845e-05 -0.00017729767 4.705469e-06
00000000: ebc7 3338 dbc7 0738 e68d cb38 daf2 4637
00000010: 1b3e aab8 e25d a038 cf58 cbb8 205d bf36
00000020: 6988 adb9 609a 82b8 7b96 e637 efd1 2a35
00000030: 04ee 2838 6a93 4638 4e7e d5b8 7595 d9b7
00000040: df68 a038 fa29 fd38 9a3d 99b8 c80f acb8
00000050: 7082 3b38 bc3f 8a37 ef58 cbb7 457f 1439
00000060: 0ad2 3938 9194 2638 ae29 9d37 8142 1f38
00000070: d284 a938 2d60 db37 ae1c e838 36be 85b8
00000080: bf54 d138 8c7d 2338 5cfc 16b9 b177 b7b8
00000090: 72b4 34b9 68e8 80b7 2a29 2db8 8778 9a38
000000a0: c1ea 8337 ebbb 3339 c4e7 c7b8 3a4e 4536
000000b0: b0e3 b8b8 5d7a ee37 2e60 2938 a6d6 d336
000000c0: a231 a537 60a8 48b6 7a52 c838 d161 e137
000000d0: 175e cd37 de4f a8b8 6ad3 a6b9 ccb7 9237
000000e0: 6916 0b38 2498 2d38 ba21 1638 6321 4838
000000f0: 98d1 2838 b9a3 6bb8 fbe8 39b9 ace3 9d36

bn1/avg_var f4 [64]
0.12360536 0.36299682 0.15296748 0.3223405 0.38475093 0.24075635 0.3255686 0.35091758
0.12778313 0.24774368 0.4343241 0.39438564 0.3873405 0.18054618 0.18865213 0.40561694
0.11634139 0.5033404 0.35836253 0.21885006 0.26420635 0.2667106 0.27751458 0.14846154
0.25647345 0.20905223 0.19857128 0.3393971 0.23311678 0.52287513 0.10663451 0.32837638
0.109795965 0.32876724 0.22055641 0.26942688 0.23076697 0.13733655 0.3680666 0.34219187
0.25175053 0.09199203 0.11812009 0.20550755 0.10099733 0.17345212 0.504654 0.20515771
0.33368763 0.4351505 0.19298135 0.13228965 0.40811625 0.24874532 0.16519426 0.10501907
0.23279497 0.36009663 0.5392452 0.48290905 0.15746108 0.24420056 0.29166687 0.15199666
00000000: cf24 fd3d b8da b93e 82a3 1c3e d009 a53e
00000010: 13fe c43e d588 763e edb0 a63e 78ab b33e
00000020: 95d9 023e 85b0 7d3e ba5f de3e eaec c93e
00000030: 7e51 c63e 19e1 383e 062e 413e 06ad cf3e
00000040: 6544 ee3d ebda 003f 4b7b b73e 3b1a 603e
00000050: 0e46 873e 4b8e 883e 6416 8e3e 4d06 183e
00000060: 7d50 833e ca11 563e 4556 4b3e 75c5 ad3e
00000070: 2ab6 6e3e 25db 053f 3263 da3d f320 a83e
00000080: b5dc e03d 2e54 a83e 8ad9 613e 52f2 893e
00000090: 2d4e 6c3e f4a1 0c3e 3a73 bc3e c633 af3e
000000a0: 72e5 803e 5166 bc3d f2e8 f13d 9270 523e
000000b0: b0d7 ce3d 6f9d 313e 0131 013f dd14 523e
000000c0: 1bd9 aa3e 0ccc de3e e79c 453e f076 073e
000000d0: 9df4 d03e 18b7 7e3e af28 293e 3d14 d73d
000000e0: ce61 6e3e 965e b83e f90b 0a3f db3f f73e
000000f0: 7a3d 213e b60f 7a3e 5c55 953e 03a5 1b3e

bn2/beta f4 [64]
0.026837563 -0.017957356 -0.013391732 0.00043088157 0.008240884 0.023826508 0.011671125 -0.02066796
-0.003631237 -0.0010519029 0.012687444 0.027494306 -0.0071949284 0.044291664 0.007014262 0.003910802
-0.01674783 0.025707575 0.002601396 0.005762691 -0.00037331966 -0.0074201324 -0.019253058 0.030927043
0.03463888 0.04072684 -0.0065196357 0.005021517 0.043874897 -0.0154070025 0.020001002 0.018956643
-0.00074355927 0.013079491 -0.00043294483 -0.014891158 0.018252729 0.006642577 -0.028170194 0.0096633835
0.024098089 -0.0037593306 0.0023794011 0.01670451 -0.0008250635 0.011383073 0.017625874 0.015382959
0.010321204 0.03542205 -0.0043245363 0.013146642 -0.030758262 0.012026198 -0.0032695588 -0.0066909827
0.02903008 0.0010182244 -0.0049299262 -0.032874737 0.01064449 -0.009348397 -0.028408669 0.025752075
00000000: 73da db3c 4e1b 93bc ff68 5bbc f2e7 e139
00000010: c604 073c cf2f c33c 3f38 3f3c db4f a9bc
00000020: 0cfa 6dbb 01e0 89ba ffde 4f3c bd3b e13c
00000030: 6fc3 ebbb 2d6b 353d e5d7 e53b 2f26 803b
00000040: bf32 89bc b198 d23c 2f7c 2a3b f5d4 bc3b
00000050: 1eba c3b9 9524 f3bb 97b8 9dbc b65a fd3c
00000060: 80e1 0d3d 30d1 263d aba2 d5bb 8a8b a43b
00000070: 2ab6 333d a76d 7cbc 24d9 a33c f64a 9b3c
00000080: 6beb 42ba 5d4b 563c dffc e2b9 0bfa 73bc
00000090: bf86 953c f9a9 d93b 2ec5 e6bc 2b53 1e3c
000000a0: 5b69 c53c 1a5f 76bb baef 1b3b e6d7 883c
000000b0: 1349 58ba 1280 3a3c 2364 903c ce08 7c3c
000000c0: 441a 293c b616 113d d7b4 8dbb 0365 573c
000000d0: c0f8 fbbc 8809 453c 1846 56bb 0840 dbbb
000000e0: 7ed0 ed3c f175 853a 388b a1bb a9a7 06bd
000000f0: 3a66 2e3c 052a 19bc 4cb9 e8bc 04f6 d23c

bn4/gamma f4 [32]
1.0029833 1.131153 1.0184745 1.0578196 1.0515969 1.0978467 1.0979319 1.0865598
1.0371996 1.1043264 1.0864965 1.0480171 1.057092 1.0232443 1.0877205 1.0328883
1.1166868 1.0693839 1.1160301 1.0923222 1.0595056 1.0941039 1.0633965 1.0451449
1.0461646 1.0543852 1.1421788 1.0757389 1.1145468 1.0345596 1.1058908 1.051325
00000000: c261 803f 9fc9 903f 5f5d 823f a266 873f
00000010: ba9a 863f 3e86 8c3f 0889 8c3f 6414 8b3f
00000020: f5c2 843f 915a 8d3f 5112 8b3f 6d25 863f
00000030: ca4e 873f abf9 823f 6d3a 8b3f af35 843f
00000040: 98ef 8e3f 92e1 883f 13da 8e3f 37d1 8b3f
00000050: e19d 873f 990b 8c3f 601d 883f 4fc7 853f
00000060: b9e8 853f 18f6 863f ea32 923f d0b1 893f
00000070: 78a9 8e3f 736c 843f d48d 8d3f d191 863f

conv1_7/b f4 [2]
0.04265004 0.005611781
00000000: cfb1 2e3d 08e3 b73b

conv1_6/W f4 [32, 32, 3, 3]
-0.022652792 -0.010017541 0.047072887 -0.0024434458 -0.019988526 0.09659249 0.023291945 -0.0072616497
0.053272042 0.09966159 -0.07558285 0.08476559 -0.0013192566 -0.026819712 0.026283326 0.0022410022
0.0045812987 -0.00091553637 0.071314685 -0.017282711 0.06512458 0.019179538 0.10298501 0.014988036
-0.043163 0.012232686 -0.041915286 -0.049966216 0.010809806 0.0065955 -0.063032754 0.09085708
0.08438459 -0.010347801 0.030741846 0.089333974 -0.025229672 -0.048616983 -0.056182962 -0.08310961
0.0034046483 -0.072368674 -0.027821569 -0.01655958 -0.061124038 -0.1024743 -0.09094243 -0.008716946
-0.0073151854 -0.04378196 -0.07364909 0.00085890596 -0.04582219 -0.06216563 0.07541991 -0.008886297
-0.051664833 -0.061622016 -0.04616371 -0.060011644 -0.012798731 -0.053632744 -0.009106199 -0.046429783
0.11985563 0.02573856 -0.119224474 0.0033236672 -0.029971782 0.059528653 -0.09591836 0.047167253
-0.017748596 0.011858072 0.08761012 0.0023553213 -0.07210573 -0.0023636261 0.020435669 0.05612115
-0.073820256 0.06438758 -0.064684674 0.027570212 0.015422334 0.06146561 0.03730075 0.026018463
-0.12677471 -0.07783186 0.004175143 0.018234925 -0.046917237 -0.023158161 -0.027304718 -0.038562186
0.011438354 0.058640778 -0.03372113 -0.0046346947 -0.1059968 0.024522346 0.06293601 0.049885716
0.01748959 0.02189306 0.09550792 -0.018431608 -0.012444943 0.0696889 -0.03324075 0.13502832
-0.0061399383 0.045573555 0.06369044 0.001825993 0.0146337785 -0.1326859 0.054804303 0.02829976
-0.057076007 -0.091698214 -0.082990296 0.06009237 0.010709691 -0.088354774 -0.010842392 -0.036370024
-0.037704673 -0.0073553594 0.07099667 -0.0120574245 -0.03736696 0.021842986 -0.027465688 -0.015008609
-0.03343328 -0.044367366 -0.10296417 -0.067015976 0.13310634 -0.032388166 0.004715379 -0.06471021
0.07730908 -0.023380212 -0.052947406 0.022759244 0.038859583 -0.085972704 -0.11256938 -0.093691826
0.062145304 0.046825316 -0.106058754 0.054906353 0.045629945 -0.118085906 0.08832812 0.02446032
0.012108103 0.053574257 -0.058387823 -0.0069949934 0.039809883 0.08489999 -0.060004663 0.03253777
-0.022354504 -0.05351815 0.029170038 0.02938763 0.103294194 0.008847489 0.055426646 -0.0326199
-0.020161228 0.047199182 0.0845222 -0.020405233 -0.06314916 0.03250128 -0.047530662 0.04871677
-0.03692606 -0.018902246 0.048790615 -0.027633278 -0.030127574 -0.01299256 -0.04590438 -0.02171267
-0.014166373 -0.08507771 -0.06008374 -0.0784865 0.11368038 0.08124349 0.05905871 0.022083867
-0.026163287 0.030539295 0.036256634 -0.016756162 -0.06288031 0.024047155 -0.027436312 0.057963762
-0.03606308 -0.14449643 0.048310407 0.012825432 0.064097404 0.060501024 0.007523815 -0.09163833
-0.080602415 -0.068188585 -0.09595956 0.035978507 0.03640125 0.048780687 -0.021072641 -0.091870196
0.09886308 -0.037439175 0.08471097 0.0093486495 0.016494138 0.020634497 -0.058646683 0.045878332
0.012871208 0.07017333 -0.0063793417 0.01783007 0.107318126 0.044881817 -0.00052027655 -0.051796935
0.051968753 0.026962554 0.037787933 0.033355515 -0.11135055 0.10425698 0.02839593 -0.07738237
-0.06440032 0.060753554 0.056112614 0.01706536 0.004069488 0.051991012 0.020882616 -0.12301988
00000000: 5992 b9bc 9d20 24bc 80cf 403d 3822 20bb
00000010: fabe a3bc 49d2 c53d c0ce be3c 22f3 edbb
00000020: c933 5a3d 601b cc3d 2ecb 9abd 9599 ad3d
00000030: e8ea acba 03b5 dbbc 2150 d73c c7dd 123b
00000040: b81e 963b 9b00 70ba 6f0d 923d 7994 8dbc
00000050: 0960 853d 681e 9d3c cee9 d23d 6190 753c
00000060: b0cb 30bd 9b6b 483c 5daf 2bbd 60a9 4cbd
00000070: 9d1b 313c 101f d83b 5117 81bd 4713 ba3d
00000080: d4d1 ac3d d389 29bc 53d6 fb3c bbf4 b63d
00000090: 75ae cebc 9a22 47bd 1b20 66bd 5f35 aabd
000000a0: 8520 5f3b 0736 94bd 0fea e3bc f5a7 87bc
000000b0: 335d 7abd 0cde d1bd 0640 babd 85d1 0ebc
000000c0: 39b4 efbb b654 33bd 56d5 96bd 3428 613a
000000d0: 0cb0 3bbd 63a1 7ebd c175 9a3d d597 11bc
000000e0: 819e 53bd 5e67 7cbd 2916 3dbd c5ce 75bd
000000f0: c5b1 51bc 02ae 5bbd 2b32 15bc 282d 3ebd
00000100: de76 f53d acd9 d23c f62b f4bd e2d1 593b
00000110: 6287 f5bc 51d4 733d d870 c4bd 7332 413d
00000120: 8165 91bc 5c48 423c ef6c b33d bc5b 1a3b
00000130: 2bac 93bd 11e7 1abb b468 a73c 4adf 653d
00000140: 132f 97bd a3dd 833d 6679 84bd edda e13c
00000150: f5ad 7c3c 5dc3 7b3d acc8 183d ac24 d53c
00000160: 3bd1 01be 4f66 9fbd a3cf 883b 6961 953c
00000170: 4a2c 40bd 2fb6 bdbc 25ae dfbc 62f3 1dbd
00000180: ef67 3b3c 5031 703d 2b1f 0abd a3de 97bb
00000190: da14 d9bd 16e3 c83c 98e4 803d f754 4c3d
000001a0: 5446 8f3c 1359 b33c a899 c33d e2fd 96bc
000001b0: e0e5 4bbc 0eb9 8e3d 7427 08bd dd44 0a3e
000001c0: 8931 c9bb 56ab 3a3d 2270 823d 2856 ef3a
000001d0: 84c2 6f3c d0de 07be 7a7a 603d e6d4 e73c
000001e0: 88c8 69bd 46cc bbbd d1f6 a9bd 6b23 763d
000001f0: b377 2f3c 59f3 b4bd 4aa4 31bc bcf8 14bd
00000200: 3770 1abd 3a05 f1bb b466 913d 818c 45bc
00000210: 190e 19bd 10f0 b23c b9ff e0bc abe6 75bc
00000220: 56f1 08bd 8eba 35bd e1de d2bd ac3f 89bd
00000230: 074d 083e 74a9 04bd 7783 9a3b c986 84bd
00000240: 3954 9e3d dc87 bfbc 61df 58bd 9871 ba3c
00000250: 3a2b 1f3d 7512 b0bd c68a e6bd 80e1 bfbd
00000260: 138c 7e3d e7cb 3f3d 5535 d9bd 7ce5 603d
00000270: 77e6 3a3d 06d7 f1bd 60e5 b43d 0261 c83c
00000280: 1161 463c ae70 5b3d 1228 6fbd 4236 e5bb
00000290: b00f 233d 0ce0 ad3d 73c7 75bd 5346 053d
000002a0: cb20 b7bc d935 5bbd 01f6 ee3c 54be f03c
000002b0: e88b d33d 0ff5 103c 0d07 633d 729c 05bd
000002c0: 2929 a5bc ee53 413d fa19 ad3d e028 a7bc
000002d0: 5954 81bd 1020 053d 83af 42bd 3c8b 473d
000002e0: c83f 17bd e2d8 9abc abd8 473d 2f5f e2bc
000002f0: 1ace f6bc bfde 54bc 3b06 3cbd c5de b1bc
00000300: 131a 68bc 393d aebd 5e1a 76bd 88bd a0bd
00000310: 42d1 e83d fd62 a63d 8ce7 713d 3ae9 b43c
00000320: 6454 d6bc 8b2d fa3c d681 143d 3844 89bc
00000330: 64c7 80bd 8afe c43c 1ec2 e0bc 696b 6d3d
00000340: e1b6 13bd dff6 13be 22e1 453d c321 523c
00000350: 8045 833d eccf 773d 568a f63b e0ac bbbd
00000360: e112 a5bd 75a6 8bbd 7286 c4bd 335e 133d
00000370: 7a19 153d 42ce 473d 88a0 acbc 7126 bcbd
00000380: ba78 ca3d d259 19bd f27c ad3d 142b 193c
00000390: b71e 873c ad09 a93c 8137 70bd ebea 3b3d
000003a0: c2e1 523c 09b7 8f3d cc09 d1bb 5e10 923c
000003b0: 9bc9 db3d ffd5 373d 2b63 08ba 0629 54bd
000003c0: 30dd 543d 93e0 dc3c 85c7 1a3d cb9f 083d
000003d0: c20b e4bd af84 d53d 959e e83c a67a 9ebd
000003e0: 51e4 83bd b8d8 783d 57d6 653d a7cc 8b3c
000003f0: 5759 853b 87f4 543d 0512 ab3c d9f1 fbbd

conv1_4/W f4 [32, 64, 3, 3]
0.0057060453 -0.06170069 -0.06511094 0.035364542 0.06530345 -0.0019908526 0.006338719 -0.019479532
0.002825962 -0.041473076 -0.09349874 -0.07075608 -0.0009859927 0.07648664 0.011817413 -0.013718858
0.07797694 0.088733315 0.07525549 -0.025873784 -0.009813062 0.07194872 0.0076131136 0.06378641
-0.03187664 -0.022823462 0.090444356 0.010799545 -0.09732398 -0.04852989 0.013421727 -0.06076008
-0.037059166 -0.010448651 -0.013453201 -0.035165142 -0.017846484 0.033924393 0.0017534648 -0.01743056
-0.011681575 -0.005997244 0.021090794 -0.010233311 0.06545438 -0.059461974 -0.06644866 0.0043159644
0.0010334522 -0.0632878 0.051127475 0.013435828 0.0053286604 -0.029447597 0.0111564845 0.048946593
0.049529716 -0.09582147 -0.007321079 0.05126927 -0.024366787 0.003774812 -0.019819058 0.046101253
-0.0065961475 0.0002846078 0.07740909 0.026654178 -0.011936842 0.07328442 -0.046177946 -0.035407398
0.010450597 -0.05067401 -0.008832926 0.009354718 -0.030452194 -0.08801169 -0.043281008 0.008063569
0.05363782 0.04961781 0.01953029 0.027051402 -0.0041173273 0.029122615 -0.10385015 0.010297154
-0.09655138 -0.05500357 -0.038388792 -0.049696762 0.016417349 0.037673786 -0.05652507 -0.041194677
-0.028553918 0.0021492962 -0.0016610939 0.08436145 0.0064381696 -0.046143845 0.009906689 -0.071336724
0.014030764 -0.020611595 0.01356697 0.004030012 0.043761764 0.061889134 0.03871205 -0.029580954
-0.0150054125 0.0021210979 0.08136398 0.059900973 -0.019791335 0.03509952 0.063628204 -0.0062561613
0.05963103 -0.06677872 -0.005450201 0.07007399 0.0037072045 -0.034065068 0.0024988912 -0.05882622
0.037188113 0.10376194 0.018650046 0.0011135801 -0.0677161 -0.0705093 0.07156407 -0.08486517
0.049827345 -0.015021127 -0.00082570687 0.004627012 -0.0037335404 -0.07228829 -0.0027989715 -0.025188692
-0.0013489135 -0.00028797355 -0.046799302 0.025461363 0.0101972055 0.042812075 -0.04966416 -0.05160742
-0.049316738 -0.07196365 -0.061444703 0.018399812 0.007726787 -0.02225359 -0.15923509 0.0020553975
0.07017557 0.0003307141 0.0021393565 0.03138646 -0.011304005 0.055026323 -0.010600721 -6.262233e-06
-0.022738623 0.031934716 0.050117377 -0.031670388 0.07285421 0.0064874813 0.049039476 0.06297189
0.030758832 -0.029138371 -0.07004521 0.022371298 -0.055256583 -0.0053725005 -0.020179518 -0.029590987
0.018040841 -0.06573991 0.0019218539 -0.009732204 0.002495346 0.073063485 0.0023928848 0.0031927803
-0.016590497 -0.0043429853 0.020806216 -0.016202882 -0.021582779 -0.0072661447 0.029535184 0.019069098
-0.022182269 0.015212296 0.037232686 0.027547045 -0.077876836 0.040511087 0.1262562 0.040256243
-0.015656473 -0.02101538 -0.03339861 -0.03438269 -0.01576599 -0.0394815 -0.013450057 -0.0595909
-0.035072163 0.023572043 -0.017410254 -0.043130506 0.040075593 0.053415533 0.008007404 0.041023508
0.012106181 0.0032570933 -0.036958598 -0.016369022 -0.045518324 -0.037323985 -0.05805166 0.02439577
-0.018684104 0.0013007218 -0.08553217 -0.050402336 -0.04039609 -0.0060898936 0.024940558 -0.0019326275
-0.014291044 0.0112966485 -0.009451447 0.022569649 0.04368906 0.049666725 0.09390796 0.01215067
-0.0050062384 -0.00071671966 0.08560817 0.036023956 -0.029278863 0.02282237 0.005242283 0.004827579
00000000: c7f9 ba3b ddb9 7cbd e258 85bd 69da 103d
00000010: d1bd 853d f778 02bb 07b5 cf3b 8a93 9fbc
00000020: c633 393b acdf 29bd 447c bfbd 90e8 90bd
00000030: 6d3c 81ba 07a5 9c3d d39d 413c 10c5 60bc
00000040: 60b2 9f3d d0b9 b53d 8d1f 9a3d 42f5 d3bc
00000050: f7c6 20bc da59 933d 6d77 f93b 73a2 823d
00000060: 1491 02bd 45f8 babc e43a b93d 93f0 303c
00000070: cb51 c7bd 47c7 46bd cee6 5b3c 90df 78bd
00000080: 5acb 17bd d230 2bbc d16a 5cbc 5309 10bd
00000090: ca32 92bc 4ef4 0a3d 84d4 e53a 89ca 8ebc
000000a0: 1464 3fbc 8784 c4bb 9ac6 ac3c 9ea9 27bc
000000b0: f20c 863d 668e 73bd 3c16 88bd ef6c 8d3b
000000c0: e774 873a 099d 81bd 0b6b 513d f221 5c3c
000000d0: 0b9c ae3b 163c f1bc b0c9 363c 397c 483d
000000e0: acdf 4a3d 0c3e c4bd a9e5 efbb baff 513d
000000f0: db9c c7bc d662 773b 945b a2bc abd4 3c3d
00000100: 7f24 d8bb 6a37 9539 a888 9e3d dd59 da3c
00000110: bf92 43bc 2416 963d 1625 3dbd 5907 11bd
00000120: fb38 2b3c 8d8f 4fbd fab7 10bc 8844 193c
00000130: e176 f9bc 793f b4bd 6d47 31bd 0f1d 043c
00000140: 55b3 5b3d 0b3c 4b3d fdfd 9f3c e79a dd3c
00000150: a5ea 86bb 8d92 ee3c 63af d4bd 65b5 283c
00000160: bbbc c5bd 6c4b 61bd 913d 1dbd d58e 4bbd
00000170: ad7d 863c d44f 1a3d d586 67bd c0bb 28bd
00000180: e8e9 e9bc 35db 0c3b 10b9 d9ba b2c5 ac3d
00000190: 48f7 d23b 5401 3dbd aa4f 223c fd18 92bd
000001a0: 4ae1 653c a6d9 a8bc ff47 5e3c 310e 843b
000001b0: 893f 333d 767f 7d3d 8790 1e3d c253 f2bc
000001c0: 43d9 75bc 1e02 0b3b 29a2 a63d b95a 753d
000001d0: 7021 a2bc 84c4 0f3d 814f 823d 7c00 cdbb
000001e0: ab3f 743d 48c3 88bd 9a97 b2bb f482 8f3d
000001f0: 92f4 723b d087 0bbd 70c4 233b c3f3 70bd
00000200: 9052 183d 2481 d43d fbc7 983c 8cf5 913a
00000210: bdae 8abd 2e67 90bd 2f90 923d cacd adbd
00000220: c217 4c3d 2c1b 76bc 4074 58ba 319e 973b
00000230: 6aae 74bb e20b 94bd f36e 37bb 8458 cebc
00000240: 07ce b0ba 28fb 96b9 a0b0 3fbd 5994 d03c
00000250: 2e12 273c b75b 2f3d a56c 4bbd 4d62 53bd
00000260: 5900 4abd ae61 93bd 71ad 7bbd 34bb 963c
00000270: fd30 fd3b 294d b6bc 860e 23be d9b3 063b
00000280: 36b8 8f3d b263 ad39 7234 0c3b 178f 003d
00000290: 6f34 39bc 4863 613d a6ae 2dbc 2c20 d2b6
000002a0: 5946 babc facd 023d e147 4d3d cfb8 01bd
000002b0: 9734 953d f094 d43b 9edd 483d 68f7 803d
000002c0: f2f9 fb3c 98b3 eebc dd73 8fbd 0344 b73c
000002d0: ba54 62bd cd0b b0bb 844f a5bc cc68 f2bc
000002e0: 63ca 933c a5a2 86bd b7e6 fb3a d273 1fbc
000002f0: f588 233b 4fa2 953d f2d1 1c3b f73d 513b
00000300: cbe8 87bc 9a4f 8ebb cc71 aa3c e8bb 84bc
00000310: 5ece b0bc d718 eebb c5f3 f13c cc36 9c3c
00000320: 97b7 b5bc fe3c 793c 4d81 183d 57aa e13c
00000330: e47d 9fbd f4ee 253d 4e49 013e bbe3 243d
00000340: 0142 80bc 7228 acbc fbcc 08bd ddd4 0cbd
00000350: ad27 81bc 5ab7 21bd a15d 5cbc 9615 74bd
00000360: d4a7 0fbd 281a c13c f39f 8ebc 9da9 30bd
00000370: 4e26 243d 3fca 5a3d 7d31 033c 4408 283d
00000380: 0159 463c f574 553b e661 17bd 5418 86bc
00000390: 6c71 3abd 09e1 18bd 94c7 6dbd a3d9 c73c
000003a0: 680f 99bc fb7c aa3a 7e2b afbd ae72 4ebd
000003b0: 5f76 25bd bb8d c7bb 2450 cc3c 3850 fdba
000003c0: fc24 6abc 9415 393c 3eda 1abc fce3 b83c
000003d0: 4df3 323d 566f 4b3d d152 c03d 9b13 473c
000003e0: 5f0b a4bb 3ee2 3bba 5653 af3d db8d 133d
000003f0: 3ada efbc fbf5 ba3c 75c7 ab3b ab30 9e3b

bn1/avg_mean f4 [64]
0.0036053422 -0.049203448 0.06764403 -0.07280406 0.044467542 0.061671223 -0.017304804 -0.021370817
0.09118007 0.061472617 -0.10494973 -0.05672655 -0.07893359 -0.04107276 -0.09712173 -0.03158844
-0.03122603 0.09843007 0.019711532 -0.14395547 -0.010185642 -0.08043413 0.0827293 -0.1197018
0.021227054 -0.12431483 -0.06442374 0.01754803 -0.05453014 -0.020125592 -0.059205987 -0.07552547
0.06580357 0.071692295 -0.07712088 -0.10457325 0.03919678 -0.016550854 0.02190288 0.026766049
0.05403491 -0.07129213 -0.11610989 -0.07279825 0.058660585 -0.0848545 -0.057337508 -0.09126689
0.04643259 0.020711174 0.046249468 -0.09806565 -0.02792094 0.07684714 -0.14140292 -0.058378328
0.02251083 -0.071616 -0.023451746 0.037740737 -0.060441546 -0.12996817 0.06953989 -0.031357206
00000000: 9b47 6c3b 8e89 49bd f488 8a3d 4c1a 95bd
00000010: 9923 363d f79a 7c3d cec2 8dbc da11 afbc
00000020: 9ebc ba3d b6ca 7b3d e2ef d6bd 195a 68bd
00000030: efa7 a1bd e93b 28bd c2e7 c6bd e162 01bd
00000040: bbcd ffbc b495 c93d 147a a13c 1069 13be
00000050: aee1 26bc a6ba a4bd fb6d a93d 3826 f5bd
00000060: 5ce4 ad3c c698 febd 98f0 83bd e3c0 8f3c
00000070: ff5a 5fbd 6dde a4bc fa81 72bd 19ad 9abd
00000080: 06c4 863d 69d3 923d 8df1 9dbd 802a d6bd
00000090: ce8c 203d a895 87bc ab6d b33c 7944 db3c
000000a0: b653 5d3d 9c01 92bd 06cb edbd 4017 95bd
000000b0: 1546 703d 32c8 adbd bcda 6abd 23ea babd
000000c0: 1930 3e3d 7baa a93c 1570 3d3d a5d6 c8bd
000000d0: 75ba e4bc 0962 9d3d edcb 10be 1d1e 6fbd
000000e0: a268 b83c 69ab 92bd e01d c0bc 0896 1a3d
000000f0: 8e91 77bd 6016 05be ee6a 8e3d 6a70 00bd

bn4/beta f4 [32]
-0.009496301 0.13943186 0.022716867 0.05050353 0.023621496 0.10318591 0.11410764 0.08614508
0.014865835 0.119842 0.11264597 0.06772414 0.037417606 0.032302823 0.09636811 0.04842094
0.12031481 0.050824493 0.105722286 0.09081469 0.07731542 0.10691567 0.01938107 0.033554953
0.057441697 0.05679514 0.0424849 0.1054626 0.14068867 0.010509977 0.08764865 0.116332695
00000000: 6096 1bbc 3ac7 0e3e b918 ba3c cadc 4e3d
00000010: de81 c13c 2253 d33d 44b1 e93d d56c b03d
00000020: d58f 733c b96f f53d eeb2 e63d f4b2 8a3d
00000030: 3443 193d f74f 043d a55c c53d 0955 463d
00000040: 9c67 f63d 582d 503d ed84 d83d 0dfd b93d
00000050: 8c57 9e3d 9af6 da3d 0dc5 9e3c eb70 093d
00000060: fc47 6b3d 05a2 683d a604 2e3d c7fc d73d
00000070: b110 103e 0a32 2c3c 2381 b33d d63f ee3d

conv1_2/W f4 [64, 64, 3, 3]
-0.049821373 0.07751229 0.021989226 0.046808135 -0.02588239 -0.05991817 0.00658686 -0.001626516
-0.09136992 0.06080393 -0.0026764001 0.071474224 -0.02334015 0.02655414 0.052866597 -0.05051863
-0.05092361 -0.03780544 -0.009639092 -0.053793445 0.07334533 -0.01687443 0.03874736 0.03355611
-0.053743638 0.035410002 -0.08741656 -0.043748744 0.07570702 -0.02846508 -0.016375132 -0.08584301
-0.050839167 0.025258813 0.013963436 -0.012701436 -0.027317189 0.011397274 -0.040632572 -0.009183051
-0.04321275 -0.00903433 0.033690885 -0.0021747237 0.044823967 -0.023824938 -0.037280075 -0.05114771
-0.0044045295 0.0025130706 0.018440813 0.09708286 -0.018238278 0.044819873 0.0071660383 0.0671517
0.00924368 -0.01914463 -0.00602155 -0.08771031 0.07227835 0.05046379 0.0049075955 -0.048120108
-0.035687007 0.016436502 -0.04006676 -0.019763945 0.048887864 -0.08955399 0.0007706544 -0.055689733
-0.024740856 0.029862253 0.053962875 0.0121089 -0.050704397 -0.032206025 0.012490767 -0.022598656
-0.06318415 -0.057152703 -0.0032299892 0.008675565 0.060437933 -0.09603615 0.011371596 0.011583261
-0.061901152 0.08788405 -0.018670024 -0.017510956 -0.030506257 -0.036295634 0.03441545 0.07027153
-0.026548354 0.022373619 -0.012596232 0.03367572 0.035494763 -0.02865168 0.0025521533 -0.07518224
0.031597372 0.046310026 0.007763564 -0.051106796 -0.06661029 -0.06896712 -0.033742063 -0.004040908
0.014850593 -0.070706636 0.079060555 -0.009638785 0.040559176 -0.06472063 -0.014601629 -0.020233553
-0.060839888 -0.022352688 -0.00784449 -0.07369596 -0.03543124 -0.044918366 -0.02005074 0.007935923
-0.06830463 0.02228201 -0.028330099 0.07308089 -0.002189218 -0.045383748 0.11640512 -0.03278375
-0.05195882 -0.038225975 -0.020084593 -0.036898308 -0.01163922 -0.0638649 -0.027242238 -0.106436126
-0.008984772 -0.038310144 -0.008633596 -0.039641112 -0.03461571 -0.11320225 0.0081988545 0.013419266
-0.08190432 -0.06937379 0.009140876 -0.036497965 0.044304673 -0.039056953 0.10389134 -0.03498123
-0.07291841 -0.03170596 -0.01756293 -0.06878951 -0.013894464 -0.015882533 -0.034137752 -0.06647019
0.025905088 -0.015302763 -0.082540266 -0.091278926 -0.086539604 -0.051022787 -0.021465508 0.01199305
-0.022576896 -0.06296647 -0.015127969 -0.032555293 -0.028997079 -0.058003966 -0.01922395 0.010830756
-0.12794706 -0.037404433 0.020697309 -0.014675515 0.0033854297 0.06569499 -0.035548314 -0.00965241
0.052858546 -0.04376261 0.044704366 0.010743336 0.003202314 0.052467953 -0.08065422 0.029149178
0.043193117 -0.087075695 -0.026595946 -0.030258894 0.06616664 0.047578476 -0.060709186 0.04860299
-0.019641336 0.06252496 0.0046623377 -0.004678449 -0.09931032 -0.02264223 0.011373266 0.04076768
-0.0062242164 -0.02170606 0.02322946 0.017022854 0.011801925 0.03916845 -0.07008591 -0.06291496
0.03122683 -0.02664476 0.032333583 0.079389796 -0.030106988 0.046082646 -0.017756723 -0.08268561
0.009119507 0.046057597 -0.013637751 0.03451559 -0.00028873672 -0.02831238 0.028759984 -0.099629626
-0.04015298 0.021147868 0.0023572086 -0.010057569 0.04281599 -0.018666273 0.030923903 -0.040144965
0.034810618 0.01549816 0.03735844 0.019573675 -0.033548784 0.0378779 -0.06329471 -0.010215279
00000000: 7f11 4cbd c3be 9e3d c022 b43c e3b9 3f3d
00000010: 4e07 d4bc c16c 75bd 96d6 d73b d230 d5ba
00000020: 2720 bbbd 8b0d 793d 8b66 2fbb 1461 923d
00000030: d833 bfbc 1188 d93c a58a 583d 9fec 4ebd
00000040: 4695 50bd e1d9 1abd 48ed 1dbc 8456 5cbd
00000050: 1436 963d 3f3c 8abc 8db5 1e3d 2272 093d
00000060: 4a22 5cbd 140a 113d 7407 b3bd e231 33bd
00000070: 480c 9b3d 992f e9bc 2425 86bc 76ce afbd
00000080: bb3c 50bd 92eb ce3c e5c6 643c af19 50bc
00000090: 4cc8 dfbc a2bb 3a3c 576e 26bd 8274 16bc
000000a0: daff 30bd ba04 14bc 74ff 093d cf85 0ebb
000000b0: 5699 373d 842c c3bc feb2 18bd 4380 51bd
000000c0: df53 90bb 54b2 243b 3011 973c 61d3 c63d
000000d0: 7168 95bc 0b95 373d 16d1 ea3b d586 893d
000000e0: ce72 173c 33d5 9cbc 6c50 c5bb 77a1 b3bd
000000f0: ac06 943d 1eb3 4e3d e5cf a03b 9719 45bd
00000100: 8a2c 12bd d8a5 863c 0b1d 24bd ffe7 a1bc
00000110: a43e 483d 1568 b7bd be05 4a3a eb1a 64bd
00000120: 56ad cabc afa1 f43c 2d08 5d3d 6864 463c
00000130: 6aaf 4fbd 77ea 03bd 13a6 4c3c d120 b9bc
00000140: b166 81bd f418 6abd 3aae 53bb f523 0e3c
00000150: c48d 773d 9aae c4bd ee4f 3a3c b8c7 3d3c
00000160: 108c 7dbd 8efc b33d e1f1 98bc 2373 8fbc
00000170: 42e8 f9bc bbaa 14bd 37f7 0c3d 85ea 8f3d
00000180: ef7b d9bc e148 b73c 6d60 4ebc 8def 093d
00000190: f562 113d eeb6 eabc 0742 273b 25f9 99bd
000001a0: 3f6c 013d 95af 3d3d 7f65 fe3b 5c55 51bd
000001b0: fa6a 88bd a23e 8dbd 1e35 0abd 9869 84bb
000001c0: e74f 733c a4ce 90bd 80ea a13d ffeb 1dbc
000001d0: 6121 263d 408c 84bd ac3b 6fbc d6c0 a5bc
000001e0: 3f33 79bd fc1c b7bc 2d86 00bc e8ed 96bd
000001f0: 5920 11bd 52fc 37bd 7341 a4bc ac05 023c
00000200: 4ce3 8bbd c388 b63c 8614 e8bc 6fab 953d
00000210: fc78 0fbb 4fe4 39bd cf65 ee3d 4148 06bd
00000220: c6d2 54bd d792 1cbd 7288 a4bc ae22 17bd
00000230: 6db2 3ebc 9acb 82bd 1d2b dfbc 2ffb d9bd
00000240: dd34 13bc 19eb 1cbd ed73 0dbc b85e 22bd
00000250: 34c9 0dbd 95d6 e7bd 7d54 063c 7bdc 5b3c
00000260: 74bd a7bd d813 8ebd 9dc3 153c e47e 15bd
00000270: d178 353d 2ffa 1fbd fcc4 d43d 7a48 0fbd
00000280: 3f56 95bd 1cde 01bd 22e0 8fbc 84e1 8cbd
00000290: 9ba5 63bc 161c 82bc 07d4 0bbd 8621 88bd
000002a0: e836 d43c 71b8 7abc df0a a9bd 72f0 babd
000002b0: ad3b b1bd 45fd 50bd 6fd8 afbc 7f7e 443c
000002c0: 2ff3 b8bc 91f4 80bd 4ddb 77bc b358 05bd
000002d0: 488b edbc 9195 6dbd 8c7b 9dbc 7c73 313c
000002e0: 8e04 03be 6435 19bd 678d a93c 9271 70bc
000002f0: 16de 5d3b 188b 863d 1c9b 11bd 2425 1ebc
00000300: 3482 583d 6c40 33bd ed1b 373d d104 303c
00000310: eadd 513b a3e8 563d 0a2e a5bd 42ca ee3c
00000320: 44eb 303d be54 b2bd bedf d9bc 80e1 f7bc
00000330: 6082 873d a6e1 423d 32aa 78bd ee13 473d
00000340: dee6 a0bc 160d 803d 86c6 983b ad4d 99bb
00000350: 3663 cbbd 337c b9bc ef56 3a3c 03fc 263d
00000360: 83f4 cbbb e8d0 b1bc b54b be3c 8373 8b3c
00000370: dc5c 413c 196f 203d 3489 8fbd 8fd9 80bd
00000380: 69cf ff3c 1d46 dabc 3870 043d 1e97 a23d
00000390: eea2 f6bc 28c1 3c3d 8c76 91bc 1357 a9bd
000003a0: fc69 153c e4a6 3c3d e070 5fbc 3860 0d3d
000003b0: 9661 97b9 5def e7bc 0f9a eb3c 9e0a ccbd
000003c0: 7377 24bd 4b3e ad3c 667b 1a3b 80c8 24bc
000003d0: d25f 2f3d 03ea 98bc 2054 fd3c 0c6f 24bd
000003e0: 9495 0e3d ffeb 7d3c 2a05 193d f958 a03c
000003f0: 736a 09bd db25 1b3d a8a0 81bd fc5d 27bc

bn3/gamma f4 [64]
1.0337311 1.0241276 1.0001613 1.0075886 1.0016692 1.0281947 1.0410684 1.0292383
0.9962268 0.9945952 1.0448031 1.0560526 0.9825295 1.0387576 0.9938428 1.017803
1.0209589 0.9984496 1.0014415 0.9985794 0.9886129 1.093202 1.0268986 0.9940808
1.0122949 1.0228342 0.9940823 1.0007325 1.0129883 1.026956 1.0105127 1.067845
0.98806787 0.9947493 0.9998497 0.98728657 0.9752907 0.9886161 0.9654971 1.0485135
0.98008937 0.9815968 1.0031505 1.0210015 1.0065856 1.0161477 1.0005372 0.99650776
0.99595666 1.0188221 1.0170465 1.0206732 1.0453951 1.0804167 1.0230013 1.0001302
1.0042143 1.0053351 0.97913975 1.053716 1.0329771 0.9977788 1.0043614 1.0047297
00000000: 4d51 843f 9d16 833f 4905 803f aaf8 803f
00000010: b236 803f e29b 833f bb41 853f 15be 833f
00000020: b808 7f3f cb9d 7e3f 1cbc 853f bb2c 873f
00000030: 0e87 7b3f 02f6 843f 7b6c 7e3f 5e47 823f
00000040: c8ae 823f 659a 7f3f 3c2f 803f e6a2 7f3f
00000050: bc15 7d3f 0bee 8b3f 6a71 833f 147c 7e3f
00000060: e192 813f 3bec 823f 2d7c 7e3f 0118 803f
00000070: 9aa9 813f 4b73 833f 7b58 813f 25af 883f
00000080: 04f2 7c3f e4a7 7e3f 26f6 7f3f d0be 7c3f
00000090: a7ac 793f f215 7d3f d12a 773f b135 863f
000000a0: 23e7 7a3f ee49 7b3f 3c67 803f 2db0 823f
000000b0: ccd7 803f 2111 823f 9a11 803f 221b 7f3f
000000c0: 04f7 7e3f c368 823f 942e 823f 6ba5 823f
000000d0: 82cf 853f 184b 8a3f b5f1 823f 4404 803f
000000e0: 188a 803f d2ae 803f e7a8 7a3f 2ae0 863f
000000f0: 9838 843f 6e6e 7f3f ea8e 803f fc9a 803f

conv1_7/W f4 [2, 32, 3, 3]
0.084517956 0.024556078 0.06737041 -0.18343794 -0.049347714 -0.019651152 0.04332805 -0.015475518
-0.035373088 -0.032772474 -0.055037063 -0.073152825 0.14923452 0.11388189 -0.008594741 0.0320188
-0.021035789 0.14434782 -0.007762483 0.0307605 -0.044167284 0.019774772 0.08195328 -0.030446462
0.01618889 0.09780059 0.18959802 0.042330556 0.09166403 -0.02138364 0.06356126 0.01699716
0.07771265 0.174779 0.14687677 0.10552633 -0.081888534 -0.03536805 -0.073504694 0.062422533
0.04423581 -0.054548036 0.049617838 0.055403486 0.117702916 0.13921037 -0.04747163 -0.042705566
0.04713506 0.27419132 0.083366536 0.08793754 0.11732036 -0.035864096 0.0197669 0.082894556
-0.080970936 -0.005338266 0.051178716 0.06836461 0.12325588 0.0901777 0.030814432 0.039725035
-0.05004312 0.097709775 -0.033826075 0.0727499 0.055430457 -0.029594276 0.0501023 -0.02128175
0.04680021 0.023402143 -0.040138416 0.0394476 -0.045402292 -0.061139088 0.029930554 -0.142044
0.12783715 -0.102647096 0.083399646 0.17844649 0.15266258 0.05135337 -0.041797657 0.188047
-0.11813572 0.1667579 0.080860704 0.093032226 0.019544361 0.1866955 0.090083495 0.05755771
-0.07155362 0.021627573 0.06504875 0.03527728 0.09050813 0.013952981 0.08333955 -0.07416997
0.041370966 -0.032084633 0.025900366 0.11097204 0.027254326 -0.0007376861 0.03928797 0.062452346
0.051700156 0.1144767 -0.040585224 -0.124829724 0.049441114 0.015043856 0.06537791 0.07728515
0.06842857 -0.00021011168 0.021716312 0.040252056 -0.010599731 0.037258077 0.09496348 0.092089824
-0.16606621 -0.16315052 0.04237661 0.076555885 0.05000346 0.09583459 -0.027096534 0.05099767
0.041217342 0.054987002 0.16023865 0.0060169837 0.08660734 -0.013296241 -0.11564368 0.05213621
0.10511694 0.054203037 0.1237402 0.18637508 0.009259718 0.056367733 0.010338866 -0.026004625
-0.16846034 -0.010118692 0.0382285 -0.124073505 -0.046846468 0.045631994 0.042397715 0.03531516
0.045475055 0.049774773 0.055742607 0.21033102 0.049593974 0.044651497 0.16957186 -0.022728913
0.012493915 0.14360264 0.037757773 -0.053797174 -0.015962439 0.101033404 -0.05113495 0.21635649
0.06468768 0.05063252 0.050588053 0.077507414 0.006943045 0.0818789 0.061233375 0.062434442
0.081142604 0.008458191 0.1140179 0.10163425 0.17582859 0.07879822 0.0601869 -0.044656634
-0.08159631 0.1293399 0.1771241 0.085396886 0.12889141 0.10539669 -0.0006543234 0.08438024
-0.04503932 0.06448281 -0.13825467 0.033109266 0.005350799 -0.05423627 -0.014620925 -0.010421788
-0.012991713 -0.04532366 0.0030909297 0.12004593 -0.0564988 0.049040765 0.019629067 0.11837829
-0.019099783 0.08600168 0.11792508 0.1881552 0.12398113 0.03197853 0.0944186 0.0048101516
-0.004485761 0.13451003 0.075467296 0.06454595 0.13408183 0.025644712 0.07062366 0.03845609
-0.1627087 -0.014901242 -0.038859565 0.016372439 0.08521433 -0.09621438 -0.09550855 -0.003693978
0.05185675 -0.029337946 0.08893457 0.115429685 0.062854916 0.11475103 0.039305355 0.027918262
0.04290121 0.05240525 0.08969159 0.019942379 0.14765532 0.0075421887 0.06810262 0.082570896
00000000: c017 ad3d d429 c93c 7ff9 893d 28d7 3bbe
00000010: d420 4abd 74fb a0bc c178 313d 078d 7dbc
00000020: 5fe3 10bd 6e3c 06bd 8b6e 61bd 26d1 95bd
00000030: efd0 183e e93a e93d f5d0 0cbc 2526 033d
00000040: 3f53 acbc eacf 133e 6d5c febb 72fd fb3c
00000050: c1e8 34bd b4fe a13c 1fd7 a73d dc6a f9bc
00000060: 909e 843c ad4b c83d fc25 423e ce62 2d3d
00000070: 5aba bb3d be2c afbc 682c 823d a13d 8b3c
00000080: cf27 9f3d 44f9 323e dd66 163e 301e d83d
00000090: 2db5 a7bd 17de 10bd a189 96bd c5ae 7f3d
000000a0: 9c30 353d c36d 5fbd 133c 4b3d c4ee 623d
000000b0: 3a0e f13d 2a8d 0e3e 9d71 42bd 08ec 2ebd
000000c0: b110 413d ce62 8c3e 13bc aa3d 9918 b43d
000000d0: a845 f03d 3be6 12bd 32ee a13c 9fc4 a93d
000000e0: 17d4 a5bd 9fec aebb c6a0 513d bf02 8c3d
000000f0: 946d fc3d 16af b83d 8c6e fc3c b8b6 223d
00000100: 04fa 4cbd 101c c83d 368d 0abd e6fd 943d
00000110: 0c0b 633d b26f f2bc 1238 4d3d 1157 aebc
00000120: 94b1 3f3d dab5 bf3c 2e68 24bd ce93 213d
00000130: c1f7 39bd fb6c 7abd ec30 f53c fb73 11be
00000140: bee7 023e a438 d2bd 6fcd aa3d adba 363e
00000150: 9453 1c3e e957 523d 0534 2bbd 658f 403e
00000160: 24f1 f1bd 95c2 2a3e 4c9a a53d ae87 be3d
00000170: 7f1b a03c 1b2d 3f3e b27d b83d a2c1 6b3d
00000180: b48a 92bd 4f2c b13c 4738 853d e97e 103d
00000190: 545c b93d 0b9b 643c edad aa3d 6de6 97bd
000001a0: 9a74 293d 2d6b 03bd 012d d43c 4f45 e33d
000001b0: 7744 df3c 4761 41ba 6cec 203d 08ce 7f3d
000001c0: 8bc3 533d c372 ea3d b13c 26bd baa6 ffbd
000001d0: c482 4a3d 817a 763c dbe4 853d ad47 9e3d
000001e0: 4724 8c3d 6d51 5cb9 68e6 b13c 57df 243d
000001f0: 7eaa 2dbc ed9b 183d 377c c23d 9799 bc3d
00000200: 430d 2abe ee10 27be 1993 2d3d 55c9 9c3d
00000210: 6ed0 4c3d ed44 c43d 8df9 ddbc efe2 503d
00000220: 84d3 283d 0d3a 613d 9a15 243e 1e2a c53b
00000230: 305f b13d 7ad8 59bc 98d6 ecbd c78c 553d
00000240: 8d47 d73d 0104 5e3d 816b fd3d 1cd9 3e3e
00000250: 12b6 173c dae1 663d 5964 293c a707 d5bc
00000260: de80 2cbe dfc8 25bc 7d95 1c3d 401a febd
00000270: 15e2 3fbd 9de8 3a3d 3aa9 2d3d a1a6 103d
00000280: 0d44 3a3d a2e0 4b3d 5c52 643d 0461 573e
00000290: 0d23 4b3d 7de4 363d 3fa4 2d3e fc31 babc
000002a0: 47b3 4c3c 920c 133e e5a7 1a3d 6d5a 5cbd
000002b0: a9c3 82bc 9aea ce3d e272 51bd 8e8c 5d3e
000002c0: f97a 843d 0c64 4f3d 6b35 4f3d 35bc 9e3d
000002d0: 7c82 e33b 20b0 a73d d9cf 7a3d 42bb 7f3d
000002e0: 182e a63d 3994 0a3c 3782 e93d 9e25 d03d
000002f0: 690c 343e f660 a13d 8a86 763d e0e9 36bd
00000300: f71b a7bd ae71 043e 0560 353e 90e4 ae3d
00000310: 1cfc 033e 38da d73d e686 2bba 8ccf ac3d
00000320: 267b 38bd 900f 843d a292 0dbe 959d 073d
00000330: c155 af3b da26 5ebd 9b8c 6fbc 26c0 2abc
00000340: 32db 54bc 4da5 39bd 3291 4a3b a4da f53d
00000350: 496b 67bd f8de 483d 23cd a03c 5170 f23d
00000360: 2677 9cbc a621 b03d b482 f13d c2ab 403e
00000370: d2e9 fd3d ebfb 023d 8a5e c13d 7a9e 9d3b
00000380: 4afd 92bb ffbc 093e 998e 9a3d ab30 843d
00000390: bf4c 093e dc14 d23c 23a3 903d 2284 1d3d
000003a0: 1c9d 26be 5724 74bc 352b 1fbd 7e1f 863c
000003b0: da84 ae3d 0b0c c5bd fd99 c3bd ab16 72bb
000003c0: be67 543d 2256 f0bc 5423 b63d 6666 ec3d
000003d0: 14ba 803d 9702 eb3d a7fe 203d d7b4 e43c
000003e0: 2eb9 2f3d e3a6 563d 39b0 b73d 335e a33c
000003f0: f532 173e 7724 f73b 6379 8b3d ee1a a93d
