loto6_cnn/model/loto6_20_190.model (npz, 468543 bytes, 38 tensors)

conv1_2/b f4 [64]
00000000: f26a ffb8 973b bab8 694c 5738 5351 10b9
00000010: 9026 2036 31f7 c338 d622 21b8 52e4 3db9
00000020: f46a cf37 d01e bf39 e449 2db8 96ca 56b9
00000030: 7f4d 8437 0a37 7837 b68b 68b7 a34b c5b8
00000040: f037 e9b7 3896 87b7 8070 f637 d0c9 d7b6
00000050: 5533 b738 e8fa 5c38 cf07 3937 0c8e cfb8
00000060: c6fd 45b8 099a 9eb7 5e1a a6b6 68c8 c7b7
00000070: 2666 bfb7 7e0c de38 4e1f 3037 94e9 dbb5
00000080: ce65 9537 9924 deb6 b823 4bb8 9961 09b9
00000090: 2938 ab38 0496 2eb9 367d 9e36 87c2 28b8
000000a0: 3a73 8f38 9d6d 04b8 fa06 be37 0fb8 56b7
000000b0: 56a0 6737 22b4 cc37 495c 1438 9499 a7b8
000000c0: 7dc8 ccb7 418a 0f38 8903 5338 7233 ec37
000000d0: df92 0c36 1426 4238 bfc3 1f39 695b 32b9
000000e0: 8c1e 01b9 5006 8fb6 e68e 9438 d9b9 8c35
000000f0: 9ac3 3336 7ed3 4438 d54f cdb8 7c23 e0b7
-0.00012179268 -8.8802706e-05 5.1331157e-05 -0.00013763206 2.3864304e-06 9.3443676e-05 -3.8417835e-05 -0.000181095
2.4726127e-05 0.00036453316 -4.131523e-05 -0.000204841 1.5771713e-05 1.4794767e-05 -1.3860807e-05 -9.4077805e-05
-2.7801812e-05 -1.6163205e-05 2.9377872e-05 -6.4309934e-06 8.735681e-05 5.2685762e-05 1.1028677e-05 -9.8969875e-05
-4.7204805e-05 -1.8906796e-05 -4.950255e-06 -2.381597e-05 -2.281654e-05 0.00010588112 1.0497706e-05 -1.6384752e-06
1.780959e-05 -6.620376e-06 -4.8432237e-05 -0.00013101696 8.164376e-05 -0.00016649818 4.7233434e-06 -4.023549e-05
6.840234e-05 -3.1573338e-05 2.2653014e-05 -1.27982485e-05 1.3806004e-05 2.4402576e-05 3.5371897e-05 -7.991787e-05
-2.4412055e-05 3.4222616e-05 5.0309613e-05 2.8157348e-05 2.0947116e-06 4.6288667e-05 0.00015236343 -0.00017009456
-0.00012313778 -4.262467e-06 7.083807e-05 1.0484902e-06 2.6786934e-06 4.692701e-05 -9.7900316e-05 -2.6719405e-05

conv1_4/b f4 [32]
00000000: 9013 ec38 501d 8db8 10f5 94b9 a0af 2539
00000010: cdbb 8039 fc9c 2bb9 a993 1f38 1faf d237
00000020: aed3 19b9 f98c 4bb7 0b61 8ab9 8a66 f637
00000030: b376 de37 cc9d ba38 12f0 0239 ef58 10b9
00000040: 3fcd 0fb9 f82e 2bb5 d76d f438 1d71 85b9
00000050: 8de2 d238 fabb b1b8 460d e1b8 8d75 d339
00000060: bae8 c435 1034 14b7 2d4f bfb7 02e3 11b8
00000070: 8a95 86b8 5ca6 eab8 7ba8 97b8 60fa 05b9
0.00011257001 -6.728864e-05 -0.00028411346 0.00015801052 0.00024553985 -0.00016366312 3.8046073e-05 2.5115498e-05
-0.00014670074 -1.2132566e-05 -0.00026393714 2.9373234e-05 2.6519736e-05 8.898563e-05 0.000124872 -0.0001376604
-0.00013714003 -6.377081e-07 0.00011655286 -0.00025452013 0.00010055779 -8.475031e-05 -0.000107313084 0.00040332638
1.467087e-06 -8.833609e-06 -2.2805843e-05 -3.478211e-05 -6.417472e-05 -0.00011188976 -7.231623e-05 -0.0001277714

bn4/avg_mean f4 [32]
00000000: 4eaa 34bf 81e6 43c0 8a1d c53f 03a3 22c0
00000010: c0cb d93d 7adf 45bf f2bc e5bf 2ee8 6e3e
00000020: f2af 25bf 2589 e5be 4dc2 3bc0 06d2 afbf
00000030: c09a c8be fcab 473e f046 babf 3c99 18c0
00000040: bb7c 59be 3df1 02bf 2af2 62c0 d004 1ec0
00000050: 6900 f2be 4277 893d d480 5cbc 6c6b cdbf
00000060: 6b2d f83e 2da8 95bf 56a0 b1be 0936 3f3e
00000070: 6591 2cc0 583f 923f 245f 01bf 813f 923e
-0.70572364 -3.0609438 1.539964 -2.5411994 0.10634565 -0.77294123 -1.7948287 0.23330757
-0.64721596 -0.44831195 -2.9337342 -1.3735969 -0.39180565 0.194992 -1.4552898 -2.3843527
-0.21238987 -0.5114935 -3.5460305 -2.4690437 -0.47265938 0.067122 -0.013458449 -1.6048408
0.4847215 -1.1691948 -0.3469264 0.18672957 -2.6963742 1.1425581 -0.505358 0.28564075

conv1_5/b f4 [32]
00000000: fa6e 03b8 89d7 20b8 a161 d438 e12c 9ab8
00000010: 5577 3039 dabd c138 1fd7 0938 02af 0d39
00000020: ddd4 a738 5dcc fb37 6244 e0b8 815e 35b8
00000030: b629 efb7 17aa 89b9 6035 a437 1eac 2838
00000040: c5a1 a138 5d83 60b8 d79c 1339 7c66 c2b8
00000050: 6ace 1839 649c bd37 eee2 0238 e8c2 a439
00000060: 04e7 8138 39a6 2d3a 1694 0fb9 c138 6939
00000070: d4e6 d2b8 965d 8f38 ed68 adb7 2de7 c4b7
-3.133619e-05 -3.8347705e-05 0.000101271326 -7.3516516e-05 0.00016829123 9.23832e-05 3.2863692e-05 0.00013512003
8.0028294e-05 3.0016696e-05 -0.000106938896 -4.3241776e-05 -2.8510443e-05 -0.00026257403 1.9575178e-05 4.0214618e-05
7.70721e-05 -5.3528103e-05 0.0001407744 -9.26973e-05 0.00014572745 2.260338e-05 3.120576e-05 0.00031425734
6.194229e-05 0.00066241954 -0.00013692709 0.00022241754 -0.000100565754 6.836203e-05 -2.0672067e-05 -2.347267e-05

bn5/avg_mean f4 [32]
00000000: d07f adbd d3b5 d4bd 6c89 94bd a1b6 09bf
00000010: 9f71 103e 5068 50bf cbbb 87be e414 ee3e
00000020: 58cf f4bd f493 843e 6db1 4abe b11e 8fbe
00000030: 71c8 44bc b204 c3be e835 81be 1a5a 24be
00000040: 24f1 ef3e 6715 47bd 9456 31bf ebbc 0dbe
00000050: 0079 9cbc 60d7 e2be b1b7 ccbe 605e 493f
00000060: 7e88 89bc 9518 3e3f fd99 94be 9cb1 fbbe
00000070: 6e3b dcbd d68b aa3c 5888 c0be 8d0f 56be
-0.08471644 -0.10386243 -0.07252774 -0.53794295 0.14105843 -0.8140917 -0.26510462 0.46500313
-0.1195361 0.2589413 -0.19794245 -0.27953103 -0.01201068 -0.3808952 -0.2523644 -0.16049996
0.46863663 -0.048604395 -0.6927273 -0.13841598 -0.019100666 -0.44304943 -0.39983895 0.7865963
-0.016788717 0.7425626 -0.29023734 -0.49158943 -0.10753523 0.020818632 -0.37604022 -0.2090437

bn1/gamma f4 [64]
00000000: 9862 7c3f f602 7c3f fd52 813f d10c 803f
00000010: e0fc 783f 3b72 813f 3eb9 7d3f 03e7 7c3f
00000020: 4705 7f3f ceed 7f3f d1a2 803f a385 803f
00000030: 43b5 7e3f 577f 803f d2cf 7c3f d45b 823f
00000040: f2f0 7b3f e6aa 7b3f b56f 7e3f 1049 823f
00000050: 12c6 843f b700 813f d2d9 803f 10ee 7f3f
00000060: 07a2 813f f904 813f 07ea 7b3f 9ad8 7e3f
00000070: 8f94 7a3f a57f 7e3f 3987 773f e7cd 7d3f
00000080: da18 7d3f c01c 813f 2c1e 7a3f bad9 7d3f
00000090: 993d 803f 1c61 863f 2621 813f 2277 823f
000000a0: d74c 7d3f 95c1 7b3f 0430 813f 1049 7b3f
000000b0: b961 813f a177 7b3f 4445 803f 2469 803f
000000c0: ff12 7b3f 5efc 7d3f db34 7d3f 9e0f 813f
000000d0: e280 7d3f ac4e 783f 9180 7d3f 0663 833f
000000e0: 5e7f 7b3f a5f7 773f 96cd 7a3f 3470 7d3f
000000f0: c233 7b3f 3d30 823f 3dfc 783f e8ab 7c3f
0.9858794 0.9844202 1.0103451 1.0003911 0.97260857 1.0112985 0.9911078 0.98789996
0.9961743 0.99972236 1.0049688 1.0040783 0.99495333 1.0038861 0.9875461 1.0184274
0.9841453 0.98307645 0.993892 1.0178547 1.0372946 1.0078343 1.0066473 0.9997263
1.0127572 1.0079643 0.9840397 0.9954926 0.9788293 0.9941352 0.9669071 0.9914231
0.98866045 1.0086899 0.9770229 0.9916035 1.0018798 1.0498385 1.0088241 1.0192606
0.98945373 0.9834226 1.0092778 0.9815836 1.0107948 0.98229414 1.0021138 1.0032086
0.9807586 0.99213207 0.98908776 1.0082891 0.99024785 0.96995044 0.990243 1.0264595
0.9824122 0.9686225 0.9796995 0.98999333 0.9812585 1.0170971 0.97259885 0.9869981

conv1_3/b f4 [64]
00000000: d137 9cb7 63eb c537 2d49 58b7 580a b8b7
00000010: d93b 3538 4b64 1a37 9f59 ddb8 639e dc36
00000020: 098e 3438 6e83 d737 263b 7a37 4a8d 4c38
00000030: 4f1b d637 de0e 8138 f56d 9fb8 bba8 01b9
00000040: 547f ecb6 95ac 0939 6fcc 6837 5ce6 2a38
00000050: acdd eb37 e052 c438 74e8 02b8 07e1 8836
00000060: c57e aa37 0f17 c837 76f9 1538 9d53 5238
00000070: 15c6 17b7 54f1 2d37 daec 03b8 2597 ea38
00000080: 06e3 d3b6 9c19 a8b7 8744 04b8 a2cc d5b7
00000090: b79f cc38 7b6e 08b7 3c41 0fb6 e881 a0b6
000000a0: 5573 a1b7 0697 eb38 e31a 4b38 60ba 87b7
000000b0: ad10 dbb7 9a32 a8b7 3e07 b6b8 7d19 e9b7
000000c0: 0d28 d6b8 19a2 02b8 437c d3b7 332f 23b8
000000d0: 1429 5036 6888 2ab8 9a29 11b8 b7b4 0738
000000e0: 3283 9538 7956 6db7 e9b7 ceb8 1e9c 5fb7
000000f0: af51 d8b7 5f83 ac37 873d c1b7 2189 9f38
-1.862264e-05 2.359384e-05 -1.2891641e-05 -2.1939326e-05 4.32095e-05 9.202467e-06 -0.000105547944 6.5749496e-06
4.3047625e-05 2.5691199e-05 1.4914933e-05 4.8768976e-05 2.5523505e-05 6.1539686e-05 -7.602192e-05 -0.00012365256
-7.048171e-06 0.0001312963 1.3875876e-05 4.0745697e-05 2.8117407e-05 9.361445e-05 -3.1210904e-05 4.0793125e-06
2.032461e-05 2.3852595e-05 3.5756697e-05 5.0145773e-05 -9.046421e-06 1.0367792e-05 -3.145342e-05 0.000111861424
-6.314719e-06 -2.0039086e-05 -3.1535074e-05 -2.5486868e-05 9.757227e-05 -8.131955e-06 -2.1346632e-06 -4.7834947e-06
-1.9246401e-05 0.000112338035 4.842401e-05 -1.6180042e-05 -2.61146e-05 -2.0050724e-05 -8.679785e-05 -2.7787633e-05
-0.00010211775 -3.114538e-05 -2.5211024e-05 -3.8906186e-05 3.1018326e-06 -4.0658197e-05 -3.460944e-05 3.2354812e-05
7.129311e-05 -1.4146434e-05 -9.8571014e-05 -1.3328185e-05 -2.5787243e-05 2.0565172e-05 -2.3036044e-05 7.607253e-05

bn2/avg_var f4 [64]
00000000: 4bc1 ca3e e8cd 293f 8a8a c53e a0c3 0f3f
00000010: b4f5 203f 8c5e d03e ae59 db3e 4bfa ca3e
00000020: d4f2 c13e 0e5a d93e 88bc f33e 36f8 e93e
00000030: fbb8 d63e 5af9 cd3e 0be1 893e ebc4 213f
00000040: e43b 153f 0e81 bb3e 5bdf ca3e caa3 843f
00000050: 2ada ab3e 76f8 ae3e 958c c13e d2f9 f33e
00000060: 1ef3 d53e 30ff b23e 9f55 1f3f b0cb 393f
00000070: 1630 173f f3bc 1e3f 132f 013f 7b36 b33e
00000080: 9361 523f e867 443f c846 0a3f bc4e 183f
00000090: aa05 c03e 40e5 903e a83d 1a3f cbb2 8b3e
000000a0: 37c4 d23e 6d72 8b3e dc3b 173f b16f 043f
000000b0: cf7c 053f aac1 d53e 2e23 ff3e 8cab c53e
000000c0: 4bca 0d3f 164a 003f 75b8 3b3f f8fb b93e
000000d0: d591 c53e afe0 eb3e c4ba bc3e 2a03 303f
000000e0: e91a f23e a8b4 023f 57c1 1d3f 5ed6 c73e
000000f0: b93f 983e b43e ed3e b761 013f 1405 f53e
0.39600596 0.66329813 0.3858226 0.56157875 0.62874913 0.40697134 0.42841858 0.39644083
0.37880576 0.4245152 0.47604775 0.45697182 0.41938004 0.40229303 0.26929507 0.631911
0.5829451 0.36621898 0.39623532 1.0362484 0.33564883 0.34173936 0.37802568 0.47651535
0.41787046 0.34960318 0.6224002 0.7257643 0.5905775 0.62007064 0.50462455 0.35002503
0.82180136 0.7672105 0.54014254 0.5949514 0.3750432 0.28299904 0.6025033 0.27284846
0.41165325 0.27235737 0.59075713 0.5173293 0.5214357 0.41749316 0.49831527 0.38607442
0.553868 0.50113046 0.73328334 0.3632505 0.38587824 0.46069857 0.3686124 0.6875483
0.47286156 0.5105691 0.6162314 0.39030737 0.29736117 0.463369 0.50539726 0.47855437

bn2/gamma f4 [64]
00000000: 375c 833f ee73 783f 4127 793f e629 7c3f
00000010: 1d2e 7f3f 7856 823f b16a 7f3f b56c 783f
00000020: 6ffe 7a3f c51f 7d3f 4382 7b3f 3400 823f
00000030: 01a1 7d3f 2ea7 803f 7f3c 803f 4162 7e3f
00000040: 1fa5 793f b808 7e3f 8451 7b3f bc77 7c3f
00000050: 7bef 833f 286d 7d3f d899 7f3f 67e9 803f
00000060: faf4 813f ab14 853f 794f 783f 8412 803f
00000070: c2d1 833f dc8c 783f 4d82 7e3f b518 803f
00000080: 0587 7b3f f48d 7f3f 9a25 7e3f d468 823f
00000090: e9f8 7e3f a8f6 7e3f 6ad8 793f b7fe 783f
000000a0: fa3a 813f 604a 7f3f 6d02 7e3f b596 7f3f
000000b0: 0aaf 803f 1b9e 803f fbd5 813f 897f 813f
000000c0: ccf4 7e3f 38c1 823f 8e93 7e3f 2a7c 823f
000000d0: 3058 793f 6c1c 843f 0473 7e3f 9737 7b3f
000000e0: 505c 803f 0894 7d3f a159 7a3f 2f68 893f
000000f0: 9d01 7e3f 4943 803f 3cfb 783f 8492 823f
1.0262517 0.97051895 0.9732552 0.9850143 0.9967974 1.0182638 0.99772173 0.97040874
0.98044485 0.988766 0.9824564 1.0156312 0.990738 1.0051019 1.0018462 0.99368674
0.9751758 0.99232054 0.9817126 0.986202 1.0307459 0.98994684 0.9984412 1.0071229
1.0152886 1.0396932 0.96996266 1.000565 1.0298388 0.97089934 0.99417573 1.000754
0.982529 0.9982598 0.99276125 1.0188241 0.99598557 0.9959512 0.97595847 0.97263664
1.0096123 0.9972286 0.9922245 0.99839336 1.0053418 1.004825 1.0143427 1.0117046
0.9959228 1.0215216 0.994439 1.0194142 0.9740019 1.0321174 0.9939425 0.981317
1.0028172 0.99054 0.9779301 1.0734919 0.9922121 1.0020534 0.97258353 1.0200963

conv1_1/b f4 [64]
00000000: f7de 3338 eadc 0738 4f6c cb38 be7e 4437
00000010: 0c15 aab8 c525 a038 7062 cbb8 fe1d c036
00000020: a090 adb9 2cc2 82b8 bb7e e737 91c9 2735
00000030: 2f47 2938 f08d 4638 f4b3 d5b8 1a73 d9b7
00000040: 004e a038 4af8 fc38 0a56 99b8 8d08 acb8
00000050: 0813 3c38 e50e 8937 1f4c cbb7 8c93 1439
00000060: f83e 3938 3ee7 2538 adff 9c37 e97c 1f38
00000070: bfc1 a938 2d4d db37 cb1e e838 c086 85b8
00000080: c941 d138 d8d1 2338 47c6 16b9 f98a b7b8
00000090: 7ddb 34b9 d67d 80b7 aef9 2cb8 d04f 9a38
000000a0: a5ae 8337 0b95 3339 74ac c7b8 7973 3936
000000b0: c8ef b8b8 ab4d ef37 9956 2938 063f dd36
000000c0: 7b97 a437 70d0 46b6 2391 c838 34db df37
000000d0: 0593 cd37 2158 a8b8 6dd0 a6b9 601b 9437
000000e0: ce2e 0b38 7075 2d38 b525 1638 a508 4838
000000f0: cd70 2938 e96d 6bb8 e1e8 39b9 0840 9e36
4.2884578e-05 3.239225e-05 9.699968e-05 1.171202e-05 -8.110152e-05 7.63643e-05 -9.69813e-05 5.7255374e-06
-0.00033104885 -6.2350504e-05 2.759636e-05 6.2505666e-07 4.0359035e-05 4.733907e-05 -0.0001019015 -2.5922014e-05
7.643923e-05 0.00012062544 -7.3116345e-05 -8.203192e-05 4.4840417e-05 1.6338608e-05 -2.4234932e-05 0.00014169345
4.416608e-05 3.9554427e-05 1.8715707e-05 3.8024886e-05 8.094636e-05 2.6142772e-05 0.00011068358 -6.367033e-05
9.97815e-05 3.905766e-05 -0.00014378979 -8.752006e-05 -0.00017247903 -1.5317386e-05 -4.1240528e-05 7.3581585e-05
1.5697742e-05 0.00017126293 -9.521181e-05 2.7634362e-06 -8.8184664e-05 2.8527187e-05 4.037339e-05 6.59365e-06
1.9620862e-05 -2.9625626e-06 9.563777e-05 2.6685746e-05 2.4506366e-05 -8.0272795e-05 -0.00031817277 1.7655722e-05
3.3183773e-05 4.1355786e-05 3.5797904e-05 4.7691767e-05 4.0397794e-05 -5.6130728e-05 -0.00017729729 4.716221e-06

bn1/avg_var f4 [64]
00000000: 536d ff3d c8f5 a03e 7722 173e 0020 9d3e
00000010: ad8c ae3e d74b 533e 1632 8d3e 2309 b03e
00000020: 62ca ff3d 463d 693e 5c65 d63e 2752 af3e
00000030: 8a07 b43e 23a8 2f3e 5688 263e 4a0a c73e
00000040: b762 e63d 34d3 f43e bc17 a73e 32c2 483e
00000050: 9631 6a3e 4528 763e 20fc 873e c30d 153e
00000060: 20e7 713e bb37 403e 60f7 313e f2e8 a23e
00000070: 912f 563e 4099 043f d2ef d93d d0c0 963e
00000080: 7bf8 e43d 7b69 a03e b3ce 523e b470 803e
00000090: a6ad 613e 2646 0d3e aa4a b93e f3a3 a43e
000000a0: aa35 5d3e f2c1 b93d 1828 f23d 867d 403e
000000b0: e07a cf3d a8e6 233e 34c3 fb3e 6b9c 363e
000000c0: 1e8d a33e 144e d43e 3512 2b3e 0253 093e
000000d0: 28ab ba3e d098 6e3e 94a5 0f3e e6dd e13d
000000e0: f41c 593e b3d1 ae3e 59e4 023f a410 e63e
000000f0: a7df 133e 19e3 5a3e 5e52 853e 9a00 0e3e
0.12472024 0.31437516 0.14759241 0.30688477 0.34091702 0.206344 0.27577275 0.3438197
0.12489773 0.2277728 0.41874206 0.34242365 0.35162002 0.17153983 0.16262946 0.38875037
0.11249297 0.47817385 0.32635295 0.1960533 0.22870478 0.24038799 0.26559544 0.14556031
0.23623323 0.1877126 0.17379522 0.31818348 0.20916583 0.5179634 0.10641445 0.2944398
0.111802064 0.31330475 0.20586662 0.25085986 0.22038898 0.13796291 0.36189777 0.32156333
0.21602502 0.09070195 0.118240535 0.18797883 0.101308584 0.16005957 0.49172366 0.17833106
0.319436 0.4146582 0.16706164 0.13410571 0.36458707 0.23300481 0.14028007 0.11028652
0.21202451 0.34144363 0.5112968 0.4493457 0.14440785 0.21375693 0.26039404 0.13867417

bn2/beta f4 [64]
00000000: 79bb e33c b743 8dbc 44a0 65bc 00ef 8bba
00000010: b0ad e93b 537b b93c be47 583c 4418 90bc
00000020: 6913 afbb fd4c 01b9 9ef6 733c aa69 cd3c
00000030: a441 ebbb 9843 323d fbdc 213c e4f7 5f3b
00000040: bfe4 4dbc ab57 b63c 4f89 193b ac30 133b
00000050: 432f 9f3b 7fe1 b3bb 89e6 8abc f4ab dd3c
00000060: 1f08 0b3d b6dd 193d 7746 44bc e749 ae3b
00000070: f2ed 2f3d 52f1 85bc 61f5 9a3c 9d37 933c
00000080: 695d 51ba 00af 1f3c 9748 e7ba e337 e6bb
00000090: 3d48 9c3c f656 113c 4306 dabc 1cdb f53b
000000a0: 8f6d b53c 3f22 aa3a 0ca6 14b9 0772 6b3c
000000b0: c5ea 1a3b 1855 143c bdf6 b33c cd47 8c3c
000000c0: 31ad 183c cff3 0e3d 6d4f 96bb ab04 9d3c
000000d0: cc64 d0bc 25b3 723c de7c bbbb 3009 c4bb
000000e0: 72bc c33c 7edb a3ba dd5a 52bb 3fdc 63bc
000000f0: 4f11 0c3c 7446 c6bb 07c7 c4bc 8b0b bc3c
0.027799355 -0.017244203 -0.014015261 -0.0010676086 0.007131301 0.022641813 0.013200698 -0.017589696
-0.00534289 -0.00012331079 0.014890341 0.025074799 -0.007179456 0.043521494 0.009879346 0.0034174854
-0.012566744 0.0222586 0.002342779 0.002245943 0.004857929 -0.0054895277 -0.01695563 0.027059533
0.03394329 0.037564956 -0.011979691 0.0053188684 0.04295153 -0.016350422 0.018915834 0.017970854
-0.00079866365 0.009746313 -0.0017645535 -0.007025705 0.019077415 0.008870831 -0.026614314 0.0075029265
0.022146968 0.0012980177 -0.00014176237 0.014370448 0.0023638469 0.009053491 0.02196824 0.017124081
0.009318636 0.034900483 -0.004587105 0.019167265 -0.025438689 0.014813219 -0.0057216724 -0.0059825405
0.023893569 -0.0012501327 -0.0032097616 -0.013907491 0.008549049 -0.006050879 -0.024020685 0.022954723

bn4/gamma f4 [32]
00000000: 1b1f 7f3f ee9d 8c3f e952 813f 42a2 853f
00000010: dfa1 843f 9825 893f 5db1 883f 2941 873f
00000020: 05af 823f 8536 8a3f edb0 883f 5e90 843f
00000030: 9ce6 843f 8d9c 813f 77cc 873f 760c 823f
00000040: 9f41 8b3f 1d4f 843f 276e 8b3f 0276 893f
00000050: 7229 863f 499e 893f f6bc 843f 5a27 843f
00000060: 5bef 843f 17b1 843f 838f 8a3f b314 873f
00000070: f889 8a3f 3989 813f 83ec 8a3f ffec 833f
0.9965684 1.0985696 1.0103427 1.0440142 1.0361899 1.0714598 1.0679127 1.056676
1.0209662 1.0797888 1.0678993 1.0356557 1.0382876 1.01259 1.0609273 1.0160053
1.0879401 1.0336643 1.0892991 1.0739138 1.0481398 1.075143 1.0370166 1.0324509
1.0385545 1.0366544 1.0825046 1.0553192 1.0823355 1.0120002 1.0853428 1.03067

conv1_7/b f4 [2]
00000000: 5590 153d cfcc bd3b
0.0365146 0.0057922374

conv1_6/W f4 [32, 32, 3, 3]
00000000: ac1e b1bc 983d 60bc 248b 2d3d 76d8 c2b8
00000010: 425e dfbc a8fd bc3d 83b9 be3c 265a b0bb
00000020: ce8f 3c3d 14c6 ce3d 20d8 b0bd e88b 913d
00000030: 0c13 c83b be2f d4bc 2f92 c83c 2478 353b
00000040: d0cd 833b 8ed1 79bb 4c72 9d3d 792a 92bc
00000050: 2505 783d 532c a13c b6a4 d83d cae4 7f3c
00000060: 6777 1cbd 4aac 703c 2902 2dbd 5d80 3fbd
00000070: ce1a 243c 01d4 993b e114 6fbd 4881 b93d
00000080: 43af a33d 453f fbbb 0494 023d cf3d b43d
00000090: a6cb d2bc 6e1f 80bd bf39 97bd c8a8 a2bd
000000a0: e445 b83b 1321 a9bd 1751 d3bc c9e3 69bc
000000b0: 2b62 89bd 6647 d8bd ea64 c7bd 6a1e 49bc
000000c0: 59c9 863b 15ad 1ebd 1edc 95bd 0a06 1abb
000000d0: cff7 42bd 3332 85bd 46bc 9b3d a29b 88bc
000000e0: 0d38 79bd 67d9 7abd a83e 41bd efba 93bd
000000f0: 9b33 37bc ce44 49bd e523 3ebc 7408 43bd
00000100: ec69 df3d 6d9e 7d3c 409a ebbd ca3c 05bc
00000110: 8492 05bd dae8 723d abc5 c9bd 9ddf 293d
00000120: a4f0 97bc 619e e73b b296 af3d 26c6 243a
00000130: 1462 9abd 7409 23bc e606 c23c fb56 623d
00000140: 3628 9fbd d7d9 7e3d e227 84bd 1bbf f63c
00000150: f409 0e3c cd6e 633d 6872 e53c ba7e 093d
00000160: 234b 03be 45f8 a3bd e719 a43b 3dd3 693c
00000170: c216 5abd 0503 46bc 00da 98bc 0073 2bbd
00000180: af6c fb3b 8938 693d 8e78 10bd 945d dabb
00000190: 2fb5 d2bd f25c dc3c 2857 813d 71b3 433d
000001a0: 6d10 453c 7d5d ae3c bacb b53d d59d 9dbc
000001b0: 5fd0 45bc 0c72 8e3d c9f9 0fbd 19b8 063e
000001c0: 870d 06bb cc4a 4b3d 47ae 7a3d 3318 79bb
000001d0: 56a4 223c e62b 05be 46bf 5d3d 3cb3 dd3c
000001e0: d3fd 62bd b2cf b8bd 4692 aebd 4ba9 7f3d
000001f0: 4186 373c de88 b7bd 2e88 fbbb 51ad 08bd
00000200: 4985 5fbd a2a4 3abc 669a 8b3d 3448 afbc
00000210: 8013 20bd a2d6 d33c 057b f7bc 6aae 88bc
00000220: f962 12bd acf8 32bd 5ae5 cebd 0c09 7fbd
00000230: 33ba 0a3e b383 0fbd 8b09 183b fb6f 87bd
00000240: 89b7 a03d 0ad0 d4bc ff89 6dbd 4904 b33c
00000250: 7e75 d53c aeb8 b3bd 1988 e9bd 618e ccbd
00000260: d751 4f3d d33d 313d c0bd d5bd 446c 5a3d
00000270: 34cb 343d 9e5d 03be 6f5c a93d a0f0 e83c
00000280: ba0f da3b 6ce3 5a3d 581d 73bd 780e 1ebc
00000290: 6609 1d3d 58bc ae3d 192e 76bd b7df 033d
000002a0: f91c d5bc ef7a 59bd c115 e73c a302 f53c
000002b0: 3ef3 c93d 7175 6c3b 5200 753d cb0f 0abd
000002c0: d5e8 b4bc 4ae3 4d3d a68d ba3d 209e c3bc
000002d0: 75cd 67bd 6166 063d ff86 59bd 87c3 643d
000002e0: 6c41 09bd b486 a8bc 0a02 5c3d c60d d7bc
000002f0: 3471 01bd 3c7a 25bc 8162 2dbd 605f d8bc
00000300: 1b8e 2abc f8d8 a8bd 5e28 7cbd 91c9 a4bd
00000310: b20e eb3d 0d45 a43d 7091 453d 27db ab3c
00000320: c6cb ccbc b19b ef3c 838a f23c 49df c6bc
00000330: be00 51bd ee37 7d3c 181a efbc 290a 623d
00000340: e386 3dbd 2069 1abe c5a4 363d 66ee 0c39
00000350: f02f 693d fa14 763d 2f7d b23b b645 c6bd
00000360: 613d a5bd f18a 91bd 0f0b c7bd 2614 193d
00000370: f066 0c3d 106e 3f3d e7f7 b3bc 5726 c5bd
00000380: e182 c63d 61e4 1abd b0ab a13d 7faf 8f3b
00000390: fe4b 6a3c e85c 983c 0ed5 8dbd 4dd6 3e3d
000003a0: a480 3e3c 5f79 6d3d 6235 69bc 5f52 983c
000003b0: 7c67 dd3d cfdb 203d 9b56 12bc 54d4 62bd
000003c0: 8094 5b3d 0069 bf3c 3ac7 193d f8d6 0c3d
000003d0: 2681 e7bd 396a d13d 0d0f f33c 323e 9fbd
000003e0: 23b0 82bd e362 7e3d d31b 613d 423c 6d3c
000003f0: 547d 6a3b 9b92 363d 75c6 3b3c 452e f3bd
-0.02162107 -0.01368656 0.042369023 -9.29096e-05 -0.027266625 0.092280686 0.023281818 -0.0053818403
0.04603558 0.10096374 -0.086349726 0.07106763 0.006105786 -0.025901671 0.024483768 0.0027690018
0.0040223375 -0.003811929 0.07687816 -0.017842518 0.06055178 0.019674456 0.10578291 0.015618512
-0.03819981 0.014689514 -0.04223839 -0.046753276 0.010016156 0.0046944623 -0.05836952 0.090578616
0.07992413 -0.0076674544 0.03187944 0.088008516 -0.025731873 -0.06255995 -0.07384061 -0.07942349
0.005623566 -0.082582615 -0.025795503 -0.0142755 -0.06708177 -0.10560493 -0.09736045 -0.012275318
0.004113358 -0.038739283 -0.07317375 -0.0023502135 -0.04759961 -0.06503715 0.0760427 -0.016675774
-0.06084447 -0.061242487 -0.047178894 -0.07213389 -0.011181737 -0.049137883 -0.011605238 -0.047615483
0.10908875 0.015479666 -0.1150403 -0.008132169 -0.03261043 0.059304096 -0.09852155 0.04147302
-0.018547364 0.007068441 0.08573665 0.000628563 -0.07538238 -0.009950984 0.02368493 0.055258732
-0.077713415 0.062219467 -0.064529195 0.030120423 0.008669365 0.05552559 0.028008655 0.03356812
-0.12821631 -0.08006338 0.0050079706 0.014271555 -0.05324436 -0.012085681 -0.018658638 -0.04185772
0.007672868 0.05693868 -0.03527122 -0.0066639874 -0.10288464 0.026899789 0.06315452 0.04777855
0.012027842 0.021284813 0.088767484 -0.0192403 -0.012073605 0.069553465 -0.035150323 0.13156165
-0.002045484 0.04963188 0.06120136 -0.0038008809 0.009926876 -0.13005027 0.05413749 0.027063005
-0.055417847 -0.0902399 -0.08523993 0.06241731 0.011201442 -0.08961652 -0.007676146 -0.033368412
-0.05457047 -0.011391791 0.068165585 -0.021396734 -0.039081097 0.02585918 -0.030210027 -0.01668473
-0.03573892 -0.043694183 -0.10102339 -0.062264487 0.13547592 -0.035037708 0.0023199047 -0.066131555
0.078475066 -0.025978107 -0.05799293 0.02185263 0.026057001 -0.08775459 -0.11402912 -0.09988094
0.050615158 0.04327185 -0.104365826 0.053325906 0.044139102 -0.12828681 0.082695834 0.028435051
0.006654707 0.053439543 -0.059354156 -0.009647004 0.03833904 0.085320175 -0.060102556 0.032195773
-0.026014792 -0.053095754 0.028208615 0.029908484 0.09860848 0.0036080743 0.05981476 -0.033706468
-0.02208368 0.050265588 0.091090485 -0.02387911 -0.056592423 0.03281248 -0.053107258 0.055850532
-0.033509657 -0.020572044 0.053712882 -0.026251685 -0.0316021 -0.010099944 -0.04233027 -0.026412666
-0.010409857 -0.082445085 -0.061561935 -0.08046258 0.11477412 0.08020983 0.048234403 0.020978523
-0.02499951 0.029249044 0.029607063 -0.024276393 -0.0510261 0.015455229 -0.029187247 0.05518547
-0.046271216 -0.15079165 0.04459073 0.00013440251 0.056930482 0.0600786 0.005447052 -0.09681265
-0.08068348 -0.07106579 -0.09718906 0.03737273 0.034277856 0.046735823 -0.021968795 -0.09626453
0.09692932 -0.037815455 0.07894075 0.0043849344 0.0143003445 0.018598989 -0.069254026 0.046591092
0.01162735 0.057977077 -0.014233919 0.018593965 0.10810754 0.039272126 -0.008931781 -0.055378273
0.053608418 0.023365498 0.037543513 0.034384698 -0.1130393 0.102253385 0.029670263 -0.07775535
-0.06381252 0.062106024 0.054958176 0.014479699 0.0035780268 0.044573408 0.01146089 -0.118740596

conv1_4/W f4 [32, 64, 3, 3]
00000000: 36ff 8d3b 63c4 82bd bb93 88bd fadf 123d
00000010: adf9 823d eba0 93bb 4bc0 ca3b 9d4b 9cbc
00000020: 99a8 f03a 4ee3 23bd a9f2 bdbd 48eb 94bd
00000030: d8e5 903a e0fa 9f3d db9f 1d3c 2928 42bc
00000040: 5b6c 9e3d 2eac b33d 4237 9d3d 9913 ccbc
00000050: 5ecd 2abc 9122 973d b633 d73b 5220 7a3d
00000060: d27e d5bc 5de2 bfbc 9fc4 b53d edc7 423c
00000070: 8939 c9bd a208 4cbd fdc2 703c 14d6 68bd
00000080: 275a 1ebd 131b 1ebc 358e 57bc 585c 14bd
00000090: ea4e 94bc ead9 053d c100 6e39 79d7 7bbc
000000a0: a52d 39bc ca42 0fbc 9910 b63c a296 22bc
000000b0: 4170 833d 34fa 66bd d719 89bd ba93 0a3a
000000c0: d0eb f63b e31a 79bd 02fd 463d 124f 653c
000000d0: 3419 f23b 96e6 04bd 75bd 613c 6755 423d
000000e0: 8b29 3f3d 833e c3bd 2f99 bebb 7c20 503d
000000f0: c33f c7bc a4ba b73b 7018 aebc a233 3e3d
00000100: 89a0 a8bb 28e9 e439 0a43 9f3d b680 d53c
00000110: 444c 56bc 9357 973d 8024 34bd 6bc0 11bd
00000120: 388c 263c c5cf 50bd 7470 36bc d1f7 543c
00000130: a45a f1bc 574f b8bd b7c6 26bd 0930 193c
00000140: 841d 573d 61a2 503d e239 a43c 6801 e53c
00000150: 9b28 44bb 5538 f43c 34fb d8bd e462 603c
00000160: e9f4 c6bd 6e4a 68bd 2396 2ebd b87a 53bd
00000170: 8c9c 823c 3908 203d 391c 81bd 9e49 31bd
00000180: 5c92 eabc 6ae1 823a 44b8 31bb de77 af3d
00000190: 2931 b03b 1a73 4abd 9c7f 403c f96a 8dbd
000001a0: 964d 5c3c 9fd3 a2bc c63e 6b3c 7840 753b
000001b0: ac65 303d e198 7d3d 7cc5 1d3d 8161 fabc
000001c0: 2f47 7ebc 3d38 163b 9a9c a83d 6b70 773d
000001d0: aee7 a7bc 17cb 0f3d 7301 813d 0949 f3bb
000001e0: 81b6 743d 852a 8cbd 9b59 b0bb 9f00 903d
000001f0: 354c c53a 5d6d 0cbd b0db 543b a889 79bd
00000200: bac7 0f3d 8b36 db3d 1353 8a3c 9ff7 18bb
00000210: 8150 85bd 4278 8fbd c5ae 8d3d 2d4f b4bd
00000220: 720f 4a3d 2f63 88bc 41d5 b3ba 23e6 883b
00000230: dff9 92bb 9c70 93bd 441d 1abb 280a d8bc
00000240: a026 aa3a 3b78 79ba d92a 49bd 12f3 dd3c
00000250: 0626 303c 6680 223d 925c 46bd 06d2 51bd
00000260: 5b0d 55bd f9c5 93bd 0a4a 75bd bbca 903c
00000270: ea90 2a3c d7f8 9ebc 5f8d 22be eb2c 263b
00000280: c8e6 933d 4af9 193a 2f87 023b eda0 023d
00000290: 1dd6 3dbc 1b98 643d 8d1f 22bc e28e 61ba
000002a0: 15be b2bc c8b6 0d3d 2ffc 4a3d ae84 02bd
000002b0: e531 913d fcde b53b 5aa7 533d 6944 763d
000002c0: 8699 dd3c 2cf2 e2bc b126 91bd bcbb ab3c
000002d0: d505 64bd b6c3 8cbb 736f a2bc 6a54 e9bc
000002e0: c5c3 933c 0c66 86bd 402b 893b ac56 21bc
000002f0: cbe9 f63a b1ee 8c3d c572 6d3a 5ee9 3c3b
00000300: e46f 63bc 1c16 4cbc 3ec9 9a3c 878c 70bc
00000310: 0a3a d6bc fb79 0bbc f7ee d03c 3692 963c
00000320: f87a bbbc 50e1 8c3c ee54 0f3d c03a c03c
00000330: c88b 95bd 2cbf 253d 38c3 fd3d 33c0 273d
00000340: fabb 85bc 7953 b3bc c1b9 0abd dae3 04bd
00000350: 651e 7abc 7e69 26bd 9fda 42bc d611 74bd
00000360: 6f36 11bd 5576 bc3c 9824 a6bc ff50 38bd
00000370: 77a4 2b3d f1fc 513d d664 0c3c 6a69 2d3d
00000380: 4fc4 233c 843f 8c3b 45a6 16bd b29b 92bc
00000390: 312e 3bbd 8a50 0ebd f943 6fbd f220 c73c
000003a0: 4abf 9bbc 4000 a23a 9adb afbd 85ac 50bd
000003b0: 9eba 24bd 46ce b1bb 0872 e13c eb14 3dbb
000003c0: 0039 6cbc 3863 4b3c 9135 1ebc 6eaa 943c
000003d0: fd65 313d 5e1f 4f3d ac91 c13d b012 293c
000003e0: 2ad7 93bb 6ade cfb9 0a24 af3d 9d88 133d
000003f0: cb4f f3bc ad9f b23c 9f5a 4c3b 2552 ec3b
0.004333402 -0.06385114 -0.06668802 0.035858132 0.06395278 -0.004505267 0.006187474 -0.019079024
0.0018360793 -0.040011697 -0.092747994 -0.07271439 0.0011054827 0.078115225 0.009620632 -0.011850395
0.07735511 0.08773075 0.07676555 -0.024911689 -0.01042494 0.0737964 0.0065674437 0.06106598
-0.02606145 -0.023423368 0.08875393 0.011888486 -0.09825427 -0.04981292 0.014694926 -0.056844786
-0.038660195 -0.00965001 -0.013156463 -0.03622088 -0.018104035 0.032678522 0.0002269773 -0.015371197
-0.011302386 -0.008743951 0.022224711 -0.009923609 0.06417895 -0.056390956 -0.06694382 0.0005286295
0.0075354353 -0.060816657 0.04858113 0.013995903 0.0073882584 -0.032446466 0.01377808 0.047444727
0.046670478 -0.095334075 -0.0058166008 0.05081223 -0.024322396 0.005606966 -0.021251887 0.04643596
-0.0051460904 0.00043661264 0.077764586 0.02606235 -0.013079707 0.0738975 -0.04398012 -0.035583895
0.010165267 -0.050979394 -0.011135209 0.012998537 -0.029462166 -0.08999508 -0.040716853 0.009349831
0.052518383 0.050936107 0.020047132 0.027954772 -0.002993143 0.029812017 -0.10594788 0.013695452
-0.09714682 -0.056711607 -0.04262365 -0.051630706 0.015943788 0.03907034 -0.06304211 -0.043283097
-0.028634243 0.0009985392 -0.0027117888 0.08567785 0.005376954 -0.049426176 0.011749174 -0.06905169
0.013446232 -0.0198763 0.014358228 0.003742246 0.04306571 0.061913375 0.038518414 -0.030564072
-0.015519901 0.0022921704 0.082329944 0.060409945 -0.020496216 0.03510579 0.062991045 -0.007424478
0.05974436 -0.068440475 -0.0053817756 0.070313685 0.0015052619 -0.034283984 0.0032479577 -0.060922295
0.035102583 0.107037626 0.016885316 -0.0023340953 -0.065094955 -0.07005359 0.069181 -0.08804164
0.049331136 -0.016648857 -0.0013720171 0.004177825 -0.0044853534 -0.07199213 -0.0023515979 -0.02637203
0.0012981482 -0.0009516512 -0.04911313 0.027093444 0.010751253 0.03967323 -0.048428126 -0.051225685
-0.05201469 -0.07215495 -0.059885062 0.017674794 0.010410527 -0.019405765 -0.15874241 0.0025356363
0.072217524 0.0005873634 0.0019917001 0.031891752 -0.011586693 0.05580912 -0.009895218 -0.000860436
-0.021819154 0.034598142 0.049556907 -0.031864814 0.07089595 0.0055502634 0.05167327 0.060123835
0.027050745 -0.027703367 -0.07087458 0.020963542 -0.055669624 -0.0042957915 -0.019828534 -0.028482635
0.018037686 -0.06562433 0.004186064 -0.009847324 0.0018837986 0.06881464 0.00090579345 0.002882562
-0.013881657 -0.012456443 0.018894788 -0.014681942 -0.026150722 -0.008512969 0.025504572 0.018380266
-0.022885785 0.017197281 0.034993105 0.023465514 -0.07302052 0.04046552 0.12390751 0.04095478
-0.016324986 -0.021890389 -0.033868555 -0.03244386 -0.015266036 -0.04062795 -0.011892944 -0.059587322
-0.035452303 0.023005644 -0.020281121 -0.04499912 0.041904893 0.051266614 0.008568963 0.04233686
0.009995534 0.0042800326 -0.03677966 -0.017896507 -0.04569835 -0.034744777 -0.058414433 0.024307702
-0.019012112 0.0012359694 -0.085868075 -0.050945777 -0.040217035 -0.005426201 0.027520195 -0.002885158
-0.014417887 0.012413792 -0.009656326 0.018147673 0.043310154 0.050567023 0.09451613 0.010319397
-0.0045117335 -0.00039647828 0.08551796 0.036018956 -0.029701134 0.021804655 0.0031181944 0.007211941

bn1/avg_mean f4 [64]
00000000: 0901 ff39 f67d 24bd 3edb 923d 7ae1 96bd
00000010: c461 3c3d c3c4 893d ac3d eeba 734a c4bc
00000020: 42be ce3d 64cf 803d b298 c1bd e660 32bd
00000030: ff52 a0bd 6c5f 2fbd 5bf8 cdbd 0d44 dfbc
00000040: 1817 0dbd 81e8 c43d 9534 c73c d41c 19be
00000050: 09d0 a9bc ce9d a4bd 4969 a33d 36ef e0bd
00000060: 9c08 ae3c c644 eabd 3cbb 8dbd 11c5 b43c
00000070: c6d1 6abd c51b a8bc b53d 7ebd e401 86bd
00000080: 39da 8e3d 50eb 873d 817d 9fbd 1191 c6bd
00000090: ae19 2b3d 2ba7 f9bc 5ae3 cd3c 8049 063d
000000a0: b013 6f3d b991 92bd a8ee dbbd e717 89bd
000000b0: 1094 6b3d c7d6 98bd 9b5e 4ebd 1bda b8bd
000000c0: 2834 4e3d 5748 ab3c bd3d 533d 4ccb c7bd
000000d0: b29e b9bc 7e31 ae3d 000a 0bbe 3d37 64bd
000000e0: b4d5 0c3d 7f87 7fbd 08a2 ddbc 8d11 163d
000000f0: ff43 68bd 64b5 febd 1696 923d e73b e9bc
0.0004863816 -0.04015919 0.071707234 -0.07367225 0.045991674 0.067269824 -0.0018176339 -0.023961281
0.100948825 0.062895566 -0.094529524 -0.04354944 -0.0782833 -0.04281561 -0.10057136 -0.027254129
-0.034445852 0.09614659 0.024317065 -0.14952403 -0.020729082 -0.08037911 0.07979066 -0.10983126
0.02124434 -0.11438899 -0.06920478 0.022066625 -0.05732896 -0.020521054 -0.062070567 -0.06543329
0.069752164 0.06636679 -0.0778761 -0.09695638 0.041772537 -0.03047522 0.025132824 0.03278494
0.058368385 -0.07156701 -0.107388794 -0.06694012 0.05751425 -0.074628405 -0.05038319 -0.09025975
0.05034271 0.020908518 0.05157255 -0.09755573 -0.02265868 0.08505534 -0.13578033 -0.05571674
0.03438349 -0.06238508 -0.027054802 0.03663783 -0.05670547 -0.12436941 0.07157533 -0.028470946

bn4/beta f4 [32]
00000000: 6af1 5cbc 5713 d63d 559c 613c f48a 1f3d
00000010: 2142 8f3c 1bee 9f3d c55f a73d ccc6 763d
00000020: 895d be3b 338c c83d 552d b63d 06ac 5c3d
00000030: 97ed d53c 6c89 a33c 726c 8b3d 5d1f de3c
00000040: f9f3 c33d c6ce 963c ee8f a93d 5c43 943d
00000050: afa8 7b3d 3bd6 b03d 1e76 213c d6e6 cd3c
00000060: e0eb 473d 30b6 2c3d ad86 a83c cf17 a03d
00000070: f9b8 d83d 4aa8 c6ba 3c88 923d 4dc1 a23d
-0.013485292 0.104529075 0.013770183 0.038950875 0.017487587 0.07809087 0.081725635 0.06024818
0.00580949 0.09792366 0.08895365 0.05387499 0.026114268 0.019962989 0.06807794 0.027114565
0.095680185 0.018409144 0.082794055 0.0723941 0.061440166 0.08634611 0.0098548215 0.025134485
0.048808932 0.042165935 0.02057203 0.07817041 0.10582156 -0.0015156355 0.07154891 0.079470254

conv1_2/W f4 [64, 64, 3, 3]
00000000: 75a5 3dbd 883c 983d d206 c83c 889d 3f3d
00000010: 34fe c7bc 6747 7fbd 54f2 4f3c 898a 7bbb
00000020: 005e bbbd ee46 803d 7f2c f4ba e4cd 953d
00000030: 5f14 a7bc 5bf3 da3c ecfc 513d 5f01 51bd
00000040: a227 4bbd e9e2 15bd 3195 93bb facf 4ebd
00000050: aa3d 993d bfe1 7bbc 5ed7 253d c187 003d
00000060: 62e9 69bd 86e7 183d 8b46 b3bd 092a 21bd
00000070: 5d0b 9f3d 8526 e8bc f638 a3bc 857b a4bd
00000080: cd63 4cbd 123f dd3c df30 283c d003 14bc
00000090: f81b ecbc 050a 3d3c 465d 1dbd 8fe0 25bc
000000a0: 6d95 38bd 5a1f 14bc 6d9c 0c3d 7e5b 85ba
000000b0: 4d04 383d 1d54 d9bc 0ab7 13bd 5809 56bd
000000c0: 831d 02bc b1f1 fa3a 02ca a73c 47e3 c63d
000000d0: a808 a2bc 58c6 493d 54c7 193c 30be 8d3d
000000e0: 0f76 0d3c 9857 babc 67d1 8bbb a422 c1bd
000000f0: 69ab 903d a5ec 543d cc34 ad3b 2f8d 46bd
00000100: 6b95 0fbd 229a 943c 6603 1dbd 6674 9bbc
00000110: 383f 483d fe35 afbd 5ea9 f7b9 4ea2 59bd
00000120: 9ffd ccbc 553f 053d 09ef 713d 2783 2c3c
00000130: a5ec 64bd dbcd 0dbd 8086 433c a080 a0bc
00000140: 7878 7bbd 4e2e 65bd c6a8 8ebb 73f3 243c
00000150: b1e8 723d 78af c5bd e38f 443c 760c 363c
00000160: f7f6 7abd 6454 b63d 4a67 8bbc 3156 85bc
00000170: 1e78 05bd 9b8b 21bd 5157 033d 0d32 8f3d
00000180: 68e8 dbbc ae8a a93c ebfa 5dbc b69d 063d
00000190: bae1 0f3d 5946 e9bc 37aa 983b f5ee 98bd
000001a0: 9eb8 0a3d 85a8 373d 21ba d33b 4c6f 44bd
000001b0: ac2b 84bd 1ff1 8abd a59d 0dbd 899a 593a
000001c0: aa4f 263c 5a29 92bd 2a8a a53d 9c3e 4fbc
000001d0: 6d62 233d fdf9 84bd 8abb 64bc 7eb3 54bc
000001e0: 0359 74bd 73f1 c2bc e5d3 34bc 34d8 99bd
000001f0: d8cd 12bd 0f3e 2cbd acc2 85bc 0082 2f3c
00000200: 9b35 94bd 5e79 9f3c 0737 ddbc a588 9a3d
00000210: 1b50 d9bb 35a2 47bd db2e eb3d d92e 01bd
00000220: 579d 63bd b765 29bd 7943 92bc a942 2abd
00000230: 8ba1 2dbc 2f6b 84bd 9789 ebbc 9c8a ddbd
00000240: 6b49 07bc 40fb 08bd 5aab 47bc bdb4 29bd
00000250: 7438 05bd 078f edbd efa0 dd3b 8ff7 7e3c
00000260: 1e91 adbd 833f 8bbd 3c96 113c 9193 14bd
00000270: c700 3e3d 22d1 25bd 979c d83d 53cf 16bd
00000280: d1ff 93bd a247 fcbc 9ff5 88bc 6129 88bd
00000290: 057f 39bc 65ba 4bbc 53f4 05bd 8b83 85bd
000002a0: 4fa7 bb3c a1aa 8bbc 88ed adbd 0e4b bfbd
000002b0: dd5f adbd a168 59bd 621b c6bc 252c 703c
000002c0: 05c0 abbc 0c42 8cbd 61be 82bc b933 0abd
000002d0: 2fa0 debc 17d7 5ebd 2b1d 74bc b8c3 603c
000002e0: b647 00be 1fdc 19bd e860 a63c 2cac 7fbc
000002f0: 3524 893b 3116 7e3d 5181 0bbd d23d 5abc
00000300: abb8 693d 346a 39bd 3742 243d dfb8 ef3b
00000310: 5441 2e3b 6113 5c3d 3a23 99bd 60f1 013d
00000320: 5eb7 323d 5344 b0bd 7e7b ddbc 70e5 dbbc
00000330: ad34 8e3d 1f9b 343d 39fb 6dbd 729b 493d
00000340: 6ffb 87bc 19a7 653d 3267 9f3b a2ba e0bb
00000350: d2b0 cbbd 3046 9fbc 5c20 133c a93b 363d
00000360: 45d4 4bbb 0046 c4bc 8198 c43c 0064 813c
00000370: 3b64 773c a3e9 163d 2c0a 8ebd e978 87bd
00000380: 145b ee3c a3d0 c2bc a897 0d3d 815a a63d
00000390: eff7 dabc 0d0f 4b3d 1f61 87bc 565f abbd
000003a0: 9f7a 133c 51c9 273d cd85 4bbc 4cb6 243d
000003b0: fef9 733b 52dd d4bc 6a1f f53c 7219 cabd
000003c0: 3a74 0ebd 89a3 a53c 4b27 af3b 8b7d 1fbc
000003d0: 68d4 373d 82ce 7fbc 1037 0b3d 85af 23bd
000003e0: 5303 0a3d 2aa3 7f3c 8f53 013d edd6 b43c
000003f0: 4dfe 02bd 1529 143d 23d3 78bd 55e7 3bbc
-0.04630037 0.074334204 0.024417315 0.046781093 -0.024413206 -0.062323954 0.012692053 -0.0038382134
-0.091487885 0.06263529 -0.0018628984 0.07314661 -0.020395456 0.026727369 0.051266596 -0.0510267
-0.049598344 -0.03659335 -0.004503869 -0.05049131 0.074824646 -0.015373646 0.040488593 0.031379465
-0.057107337 0.037330173 -0.087536894 -0.03934673 0.07765839 -0.02833868 -0.019924622 -0.08031372
-0.049899865 0.027007613 0.010265558 -0.009034112 -0.02882193 0.011538033 -0.03841903 -0.01012434
-0.04506438 -0.009040678 0.034328867 -0.0010174362 0.044925977 -0.026529366 -0.03606323 -0.052255005
-0.007941606 0.0019145516 0.020482067 0.097113185 -0.019779518 0.04926142 0.009385902 0.06921041
0.008634104 -0.022746846 -0.004266906 -0.09430435 0.07063944 0.051983494 0.005285835 -0.048474487
-0.035054605 0.018139903 -0.03833332 -0.018976402 0.048888415 -0.0855522 -0.000472377 -0.0531333
-0.02502328 0.0325311 0.059065852 0.010529316 -0.055889744 -0.034620147 0.011933923 -0.019592583
-0.061394185 -0.055952363 -0.0043536155 0.010067808 0.059303943 -0.09652609 0.011997196 0.011111369
-0.06127068 0.08902815 -0.017017026 -0.01627645 -0.032585256 -0.03943978 0.032065693 0.06991968
-0.026844218 0.02069601 -0.013548593 0.03286525 0.03512738 -0.028475927 0.004658963 -0.074674524
0.03386747 0.044838447 0.0064613973 -0.047957703 -0.06453642 -0.067842714 -0.03457417 0.00083009206
0.010150829 -0.071367934 0.08082993 -0.012649205 0.039888788 -0.06492994 -0.013960728 -0.012982247
-0.0596552 -0.023796773 -0.011036848 -0.075119406 -0.03584084 -0.04205137 -0.016328178 0.010712147
-0.07236787 0.019467052 -0.027003778 0.07545594 -0.006631864 -0.048738677 0.11483546 -0.031538818
-0.055569973 -0.04135677 -0.01785444 -0.04156748 -0.010597597 -0.06465756 -0.028752131 -0.10817453
-0.00825725 -0.033442736 -0.0121868495 -0.04143213 -0.03252454 -0.11599546 0.0067635695 0.015561952
-0.084749445 -0.06799223 0.008885916 -0.036273543 0.04638746 -0.040482648 0.10576742 -0.036818814
-0.072265275 -0.030795876 -0.016718684 -0.066485174 -0.011321788 -0.012434577 -0.03270371 -0.065192305
0.022906927 -0.017049136 -0.08492571 -0.093404874 -0.0846555 -0.053078298 -0.024182979 0.014658962
-0.020965585 -0.06848535 -0.01595992 -0.033740733 -0.02717599 -0.054404344 -0.014899532 0.013718538
-0.12527356 -0.03756344 0.02030988 -0.015605014 0.0041852244 0.062032882 -0.034058873 -0.013320403
0.05706088 -0.0452673 0.04010221 0.0073157395 0.0026589232 0.05372942 -0.07477422 0.031724334
0.043631904 -0.08606782 -0.027036425 -0.026842803 0.06943641 0.044093248 -0.058100913 0.04922051
-0.016599385 0.05606756 0.0048645968 -0.006858186 -0.09945835 -0.019442648 0.008979883 0.04449049
-0.0031101864 -0.02395916 0.0239985 0.015794754 0.01509958 0.036843907 -0.06935534 -0.06614859
0.029096164 -0.023781126 0.03456846 0.08122731 -0.026729552 0.0495749 -0.016525803 -0.08367793
0.009001403 0.040963475 -0.012422037 0.040212914 0.0037227864 -0.02598444 0.029922206 -0.098681346
-0.03477881 0.020219581 0.0053452603 -0.009734522 0.0448803 -0.0156132 0.03398806 -0.03996231
0.033694576 0.015602866 0.03157383 0.02207514 -0.0319808 0.03617199 -0.06074823 -0.011468728

bn3/gamma f4 [64]
00000000: 86d0 833f 6c55 823f 3cf0 7f3f 62ff 7f3f
00000010: d62e 803f bcb8 823f 8cd2 833f 774b 823f
00000020: 8ea1 7d3f 3328 7e3f 6079 843f 1052 853f
00000030: 6a4b 7a3f 9012 843f 3e8f 7e3f f873 813f
00000040: 7855 823f a49e 7f3f bde4 7f3f a383 7e3f
00000050: 87a2 7c3f abbe 883f 7584 823f fad3 7c3f
00000060: fd2b 813f 76fc 813f 2d71 7d3f 3481 7e3f
00000070: f53d 813f 3f86 823f e6e1 803f 5bf9 863f
00000080: 787e 7d3f c238 7e3f 044e 7f3f 39dc 7c3f
00000090: 3c1c 7a3f 157b 7d3f 366a 783f c992 853f
000000a0: 873c 7a3f 77db 7a3f ba5a 7f3f a17e 823f
000000b0: 1873 7f3f 95ac 813f c782 7f3f 61b6 7d3f
000000c0: d880 7e3f ff18 823f c16a 813f 37d2 813f
000000d0: b984 843f 2e93 873f c67b 823f 2fd2 7e3f
000000e0: 7388 803f f54a 803f 17bd 7a3f 6b4f 843f
000000f0: 3714 833f 8e8a 7f3f 6300 803f 4082 803f
1.0298011 1.0182319 0.99975944 0.9999906 1.0014293 1.0212626 1.0298629 1.017928
0.9907464 0.9928009 1.0349541 1.0415668 0.9777132 1.0318165 0.9943732 1.0113516
1.0182333 0.9985144 0.999584 0.9941961 0.986855 1.0683187 1.0196673 0.9876095
1.0091549 1.015517 0.9900082 0.994159 1.0097033 1.0197219 1.0068939 1.0544847
0.990211 0.99305356 0.9972842 0.98773533 0.9769933 0.99015933 0.97037065 1.043542
0.9774861 0.97991127 0.9974781 1.0194894 0.99784994 1.0130793 0.99808925 0.99106413
0.9941535 1.0163878 1.0110704 1.0142277 1.0353004 1.0591791 1.0194023 0.99539465
1.0041641 1.0022875 0.9794478 1.0336736 1.0240544 0.9982079 1.0000118 1.0039749

conv1_7/W f4 [2, 32, 3, 3]
00000000: b2b4 ab3d 9769 c93c 029c 6f3d 6d94 38be
00000010: d5d2 45bd 0415 a1bc 6648 313d a5f2 9ebc
00000020: b4f5 15bd 1459 1dbd 64cb 48bd c541 8fbd
00000030: a01d 103e d754 cf3d 0fee 49bc 8f33 d93c
00000040: 7a93 babc 00a9 0e3e e868 6cbc bdce ef3c
00000050: 96a8 40bd 2d07 893c f401 953d 65af 0cbd
00000060: 2790 f63b da7a bf3d 395f 383e 1ce8 153d
00000070: 295b ad3d 0400 c0bc 9476 663d 6ca6 3a3c
00000080: 5f61 9b3d ecd9 2a3e 587e 0b3e d5fd c13d
00000090: a1bd acbd 1887 e0bc 7977 74bd 6d5f 663d
000000a0: daf1 203d 88b0 41bd 0887 443d f727 503d
000000b0: 14f2 ec3d 4db3 0d3e 95e6 4fbd 0f95 35bd
000000c0: 5ab5 223d 21b3 813e 133b a63d 5a3b a23d
000000d0: 1e36 d73d 8101 0fbd fbd2 943c 842b 953d
000000e0: 5c40 98bd 5524 d0bb 0bcb 393d 485c 8a3d
000000f0: 2694 e73d 091d 9b3d 1fb4 f43c e129 253d
00000100: 4471 2fbd e261 b93d 475c a4bc 8ff3 803d
00000110: d9c5 463d 2568 11bd ebdc 2e3d e73a 9bbc
00000120: bbe9 273d cc8d 9b3c 4720 35bd 1c7d 123d
00000130: b9f4 2cbd a358 67bd 9e2e e33c b7d2 05be
00000140: ada6 fd3d cbcc ddbd b0e0 9e3d 0fee 2d3e
00000150: dc92 113e f229 6f3d 93e1 2cbd 9781 373e
00000160: 446d eabd ac2b 253e 09d7 953d 28e9 af3d
00000170: 8f3d 933c 7f25 333e 2703 9f3d a22c 573d
00000180: c337 87bd a48b 5e3c 44f7 6f3d 1338 f03c
00000190: 42f6 ac3d 6057 1b3c 6340 983d 1ca1 81bd
000001a0: 829f 083d 46a7 f7bc bd08 b03c 7b80 dc3d
000001b0: ada6 d63c d6de 3bba b052 1d3d 2f3d 6e3d
000001c0: ecc3 333d 7174 db3d 48e7 31bd 9b38 e6bd
000001d0: dc99 313d 5586 103c 94ed 6f3d e786 893d
000001e0: c2f3 7e3d af2c 02bc 4771 a53c 316b 043d
000001f0: e54f 88bc 7d63 f73c 033c b03d 5cd8 ad3d
00000200: 9ce1 23be 47f1 0fbe c8fa 013d 7057 923d
00000210: 51ae 303d d4d3 b73d e178 e0bc 4519 3a3d
00000220: ad1c 1b3d b492 403d f396 1a3e adde 49bb
00000230: 0a73 9e3d 2ca7 8dbc 089b dfbd 172c 3a3d
00000240: c147 ca3d 70db 513d dadc f13d 6398 393e
00000250: 5211 273c 2a95 493d 4054 463b 3bf9 d5bc
00000260: 4028 1ebe a0e8 47bc 9baa f53c 4c17 f5bd
00000270: b31b 44bd 652c 4d3d e5d5 103d 898d e83c
00000280: c050 113d 1a92 563d 9ebc 523d dc11 463e
00000290: c78a 3c3d b734 133d 01fe 183e 181d 98bc
000002a0: 6748 ee3b ff48 033e d22e 0b3d 4c67 5abd
000002b0: dc51 94bc 7d50 c53d 4a3f 3cbd 67d7 4c3e
000002c0: 8191 843d f29e 3b3d 020c 313d 3df6 943d
000002d0: 9c44 e439 0300 a03d 96d6 6a3d 9245 5b3d
000002e0: b371 923d afed c239 942e df3d 8d17 bc3d
000002f0: 6798 2b3e 1127 993d 9745 563d e77d 3cbd
00000300: 78b0 92bd e815 eb3d 4ca6 293e 2282 a53d
00000310: 1af7 f23d 9dc7 c93d 966b dbbb c71f a33d
00000320: d220 27bd cb86 6b3d 0ed7 e8bd 1e81 f73c
00000330: b862 7d3b b4a4 69bd 95ae 63bc 0060 20bc
00000340: a8b1 57bc 059e 3abd fc14 ca3b 7c3f e33d
00000350: 2a46 46bd ea99 403d 947b 873c 0e59 ec3d
00000360: 0dea 8dbc ec2f 993d 1841 e43d e131 343e
00000370: e6d0 f13d 3311 eb3c a29b b63d 44a4 46bb
00000380: 1972 5e3a 1e7d fe3d 13bf 923d 4fa7 853d
00000390: 0b8b fd3d c163 b03c 1c4c 8d3d d4ec 083d
000003a0: 9c29 1abe f8f5 7dbc 7fbb 16bd 8c91 5e3c
000003b0: 8dde a43d 4da1 b4bd a27f a4bd b7e3 3bbc
000003c0: 7949 433d 7db7 07bd bad9 af3d 90b5 da3d
000003d0: 9ac7 673d eb82 d23d 344e 093d 70db ae3c
000003e0: 0f54 1c3d 49db 383d ff6c ab3d cc42 523c
000003f0: 79e8 0e3e 8dcc bfb8 a5ca 883d eb88 923d
0.08384074 0.024586482 0.05849839 -0.1802537 -0.04829677 -0.019663341 0.043281935 -0.019402811
-0.036611274 -0.03841503 -0.049022093 -0.069949664 0.14073801 0.10123604 -0.012324824 0.026513843
-0.0227754 0.13931656 -0.0144293085 0.029273385 -0.047035776 0.016727054 0.07275763 -0.034346957
0.0075245085 0.09349604 0.18005075 0.03659831 0.08464653 -0.023437507 0.05626543 0.011392217
0.075869314 0.16684693 0.13622415 0.09472243 -0.08434606 -0.027408168 -0.05968425 0.05624335
0.039293148 -0.047287494 0.04798034 0.050819363 0.1156961 0.13837929 -0.05075701 -0.044331606
0.03972373 0.25331977 0.08116736 0.07921477 0.10508369 -0.034913544 0.01816701 0.072836906
-0.074341506 -0.0063519874 0.045359652 0.067558825 0.11307554 0.075738974 0.029871045 0.040323142
-0.042832628 0.09051873 -0.020063533 0.06296455 0.048528526 -0.03549971 0.042691153 -0.018948985
0.040994387 0.018988512 -0.044220235 0.035763845 -0.042225573 -0.056481015 0.02773219 -0.13068663
0.123853065 -0.10830077 0.077576995 0.16985343 0.14216179 0.05838961 -0.04220731 0.17920528
-0.11446622 0.16129941 0.07316405 0.08589393 0.01797369 0.17494772 0.07764273 0.0525328
-0.066024326 0.013583098 0.05858542 0.029323613 0.084454075 0.009481281 0.07434156 -0.06329557
0.033355244 -0.03023113 0.021488542 0.10766693 0.026202524 -0.0007166689 0.038408935 0.058163818
0.043888018 0.10715569 -0.043433458 -0.112412654 0.043359622 0.00882109 0.05857618 0.06715184
0.062244184 -0.007945224 0.020195616 0.03232879 -0.01663966 0.030198807 0.08605196 0.08488533
-0.16004032 -0.14056884 0.031733304 0.07145584 0.04313499 0.0897595 -0.02740139 0.045434255
0.037869144 0.047014907 0.15096645 -0.003080289 0.07736786 -0.017291628 -0.10918242 0.045452204
0.09876967 0.051234663 0.11809702 0.18124537 0.010197001 0.04921452 0.003026262 -0.026119819
-0.15445042 -0.012201458 0.029988578 -0.11967334 -0.04787798 0.050091166 0.035360236 0.028387802
0.0354774 0.052385427 0.05144941 0.1934275 0.046030786 0.035938945 0.14940645 -0.01856856
0.0072718146 0.12820815 0.0339802 -0.053321168 -0.01810544 0.096344925 -0.045958795 0.20004044
0.06473065 0.04580588 0.043224342 0.07273529 0.00043538667 0.07812502 0.05733355 0.053533144
0.07150593 0.00037179652 0.10897556 0.091841795 0.16757356 0.074781545 0.05231246 -0.046018507
-0.07162565 0.11478788 0.16567343 0.080814615 0.11863537 0.09852526 -0.006696175 0.079650454
-0.040802784 0.057501595 -0.113691434 0.030212935 0.0038663577 -0.05704184 -0.013896604 -0.009788513
-0.013164915 -0.045560855 0.0061670523 0.11096093 -0.048406757 0.047021784 0.016538419 0.11540423
-0.017323518 0.074798435 0.11145228 0.17597152 0.11807422 0.028694725 0.08916403 -0.0030310312
0.000848563 0.12426208 0.07165351 0.06526052 0.12380036 0.021531941 0.06899282 0.033428982
-0.15054935 -0.015500538 -0.036799904 0.013584506 0.08050261 -0.08819828 -0.080321565 -0.011467866
0.04767749 -0.033133972 0.0858645 0.106791615 0.05658684 0.10278877 0.033521846 0.02134487
0.038166102 0.045131 0.08370399 0.012833308 0.13955869 -9.14569e-05 0.066792764 0.07155021
