loto6_cnn/model/loto6_20_610.model (npz, 468615 bytes, 38 tensors)

conv1_2/b f4 [64]
0	0xb8ffa7ac	-0.00012190579
1	0xb8ba3b76	-8.8802466e-05
2	0x38571d0e	5.1287054e-05
3	0xb9104ceb	-0.00013761564
4	0x3621c4b0	2.4105357e-06
5	0x38c441f9	9.358297e-05
6	0xb8214cb1	-3.8456816e-05
7	0xb93dde57	-0.00018107273
8	0x37cf32af	2.4699924e-05
9	0x39bf1424	0.00036445365
10	0xb82d3d4b	-4.1303498e-05
11	0xb9570600	-0.00020506233
12	0x378451bb	1.5773685e-05
13	0x37779980	1.4758087e-05
14	0xb76aa8a5	-1.39867525e-05
15	0xb8c5597e	-9.410361e-05
16	0xb7e9608e	-2.7820726e-05
17	0xb788c3e5	-1.6303684e-05
18	0x37f67395	2.9379307e-05
19	0xb6d8eb01	-6.4646597e-06
20	0x38b608c8	8.680072e-05
21	0x385c6536	5.2546347e-05
22	0x37371c1d	1.0914196e-05
23	0xb8cf6c3c	-9.8906894e-05
24	0xb84580aa	-4.7088288e-05
25	0xb79dc5b7	-1.8807927e-05
26	0xb6a3318f	-4.863548e-06
27	0xb7c810e5	-2.3849725e-05
28	0xb7bdf165	-2.2642964e-05
29	0x38de1faa	0.00010591683
30	0x37317487	1.0577153e-05
31	0xb5e4cb02	-1.7046407e-06
32	0x37951c4f	1.7775366e-05
33	0xb6de4c34	-6.624987e-06
34	0xb84b2c04	-4.8439964e-05
35	0xb90958c7	-0.0001309841
36	0x38ab7bab	8.17695e-05
37	0xb92e9de3	-0.0001665275
38	0x369fee42	4.766306e-06
39	0xb828f7a7	-4.0284966e-05
40	0x388f6348	6.837264e-05
41	0xb80499d0	-3.16145e-05
42	0x37be861c	2.2712215e-05
43	0xb7566a82	-1.2780192e-05
44	0x3767b507	1.3810822e-05
45	0x37cb41c9	2.423012e-05
46	0x3814396b	3.5339424e-05
47	0xb8a7b5e3	-7.9970596e-05
48	0xb7cd0d6c	-2.4444154e-05
49	0x380f9830	3.4235592e-05
50	0x3852f272	5.0293696e-05
51	0x37ec69cd	2.818266e-05
52	0x360a6372	2.0621487e-06
53	0x38422dc3	4.6295823e-05
54	0x391fd143	0.00015241378
55	0xb932550b	-0.00017007084
56	0xb9015ade	-0.0001233625
57	0xb68ad6c3	-4.137722e-06
58	0x38947c6c	7.080365e-05
59	0x3597560d	1.1275421e-06
60	0x36361683	2.7133217e-06
61	0x3843d064	4.66857e-05
62	0xb8ccf4d2	-9.7730794e-05
63	0xb7e18a89	-2.68866e-05

conv1_4/b f4 [32]
0	0x38ec1130	0.00011256558
1	0xb88e0776	-6.772477e-05
2	0xb994ed85	-0.00028405726
3	0x39266689	0.00015869191
4	0x3980c4c3	0.0002456066
5	0xb92bb99b	-0.00016376974
6	0x381eee46	3.7892045e-05
7	0x37d28ce0	2.509955e-05
8	0xb919b842	-0.00014659858
9	0xb748f694	-1.197834e-05
10	0xb98a8747	-0.000264222
11	0x37f60ad1	2.9330522e-05
12	0x37de904b	2.6531654e-05
13	0x38ba9923	8.897695e-05
14	0x390337d8	0.00012513937
15	0xb9103290	-0.00013751746
16	0xb90fc4cf	-0.0001371086
17	0xb5320057	-6.631066e-07
18	0x38f4fc4a	0.00011681819
19	0xb9855b22	-0.00025435636
20	0x38d2f500	0.00010059215
21	0xb8b1f148	-8.48496e-05
22	0xb8e10ef0	-0.000107316184
23	0x39d383cc	0.00040343252
24	0x35b97f32	1.3820593e-06
25	0xb716137f	-8.945236e-06
26	0xb7bee1c8	-2.2754903e-05
27	0xb811d981	-3.477326e-05
28	0xb8855a5f	-6.358767e-05
29	0xb8ea35c5	-0.00011168005
30	0xb897d935	-7.240699e-05
31	0xb905f511	-0.00012775163

bn4/avg_mean f4 [32]
0	0xbf0b8ffa	-0.54516566
1	0xc055ab0f	-3.3385656
2	0x3fdce8e4	1.7258573
3	0xc01ffc7b	-2.4997852
4	0xbd84e61e	-0.06489204
5	0xbfb60c26	-1.4222457
6	0xc0014db4	-2.0203676
7	0x3e582d40	0.21111012
8	0xbf28e639	-0.6597629
9	0xbf344aff	-0.70426935
10	0xc049fa54	-3.1559038
11	0xbfa0a677	-1.2550801
12	0xbda15b0e	-0.078786954
13	0x3ea8be05	0.32957473
14	0xbf968cb8	-1.1761694
15	0xc00f2a6d	-2.2369645
16	0xbf0fe7dd	-0.5621317
17	0xbf961b22	-1.172703
18	0xc0830f07	-4.0955844
19	0xc03c28a9	-2.9399817
20	0xbef90d8e	-0.48643154
21	0x3ca860cb	0.020553967
22	0xbdb880d0	-0.09008944
23	0xbff618e2	-1.9226344
24	0xbec995fe	-0.39372247
25	0xbf89fd3d	-1.0780407
26	0xbebd36fe	-0.36956018
27	0x3df026be	0.117261395
28	0xc0583342	-3.3781285
29	0x3f9f1229	1.2427417
30	0xbeb740a4	-0.35791504
31	0x3e9ee3cd	0.31033173

conv1_5/b f4 [32]
0	0xb8037159	-3.1338397e-05
1	0xb82161d2	-3.8476494e-05
2	0x38d439b9	0.000101196994
3	0xb89981c0	-7.319776e-05
4	0x393065c2	0.00016822576
5	0x38c0f6c7	9.201239e-05
6	0x380a7c94	3.3017786e-05
7	0x390dcae3	0.00013522389
8	0x38a7c52b	7.999906e-05
9	0x37fd7a27	3.0216832e-05
10	0xb8dfd069	-0.00010672288
11	0xb8358bee	-4.3284082e-05
12	0xb7ee6cb1	-2.8422424e-05
13	0xb989aea7	-0.00026260802
14	0x37a33edb	1.9460384e-05
15	0x3828fcea	4.0289866e-05
16	0x38a160dc	7.69512e-05
17	0xb860173e	-5.3427408e-05
18	0x3913ed32	0.00014107375
19	0xb8c27cb9	-9.273872e-05
20	0x3918c0b2	0.00014567634
21	0x37bc2f13	2.2433267e-05
22	0x38032fa7	3.1277214e-05
23	0x39a4a6d0	0.00031404803
24	0x38822206	6.2052204e-05
25	0x3a2d8de0	0.00066205673
26	0xb90fadae	-0.00013702243
27	0x39693057	0.0002223862
28	0xb8d2fd39	-0.00010060747
29	0x388f686e	6.838223e-05
30	0xb7ae6fed	-2.0794536e-05
31	0xb7c54f4a	-2.3521152e-05

bn5/avg_mean f4 [32]
0	0xbd40b3c1	-0.047046427
1	0xbe45391c	-0.19260067
2	0xbdcc779d	-0.09983752
3	0xbf2562a2	-0.64603627
4	0x3e083623	0.13301902
5	0xbf82724b	-1.019113
6	0xbebc93d5	-0.36831537
7	0x3ef54c2c	0.47909677
8	0xbde7734a	-0.113012865
9	0x3e2dfa08	0.1698991
10	0xbe80092f	-0.25007007
11	0xbef690e6	-0.48157424
12	0x3d446101	0.047944073
13	0xbeaffd66	-0.34373015
14	0xbe21ee79	-0.15813626
15	0xbd6b6342	-0.057467707
16	0x3edcaa06	0.43098468
17	0xbe4316f6	-0.19051728
18	0xbf5818ed	-0.84413034
19	0xbe89b65f	-0.2689695
20	0xbc9a4188	-0.018830076
21	0xbf097e71	-0.5370856
22	0xbec1faef	-0.3788676
23	0x3f27fb9a	0.6561829
24	0xbe803529	-0.25040558
25	0x3f46ed60	0.77705956
26	0xbe5f32b2	-0.21796682
27	0xbf19c824	-0.60071015
28	0xbe9927fe	-0.29913324
29	0x3d95c715	0.073133625
30	0xbef53788	-0.4789393
31	0xbe9d6c4d	-0.3074669

bn1/gamma f4 [64]
0	0x3f7a9f9f	0.9789981
1	0x3f7b0c68	0.98065805
2	0x3f80e9ee	1.007139
3	0x3f7f20ad	0.99659234
4	0x3f7856ab	0.97007245
5	0x3f811de6	1.0087249
6	0x3f7cdfc1	0.9877892
7	0x3f7d09e7	0.98843235
8	0x3f7ce919	0.9879318
9	0x3f7ff64d	0.999852
10	0x3f80d884	1.0066075
11	0x3f7f9eb2	0.99851525
12	0x3f7ded05	0.9918979
13	0x3f8001c0	1.0000534
14	0x3f7c73fe	0.9861449
15	0x3f82557a	1.0182335
16	0x3f7a5a15	0.97793704
17	0x3f7bd2b5	0.9836839
18	0x3f7ed948	0.99550295
19	0x3f8210b8	1.0161352
20	0x3f84eba7	1.0384415
21	0x3f80ea9d	1.0071598
22	0x3f808eb6	1.0043552
23	0x3f7f1d28	0.99653864
24	0x3f81e2ed	1.0147377
25	0x3f8006d2	1.0002081
26	0x3f7af795	0.9803403
27	0x3f7ebd60	0.99507713
28	0x3f792e96	0.9733671
29	0x3f7f0821	0.9962178
30	0x3f73d86d	0.95252115
31	0x3f7c7af7	0.9862513
32	0x3f7ab37a	0.9793011
33	0x3f817778	1.0114584
34	0x3f79149c	0.9729707
35	0x3f7d9940	0.99061966
36	0x3f8025a8	1.0011492
37	0x3f881199	1.063037
38	0x3f80fbf8	1.0076895
39	0x3f825a91	1.0183889
40	0x3f7b5fe4	0.9819319
41	0x3f791651	0.9729968
42	0x3f80520c	1.0025039
43	0x3f7a10e3	0.9768202
44	0x3f80cf6d	1.0063301
45	0x3f79d40e	0.97589195
46	0x3f80876e	1.004133
47	0x3f80ae03	1.0053104
48	0x3f7aad5d	0.9792078
49	0x3f7e061a	0.9922806
50	0x3f7c5474	0.98566365
51	0x3f8073ab	1.0035299
52	0x3f7cd45b	0.9876153
53	0x3f7759bc	0.966213
54	0x3f7cfe84	0.9882586
55	0x3f83972e	1.0280511
56	0x3f7a649e	0.9780978
57	0x3f776d30	0.9665098
58	0x3f7b4916	0.98158395
59	0x3f7c8dd0	0.9865389
60	0x3f79bbe7	0.9755234
61	0x3f82184c	1.0163665
62	0x3f7806d2	0.96885407
63	0x3f7b3e3e	0.9814185

conv1_3/b f4 [64]
0	0xb79c4977	-1.8630859e-05
1	0x37c6edbd	2.3714145e-05
2	0xb758642c	-1.2897926e-05
3	0xb7b7a4f3	-2.189211e-05
4	0x38352da5	4.3196273e-05
5	0x371a929c	9.21325e-06
6	0xb8dd270d	-0.00010545375
7	0x36dcad2d	6.5766712e-06
8	0x3834013d	4.2916497e-05
9	0x37d791b6	2.569785e-05
10	0x377a58a7	1.4921802e-05
11	0x384cadc9	4.879924e-05
12	0x37d5e5c5	2.5498573e-05
13	0x3881455e	6.16412e-05
14	0xb89f5f81	-7.5995e-05
15	0xb901ae9b	-0.00012367444
16	0xb6ee11dc	-7.095032e-06
17	0x3909a7f8	0.00013127911
18	0x3768ecb1	1.3883387e-05
19	0x382af32b	4.0757626e-05
20	0x37ebf56f	2.8128472e-05
21	0x38c4791a	9.368565e-05
22	0xb802e96d	-3.121181e-05
23	0x3689d463	4.1076432e-06
24	0x37aac564	2.0357496e-05
25	0x37c7e271	2.3828094e-05
26	0x3815f96b	3.5756657e-05
27	0x3852be53	5.0245155e-05
28	0xb7189fc6	-9.097106e-06
29	0x372dbe18	1.0355863e-05
30	0xb80422ab	-3.150354e-05
31	0x38ea7707	0.0001118016
32	0xb6d3d6e8	-6.3133084e-06
33	0xb7a7e181	-2.001296e-05
34	0xb80439c4	-3.152505e-05
35	0xb7d619d2	-2.5522811e-05
36	0x38ccae80	9.759981e-05
37	0xb708d3b2	-8.155521e-06
38	0xb60e4a13	-2.1202766e-06
39	0xb6a0e5b6	-4.7951135e-06
40	0xb7a152fe	-1.9231342e-05
41	0x38eb90c2	0.000112326365
42	0x384b0418	4.8402784e-05
43	0xb7878c17	-1.6158489e-05
44	0xb7daf5b8	-2.6102047e-05
45	0xb7a8474c	-2.006036e-05
46	0xb8b6207e	-8.6844884e-05
47	0xb7e890ed	-2.7724042e-05
48	0xb8d63355	-0.000102138765
49	0xb8027b26	-3.1109106e-05
50	0xb7d36a50	-2.5202666e-05
51	0xb8234172	-3.892318e-05
52	0x364860f5	2.9858759e-06
53	0xb82aca2a	-4.071944e-05
54	0xb81128d2	-3.460871e-05
55	0x38079d01	3.233273e-05
56	0x389571b3	7.126052e-05
57	0xb76ccc08	-1.4114201e-05
58	0xb8ce9d20	-9.852112e-05
59	0xb75d0f90	-1.317625e-05
60	0xb7d82494	-2.576624e-05
61	0x37ac7f9e	2.0563424e-05
62	0xb7c1331e	-2.3031196e-05
63	0x389fb022	7.614518e-05

bn2/avg_var f4 [64]
0	0x3ed3262b	0.41240057
1	0x3f40f95a	0.7538048
2	0x3ee2048b	0.4414409
3	0x3f1e691f	0.6187915
4	0x3f192f51	0.59837824
5	0x3ed7f869	0.4218171
6	0x3ef4d017	0.4781501
7	0x3ed2ceb3	0.41173324
8	0x3ee1fae2	0.4413672
9	0x3edab7e6	0.42718428
10	0x3f0bbb9a	0.5458313
11	0x3ef93c16	0.48678654
12	0x3ee78fa7	0.45226786
13	0x3ee4dd07	0.4469988
14	0x3e8e0d17	0.27744362
15	0x3f27aee9	0.65501267
16	0x3f177f41	0.5917855
17	0x3eb223c6	0.34792918
18	0x3eca9423	0.39566144
19	0x3f8a7fd0	1.0820255
20	0x3eadfe93	0.33983287
21	0x3ebbab1b	0.3665398
22	0x3ebb53d1	0.36587384
23	0x3f04e20a	0.5190741
24	0x3ed68701	0.41899875
25	0x3ebd8014	0.37011778
26	0x3f2603f8	0.64849806
27	0x3f44fdc0	0.7694969
28	0x3f23551a	0.6380173
29	0x3f2a2010	0.66455173
30	0x3f0a34a3	0.5398657
31	0x3eb99649	0.3624747
32	0x3f5039a0	0.8133793
33	0x3f43c85f	0.7647762
34	0x3f0c0aa6	0.5470375
35	0x3f2420e4	0.6411269
36	0x3ebbcdb1	0.36680368
37	0x3e9a5d1d	0.30149165
38	0x3f20e344	0.6284678
39	0x3e9307e8	0.2871697
40	0x3eda1ecc	0.4260162
41	0x3e8c6ded	0.27427617
42	0x3f0fa9b4	0.5611832
43	0x3f0c3bc2	0.54778683
44	0x3f095d6a	0.53658164
45	0x3ee1907f	0.44055554
46	0x3f012dde	0.5046061
47	0x3ec18e90	0.3780408
48	0x3f16f5a2	0.58968556
49	0x3f0c7013	0.5485851
50	0x3f36fe3d	0.71481687
51	0x3ec0c7bc	0.37652385
52	0x3ed5b324	0.41738236
53	0x3ef36518	0.47538066
54	0x3ec4375e	0.38323492
55	0x3f39eebe	0.72629917
56	0x3f022784	0.50841546
57	0x3ef226ea	0.47295314
58	0x3f2ccf90	0.67504215
59	0x3ecd0736	0.40044564
60	0x3e9ecf54	0.31017554
61	0x3ef78b42	0.48348433
62	0x3f0b45bc	0.5440328
63	0x3efc8466	0.49319762

bn2/gamma f4 [64]
0	0x3f83820e	1.0274065
1	0x3f77ba73	0.96768874
2	0x3f78bd8b	0.9716422
3	0x3f7bf584	0.984215
4	0x3f7ef91b	0.99598855
5	0x3f82d2ec	1.0220618
6	0x3f7e96fd	0.9944914
7	0x3f7768b6	0.9664415
8	0x3f7ae2f2	0.9800254
9	0x3f7c8e80	0.9865494
10	0x3f7a80d5	0.9785283
11	0x3f82ff09	1.023408
12	0x3f7ccaf9	0.9874721
13	0x3f7fc35a	0.9990746
14	0x3f802408	1.0010996
15	0x3f7e1a5a	0.9925896
16	0x3f78f3c3	0.9724695
17	0x3f7e061b	0.99228066
18	0x3f7b49fe	0.9815978
19	0x3f7c6526	0.9859184
20	0x3f83b8f3	1.0290817
21	0x3f7cf337	0.98808616
22	0x3f80640c	1.0030532
23	0x3f80e600	1.007019
24	0x3f81a57b	1.0128626
25	0x3f851fea	1.0400364
26	0x3f789782	0.9710618
27	0x3f800752	1.0002234
28	0x3f837970	1.0271435
29	0x3f78aeeb	0.97141904
30	0x3f7e5241	0.9934426
31	0x3f7f5c8b	0.99750584
32	0x3f7b05e2	0.9805585
33	0x3f7f067f	0.9961929
34	0x3f7d2649	0.98886544
35	0x3f82de8b	1.0224165
36	0x3f7e09b3	0.9923355
37	0x3f7d9b03	0.99064654
38	0x3f792b71	0.9733191
39	0x3f77d9c4	0.9681666
40	0x3f81691f	1.0110205
41	0x3f7e39b3	0.9930679
42	0x3f7e31b3	0.99294585
43	0x3f7f736b	0.9978549
44	0x3f80bd03	1.0057682
45	0x3f806029	1.0029346
46	0x3f81d9c3	1.0144581
47	0x3f8123e6	1.008908
48	0x3f7e7ac6	0.9940609
49	0x3f82978e	1.0202501
50	0x3f7e3d99	0.9931274
51	0x3f823a75	1.017409
52	0x3f7808b4	0.9688828
53	0x3f84675b	1.0344042
54	0x3f7ebb60	0.9950466
55	0x3f7a6283	0.97806567
56	0x3f809b9e	1.0047491
57	0x3f7e21fc	0.99270606
58	0x3f78f85e	0.9725398
59	0x3f8a8898	1.0822935
60	0x3f7d74a7	0.9900612
61	0x3f810630	1.0080013
62	0x3f76e3b4	0.964412
63	0x3f833b87	1.0252541

conv1_1/b f4 [64]
0	0x3833c7b9	4.2862932e-05
1	0x3807c708	3.237187e-05
2	0x38cb8f8d	9.706533e-05
3	0x3746f68a	1.18591215e-05
4	0xb8aa3eac	-8.117905e-05
5	0x38a05d38	7.646758e-05
6	0xb8cb57ef	-9.696173e-05
7	0x36bf56fb	5.7023694e-06
8	0xb9ad884a	-0.00033098675
9	0xb8829a63	-6.22764e-05
10	0x37e6978e	2.748871e-05
11	0x352ae7ba	6.366714e-07
12	0x3828efa1	4.0277493e-05
13	0x3846920c	4.7342895e-05
14	0xb8d57e26	-0.000101801284
15	0xb7d99381	-2.5937103e-05
16	0x38a067d8	7.648737e-05
17	0x38fd29cf	0.000120717676
18	0xb8993cb0	-7.3069124e-05
19	0xb8ac0e4c	-8.204262e-05
20	0x383b82d5	4.470612e-05
21	0x378a4162	1.6481328e-05
22	0xb7cb568f	-2.4239793e-05
23	0x39148025	0.00014162117
24	0x3839d364	4.430431e-05
25	0x38269351	3.9714683e-05
26	0x379d29d0	1.8735329e-05
27	0x381f4222	3.7970145e-05
28	0x38a98517	8.083338e-05
29	0x37db6122	2.6152065e-05
30	0x38e81d52	0.000110680834
31	0xb885be64	-6.377397e-05
32	0x38d15461	9.9816134e-05
33	0x38237db0	3.8979284e-05
34	0xb916fca8	-0.00014399237
35	0xb8b77818	-8.748489e-05
36	0xb934b486	-0.00017233388
37	0xb780f3f1	-1.5372383e-05
38	0xb82d298c	-4.1285108e-05
39	0x389a7821	7.365668e-05
40	0x3783e9e0	1.5725323e-05
41	0x3933bc4a	0.00017140913
42	0xb8c7e67b	-9.53199e-05
43	0x36454161	2.9393343e-06
44	0xb8b8e1f3	-8.81589e-05
45	0x37ee776b	2.842742e-05
46	0x38296085	4.038263e-05
47	0x36d3cae5	6.31191e-06
48	0x37a52f15	1.9691457e-05
49	0xb648a958	-2.9900893e-06
50	0x38c8529b	9.5521296e-05
51	0x37e1685a	2.6870683e-05
52	0x37cd5ecd	2.448205e-05
53	0xb8a84f88	-8.025678e-05
54	0xb9a6d35f	-0.0003181947
55	0x3792b3d9	1.7488304e-05
56	0x380b163c	3.316089e-05
57	0x382d96f7	4.138701e-05
58	0x38162298	3.5795005e-05
59	0x384820cf	4.771427e-05
60	0x3828d390	4.0251354e-05
61	0xb86ba347	-5.618043e-05
62	0xb939e929	-0.00017729834
63	0x369de704	4.7058584e-06

bn1/avg_var f4 [64]
0	0x3dfda861	0.12385631
1	0x3ebe1a72	0.3712955
2	0x3e1c9ea2	0.15294889
3	0x3ea5f435	0.32412878
4	0x3ec75361	0.389308
5	0x3e763b89	0.24046148
6	0x3ea83793	0.328549
7	0x3eb299d1	0.34882978
8	0x3e04665d	0.12929673
9	0x3e80b8bf	0.2514095
10	0x3ede80a5	0.43457523
11	0x3ecd41aa	0.4008916
12	0x3ec912c0	0.39272118
13	0x3e3a4e49	0.18193926
14	0x3e458e61	0.19292594
15	0x3ecec0b0	0.40381384
16	0x3def9614	0.11698547
17	0x3f00f75a	0.5037743
18	0x3eb695a3	0.3566104
19	0x3e617ad6	0.22019514
20	0x3e8905c7	0.2676222
21	0x3e8b75e6	0.27238387
22	0x3e903016	0.28161687
23	0x3e1805f4	0.14846021
24	0x3e84a3c7	0.25906202
25	0x3e593cb2	0.2121456
26	0x3e4d1cd3	0.20030527
27	0x3eae66c4	0.3406278
28	0x3e71809f	0.23584221
29	0x3f06bb2a	0.5262934
30	0x3dda38d3	0.106553696
31	0x3eaac900	0.33356476
32	0x3ddf0847	0.10890251
33	0x3eaa4792	0.3325773
34	0x3e656c27	0.22404538
35	0x3e8a7e52	0.270495
36	0x3e6e0b18	0.2324642
37	0x3e0f8465	0.14015348
38	0x3ebcbd5c	0.3686322
39	0x3eaf4088	0.3422892
40	0x3e833f4f	0.25634238
41	0x3dbd8e2f	0.09255635
42	0x3df240fe	0.118288025
43	0x3e557f3e	0.2084932
44	0x3dcd2f58	0.10018796
45	0x3e316eaa	0.17327371
46	0x3f017fc4	0.5058558
47	0x3e5517da	0.2080988
48	0x3eab21c3	0.33424196
49	0x3ee053f9	0.43814066
50	0x3e478694	0.19484931
51	0x3e07a3a1	0.13246013
52	0x3ed344b9	0.4126337
53	0x3e813631	0.25236657
54	0x3e2fd263	0.171701
55	0x3dd62687	0.10456567
56	0x3e6fed4d	0.23430367
57	0x3eb8c316	0.3608634
58	0x3f0a9e11	0.5414744
59	0x3efa1455	0.48843637
60	0x3e224056	0.15844855
61	0x3e7d5f03	0.24743275
62	0x3e9621e8	0.29322743
63	0x3e1dcafe	0.15409467

bn2/beta f4 [64]
0	0x3cda2781	0.026630165
1	0xbc96a6f0	-0.018390149
2	0xbc592f55	-0.013255914
3	0x3a23658a	0.0006233087
4	0x3c092580	0.008370757
5	0x3cc23b46	0.023709904
6	0x3c419d59	0.0118173
7	0xbcabad6d	-0.02095672
8	0xbb6bd559	-0.003598532
9	0xba9f2935	-0.0012143018
10	0x3c57e7ab	0.013177793
11	0x3cdfe575	0.027331093
12	0xbbfce1e5	-0.0077173584
13	0x3d35d8c4	0.044396177
14	0x3be79628	0.0070674606
15	0x3b8c321a	0.0042784335
16	0xbc8c07fa	-0.017093647
17	0x3cd478a9	0.025936441
18	0x3b3eb4e0	0.002909951
19	0x3bcbcbca	0.006219362
20	0xba1d3875	-0.00059974875
21	0xbbec5b4a	-0.007213031
22	0xbca3d5b4	-0.019999363
23	0x3cfffcef	0.031248538
24	0x3d0dedca	0.0346506
25	0x3d296a22	0.04136098
26	0xbbccf85e	-0.0062551936
27	0x3ba00b0a	0.0048841285
28	0x3d34d19a	0.044145204
29	0xbc7e302b	-0.015514414
30	0x3ca5a089	0.02021815
31	0x3c9e93e3	0.019357627
32	0xba8b1528	-0.0010611163
33	0x3c584e7a	0.013202304
34	0x38c63149	9.450556e-05
35	0xbc80c7b9	-0.015720235
36	0x3c92e730	0.017932504
37	0x3bd84728	0.0066002794
38	0xbce7d788	-0.028301015
39	0x3c1bfd52	0.0095208455
40	0x3cc45e45	0.023970732
41	0xbb8ae0a6	-0.004238206
42	0x3b282df3	0.0025662153
43	0x3c8daa9e	0.01729327
44	0xba67f6a1	-0.0008848701
45	0x3c38baac	0.011274975
46	0x3c878e69	0.016547399
47	0x3c791372	0.01520239
48	0x3c248d33	0.01004343
49	0x3d1115d1	0.035421196
50	0xbb9450f8	-0.004526254
51	0x3c4ec488	0.012620099
52	0xbcfe4d27	-0.031042648
53	0x3c418020	0.011810333
54	0xbb4b5df6	-0.0031031347
55	0xbbdb90c4	-0.006700607
56	0x3cf18438	0.029481992
57	0x3a924d63	0.0011161979
58	0xbbb23859	-0.005438846
59	0xbd0e0b18	-0.03467855
60	0x3c3598be	0.01108378
61	0xbc1ecfe5	-0.009693121
62	0xbce7eb93	-0.028310573
63	0x3cd5f9ca	0.026120085

bn4/gamma f4 [32]
0	0x3f807da4	1.0038342
1	0x3f912427	1.1339158
2	0x3f827fdd	1.0195271
3	0x3f878a94	1.0589166
4	0x3f86c48d	1.0528733
5	0x3f8cb5d2	1.0992987
6	0x3f8ccee6	1.100064
7	0x3f8b6e71	1.0893079
8	0x3f84fc5e	1.0389516
9	0x3f8d98ea	1.1062291
10	0x3f8b3784	1.0876317
11	0x3f864d04	1.0492253
12	0x3f877ecc	1.058557
13	0x3f831b9a	1.0242798
14	0x3f8b897d	1.0901333
15	0x3f845f72	1.0341628
16	0x3f8f31e6	1.1187103
17	0x3f8955a2	1.0729258
18	0x3f8f114b	1.1177152
19	0x3f8bfccf	1.0936526
20	0x3f87b6ac	1.0602622
21	0x3f8c32c9	1.0952998
22	0x3f888456	1.0665386
23	0x3f85df1d	1.0458714
24	0x3f85e478	1.0460348
25	0x3f871365	1.0552794
26	0x3f930e79	1.1488792
27	0x3f89d6f4	1.0768723
28	0x3f8ee7e6	1.116452
29	0x3f84c903	1.0373844
30	0x3f8dada2	1.1068614
31	0x3f86c651	1.0529271

conv1_7/b f4 [2]
0	0x3d2fa2e3	0.04287995
1	0x3bac6847	0.0052614543

conv1_6/W f4 [32, 32, 3, 3]
0	0xbcb96cb6	-0.022634845
1	0xbc221dbe	-0.009894786
2	0x3d432512	0.047642775
3	0xbb16379c	-0.002292133
4	0xbc9a8a75	-0.01886485
5	0x3dc6f044	0.09713796
6	0x3cbc59c9	0.022992032
7	0xbbeaef57	-0.007169645
8	0x3d5e2cdc	0.054242
9	0x3dcbe155	0.09955088
10	0xbd98da91	-0.07463563
11	0x3db0e268	0.086369336
12	0xbaef05d0	-0.0018235985
13	0xbcd9e605	-0.02659894
14	0x3cdc2e75	0.026877621
15	0x3af01728	0.0018317448
16	0x3b80b499	0.003927779
17	0xba3a8b9d	-0.0007116141
18	0x3d902354	0.07037988
19	0xbc8f58b9	-0.017498361
20	0x3d85fc76	0.06542294
21	0x3c9b827c	0.018983118
22	0x3dd29436	0.10282175
23	0x3c770ffc	0.015079495
24	0xbd334adb	-0.04377256
25	0x3c3ec341	0.011643232
26	0xbd2b19e8	-0.041772753
27	0xbd4d670d	-0.050147105
28	0x3c34668a	0.011010775
29	0x3bde0a31	0.0067761173
30	0xbd82334a	-0.06357439
31	0x3db9cd04	0.09072307
32	0x3dadab40	0.08479929
33	0xbc2e690c	-0.010645162
34	0x3cfb02db	0.03064101
35	0x3db70e3a	0.089382604
36	0xbccd4750	-0.025058419
37	0xbd4075d2	-0.046987362
38	0xbd5d7120	-0.054062963
39	0xbdaaa16e	-0.083315715
40	0x3b77c379	0.003780572
41	0xbd90c130	-0.070680976
42	0xbce88691	-0.028384479
43	0xbc8a6e5a	-0.016898323
44	0xbd783f92	-0.0606075
45	0xbdd1979a	-0.10233994
46	0xbdb8ba3b	-0.09019896
47	0xbc07d14b	-0.008289645
48	0xbc061f57	-0.008186183
49	0xbd33c7a5	-0.043891568
50	0xbd96f079	-0.07370085
51	0x3a4d9192	0.0007841821
52	0xbd3b4d40	-0.04572797
53	0xbd7dc802	-0.06195832
54	0x3d9a834f	0.075445764
55	0xbc017167	-0.007900572
56	0xbd4f5d66	-0.05062618
57	0xbd7dac7f	-0.061932083
58	0xbd39e0a2	-0.045380242
59	0xbd6e2546	-0.058141015
60	0xbc577b18	-0.013151906
61	0xbd5d0b89	-0.05396608
62	0xbc119fad	-0.008888167
63	0xbd3c5f04	-0.04598905
64	0x3df7ae88	0.12093836
65	0x3ce026ab	0.027362188
66	0xbdf41b4c	-0.11919269
67	0x3bafd32e	0.0053657508
68	0xbcef8fbb	-0.02924334
69	0x3d723a8c	0.059137866
70	0xbdc3b887	-0.0955668
71	0x3d447d3c	0.047970995
72	0xbc9104ea	-0.017702539
73	0x3c480e81	0.012210489
74	0x3db3e9cc	0.087848276
75	0x3b3130eb	0.0027037214
76	0xbd936919	-0.0719778
77	0xbace244c	-0.001572737
78	0x3ca50a17	0.020146413
79	0x3d64ab98	0.055827707
80	0xbd9575ec	-0.072978824
81	0x3d84878c	0.06471166
82	0xbd848af1	-0.064718135
83	0x3cdfd26c	0.027322017
84	0x3c84bbde	0.016202863
85	0x3d7d04aa	0.061772026
86	0x3d1f0780	0.038825512
87	0x3cd0276c	0.025409423
88	0xbe01af44	-0.12664515
89	0xbd9dcea6	-0.07705431
90	0x3b85d82a	0.0040846067
91	0x3c998186	0.01873852
92	0xbd3ccfd9	-0.046096656
93	0xbcc44fbc	-0.023963802
94	0xbce4f26a	-0.027947623
95	0xbd1c77ef	-0.038200315
96	0x3c39c090	0.011337414
97	0x3d7212bb	0.059099894
98	0xbd09a43f	-0.033603903
99	0xbb92db4a	-0.0044817077
100	0xbdda2199	-0.106509395
101	0x3cc816f0	0.024425
102	0x3d812acc	0.06306991
103	0x3d4ceb6c	0.050029203
104	0x3c93efe0	0.018058717
105	0x3cb2e375	0.021836976
106	0x3dc4bd05	0.09606365
107	0xbc915262	-0.017739478
108	0xbc50230e	-0.01270367
109	0x3d8eaf97	0.06967085
110	0xbd07d124	-0.033158436
111	0x3e0b16e3	0.1358295
112	0xbbcd942d	-0.0062737674
113	0x3d398a62	0.045297988
114	0x3d833336	0.06406252
115	0x3adfe303	0.0017081205
116	0x3c784640	0.015153468
117	0xbe084d8a	-0.13310829
118	0x3d6056a8	0.05477014
119	0x3ce9ad47	0.028525008
120	0xbd6b3056	-0.057419144
121	0xbdbc2eb1	-0.09188593
122	0xbda9e54f	-0.0829569
123	0x3d748273	0.05969472
124	0x3c2edf4a	0.010673353
125	0xbdb479f6	-0.08812325
126	0xbc35b4bb	-0.011090453
127	0xbd15acc4	-0.036541715
128	0xbd1329a5	-0.035928387
129	0xbbfbdaf7	-0.0076860148
130	0x3d92ccf8	0.07168001
131	0xbc2dcec5	-0.01060838
132	0xbd18adc5	-0.037275095
133	0x3cb158d7	0.021648807
134	0xbcdbdd0d	-0.026838804
135	0xbc7305c6	-0.014832919
136	0xbd083f3e	-0.033263437
137	0xbd35c9c3	-0.044381868
138	0xbdd2817a	-0.10278602
139	0xbd8a1a1f	-0.067432635
140	0x3e0814bf	0.13289164
141	0xbd03bfff	-0.032165524
142	0x3b8e546c	0.00434356
143	0xbd8456de	-0.06461881
144	0x3d9e180d	0.07719431
145	0xbcbe84ad	-0.023256624
146	0xbd54e54e	-0.051976494
147	0x3cbdbad2	0.023160372
148	0x3d266fbf	0.040633913
149	0xbdaf6e6b	-0.085659824
150	0xbde60b95	-0.11232678
151	0xbdbe6ad6	-0.09297721
152	0x3d81bf4b	0.06335314
153	0x3d40be84	0.04705669
154	0xbdd979d5	-0.10618941
155	0x3d61fc79	0.055172417
156	0x3d3b8e31	0.0457899
157	0xbdef3c76	-0.11681454
158	0x3db6c439	0.08924145
159	0x3cc7265b	0.024310282
160	0x3c506d15	0.01272132
161	0x3d5e5698	0.0542818
162	0xbd6f2e08	-0.05839351
163	0xbbd74c21	-0.0065703546
164	0x3d23b4bf	0.039967295
165	0x3dad04d4	0.084481865
166	0xbd75c542	-0.060002573
167	0x3d03f888	0.03221944
168	0xbcb72328	-0.022355631
169	0xbd5b85e9	-0.053594504
170	0x3cefe3bb	0.029283395
171	0x3ceff494	0.029291429
172	0x3dd3f019	0.10348529
173	0x3c1b3bca	0.009474704
174	0x3d609e6f	0.054838594
175	0xbd037cb2	-0.03210134
176	0xbca16f02	-0.019706253
177	0x3d3f5dc9	0.0467203
178	0x3dabf8f0	0.083970904
179	0xbca35431	-0.019937607
180	0xbd82dd6b	-0.063898884
181	0x3d02e3e5	0.03195562
182	0xbd40c290	-0.04706055
183	0x3d44b0c6	0.048020147
184	0xbd17cde7	-0.0370616
185	0xbc97ecad	-0.018545473
186	0x3d4602ea	0.048342623
187	0xbce37e2e	-0.027770128
188	0xbcf517e4	-0.029918619
189	0xbc5b4d33	-0.013385105
190	0xbd3d36eb	-0.046194952
191	0xbcaf6a80	-0.021413088
192	0xbc76f338	-0.015072636
193	0xbdae7dd4	-0.085200936
194	0xbd742942	-0.05960966
195	0xbda0d09c	-0.07852289
196	0x3de93db7	0.11388724
197	0x3da6df3a	0.08148046
198	0x3d772384	0.060336605
199	0x3cb60b99	0.022222327
200	0xbcd59a28	-0.026074484
201	0x3cfd58fc	0.03092622
202	0x3d17634b	0.036959928
203	0xbc7d119c	-0.015446093
204	0xbd824455	-0.063606896
205	0x3ccd6db5	0.025076726
206	0xbcda053e	-0.026613828
207	0x3d6f8eec	0.05848591
208	0xbd0cf4cd	-0.034413148
209	0xbe130d1a	-0.14360467
210	0x3d474930	0.04865378
211	0x3c7157bb	0.014730389
212	0x3d86393e	0.06553887
213	0x3d76f290	0.06028992
214	0x3c04e16e	0.008110387
215	0xbdb8e34c	-0.090277284
216	0xbda4e82a	-0.08052094
217	0xbd8aa47d	-0.06769655
218	0xbdc3aaa5	-0.09554032
219	0x3d12dea0	0.035856843
220	0x3d15ec70	0.036602437
221	0x3d48fbd5	0.04906829
222	0xbcabce46	-0.020972382
223	0xbdbb4c5e	-0.09145425
224	0x3dca14c4	0.09867242
225	0xbd1936e2	-0.037405856
226	0x3daec0dc	0.08532879
227	0x3c23811e	0.009979514
228	0x3c8baacb	0.017049214
229	0x3cadbced	0.02120825
230	0xbd6a0e74	-0.05714269
231	0x3d3b8c0c	0.045787856
232	0x3c539e1e	0.012916116
233	0x3d935ea5	0.071957864
234	0xbbb3b4cb	-0.0054841987
235	0x3c92d3db	0.017923286
236	0x3ddbb0b8	0.10727066
237	0x3d3a1cae	0.045437507
238	0x39e35f59	0.00043367854
239	0xbd504c62	-0.050854094
240	0x3d54ae9d	0.051924337
241	0x3ce23092	0.02761105
242	0x3d1db818	0.038505644
243	0x3d07e4c0	0.033177137
244	0xbde36a70	-0.11104286
245	0x3dd62080	0.10455418
246	0x3ce8efc9	0.028434651
247	0xbd9e301a	-0.077240184
248	0xbd847f26	-0.06469564
249	0x3d788d21	0.060681466
250	0x3d651b1b	0.055934053
251	0x3c8bd86a	0.017070968
252	0x3b8b8e90	0.004258938
253	0x3d5a95bc	0.053365454
254	0x3cb3abe9	0.02193256
255	0xbdfc8911	-0.12330831

conv1_4/W f4 [32, 64, 3, 3]
0	0x3bc62316	0.006046663
1	0xbd7c7b5c	-0.061641082
2	0xbd855101	-0.06509591
3	0x3d127496	0.035755716
4	0x3d868318	0.06567973
5	0xbac9785b	-0.0015370952
6	0x3bd1c7ca	0.0064019905
7	0xbc9f4230	-0.01944074
8	0x3b4ec611	0.0031551162
9	0xbd2a45b6	-0.041570388
10	0xbdbfd107	-0.09366041
11	0xbd90a455	-0.07062594
12	0xbaadf369	-0.0013271394
13	0x3d9c2781	0.07624722
14	0x3c43ac24	0.011942897
15	0xbc63f9f2	-0.013914572
16	0x3d9f7981	0.07786847
17	0x3db5a963	0.088701986
18	0x3d997e75	0.07494823
19	0xbcd588fd	-0.026066298
20	0xbc219f04	-0.009864572
21	0x3d927bfc	0.071525544
22	0x3bf553b5	0.0074867853
23	0x3d8327cf	0.06404077
24	0xbd04fdc4	-0.032468572
25	0xbcbb98e3	-0.02290005
26	0x3db8c95e	0.09022783
27	0x3c311977	0.010809294
28	0xbdc742fc	-0.09729573
29	0xbd466629	-0.04843727
30	0x3c622d06	0.01380468
31	0xbd7af34a	-0.061267175
32	0xbd175d16	-0.036954008
33	0xbc29e72b	-0.010370056
34	0xbc5e741c	-0.013577487
35	0xbd0fbc01	-0.035091404
36	0xbc91c350	-0.017793328
37	0x3d0c3780	0.034232616
38	0x3b01f44a	0.0019829446
39	0xbc8fa450	-0.017534405
40	0xbc42e4db	-0.011895384
41	0xbbb1d83a	-0.0054273875
42	0x3cac8fbf	0.021064637
43	0xbc28f6c2	-0.010312738
44	0x3d86114f	0.0654627
45	0xbd748889	-0.059700523
46	0xbd87d4bb	-0.06632372
47	0x3b9ce182	0.004787625
48	0x39bf486e	0.00036484323
49	0xbd81e08d	-0.06341658
50	0x3d530dcb	0.051526826
51	0x3c58ffd6	0.01324459
52	0x3ba40e11	0.0050065597
53	0xbcef4d35	-0.02921162
54	0x3c31659e	0.01082745
55	0x3d4894d5	0.048970062
56	0x3d4c0e43	0.04981829
57	0xbdc38c91	-0.09548295
58	0xbbf9d81b	-0.0076246387
59	0x3d50d04d	0.0509799
60	0xbcc7a4e0	-0.02437061
61	0x3b661336	0.0035106665
62	0xbca1d014	-0.01975254
63	0x3d3c9631	0.04604167
64	0xbbe3db71	-0.0069536497
65	0x39579923	0.00020561046
66	0x3d9e941f	0.077430956
67	0x3cdc6956	0.026905697
68	0xbc3fc7d2	-0.011705356
69	0x3d96286d	0.07331929
70	0xbd3eb80b	-0.046562236
71	0xbd10ce66	-0.035353087
72	0x3c2d961b	0.01059487
73	0xbd4fde43	-0.050749075
74	0xbc0e997e	-0.008703588
75	0x3c106463	0.008812997
76	0xbcf9b4d1	-0.030481728
77	0xbdb3c777	-0.08778279
78	0xbd326c90	-0.043560565
79	0x3bffaeb2	0.0078028077
80	0x3d5c9fd8	0.053863376
81	0x3d499c32	0.049221225
82	0x3c9eeed2	0.019400988
83	0x3cdbc0d1	0.02682534
84	0xbb8feb94	-0.004392097
85	0x3cebe376	0.028794985
86	0xbdd484c7	-0.10376888
87	0x3c1f62b0	0.009728119
88	0xbdc65617	-0.09684389
89	0xbd60081b	-0.05469523
90	0xbd1a71ab	-0.03770606
91	0xbd4a4710	-0.049384177
92	0x3c872f33	0.016501999
93	0x3d1a90db	0.0377358
94	0xbd63f230	-0.05565089
95	0xbd2665a9	-0.040624294
96	0xbce99000	-0.028511047
97	0x3b132f25	0.002245852
98	0xbac6f836	-0.0015180174
99	0x3dac83a7	0.08423548
100	0x3bd6d926	0.006556648
101	0xbd3b655a	-0.045750953
102	0x3c21be61	0.00987205
103	0xbd92cd43	-0.07168057
104	0x3c68b759	0.01420387
105	0xbcabc6cd	-0.020968819
106	0x3c5a599b	0.013327028
107	0x3b808740	0.003922373
108	0x3d32c37c	0.04364346
109	0x3d7cfb2e	0.06176298
110	0x3d1ee7ff	0.038795467
111	0xbcf14061	-0.029449644
112	0xbc75e9e6	-0.015009379
113	0x3b10c72a	0.0022091367
114	0x3da64b93	0.081198834
115	0x3d73fc7f	0.05956697
116	0xbca279d2	-0.01983348
117	0x3d0fb3f3	0.035083722
118	0x3d81c733	0.06336822
119	0xbbca2a0c	-0.006169563
120	0x3d73fef8	0.05956933
121	0xbd88a04e	-0.06671201
122	0xbbb532a4	-0.0055297185
123	0x3d8f94a0	0.0701077
124	0x3b833107	0.0040036472
125	0xbd0bc7e6	-0.034126185
126	0x3b20fde9	0.0024565405
127	0xbd70a3c0	-0.058749914
128	0x3d194663	0.03742064
129	0x3dd3c2ef	0.10339915
130	0x3c9c5afb	0.019086352
131	0x3b0761db	0.0020657692
132	0xbd8b9a20	-0.068165064
133	0xbd90d42b	-0.07071718
134	0x3d93657c	0.07197091
135	0xbdac4937	-0.08412402
136	0x3d4bedcc	0.049787328
137	0xbc77c896	-0.015123507
138	0xb9cc2464	-0.00038937025
139	0x3b9f275f	0.0048569883
140	0xbb63d2bd	-0.003476306
141	0xbd9422c9	-0.07233197
142	0xbb41b6b3	-0.002955836
143	0xbccd8390	-0.025087148
144	0xbad8b317	-0.0016532865
145	0xb999584e	-0.00029248226
146	0xbd3ef243	-0.046617758
147	0x3cd11a8e	0.025525358
148	0x3c271f25	0.0102002965
149	0x3d310662	0.043218978
150	0xbd4b3f1b	-0.04962073
151	0xbd52fd03	-0.051510822
152	0xbd485325	-0.048907418
153	0xbd937d31	-0.07201613
154	0xbd7ca589	-0.061681304
155	0x3c97aeb0	0.018515915
156	0x3bf1a8be	0.007374852
157	0xbcb978f3	-0.02264068
158	0xbe23087e	-0.15921208
159	0x3b0295c9	0.0019925705
160	0x3d8f28ee	0.069902286
161	0x3981e586	0.00024775806
162	0x3b11163c	0.0022138497
163	0x3cff48f4	0.031162716
164	0xbc39adcd	-0.011332941
165	0x3d61bbd0	0.055110753
166	0xbc2cbbcc	-0.010542821
167	0xb6598ad2	-3.2416324e-06
168	0xbcba08ce	-0.022709277
169	0x3d01fe7e	0.031736843
170	0x3d4de051	0.050262753
171	0xbd0215bf	-0.03175902
172	0x3d95b1c7	0.07309299
173	0x3bd59f08	0.006519202
174	0x3d474b59	0.04865584
175	0x3d818b14	0.06325355
176	0x3d004c53	0.03132279
177	0xbcf03479	-0.029321896
178	0xbd8f52e7	-0.06998234
179	0x3cb77e7e	0.022399183
180	0xbd635db2	-0.055509277
181	0xbbb0bb16	-0.005393396
182	0xbca5bb60	-0.020230949
183	0xbcf4719b	-0.029839328
184	0x3c948a13	0.018132245
185	0xbd86c517	-0.06580561
186	0x3acdc2ad	0.0015698277
187	0xbc1eefc0	-0.009700716
188	0x3b244f7d	0.0025071793
189	0x3d96dd87	0.07366472
190	0x3b35fdd4	0.0027769702
191	0x3b5611c2	0.0032664393
192	0xbc8b59e4	-0.017010637
193	0xbb4ddbfc	-0.0031411638
194	0x3caf6de6	0.021414708
195	0xbc82b99b	-0.015957644
196	0xbcac637b	-0.02104353
197	0xbbe82b59	-0.0070852456
198	0x3cf6177f	0.0300405
199	0x3c9c6784	0.019092329
200	0xbcb4569f	-0.02201396
201	0x3c737a98	0.014860772
202	0x3d192608	0.037389785
203	0x3ce812aa	0.028329212
204	0xbda07216	-0.0783426
205	0x3d265d98	0.0406166
206	0x3e0170f3	0.12640743
207	0x3d25491c	0.040352926
208	0xbc81e7eb	-0.015857657
209	0xbcac9dcd	-0.021071339
210	0xbd0731b3	-0.03300638
211	0xbd0dd46b	-0.034626406
212	0xbc81f0a6	-0.01586182
213	0xbd20f703	-0.03929807
214	0xbc5f9a61	-0.013647647
215	0xbd744202	-0.059633262
216	0xbd0d6d7a	-0.034528233
217	0x3cc2c2df	0.023774562
218	0xbc8c407b	-0.01712059
219	0xbd2e2384	-0.04251434
220	0x3d24ad9c	0.04020463
221	0x3d5c3dfd	0.053770054
222	0x3c056b40	0.008143246
223	0x3d271c72	0.040798612
224	0x3c4bdbd6	0.01244255
225	0x3b56a932	0.0032754657
226	0xbd17da79	-0.037073586
227	0xbc83e2a4	-0.016099282
228	0xbd37ada2	-0.044843324
229	0xbd196945	-0.03745391
230	0xbd6d804a	-0.057983674
231	0x3ccb3ef0	0.024810284
232	0xbc970003	-0.018432623
233	0x3ac8294e	0.0015271099
234	0xbdaf1c3d	-0.08550308
235	0xbd4ed640	-0.050497293
236	0xbd2516aa	-0.040304817
237	0xbbc24e74	-0.0059297625
238	0x3cc72873	0.02431128
239	0xbaf08c42	-0.0018352347
240	0xbc6952c8	-0.014240928
241	0x3c338f62	0.010959478
242	0xbc1b1198	-0.009464644
243	0x3cbd97d6	0.02314369
244	0x3d325f62	0.043547995
245	0x3d4abce4	0.049496546
246	0x3dc0962e	0.094036445
247	0x3c46787d	0.012113688
248	0xbba0032d	-0.004883191
249	0xb9d69ff9	-0.0004093645
250	0x3daee651	0.08540023
251	0x3d133099	0.03593502
252	0xbcece3d5	-0.028917233
253	0x3cbb419e	0.022858437
254	0x3bb794e9	0.0056024683
255	0x3b9ad66d	0.0047252686

bn1/avg_mean f4 [64]
0	0x3bc3b844	0.005972894
1	0xbd5052f4	-0.05086036
2	0x3d881d64	0.06646231
3	0xbd94ebf8	-0.0727157
4	0x3d379d47	0.044827726
5	0x3d7a5b5c	0.061122283
6	0xbc94e70d	-0.01817658
7	0xbcadd2fb	-0.021218767
8	0x3db7db22	0.08977343
9	0x3d7b9f40	0.06143117
10	0xbdd922c4	-0.10602334
11	0xbd6d88eb	-0.057991903
12	0xbda07e5f	-0.078366034
13	0xbd26e820	-0.040748715
14	0xbdc667be	-0.09687756
15	0xbd025a9a	-0.031824686
16	0xbcfc3998	-0.030789182
17	0x3dca066b	0.098645054
18	0x3ca3b0d9	0.019981788
19	0xbe1257a5	-0.14291246
20	0xbc1ca48a	-0.009560714
21	0xbda65c0b	-0.081230246
22	0x3daa2f18	0.08309764
23	0xbdf6e2b4	-0.12054959
24	0x3caa216a	0.020767886
25	0xbe016478	-0.12635982
26	0xbd81a2d7	-0.06329887
27	0x3c8b122a	0.016976435
28	0xbd5aaccd	-0.053387452
29	0xbcad631b	-0.021165421
30	0xbd714607	-0.058904674
31	0xbd9bbab0	-0.07603967
32	0x3d851576	0.06498234
33	0x3d935fa4	0.071959764
34	0xbd9f0b31	-0.077658065
35	0xbdd79f84	-0.10528472
36	0x3d20170b	0.039084475
37	0xbc7ba4d3	-0.015359121
38	0x3cb4a7f5	0.022052744
39	0x3cd76ee2	0.02629799
40	0x3d5bd1ff	0.053667065
41	0xbd9240ed	-0.0714129
42	0xbded0f95	-0.11575238
43	0xbd9590ca	-0.07303007
44	0x3d6b9a2d	0.05752008
45	0xbdaf6958	-0.085650146
46	0xbd6a998b	-0.057275336
47	0xbdbd5c1c	-0.09246084
48	0x3d3a2706	0.045447372
49	0x3ca7bbf0	0.020475358
50	0x3d3ce5e6	0.046117686
51	0xbdc79aca	-0.097463205
52	0xbcec363f	-0.02883446
53	0x3d9a5c99	0.07537193
54	0xbe11f351	-0.14252974
55	0xbd73294c	-0.059365556
56	0x3cb0a66f	0.021563737
57	0xbd942c3e	-0.07235001
58	0xbcc0a04c	-0.023513936
59	0x3d1d85e9	0.038457785
60	0xbd76e038	-0.060272425
61	0xbe05e5e4	-0.13075978
62	0x3d8ee6c4	0.06977609
63	0xbd036e31	-0.03208751

bn4/beta f4 [32]
0	0xbc123fe6	-0.008926367
1	0x3e11ad25	0.14226206
2	0x3cc2d6df	0.0237841
3	0x3d52baee	0.0514478
4	0x3cc4291b	0.023945382
5	0x3dd5bbe1	0.10436226
6	0x3dedd264	0.116123945
7	0x3db3fc19	0.08788318
8	0x3c80e5f9	0.01573466
9	0x3df80423	0.12110164
10	0x3dea11cc	0.11429176
11	0x3d8d00ee	0.06884943
12	0x3d1b733a	0.037951685
13	0x3d0a34f1	0.033741895
14	0x3dca2b7d	0.09871576
15	0x3d4cfcf9	0.05004594
16	0x3df99016	0.12185685
17	0x3d583fc3	0.052795183
18	0x3ddbc887	0.10731607
19	0x3dbc6147	0.09198242
20	0x3da08bdb	0.07839175
21	0x3dddf0ee	0.10836969
22	0x3ca52a3d	0.020161742
23	0x3d0aba36	0.03386899
24	0x3d6aeb73	0.057353448
25	0x3d6ae884	0.05735065
26	0x3d35834e	0.044314675
27	0x3ddb4e99	0.10708351
28	0x3e1253f8	0.14289844
29	0x3c42ffca	0.011901805
30	0x3db54f53	0.088530205
31	0x3df43318	0.11923808

conv1_2/W f4 [64, 64, 3, 3]
0	0xbd4c5a07	-0.049890544
1	0x3d9f8718	0.07789439
2	0x3cb0a509	0.02156307
3	0x3d430243	0.04760958
4	0xbcd8e4e0	-0.026476324
5	0xbd72b3f2	-0.05925364
6	0x3bc9bca3	0.0061565205
7	0xbac72904	-0.0015194719
8	0xbdbb1358	-0.09134549
9	0x3d78bc96	0.060726725
10	0xbb413ded	-0.0029486374
11	0x3d91fa26	0.0712779
12	0xbcc136c9	-0.023585694
13	0x3cd94464	0.026521869
14	0x3d58a613	0.052892756
15	0xbd4d6582	-0.050145634
16	0xbd521529	-0.05128971
17	0xbd1bdd62	-0.038052924
18	0xbc143d3f	-0.009047805
19	0xbd5d496e	-0.054025106
20	0x3d956bc7	0.072959475
21	0xbc8a9bb6	-0.016919952
22	0x3d1f5519	0.038899515
23	0x3d0ac460	0.033878684
24	0xbd5871c7	-0.05284288
25	0x3d0f655a	0.035008766
26	0xbdb2a813	-0.08723464
27	0xbd35402e	-0.04425066
28	0x3d99ed28	0.07515937
29	0xbce43567	-0.027857495
30	0xbc80a86d	-0.015705312
31	0xbdb01951	-0.08598579
32	0xbd5065b5	-0.050878245
33	0x3cd00977	0.025395138
34	0x3c6f60f5	0.014610519
35	0xbc5981b8	-0.013275556
36	0xbce016e5	-0.027354667
37	0x3c3aa509	0.0113918865
38	0xbd27b6dc	-0.040945873
39	0xbc15b66c	-0.009137731
40	0xbd2f0f53	-0.042739224
41	0xbc11fd9f	-0.008910566
42	0x3d09fe49	0.03368977
43	0xbb04c025	-0.0020256129
44	0x3d38fe51	0.04516441
45	0xbcbcc927	-0.023045136
46	0xbd171c3a	-0.036892153
47	0xbd50be14	-0.050962523
48	0xbb82cabd	-0.0039914534
49	0x3b2d04b4	0.0026400508
50	0x3c9787ed	0.018497432
51	0x3dc72a3a	0.09724851
52	0xbc919026	-0.01776893
53	0x3d35a549	0.04434708
54	0x3bdab57b	0.006674466
55	0x3d8898d1	0.066697724
56	0x3c196513	0.009362477
57	0xbc97dadf	-0.018536983
58	0xbbd1351b	-0.0063845045
59	0xbdb274b2	-0.08713664
60	0x3d9516b7	0.07279723
61	0x3d4f5def	0.05062669
62	0x3b9c14b9	0.0047632125
63	0xbd448875	-0.047981698
64	0xbd12be05	-0.035825748
65	0x3c84ca20	0.016209662
66	0xbd24b746	-0.040213846
67	0xbca3c91b	-0.019993355
68	0x3d475836	0.04866811
69	0xbdb8b807	-0.090194754
70	0x3a0cb6a7	0.00053677935
71	0xbd658db1	-0.05604333
72	0xbccaf807	-0.024776472
73	0x3cf1e7d1	0.029529484
74	0x3d584ebb	0.05280946
75	0x3c4fe5f4	0.012689102
76	0xbd4c4f69	-0.04988042
77	0xbd02ae17	-0.031904306
78	0x3c50de6c	0.012748342
79	0xbcb69730	-0.022288889
80	0xbd8096b6	-0.06278746
81	0xbd6a65c2	-0.05722595
82	0xbb4fb123	-0.0031691275
83	0x3c0a2892	0.008432524
84	0x3d77c1db	0.06048761
85	0xbdc3db4f	-0.09563314
86	0x3c3c531f	0.011494427
87	0x3c390779	0.0112932855
88	0xbd7de139	-0.061982367
89	0x3db45a34	0.088062674
90	0xbc9d6138	-0.019211397
91	0xbc91f52f	-0.017817108
92	0xbcf852ac	-0.030312859
93	0xbd13690b	-0.03598885
94	0x3d0d6a72	0.034525342
95	0x3d8faabd	0.070149876
96	0xbcd78dc0	-0.026312709
97	0x3cb90bbd	0.022588605
98	0xbc4901d3	-0.012268501
99	0x3d0a3388	0.03374055
100	0x3d10ba4f	0.035333928
101	0xbce9ba3d	-0.028531188
102	0x3b3283dc	0.002723924
103	0xbd99da49	-0.07512338
104	0x3d02e9e1	0.031961326
105	0x3d406a8a	0.046976604
106	0x3bfe2df0	0.007756941
107	0xbd516a61	-0.05112684
108	0xbd87ec1e	-0.06636833
109	0xbd8cb7c3	-0.06870987
110	0xbd09268b	-0.033484023
111	0xbb9767a5	-0.0046205097
112	0x3c832eec	0.016013585
113	0xbd91614d	-0.07098637
114	0x3da23294	0.07919803
115	0xbc21477f	-0.009843706
116	0x3d25e088	0.040497333
117	0xbd848481	-0.064705856
118	0xbc678481	-0.0141307125
119	0xbcad2036	-0.021133523
120	0xbd7acf45	-0.061232824
121	0xbcb549b0	-0.022129864
122	0xbbefdf5f	-0.007320329
123	0xbd973964	-0.07383993
124	0xbd0f644f	-0.03500777
125	0xbd3995e0	-0.045308948
126	0xbca89617	-0.02057938
127	0x3bf33571	0.007422142
128	0xbd8b1fd1	-0.06793178
129	0x3cb98b99	0.022649573
130	0xbce9c021	-0.028533997
131	0x3d9505fd	0.07276533
132	0xbb06f876	-0.0020594872
133	0xbd37fc1c	-0.044918165
134	0x3def2f91	0.116789944
135	0xbd03dd8a	-0.032193698
136	0xbd517e72	-0.05114598
137	0xbd1ce9cc	-0.038308904
138	0xbcaaafa2	-0.020835701
139	0xbd13bf1b	-0.036070924
140	0xbc430dea	-0.011905173
141	0xbd82f787	-0.06394868
142	0xbcdc8bfb	-0.026922217
143	0xbdd92227	-0.10602217
144	0xbc1d8961	-0.009615273
145	0xbd1e3160	-0.038621306
146	0xbc0a4ba2	-0.008440884
147	0xbd20471b	-0.03913031
148	0xbd0e58c7	-0.034752633
149	0xbde726ee	-0.11286722
150	0x3c0b9ac4	0.008520786
151	0x3c5c77c4	0.013456289
152	0xbda7e7c0	-0.081985
153	0xbd8d647c	-0.069039315
154	0x3c10c468	0.008835889
155	0xbd159cb0	-0.036526382
156	0x3d33d880	0.043907642
157	0xbd1fdc7a	-0.039028622
158	0x3dd499cd	0.10380898
159	0xbd0f7c8e	-0.035030894
160	0xbd953398	-0.07285231
161	0xbd00fcf5	-0.03149124
162	0xbc8f1527	-0.01746614
163	0xbd8c7552	-0.068583146
164	0xbc65ea1e	-0.014032869
165	0xbc7fbaa2	-0.015608462
166	0xbd0b0c20	-0.03394711
167	0xbd86e49c	-0.065865725
168	0x3cd65994	0.026165761
169	0xbc7812f8	-0.015141241
170	0xbda92891	-0.082596906
171	0xbdbb0095	-0.091309704
172	0xbdb08f94	-0.08621135
173	0xbd50b4f3	-0.050953817
174	0xbca2fd33	-0.019896125
175	0x3c3cad65	0.01151595
176	0xbcba7fe2	-0.022766057
177	0xbd7fe856	-0.062477432
178	0xbc7fc3a3	-0.015610608
179	0xbd03aff8	-0.03215024
180	0xbceecb9f	-0.029149828
181	0xbd6e3c7d	-0.058163155
182	0xbc9c90c4	-0.019111998
183	0x3c2f25fb	0.010690208
184	0xbe031d42	-0.1280413
185	0xbd181e89	-0.037138496
186	0x3caad4bd	0.020853395
187	0xbc7012e3	-0.01465294
188	0x3b5ca354	0.0033666687
189	0x3d88ec94	0.06685749
190	0xbd0fcdcc	-0.035108373
191	0xbc17bde9	-0.009261587
192	0x3d5603eb	0.05224983
193	0xbd33477a	-0.043769337
194	0x3d391f42	0.045195825
195	0x3c34a8fe	0.011026619
196	0x3b5510a7	0.0032511146
197	0x3d5844c1	0.052799944
198	0xbda5dc00	-0.08098602
199	0x3cea1df8	0.028578743
200	0x3d2f9cf5	0.042874295
201	0xbdb2823f	-0.08716249
202	0xbcd93bf5	-0.026517848
203	0xbcfc3031	-0.030784698
204	0x3d87c99f	0.06630253
205	0x3d439f4f	0.04775935
206	0xbd785bfb	-0.060634594
207	0x3d49006e	0.049072675
208	0xbca384cd	-0.019960785
209	0x3d816988	0.063189566
210	0x3b91ab49	0.0044454676
211	0xbb91c571	-0.0044485857
212	0xbdcac048	-0.09899956
213	0xbcbea484	-0.023271807
214	0x3c3e2346	0.0116050895
215	0x3d24882a	0.04016892
216	0xbbd03c26	-0.0063548265
217	0xbcacccee	-0.021093812
218	0x3cbe902d	0.023262108
219	0x3c8df18e	0.017327096
220	0x3c411f60	0.011787266
221	0x3d20adef	0.039228376
222	0xbd90637c	-0.07050225
223	0xbd7fa1c0	-0.062410116
224	0x3cfd3cae	0.030912723
225	0xbcdcf118	-0.026970431
226	0x3d04444e	0.032291703
227	0x3da2df32	0.079527274
228	0xbcf6c629	-0.030123787
229	0x3d3a6b20	0.04551232
230	0xbc928bf8	-0.017889008
231	0xbda8d918	-0.08244532
232	0x3c18a73e	0.009317217
233	0x3d3f0de5	0.04664411
234	0xbc5bf59c	-0.013425257
235	0x3d0df722	0.034659512
236	0xba5c1b87	-0.0008396436
237	0xbcee9423	-0.029123371
238	0x3ce68aa4	0.02814228
239	0xbdcd1709	-0.10014159
240	0xbd23ced1	-0.039992157
241	0x3cb10b7d	0.021611923
242	0x3b016bab	0.0019748013
243	0xbc2014d8	-0.009770595
244	0x3d2eb276	0.042650662
245	0xbc9ca71e	-0.019122656
246	0x3cf848bc	0.03030812
247	0xbd247c9c	-0.0401579
248	0x3d0df91c	0.034661397
249	0x3c81aacc	0.015828513
250	0x3d19c288	0.037539035
251	0x3c9e23d5	0.019304195
252	0xbd09e274	-0.03366323
253	0x3d1d0cfe	0.03834247
254	0xbd82359a	-0.0635788
255	0xbc212cc7	-0.009837336

bn3/gamma f4 [64]
0	0x3f8460d6	1.0342052
1	0x3f831cd2	1.024317
2	0x3f8007af	1.0002345
3	0x3f811038	1.0083075
4	0x3f803c82	1.0018466
5	0x3f83b2ab	1.02889
6	0x3f85507a	1.0415184
7	0x3f83ede9	1.030698
8	0x3f7f2286	0.99662054
9	0x3f7eab07	0.99479717
10	0x3f85e788	1.0461283
11	0x3f87372f	1.0563716
12	0x3f7bacb0	0.98310375
13	0x3f850c6c	1.0394416
14	0x3f7e7d7d	0.9941023
15	0x3f824fff	1.0180663
16	0x3f82bae8	1.0213289
17	0x3f7f9d2c	0.998492
18	0x3f803cc2	1.0018542
19	0x3f7fcece	0.99924934
20	0x3f7d28e7	0.9889054
21	0x3f8c4150	1.0957432
22	0x3f8381d9	1.0274001
23	0x3f7e8510	0.9942179
24	0x3f819a79	1.0125266
25	0x3f82ff7b	1.0234216
26	0x3f7e8aab	0.9943034
27	0x3f80360e	1.0016496
28	0x3f81abfd	1.0130612
29	0x3f83858c	1.027513
30	0x3f81667c	1.0109401
31	0x3f88cc6d	1.0687386
32	0x3f7cea1d	0.9879473
33	0x3f7eb295	0.99491245
34	0x3f7ffb93	0.99993247
35	0x3f7cbb4c	0.9872329
36	0x3f799954	0.97499585
37	0x3f7d03ad	0.98833734
38	0x3f770046	0.9648479
39	0x3f864a18	1.0491362
40	0x3f7b113f	0.9807319
41	0x3f7b55f7	0.98178047
42	0x3f80800c	1.0039077
43	0x3f82a03a	1.0205147
44	0x3f80ec61	1.0072137
45	0x3f821785	1.0163428
46	0x3f801ac3	1.0008167
47	0x3f7f27b5	0.99669963
48	0x3f7f052f	0.99617285
49	0x3f8272b2	1.0191252
50	0x3f823ea1	1.0175363
51	0x3f82bea8	1.0214434
52	0x3f85d3ae	1.0455225
53	0x3f8a934f	1.0826205
54	0x3f82f57a	1.0231164
55	0x3f801c23	1.0008587
56	0x3f808ae4	1.0042386
57	0x3f80b52c	1.0055289
58	0x3f7aae5f	0.9792232
59	0x3f872375	1.0557696
60	0x3f844a43	1.0335163
61	0x3f7f6aab	0.9977214
62	0x3f809968	1.0046816
63	0x3f80a968	1.0051699

conv1_7/W f4 [2, 32, 3, 3]
0	0x3dac617c	0.08417031
1	0x3cc5eb0b	0.024159929
2	0x3d8afff3	0.067871
3	0xbe3ccd4b	-0.18437688
4	0xbd4cff70	-0.05004829
5	0xbca5a164	-0.020218559
6	0x3d2fe374	0.042941526
7	0xbc7e962c	-0.015538733
8	0xbd1292c5	-0.0357845
9	0xbd059860	-0.03261602
10	0xbd65d671	-0.05611271
11	0xbd97bbf5	-0.07408897
12	0x3e195095	0.14972146
13	0x3deb31cd	0.11484108
14	0xbc135d68	-0.008994438
15	0x3d04ab28	0.03238979
16	0xbcad4f26	-0.021155905
17	0x3e13d4ee	0.14436695
18	0xbbeff966	-0.007323432
19	0x3cfa2109	0.03053333
20	0xbd356358	-0.044284195
21	0x3ca18fa9	0.019721823
22	0x3da916dc	0.08256313
23	0xbcf9c186	-0.030487787
24	0x3c891a6a	0.016736228
25	0x3dc874a7	0.09787875
26	0x3e42ceb2	0.1902416
27	0x3d2e5202	0.042558677
28	0x3dbc7ef4	0.09203902
29	0xbcb1a03e	-0.021682855
30	0x3d8303ab	0.06397184
31	0x3c8d16ba	0.017222751
32	0x3d9ea180	0.077456474
33	0x3e3377c2	0.17526153
34	0x3e173d74	0.14769536
35	0x3dd95c2a	0.10613282
36	0xbda8584e	-0.08219968
37	0xbd1724d7	-0.036900368
38	0xbd9ad491	-0.07560075
39	0x3d802fe4	0.062591344
40	0x3d351a3a	0.044214465
41	0xbd65deb4	-0.05612059
42	0x3d4a6800	0.04941559
43	0x3d636e10	0.055524886
44	0x3df049bb	0.11732813
45	0x3e0e093a	0.13870707
46	0xbd42b488	-0.04753545
47	0xbd2f247a	-0.042759396
48	0x3d416f53	0.047225308
49	0x3e8d348d	0.27579156
50	0x3daa3937	0.08311694
51	0x3db4eadb	0.088338576
52	0x3df1ef1d	0.11813185
53	0xbd140dec	-0.03614609
54	0x3c9e800b	0.019348165
55	0x3daab05a	0.08334418
56	0xbda80911	-0.08204854
57	0xbbc3fa84	-0.0059807915
58	0x3d50e69d	0.05100118
59	0x3d8b4d7d	0.06801889
60	0x3dfdb097	0.123871975
61	0x3dbaf3e2	0.09128548
62	0x3cf9837a	0.0304582
63	0x3d1ec940	0.038766146
64	0xbd529bb2	-0.051418014
65	0x3dc8c0f8	0.09802431
66	0xbd15942c	-0.03651826
67	0x3d959ffd	0.07305906
68	0x3d63d576	0.055623494
69	0xbcf2c41a	-0.029634524
70	0x3d4d5170	0.050126493
71	0xbcb31c52	-0.02186409
72	0x3d3fbc93	0.046810698
73	0x3cbf2023	0.023330754
74	0xbd244282	-0.04010249
75	0x3d20584f	0.039146718
76	0xbd3da360	-0.046298385
77	0xbd7e832e	-0.06213682
78	0x3cf1efec	0.029533349
79	0xbe135ff0	-0.14392066
80	0x3e02d6f5	0.12777312
81	0xbdd2ada0	-0.102870226
82	0x3dab1832	0.08354224
83	0x3e3734e8	0.17891276
84	0x3e1c66fd	0.15273662
85	0x3d4d31c9	0.050096307
86	0xbd2d6576	-0.04233309
87	0x3e40cd22	0.18828252
88	0xbdf38249	-0.11890084
89	0x3e2ae41e	0.16688582
90	0x3da61df2	0.0811118
91	0x3dbf2e7b	0.09335037
92	0x3c9d6ca5	0.019216845
93	0x3e3fe303	0.18738942
94	0x3dba1e09	0.0908776
95	0x3d6bb81e	0.057548635
96	0xbd952163	-0.07281759
97	0x3cb4a9e6	0.02205367
98	0x3d85f963	0.06541707
99	0x3d101506	0.0351763
100	0x3db9d24a	0.090733126
101	0x3c65b35d	0.014019814
102	0x3daadbde	0.083427176
103	0xbd9b48a7	-0.07582217
104	0x3d2affb1	0.041747753
105	0xbd06d5ba	-0.03291867
106	0x3cd429d4	0.025898851
107	0x3de303ee	0.11084734
108	0x3cdbe6ee	0.026843514
109	0xba90d708	-0.0011050412
110	0x3d1f66d9	0.038916443
111	0x3d7f0fdf	0.062270995
112	0x3d556249	0.052095685
113	0x3deadc87	0.114678435
114	0xbd268668	-0.040655524
115	0xbe01b34f	-0.12666057
116	0x3d4aa018	0.049469084
117	0x3c7a3ee3	0.015273782
118	0x3d86849a	0.065682605
119	0x3d9fae40	0.077969074
120	0x3d8c6c4e	0.06856595
121	0x39968c0a	0.00028714567
122	0x3cb03749	0.021510737
123	0x3d266063	0.040619265
124	0xbc292d2a	-0.010325709
125	0x3d1a94d7	0.0377396
126	0x3dc2da87	0.09514337
127	0x3dbcdce7	0.09221821
128	0xbe2b3734	-0.16720277
129	0xbe2abe61	-0.16674186
130	0x3d2f1f03	0.042754184
131	0x3d9cf265	0.076634206
132	0x3d4c4cd2	0.04987795
133	0x3dc4414d	0.09582768
134	0xbce12b5b	-0.027486494
135	0x3d51540d	0.051105548
136	0x3d28c51c	0.041203603
137	0x3d628ade	0.055308215
138	0x3e249a2c	0.16074437
139	0x3bd6e65c	0.0065582227
140	0x3db20cce	0.086938486
141	0xbc57b158	-0.013164841
142	0xbdeed026	-0.11660795
143	0x3d56bd5f	0.052426692
144	0x3dd7536e	0.1051396
145	0x3d5d42eb	0.054018896
146	0x3dfdac93	0.123864315
147	0x3e3e7e2c	0.18602818
148	0x3c0a8675	0.008454909
149	0x3d67c50b	0.0565844
150	0x3c2d1b27	0.010565556
151	0xbcda088f	-0.02661541
152	0xbe2ee606	-0.17079934
153	0xbc2e9eab	-0.010657947
154	0x3d1dfba1	0.03857005
155	0xbdffbe4e	-0.124874696
156	0xbd43ca84	-0.047800556
157	0x3d36a8fa	0.044594742
158	0x3d2f20ec	0.042756006
159	0x3d11aae7	0.035563376
160	0x3d3cebd4	0.04612334
161	0x3d489037	0.04896566
162	0x3d635214	0.055498198
163	0x3e5870d9	0.21136798
164	0x3d4b821f	0.04968464
165	0x3d3888a1	0.045052174
166	0x3e2f1fc7	0.17101966
167	0xbcc00970	-0.023442
168	0x3c4dd364	0.0125626065
169	0x3e14212c	0.14465779
170	0x3d1b5f8a	0.03793291
171	0xbd5ebc3a	-0.054378726
172	0xbc844f49	-0.016151087
173	0x3dcf49ae	0.10121475
174	0xbd5584de	-0.052128665
175	0x3e5eccee	0.21757862
176	0x3d83afa2	0.06429984
177	0x3d4fbc20	0.05071652
178	0x3d506a7b	0.050882798
179	0x3d9f3959	0.0777461
180	0x3bec734f	0.0072158943
181	0x3da7c64c	0.08192119
182	0x3d7ae77f	0.061255928
183	0x3d80a609	0.06281669
184	0x3da77fc8	0.08178669
185	0x3c1289ef	0.008944019
186	0x3de96b96	0.113974735
187	0x3dd17dc3	0.10229065
188	0x3e349f76	0.17638955
189	0x3da127de	0.07868932
190	0x3d7774e7	0.06041422
191	0xbd3813c0	-0.04494071
192	0xbdaae1da	-0.08343859
193	0x3e05569a	0.13021317
194	0x3e36343f	0.17793368
195	0x3dae49c5	0.08510164
196	0x3e0478a6	0.12936649
197	0x3dd8a0c2	0.10577537
198	0xbaa1a33c	-0.0012331973
199	0x3dac800f	0.08422863
200	0xbd3bb4fb	-0.045826893
201	0x3d83572d	0.06413112
202	0xbe112e5a	-0.14177838
203	0x3d070326	0.032961987
204	0x3b99d4b2	0.0046945447
205	0xbd5f42d6	-0.0545071
206	0xbc7b91d2	-0.0153545905
207	0xbc385946	-0.011251753
208	0xbc5cae2d	-0.013469261
209	0xbd3ad1c1	-0.045610193
210	0x3b09b556	0.0021012626
211	0x3df6b162	0.12045552
212	0xbd6d6aa5	-0.057963032
213	0x3d475dd0	0.04867345
214	0x3c9ea46d	0.019365514
215	0x3df26814	0.118362576
216	0xbca2bf58	-0.01986663
217	0x3db15d10	0.086603284
218	0x3df20bf7	0.11818688
219	0x3e4159ce	0.18881914
220	0x3dfe492e	0.12416302
221	0x3d029303	0.031878483
222	0x3dc18429	0.09449036
223	0x3bad04ba	0.0052801045
224	0xbbb4c04d	-0.005516088
225	0x3e0a2895	0.13492043
226	0x3d9a545b	0.07535621
227	0x3d82fbae	0.0639566
228	0x3e099b16	0.13438067
229	0x3cd06026	0.025436472
230	0x3d8fdf4b	0.07025012
231	0x3d1dc6a4	0.038519517
232	0xbe288962	-0.16458657
233	0xbc7c383c	-0.015394267
234	0xbd24219b	-0.04007111
235	0x3c837561	0.016047182
236	0x3dae8e55	0.085232414
237	0xbdc8e44b	-0.098091684
238	0xbdc89c8a	-0.097954825
239	0xbb60086f	-0.0034184714
240	0x3d53cd82	0.05170966
241	0xbcf2baa9	-0.029630022
242	0x3db58def	0.08864962
243	0x3ded5aef	0.1158961
244	0x3d815ece	0.06316911
245	0x3dec94d4	0.11551824
246	0x3d21ddc6	0.03951814
247	0x3ce8269b	0.028338721
248	0x3d3000f0	0.042969644
249	0x3d580e3f	0.05274796
250	0x3db87c51	0.090080865
251	0x3ca67bcf	0.020322708
252	0x3e177918	0.14792287
253	0x3c009f2a	0.007850448
254	0x3d8ae960	0.06782794
255	0x3daa2af2	0.083089724
