loto6_cnn/model/loto6_20_90.model (npz, 468594 bytes, 38 tensors)

conv1_2/b f4 [64]
-0.00012244946 -8.8908455e-05 5.1391155e-05 -0.00013758011 2.474436e-06 9.398177e-05 -3.832875e-05 -0.00018106605
2.4784724e-05 0.00036432728 -4.149563e-05 -0.00020430768 1.565033e-05 1.5020625e-05 -1.377634e-05 -9.3953546e-05
-2.777378e-05 -1.6044423e-05 2.9390047e-05 -6.2684303e-06 8.8147404e-05 5.278497e-05 1.1331403e-05 -9.855284e-05
-4.7398684e-05 -1.9414316e-05 -5.790771e-06 -2.3815217e-05 -2.262832e-05 0.00010531452 1.020676e-05 -1.878547e-06
1.813183e-05 -6.553553e-06 -4.815558e-05 -0.00013175287 8.1548e-05 -0.0001667031 5.1046e-06 -4.0271727e-05
6.881481e-05 -3.154071e-05 2.246286e-05 -1.2716215e-05 1.3646861e-05 2.4437875e-05 3.5112032e-05 -7.918428e-05
-2.4307821e-05 3.4197325e-05 5.0344013e-05 2.8183797e-05 2.4722824e-06 4.6037392e-05 0.00015291432 -0.00016999563
-0.00012299368 -3.5318317e-06 7.0479386e-05 -1.0309544e-06 2.1385772e-06 4.743492e-05 -9.728203e-05 -2.5394087e-05
00000000: c765 00b9 5d74 bab8 d58c 5738 6143 10b9
00000010: 7d0e 2636 1418 c538 2fc3 20b8 8cdc 3db9
00000020: cae8 cf37 2e03 bf39 980b 2eb8 6d3b 56b9
00000030: d448 8337 1801 7c37 ee20 67b7 ed08 c5b8
00000040: bdfb e8b7 2397 86b7 a58a f637 6855 d2b6
00000050: c7db b838 6e65 5d38 011c 3e37 27ae ceb8
00000060: f3cd 46b8 eddb a2b7 584e c2b6 cac6 c7b7
00000070: f2d1 bdb7 4ddc dc38 b33d 2b37 6222 fcb5
00000080: cf19 9837 97e6 dbb6 a9fa 49b8 2427 0ab9
00000090: c004 ab38 06cd 2eb9 2e48 ab36 70e9 28b8
000000a0: ab50 9038 944a 04b8 a06e bc37 ba57 55b7
000000b0: d2f4 6437 f0ff cc37 4245 1338 bd0f a6b8
000000c0: a6e8 cbb7 196f 0f38 7928 5338 3e6c ec37
000000d0: 7de9 2536 4618 4138 a057 2039 db40 32b9
000000e0: ddf7 00b9 6804 6db6 55ce 9338 535f 8ab5
000000f0: 7a84 0f36 dcf4 4638 e403 ccb8 6305 d5b7

conv1_4/b f4 [32]
0.000112599715 -6.930733e-05 -0.00028463628 0.00015964943 0.00024543694 -0.00016246176 4.016423e-05 2.5185087e-05
-0.00014631628 -1.1574028e-05 -0.0002635056 2.987439e-05 2.6588614e-05 8.9212066e-05 0.00012449193 -0.00013867114
-0.00013713821 -4.773838e-07 0.00011606282 -0.0002502122 9.974191e-05 -8.482683e-05 -0.0001071977 0.0004028327
2.0115447e-06 -7.305143e-06 -2.2870181e-05 -3.4642173e-05 -6.7243185e-05 -0.00011240585 -7.195359e-05 -0.00012764652
00000000: 8323 ec38 1759 91b8 3c3b 95b9 9167 2739
00000010: fdad 8039 7f5a 2ab9 0376 2838 9044 d337
00000020: 7a6c 19b9 122e 42b7 1f27 8ab9 c49a fa37
00000030: 9d0a df37 5d17 bb38 0c8a 0239 4068 11b9
00000040: c2cc 0fb9 9125 00b5 c166 f338 ea2e 83b9
00000050: 882c d138 0fe5 b1b8 54cf e0b8 4a33 d339
00000060: 13fe 0636 b31e f5b6 57d9 bfb7 c04c 11b8
00000070: e904 8db8 6ebb ebb8 cae5 96b8 dad8 05b9

bn4/avg_mean f4 [32]
-0.71897376 -2.9418917 1.4950314 -2.6113443 0.04239665 -0.5705084 -1.7101382 0.20796996
-0.67240953 -0.39778 -2.81587 -1.4709831 -0.4746236 0.17223254 -1.5010135 -2.3792567
-0.11798234 -0.32604843 -3.3442795 -2.3541384 -0.48585942 0.08851677 -0.012926014 -1.5616649
0.67822796 -1.1855476 -0.35202852 0.18040697 -2.427279 1.1300325 -0.5521868 0.28983238
00000000: aa0e 38bf f447 3cc0 305d bf3f 4420 27c0
00000010: 1ca8 2d3d d70c 12bf cfe5 dabf 14f6 543e
00000020: 0823 2cbf d2a9 cbbe 3737 34c0 2d49 bcbf
00000030: dd01 f3be ba5d 303e 3621 c0bf be45 18c0
00000040: baa0 f1bd d2ef a6be ad08 56c0 34aa 16c0
00000050: 91c2 f8be 4848 b53d a2c7 53bc a3e4 c7bf
00000060: 59a0 2d3f 06c0 97bf 153d b4be 9bbc 383e
00000070: 8a58 1bc0 e8a4 903f 1d5c 0dbf e964 943e

conv1_5/b f4 [32]
-3.141872e-05 -3.8181526e-05 0.000101112935 -7.4114585e-05 0.00016809102 8.998521e-05 3.2553013e-05 0.00013492334
8.010437e-05 3.1984026e-05 -0.00010674046 -4.3735552e-05 -2.8744058e-05 -0.00026290258 1.8810733e-05 3.988732e-05
7.615533e-05 -5.4042248e-05 0.00013851927 -9.3616e-05 0.00014585769 2.210622e-05 3.1608535e-05 0.0003132971
6.148643e-05 0.0006628619 -0.00013718457 0.00022239494 -0.000100289886 6.845373e-05 -1.9670688e-05 -2.3481127e-05
00000000: 98c7 03b8 1a25 20b8 980c d438 f76d 9bb8
00000010: 9741 3039 71b6 bc38 8889 0838 357a 0d39
00000020: b5fd a738 9626 0638 d9d9 dfb8 b170 37b8
00000030: 651f f1b7 30d6 89b9 becb 9d37 af4c 2738
00000040: 95b5 9f38 6cab 62b8 7c3f 1139 b553 c4b8
00000050: 60f1 1839 bf70 b937 6893 0438 0642 a439
00000060: 47f2 8038 e9c3 2d3a 34d9 0fb9 b032 6939
00000070: b952 d2b8 d18e 8f38 7b02 a5b7 56f9 c4b7

bn5/avg_mean f4 [32]
-0.07232824 -0.07371554 -0.012822264 -0.46960843 0.12946105 -0.7370074 -0.20981587 0.47382775
-0.13302413 0.26051947 -0.1741934 -0.21883073 -0.02423469 -0.38135904 -0.2956323 -0.20147851
0.4477783 0.0026559455 -0.6231075 -0.08919812 -0.02660646 -0.39098638 -0.38237953 0.7612053
0.03824596 0.7202384 -0.28933838 -0.43370444 -0.046875708 0.023005974 -0.36977184 -0.1479905
00000000: d420 94bd 2cf8 96bd 7914 52bc 8470 f0be
00000010: 7091 043e 84ac 3cbf f9d9 56be 8d99 f23e
00000020: 7a37 08be cf62 853e c15f 32be 2a15 60be
00000030: d487 c6bc 7e41 c3be 1e5d 97be 6250 4ebe
00000040: 3343 e53e 5f0f 2e3b f983 1fbf 81ad b6bd
00000050: caf5 d9bc 5e2f c8be 40c7 c3be 5ade 423f
00000060: cca7 1c3d 8b61 383f 2924 94be 820e debe
00000070: be00 40bd 0677 bc3c bc52 bdbe d28a 17be

bn1/gamma f4 [64]
0.98877317 0.9849392 1.0111834 1.0010035 0.9739548 1.0124186 0.99282837 0.9875213
1.0006846 0.99888486 1.003546 1.0063481 0.995745 1.0050454 0.9884272 1.0183069
0.9870167 0.9828743 0.9926697 1.0184145 1.0364609 1.0081486 1.0073463 1.0015817
1.0113779 1.0106766 0.98596114 0.9949349 0.9815047 0.9924809 0.9730811 0.99296796
0.99255115 1.0077726 0.9791657 0.99210405 1.0020559 1.0442443 1.0088028 1.0199893
0.99243915 0.98868877 1.0118827 0.98412514 1.0124434 0.9852421 1.0010763 1.0022115
0.9809425 0.99201685 0.99054164 1.0108136 0.9907413 0.9723522 0.99140996 1.0246574
0.98447394 0.96988285 0.97923064 0.99160624 0.98355895 1.0176086 0.9749563 0.98880994
00000000: 3d20 7d3f fa24 7c3f 756e 813f e220 803f
00000010: 1a55 793f ef96 813f 002a 7e3f 32ce 7c3f
00000020: 6f16 803f ebb6 7f3f 3274 803f 04d0 803f
00000030: 25e9 7e3f 54a5 803f 9109 7d3f e157 823f
00000040: 20ad 7c3f a69d 7b3f 9a1f 7e3f 685b 823f
00000050: c0aa 843f 030b 813f b9f0 803f d433 803f
00000060: d574 813f da5d 813f f367 7c3f 0eb4 7e3f
00000070: e443 7b3f 3a13 7e3f d81b 793f 2633 7e3f
00000080: d517 7e3f b1fe 803f 9aaa 7a3f 88fa 7d3f
00000090: 5e43 803f cca9 853f 7320 813f 028f 823f
000000a0: 7e10 7e3f b51a 7d3f 5f85 813f a0ef 7b3f
000000b0: bf97 813f d438 7c3f 4523 803f 7748 803f
000000c0: 0c1f 7b3f d1f4 7d3f 2394 7d3f 5762 813f
000000d0: 39a1 7d3f 13ec 783f 0bcd 7d3f f927 833f
000000e0: 7c06 7c3f 3e4a 783f dcae 7a3f e8d9 7d3f
000000f0: 85ca 7b3f 0041 823f bc96 793f a622 7d3f

conv1_3/b f4 [64]
-1.847841e-05 2.3463797e-05 -1.2832085e-05 -2.1878277e-05 4.2985204e-05 8.791394e-06 -0.00010576316 6.5844993e-06
4.3043125e-05 2.5907837e-05 1.4680432e-05 4.9133883e-05 2.5707019e-05 6.2228166e-05 -7.586675e-05 -0.00012354087
-7.389172e-06 0.00013096289 1.3868718e-05 4.0737123e-05 2.819433e-05 9.3677685e-05 -3.1287258e-05 4.1679186e-06
2.0330468e-05 2.3968649e-05 3.5924993e-05 5.0262166e-05 -9.092473e-06 1.0012282e-05 -3.122957e-05 0.00011105754
-6.278836e-06 -2.0012052e-05 -3.1525225e-05 -2.5575602e-05 9.775534e-05 -8.094129e-06 -2.0841544e-06 -4.7289755e-06
-1.9574449e-05 0.00011235094 4.841996e-05 -1.6420183e-05 -2.6333972e-05 -2.0032756e-05 -8.6682085e-05 -2.798796e-05
-0.0001020733 -3.101005e-05 -2.5424153e-05 -3.9129438e-05 5.023364e-06 -4.120433e-05 -3.4808854e-05 3.2414053e-05
7.126121e-05 -1.4093623e-05 -9.874027e-05 -1.3242934e-05 -2.5786103e-05 2.0708747e-05 -2.3031518e-05 7.533467e-05
00000000: 1502 9bb7 1fd4 c437 6349 57b7 3e87 b7b7
00000010: 034b 3438 c07e 1337 2acd ddb8 6bf0 dc36
00000020: 3489 3438 a854 d937 fa4b 7637 1b15 4e38
00000030: 67a5 d737 7e80 8238 a71a 9fb8 c08a 01b9
00000040: 81f0 f7b6 1553 0939 b1ad 6837 27dd 2a38
00000050: dd82 ec37 d374 c438 703a 03b8 26da 8b36
00000060: 598b aa37 4810 c937 2bae 1638 97d0 5238
00000070: e08b 18b7 6cfa 2737 7ffc 02b8 90e7 e838
00000080: caae d2b6 8edf a7b7 f439 04b8 308b d6b7
00000090: 0002 cd38 05cc 07b7 80dd 0bb6 97ad 9eb6
000000a0: cf33 a4b7 f49d eb38 8916 4b38 13be 89b7
000000b0: c6e7 dcb7 040c a8b7 17c9 b5b8 b0c7 eab7
000000c0: 3010 d6b8 ca10 02b8 f445 d5b7 ea1e 24b8
000000d0: 5e8e a836 d0d2 2cb8 b9ff 11b8 53f4 0738
000000e0: 1272 9538 a673 6cb7 c712 cfb8 f82d 5eb7
000000f0: 3c4f d8b7 b2b7 ad37 cf33 c1b7 fefc 9d38

bn2/avg_var f4 [64]
0.3878101 0.643983 0.36263677 0.53387725 0.62434036 0.3959055 0.398335 0.387688
0.3608801 0.41880035 0.4340121 0.43478534 0.41067982 0.38254243 0.26514307 0.6225676
0.5723455 0.36641875 0.39223698 0.9940532 0.3299704 0.3339748 0.37367916 0.45285153
0.41025943 0.3418965 0.6042348 0.7065676 0.558843 0.592118 0.48585552 0.3463441
0.80175567 0.7498683 0.52958745 0.57525605 0.3710761 0.2751967 0.5838936 0.2654174
0.39894727 0.26939535 0.59197277 0.50452083 0.5098697 0.40860504 0.48559368 0.39159426
0.529977 0.48071793 0.71479124 0.35876167 0.37792608 0.44193387 0.36693054 0.67398435
0.45977706 0.5364732 0.57973707 0.3891619 0.29004025 0.45092547 0.48649043 0.47240418
00000000: 0c8f c63e 12dc 243f 87ab b93e 2eac 083f
00000010: c5d4 1f3f 20b4 ca3e 91f2 cb3e 0b7f c63e
00000020: 47c5 b83e 006d d63e d536 de3e 2f9c de3e
00000030: a044 d23e 9adc c33e d5c0 873e 9760 1f3f
00000040: 3c85 123f 3d9b bb3e 49d3 c83e 457a 7e3f
00000050: e1f1 a83e bffe aa3e e052 bf3e 28dc e73e
00000060: 860d d23e 0f0d af3e 22af 1a3f 9de1 343f
00000070: 5610 0f3f 0c95 173f 0ec2 f83e 0454 b13e
00000080: dc3f 4d3f 5ef7 3f3f 0b93 073f fb43 133f
00000090: b0fd bd3e 95e6 8c3e 0d7a 153f cae4 873e
000000a0: d142 cc3e 30ee 893e 878b 173f 4728 013f
000000b0: d286 023f ae34 d13e bc9f f83e 0b7f c83e
000000c0: 93ac 073f a920 f63e 8ffc 363f 9caf b73e
000000d0: 877f c13e 2845 e23e 52de bb3e 3d8a 2c3f
000000e0: e667 eb3e 4f56 093f a669 143f 3b40 c73e
000000f0: 2880 943e b4df e63e 4615 f93e f6de f13e

bn2/gamma f4 [64]
1.0250252 0.97221106 0.9745319 0.98568904 0.9973942 1.0163693 0.99921334 0.97194827
0.9816599 0.99017054 0.98489356 1.0115962 0.99174976 1.0067295 1.0028905 0.99369055
0.97665185 0.992235 0.9829318 0.98667383 1.0305469 0.99136055 0.99695355 1.0061307
1.0158254 1.038127 0.96985257 1.000608 1.029835 0.97141045 0.99523354 1.0019379
0.98276633 0.99871325 0.99418074 1.0168964 0.99719054 0.9992337 0.9772397 0.97579354
1.0076416 0.99854827 0.99214566 0.99883914 1.0053235 1.0057871 1.013363 1.0124862
0.9972856 1.022374 0.9948839 1.0193536 0.9767033 1.0303416 0.99380356 0.98282975
1.0018927 0.9891168 0.9805695 1.0693449 0.99323684 0.99964213 0.976291 1.0184305
00000000: 0734 833f d3e2 783f ec7a 793f 1e56 7c3f
00000010: 3a55 7f3f 6418 823f 72cc 7f3f 9ad1 783f
00000020: 104e 7b3f d17b 7d3f fc21 7c3f fc7b 813f
00000030: 50e3 7d3f 83dc 803f b75e 803f 8162 7e3f
00000040: db05 7a3f 1d03 7e3f 6ba1 7b3f a896 7c3f
00000050: f6e8 833f cec9 7d3f 5938 7f3f e4c8 803f
00000060: 9106 823f 58e1 843f 4248 783f ec13 803f
00000070: a2d1 833f 5bae 783f a0c7 7e3f 803f 803f
00000080: 9396 7b3f acab 7f3f a182 7e3f a929 823f
00000090: e147 7f3f c8cd 7f3f 622c 7a3f 9bcd 793f
000000a0: 66fa 803f dca0 7f3f 42fd 7d3f ecb3 7f3f
000000b0: 71ae 803f a2bd 803f e1b5 813f 2699 813f
000000c0: 1c4e 7f3f 27dd 823f b6b0 7e3f 2e7a 823f
000000d0: 3a09 7a3f 3ce2 833f e969 7e3f bb9a 7b3f
000000e0: 053e 803f c236 7d3f 9a06 7b3f 4be0 883f
000000f0: c544 7e3f 8ce8 7f3f 35ee 793f ee5b 823f

conv1_1/b f4 [64]
4.2836444e-05 3.244699e-05 9.627588e-05 1.1583495e-05 -8.140359e-05 7.624542e-05 -9.682982e-05 5.4301504e-06
-0.0003315751 -6.2844294e-05 2.7354065e-05 7.923613e-07 4.0433064e-05 4.780025e-05 -0.00010189696 -2.615572e-05
7.629504e-05 0.000120554774 -7.2907074e-05 -8.195963e-05 4.45775e-05 1.659978e-05 -2.4237333e-05 0.00014142084
4.438137e-05 3.869522e-05 1.8748618e-05 3.7802132e-05 8.060942e-05 2.6081249e-05 0.000110493 -6.387948e-05
9.94842e-05 3.9497376e-05 -0.00014371623 -8.6923836e-05 -0.00017229209 -1.5632677e-05 -4.142054e-05 7.419279e-05
1.5613208e-05 0.00017136121 -9.525858e-05 2.903828e-06 -8.843409e-05 2.8462702e-05 4.0198545e-05 5.9357703e-06
1.9883131e-05 -3.2534144e-06 9.567809e-05 2.7478245e-05 2.4561572e-05 -8.081628e-05 -0.0003175119 1.8735434e-05
3.296141e-05 4.1378687e-05 3.5681824e-05 4.739942e-05 4.041038e-05 -5.6028588e-05 -0.00017690127 5.0274584e-06
00000000: 48ab 3338 b117 0838 b8e7 c938 bb56 4237
00000010: 38b7 aab8 f3e5 9f38 1d11 cbb8 a334 b636
00000020: 42d7 adb9 46cb 83b8 6876 e537 a7b2 5435
00000030: ac96 2938 217d 4838 84b1 d5b8 fb68 dbb7
00000040: 9600 a038 5ad2 fc38 b0e5 98b8 bee1 abb8
00000050: baf8 3a38 c23f 8b37 4751 cbb7 5e4a 1439
00000060: 2226 3a38 ad4c 2238 5a46 9d37 bb8d 1e38
00000070: da0c a938 0ec9 da37 7ab8 e738 09f7 85b8
00000080: 2ca2 d038 fca9 2538 88b2 16b9 e14a b6b8
00000090: 4ea9 34b9 eb22 83b7 f7ba 2db8 f397 9b38
000000a0: 1cf9 8237 6daf 3339 90c5 c7b8 63df 4236
000000b0: b175 b9b8 30c3 ee37 dc9a 2838 e12b c736
000000c0: b3ca a637 3c55 5ab6 c9a6 c838 1581 e637
000000d0: 9309 ce37 e97b a9b8 ba77 a6b9 0a2a 9d37
000000e0: 0b40 0a38 078e 2d38 11a9 1538 bdce 4638
000000f0: 517e 2938 3d00 6bb8 937e 39b9 8ab1 a836

bn1/avg_var f4 [64]
0.12432894 0.29650223 0.14206997 0.30870762 0.31931582 0.19229624 0.25659227 0.3349963
0.123326935 0.21936032 0.4132232 0.31684184 0.3399997 0.16736537 0.15343893 0.38427907
0.11100502 0.4678231 0.31901017 0.18262662 0.21576048 0.22902684 0.25847974 0.14070913
0.22425178 0.17752554 0.16518542 0.30456412 0.19637306 0.5172672 0.106966466 0.28041908
0.11231446 0.3015169 0.1993717 0.24097133 0.21775164 0.13383105 0.35802168 0.3033584
0.20239733 0.0895829 0.11847068 0.18035841 0.100777335 0.15416616 0.48374707 0.16558465
0.31693643 0.40359977 0.15619081 0.13599715 0.34686056 0.22199613 0.13166176 0.113335975
0.19603291 0.33558175 0.49514776 0.43603382 0.13916278 0.19886753 0.2472869 0.13212013
00000000: 2ca0 fe3d 24cf 973e ca7a 113e ed0e 9e3e
00000010: 5d7d a33e 4ee9 443e 1060 833e a384 ab3e
00000020: d592 fc3d fe9f 603e fe91 d33e 1839 a23e
00000030: 7114 ae3e d461 2b3e 181f 1d3e 3ac0 c43e
00000040: 9a56 e33d 8286 ef3e 4d55 a33e 7902 3b3e
00000050: 51f0 5c3e 0386 6a3e 7557 843e 0e16 103e
00000060: 42a2 653e 41c9 353e 5e26 293e d4ef 9b3e
00000070: 0516 493e a06b 043f 3c11 db3d 1793 8f3e
00000080: 2005 e63d 6c60 9a3e 1828 4c3e 30c1 763e
00000090: 49fa 5e3e 020b 093e 9e4e b73e cb51 9b3e
000000a0: 3f41 4f3e 3d77 b73d c2a0 f23d e0af 383e
000000b0: 5964 ce3d bcdd 1d3e b2ad f73e 068f 293e
000000c0: 7e45 a23e a1a4 ce3e 7cf0 1f3e d642 0b3e
000000d0: b597 b13e f452 633e 57d2 063e b11c e83d
000000e0: dabc 483e 5fd1 ab3e 0284 fd3e d33f df3e
000000f0: b080 0e3e eea3 4b3e c738 7d3e 804a 073e

bn2/beta f4 [64]
0.02763602 -0.01671921 -0.013850031 -0.0014185214 0.0065252166 0.021530619 0.013731192 -0.016874477
-0.005474393 0.00045361105 0.015304705 0.021732643 -0.008149613 0.041645028 0.011477214 0.0029776893
-0.010834582 0.02086088 0.003560683 0.00083819864 0.008032729 -0.0043734484 -0.01647844 0.024728492
0.033014145 0.035421405 -0.014018327 0.0052369307 0.0418168 -0.016763471 0.018366296 0.017550182
-0.0017978966 0.008415687 -0.0019360727 -0.0032680847 0.019839551 0.010059833 -0.025093598 0.0069241603
0.020520397 0.0027875274 -0.0014106799 0.013112477 0.0040354715 0.0084632 0.022780824 0.017327659
0.009340553 0.03483802 -0.0050723706 0.021240838 -0.021911036 0.016107967 -0.006142735 -0.005456635
0.02082652 -0.0030193734 -0.002456868 -0.0044336794 0.007501001 -0.004485166 -0.021700585 0.022092788
00000000: ef64 e23c baf6 88bc 3eeb 62bc aeed b9ba
00000010: 7cd1 d53b fb60 b03c cbf8 603c 583c 8abc
00000020: 8962 b3bb a5d2 ed39 96c0 7a3c a808 b23c
00000030: f485 05bc fa93 2a3d ed0a 3c3c 5625 433b
00000040: 8883 31bc 70e4 aa3c 595a 693b 8fba 5b3a
00000050: b59b 033c 254f 8fbb cbfd 86bc 6893 ca3c
00000060: d739 073d 0916 113d 20ad 65bc 8f9a ab3b
00000070: 1848 2b3d 8c53 89bc ea74 963c 66c5 8f3c
00000080: 66a7 ebba f3e1 093c d2c3 fdba 5d2d 56bb
00000090: 8e86 a23c ffd1 243c 1791 cdbc 11e4 e23b
000000a0: 641a a83c f3ae 363b 90e6 b8ba b7d5 563c
000000b0: fd3b 843b 3ca9 0a3c da9e ba3c bcf2 8d3c
000000c0: 1e09 193c 50b2 0e3d 2136 a6bb 4401 ae3c
000000d0: c67e b3bc dbf4 833c ff48 c9bb 92cd b2bb
000000e0: 619c aa3c aee0 45bb 6803 21bb 6648 91bb
000000f0: f5ca f53b 4df8 92bb 6dc5 b1bc effb b43c

bn4/gamma f4 [32]
0.99422055 1.0820494 1.0072397 1.0360193 1.0278257 1.0563163 1.0515642 1.0423248
1.0143507 1.0665194 1.0571481 1.0297059 1.0289453 1.0078522 1.0477477 1.0076772
1.0726627 1.0204474 1.0742779 1.0639294 1.0411823 1.063914 1.0260597 1.024944
1.0320903 1.0256666 1.0582724 1.0433003 1.0639328 1.0035297 1.0723356 1.0208807
00000000: 3d85 7e3f 9880 8a3f 3bed 803f 489c 843f
00000010: cb8f 833f 5f35 873f a899 863f e66a 853f
00000020: 3ed6 813f b583 883f a150 873f 67cd 833f
00000030: 7bb4 833f 4d01 813f 991c 863f 91fb 803f
00000040: 034d 893f 059e 823f f081 893f d72e 883f
00000050: 7645 853f 552e 883f ed55 833f 5d31 833f
00000060: 891b 843f 0b49 833f 7875 873f dd8a 853f
00000070: f32e 883f a973 803f 4b42 893f 38ac 823f

conv1_7/b f4 [2]
0.03218821 0.0048890947
00000000: c9d7 033d b334 a03b

conv1_6/W f4 [32, 32, 3, 3]
-0.021364978 -0.016009068 0.040700182 0.000767273 -0.029415121 0.09080992 0.021756379 -0.0046133003
0.043111406 0.10166491 -0.09068447 0.066473275 0.010146352 -0.024698991 0.024038656 0.0023599162
0.0032689108 -0.0046621733 0.07838336 -0.018248899 0.05870016 0.019034367 0.10769281 0.016106986
-0.036913957 0.01463353 -0.042122003 -0.04466846 0.009794371 0.004044158 -0.0561277 0.09112844
0.07842581 -0.006632104 0.03270138 0.08725082 -0.025783746 -0.067548074 -0.07983485 -0.07753406
0.0073666014 -0.085465096 -0.0261571 -0.013821843 -0.06961661 -0.10628067 -0.099267766 -0.013278001
0.009709131 -0.03579607 -0.07300201 -0.0040394543 -0.04837287 -0.0659189 0.0761953 -0.01892437
-0.06354792 -0.061688546 -0.046311412 -0.07555047 -0.010806273 -0.046963736 -0.01254098 -0.04805208
0.1050748 0.012689825 -0.11257423 -0.011934206 -0.033098873 0.05844067 -0.0995664 0.03918656
-0.018856943 0.004677522 0.08535592 3.1487605e-05 -0.076845415 -0.012833262 0.02479465 0.05485556
-0.07844604 0.060696088 -0.06411101 0.031378914 0.0052208207 0.052739486 0.025340496 0.037299614
-0.12883547 -0.07997224 0.005645812 0.012938334 -0.055038884 -0.007250119 -0.014120931 -0.042895474
0.004280539 0.05722098 -0.03599157 -0.0075562936 -0.10108707 0.028080659 0.06365486 0.047178674
0.011096 0.01949866 0.08574575 -0.019113787 -0.011930812 0.06939045 -0.035921767 0.13036609
0.0008530327 0.051809717 0.060058136 -0.007842693 0.008301679 -0.12907395 0.054143254 0.026886793
-0.054711185 -0.08937592 -0.08596247 0.062465828 0.011468818 -0.090036914 -0.0059464127 -0.032120682
-0.06043774 -0.015583188 0.06829807 -0.024010986 -0.040307634 0.027362965 -0.03063427 -0.017222382
-0.03642447 -0.043103125 -0.09960245 -0.060537048 0.1367349 -0.036417272 0.0005400321 -0.06650492
0.07905704 -0.026538659 -0.05880449 0.021573786 0.020880898 -0.08788548 -0.11506775 -0.10260859
0.04631099 0.04137129 -0.10314205 0.05315049 0.042619202 -0.13268553 0.08091943 0.030077353
0.004059406 0.053820036 -0.0593939 -0.010724158 0.037819214 0.0857851 -0.05976397 0.031581286
-0.02789523 -0.052439086 0.027994946 0.029966736 0.09588039 0.0020234236 0.06083462 -0.03386171
-0.02267136 0.050993063 0.09421819 -0.025065618 -0.05470632 0.03266785 -0.05485283 0.05886509
-0.031061837 -0.020744637 0.0547361 -0.025303544 -0.032038335 -0.0090963505 -0.04045317 -0.027819006
-0.01080311 -0.08065611 -0.061829194 -0.08182469 0.115398854 0.080230825 0.04292455 0.020983117
-0.024397101 0.028757403 0.026391963 -0.026339024 -0.045514975 0.0119024785 -0.029369004 0.05435627
-0.04843369 -0.15189679 0.04200186 -0.0050873123 0.0550667 0.05964594 0.0042766826 -0.09772457
-0.081182405 -0.07172377 -0.09725545 0.03798159 0.03281525 0.04593947 -0.022062706 -0.09742146
0.09567658 -0.03820799 0.076103516 0.0027371251 0.013633372 0.01794323 -0.07327349 0.046286993
0.010824218 0.05378095 -0.017892268 0.018980443 0.108719185 0.036186215 -0.012922664 -0.055993162
0.05425859 0.02186795 0.037992306 0.03512463 -0.11355947 0.10169889 0.030710837 -0.07742761
-0.06390831 0.062726706 0.05417394 0.013129875 0.004054916 0.04199412 0.007927926 -0.11650698
00000000: 9b05 afbc 7325 83bc 3cb5 263d d222 493a
00000010: fbf7 f0bc 8dfa b93d 6f3a b23c 2b2b 97bb
00000020: 9695 303d b135 d03d c8b8 b9bd 2423 883d
00000030: e33c 263c 8a55 cabc b7ec c43c d3a8 1a3b
00000040: 393b 563b 25c5 98bb 7487 a03d b77e 95bc
00000050: 946f 703d f6ed 9b3c 0c8e dc3d ccf2 833c
00000060: 1733 17bd 79c1 6f3c 1f88 2cbd 46f6 36bd
00000070: 9278 203c db84 843b 29e6 65bd 8ca1 ba3d
00000080: b69d a03d 1f52 d9bb e2f1 053d 8fb0 b23d
00000090: 6f38 d3bc a556 8abd 7480 a3bd 2dca 9ebd
000000a0: 8863 f13b 5308 afbd 6a47 d6bc 0375 62bc
000000b0: 2793 8ebd aea9 d9bd e64c cbbd f98b 59bc
000000c0: 0c13 1f3c e69e 12bd 1482 95bd 665d 84bb
000000d0: a122 46bd 7d00 87bd 480c 9c3d 4807 9bbc
000000e0: 6925 82bd 21ad 7cbd 09b1 3dbd 34ba 9abd
000000f0: cb0c 31bc 0c5d 40bd af78 4dbc 42d2 44bd
00000100: 7531 d73d fce8 4f3c 518d e6bd b087 43bc
00000110: af92 07bd 7c5f 6f3d 78e9 cbbd 1682 203d
00000120: e079 9abc e645 993b 16cf ae3d 8f11 0438
00000130: 2161 9dbd 9a42 52bc 261e cb3c 39b0 603d
00000140: 51a8 a0bd 769c 783d a24c 83bd 2d87 003d
00000150: 6b13 ab3b 5c05 583d df96 cf3c 7bc7 183d
00000160: 72ed 03be 7cc8 a3bd 8100 b93b 4efb 533c
00000170: 7470 61bd 6892 edbb 7a5b 67bc 2ab3 2fbd
00000180: c443 8c3b 8c60 6a3d e66b 13bd c99a f7bb
00000190: bd06 cfbd 6909 e63c 7b5d 823d 6d3e 413d
000001a0: ffcb 353c a7bb 9f3c 789b af3d 8494 9cbc
000001b0: 7479 43bc 951c 8e3d b422 13bd b07e 053e
000001c0: 0e9e 5f3a 6d36 543d 85ff 753d a37e 00bc
000001d0: c403 083c f62b 04be 51c5 5d3d b141 dc3c
000001e0: d618 60bd b90a b7bd 170d b0bd 2bdc 7f3d
000001f0: b6e7 3b3c 4665 b8bd 20da c2bb fa90 03bd
00000200: 908d 77bd a150 7fbc dcdf 8b3d b0b2 c4bc
00000210: 9e19 25bd 4c28 e03c b8f4 fabc f415 8dbc
00000220: d331 15bd e78c 30bd 5ffc cbbd b2f5 77bd
00000230: 3c04 0c3e 472a 15bd f190 0d3a bb33 88bd
00000240: a8e8 a13d 9a67 d9bc fadc 70bd 82bb b03c
00000250: 6b0e ab3c 4dfd b3bd a4a8 ebbd 7424 d2bd
00000260: 98b0 3d3d f174 293d 243c d3bd 54b4 593d
00000270: 7991 2e3d b7de 07be 16b9 a53d c864 f63c
00000280: c404 853b 6672 5c3d 0547 73bd 61b4 2fbc
00000290: 52e8 1a3d 19b0 af3d 11cb 74bd 615b 013d
000002a0: 8a84 e4bc 5eca 56bd a855 e53c cd7c f53c
000002b0: f05c c43d 6a9b 043b b92d 793d 94b2 0abd
000002c0: 4ab9 b9bc 1ade 503d 77f5 c03d 6956 cdbc
000002d0: bc13 60bd b9ce 053d 5cad 60bd 851c 713d
000002e0: 6575 febc a8f0 a9bc f632 603d 6149 cfbc
000002f0: a13a 03bd dc08 15bc 39b2 25bd afe4 e3bc
00000300: 87ff 30bc 082f a5bd 9c40 7dbd b493 a7bd
00000310: 3c56 ec3d 0f50 a43d a7d1 2f3d c9e4 ab3c
00000320: 6edc c7bc a594 eb3c f533 d83c f0c4 d7bc
00000330: e96d 3abd 9d02 433c 4497 f0bc aea4 5e3d
00000340: 6862 46bd d58a 1bbe 240a 2c3d 78b3 a6bb
00000350: 9f8d 613d 4d4f 743d 6a23 8c3b d223 c8bd
00000360: f642 a6bd e9e3 92bd de2d c7bd 9592 1b3d
00000370: 4969 063d 072b 3c3d d9bc b4bc e784 c7bd
00000380: 15f2 c33d fb7f 1cbd 29dc 9b3d 5761 333b
00000390: 825e 5f3c aefd 923c 6910 96bd 6e97 3d3d
000003a0: 1058 313c 6a49 5c3d ce92 92bc e07c 9b3c
000003b0: 2aa8 de3d ff37 143d 95b9 53bc 1659 65bd
000003c0: 413e 5e3d 6a24 b33c d29d 1b3d d8de 0f3d
000003d0: de91 e8bd 8247 d03d 4b95 fb3c 5e92 9ebd
000003e0: 5ce2 82bd dc76 803d 7ee5 5d3d b01e 573c
000003f0: 1adf 843b 0702 2c3d 22e4 013c 369b eebd

conv1_4/W f4 [32, 64, 3, 3]
0.0045014485 -0.06468083 -0.0672938 0.036783658 0.0636667 -0.005434294 0.0063461103 -0.018963104
0.0015766867 -0.03935921 -0.09237814 -0.07325516 0.001895781 0.07861753 0.008809052 -0.010941545
0.07681733 0.08741117 0.07702583 -0.02464915 -0.010341906 0.07402826 0.005682323 0.06064219
-0.024513727 -0.025128007 0.088141195 0.012892644 -0.09854283 -0.050295606 0.016202344 -0.055575274
-0.039402142 -0.008326461 -0.012893667 -0.036426704 -0.018048808 0.0328162 -1.0665742e-05 -0.014374263
-0.011299673 -0.009443887 0.023026878 -0.010095511 0.063899204 -0.0548147 -0.06706093 -0.00051570556
0.010298322 -0.059486795 0.047531646 0.013827834 0.008032939 -0.032962993 0.015399195 0.046623234
0.04579425 -0.093972825 -0.0054954677 0.049811393 -0.024291065 0.006381312 -0.021965541 0.046702933
-0.004785752 0.0007110017 0.07796713 0.025894685 -0.012890746 0.07437539 -0.043388862 -0.035718586
0.010346715 -0.051005084 -0.011913156 0.0141034555 -0.02955003 -0.09048743 -0.039838184 0.009530081
0.052368388 0.05096496 0.02020488 0.0285446 -0.0033740099 0.029718583 -0.10632458 0.014394867
-0.09785865 -0.056585785 -0.043712735 -0.052150123 0.016455809 0.03997076 -0.06576977 -0.043401476
-0.028184727 0.00023350377 -0.003307381 0.08635641 0.0050252164 -0.050581813 0.012914642 -0.06828476
0.013285477 -0.019867454 0.014842559 0.0039738244 0.043114107 0.061652467 0.0385739 -0.030412754
-0.016202798 0.0023888582 0.08266098 0.059823506 -0.021299155 0.03531086 0.06247429 -0.0075396867
0.059583146 -0.069462195 -0.005394814 0.07041194 0.00072297646 -0.034417003 0.0038919467 -0.06182918
0.03494762 0.108528845 0.01603568 -0.002851287 -0.063995436 -0.07014989 0.06853099 -0.08847042
0.049537115 -0.017115125 -0.0015821706 0.004206501 -0.0046558296 -0.07171823 -0.0029054307 -0.026831541
0.0019927032 -0.001609246 -0.04915108 0.027451195 0.0114450585 0.03893143 -0.048310865 -0.051116966
-0.053009663 -0.07250765 -0.059782457 0.017587215 0.011035342 -0.01877047 -0.15846333 0.0023586468
0.07254173 0.00073704345 0.0020647782 0.031778086 -0.011812114 0.05612646 -0.009811538 -0.0011964706
-0.021265982 0.035538785 0.049269132 -0.031775672 0.07021624 0.0057444894 0.052562334 0.058787763
0.026144313 -0.027172443 -0.071102135 0.02030865 -0.05636255 -0.00432396 -0.019457687 -0.02879476
0.01779871 -0.064938314 0.0046627354 -0.009947315 0.0017763184 0.06783356 0.00064262917 0.0037004016
-0.012775472 -0.015358136 0.018986419 -0.013193217 -0.02761296 -0.008743042 0.024070857 0.017712215
-0.022732569 0.017770661 0.03355768 0.022607552 -0.07142483 0.040389705 0.12258908 0.041887555
-0.017114503 -0.02206921 -0.0334535 -0.031698428 -0.015260107 -0.040765446 -0.011344297 -0.05970363
-0.03452659 0.023037752 -0.021376876 -0.045154333 0.0433173 0.050049104 0.0092199715 0.042733595
0.009441432 0.0051983013 -0.03663093 -0.018246349 -0.044244107 -0.033191405 -0.058262836 0.025181752
-0.018645152 0.0018680253 -0.08571239 -0.051209148 -0.039955903 -0.0047015613 0.027812134 -0.003361124
-0.0142569635 0.0126182055 -0.009901994 0.017566076 0.042684767 0.050603595 0.09516826 0.00881034
-0.004431647 0.0004248218 0.084722534 0.035463512 -0.02936136 0.021515867 0.0026711507 0.008499594
00000000: e380 933b 6277 84bd 55d1 89bd 76aa 163d
00000010: b063 823d 2a12 b2bb 08f3 cf3b 8358 9bbc
00000020: d4a8 ce3a 1f37 21bd c030 bdbd cd06 96bd
00000030: db7b f83a 3a02 a13d d853 103c 2a44 33bc
00000040: 6852 9d3d a104 b33d b8bf 9d3d 04ed c9bc
00000050: 1971 29bc 219c 973d c832 ba3b f263 783d
00000060: 03d1 c8bc 40d9 cdbc 5f83 b43d ab3b 533c
00000070: d3d0 c9bd c402 4ebd c7ba 843c e6a2 63bd
00000080: 2464 21bd b56b 08bc f63f 53bc 2b34 15bd
00000090: 18db 93bc 486a 063d 03f1 32b7 0782 6bbc
000000a0: 4322 39bc 88ba 1abc dda2 bc3c a467 25bc
000000b0: 96dd 823d 6185 60bd 3e57 89bd 6a30 07ba
000000c0: 4bba 283c 6da8 73bd 8bb0 423d 248e 623c
000000d0: 979c 033c 3404 07bd e84c 7c3c 01f8 3e3d
000000e0: c092 3b3d d374 c0bd 5313 b4bb 0807 4c3d
000000f0: 0efe c6bc 531a d13b 14f1 b3bc 934b 3f3d
00000100: ccd1 9cbb 8462 3a3a 3bad 9f3d 1721 d43c
00000110: b533 53bc 2052 983d 85b8 31bd a74d 12bd
00000120: 4585 293c b5ea 50bd 662f 43bc 2e12 673c
00000130: e812 f2bc 7951 b9bd 5d2d 23bd 0f24 1c3c
00000140: 3c80 563d a2c0 503d b484 a53c 5dd6 e93c
00000150: 7e1e 5dbb 6374 f33c b4c0 d9bd 73d8 6b3c
00000160: 1e6a c8bd 7fc6 67bd 200c 33bd 5e9b 55bd
00000170: 55ce 863c 61b8 233d 4db2 86bd bfc5 31bd
00000180: a8e3 e6bc b1d8 7439 a5c0 58bb a1db b03d
00000190: 92aa a43b e02e 4fbd ef97 533c e1d8 8bbd
000001a0: 54ab 593c 12c1 a2bc 342e 733c db36 823b
000001b0: 6b98 303d 4c87 7c3d aaff 1d3d 2b24 f9bc
000001c0: bbbb 84bc 648e 1c3b 294a a93d 7e09 753d
000001d0: 917b aebc 1fa2 103d 0be5 7f3d 7a0f f7bb
000001e0: 750d 743d 3242 8ebd fbc6 b0bb 2334 903d
000001f0: 2186 3d3a d8f8 0cbd 0810 7f3b 9840 7dbd
00000200: 3c25 0f3d 5f44 de3d 425d 833c a8dc 3abb
00000210: 0a10 83bd bfaa 8fbd fa59 8c3d fb2f b5bd
00000220: 6ee7 4a3d 0535 8cbc d660 cfba b0d6 893b
00000230: ee8f 98bb 02e1 92bd 0a69 3ebb d2cd dbbc
00000240: 0398 023b 56ed d2ba a552 49bd 54e1 e03c
00000250: 0e84 3b3c 9076 1f3d 9de1 45bd 0660 51bd
00000260: a920 59bd e47e 94bd 73de 74bd 1013 903c
00000270: 94cd 343c 87c4 99bc 3644 22be 8793 1a3b
00000280: c290 943d 2636 413a 3b51 073b bd29 023d
00000290: 9987 41bc dce4 653d 93c0 20bc e4d2 9cba
000002a0: ff35 aebc 1e91 113d 6ece 493d 3527 02bd
000002b0: 88cd 8f3d 453c bc3b 9a4b 573d 70cb 703d
000002c0: 992c d63c be98 debc ff9d 91bd 535e a63c
000002d0: 6bdc 66bd 01b0 8dbb ba65 9fbc fde2 ebbc
000002e0: 9ace 913c 61fe 84bd dcc9 983b 10fa 22bc
000002f0: 5bd3 e83a 52ec 8a3d 1d76 283a 7082 723b
00000300: 3750 51bc b1a0 7bbc 6889 9b3c 5d28 58bc
00000310: 9334 e2bc fa3e 0fbc 3f30 c53c 3519 913c
00000320: a739 babc c793 913c c773 093d 7933 b93c
00000330: 2e47 92bd ad6f 253d fc0f fb3d 4992 2b3d
00000340: b733 8cbc 7dca b4bc 8a06 09bd 36d6 01bd
00000350: 8705 7abc abf9 26bd 6edd 39bc cb8b 74bd
00000360: c16b 0dbd abb9 bc3c 8f1e afbc c0f3 38bd
00000370: 7b6d 313d 4a00 4d3d 5d0f 173c 6c09 2f3d
00000380: 3cb0 1a3c 8356 aa3b 500a 16bd 5e79 95bc
00000390: 4f39 35bd b6f3 07bd 03a5 6ebd f649 ce3c
000003a0: b8bd 98bc 87d8 f43a fa89 afbd afc0 51bd
000003b0: cda8 23bd 8e0f 9abb 46d6 e33c 4e46 5cbb
000003c0: 0a96 69bc 97bc 4e3c f93b 22bc bbe6 8f3c
000003d0: 39d6 2e3d b745 4f3d 94e7 c23d 3f59 103c
000003e0: 5937 91bb 9eba de39 0283 ad3d 3042 113d
000003f0: 3c87 f0bc 0b42 b03c 790e 2f3b e241 0b3c

bn1/avg_mean f4 [64]
0.0035331598 -0.035292406 0.07197872 -0.074231625 0.046740085 0.06937096 0.004257232 -0.025987724
0.10499407 0.061736487 -0.08868976 -0.03498077 -0.08105642 -0.041812353 -0.10151151 -0.025866305
-0.03491992 0.0944484 0.02515358 -0.15115806 -0.026650175 -0.082530305 0.07643455 -0.10359484
0.021032356 -0.109631404 -0.0698637 0.024251822 -0.056446727 -0.018709786 -0.06142615 -0.060002066
0.07075918 0.063771844 -0.0781009 -0.09412998 0.04273272 -0.036531337 0.02701352 0.034286
0.061121814 -0.07180302 -0.1035806 -0.06327351 0.056739185 -0.06798049 -0.047232967 -0.08843711
0.052871004 0.020656805 0.058230028 -0.096441254 -0.021259086 0.09006608 -0.13011864 -0.051083677
0.040982723 -0.058181517 -0.028425407 0.037060086 -0.053260583 -0.12007494 0.074670315 -0.02977041
00000000: 968c 673b c58e 10bd 9469 933d c006 98bd
00000010: 8872 3f3d 5d12 8e3d 4080 8b3b 35e4 d4bc
00000020: 2207 d73d 66df 7c3d faa2 b5bd ff47 0fbd
00000030: e900 a6bd 6e43 2bbd 44e5 cfbd 93e5 d3bc
00000040: 3108 0fbd 2a6e c13d e10e ce3c 2ec9 1abe
00000050: 7851 dabc a605 a9bd b889 9c3d 8829 d4bd
00000060: 0c4c ac3c 6e86 e0bd b314 8fbd c2ab c63c
00000070: af34 67bd 4445 99bc fd99 7bbd bac4 75bd
00000080: 30ea 903d d09a 823d 5df3 9fbd 38c7 c0bd
00000090: 8108 2f3d e2a1 15bd 754b dd3c 7a6f 0c3d
000000a0: de5a 7a3d 760d 93bd 1122 d4bd 8b95 81bd
000000b0: 5967 683d 5b39 8bbd 5b77 41bd 841e b5bd
000000c0: 448f 583d 7638 a93c 9c82 6e3d fe82 c5bd
000000d0: 8927 aebc 9174 b83d d23d 05be 1e3d 51bd
000000e0: 80dd 273d be4f 6ebd 66dc e8bc 51cc 173d
000000f0: c527 5abd dae9 f5bd c0ec 983d 13e1 f3bc

bn4/beta f4 [32]
-0.014791697 0.08596042 0.010115896 0.032362483 0.013381417 0.06285918 0.0631482 0.046259638
0.0016589501 0.08429995 0.07510775 0.046062987 0.019536257 0.014874398 0.054328676 0.016451567
0.08060596 0.004399476 0.07014006 0.0621158 0.052132744 0.07434639 0.0053033824 0.01939816
0.041119732 0.032217577 0.010396288 0.06235867 0.085756235 -0.006149106 0.06135533 0.061935134
00000000: e058 72bc 040c b03d 25bd 253c 868e 043d
00000010: bb3d 5b3c 50bc 803d d853 813d bf7a 3d3d
00000020: 2171 d93a 74a5 ac3d 18d2 993d 8bac 3c3d
00000030: 800a a03c bfb3 733c bf87 5e3d 70c5 863c
00000040: bd14 a53d 7b29 903b 97a5 8f3d 236d 7e3d
00000050: 2589 553d ec42 983d ffc7 ad3b e4e8 9e3c
00000060: 2a6d 283d 94f6 033d 3155 2a3c ce6b 7f3d
00000070: f7a0 af3d 717e c9bb ba4f 7b3d b2af 7d3d

conv1_2/W f4 [64, 64, 3, 3]
-0.042987738 0.07179463 0.025249517 0.047060244 -0.02387818 -0.06253008 0.016382556 -0.0057824673
-0.09308724 0.06366473 -0.0024683909 0.07393889 -0.019496566 0.027017953 0.050057724 -0.05046544
-0.04952143 -0.03661896 -0.0024726489 -0.048621193 0.07503882 -0.0139306635 0.041418508 0.030088011
-0.056367707 0.037584033 -0.08715702 -0.03726721 0.077344514 -0.027762268 -0.020866726 -0.0775807
-0.049406763 0.02960577 0.008850523 -0.007538624 -0.029186588 0.010919942 -0.037183248 -0.010505092
-0.046034683 -0.008369413 0.03486284 -0.00027558088 0.045061406 -0.027586464 -0.03682366 -0.05263329
-0.009162002 0.0012132992 0.02169813 0.097917184 -0.02010857 0.0514181 0.009575371 0.06956193
0.008218821 -0.02378514 -0.0036077637 -0.09689718 0.07096442 0.052683305 0.0048156925 -0.04840282
-0.034252893 0.018130122 -0.03661651 -0.018656498 0.049048424 -0.08367995 -0.0018631716 -0.051894553
-0.025793474 0.033926755 0.060753334 0.008647044 -0.057838466 -0.03643753 0.012446411 -0.016855832
-0.06033683 -0.055090755 -0.0042574867 0.011378429 0.059161346 -0.096686915 0.013359531 0.010126726
-0.061680425 0.09035629 -0.016032474 -0.015678912 -0.03280782 -0.04010544 0.030098522 0.06911185
-0.025744773 0.020498862 -0.013883868 0.032690473 0.034032024 -0.028117757 0.0063360464 -0.07395153
0.034747396 0.045474112 0.0050463798 -0.046232916 -0.063532405 -0.06638037 -0.035117343 0.0033799992
0.009019196 -0.07182108 0.08231939 -0.013646575 0.039218247 -0.065072015 -0.011992079 -0.0098286215
-0.05815292 -0.024882691 -0.011790996 -0.076008245 -0.03650701 -0.04101848 -0.01554789 0.010661937
-0.07376919 0.019914862 -0.026138611 0.07687285 -0.0071066837 -0.05047113 0.11431646 -0.030776553
-0.057655238 -0.04357599 -0.017557893 -0.043296184 -0.010320428 -0.06368744 -0.0289813 -0.10817106
-0.008490921 -0.03193542 -0.01232134 -0.04145351 -0.032059275 -0.116921246 0.006671042 0.016253259
-0.08601516 -0.0667163 0.008092585 -0.03566214 0.047169674 -0.04149954 0.10748996 -0.037778657
-0.07253572 -0.02919378 -0.016312469 -0.064792134 -0.009073137 -0.010357985 -0.03186649 -0.06431883
0.022428704 -0.017927513 -0.08562384 -0.094205886 -0.084046766 -0.053817533 -0.02355476 0.015345589
-0.020858828 -0.0699874 -0.016173495 -0.034257565 -0.025492072 -0.05420688 -0.013338861 0.015902983
-0.12335643 -0.03752354 0.021070478 -0.016224014 0.004874247 0.061465546 -0.03352153 -0.015036883
0.059950594 -0.046069838 0.038193043 0.0057341363 0.0015741714 0.055000756 -0.07264558 0.03293252
0.043115295 -0.085507065 -0.026381055 -0.025121428 0.07042507 0.04246417 -0.05667502 0.049353737
-0.01536029 0.05369358 0.006161651 -0.0075917235 -0.099653505 -0.017946528 0.007883029 0.045362417
-0.00050871586 -0.02543169 0.024432855 0.015540054 0.017413823 0.035709836 -0.06930923 -0.06726627
0.027266894 -0.022840703 0.03525648 0.08179408 -0.025490321 0.050447818 -0.016297042 -0.08370928
0.008949201 0.039195072 -0.011380508 0.043031547 0.0036547633 -0.024925653 0.030138116 -0.09857021
-0.03143431 0.020163605 0.0057535684 -0.009833461 0.045883212 -0.014725793 0.034776125 -0.038871206
0.03265402 0.015847603 0.02812707 0.022499535 -0.030900698 0.03566895 -0.06039076 -0.0109294895
00000000: e913 30bd 1009 933d 13d8 ce3c 3ec2 403d
00000010: 2c9c c3bc c50f 80bd b634 863c da7a bdbb
00000020: 86a4 bebd a762 823d bac4 21bb 466d 973d
00000030: 43b7 9fbc c154 dd3c 5409 4d3d d9b4 4ebd
00000040: fcd6 4abd c3fd 15bd 2a0c 22bb 0427 47bd
00000050: f4ad 993d 703d 64bc 74a6 293d 227b f63c
00000060: d3e1 66bd b7f1 193d 617f b2bd 81a5 18bd
00000070: cd66 9e3d b26d e3bc b2f0 aabc a1e2 9ebd
00000080: bf5e 4abd cd87 f23c c901 113c 9006 f7bb
00000090: b618 efbc 8ee9 323c 764d 18bd 8d1d 2cbc
000000a0: dd8e 3cbd dd1f 09bc 56cc 0e3d d77b 90b9
000000b0: 4f92 383d 02fd e1bc 68d4 16bd 0196 57bd
000000c0: 391c 16bc 9107 9f3a 47c0 b13c ce88 c83d
000000d0: baba a4bc c99b 523d 04e2 1c3c 7c76 8e3d
000000e0: 3ca8 063c 0ed9 c2bc 3b70 6cbb 0772 c6bd
000000f0: cb55 913d 73ca 573d f5cc 9d3b 0942 46bd
00000100: c34c 0cbd 9f85 943c 32fb 15bd 83d5 98bc
00000110: 00e7 483d 6560 abbd aa35 f4ba 628f 54bd
00000120: d64c d3bc c8f6 0a3d 7dd8 783d 55ac 0d3c
00000130: 07e8 6cbd 853f 15bd 08ec 4b3c 3e15 8abc
00000140: c023 77bd d8a6 61bd 6382 8bbb 976c 3a3c
00000150: 2b53 723d ca03 c6bd efe1 5a3c 91ea 253c
00000160: 9da4 7cbd b80c b93d 8956 83bc 1071 80bc
00000170: 7e61 06bd 9a45 24bd 2d91 f63c 838a 8d3d
00000180: b4e6 d2bc 3bed a73c 2a79 63bc 72e6 053d
00000190: 2a65 0b3d 3657 e6bc 9c9e cf3b e673 97bd
000001a0: 4953 0e3d 1043 3a3d 1a5c a53b ba5e 3dbd
000001b0: 471d 82bd 6ef2 87bd 34d7 0fbd fa82 5d3b
000001c0: 40c5 133c ee16 93bd 1197 a83d e295 5fbc
000001d0: 50a3 203d 7a44 85bd 6d7a 44bc 3a08 21bc
000001e0: c231 6ebd c9d6 cbbc 062f 41bc 36aa 9bbd
000001f0: 6088 15bd fe02 28bd 94bc 7ebc 68af 2e3c
00000200: 4d14 97bd 7e24 a33c a420 d6bc 836f 9d3d
00000210: 2fdf e8bb d1ba 4ebd c01e ea3d 1c1f fcbc
00000220: e627 6cbd bd7c 32bd 92d5 8fbc 5757 31bd
00000230: 0317 29bc 8f6e 82bd 316a edbc ca88 ddbd
00000240: 811d 0bbc b7ce 02bd 72df 49bc 28cb 29bd
00000250: 9650 03bd 6874 efbd c298 da3b 8e25 853c
00000260: b728 b0bd 8ea2 88bd c396 043c 7712 12bd
00000270: fd34 413d 6cfb 29bd b223 dc3d cbbd 1abd
00000280: 9c8d 94bd cb27 efbc baa1 85bc bdb1 84bd
00000290: 7fa7 14bc 8ab4 29bc 7086 02bd 97b9 83bd
000002a0: 67bc b73c b8dc 92bc 8d5b afbd 04ef c0bd
000002b0: b620 acbd c66f 5cbd e9f5 c0bc 116c 7b3c
000002c0: 22e0 aabc 8e55 8fbd 477e 84bc a951 0cbd
000002d0: c0d4 d0bc 0908 5ebd 3d8b 5abc f946 823c
000002e0: 4ca2 fcbd 49b2 19bd ff9b ac3c 39e8 84bc
000002f0: 26b8 9f3b 4cc3 7b3d df4d 09bd 425d 76bc
00000300: c18e 753d bab3 3cbd 4f70 1c3d 6ce5 bb3b
00000310: 6d54 ce3a 7948 613d 35c7 94bd 40e4 063d
00000320: aa99 303d 541e afbd 151d d8bc 74cb cdbc
00000330: 053b 903d e9ee 2d3d 1124 68bd 2527 4a3d
00000340: baa9 7bbc cded 5b3d ade7 c93b fec3 f8bb
00000350: 2317 ccbd 9904 93bc d227 013c f1cd 393d
00000360: 585b 05ba 1f56 d0bc 6927 c83c b69b 7e3c
00000370: 6fa7 8e3c 7a44 123d fff1 8dbd e6c2 89bd
00000380: d25e df3c 6d1c bbbc 1969 103d a883 a73d
00000390: 14d1 d0bc 5fa2 4e3d 6081 85bc c56f abbd
000003a0: ab9f 123c 038b 203d 4f75 3abc d941 303d
000003b0: c184 6f3b e230 ccbc 36e4 f63c 2edf c9bd
000003c0: 43c1 00bd 252e a53c 6e88 bc3b 861c 21bc
000003d0: 09f0 3b3d 7444 71bc 6971 0e3d 6a37 1fbd
000003e0: 39c0 053d d5d2 813c be6a e63c f250 b83c
000003f0: 7623 fdbc 9b19 123d 4d5c 77bd 9a11 33bc

bn3/gamma f4 [64]
1.0272869 1.0147996 0.99950624 0.996435 1.0020691 1.0179161 1.023824 1.0121748
0.9889424 0.9922565 1.0304343 1.032862 0.97559136 1.0283328 0.995156 1.0077357
1.0171155 0.99920374 0.9991983 0.992169 0.9861067 1.0566528 1.0165954 0.98368144
1.007457 1.0125003 0.98790663 0.99261475 1.0067016 1.0163567 1.0058862 1.0475228
0.9919526 0.99307543 0.995773 0.9880636 0.9785987 0.9914301 0.9727057 1.0408204
0.97705984 0.97931087 0.99539804 1.0188528 0.9952094 1.0120338 0.99756354 0.98878574
0.9939431 1.0151188 1.0082457 1.0113596 1.0300548 1.0493139 1.0179935 0.99340445
1.0044061 1.0009426 0.9795896 1.0263789 1.0191073 0.99852455 0.998203 1.0041541
00000000: 237e 833f f4e4 813f a4df 7f3f 5d16 7f3f
00000010: cd43 803f 134b 823f aa0c 833f f28e 813f
00000020: 542b 7d3f 8604 7e3f 45e5 833f d234 843f
00000030: 5bc0 793f 69a0 833f 8bc2 7e3f 7cfd 803f
00000040: d730 823f d1cb 7f3f 76cb 7f3f cafe 7d3f
00000050: 7d71 7c3f 6640 873f cc1f 823f 8cd2 7b3f
00000060: 5af4 803f 9c99 813f 73e7 7c3f 001c 7e3f
00000070: 99db 803f fa17 823f e1c0 803f 3a15 863f
00000080: 9bf0 7d3f 313a 7e3f fbea 7e3f bcf1 7c3f
00000090: 7285 7a3f 5dce 7d3f 3e03 793f 9a39 853f
000000a0: 9820 7a3f 1eb4 7a3f 68d2 7e3f c569 823f
000000b0: 0bc6 7e3f 538a 813f 5360 7f3f 1021 7d3f
000000c0: 0e73 7e3f 6aef 813f 320e 813f 3b74 813f
000000d0: d6d8 833f eb4f 863f 9c4d 823f c14f 7e3f
000000e0: 6190 803f e31e 803f 62c6 7a3f 6260 833f
000000f0: 1c72 823f 4e9f 7f3f 3b8a 7f3f 1f88 803f

conv1_7/W f4 [2, 32, 3, 3]
0.08218116 0.023313891 0.053083077 -0.18033595 -0.04970705 -0.021232748 0.04212475 -0.022774775
-0.039088897 -0.042876653 -0.048054107 -0.070341125 0.13516532 0.09447411 -0.016426282 0.02266242
-0.024776818 0.13538338 -0.01880387 0.027059784 -0.04993912 0.013745079 0.06710107 -0.037822094
0.00218649 0.09015117 0.17444585 0.03206557 0.079912424 -0.026311088 0.051221702 0.007328816
0.0734834 0.16168703 0.13024467 0.08776363 -0.08756625 -0.0262469 -0.055614367 0.051706146
0.03506845 -0.04613867 0.04566452 0.047275566 0.11313154 0.13487598 -0.053906497 -0.04608092
0.03383767 0.24251103 0.07858946 0.072702974 0.09777839 -0.03538776 0.015109898 0.06631204
-0.07307688 -0.0093772225 0.0408781 0.06583164 0.106657736 0.06770589 0.028106252 0.037633065
-0.041840833 0.08573549 -0.017527414 0.056621637 0.044170428 -0.040206246 0.03692601 -0.019036733
0.036115874 0.015086707 -0.047440328 0.03184868 -0.042690687 -0.0562375 0.024312515 -0.12784204
0.12061431 -0.114007056 0.07314995 0.1645346 0.13389178 0.05971255 -0.044158105 0.17223777
-0.11446361 0.15731682 0.0676086 0.08085051 0.015442806 0.16765437 0.07014214 0.048513874
-0.066062875 0.008452617 0.054632444 0.024027266 0.080059074 0.0059797205 0.06744021 -0.06083746
0.028144058 -0.031670805 0.01807451 0.10472647 0.023820553 -0.0019312028 0.0366797 0.054216053
0.03875618 0.10187562 -0.046340037 -0.108624935 0.038846694 0.0041474923 0.053625602 0.0610491
0.057433847 -0.013225547 0.018199002 0.027118009 -0.02099352 0.025931256 0.079465635 0.0793854
-0.15913075 -0.134328 0.024959099 0.06798676 0.037734 0.08498308 -0.028529823 0.04119262
0.034742843 0.041642617 0.14525531 -0.008858728 0.07122606 -0.020402675 -0.10777202 0.041031066
0.093241 0.048076205 0.11366047 0.1759065 0.008324216 0.044325892 -0.0025539757 -0.028792985
-0.15072322 -0.015763963 0.024587365 -0.1191894 -0.0514555 0.050506078 0.031096658 0.023123877
0.029661382 0.05207803 0.04581506 0.18340673 0.04318109 0.029114237 0.13827948 -0.017704854
0.0015930281 0.11960079 0.03122102 -0.055027988 -0.020561086 0.09285857 -0.045174126 0.19113089
0.06352969 0.04212238 0.038184583 0.069440685 -0.004486348 0.07461391 0.05391751 0.047263667
0.0655035 -0.005015043 0.10471602 0.08585725 0.16267246 0.070636936 0.046153005 -0.048338648
-0.07005036 0.10624632 0.15919413 0.07626622 0.11144433 0.0941466 -0.013731108 0.07538327
-0.040106457 0.05058387 -0.1055465 0.027620587 0.0003892175 -0.059734523 -0.015258593 -0.0126813715
-0.01522784 -0.046836954 0.0052237436 0.10529141 -0.04669814 0.043761734 0.01323855 0.113045484
-0.019336164 0.06794369 0.10672986 0.16835049 0.114071354 0.02607518 0.08437891 -0.008135762
0.0014811363 0.11707618 0.067894325 0.06385568 0.11636351 0.01761443 0.06656638 0.029202523
-0.14744504 -0.017223125 -0.038354456 0.010337218 0.07667207 -0.08710013 -0.07581896 -0.016374743
0.043958552 -0.036634907 0.08270816 0.10103457 0.052270684 0.09557108 0.029119043 0.01704047
0.03434659 0.03998998 0.07969877 0.008317303 0.13340996 -0.005484135 0.06440487 0.06421599
00000000: 994e a83d c6fc be3c a46d 593d fda9 38be
00000010: 9f99 4bbd 4df0 adbc 008b 2c3d 2a92 babc
00000020: ae1b 20bd 6e9f 2fbd 62d4 44bd 020f 90bd
00000030: c768 0a3e a47b c13d 6990 86bc 8aa6 b93c
00000040: c1f8 cabc f1a1 0a3e 930a 9abc 7bac dd3c
00000050: f68c 4cbd 0a33 613c 496c 893d 57eb 1abd
00000060: 374b 0f3b 2da1 b83d efa1 323e 3057 033d
00000070: 20a9 a33d 5a8a d7bc d9cd 513d 9126 f03b
00000080: 777e 963d 4991 253e dc5e 053e 6bbd b33d
00000090: ef55 b3bd bd03 d7bc e4cb 63bd d3c9 533d
000000a0: efa3 0f3d e7fb 3cbd b80a 3b3d 06a4 413d
000000b0: 82b1 e73d ee1c 0a3e 0fcd 5cbd 59bf 3cbd
000000c0: 5e99 0a3d d054 783e 83f3 a03d 4ce5 943d
000000d0: 0940 c83d c1f2 10bd 818f 773c 9bce 873d
000000e0: 55a9 95bd eca2 19bc cb6f 273d bdd2 863d
000000f0: 5f6f da3d 63a9 8a3d 153f e63c 2125 1a3d
00000100: 4b61 2bbd 1796 af3d a795 8fbc 17ec 673d
00000110: 0dec 343d 4eaf 24bd ba3f 173d ecf2 9bbc
00000120: 3dee 133d 3c2e 773c ca50 42bd c373 023d
00000130: 6edc 2ebd 4b59 66bd 0a2b c73c 06e9 02be
00000140: a304 f73d 887c e9bd a4cf 953d c27b 283e
00000150: ed1a 093e 2695 743d 21df 34bd 195f 303e
00000160: e66b eabd a917 213e 6176 8a3d f494 a53d
00000170: d303 7d3c 96ad 2b3e afa6 8f3d 7cb6 463d
00000180: f94b 87bd d87c 0a3c 45c6 5f3d d4d4 c43c
00000190: 03f6 a33d 88f1 c33b 181e 8a3d b330 79bd
000001a0: 5e8e e63c 3fb9 01bd ff10 943c d57a d63d
000001b0: 5223 c33c 6a20 fdba 743d 163d a711 5e3d
000001c0: cdbe 1e3d 2aa4 d03d 0dcf 3dbd c076 debd
000001d0: b61d 1f3d b0e7 873b 85a6 5b3d 9f0e 7a3d
000001e0: c13f 6b3d f7af 58bc 1316 953c 9626 de3c
000001f0: 9afa abbc c96d d43c e1be a23d d094 a23d
00000200: 2cf3 22be 478d 09be 0677 cc3c a43c 8b3d
00000210: f78e 1a3d 9c0b ae3d 60b7 e9bc 98b9 283d
00000220: 834e 0e3d 7391 2a3d cfbd 143e 3324 11bc
00000230: f8de 913d 8323 a7bc 94b7 dcbd 3110 283d
00000240: 23f5 be3d 8eeb 443d d2c6 e83d d520 343e
00000250: 4b62 083c 118f 353d 9a60 27bb 44df ebbc
00000260: 3057 1abe 6d23 81bc 716b c93c 9219 f4bd
00000270: 01c3 52bd 76df 4e3d 6bbe fe3c 496e bd3c
00000280: 6dfc f23c c64f 553d 93a8 3b3d f9ce 3b3e
00000290: a8de 303d fb80 ee3c 2399 0d3e c509 91bc
000002a0: 27cd d03a 42f1 f43d 39c3 ff3c 0765 61bd
000002b0: b96f a8bc a22c be3d 8108 39bd d1b7 433e
000002c0: db1b 823d 8488 2c3d 7067 1c3d eb36 8e3d
000002d0: 3702 93bb 2dcf 983d 9bd8 5c3d 8c97 413d
000002e0: b326 863d 3b55 a4bb 5a75 d63d edd5 af3d
000002f0: 9c93 263e 19aa 903d ef0a 3d3d bffe 45bd
00000300: 9076 8fbd ac97 d93d c903 233e 7731 9c3d
00000310: ed3c e43d efcf c03d 71f8 60bc 8b62 9a3d
00000320: ab46 24bd 0831 4f3d c328 d8bd 9244 e23c
00000330: e30f cc39 30ac 74bd 2dff 79bc 87c5 4fbc
00000340: 317e 79bc 1bd8 3fbd f02b ab3b 06a3 d73d
00000350: 8d46 3fbd 813f 333d 81e6 583c 6484 e73d
00000360: e066 9ebc 1026 8b3d 2f95 da3d 1264 2c3e
00000370: 3e9e e93d 9e9b d53c dace ac3d dc4b 05bc
00000380: b022 c23a a3c5 ef3d 2e0c 8b3d c4c6 823d
00000390: fe4f ee3d 234c 903c f453 883d 213a ef3c
000003a0: d5fb 16be 8317 8dbc 9019 1dbd 6f5d 293c
000003b0: 3f06 9d3d 8e61 b2bd f946 9bbd 5324 86bc
000003c0: e20d 343d 7c0e 16bd e562 a93d 36eb ce3d
000003d0: c919 563d c5ba c33d 0f8b ee3c 7598 8b3c
000003e0: 03af 0c3d 89cc 233d 1c39 a33d 4c45 083c
000003f0: 9f9c 083e 42b4 b3bb b3e6 833d ac83 833d
