loto6_cnn/loto6_30_140.model (npz, 491108 bytes, 38 tensors)

bn1/beta f4 [64]
0.041871656 0.012966873 0.022377724 0.06935424 -0.013813091 0.043772787 0.10441717 0.016056422
0.010723327 0.060387768 0.0793544 0.07295119 0.04389436 0.063656256 0.08768686 0.0439517
0.091334194 0.032755442 0.013225458 0.041515138 0.06246359 0.04932611 0.051677864 0.007441036
0.079766385 0.038220257 -0.012550216 0.038195055 0.070907965 0.0040795505 0.047349457 0.004857993
0.011439822 0.018069461 0.07481604 0.038791504 0.0051973974 0.026354555 0.094228335 0.087923445
0.021160837 0.05296326 0.024314808 0.02519157 0.04454223 -0.005727038 -0.0037134602 0.087347135
0.01840281 0.07180061 -0.015493913 0.013400886 0.0646579 0.03799298 0.06910401 0.032585863
0.08415208 0.043262996 -0.016938252 0.10189802 0.048222058 0.024938969 0.057114013 0.028035028
00000000: 9d81 2b3d 0273 543c 7d51 b73c 9909 8e3d
00000010: 4e50 62bc 184b 333d abd8 d53d c288 833c
00000020: e5b0 2f3c 2a59 773d 8f84 a23d 6f67 953d
00000030: 93ca 333d 365e 823d 2b95 b33d b306 343d
00000040: 6c0d bb3d 922a 063d 97af 583c c70b 2a3d
00000050: d2d9 7f3d 2d0a 4a3d 2bac 533d efd3 f33b
00000060: 8f5c a33d d88c 1c3d 6c9f 4dbc 6b72 1c3d
00000070: 3238 913d c0ad 853b 81f1 413d cd2f 9f3b
00000080: 176e 3b3c 6806 943c 2739 993d d7e3 1e3d
00000090: ee4e aa3b 82e5 d73c c9fa c03d 3511 b43d
000000a0: 7e59 ad3c 01f0 583d d92f c73c 8d5e ce3c
000000b0: ea71 363d e0a9 bbbb 865d 73bb 0ee3 b23d
000000c0: 7dc1 963c 330c 933d 2eda 7dbc 648f 5b3c
000000d0: 5c6b 843d 879e 1b3d 6786 8d3d c178 053d
000000e0: ed57 ac3d 8a34 313d 17c2 8abc e9af d03d
000000f0: 7e84 453d cf4c cc3c 62f0 693d b7a9 e53c

bn3/gamma f4 [64]
1.0551527 1.0781052 1.0771409 1.0590786 1.0073231 1.0331869 1.0428762 1.0082501
1.034458 1.0060264 0.9831847 1.0200033 1.0033431 1.0425702 1.0204041 0.98665434
0.9881386 1.0002389 1.0444189 0.9850181 1.0236026 1.0328597 0.99601084 1.0040764
1.0101224 1.0130482 1.0084878 1.0047029 1.0151868 1.0070511 0.9911836 1.0407034
1.0094333 1.0071311 1.0237992 1.0202799 1.0091861 1.0725605 1.0750089 1.0295662
1.012535 1.0148668 1.0106016 1.0292182 1.0372053 1.0279082 1.0021272 1.0483518
1.0100138 1.026459 1.0014969 0.9942963 1.0088838 0.98643816 1.044718 1.0892197
1.0237719 1.0017371 0.9947341 1.0136387 1.00953 1.0096846 1.0787133 1.0136584
00000000: 3e0f 873f 5aff 893f c1df 893f e38f 873f
00000010: f7ef 803f 783f 843f f87c 853f 570e 813f
00000020: 1f69 843f 79c5 803f feb1 7b3f 788f 823f
00000030: 8c6d 803f f172 853f 9a9c 823f 6195 7c3f
00000040: a7f6 7c3f d407 803f 85af 853f 252a 7c3f
00000050: 6905 833f bf34 843f 91fa 7e3f 9385 803f
00000060: b14b 813f 90ab 813f 2116 813f 1b9a 803f
00000070: a4f1 813f 0de7 803f 35be 7d3f c535 853f
00000080: 1c35 813f ace9 803f da0b 833f 8898 823f
00000090: 032d 813f aa49 893f e499 893f d3c8 833f
000000a0: bf9a 813f 28e7 813f 655b 813f 6cbd 833f
000000b0: 25c3 843f 7f92 833f b445 803f 6430 863f
000000c0: 2248 813f 0263 833f 0d31 803f 348a 7e3f
000000d0: 1b23 813f 3687 7c3f 52b9 853f 8d6b 8b3f
000000e0: f50a 833f ec38 803f e5a6 7e3f eabe 813f
000000f0: 4738 813f 583d 813f 4713 8a3f 8fbf 813f

bn4/beta f4 [32]
0.015816482 0.05357996 0.015748871 0.064635314 0.045422066 0.05751774 0.106317386 0.017876165
0.09307962 0.11213521 0.06891996 0.07180508 0.050063554 0.07503267 0.0054074056 0.01546712
0.012552361 0.06762831 0.0431872 0.006478762 0.066986814 -0.008298261 -0.0006209348 0.049265686
0.07225661 0.050627403 0.07335479 -0.0030648971 0.05429024 0.104566954 0.07885945 0.068811625
00000000: 9191 813c a976 5b3d c703 813c 855f 843d
00000010: 7d0c 3a3d b997 6b3d eebc d93d 0971 923c
00000020: 87a0 be3d 25a7 e53d e825 8d3d 8b0e 933d
00000030: 710f 4d3d baaa 993d 9b30 b13b ce69 7d3c
00000040: 6ba8 4d3c b680 8a3d 10e5 303d cb4b d43b
00000050: 6230 893d 6ef5 07bc 3bc6 22ba d1ca 493d
00000060: 46fb 933d ae5e 4f3d 093b 963d 71dc 48bb
00000070: 715f 5e3d 3327 d63d 1081 a13d 1ced 8c3d

bn2/avg_mean f4 [64]
-0.28314134 -0.6644706 -0.88771427 -1.2629399 0.08836616 -0.42900398 -1.2373766 -1.356502
-0.44484493 -1.435947 -0.3685481 -0.38771325 -0.7466179 -0.7205622 0.81449366 -0.9761381
-0.5850913 -0.9190152 -0.92954856 -1.1031318 -0.82744724 -1.4182777 -0.35924032 0.039649528
-0.8935395 -0.8809614 -0.7084741 -0.5691926 0.34116828 -0.4422683 0.016200416 -0.9178175
0.009249666 0.23094837 0.050179042 -1.4184283 -0.31800303 0.10182609 -0.080234796 -0.22759934
-0.92326707 -0.12775879 -0.8777205 0.46984482 -0.8517794 -0.9369249 -0.423671 -1.2824584
-0.82950246 -0.760916 -0.9466629 -0.0032129786 -1.2849736 -0.8630516 -0.8482455 -0.05773426
-1.1596267 -1.133011 -0.5294715 0.32050395 -0.09256937 -1.339651 -1.1393439 -1.082227
00000000: e7f7 90be bf1a 2abf 3e41 63bf 04a8 a1bf
00000010: 51f9 b43d 69a6 dbbe 5b62 9ebf dca1 adbf
00000020: b7c2 e3be 1ccd b7bf 56b2 bcbe 5a82 c6be
00000030: 5a22 3fbf c476 38bf a882 503f 30e4 79bf
00000040: 8bc8 15bf 9544 6bbf e5f6 6dbf 6c33 8dbf
00000050: 95d3 53bf 208a b5bf 59ee b7be 8b67 223d
00000060: 01bf 64bf b086 61bf 8f5e 35bf 9bb6 11bf
00000070: 9cad ae3e fe70 e2be bcb6 843c 16f6 6abf
00000080: e98b 173c bb7d 6c3e 8a88 4d3d 0f8f b5bf
00000090: 4bd1 a2be 328a d03d 2452 a4bd cd0f 69be
000000a0: 3b5b 6cbf 33d3 02be 4ab2 60bf 808f f03e
000000b0: 370e 5abf 4fda 6fbf 68eb d8be 9927 a4bf
000000c0: 465a 54bf 64cb 42bf 8058 72bf d690 52bb
000000d0: 047a a4bf f3f0 5cbf 9e26 59bf c27a 6cbd
000000e0: a66e 94bf 8106 91bf 728b 07bf 1819 a43e
000000f0: 0395 bdbd af79 abbf 05d6 91bf 6a86 8abf

conv1_6/b f4 [32]
-0.00016183608 0.0001957081 -0.00075166643 -0.000541499 -0.00090397766 -3.6392907e-05 1.0036666e-05 0.00071001414
-0.00041739797 -0.0001884583 7.784973e-05 0.0005784554 -0.0002920099 -0.00060503656 0.00025404844 0.00021018062
0.0006011002 -0.0001724926 -0.0007730802 -0.00046556024 0.00074106874 -0.00019529356 0.0003730876 8.489332e-05
-6.549066e-06 0.0011130784 3.905327e-05 -0.000119694756 -0.00025220428 0.00017534086 0.00031734668 0.00026675354
00000000: 8bb2 29b9 fe36 4d39 7b0b 45ba 62f3 0dba
00000010: eaf8 6cba 96a4 18b8 2763 2837 3e20 3a3a
00000020: 35d6 dab9 e49c 45b9 4143 a338 7ca3 173a
00000030: e818 99b9 519b 1eba ce31 8539 ee63 5c39
00000040: 2793 1d3a 21df 34b9 89a8 4aba 7016 f4b9
00000050: 4844 423a b7c7 4cb9 f89a c339 c108 b238
00000060: 0cc0 dbb6 b7e4 913a 21cd 2338 a204 fbb8
00000070: 493a 84b9 b4db 3739 8d61 a639 0edb 8b39

conv1_5/b f4 [32]
-0.00037736422 9.5004194e-05 0.0006072167 0.00016104846 -0.00028898695 0.00025953405 0.00017808209 -0.00013478499
0.00016499944 -0.00017957432 -0.00037726483 0.00028431363 -0.00045830375 0.00034313678 2.9971134e-05 0.0006269696
3.001769e-05 0.00044527257 0.00021845817 -0.0003791855 0.0001034894 0.0004095061 -0.0017141928 -0.00015526576
-2.4332689e-05 0.00048600894 0.00014517835 0.00037204582 0.00023868382 -0.00044314016 1.1678855e-05 0.00011663438
00000000: f8d8 c5b9 fd3c c738 9f2d 1f3a 1edf 2839
00000010: 2c83 97b9 1212 8839 8cbb 3a39 1255 0db9
00000020: b303 2d39 1d4c 3cb9 a1cb c5b9 ee0f 9539
00000030: 7d48 f0b9 0ae7 b339 856a fb37 385b 243a
00000040: 80ce fb37 7973 e939 eb11 6539 6bcd c6b9
00000050: 7308 d938 fab2 d639 c4ae e0ba d6ce 22b9
00000060: 0d1e ccb7 04cf fe39 043b 1839 250f c339
00000070: 3347 7a39 4455 e8b9 4df0 4337 9b99 f438

bn3/avg_var f4 [64]
0.31745085 0.7079841 0.53724456 0.5873803 0.45540613 0.3261534 0.7812911 0.35052627
0.42292118 0.38030362 0.38889486 0.36178473 0.5080156 0.28485787 0.60744596 0.37809598
0.3456707 0.36868334 0.3891257 0.63055104 0.3734051 0.36229944 0.36173147 0.4623938
0.36508986 0.43368495 0.30196607 0.5835325 0.3513338 0.28879327 0.44140542 0.43522802
0.35940754 0.4259178 0.37380892 0.41238374 0.42175776 0.55726343 0.74733984 0.34413117
0.36582783 0.25149494 0.3567796 0.28147176 0.40860748 0.32211784 0.24655008 0.56267893
0.35306382 0.38649675 0.480281 0.36840305 0.6633245 0.34281808 0.3303962 0.72075653
0.43535593 0.22696488 0.3555254 0.39455307 0.53841823 0.3015421 0.646293 0.5207073
00000000: eb88 a23e 723e 353f dc88 093f 8e5e 163f
00000010: fe2a e93e 94fd a63e b202 483f 2e78 b33e
00000020: 2089 d83e 28b7 c23e 3a1d c73e d93b b93e
00000030: 4f0d 023f e4d8 913e 9481 1b3f cc95 c13e
00000040: c0fb b03e 10c4 bc3e 7c3b c73e cb6b 213f
00000050: f42e bf3e 507f b93e de34 b93e e1be ec3e
00000060: 0fed ba3e f40b de3e 4c9b 9a3e 6362 153f
00000070: 06e2 b33e b6dc 933e e4ff e13e 35d6 de3e
00000080: 4404 b83e e611 da3e e263 bf3e f623 d33e
00000090: a2f0 d73e d1a8 0e3f aa51 3f3f f631 b03e
000000a0: c94d bb3e f2c3 803e d1ab b63e 111d 903e
000000b0: 0035 d13e a1ec a43e a077 7c3e ba0b 103f
000000c0: c8c4 b43e e7e2 c53e 64e7 f53e 539f bc3e
000000d0: a2cf 293f da85 af3e b129 a93e 8083 383f
000000e0: f9e6 de3e 7b69 683e 6d07 b63e dc02 ca3e
000000f0: c7d5 093f ba63 9a3e 7573 253f 134d 053f

conv1_3/W f4 [64, 64, 3, 3]
-0.004780495 -0.08455554 -0.004111061 0.08940029 -0.04259149 0.041509137 0.014141998 0.029644985
0.014117383 -0.010295641 0.018979065 -0.0918891 -0.028155943 0.045741774 0.00012672541 0.001148661
-0.0579648 0.0274834 -0.0561244 -0.06194727 0.012651541 -0.008436269 0.028696604 0.033146963
-0.016060758 -0.057779558 -0.06494935 0.006785637 0.049504388 -0.03127067 -0.01133975 0.10353032
-0.026402114 0.04659078 -0.03104149 0.013033054 -0.003666512 -0.06675977 0.03426923 0.07247023
0.013360029 0.00472381 0.008854165 -0.05319383 0.03337635 -0.020836081 -0.04039861 -0.055008557
0.014663563 -0.034829646 0.017691754 0.057121538 0.010925213 -0.0059005166 0.027341707 0.020907164
-0.026615284 -0.043966148 -0.08862011 0.011297463 0.0048030904 -0.010469753 -0.02201326 0.00822012
-0.03449861 -0.036409423 0.0109553365 -0.011369446 -0.017403955 0.013743824 -0.0053719855 0.024162058
-0.008814225 -0.003986988 0.06589532 0.0650014 0.027719699 -0.0047203866 0.01668077 0.006616787
-0.02232511 -0.021822223 0.06108371 -0.0242364 -0.035146743 -0.09014136 0.025379477 -0.051804747
-0.05697255 0.032903854 -0.009556197 0.01834243 0.03432861 0.0014619373 -0.066460215 -0.016786527
0.045159638 -0.07598889 -0.01296046 -0.042997796 -0.009787513 -0.0044911467 -0.020805385 -0.062853225
-0.08525695 -0.008301811 -0.0052657737 -0.023050953 -0.046687417 -0.0077310875 -0.0361615 -0.06420584
0.02562289 -0.0032545966 -0.023856644 0.01580618 -0.047932345 -0.009200508 0.008441755 0.04188785
-0.056758597 -0.032249875 -0.06343055 -0.054028008 -0.06574538 0.019309945 0.0070034317 0.023672448
-0.03208538 -0.020713557 0.0048901127 0.08236351 0.012902785 -0.012138747 -0.093806095 0.010966709
-0.024667598 0.058536682 0.002339156 0.04498461 -0.03353452 -0.03099302 -0.0108036995 0.01116509
-0.054751426 -0.015254043 -0.008680396 0.05189052 -0.030788405 0.045619648 0.01238463 -0.027803369
-0.00339665 -0.05534 -0.03067979 0.051478017 -0.07748425 0.007157818 -0.014558048 -0.08135442
0.0319752 0.024896257 0.0109343 -0.06163834 -0.020652167 0.0068586273 -0.029880067 -0.04662842
0.021039117 0.03473471 -0.01110749 -0.008753233 -0.07560026 0.03611788 -0.050092477 -0.04717057
0.10406933 -0.011807389 0.028530125 0.032779887 0.017951459 -0.067994945 -0.017645307 0.021276476
0.011833851 -0.0014322469 -0.06180335 0.016729241 -0.004953632 -0.01950953 -0.0008359924 0.03441922
-0.01902575 -0.018182857 -0.02561005 0.058561184 0.00675239 0.0030403896 -0.04817187 0.04878399
-0.04496342 -0.0109895915 0.02065778 0.041073397 -0.015035267 -0.025141355 -0.052607257 -0.02523807
0.003079528 -0.003317075 0.017847167 0.036052607 -0.037183825 -0.1032683 0.0021030582 -0.045648374
-0.08711651 0.06923707 -0.08482172 -0.014223987 0.0040482935 0.006822915 -0.0029222425 -0.050670594
0.07705259 -0.00071138033 0.0076686344 -0.09099866 0.049381286 0.08262657 -0.043824624 0.012017602
0.0052340026 -0.02283385 -0.023235507 -0.011654309 -0.01813774 -0.061820198 -0.05865695 0.023901206
0.05416373 0.0296342 0.028386498 -0.0625149 0.031950332 0.035920106 -0.046550196 -0.028909743
-0.02320346 0.009086873 0.006799655 -0.019336412 -0.020862106 0.017465446 -0.07520884 -0.056807797
00000000: b3a5 9cbb 742b adbd 14b6 86bb 8017 b73d
00000010: 6a74 2ebd 7c05 2a3d d7b3 673c 0ada f23c
00000020: 994c 673c 0caf 28bc fc79 9b3c 5a30 bcbd
00000030: 4ba7 e6bc ba5b 3b3d 98e1 0439 ab8e 963a
00000040: 806c 6dbd de24 e13c b3e2 65bd 6cbc 7dbd
00000050: 6948 4f3c 4738 0abc 2415 eb3c 1cc5 073d
00000060: da91 83bc 42aa 6cbd 2a04 85bd 0c5a de3b
00000070: 1dc5 4a3d ad15 00bd 5cca 39bc b407 d43d
00000080: 3f49 d8bc f9d5 3e3d b94a febc 9788 553c
00000090: dd49 70bb 59b9 88bd e45d 0c3d 466b 943d
000000a0: 06e4 5a3c 31ca 9a3b 0f11 113c c6e1 59bd
000000b0: a4b5 083d 6eb0 aabc 0379 25bd a750 61bd
000000c0: 713f 703c 88a9 0ebd 4cee 903c 46f8 693d
000000d0: aaff 323c 1f59 c1bb b7fb df3c 8045 ab3c
000000e0: 4c08 dabc d915 34bd 767e b5bd ff18 393c
000000f0: 3e63 9d3b 5489 2bbc 2755 b4bc afad 063c
00000100: 6a4e 0dbd 0c22 15bd 037e 333c ea46 3abc
00000110: bd92 8ebc c72d 613c 7b07 b0bb 82ef c53c
00000120: 8a69 10bc 48a5 82bb 20f4 863d 741f 853d
00000130: 6c14 e33c 79ad 9abb 1ca6 883c a2d1 d83b
00000140: 26e3 b6bc 85c4 b2bc ea32 7a3d 6a8b c6bc
00000150: 08f6 0fbd 099c b8bd 9fe8 cf3c 3731 54bd
00000160: 0c5c 69bd 31c6 063d 9891 1cbc dd42 963c
00000170: 289c 0c3d 7a9e bf3a 4b1c 88bd e683 89bc
00000180: 50f9 383d 10a0 9bbd 1c58 54bc 751e 30bd
00000190: ce5b 20bc 782a 93bb 0e70 aabc 31b9 80bd
000001a0: 329b aebd 5204 08bc 838c acbb 5ad5 bcbc
000001b0: 4e3b 3fbd 1055 fdbb 151e 14bd 5a7e 83bd
000001c0: 18e7 d13c 124b 55bb 026f c3bc f67b 813c
000001d0: b554 44bd babd 16bc 494f 0a3c 9892 2b3d
000001e0: b47b 68bd 7218 04bd e0e7 81bd 794c 5dbd
000001f0: 84a5 86bd e42f 9e3c 0b7d e53b b9ec c13c
00000200: f66b 03bd 7aaf a9bc 3d3d a03b 33ae a83d
00000210: 3466 533c 98e1 46bc 691d c0bd b6ad 333c
00000220: b413 cabc 29c4 6f3d 874c 193b c841 383d
00000230: 7e5b 09bd 13e5 fdbc 0002 31bc c8ed 363c
00000240: 0843 60bd 18ec 79bc 3838 0ebc 278b 543d
00000250: f737 fcbc abdb 3a3d e7e8 4a3c e4c3 e3bc
00000260: 559a 5ebb 32ac 62bd 2f54 fbbc 9dda 523d
00000270: 10b0 9ebd 218c ea3b e184 6ebc 259d a6bd
00000280: 6df8 023d 3cf3 cb3c c725 333c 7c78 7cbd
00000290: bc2e a9bc 56be e03b 0bc7 f4bc 71fd 3ebd
000002a0: 3a5a ac3c fc45 0e3d 31fc 35bc b869 0fbc
000002b0: 4fd4 9abd 58f0 133d c52d 4dbd ed35 41bd
000002c0: 4d22 d53d c773 41bc 02b8 e93c 3444 063d
000002d0: f00e 933c ef40 8bbd e48c 90bc 014c ae3c
000002e0: c5e2 413c 3bba bbba 8225 7dbd c30b 893c
000002f0: 1452 a2bb 73d2 9fbc 8026 5bba 2bfb 0c3d
00000300: e4db 9bbc 37f4 94bc 2bcc d1bc dadd 6f3d
00000310: 2743 dd3b 4641 473b de4f 45bd b9d1 473d
00000320: 902b 38bd b00d 34bc 813a a93c 943c 283d
00000330: 7b56 76bc 3ef5 cdbc b57a 57bd 12c0 cebc
00000340: e8d1 493b 4963 59bb 3934 923c e6ab 133d
00000350: 114e 18bd 557e d3bd 76d3 093b caf9 3abd
00000360: 246a b2bd 2acc 8d3d 03b7 adbd ba0b 69bc
00000370: 8ca7 843b c292 df3b 1883 3fbb f88b 4fbd
00000380: c0cd 9d3d ed7b 3aba 2b49 fb3b 815d babd
00000390: 0844 4a3d 1e38 a93d 7381 33bd 7ae5 443c
000003a0: ff81 ab3b 0e0e bbbc 6458 bebc b7f1 3ebc
000003b0: 9995 94bc 2d37 7dbd 4542 70bd 76cc c33c
000003c0: cada 5d3d 6cc3 f23c cd8a e83c d007 80bd
000003d0: 5ade 023d f620 133d 6bab 3ebd 20d4 ecbc
000003e0: 2f15 bebc 1ce1 143c a4cf de3b 6567 9ebc
000003f0: 02e7 aabc b213 8f3c 1807 9abd 4baf 68bd

bn4/avg_mean f4 [32]
1.8669926 0.9827439 -0.7618809 -0.36751708 0.022488598 -1.5784831 -2.5392087 0.32148385
0.1533336 -0.32308483 -1.7214867 -2.284066 -2.2291484 -1.7235976 0.55768996 -0.8069353
-0.04646266 -0.23720801 -0.94199693 -2.24012 -2.1231844 1.1035289 1.9725218 -2.2567596
-1.8942696 0.88900965 -2.7544765 -1.032705 -1.3646133 -2.9826243 -2.6254332 -0.15056708
00000000: 9df9 ee3f 1b95 7b3f a00a 43bf 332b bcbe
00000010: 023a b83c bc0b cabf 6582 22c0 8899 a43e
00000020: 7c03 1d3e 606b a5be ad59 dcbf 232e 12c0
00000030: 5eaa 0ec0 d99e dcbf c5c4 0e3f 5093 4ebf
00000040: a14f 3ebd a8e6 72be b626 71bf 205e 0fc0
00000050: 41e2 07c0 6f40 8d3f 987b fc3f c06e 10c0
00000060: 6d77 f2bf 2396 633f 5849 30c0 ad2f 84bf
00000070: a6ab aebf 51e3 3ec0 1907 28c0 422e 1abe

bn3/beta f4 [64]
0.0026282251 -0.0026908887 -0.0012980181 -0.013565144 -0.008486202 -0.0013615702 0.056675028 0.018097702
0.020063346 -0.00483424 -0.026149103 0.028055074 0.0020758207 0.015495875 0.011482342 -0.0067451173
-0.012934615 -0.02760846 0.017314468 -0.027977476 0.0154227065 0.0347619 -0.016077336 -0.0147413
-0.033914264 0.013400658 0.014140766 -0.0009744873 0.0052640517 0.004716471 -0.032877035 -0.0066159274
-0.0031725669 -0.00449412 0.015957294 0.016799353 0.011687076 0.0034475117 -0.033824123 0.030365577
0.0110959625 0.01693984 -0.008213104 0.010141456 0.016514516 0.020814506 -0.002577984 0.030927856
-0.00061173225 0.019258494 -0.0028351133 -0.015510059 0.026918545 -0.020196814 0.03638592 0.011556954
0.0422502 -0.026811814 0.0010633309 -0.017006269 -0.0021991145 -0.011680123 -0.021975152 -0.006099112
00000000: 4d3e 2c3b 9f59 30bb 4322 aaba 5640 5ebc
00000010: b609 0bbc b776 b2ba 1324 683d a241 943c
00000020: e35b a43c 8b68 9ebb a536 d6bc c1d3 e53c
00000030: 7e0a 083b 69e2 7d3c 6f20 3c3c 2506 ddbb
00000040: b5eb 53bc 232b e2bc 12d7 8d3c 0531 e5bc
00000050: 85af 7c3c 7e62 0e3d 9eb4 83bc 7e85 71bc
00000060: afe9 0abd 6f8e 5b3c acae 673c bc74 7fba
00000070: 117e ac3b a08c 9a3b 12aa 06bd 6cca d8bb
00000080: d7ea 4fbb 6943 93bb dfb8 823c cc9e 893c
00000090: 267b 3f3c a6ef 613b 2a8b 0abd 3bc1 f83c
000000a0: d7cb 353c 6bc5 8a3c 4190 06bc 5928 263c
000000b0: 7349 873c 2f83 aa3c 65f3 28bb 6a5c fd3c
000000c0: a85c 20ba fdc3 9d3c 4fcd 39bb e71d 7ebc
000000d0: 4884 dc3c ca73 a5bc 6709 153d 6159 3d3c
000000e0: 8c0e 2d3d 73a4 dbbc 775f 8b3a bb50 8bbc
000000f0: 051f 10bb fd5d 3fbc 3c05 b4bc 0fdb c7bb

conv1_7/b f4 [3]
0.024635421 0.008992544 -0.0102849435
00000000: 39d0 c93c 7755 133c 2e82 28bc

conv1_4/W f4 [32, 64, 3, 3]
-0.026621288 0.04852926 0.014048204 0.07125557 0.1054932 -0.027064225 -0.01786937 -0.0037858167
0.011909855 0.053878907 -0.055461682 -0.02913676 0.0362957 0.044640373 -0.04876144 -0.10737326
0.00981397 0.033197846 0.010179482 -0.049554262 -0.048348106 0.030862411 -0.08460105 0.021726863
-0.014874425 0.082353115 -0.08908274 0.0341971 -0.020981146 -0.0076330705 -0.0016678789 0.003492213
0.019347629 -0.02686091 0.0134250065 0.0044441065 -0.047340762 0.005464913 -0.009065218 -0.017421454
-0.031567354 0.022651242 0.0051231952 0.0051168604 0.0614405 -0.0043190373 0.03493551 0.011668391
0.018883651 -0.012441905 0.01597024 -0.0073537445 0.02669492 0.019436834 0.067668214 0.08366042
-0.00073417916 -0.057528794 0.02412898 -0.015665036 0.0030618368 0.007915238 -0.07878129 -0.017519489
0.09699031 0.02488787 0.005988354 0.022798408 0.011835367 0.015198228 -0.021814797 -0.05402916
-0.077159144 0.0067342985 -0.029785128 0.05157679 -0.037243813 0.04627548 -0.00012489632 0.021439621
0.0017835682 -0.029272836 -0.03735513 -0.014314874 -0.09556877 0.05419036 0.06677014 0.04874311
0.026475873 -0.012304064 0.034062862 0.019194867 0.025299693 0.007145195 0.01578905 -0.0015731292
0.012172046 -0.038759634 0.033900347 -0.0021902632 -0.04185306 0.043147743 -0.08301995 -0.000105818224
0.027486289 -0.0518075 0.05633107 -0.0074706916 0.01887088 0.012502654 -0.12321739 -0.019765258
-0.04179965 0.0013267593 -0.049409475 -0.023844264 -0.029686373 0.009865014 -0.04481155 -0.024591487
0.0035408689 0.06321002 -0.021983175 -0.0036943106 0.028463896 0.035250556 -0.012264636 -0.084751666
-0.004624073 0.011641499 0.03530614 -0.03945048 0.061812423 0.07381591 0.021428188 0.022748666
0.024443593 0.05703981 -0.029255403 0.02203979 0.078581154 0.019081876 -0.06468564 -0.025778435
-0.04911516 0.0143867945 -0.030859401 0.02649897 0.06300306 -0.013847427 -0.07122317 -0.0256618
0.019311307 -0.07676059 -0.029806703 0.03233408 -0.005294201 0.077995494 0.0496856 0.07139989
0.031340573 -0.07889923 -0.017824175 0.014662636 -0.021480454 0.01657848 -0.014998819 -0.030628556
-0.06285865 -0.013174862 -0.02270252 0.046153247 0.075357735 0.047473505 -0.022474881 -0.012894317
0.022353718 0.010043562 0.020110304 0.05611312 -0.013180383 0.006515644 0.05736357 0.05607255
-0.021485463 0.025461942 0.058544405 0.014468167 -0.065993644 -0.052726183 0.07635945 -0.049836878
-0.023069397 0.01792742 0.020043839 -0.011489316 -0.044128466 -0.03626591 0.000735288 0.053384125
0.0039766342 -0.0245701 0.02985643 -0.033655316 0.03726228 0.054348454 0.022953764 0.03032189
0.085300624 0.036819585 -0.00033122694 0.018579634 0.01822238 0.002680102 0.025397671 0.022297582
0.0030531965 0.034661394 -0.01885233 0.014308118 0.034842476 -0.0062465793 0.023823176 0.04115953
-0.061551865 -0.008010011 -0.05478605 -0.032147698 0.0029914381 0.08302114 0.02797283 0.017484352
-0.062343504 0.022793993 0.015830714 -0.029692069 0.04072633 -0.024864174 0.06921471 0.03531261
-0.038337387 -0.027105097 -0.04747776 0.09986587 -0.045249976 0.072188795 0.024195705 0.090106726
-0.023214811 0.017736478 0.07043129 0.0018416457 0.047344316 0.03560162 0.0008628343 -0.009919189
00000000: e314 dabc 9ec6 463d 702a 663c 71ee 913d
00000010: d20c d83d cbb5 ddbc c962 92bc 771b 78bb
00000020: 8d21 433c 21b0 5c3d ca2b 63bd 37b0 eebc
00000030: cdaa 143d d3d8 363d 13ba 47bd 83e6 dbbd
00000040: c6ca 203c 77fa 073d d8c7 263c 69f9 4abd
00000050: aa08 46bd 2bd3 fc3c 5143 adbd 89fc b13c
00000060: dcb3 73bc c0a8 a83d 0371 b6bd 4212 0c3d
00000070: a7e0 abbc d61e fabb bb9c daba 9ddd 643b
00000080: eb7e 9e3c 690b dcbc 8ff4 5b3c de9f 913b
00000090: 63e8 41bd 0313 b33b 4886 14bc 70b7 8ebc
000000a0: c54c 01bd 198f b93c 7ae0 a73b 56ab a73b
000000b0: 09a9 7b3d b686 8dbb 8a18 0f3d c72c 3f3c
000000c0: e3b1 9a3c 22d9 4bbc 05d4 823c aef7 f0bb
000000d0: 4eaf da3c ff39 9f3c a295 8a3d 2756 ab3d
000000e0: ee75 40ba 50a3 6bbd 23aa c53c f653 80bc
000000f0: 19a9 483b eaae 013c 1658 a1bd 0885 8fbc
00000100: dba2 c63d a5e1 cb3c f439 c43b bac3 ba3c
00000110: 21e9 413c fd01 793c f2b4 b2bc ae4d 5dbd
00000120: 9d05 9ebd 64ab dc3b f1ff f3bc 2f42 533d
00000130: f88c 18bd 5c8b 3d3d 9af6 02b9 25a2 af3c
00000140: 9ec6 e93a 96cd efbc b101 19bd ef88 6abc
00000150: 8fb9 c3bd b6f6 5d3d c8be 883d dba6 473d
00000160: eee3 d83c fc96 49bc 8085 0b3d 8e3e 9d3c
00000170: 4d41 cf3c 3d22 ea3b 0a58 813c 7531 ceba
00000180: 436d 473c 6cc2 1ebd 17db 0a3d 858a 0fbb
00000190: 1d6e 2bbd b0bb 303d 5d06 aabd baea ddb8
000001a0: ed2a e13c 1a34 54bd 68bb 663d b4cc f4bb
000001b0: 1b97 9a3c efd7 4c3c 6659 fcbd c0ea a1bc
000001c0: 1c36 2bbd a8e6 ad3a 9761 4abd 0c55 c3bc
000001d0: d630 f3bc dea0 213c 518c 37bd 1674 c9bc
000001e0: ec0d 683b 4174 813d 0f16 b4bc 3f1c 72bb
000001f0: 1e2d e93c e362 103d 9df1 48bc 4892 adbd
00000200: 8985 97bb fcbb 3e3c 2c9d 103d d496 21bd
00000210: 062f 7d3d cc2c 973d 2b8a af3c 695b ba3c
00000220: ee3d c83c 93a2 693d 07a9 efbc ca8c b43c
00000230: 28ef a03d 9851 9c3c e879 84bd 4c2d d3bc
00000240: fa2c 49bd 97b6 6b3c dbcc fcbc 5e14 d93c
00000250: c007 813d 52e0 62bc 74dd 91bd b238 d2bc
00000260: bf32 9e3c a834 9dbd 302d f4bc be70 043d
00000270: fa7a adbb 1abc 9f3d 2183 4b3d 1b3a 923d
00000280: f95e 003d eb95 a1bd 0104 92bc 8e3b 703c
00000290: c7f7 afbc 98cf 873c 9bbd 75bc bde8 fabc
000002a0: 09bc 80bd 60db 57bc a3fa b9bc 300b 3d3d
000002b0: 2855 9a3d 9473 423d 3e1d b8bc af42 53bc
000002c0: 251f b73c c18d 243c 5dbe a43c dfd6 653d
000002d0: 88f2 57bc 2f81 d53b 10f6 6a3d 55ac 653d
000002e0: 4802 b0bc 9095 d03c 42cc 6f3d e40b 6d3c
000002f0: ad27 87bd 69f7 57bd 5862 9c3d c121 4cbd
00000300: 08fc bcbc 86dc 923c fa32 a43c af3d 3cbc
00000310: 0dc0 34bd 908b 14bd 58c0 403a 50a9 5a3d
00000320: 6d4e 823b 3c47 c9bc 7995 f43c 28da 09bd
00000330: 55a0 183d 7c9c 5e3d 8809 bc3c 9d65 f83c
00000340: 18b2 ae3d 22d0 163d 87a8 adb9 5134 983c
00000350: 1a47 953c a6a4 2f3b c70e d03c 6ba9 b63c
00000360: 2318 483b 1bf9 0d3d 3470 9abc 996c 6a3c
00000370: fcb6 0e3d 1bb0 ccbb d228 c33c e596 283d
00000380: cf1d 7cbd 6c3c 03bc 5667 60bd 4ead 03bd
00000390: 010c 443b fd06 aa3d 4727 e53c 583b 8f3c
000003a0: e75b 7fbd 78ba ba3c 6aaf 813c c83c f3bc
000003b0: a7d0 263d f4af cbbc 71c0 8d3d f5a3 103d
000003c0: aa07 1dbd 820b debc 0a78 42bd 7a86 cc3d
000003d0: 0a58 39bd b8d7 933d 1236 c63c e089 b83d
000003e0: fd2c bebc 174c 913c 483e 903d 6063 f13a
000003f0: 1dec 413d 01d3 113d d42f 623a 1884 22bc

bn1/gamma f4 [64]
0.98043424 0.9700047 0.9719674 0.98726726 0.9776823 0.9854255 1.0059509 0.9820085
0.9995224 1.0078015 1.0032643 1.0383414 0.9860714 0.9806964 1.016989 0.9643839
1.0059842 0.95823234 0.95143473 0.9922151 1.0144945 1.013525 0.99452984 0.9889723
1.0355933 0.93967164 0.9830682 0.97003186 1.0025014 0.9770287 0.9644103 0.9867447
0.9645405 0.98624444 1.0422726 0.9792862 0.9756595 0.9703542 1.0176399 1.0089221
0.9672431 1.0104252 0.97924227 1.0029739 1.0012914 0.9684816 0.98828524 0.97434783
0.9701476 1.0115801 0.94515866 0.97776437 0.9741259 0.9617075 0.9693681 0.99665964
0.9842664 1.009899 0.96878135 1.0135483 0.97398293 0.9896257 0.9817846 0.9781299
00000000: bdfd 7a3f 3a52 783f dbd2 783f 8cbd 7c3f
00000010: 6349 7a3f d844 7c3f 00c3 803f e964 7b3f
00000020: b3e0 7f3f a4ff 803f f76a 803f 5fe8 843f
00000030: 2d6f 7c3f eb0e 7b3f b22c 823f dde1 763f
00000040: 17c4 803f b74e 753f 3a91 733f cf01 7e3f
00000050: f5da 813f 30bb 813f 8299 7e3f 4a2d 7d3f
00000060: 528e 843f 528e 703f 5caa 7b3f 0254 783f
00000070: f751 803f 8e1e 7a3f 98e3 763f 4d9b 7c3f
00000080: 20ec 763f 847a 7c3f 3069 853f 80b2 7a3f
00000090: d2c4 793f 2269 783f 0642 823f 5c24 813f
000000a0: 3e9d 773f 9d55 813f 9faf 7a3f 7361 803f
000000b0: 512a 803f 69ee 773f 4300 7d3f dc6e 793f
000000c0: 985b 783f 757b 813f ebf5 713f c44e 7a3f
000000d0: 5160 793f 7632 763f 8228 783f 1625 7f3f
000000e0: e2f8 7b3f 5f44 813f 0e02 783f f3bb 813f
000000f0: f256 793f 1c58 7d3f 3c56 7b3f b966 7a3f

conv1_4/b f4 [32]
0.00034159503 -3.5204197e-05 1.661163e-05 0.00011436998 -0.0003089515 -0.00081722543 0.00059094816 1.4621325e-05
-5.619889e-05 -0.00011196647 4.4655808e-05 -0.00011761214 -0.00056647754 -0.00019380105 2.322268e-05 0.00022978782
-0.001669253 4.3596396e-05 -0.0002918866 -0.00012770889 -3.6435806e-05 -8.793825e-05 -0.00026952714 0.00017800287
1.1434178e-05 0.0010732758 0.00043657946 -5.5258763e-05 0.000120683486 4.9326984e-05 0.0001837617 -0.00028393665
00000000: 1c18 b339 38a8 13b8 3459 8b37 ead9 ef38
00000010: c5fa a1b9 123b 56ba dce9 1a3a 1d4e 7537
00000020: 19b7 6bb8 8acf eab8 cf4c 3b38 89a6 f6b8
00000030: aa7f 14ba 1337 4bb9 53ce c237 33f3 7039
00000040: d6ca daba 46db 3638 5b08 99b9 98e9 05b9
00000050: a6d2 18b8 7d6b b8b8 524f 8db9 48a6 3a39
00000060: 6cd5 3f37 29ad 8c3a b4e4 e439 a5c5 67b8
00000070: 7417 fd38 72e4 4e38 28b0 4039 55dd 94b9

conv1_5/W f4 [32, 32, 3, 3]
-0.055421535 -0.04480512 0.012637683 -0.066496424 0.06215249 -0.00295981 -0.0059064087 0.08722796
0.034237914 0.019031333 0.052238528 -0.026352236 -0.05503782 0.0167915 -0.02181059 -0.13397081
0.037327547 0.011952829 -0.015855491 0.034674853 0.028484074 -0.00799521 -0.17593622 0.055727914
-0.05898098 -0.1760841 0.04543783 0.04521577 0.0060089375 0.05698671 -0.00090593426 0.07515123
-0.06975696 0.062430814 0.030215442 0.07342393 0.003152926 -0.029245246 -0.007992835 -0.019834008
-0.056392655 0.034186278 -0.015662437 -0.02280602 0.042928047 0.027940113 -0.017712675 0.04079901
-0.044675607 -0.019640764 0.034308694 -0.019089289 0.09608043 0.04590711 0.03020185 -0.10454676
-0.049441893 0.05025388 -0.031809196 0.02714835 -0.05080376 0.03739885 0.083119415 -0.016739005
0.060815707 0.027401065 -0.080129825 -0.029650938 -0.03745849 0.045261297 -0.1077963 0.03634533
-0.009868473 -0.011751271 -0.018819932 0.052897952 -0.051177684 -0.01149228 0.05402408 -0.021627275
0.007766462 0.014239963 -0.074053705 0.015864778 -0.0040232055 0.007606408 0.03677423 -0.09544362
0.06673433 0.020837756 0.039895225 0.07147333 0.048110656 0.09576503 -0.023644561 -0.012155175
-0.031415757 -0.050310727 0.04458747 0.005912862 -0.04178213 0.023205793 0.07206976 0.050658032
0.019802587 -0.07324576 -0.004142628 -0.03447202 -0.099207275 -0.024278376 0.05005367 -0.08498448
-0.0071289297 0.084807694 0.011926069 -0.03909505 -0.03880364 0.053184833 0.022960607 -0.020152375
0.11594674 0.056891493 -0.035402644 0.030971196 0.023073554 0.0038144966 -0.09645373 0.09555974
0.062177617 -0.026849419 0.11238371 -0.066103645 -0.023618894 0.01996832 -0.0001934174 -0.05752381
0.043555148 -0.050422303 -0.04641764 -0.05467247 0.029945645 0.008079461 0.005569431 -0.025526255
0.024939917 0.0017647195 -0.08952907 -0.05775862 0.025014592 0.013864237 0.039532557 0.00088388484
-0.028719954 -0.015326851 -0.0762173 0.009661511 0.019210812 -0.07738161 -0.13413776 -0.003163741
0.07785655 -0.034214158 -0.093778946 -0.03505599 -0.07608029 0.1309653 0.14607024 -0.011995709
0.036805864 0.053988114 0.11795952 0.0059197536 0.033225834 0.0029836753 0.013284888 -0.06737487
-0.047735542 -0.04961406 -0.05261473 0.023037193 0.0070965174 0.050858077 -0.061211567 0.02485323
0.016237352 -0.009639989 0.08351305 0.031022198 -0.04362872 0.040930666 -0.15674312 0.0026507895
-0.050480593 -0.0022533953 0.031931996 0.07055729 -0.013585988 0.014724826 0.0423815 -0.04500979
-0.09521015 0.035708845 0.06970301 0.08188965 -0.024485948 -0.014148778 -0.02247308 0.028786436
0.019282531 -0.06318114 -0.015900124 0.014569141 0.07147338 0.054152243 -0.03786245 0.0853024
-0.013308851 0.024708884 -0.1024541 -0.07716172 -0.03797512 0.08026778 -0.00887474 -0.029876579
-0.0013305095 -0.01720491 -0.061466295 -0.031642493 0.028875424 -0.01419963 0.050167475 -0.06391625
-0.061035424 0.034445748 0.056711517 0.16623874 0.006691917 0.014564508 -0.037995666 -0.02681021
0.058087427 0.034598194 0.023252157 -0.04253181 0.0826182 -0.00696844 0.007741221 0.0019193315
-0.09368876 -0.08047383 0.011261817 0.09372245 -0.0087943785 0.018063474 0.020927694 -0.036560915
00000000: b101 63bd 9385 37bd 490e 4f3c 472f 88bd
00000010: 9c93 7e3d 5ff9 41bb 8c8a c1bb 93a4 b23d
00000020: 0e3d 0c3d 99e7 9b3c 11f8 553d a5e0 d7bc
00000030: 566f 61bd 548e 893c 1fac b2bc a52f 09be
00000040: c5e4 183d ccd5 433c 60e3 81bc 3807 0e3d
00000050: 6f57 e93c 57fe 02bc a028 34be f442 643d
00000060: 0a96 71bd 644f 34be 051d 3a3d 2c34 393d
00000070: 9fe6 c43b e56a 693d 387c 6dba e3e8 993d
00000080: bddc 8ebd 74b7 7f3d 6086 f73c 495f 963d
00000090: 52a1 4e3b ba93 efbc 61f4 02bc ee7a a2bc
000000a0: fcfb 66bd e906 0c3d 834e 80bc b1d3 babc
000000b0: 52d5 2f3d aae2 e43c 2c1a 91bc dd1c 273d
000000c0: c5fd 36bd abe5 a0bc 4687 0c3d 2461 9cbc
000000d0: d1c5 c43d 1809 3c3d df69 f73c 9d1c d6bd
000000e0: 9583 4abd 03d7 4d3d 5c4a 02bd 3766 de3c
000000f0: 9a17 50bd 892f 193d 833a aa3d 3d20 89bc
00000100: e419 793d 3378 e03c 1b1b a4bd 86e6 f2bc
00000110: 136e 19bd e963 393d 4ec4 dcbd d7de 143d
00000120: 60af 21bc 6788 40bc 422c 9abc 86ab 583d
00000130: b19f 51bd 1e4a 3cbc 5b48 5d3d af2b b1bc
00000140: ce7d fe3b bc4e 693c 78a9 97bd daf6 813c
00000150: 18d5 83bb 2d3f f93b 93a0 163d f277 c3bd
00000160: 02ac 883d f1b3 aa3c 2d69 233d 9c60 923d
00000170: ae0f 453d 7520 c43d 3db2 c1bc 8026 47bc
00000180: cfad 00bd 9f12 4ebd 5aa1 363d aec0 c13b
00000190: bd23 2bbd 131a be3c 4f99 933d cc7e 4f3d
000001a0: 0939 a23c df01 96bd e2be 87bb 8832 0dbd
000001b0: 2f2d cbbd 72e3 c6bc 1405 4d3d 580c aebd
000001c0: cc99 e9bb a8af ad3d 8f65 433c 2222 20bd
000001d0: 91f0 1ebd 57d8 593d e217 bc3c 9816 a5bc
000001e0: 7c75 ed3d 0e07 693d 5d02 11bd 4eb7 fd3c
000001f0: c004 bd3c a2fc 793b 8889 c5bd d3b4 c33d
00000200: f5ad 7e3d 50f3 dbbc 6e29 e63d 5961 87bd
00000210: 697c c1bc 9a94 a33c 17d0 4ab9 169e 6bbd
00000220: e266 323d 9e87 4ebd 6c20 3ebd 3df0 5fbd
00000230: 9250 f53c b75f 043c c67f b63b 701c d1bc
00000240: cc4e cc3c 294e e73a 045b b7bd 4d94 6cbd
00000250: 67eb cc3c d326 633c e4ec 213d 82b4 673a
00000260: 1c46 ebbc 791d 7bbc d117 9cbd 504b 1e3c
00000270: fe5f 9d3c 407a 9ebd 695b 09be c456 4fbb
00000280: 4173 9f3d 2524 0cbd 2d0f c0bd df96 0fbd
00000290: fccf 9bbd c51b 063e 7093 153e a689 44bc
000002a0: bfc1 163d a422 5d3d c394 f13d 7efa c13b
000002b0: d017 083d c489 433b dca8 593c d6fb 89bd
000002c0: 5886 43bd 1d38 4bbd 8b82 57bd 7fb8 bc3c
000002d0: e789 e83b 8f50 503d fbb8 7abd 0099 cb3c
000002e0: 3204 853c 0bf1 1dbc e408 ab3d 4422 fe3c
000002f0: 07b4 32bd eaa6 273d 4581 20be deb8 2d3b
00000300: bdc4 4ebd b3ad 13bb 20cb 023d 5780 903d
00000310: c497 5ebc 6640 713c 3998 2d3d 305c 38bd
00000320: 8afd c2bd 7043 123d 74c0 8e3d c3b5 a73d
00000330: c196 c8bc 47d0 67bc 7719 b8bc 88d1 eb3c
00000340: 66f6 9d3c 1d65 81bd fa40 82bc 68b3 6e3c
00000350: a360 923d bece 5d3d a815 1bbd 06b3 ae3d
00000360: 5e0d 5abc 496a ca3c 75d3 d1bd f706 9ebd
00000370: cd8b 1bbd 6f63 a43d 5c67 11bc babf f4bc
00000380: 7e64 aeba 50f1 8cbc 15c4 7bbd 8f9b 01bd
00000390: 278c ec3c 91a5 68bc 697c 4d3d 86e6 82bd
000003a0: 4800 7abd fc16 0d3d 564a 683d 7d3a 2a3e
000003b0: de47 db3b f99f 6e3c 58a1 1bbd 16a1 dbbc
000003c0: 15ed 6d3d d6b6 0d3d 4f7b be3c d635 2ebd
000003d0: bb33 a93d 8357 e4bb 12aa fd3b 1492 fb3a
000003e0: e5df bfbd 77cf a4bd 7c83 383c 8ef1 bf3d
000003f0: 4c16 10bc daf9 933c 8e70 ab3c e6c0 15bd

bn5/beta f4 [32]
0.06399236 0.05703044 0.0006443699 0.09661788 0.05680338 0.04600755 0.10897974 0.038243476
0.1098368 0.07524027 0.0948715 0.102512226 0.042112716 0.05194071 0.014717272 0.010530155
0.022271436 0.07066911 0.033999987 0.0006651868 0.06656246 0.026113769 -0.007877829 0.000635694
0.13004638 0.049508594 0.026599627 0.06787621 0.1022785 0.102238186 0.06266515 0.050577827
00000000: 6d0e 833d c098 693d efea 283a 98df c53d
00000010: a9aa 683d 6a72 3c3d c530 df3d 31a5 1c3d
00000020: 1ef2 e03d 9217 9a3d fd4b c23d eef1 d13d
00000030: 627e 2c3d c8bf 543d b620 713c ac86 2c3c
00000040: 9672 b63c f7ba 903d 9243 0b3d ee5f 2e3a
00000050: e651 883d 8bec d53c 0212 01bc b4a4 263a
00000060: e12a 053e 86c9 4a3d 76e7 d93c af02 8b3d
00000070: 6477 d13d 4162 d13d 9656 803d b22a 4f3d

bn2/gamma f4 [64]
0.9932597 0.9589256 0.9691046 0.995078 0.9857984 1.0224799 1.0241781 1.0023541
1.009634 0.996601 0.99060667 0.9812914 0.9996573 0.9935292 0.97560847 1.0232934
0.9881485 0.99569094 0.9755486 0.99470294 0.99194443 1.0217459 0.9731483 0.9965146
1.0072348 1.0077327 1.0169746 0.96867335 0.95304245 1.0029678 1.0297018 0.9832483
0.992412 0.98472923 0.98857033 1.0037404 0.99433035 0.9796222 0.9988058 0.9964416
1.0388021 0.99024564 0.975702 1.0023853 1.0300527 1.0239834 0.9873031 1.0230042
0.9939606 0.9810454 1.014317 0.95641863 1.0642335 0.99991244 1.0153198 0.9805154
0.99402344 0.98158467 0.9833926 0.9668024 0.97143805 1.0026625 1.0570333 0.9849693
00000000: 4546 7e3f 267c 753f 3d17 783f 6fbd 7e3f
00000010: 495d 7c3f 9fe0 823f 4518 833f 244d 803f
00000020: b03b 813f 3e21 7f3f 6698 7d3f ea35 7b3f
00000030: 8ae9 7f3f ee57 7e3f 7ac1 793f 47fb 823f
00000040: 4df7 7c3f 9ae5 7e3f 8ebd 793f daa4 7e3f
00000050: 12f0 7d3f 92c8 823f 3f20 793f 951b 7f3f
00000060: 12ed 803f 63fd 803f 392c 823f fafa 773f
00000070: 97fa 733f 4061 803f 45cd 833f 29b6 7b3f
00000080: b60e 7e3f 3717 7c3f f212 7d3f 917a 803f
00000090: 6f8c 7e3f 85c8 7a3f bdb1 7f3f cc16 7f3f
000000a0: 78f7 843f bd80 7d3f 9bc7 793f 294e 803f
000000b0: c4d8 833f e311 833f e5bf 7c3f cdf1 823f
000000c0: 3474 7e3f cb25 7b3f 24d5 813f dad7 743f
000000d0: ce38 883f 43fa 7f3f 00f6 813f 0f03 7b3f
000000e0: 5278 7e3f 2249 7b3f 9ebf 7b3f 5d80 773f
000000f0: 2ab0 783f 3f57 803f de4c 873f f326 7c3f

conv1_2/b f4 [64]
-3.003644e-05 -1.6512538e-05 7.86255e-05 0.00032261503 -6.512748e-05 -8.091892e-05 -0.00014225539 0.0003018936
-3.1643616e-05 0.000106929816 0.00013891632 -1.0978475e-05 9.160475e-06 5.8963586e-05 -0.00026089983 -7.238824e-05
-0.0002873687 0.00010806223 -8.179433e-05 -0.00019778403 -7.859915e-05 -0.00018425964 1.9176778e-05 5.5604603e-05
-0.00036341886 -5.5979737e-05 5.2654083e-05 0.00017100351 0.00013471715 0.00010183812 0.00010281659 -0.0005225457
-5.4539774e-05 -2.2238133e-05 7.0296956e-05 4.8206908e-05 5.0868057e-05 0.00023011416 -0.00010699837 -0.00014040622
-2.2989281e-05 -0.00011844238 2.7164548e-05 -5.2033472e-05 -0.0001622754 -3.0829542e-05 8.669177e-06 -0.00028726237
-4.127214e-05 1.3136408e-05 0.00013586473 1.3013204e-05 0.00018774036 5.0038147e-05 -0.00035836737 -0.000119693446
-7.0632406e-05 7.5836415e-06 -0.00021237352 -0.00016158479 4.9680868e-05 0.00013478143 -0.00021415672 8.984042e-05
00000000: c4f6 fbb7 6884 8ab7 bee3 a438 a824 a939
00000010: 0d95 88b8 04b3 a9b8 642a 15b9 7947 9e39
00000020: 13b9 04b8 823f e038 11aa 1139 3130 38b7
00000030: f1af 1937 ab4f 7738 62c9 88b9 24cf 97b8
00000040: f9a9 96b9 789f e238 ff88 abb8 3f64 4fb9
00000050: 99d5 a4b8 d235 41b9 d1dd a037 fd38 6938
00000060: 4189 beb9 c9cb 6ab8 e4d8 5c38 684f 3339
00000070: dc42 0d39 ed91 d538 3d9f d738 73fb 08ba
00000080: a3c1 64b8 078c bab7 646c 9338 c631 4a38
00000090: 295b 5538 cd4a 7139 5064 e0b8 023a 13b9
000000a0: 1bd9 c0b7 4564 f8b8 6cdf e337 843e 5ab8
000000b0: 7928 2ab9 f84e 01b8 d571 1137 b49b 96b9
000000c0: 9f1b 2db8 7164 5c37 e976 0e39 4953 5a37
000000d0: 2bdc 4439 0de0 5138 41e3 bbb9 ee03 fbb8
000000e0: 7c20 94b8 fc76 fe36 95b0 5eb9 166f 29b9
000000f0: 6d60 5038 1d54 0d39 428f 60b9 b568 bc38

bn2/avg_var f4 [64]
0.33676103 0.62971056 0.47425383 0.5104306 0.3747225 0.4348014 0.48420358 0.36971086
0.4555973 0.48316017 0.44512022 0.5656582 0.40167657 0.29557255 0.52436215 0.39754477
0.38583452 0.4034255 0.70128465 0.3934633 0.6809774 0.533638 0.43130222 0.3991744
0.4313478 0.40495852 0.37723726 0.27620128 0.514124 0.38956463 0.47805595 0.38736588
0.3772966 0.49059173 0.51327354 0.5757125 0.37012708 0.57457864 0.43346632 0.42166677
0.73174506 0.43961188 0.4261762 0.5119823 0.46489638 0.4823455 0.47480953 0.5252095
0.4967408 0.3604605 0.3975635 0.481126 0.51976836 0.47047016 0.4885697 0.45680928
0.41261852 0.40927494 0.32819334 0.35090548 0.5233461 0.50059056 0.5429811 0.4718498
00000000: f16b ac3e b634 213f 66d1 f23e 94ab 023f
00000010: a1db bf3e 4a9e de3e 88e9 f73e be4a bd3e
00000020: 0d44 e93e c560 f73e cce6 e33e face 103f
00000030: 8da8 cd3e 4955 973e 993c 063f fd8a cb3e
00000040: 1a8c c53e ca8d ce3e 6487 333f 0674 c93e
00000050: 8954 2e3f 809c 083f a5d3 dc3e 9660 cc3e
00000060: 9ed9 dc3e b956 cf3e 3e25 c13e 416a 8d3e
00000070: a19d 033f 0475 c73e c0c3 f43e d254 c63e
00000080: 052d c13e d72e fb3e e565 033f e561 133f
00000090: 4c81 bd3e 9617 133f 4cef dd3e b5e4 d73e
000000a0: a553 3b3f cf14 e13e c433 da3e 4611 033f
000000b0: e606 ee3e fdf5 f63e 3c1a f33e 2174 063f
000000c0: cf54 fe3e 478e b83e 718d cb3e 2656 f63e
000000d0: 8a0f 053f 77e1 f03e cf25 fa3e e8e2 e93e
000000e0: bc42 d33e 7c8c d13e f508 a83e e2a9 b33e
000000f0: 03fa 053f b426 003f cf00 0b3f 4c96 f13e

bn6/beta f4 [32]
0.062813796 0.096628696 0.0033368163 0.09046085 0.039528657 0.029434698 0.09267446 0.025763249
0.08552083 0.067762874 0.12682395 0.1140729 0.046231687 0.062656485 0.031028187 0.029757809
0.010628455 0.07655047 0.06860156 0.0030430863 0.07784198 0.010298943 0.07562472 0.014615778
0.2342284 0.043136135 0.052891634 0.08414302 0.08520404 0.07883091 0.09322045 0.063563615
00000000: 85a4 803d 44e5 c53d 7dae 5a3b 8a43 b93d
00000010: cde8 213d 0921 f13c 1bcc bd3d 730d d33c
00000020: 8b25 af3d 43c7 8a3d 23de 013e 0d9f e93d
00000030: 705d 3d3d 0b52 803d d32e fe3c a6c6 f33c
00000040: f922 2e3c 7ec6 9c3d fa7e 8c3d 846e 473b
00000050: 9e6b 9f3d e6bc 283c 22e1 9a3d 0477 6f3c
00000060: 92d9 6f3e 84af 303d e6a4 583d 2d53 ac3d
00000070: 757f ae3d 1a72 a13d 5dea be3d a42d 823d

conv1_7/W f4 [3, 32, 3, 3]
0.019115847 0.042282064 0.07111978 0.019759683 0.02236644 -0.035195213 0.034863997 0.06853304
0.034102276 -0.00721631 0.031996317 0.106560215 0.043466482 0.015392251 0.09083981 0.058319572
-0.07994497 0.008874299 0.1399992 -0.019426338 0.021930035 0.030926108 0.007707405 0.05495381
-0.061563794 -0.058409333 -0.070750445 -0.03210406 0.046026755 0.081008196 0.016917035 -0.018824786
-0.018191433 -0.018490722 0.17599294 -0.023054412 0.11031185 0.070800684 0.079898216 0.05575801
0.13965045 0.16703546 0.059345406 -0.032270484 0.019384993 -0.03003829 -0.092631 0.12878299
0.08854821 -0.093134135 0.055784255 0.013061705 -0.00088213384 -0.0388926 0.07932324 -0.043615587
0.011579362 -0.019066567 0.15729746 -0.067748375 0.0058366675 0.1594064 -0.04911871 -0.0256967
0.077725865 -0.032865167 -0.04028651 -0.12124108 0.085716575 -0.06011286 0.095209494 0.07269913
0.013351004 0.100341655 0.1180157 0.04122213 0.051049847 -0.072497696 -0.109111734 0.200809
0.027147338 0.1093561 0.08253152 -0.009948182 0.09664324 0.14728001 -0.0243768 0.07503874
0.019458892 -0.017832583 -0.06167208 0.07316598 0.05555102 0.057493422 0.11031748 -0.07406653
0.176926 0.04828084 -0.040752027 -0.027947785 -0.042998787 -0.030902915 0.029589258 0.14328063
0.043971222 0.020562176 0.049807463 0.044516124 -0.105503015 0.013761303 0.18774587 0.071586095
0.1552179 0.103812486 0.098406106 0.09668108 -0.017477825 0.0267295 0.12961823 0.12415668
0.018317657 0.07730665 0.07472339 0.16353208 -0.0992402 -0.077896796 0.0343497 0.00971229
0.017777558 -0.052586794 0.0009974465 -0.06672952 -0.030733379 0.08764669 0.0028397911 0.09235425
0.024820572 0.042567983 -0.030450037 -0.06133075 -0.034524567 0.07590056 0.01775653 0.013902428
-0.03512216 -0.08302081 -0.13597164 -0.08093515 0.026324581 -0.03423604 0.031794462 0.19523062
0.0013972431 0.11281719 0.09329188 0.0078301 0.22845332 0.02890098 0.07142529 0.008828214
-0.16551864 0.030938635 0.084247895 0.07277101 0.018139176 0.07059842 -0.06712258 -0.028883493
-0.02254042 0.042336248 0.032599363 0.03801359 -0.005758835 0.1888418 -0.09108926 -0.103347704
-0.04199081 -0.057379935 0.014415896 0.007130925 0.09629829 -0.03233195 0.020215385 -0.082589984
0.062364113 -0.06857212 -0.003985627 0.030342555 0.16641249 0.00089572964 -0.010444605 0.034843743
0.009793677 0.083249494 -0.10094947 -0.009643863 -0.12970623 0.080847286 0.10930374 0.00898172
-0.044224348 0.09457793 -0.08384065 -0.07423084 0.05498235 0.0021379478 0.042492304 -0.10115865
0.046980303 -0.023028946 -0.0072050225 0.06479508 -0.040998697 0.00892104 -0.036531843 0.1035154
-0.0551656 0.03871033 -0.078552514 -0.04018502 0.04790255 0.15370102 0.046959106 -0.017597044
0.058413833 -0.047944043 -0.028938696 0.13656077 0.03623537 0.07225804 0.11617009 0.08917663
0.10481113 0.11391267 -0.07217437 -0.023781078 -0.03190891 0.11022748 0.11608339 -0.007727541
-0.026600586 0.08512988 0.036140934 -0.05394784 -0.0003089927 0.07363603 -0.075656794 -0.04740485
0.22065294 -0.04239265 -0.06778424 -0.0016488677 0.029133793 -0.018212672 -0.02409064 0.062708676
00000000: d698 9c3c f52f 2d3d 3fa7 913d 0fdf a13c
00000010: d339 b73c db28 10bd 8dcd 0e3d 0d5b 8c3d
00000020: d4ae 0b3d cc76 ecbb 920e 033d 3e3c da3d
00000030: e909 323d c82f 7c3c 390a ba3d 81e0 6e3d
00000040: 30ba a3bd 8265 113c f35b 0f3e fc23 9fbc
00000050: 9ea6 b33c c058 fd3c 668e fc3b 3f17 613d
00000060: 512a 7cbd a03e 6fbd 9ce5 90bd 8c7f 03bd
00000070: 8d86 3c3d a0e7 a53d 9895 8a3c 7036 9abc
00000080: 3306 95bc db79 97bc 7e37 343e 9bdc bcbc
00000090: 2eeb e13d f3ff 903d ada1 a33d 8362 643d
000000a0: 8700 0f3e 580b 2b3e 2b14 733d 0e2e 04bd
000000b0: 47cd 9e3c dc12 f6bc 52b5 bdbd b0df 033e
000000c0: c458 b53d 1cbd bebd 087e 643d c300 563c
000000d0: 003f 67ba d94d 1fbd 3974 a23d 42a6 32bd
000000e0: 5db7 3d3c 7d31 9cbc 9612 213e a9bf 8abd
000000f0: 8441 bf3b 6e3b 233e b330 49bd e381 d2bc
00000100: bd2e 9f3d a09d 06bd 7803 25bd 3e4d f8bd
00000110: 2c8c af3d e738 76bd 32fd c23d 48e3 943d
00000120: 2bbe 5a3c ed7f cd3d 37b2 f13d 89d8 283d
00000130: a519 513d ac79 94bd f975 dfbd e0a0 4d3e
00000140: 1864 de3c 17f6 df3d 4906 a93d b3fd 22bc
00000150: e4ec c53d 92d0 163e dbb1 c7bc e9ad 993d
00000160: 4168 9f3c a315 92bc dd9b 7cbd 0cd8 953d
00000170: 7789 633d 397e 6b3d 22ee e13d 31b0 97bd
00000180: 172c 353e 21c2 453d 99eb 26bd c1f2 e4bc
00000190: 7f1f 30bd 1c28 fdbc 2c65 f23c 28b8 123e
000001a0: 2b1b 343d 0272 a83c e902 4c3d 8a56 363d
000001b0: f711 d8bd 1777 613c 7440 403e bb9b 923d
000001c0: 71f1 1e3e a49b d43d 2489 c93d bb00 c63d
000001d0: a82d 8fbc d3f7 da3c a4ba 043e dc45 fe3d
000001e0: e90e 963c f352 9e3d 9408 993d f474 273e
000001f0: 723e cbbd 5b88 9fbd 45b2 0c3d 4c20 1f3c
00000200: 3ea2 913c 4065 57bd c0bc 823a 7da9 88bd
00000210: 91c4 fbbc 1c80 b33d ca1b 3a3b 3a24 bd3d
00000220: 8354 cb3c c45b 2e3d 5b72 f9bc f435 7bbd
00000230: a269 0dbd c171 9b3d 2476 913c 02c7 633c
00000240: 41dc 0fbd d006 aabd 263c 0bbe 54c1 a5bd
00000250: a6a6 d73c 173b 0cbd e93a 023d 89ea 473e
00000260: b323 b73a b30c e73d d00f bf3d d249 003c
00000270: abef 693e bfc1 ec3c 6c47 923d 37a4 103c
00000280: b87d 29be 0573 fd3c 298a ac3d f808 953d
00000290: 9c98 943c e895 903d 9077 89bd 139d ecbc
000002a0: b0a6 b8bc c668 2d3d e986 053d 23b4 1b3d
000002b0: 9cb4 bcbb bf5f 413e 028d babd f6a7 d3bd
000002c0: 8efe 2bbd 3907 6bbd a630 6c3c 89aa e93b
000002d0: 0a38 c53d 826e 04bd bc9a a53c f024 a9bd
000002e0: 8371 7f3d 8a6f 8cbd dd99 82bb f390 f83c
000002f0: 0968 2a3e 66cf 6a3a d91f 2bbc 50b8 0e3d
00000300: a975 203c b67e aa3d 99be cebd 4b01 1ebc
00000310: b6d1 04be 4393 a53d a4da df3d 1028 133c
00000320: 9724 35bd 13b2 c13d a6b4 abbd 5706 98bd
00000330: 2c35 613d d01c 0c3b 690c 2e3d 442c cfbd
00000340: 6b6e 403d 33a7 bcbc 1c18 ecbb 48b3 843d
00000350: 40ee 27bd 8e29 123c 6aa2 15bd e2ff d33d
00000360: 53f5 61bd b98e 1e3d 24e0 a0bd 0c99 24bd
00000370: 7735 443d cd63 1d3e 3158 403d ad27 90bc
00000380: 5843 6f3d f960 44bd d810 edbc 96d6 0b3e
00000390: 8a6b 143d 06fc 933d 96ea ed3d 3da2 b63d
000003a0: 38a7 d63d 0c4b e93d 28d0 93bd 89d0 c2bc
000003b0: ebb2 02bd f2be e13d 21bd ed3d 5037 fdbb
000003c0: 79e9 d9bc 9358 ae3d 8408 143d 69f8 5cbd
000003d0: 4c00 a2b9 7dce 963d f3f1 9abd 972b 42bd
000003e0: d8f2 613e eaa3 2dbd 77d2 8abd d21e d8ba
000003f0: fea9 ee3c be32 95bc bc59 c5bc 686d 803d
