loto6_cnn/loto6_30_180.model (npz, 491188 bytes, 38 tensors)

bn1/beta f4 [64]
0	0x3d3221a1	0.043489102
1	0x3c55861f	0.013032465
2	0x3cba6ebe	0.022757884
3	0x3d8f6951	0.070025094
4	0xbc5e22a5	-0.013558065
5	0x3d3428ca	0.043984212
6	0x3dd8cc92	0.10585894
7	0x3c874875	0.016514042
8	0x3c35e6f8	0.0111024305
9	0x3d7c31f3	0.061571073
10	0x3da485e4	0.0803335
11	0x3d986484	0.07441047
12	0x3d3303d1	0.04370481
13	0x3d8330ba	0.06405778
14	0x3db4de67	0.088314824
15	0x3d3a3745	0.045462865
16	0x3dbd46ec	0.09242043
17	0x3d09d6c5	0.033652086
18	0x3c65a2b5	0.014015843
19	0x3d2bc056	0.041931473
20	0x3d809587	0.0627852
21	0x3d4c196f	0.049828943
22	0x3d56d375	0.052447755
23	0x3bf2a722	0.0074051777
24	0x3da48af9	0.080343194
25	0x3d1f6e43	0.038923513
26	0xbc46b4bb	-0.01212805
27	0x3d1b648f	0.037937697
28	0x3d93bde2	0.07213952
29	0x3ba4fc73	0.005034977
30	0x3d468f91	0.04847676
31	0x3bb46d08	0.0055061616
32	0x3c403915	0.011732359
33	0x3c9bc376	0.019014101
34	0x3d9ac461	0.075569876
35	0x3d1f614c	0.03891115
36	0x3ba57e4d	0.0050504566
37	0x3cd9add2	0.026572142
38	0x3dc31620	0.095257044
39	0x3db79759	0.08964414
40	0x3caf77fc	0.021419518
41	0x3d5ee71d	0.054419626
42	0x3ccd03d1	0.025026234
43	0x3cd1abe3	0.025594657
44	0x3d3840dd	0.044983733
45	0xbbb7f979	-0.0056144563
46	0xbb85b1d2	-0.0040800357
47	0x3db4063e	0.08790253
48	0x3c9587e5	0.018253276
49	0x3d95a926	0.07307653
50	0xbc7d02f3	-0.015442598
51	0x3c5d4ca7	0.013507045
52	0x3d85c585	0.065318145
53	0x3d1cd8cd	0.038292695
54	0x3d8dbdc7	0.06920963
55	0x3d0754ea	0.033039965
56	0x3dae776e	0.08518873
57	0x3d32119b	0.04347382
58	0xbc8a32c8	-0.016869918
59	0x3dd553dc	0.104163855
60	0x3d48d0c1	0.04902721
61	0x3cc68f58	0.024238274
62	0x3d6b32b2	0.057421394
63	0x3ce9d543	0.028544074

bn3/gamma f4 [64]
0	0x3f879ec8	1.0595331
1	0x3f8a6102	1.0810854
2	0x3f8a1bee	1.0789773
3	0x3f87ca3f	1.0608596
4	0x3f811418	1.0084257
5	0x3f84a0b7	1.0361546
6	0x3f85a388	1.0440531
7	0x3f814f1b	1.0102266
8	0x3f84b69e	1.036823
9	0x3f810c40	1.0081863
10	0x3f7c165b	0.9847161
11	0x3f829d4d	1.0204254
12	0x3f80a260	1.0049553
13	0x3f85c9a9	1.0452167
14	0x3f82ce36	1.021918
15	0x3f7cf807	0.9881596
16	0x3f7d5161	0.989523
17	0x3f801d3c	1.0008922
18	0x3f85e8b2	1.0461638
19	0x3f7c6c0b	0.9860236
20	0x3f832320	1.0245094
21	0x3f844e64	1.0336423
22	0x3f7f6669	0.9976564
23	0x3f80c52f	1.0060176
24	0x3f816c55	1.0111185
25	0x3f81a088	1.0127115
26	0x3f812df2	1.0092146
27	0x3f80b07c	1.0053859
28	0x3f821d3a	1.0165169
29	0x3f812011	1.0087911
30	0x3f7dfcc4	0.99213815
31	0x3f85734f	1.0425814
32	0x3f814e49	1.0102016
33	0x3f8112f1	1.0083905
34	0x3f83310d	1.0249344
35	0x3f82c13c	1.021522
36	0x3f812f28	1.0092516
37	0x3f897b68	1.0740786
38	0x3f8a17c1	1.0788499
39	0x3f83f73a	1.0309823
40	0x3f81c21d	1.0137364
41	0x3f8211f2	1.0161726
42	0x3f81845f	1.0118521
43	0x3f83e74e	1.0304964
44	0x3f84ffcf	1.0390567
45	0x3f83c6d5	1.0295054
46	0x3f807bf9	1.0037833
47	0x3f8661fd	1.0498654
48	0x3f8168f1	1.011015
49	0x3f838a9f	1.0276679
50	0x3f805169	1.0024844
51	0x3f7ee879	0.99573475
52	0x3f815575	1.0104204
53	0x3f7c8eb3	0.9865524
54	0x3f861720	1.0475807
55	0x3f8bb7bc	1.0915446
56	0x3f8338d7	1.0251721
57	0x3f808bae	1.0042627
58	0x3f7ee40e	0.99566734
59	0x3f81fe15	1.0155665
60	0x3f814d00	1.0101624
61	0x3f817cd6	1.0116222
62	0x3f8a9964	1.0828061
63	0x3f81cba4	1.0140271

bn4/beta f4 [32]
0	0x3c97cada	0.018529344
1	0x3d64ecee	0.055890016
2	0x3c849f1d	0.016189152
3	0x3d8a77d7	0.06761139
4	0x3d42a991	0.047524992
5	0x3d6c6017	0.057708826
6	0x3de352a9	0.110997505
7	0x3ca9c866	0.02072544
8	0x3dc55c0f	0.096366994
9	0x3df1c3b2	0.11804904
10	0x3d938bcf	0.07204401
11	0x3d95b281	0.073094375
12	0x3d570ea0	0.05250418
13	0x3d9fc4f1	0.078012355
14	0x3ba880d4	0.0051423106
15	0x3c82dafa	0.015973557
16	0x3c5a4a90	0.013323441
17	0x3d8d6cd6	0.069055244
18	0x3d350107	0.044190433
19	0x3bfe1bd9	0.0077547845
20	0x3d8afc67	0.06786423
21	0xbc05b705	-0.008161311
22	0xb9e21bb1	-0.0004312671
23	0x3d4e8ef1	0.05042929
24	0x3d97ad99	0.07406158
25	0x3d56dc01	0.052455906
26	0x3d9d25f3	0.07673254
27	0xbb059060	-0.0020380244
28	0x3d66352d	0.056203056
29	0x3ddf92af	0.109166496
30	0x3da448a8	0.080216706
31	0x3d9267c1	0.07148696

bn2/avg_mean f4 [64]
0	0xbe910c99	-0.28329924
1	0xbf2bed2f	-0.6715879
2	0xbf63431f	-0.88774294
3	0xbfa1acd8	-1.2630873
4	0x3dabda36	0.0839123
5	0xbedaa719	-0.4270561
6	0xbf9f0cd4	-1.242579
7	0xbfae9bbc	-1.3641276
8	0xbee82587	-0.4534113
9	0xbfb8605e	-1.4404409
10	0xbec0f595	-0.37687364
11	0xbec9320d	-0.39295998
12	0xbf42e595	-0.76131564
13	0xbf3bbc15	-0.73333865
14	0x3f527206	0.82205236
15	0xbf7b07a3	-0.9805853
16	0xbf16f60e	-0.589692
17	0xbf6aca4a	-0.9171492
18	0xbf6f86f8	-0.9356532
19	0xbf8c978d	-1.098375
20	0xbf5447be	-0.8292197
21	0xbfb5ffd9	-1.4218704
22	0xbeb9c519	-0.36283186
23	0x3d2c05e8	0.04199782
24	0xbf683221	-0.9070149
25	0xbf60c146	-0.8779491
26	0xbf363371	-0.71172243
27	0xbf14a86d	-0.580695
28	0x3eac32e6	0.33632582
29	0xbedf1b12	-0.4357534
30	0x3bf14455	0.007362882
31	0xbf6a83c9	-0.9160734
32	0x3c98a53a	0.018633474
33	0x3e757539	0.23970498
34	0x3d57b584	0.05266334
35	0xbfb730df	-1.4311789
36	0xbea8684c	-0.32892072
37	0x3dd4d7f0	0.10392749
38	0xbdc83fcf	-0.097777955
39	0xbe6e5659	-0.23275127
40	0xbf6e1b5a	-0.93010485
41	0xbe0487b0	-0.12942386
42	0xbf607cb4	-0.8769028
43	0x3eed296f	0.46320674
44	0xbf5bded3	-0.8588688
45	0xbf71613c	-0.9428899
46	0xbee06e66	-0.43834227
47	0xbfa587ef	-1.2932109
48	0xbf56a3ba	-0.83843577
49	0xbf451324	-0.7698233
50	0xbf6d9468	-0.92804575
51	0xbba79ba3	-0.005114989
52	0xbfa4c7be	-1.2873456
53	0xbf5f8bff	-0.8732299
54	0xbf5a2dc0	-0.8522606
55	0xbd5f430a	-0.054507293
56	0xbf956f30	-1.1674557
57	0xbf902da3	-1.1263927
58	0xbf088e5c	-0.53342223
59	0x3e9fa8c6	0.3118345
60	0xbddaaf57	-0.10677975
61	0xbfab7232	-1.3394225
62	0xbf91f248	-1.1402063
63	0xbf8bbcce	-1.0916994

conv1_6/b f4 [32]
0	0xb9314147	-0.00016904353
1	0x394eee2b	0.00019734415
2	0xba42641b	-0.00074154296
3	0xba0da8a1	-0.0005403851
4	0xba6c696c	-0.00090183946
5	0xb832c186	-4.261874e-05
6	0x375ba2c5	1.3091315e-05
7	0x3a3887c3	0.0007039273
8	0xb9dec09a	-0.0004248664
9	0xb948332f	-0.00019092554
10	0x38a71ad0	7.968175e-05
11	0x3a13c142	0.00056364026
12	0xb99aeb2b	-0.00029548383
13	0xba1e65b3	-0.0006042376
14	0x397fec1b	0.00024406651
15	0x395ccdc5	0.0002105749
16	0x3a1d9c1a	0.00060123357
17	0xb9342aef	-0.00017182132
18	0xba4b85aa	-0.0007763753
19	0xb9f47364	-0.0004662528
20	0x3a428184	0.0007419812
21	0xb94ad7c1	-0.00019344596
22	0x39c70b3a	0.00037964602
23	0x38b786d7	8.751236e-05
24	0xb858299e	-5.1537172e-05
25	0x3a92bc3e	0.0011195017
26	0x3834c9d7	4.3103322e-05
27	0xb8facba9	-0.000119588636
28	0xb9844063	-0.00025224974
29	0x3937d759	0.00017532463
30	0x39a66feb	0.00031745373
31	0x398e9108	0.00027192407

conv1_5/b f4 [32]
0	0xb9c51607	-0.0003759118
1	0x38ca3d6d	9.643552e-05
2	0x3a203af9	0.0006112303
3	0x392482d7	0.00015689
4	0xb995a174	-0.00028539787
5	0x398d9bd0	0.00027009705
6	0x39328569	0.00017025102
7	0xb9115f15	-0.00013863698
8	0x391e996e	0.00015125211
9	0xb936dab4	-0.00017438346
10	0xb9c09c21	-0.0003673742
11	0x398f9b3d	0.00027390747
12	0xb9ecbe6f	-0.00045155312
13	0x39b51fc8	0.0003454669
14	0x3801b17f	3.0921303e-05
15	0x3a24c17f	0.00062849367
16	0x3805f3b5	3.193664e-05
17	0x39e7080e	0.00044065755
18	0x39665efc	0.00021969894
19	0xb9c6a9d6	-0.0003789204
20	0x38d1a111	9.9958976e-05
21	0x39d77318	0.00041093747
22	0xbae0de50	-0.0017156098
23	0xb922c070	-0.00015521212
24	0xb7b2d006	-2.1316122e-05
25	0x39fff7ed	0.0004882211
26	0x39188981	0.00014547074
27	0x39c26638	0.00037078722
28	0x3980be64	0.00024555915
29	0xb9e7d647	-0.00044219402
30	0x37d6f109	2.5623029e-05
31	0x38fc9150	0.00012043363

bn3/avg_var f4 [64]
0	0x3e9febb2	0.3123451
1	0x3f33b4db	0.7019784
2	0x3f0852b9	0.53251225
3	0x3f1519c5	0.58242446
4	0x3ee49756	0.4464671
5	0x3ea4587a	0.32098752
6	0x3f47f162	0.78102696
7	0x3eaff75b	0.34368405
8	0x3ed729f4	0.42024195
9	0x3ebe6a6a	0.37190562
10	0x3ec16c03	0.3777772
11	0x3eb5216d	0.35377064
12	0x3efd1ee7	0.4943764
13	0x3e904c72	0.28183323
14	0x3f1c2b1d	0.61003286
15	0x3ebee0b0	0.37280798
16	0x3eaa15fc	0.33219898
17	0x3ebb8ce9	0.36630943
18	0x3ec3eeba	0.3826807
19	0x3f1ef86c	0.6209781
20	0x3ebd7239	0.37001207
21	0x3eb93d96	0.361798
22	0x3eb5f757	0.35540268
23	0x3eedb5f2	0.46427876
24	0x3eb7c71d	0.358941
25	0x3edbf4c8	0.4296019
26	0x3e97f99a	0.29682618
27	0x3f14b83c	0.5809362
28	0x3eb201e3	0.34767064
29	0x3e921dec	0.28538454
30	0x3ee020b9	0.43774965
31	0x3ee06b22	0.43831736
32	0x3eb78260	0.35841656
33	0x3ed45989	0.4147456
34	0x3ebddb4f	0.37081382
35	0x3ece13be	0.40249437
36	0x3ed6e7e3	0.4197379
37	0x3f0ca21e	0.5493487
38	0x3f3db6c0	0.7410698
39	0x3eadff68	0.33983922
40	0x3eb8b950	0.36078882
41	0x3e80e837	0.25177166
42	0x3eb29c25	0.34884754
43	0x3e8f596b	0.27997908
44	0x3eca5e61	0.3952513
45	0x3ea35413	0.3190008
46	0x3e77d8d2	0.24203804
47	0x3f106663	0.5640623
48	0x3eb3ed6d	0.3514208
49	0x3ec1d958	0.37861133
50	0x3eee7661	0.4657469
51	0x3eb96202	0.36207587
52	0x3f26cb35	0.6515382
53	0x3ead1ef1	0.3381267
54	0x3ea971f4	0.33094752
55	0x3f37ba14	0.7176831
56	0x3edee01a	0.4353035
57	0x3e668daa	0.22514978
58	0x3eb4cde1	0.35313323
59	0x3ec49412	0.3839422
60	0x3f0a4c24	0.5402243
61	0x3e9840df	0.29736993
62	0x3f225027	0.6340355
63	0x3f03322b	0.51248425

conv1_3/W f4 [64, 64, 3, 3]
0	0xbbd2e106	-0.0064355163
1	0xbdadcee5	-0.084867276
2	0xbb9a24d6	-0.004704098
3	0x3db7af19	0.08968944
4	0xbd2d21bb	-0.042268496
5	0x3d2852e9	0.041094694
6	0x3c7330c9	0.014843174
7	0x3cede389	0.029039161
8	0x3c6512c8	0.013981529
9	0xbc2a51f7	-0.0103955185
10	0x3c9bb282	0.019006018
11	0xbdbc7279	-0.092015214
12	0xbcea2fbe	-0.028587218
13	0x3d37ef4c	0.044905946
14	0xba852aa1	-0.0010159799
15	0x3aaf029e	0.001335222
16	0xbd6c2922	-0.057656415
17	0x3cdff27e	0.027337309
18	0xbd6937f0	-0.05693811
19	0xbd7d0add	-0.06177794
20	0x3c508d7e	0.012729047
21	0xbc0764d7	-0.008263788
22	0x3cddaa56	0.027058762
23	0x3d062cc2	0.032757528
24	0xbc883692	-0.016627584
25	0xbd6d37a6	-0.0579144
26	0xbd866349	-0.06561906
27	0x3bd9c0c2	0.006645293
28	0x3d4a9a0e	0.049463324
29	0xbd0136b7	-0.03154632
30	0xbc322463	-0.010872933
31	0x3dd57393	0.10422435
32	0xbcdb77cf	-0.026790528
33	0x3d3eff7d	0.04663037
34	0xbd00845e	-0.031376235
35	0x3c55d3de	0.013051001
36	0xbb7773cc	-0.003775823
37	0xbd85fdcd	-0.06542549
38	0x3d105819	0.035240266
39	0x3d95bee8	0.07311803
40	0x3c4af1ae	0.0123867225
41	0x3b89b16c	0.0042020585
42	0x3c01c186	0.007919675
43	0xbd59de02	-0.05319024
44	0x3d0a4050	0.03375274
45	0xbca8c8cf	-0.020603565
46	0xbd2595dd	-0.040426124
47	0xbd61e51a	-0.05515013
48	0x3c74b87e	0.0149365645
49	0xbd0f50e2	-0.034989245
50	0x3c8cfc86	0.017210256
51	0x3d6de737	0.05808183
52	0x3c11f6e7	0.008908964
53	0xbbcc8a3b	-0.0062420643
54	0x3ce246dc	0.027621679
55	0x3caa8597	0.020815654
56	0xbcd57cef	-0.02606055
57	0xbd2d28c2	-0.042275198
58	0xbdb4ede2	-0.08834435
59	0x3c3a6cbb	0.011378462
60	0x3b85f308	0.0040878095
61	0xbc2b73b6	-0.010464599
62	0xbcc02dca	-0.023459334
63	0x3c013f82	0.007888677
64	0xbd1050f2	-0.035233445
65	0xbd10b09f	-0.03532469
66	0x3c382d20	0.011241227
67	0xbc625a00	-0.013815403
68	0xbc835557	-0.016031904
69	0x3c724aff	0.014788388
70	0xbb846fd9	-0.0040416536
71	0x3cbbe9df	0.022938667
72	0xbc284d81	-0.010272385
73	0xbb9bde47	-0.004756722
74	0x3d84d2b4	0.06485501
75	0x3d83a76e	0.06428419
76	0x3ce1adee	0.027548756
77	0xbb9f3274	-0.0048583094
78	0x3c7f3fd0	0.015579179
79	0x3bc0d4a3	0.0058847233
80	0xbcb07906	-0.021542083
81	0xbcb99abe	-0.022656795
82	0x3d78c1ad	0.06073158
83	0xbccd914f	-0.025093703
84	0xbd0db4e0	-0.034596324
85	0xbdb6f10d	-0.089326955
86	0x3ccb0933	0.02478466
87	0xbd5b87ab	-0.05359618
88	0xbd69a35b	-0.057040554
89	0x3d08cf55	0.033400852
90	0xbc1936a5	-0.009351407
91	0x3c96a588	0.018389478
92	0x3d094cb2	0.033520408
93	0x3b194e3a	0.0023392574
94	0xbd881134	-0.06643906
95	0xbc8d640e	-0.017259624
96	0x3d383ed0	0.044981778
97	0xbd9caa10	-0.07649624
98	0xbc509772	-0.01273142
99	0xbd313126	-0.043259762
100	0xbc2692dd	-0.010166851
101	0xbb989f41	-0.0046576564
102	0xbca97783	-0.02068687
103	0xbd7e146f	-0.062031206
104	0xbdadec82	-0.08492376
105	0xbbfdd0b5	-0.007745827
106	0xbba37992	-0.0049888575
107	0xbcba5b82	-0.022748712
108	0xbd3e38d8	-0.04644093
109	0xbbb5019b	-0.005523873
110	0xbd18ad33	-0.03727455
111	0xbd848ba1	-0.064719446
112	0x3cd45bb0	0.025922626
113	0xbb668a23	-0.003517755
114	0xbcca885b	-0.024723222
115	0x3c77dcc6	0.01512832
116	0xbd42b749	-0.047538076
117	0xbc326c84	-0.01089013
118	0x3bfee57c	0.0077788215
119	0x3d2d7af5	0.04235359
120	0xbd6a7b1a	-0.057246305
121	0xbcf9f576	-0.030512553
122	0xbd832d56	-0.064051315
123	0xbd594718	-0.053046316
124	0xbd871688	-0.06596094
125	0x3c9d0e7e	0.01917195
126	0x3bf534e1	0.0074831103
127	0x3cb6b79b	0.022304347
128	0xbd01fa38	-0.031732768
129	0xbcaf6b3d	-0.02141344
130	0x3baee58e	0.0053374236
131	0x3da9fea4	0.08300522
132	0x3c4a5f87	0.012351877
133	0xbc3ab9bc	-0.011396822
134	0xbdbf5ef2	-0.09344281
135	0x3c2e4334	0.01063614
136	0xbcc3ce1e	-0.023901995
137	0x3d6ba40c	0.057529494
138	0x3b42a47a	0.0029700086
139	0x3d362d70	0.044476926
140	0xbd0a1c68	-0.033718497
141	0xbcffce78	-0.031226382
142	0xbc359fea	-0.01108549
143	0x3c3e90d7	0.011631212
144	0xbd60cf09	-0.054884944
145	0xbc67e52f	-0.014153763
146	0xbbfd6178	-0.0077325664
147	0x3d4d6206	0.05014231
148	0xbcec2221	-0.028824868
149	0x3d39a373	0.045321893
150	0x3c49ce05	0.012317185
151	0xbce5414d	-0.02798524
152	0xbb1ce754	-0.0023941593
153	0xbd634a92	-0.055491038
154	0xbcec400d	-0.028839136
155	0x3d5b82c4	0.053591505
156	0xbd9e29ea	-0.07722838
157	0x3bf722fe	0.007542013
158	0xbc690a85	-0.014223699
159	0xbda6383f	-0.08116197
160	0x3cfda210	0.030961066
161	0x3cc87750	0.024470955
162	0x3c383b86	0.01124466
163	0xbd7b15df	-0.061300155
164	0xbca58d63	-0.02020902
165	0x3bc73c78	0.0060802065
166	0xbcf4cdc1	-0.029883267
167	0xbd437352	-0.0477174
168	0x3cae94c5	0.021311173
169	0x3d0ea965	0.034829516
170	0xbc47dd6e	-0.012198789
171	0xbc1bfefc	-0.009521242
172	0xbd9b1ffa	-0.075744584
173	0x3d16e0cb	0.036835473
174	0xbd4fb0bd	-0.05070566
175	0xbd46920a	-0.048479117
176	0x3dd60461	0.10450054
177	0xbc334e0d	-0.010943902
178	0x3ce5a3f5	0.028032282
179	0x3d06dd40	0.032925844
180	0x3c904770	0.017612189
181	0xbd8cae38	-0.06869167
182	0xbc926cf6	-0.017874222
183	0x3ca3dbb3	0.020002222
184	0x3c591749	0.0132501805
185	0xba828258	-0.0009957058
186	0xbd7b2769	-0.06131688
187	0x3c8e04b7	0.017336233
188	0xbba5e237	-0.0050623673
189	0xbc9c93ef	-0.019113509
190	0xba264eb0	-0.0006344123
191	0x3d0f145f	0.034931537
192	0xbc9bdc6f	-0.01902601
193	0xbc925ddd	-0.017867023
194	0xbcdbb6b6	-0.026820522
195	0x3d6f30c2	0.05839611
196	0x3bf1547d	0.007364808
197	0x3b947c3f	0.004531413
198	0xbd45260e	-0.048131995
199	0x3d4a1941	0.04934049
200	0xbd39b4c1	-0.045338396
201	0xbc2eed0a	-0.010676632
202	0x3cadab48	0.021199837
203	0x3d2baab5	0.041910846
204	0xbc6aecd3	-0.01433869
205	0xbcc7a211	-0.024369271
206	0xbd58d144	-0.052933946
207	0xbcd23186	-0.02565838
208	0x3b38ca54	0.0028196769
209	0xbb6c0970	-0.0036016367
210	0x3c98e909	0.018665807
211	0x3d153a52	0.03643257
212	0xbd17efe5	-0.037094016
213	0xbdd3d191	-0.10342706
214	0x3b4d17e0	0.0031294748
215	0xbd374d68	-0.044751555
216	0xbdb4595d	-0.08806107
217	0x3d8ccc8f	0.06874954
218	0xbdb08a37	-0.086201124
219	0xbc6b8c32	-0.014376687
220	0x3b95f86a	0.0045767324
221	0x3be6a09c	0.007038189
222	0xbae768c7	-0.0017655127
223	0xbd4f744a	-0.05064801
224	0x3d9d0ccc	0.076684564
225	0x3accbeec	0.0015620864
226	0x3bec8ed5	0.0072191753
227	0xbdb9c8bd	-0.09071491
228	0x3d472516	0.048619352
229	0x3da856a3	0.0821965
230	0xbd33d753	-0.04390652
231	0x3c3a8c35	0.011385967
232	0x3b9ad924	0.004725592
233	0xbcbdf805	-0.023189554
234	0xbcb72692	-0.022357259
235	0xbc3be4ac	-0.011468094
236	0xbc97ef66	-0.018546771
237	0xbd7d43ec	-0.061832353
238	0xbd71f56f	-0.059071954
239	0x3cc0c089	0.023529308
240	0x3d5aea6d	0.053446222
241	0x3cf9a26e	0.03047296
242	0x3ce7564d	0.028239394
243	0xbd80f42c	-0.06296572
244	0x3d038de7	0.03211775
245	0x3d1013b0	0.035175025
246	0xbd3cffee	-0.04614251
247	0xbcea283d	-0.02858364
248	0xbcc8ccc2	-0.024511699
249	0x3c18dafa	0.009329552
250	0x3be3f1cf	0.006956316
251	0xbc9e366e	-0.019313063
252	0xbca6bced	-0.020353759
253	0x3c837be8	0.016050294
254	0xbd979e56	-0.07403247
255	0xbd6688fb	-0.05628298

bn4/avg_mean f4 [32]
0	0x3ff965e4	1.948422
1	0x3f85d291	1.0454885
2	0xbf41c2c5	-0.7568782
3	0xbeb042cc	-0.34425962
4	0x3d32b0a4	0.04362549
5	0xbfd12f24	-1.6342511
6	0xc0241015	-2.5634816
7	0x3e9a65b7	0.30155727
8	0x3d951c1a	0.072807506
9	0xbea24340	-0.31691933
10	0xbfdcce99	-1.7250549
11	0xc016c7a2	-2.3559346
12	0xc00ec97d	-2.2310479
13	0xbfdc7f62	-1.7226374
14	0x3f1bb5e0	0.60824394
15	0xbf4f0b2c	-0.8087642
16	0xbd7c5a81	-0.06160975
17	0xbe86ec44	-0.2635213
18	0xbf772b35	-0.96550304
19	0xc00bec04	-2.1862803
20	0xc00a1095	-2.157262
21	0x3f908040	1.1289139
22	0x4002441d	2.0354073
23	0xc011676e	-2.2719378
24	0xbff90bbf	-1.945671
25	0x3f652f5b	0.89525384
26	0xc031a4d9	-2.7756865
27	0xbf8435b1	-1.0328885
28	0xbfaedf32	-1.3661864
29	0xc03fd412	-2.9973187
30	0xc02919f0	-2.642208
31	0xbde58fed	-0.11209092

bn3/beta f4 [64]
0	0x3b262fac	0.0025358004
1	0xbba2a4c7	-0.0049634906
2	0xbab730d6	-0.0013976346
3	0xbc766f6c	-0.0150412135
4	0xbc0e9de9	-0.008704641
5	0xba811d1d	-0.0009850595
6	0x3d6ce206	0.05783274
7	0x3c9771be	0.018486854
8	0x3ca9de22	0.020735804
9	0xbb830625	-0.003998535
10	0xbcd480c8	-0.025940314
11	0x3ce4e0fe	0.027939316
12	0x3b579346	0.0032894178
13	0x3c892dfc	0.01674556
14	0x3c4bb65c	0.012433615
15	0xbbd17a3e	-0.006392746
16	0xbc4fffd3	-0.012695271
17	0xbcedada2	-0.029013459
18	0x3c91e3ca	0.017808814
19	0xbce42d60	-0.027853668
20	0x3c7b5307	0.0153396195
21	0x3d0eb63d	0.034841765
22	0xbc7ee8e7	-0.015558458
23	0xbc726079	-0.014793509
24	0xbd0ebe18	-0.034849256
25	0x3c4fbad5	0.012678822
26	0x3c6d5532	0.014485644
27	0xba4beea5	-0.0007779396
28	0x3bb83c54	0.005622426
29	0x3b9e9add	0.0048402385
30	0xbd08cb42	-0.033396967
31	0xbbf237e0	-0.0073919147
32	0xbb4c47e0	-0.003117077
33	0xbb8abad4	-0.0042336974
34	0x3c8158e3	0.015789455
35	0x3c8f1936	0.017468076
36	0x3c42a6d6	0.011880597
37	0x3b11357e	0.0022157128
38	0xbd161ed4	-0.036650494
39	0x3cff32fb	0.03115224
40	0x3c3daad8	0.011576377
41	0x3c8de713	0.017322099
42	0xbc08de36	-0.0083537605
43	0x3c3198d3	0.010839659
44	0x3c84cf4b	0.016212126
45	0x3ca9b009	0.020713823
46	0xbb0f697e	-0.0021882947
47	0x3cffa2a9	0.031205492
48	0xb92c5a5b	-0.00016436858
49	0x3c9ff582	0.019526247
50	0xbb2a82bf	-0.0026017872
51	0xbc804df0	-0.015662163
52	0x3ce3c58b	0.027804157
53	0xbcb0db27	-0.021588875
54	0x3d1893d5	0.03725036
55	0x3c351646	0.011052674
56	0x3d2f1403	0.042743694
57	0xbce06214	-0.027390517
58	0x3af8e92a	0.0018990387
59	0xbc902b04	-0.017598636
60	0xbb301e90	-0.0026873685
61	0xbc39a1b0	-0.011330053
62	0xbcbc515c	-0.022988014
63	0xbbc20866	-0.0059214113

conv1_7/b f4 [3]
0	0x3cd1017f	0.025513409
1	0x3c0fb061	0.008770079
2	0xbc2421b2	-0.010017799

conv1_4/W f4 [32, 64, 3, 3]
0	0xbcec08dd	-0.02881282
1	0x3d48116c	0.04884474
2	0x3c556d30	0.013026521
3	0x3d902c91	0.0703975
4	0x3ddb2e75	0.1070222
5	0xbcda3ba9	-0.026639776
6	0xbc8aecf1	-0.016958686
7	0xbb243750	-0.0025057383
8	0x3c462436	0.012093594
9	0x3d5889a0	0.052865624
10	0xbd6262d2	-0.055270024
11	0xbcedfabe	-0.029050227
12	0x3d1677cc	0.03673534
13	0x3d3ff2ab	0.046862286
14	0xbd4b8e96	-0.049696527
15	0xbdda9458	-0.106728256
16	0x3c4a4a65	0.012346839
17	0x3d0c289e	0.034218423
18	0x3c1dcb85	0.009631042
19	0xbd4b8483	-0.04968692
20	0xbd41a842	-0.047279604
21	0x3cf9ecfa	0.030508507
22	0xbdb10653	-0.086437844
23	0x3cb46ec1	0.022025468
24	0xbc738822	-0.014864
25	0x3da93a25	0.08263043
26	0xbdb5ea66	-0.088825986
27	0x3d0a0ad2	0.033701725
28	0xbcaa46dc	-0.020785742
29	0xbc04a0aa	-0.008094946
30	0xbac5cfbe	-0.0015091819
31	0x3b4a22da	0.0030843527
32	0x3c9af1b6	0.018914085
33	0xbcd4c6c2	-0.025973681
34	0x3c6bf831	0.014402435
35	0x3b902551	0.0043989797
36	0xbd402d9c	-0.046918496
37	0x3ba51d69	0.0050389064
38	0xbc0fe80d	-0.008783353
39	0xbc8d8eaa	-0.017279942
40	0xbcff8495	-0.03119115
41	0x3cb4c1da	0.022065092
42	0x3b993466	0.004675436
43	0x3bb1bc46	0.0054240553
44	0x3d7be6db	0.061499458
45	0xbb9659c5	-0.004588338
46	0x3d0be881	0.03415728
47	0x3c4feeba	0.012691194
48	0x3c9e5c54	0.019331135
49	0xbc4aa83c	-0.012369212
50	0x3c8bde3c	0.017073743
51	0xbbe166cf	-0.006878711
52	0x3ce73e65	0.028227994
53	0x3c9775da	0.018488813
54	0x3d8a50f9	0.067537256
55	0x3daa511d	0.083162524
56	0xba9eefe5	-0.0012125938
57	0xbd67e6f0	-0.056616724
58	0x3cd39d03	0.025831705
59	0xbc825852	-0.015911255
60	0x3b3d1a96	0.0028854958
61	0x3c22c19b	0.009933854
62	0xbda0e259	-0.078556724
63	0xbc961f75	-0.018325547
64	0x3dc71c1c	0.09722158
65	0x3cce5f9b	0.025192073
66	0x3bca5560	0.0061747283
67	0x3cb37ce9	0.021910148
68	0x3c395d00	0.011313677
69	0x3c797a6b	0.015226941
70	0xbcad802d	-0.021179283
71	0xbd60f341	-0.054919485
72	0xbd9ff0cc	-0.078096
73	0x3bec0fb8	0.0072040223
74	0xbcf7ab56	-0.030233067
75	0x3d533a32	0.05156917
76	0xbd1d3e0d	-0.038389254
77	0x3d3c420b	0.04596142
78	0xb9809675	-0.00024526162
79	0x3cb8b3ab	0.02254661
80	0x3aa2633a	0.0012389191
81	0xbcebaacf	-0.028767971
82	0xbd1bd081	-0.03804064
83	0xbc6f64ae	-0.014611406
84	0xbdc500f1	-0.0961932
85	0x3d5f5e9b	0.054533582
86	0x3d873ad8	0.066030204
87	0x3d4232e0	0.0474118
88	0x3ce04ecf	0.027381329
89	0xbc4cc9cb	-0.012499283
90	0x3d0aeccf	0.033917245
91	0x3c9ce188	0.01915051
92	0x3cd9a496	0.026567739
93	0x3be7d842	0.0070753405
94	0x3c82f436	0.01598559
95	0xbb078c85	-0.0020683121
96	0x3c579900	0.013159037
97	0xbd1e2cc9	-0.03861693
98	0x3d086260	0.033296943
99	0xbb2e43e7	-0.0026590766
100	0xbd2a9312	-0.041644163
101	0x3d328663	0.043585192
102	0xbda991c7	-0.08279758
103	0xb8abc9b0	-8.1914826e-05
104	0x3ce57ede	0.028014597
105	0xbd53909f	-0.051651593
106	0x3d6b537a	0.057452656
107	0xbbf921c5	-0.0076029026
108	0x3c96b432	0.01839647
109	0x3c54098e	0.012941731
110	0xbdfc332f	-0.1231445
111	0xbca8646e	-0.020555701
112	0xbd2a6ef4	-0.04160972
113	0x39e9ecab	0.00044617555
114	0xbd4df2e8	-0.05028048
115	0xbcc2963c	-0.023753278
116	0xbcf1a34f	-0.029496817
117	0x3c2927de	0.0103244465
118	0xbd351ec3	-0.04421879
119	0xbcc6a934	-0.024250604
120	0x3b64ffa7	0.003494242
121	0x3d7f0d97	0.06226882
122	0xbcb62b7d	-0.022237534
123	0xbb70f19e	-0.0036765109
124	0x3cf69cb2	0.030104015
125	0x3d0e5c4c	0.03475599
126	0xbc4b841d	-0.012421635
127	0xbdad78dd	-0.084703185
128	0xbb8b4e20	-0.0042512566
129	0x3c625c21	0.013815911
130	0x3d1f5485	0.038898963
131	0xbd2106ef	-0.039313253
132	0x3d7e5c2d	0.062099624
133	0x3d9c22d9	0.07623834
134	0x3cc6aad5	0.024251381
135	0x3cbb0b8b	0.022832653
136	0x3cbc3c3e	0.022977944
137	0x3d6b7381	0.0574832
138	0xbcebb3ca	-0.028772254
139	0x3cbae6ba	0.022815097
140	0x3da09d14	0.0784246
141	0x3c9ba375	0.01899884
142	0xbd84d7e4	-0.0648649
143	0xbcc5d87c	-0.02415108
144	0xbd4bd6ad	-0.049765278
145	0x3c653180	0.0139888525
146	0xbd05870b	-0.03259949
147	0x3cd4e6dc	0.025988989
148	0x3d825484	0.06363776
149	0xbc6bf572	-0.01440178
150	0xbd912663	-0.070874
151	0xbcc48aa4	-0.02399189
152	0x3ca0eb1e	0.019643363
153	0xbd9bda1c	-0.076099604
154	0xbcec75af	-0.02886471
155	0x3d0225e8	0.03177443
156	0xbbb9226f	-0.0056498568
157	0x3d9e6e8a	0.077359274
158	0x3d4bd422	0.049762852
159	0x3d91fcd2	0.071283
160	0x3cfa0c89	0.030523555
161	0xbda299d4	-0.07939497
162	0xbc9b3435	-0.018945793
163	0x3c70dab8	0.014700584
164	0xbcadfa03	-0.021237379
165	0x3c848d1f	0.016180573
166	0xbc7cf69d	-0.015439657
167	0xbd04cfce	-0.03242474
168	0xbd7d20bd	-0.0617988
169	0xbc51198a	-0.012762437
170	0xbcb6cb77	-0.022313816
171	0x3d3b9bdd	0.04580294
172	0x3d9c52e6	0.07632999
173	0x3d461534	0.048360065
174	0xbcb7f7cf	-0.022457032
175	0xbc468ba6	-0.012118256
176	0x3cb7407c	0.022369616
177	0x3c202b28	0.009775914
178	0x3cb24eae	0.021766033
179	0x3d6af094	0.05735834
180	0xbc5cee5b	-0.013484563
181	0x3be23304	0.006903054
182	0x3d6b74fe	0.05748462
183	0x3d63698b	0.055520575
184	0xbcae602a	-0.021286089
185	0x3cd478f0	0.025936574
186	0x3d73233c	0.059359774
187	0x3c862ddc	0.01637929
188	0xbd87dd45	-0.06634001
189	0xbd52e0ae	-0.051483802
190	0x3d9c81a7	0.07641917
191	0xbd4d5250	-0.050127327
192	0xbcbe4a84	-0.023228891
193	0x3c9b6b6a	0.018972117
194	0x3c9fec96	0.019521993
195	0xbc498993	-0.012300867
196	0xbd366912	-0.044533797
197	0xbd153051	-0.03642303
198	0xb9c9d640	-0.00038497336
199	0x3d5d37a9	0.05400816
200	0x3b679e2e	0.0035342085
201	0xbcc87a0c	-0.024472259
202	0x3cf57b43	0.029966002
203	0xbd099c4a	-0.033596314
204	0x3d1528d7	0.0364159
205	0x3d60f992	0.05492551
206	0x3cbd9295	0.023141185
207	0x3cf96532	0.030443761
208	0x3dae4f70	0.08511245
209	0x3d147c3a	0.036251284
210	0xba8e6318	-0.0010863272
211	0x3c9c7c09	0.019102113
212	0x3c96ee32	0.018424127
213	0x3b5753be	0.003285631
214	0x3cde9d63	0.027174657
215	0x3cb86923	0.02251107
216	0x3b50ee99	0.0031880497
217	0x3d0dd228	0.03462425
218	0xbc91de88	-0.017806306
219	0x3c678f3e	0.014133273
220	0x3d0cef00	0.034407616
221	0xbbde3b94	-0.0067820046
222	0x3cc12cfd	0.023581022
223	0x3d28d78f	0.041221198
224	0xbd7d11f0	-0.061784685
225	0xbbf377a3	-0.0074300333
226	0xbd5efaca	-0.05443839
227	0xbd0276a4	-0.031851426
228	0x3b337547	0.0027383135
229	0x3da99cfc	0.082818955
230	0x3cecaf5c	0.028892212
231	0x3c88ab63	0.016683286
232	0xbd78f505	-0.060780544
233	0x3cb9a1d9	0.022660183
234	0x3c7c74d9	0.015408718
235	0xbcfe282f	-0.03102502
236	0x3d28dc17	0.04122552
237	0xbccca9da	-0.024983335
238	0x3d90826b	0.07056125
239	0x3d0e6de0	0.034772754
240	0xbd1fcc46	-0.03901317
241	0xbce4693b	-0.027882209
242	0xbd3b4048	-0.0457156
243	0x3dcab578	0.09897894
244	0xbd388c26	-0.04505553
245	0x3d927ef8	0.071531236
246	0x3cc8f3cc	0.024530314
247	0x3dbb1ed0	0.091367364
248	0xbcc67e06	-0.024230015
249	0x3c8ce835	0.017200569
250	0x3d8f2677	0.069897585
251	0x3b0d3d7f	0.0021551547
252	0x3d4293a0	0.047504067
253	0x3d0ff302	0.03514386
254	0x3ac0ca3c	0.0014708708
255	0xbc1e02aa	-0.00964419

bn1/gamma f4 [64]
0	0x3f7ad4d9	0.9798103
1	0x3f7834d2	0.969556
2	0x3f78a61e	0.97128475
3	0x3f7c36f5	0.9852136
4	0x3f7a4a9f	0.9777011
5	0x3f7bf765	0.9842437
6	0x3f80a020	1.0048866
7	0x3f7b41cc	0.98147273
8	0x3f7fed15	0.99971133
9	0x3f80e89a	1.0070984
10	0x3f8039f4	1.0017686
11	0x3f84ec74	1.038466
12	0x3f7c4906	0.98548925
13	0x3f7aaab5	0.9791673
14	0x3f820018	1.0156279
15	0x3f767b12	0.9628154
16	0x3f80a722	1.0051005
17	0x3f7527aa	0.9576365
18	0x3f736165	0.9507049
19	0x3f7dd5e6	0.9915451
20	0x3f81b208	1.0132456
21	0x3f81af01	1.0131532
22	0x3f7e84b1	0.9942122
23	0x3f7d2988	0.98891497
24	0x3f847f8f	1.0351428
25	0x3f7045b4	0.9385636
26	0x3f7bb51e	0.9832324
27	0x3f77e26f	0.96829885
28	0x3f803bbb	1.0018228
29	0x3f7a0cd1	0.97675806
30	0x3f767e8d	0.9628685
31	0x3f7c9f30	0.986804
32	0x3f768a72	0.96305
33	0x3f7c7bdf	0.9862651
34	0x3f8566a8	1.0421953
35	0x3f7a6924	0.9781668
36	0x3f79b442	0.97540677
37	0x3f78283f	0.9693641
38	0x3f82318f	1.0171374
39	0x3f811a0f	1.0086077
40	0x3f774866	0.96594846
41	0x3f814ad2	1.0100958
42	0x3f7a8fa3	0.9787542
43	0x3f8054bd	1.002586
44	0x3f801cfa	1.0008843
45	0x3f77d66b	0.9681155
46	0x3f7cdf90	0.9877863
47	0x3f78d8ef	0.97206014
48	0x3f782137	0.9692568
49	0x3f816348	1.0108423
50	0x3f71aadf	0.94401354
51	0x3f7a2db3	0.9772598
52	0x3f79075c	0.97276855
53	0x3f75fbf3	0.9608757
54	0x3f77cca3	0.96796626
55	0x3f7f11f6	0.9963678
56	0x3f7bdf1a	0.983873
57	0x3f813135	1.0093142
58	0x3f77d979	0.9681621
59	0x3f81a0d7	1.012721
60	0x3f78de07	0.97213787
61	0x3f7d0f07	0.98851055
62	0x3f7b0e67	0.9806885
63	0x3f7a32d0	0.97733784

conv1_4/b f4 [32]
0	0x39b9872b	0.00035386658
1	0xb80c1106	-3.3394455e-05
2	0x378a257c	1.6468337e-05
3	0x38f59045	0.00011709383
4	0xb9a16311	-0.00030782123
5	0xba55f9cf	-0.00081625296
6	0x3a1b50f8	0.0005924846
7	0x3776c430	1.4708421e-05
8	0xb86a894e	-5.5917822e-05
9	0xb8ee811f	-0.00011372775
10	0x3819fdbf	3.6714362e-05
11	0xb8f52075	-0.00011688556
12	0xba13edfe	-0.00056430686
13	0xb9456b5b	-0.00018827377
14	0x37c712e6	2.3731449e-05
15	0x39723d58	0.00023101771
16	0xbadacbd9	-0.0016692831
17	0x383b390d	4.4637407e-05
18	0xb9989843	-0.00029105143
19	0xb8fcc1dc	-0.000120524055
20	0xb81d3cae	-3.748823e-05
21	0xb8ba4c01	-8.883328e-05
22	0xb98bf20d	-0.00026692488
23	0x3939302c	0.0001766092
24	0x374996a4	1.2015607e-05
25	0x3a8cfe27	0.0010756896
26	0x39e55a61	0.0004374562
27	0xb867c36b	-5.525669e-05
28	0x3901e41c	0.00012387376
29	0x3838b6e4	4.403935e-05
30	0x39401c9d	0.00018321206
31	0xb9957b1a	-0.00028511212

conv1_5/W f4 [32, 32, 3, 3]
0	0xbd636e91	-0.055525366
1	0xbd36ad85	-0.044599075
2	0x3c5ae901	0.0133612165
3	0xbd86a0e3	-0.065736555
4	0x3d81363d	0.06309173
5	0xbb47f867	-0.003051305
6	0xbbd18f08	-0.0063952245
7	0x3db3df68	0.08782846
8	0x3d1578d9	0.036492202
9	0x3c9fa914	0.019489802
10	0x3d565861	0.05233038
11	0xbcd34e7b	-0.025794258
12	0xbd69f139	-0.057114813
13	0x3c8874ad	0.016657198
14	0xbcb577cd	-0.022151852
15	0xbe090807	-0.13381968
16	0x3d1c7492	0.038197108
17	0x3c5fbead	0.0136563005
18	0xbc897fe9	-0.016784625
19	0x3d0b62de	0.034029834
20	0x3cdd784e	0.027034905
21	0xbbfd4979	-0.007729706
22	0xbe321add	-0.1739306
23	0x3d67ada7	0.056562092
24	0xbd7abfd0	-0.061218083
25	0xbe35e14b	-0.17761724
26	0x3d3d49b6	0.046212874
27	0x3d3d1c4e	0.04616957
28	0x3bdb6931	0.0066958894
29	0x3d6a54fa	0.057209946
30	0xbab100ff	-0.0013504325
31	0x3d975396	0.073889896
32	0xbd8a7d73	-0.06762209
33	0x3d80eafb	0.06294819
34	0x3cfa0504	0.03051997
35	0x3d925834	0.0714573
36	0x3b34f1f8	0.0027610045
37	0xbceacd54	-0.028662361
38	0xbbe78b02	-0.0070661316
39	0xbca40427	-0.020021511
40	0xbd60a743	-0.054847013
41	0x3d0dd0d2	0.034622975
42	0xbc8aed73	-0.016958928
43	0xbcbb0ef1	-0.022834273
44	0x3d3445ae	0.044011764
45	0x3ce0d551	0.027445467
46	0xbc8852a4	-0.016640969
47	0x3d24de40	0.040251017
48	0xbd3abf6b	-0.045592707
49	0xbcae00fd	-0.021240706
50	0x3d0d4568	0.03449002
51	0xbc996e45	-0.018729338
52	0x3dc3e1ed	0.09564576
53	0x3d3adb0e	0.045619063
54	0x3cf8fe0a	0.030394573
55	0xbdd66356	-0.104681656
56	0xbd457522	-0.04820741
57	0x3d515967	0.05111065
58	0xbcfccbdb	-0.030858925
59	0x3cdd12ae	0.026986446
60	0xbd54b96d	-0.05193465
61	0x3d1fda11	0.039026324
62	0x3daac5d2	0.083385125
63	0xbc83a83d	-0.016071433
64	0x3d7722bc	0.06033586
65	0x3cd8d2b6	0.026467662
66	0xbda83c81	-0.08214665
67	0xbcf08987	-0.029362453
68	0xbd172b65	-0.03690662
69	0x3d3ba233	0.045808982
70	0xbddb73c1	-0.10715438
71	0x3d175ea3	0.036955487
72	0xbc2193b3	-0.009861874
73	0xbc3ffb0b	-0.011717568
74	0xbca2fc0f	-0.019895582
75	0x3d589fbd	0.052886713
76	0xbd4b6a09	-0.04966167
77	0xbc27c368	-0.01023946
78	0x3d59fa2d	0.0532171
79	0xbcb1eefb	-0.0217204
80	0x3bf4c729	0.007470031
81	0x3c784e2f	0.015155359
82	0xbd96c89d	-0.07362483
83	0x3c8a2f8d	0.016868377
84	0xbb8c9578	-0.004290279
85	0x3c055742	0.00813848
86	0x3d11c34b	0.035586637
87	0xbdc475c0	-0.095927715
88	0x3d905df9	0.07049174
89	0x3caf5189	0.021401184
90	0x3d1dd78c	0.03853564
91	0x3d93f0ab	0.07223638
92	0x3d440e44	0.047865167
93	0x3dc50d91	0.09621728
94	0xbcbde901	-0.023182394
95	0xbc570dfa	-0.013125891
96	0xbcfb109c	-0.030647568
97	0xbd4c4b8e	-0.049876742
98	0x3d386749	0.045020375
99	0x3ba174a8	0.0049272366
100	0xbd2c86ee	-0.042120866
101	0x3cb9a3d7	0.022661133
102	0x3d969466	0.073525235
103	0x3d54c656	0.05194696
104	0x3c99cc30	0.018774122
105	0xbd967567	-0.073466115
106	0xbb3a6493	-0.0028441295
107	0xbd0fa8d5	-0.03507312
108	0xbdcbe623	-0.099560045
109	0xbcc39133	-0.023872947
110	0x3d4cc694	0.049994066
111	0xbdadaaa2	-0.08479811
112	0xbbdd5d91	-0.0067555388
113	0x3dafad97	0.085780315
114	0x3c574166	0.013138151
115	0xbd1b8c40	-0.03797555
116	0xbd1c2959	-0.03812537
117	0x3d5e6a8e	0.054300837
118	0x3cbc41ed	0.022980655
119	0xbca0c607	-0.019625677
120	0x3de9bfbc	0.114135236
121	0x3d6b05d7	0.057378616
122	0xbd10fa86	-0.035395168
123	0x3cf8ee6c	0.030387126
124	0x3cc25b4b	0.023725173
125	0x3b7126ce	0.003679681
126	0xbdc54dae	-0.09633957
127	0x3dc621ee	0.0967444
128	0x3d805902	0.06266977
129	0xbcddfa93	-0.027097022
130	0x3de690ff	0.112581246
131	0xbd8a8e8d	-0.06765471
132	0xbcc51056	-0.024055641
133	0x3cacdcfd	0.02110147
134	0x3a42d298	0.00074318936
135	0xbd6be913	-0.057595324
136	0x3d3499e1	0.044092063
137	0xbd4df8d5	-0.050286133
138	0xbd40e8cc	-0.047097012
139	0xbd62934e	-0.055316262
140	0x3ceefd3d	0.029173488
141	0x3c0967fc	0.008386608
142	0x3bc538a9	0.0060187173
143	0xbcd24043	-0.025665408
144	0x3cc222b8	0.023698196
145	0x3ae70556	0.0017625492
146	0xbdb6bfea	-0.089233235
147	0xbd6c7dbc	-0.057737097
148	0x3cccb014	0.024986304
149	0x3c5e47d2	0.013566928
150	0x3d24773a	0.040152766
151	0x3ab3b305	0.0013709968
152	0xbcf5dbdf	-0.03001207
153	0xbc7c523d	-0.0154004665
154	0xbd9c3573	-0.07627382
155	0x3c250ad3	0.0100733815
156	0x3c9dcdf3	0.019263243
157	0xbd9cfb6b	-0.07665142
158	0xbe088349	-0.13331331
159	0xbb08e41a	-0.0020887912
160	0x3d9ae79d	0.07563708
161	0xbd0f08d3	-0.034920525
162	0xbdbf4591	-0.093394406
163	0xbd0f7db0	-0.035031974
164	0xbd9afa0f	-0.07567226
165	0x3e06b38a	0.13154426
166	0x3e153d6f	0.14574216
167	0xbc528bf5	-0.012850751
168	0x3d19caf9	0.037547085
169	0x3d616674	0.055029348
170	0x3df200b6	0.11816542
171	0x3bdb06c5	0.0066841566
172	0x3d0a2112	0.033722945
173	0x3b3e2a4c	0.002901691
174	0x3c57d069	0.013172247
175	0xbd89f6fa	-0.0673656
176	0xbd3d40fc	-0.046204552
177	0xbd41cc80	-0.047314167
178	0xbd59408c	-0.053040072
179	0x3cb56e0b	0.0221472
180	0x3be194bb	0.006884185
181	0x3d505ab9	0.05086777
182	0xbd7bee0d	-0.06150632
183	0x3cca457a	0.024691332
184	0x3c7df7b9	0.015500956
185	0xbc338678	-0.010957353
186	0x3daa290d	0.08308611
187	0x3d034141	0.032044653
188	0xbd35c7c9	-0.044379983
189	0x3d22eca5	0.039776463
190	0xbe21280a	-0.1573793
191	0x3b3bad2d	0.0028637156
192	0xbd4c4607	-0.04987147
193	0xba544899	-0.0008097976
194	0x3d03599b	0.032067876
195	0x3d8b2f65	0.06796149
196	0xbc5055dc	-0.012715783
197	0x3c87ab19	0.016561078
198	0x3d2fb8e4	0.042900935
199	0xbd3a32d3	-0.045458626
200	0xbdc4cd41	-0.096094616
201	0x3d11ec05	0.035625476
202	0x3d8fbd1c	0.070184916
203	0x3dab46d5	0.083631195
204	0xbcc4c98f	-0.024021892
205	0xbc3f2fd4	-0.011669118
206	0xbcaf1f1b	-0.021377137
207	0x3ce71fe7	0.028213454
208	0x3ca12d5b	0.019674947
209	0xbd808bee	-0.062766895
210	0xbc8502f8	-0.016236767
211	0x3c603f40	0.013686955
212	0x3d8b8cdf	0.068139784
213	0x3d57d48c	0.052692935
214	0xbd177a6d	-0.03698199
215	0x3dafe9bb	0.085895024
216	0xbc53a45f	-0.012917607
217	0x3ccaff51	0.024779947
218	0xbdd0cef7	-0.101957254
219	0xbda05052	-0.0782782
220	0xbd1b1ea6	-0.037871026
221	0x3da06d0f	0.07833301
222	0xbc1467bf	-0.009057938
223	0xbcf61458	-0.030038998
224	0xbaa7ec3d	-0.0012811493
225	0xbc8e290b	-0.017353555
226	0xbd765cdc	-0.06014715
227	0xbd00d5e8	-0.031453997
228	0x3ce8c9e6	0.028416585
229	0xbc749954	-0.014929134
230	0x3d4d9130	0.05018729
231	0xbd81c5ba	-0.063365415
232	0xbd759f1e	-0.0599662
233	0x3d154c5c	0.036449775
234	0x3d67c0e1	0.056580428
235	0x3e2a31f6	0.16620621
236	0x3bedad48	0.0072533228
237	0x3c6fddc2	0.0146402735
238	0xbd1d2bc0	-0.0383718
239	0xbce70ecd	-0.0282053
240	0x3d63c152	0.055604286
241	0x3d144e8c	0.03620772
242	0x3cc896d4	0.024485983
243	0xbd33dc72	-0.043911405
244	0x3da7c266	0.081913754
245	0xbbd992bb	-0.006639806
246	0x3bfab134	0.007650519
247	0x3adf0ed9	0.0017017975
248	0xbdc0bccf	-0.094110124
249	0xbda618b5	-0.08110181
250	0x3c2e3ee8	0.010635115
251	0x3dc1697c	0.09443948
252	0xbc17cf1a	-0.009265685
253	0x3c96ba11	0.01839927
254	0x3cae6e63	0.02129287
255	0xbd17d4c9	-0.037068162

bn5/beta f4 [32]
0	0x3d8c85fd	0.06861494
1	0x3d7918c0	0.06081462
2	0x3a79ed99	0.0009534001
3	0x3dd36521	0.10322023
4	0x3d71f39e	0.059070222
5	0x3d4bc2d7	0.04974636
6	0x3de938ae	0.11387764
7	0x3d247a30	0.04015559
8	0x3de8e6ae	0.11372124
9	0x3d9fbc65	0.07799605
10	0x3dc98871	0.09840477
11	0x3dd88164	0.10571554
12	0x3d33917d	0.04383992
13	0x3d604b84	0.054759517
14	0x3c7c4af9	0.015398734
15	0x3c3b73d9	0.011441194
16	0x3cbdceed	0.023169959
17	0x3d98379d	0.074324824
18	0x3d13409c	0.03595029
19	0x3aa1ce68	0.0012344839
20	0x3d8e3f1e	0.069456324
21	0x3cde7b3d	0.027158374
22	0xbbea0bac	-0.0071425047
23	0x3b013265	0.0019713875
24	0x3e093fa3	0.13403182
25	0x3d547e2e	0.051878147
26	0x3ce5f254	0.028069653
27	0x3d91ad88	0.071131766
28	0x3dda4003	0.106567405
29	0x3dda512f	0.10660016
30	0x3d84a9bd	0.064776875
31	0x3d59b5e1	0.05315197

bn2/gamma f4 [64]
0	0x3f7e1bb4	0.9926102
1	0x3f75772a	0.95884955
2	0x3f78269a	0.969339
3	0x3f7e9ef6	0.99461305
4	0x3f7c60a1	0.98584944
5	0x3f831985	1.0242163
6	0x3f833316	1.0249965
7	0x3f804ffe	1.0024412
8	0x3f8131e8	1.0093355
9	0x3f7f2895	0.996713
10	0x3f7d79ef	0.9901418
11	0x3f7b1287	0.98075145
12	0x3f800023	1.0000042
13	0x3f7e7988	0.9940419
14	0x3f79c829	0.97571045
15	0x3f82f23b	1.0230173
16	0x3f7d097a	0.98842585
17	0x3f7ebd8e	0.9950799
18	0x3f79ca06	0.9757389
19	0x3f7eb451	0.9949389
20	0x3f7dd5a9	0.99154145
21	0x3f82d80c	1.0222182
22	0x3f790370	0.9727087
23	0x3f7eddec	0.99557376
24	0x3f80ecdf	1.0072287
25	0x3f80cf6a	1.0063298
26	0x3f822f3d	1.0170666
27	0x3f77d50b	0.9680945
28	0x3f73eb89	0.95281273
29	0x3f806e2d	1.0033623
30	0x3f83c24d	1.0293671
31	0x3f7bcbc8	0.9835782
32	0x3f7e0c2a	0.9923731
33	0x3f7c0fef	0.9846181
34	0x3f7cef97	0.98803085
35	0x3f80722d	1.0034844
36	0x3f7e7e1b	0.9941117
37	0x3f7acd2d	0.97969323
38	0x3f7f4f1a	0.99730074
39	0x3f7eac59	0.9948173
40	0x3f84fffe	1.0390623
41	0x3f7d4302	0.9893037
42	0x3f79ff2b	0.9765498
43	0x3f8049e2	1.0022547
44	0x3f83d3f8	1.0299063
45	0x3f830f57	1.0239056
46	0x3f7c7396	0.9861387
47	0x3f82f249	1.023019
48	0x3f7e7261	0.9939328
49	0x3f7b295e	0.98109996
50	0x3f81eb26	1.0149887
51	0x3f74934f	0.95537275
52	0x3f885c8d	1.0653244
53	0x3f7fe585	0.99959594
54	0x3f81f62f	1.0153254
55	0x3f7ad53b	0.97981614
56	0x3f7e8ea9	0.9943643
57	0x3f7b540f	0.9817514
58	0x3f7bb9cd	0.98330384
59	0x3f7738e2	0.9657117
60	0x3f78aab4	0.9713547
61	0x3f8038dc	1.0017352
62	0x3f877f67	1.0585755
63	0x3f7c25e6	0.9849533

conv1_2/b f4 [64]
0	0xb7f1d778	-2.8829774e-05
1	0xb787bce1	-1.6181208e-05
2	0x38a4e7a4	7.863276e-05
3	0x39abff61	0.00032805934
4	0xb88885c1	-6.509899e-05
5	0xb8ab221c	-8.160269e-05
6	0xb9189d67	-0.00014554487
7	0x39a053d3	0.00030580032
8	0xb805f2db	-3.1935848e-05
9	0x38e2ef3a	0.00010821079
10	0x3910d070	0.00013810559
11	0xb73970ad	-1.1053094e-05
12	0x370f165f	8.528673e-06
13	0x38744747	5.8240516e-05
14	0xb987bf8c	-0.0002589192
15	0xb89514ca	-7.108746e-05
16	0xb998780b	-0.00029081138
17	0x38de3688	0.00010595942
18	0xb8ae908b	-8.32389e-05
19	0xb952e3bf	-0.00020112003
20	0xb8a33a30	-7.783284e-05
21	0xb9467895	-0.00018927672
22	0x378cc6c5	1.678186e-05
23	0x38677f1c	5.519307e-05
24	0xb9bc43a8	-0.00035908562
25	0xb86709ae	-5.5083707e-05
26	0x385cddc4	5.2658623e-05
27	0x39300459	0.00016786288
28	0x390e4a5d	0.00013569878
29	0x38d4eb35	0.000101527585
30	0x38d64efe	0.000102190286
31	0xba09f927	-0.0005263262
32	0xb8632fa8	-5.41654e-05
33	0xb7b88a2e	-2.1998854e-05
34	0x3893cb07	7.047323e-05
35	0x3837b65f	4.3800446e-05
36	0x38588d44	5.1629977e-05
37	0x39723550	0.00023098779
38	0xb8e32ad3	-0.0001083218
39	0xb913c9b5	-0.00014094154
40	0xb7c161c6	-2.3052922e-05
41	0xb8f8e93b	-0.00011869004
42	0x37f20769	2.8852099e-05
43	0xb85575e7	-5.0892962e-05
44	0xb92500ce	-0.00015735926
45	0xb7f9be09	-2.9771605e-05
46	0x36ebf731	7.0323226e-06
47	0xb9948f8b	-0.00028335708
48	0xb8351181	-4.3170065e-05
49	0x378aec9a	1.6561058e-05
50	0x390e4a4c	0.00013569853
51	0x375a092c	1.2995948e-05
52	0x394d0a5c	0.00019554183
53	0x384b713e	4.8504437e-05
54	0xb9bddc49	-0.00036213014
55	0xb8fb5607	-0.000119846365
56	0xb893a3f1	-7.040043e-05
57	0x371f2a04	9.486921e-06
58	0xb95f763e	-0.00021310986
59	0xb9298c25	-0.00016169304
60	0x384fa144	4.9502836e-05
61	0x390dbc7c	0.00013517024
62	0xb9654495	-0.0002186469
63	0x38c291d6	9.277805e-05

bn2/avg_var f4 [64]
0	0x3ead0df8	0.3379972
1	0x3f1f3e5c	0.6220453
2	0x3ef209fa	0.47273237
3	0x3f025913	0.50917166
4	0x3ebd2e38	0.36949325
5	0x3edffeef	0.43749186
6	0x3efa2b0e	0.48860973
7	0x3ebd5188	0.36976266
8	0x3ee765be	0.4519481
9	0x3ef700c9	0.48242787
10	0x3ee4286a	0.44562083
11	0x3f10e678	0.5660167
12	0x3ecd51de	0.40101522
13	0x3e971292	0.29506356
14	0x3f05e3a0	0.52300453
15	0x3ecab5ed	0.39591923
16	0x3ec561c9	0.38551167
17	0x3ecec8a2	0.40387446
18	0x3f32c8b6	0.6983751
19	0x3ec843f7	0.39114353
20	0x3f2f8176	0.68556917
21	0x3f0a37b4	0.53991246
22	0x3edaf13e	0.42762178
23	0x3eccb9cc	0.39985502
24	0x3eddc6bd	0.43315688
25	0x3ece8c02	0.40341192
26	0x3ec002e0	0.37502193
27	0x3e8b8bba	0.2725504
28	0x3f02ae27	0.51046985
29	0x3ec916f8	0.39275336
30	0x3ef4ccab	0.478124
31	0x3ec4de3d	0.38450804
32	0x3ec0c998	0.37653804
33	0x3ef9deec	0.48802888
34	0x3f047c26	0.51751935
35	0x3f143ff6	0.57910097
36	0x3ebf34bb	0.37344918
37	0x3f13d0dc	0.5774057
38	0x3edfac9a	0.43686372
39	0x3ed7f998	0.42182612
40	0x3f3b77fd	0.7322996
41	0x3ee1154e	0.43961567
42	0x3ed9e47f	0.4255714
43	0x3f037476	0.5134958
44	0x3eef3f19	0.46727827
45	0x3ef839e6	0.48481673
46	0x3ef35e44	0.47532856
47	0x3f07f917	0.53114456
48	0x3efb4497	0.49075767
49	0x3eba3e7a	0.3637579
50	0x3ec991bb	0.39368996
51	0x3ef7229e	0.48268598
52	0x3f05d971	0.52284914
53	0x3ef0ec37	0.47055218
54	0x3efbc07e	0.49170297
55	0x3ee98c81	0.45615008
56	0x3ed21e6e	0.4103884
57	0x3ed06f0a	0.40709716
58	0x3ea8b983	0.32954034
59	0x3eb4803f	0.35254094
60	0x3f040e6d	0.5158451
61	0x3f015129	0.50514466
62	0x3f0a340e	0.5398568
63	0x3ef174ff	0.47159573

bn6/beta f4 [32]
0	0x3d8caf94	0.06869426
1	0x3dcf6ee5	0.10128573
2	0x3b881552	0.004152932
3	0x3dc26b86	0.09493165
4	0x3d28fd53	0.041257214
5	0x3d048d2f	0.032361206
6	0x3dc70114	0.097170025
7	0x3ce0dc56	0.027448814
8	0x3db603a5	0.08887414
9	0x3d91e2a8	0.071233094
10	0x3e06b37c	0.13154405
11	0x3df4f097	0.11959951
12	0x3d45c3e7	0.04828253
13	0x3d874ac2	0.06606056
14	0x3d087bd6	0.033321224
15	0x3d040f3a	0.032241084
16	0x3c3ec4d1	0.011643604
17	0x3da36491	0.07978166
18	0x3d932c2f	0.07186162
19	0x3b81bf39	0.003959563
20	0x3da69e09	0.081356116
21	0x3c3d0008	0.011535652
22	0x3da5f8fb	0.0810413
23	0x3c8fd49b	0.017557433
24	0x3e793f17	0.24340473
25	0x3d3a16e1	0.045431975
26	0x3d621162	0.05519236
27	0x3db6e188	0.089297354
28	0x3db7ec66	0.08980636
29	0x3da9bfe5	0.08288554
30	0x3dc69eef	0.09698283
31	0x3d881a0f	0.06645595

conv1_7/W f4 [3, 32, 3, 3]
0	0x3ca51edb	0.020156315
1	0x3d2ef0b6	0.04271003
2	0x3d9457f9	0.07243342
3	0x3ca9a262	0.020707313
4	0x3cbe718f	0.023247508
5	0xbd106258	-0.035250038
6	0x3d14017f	0.03613424
7	0x3d8df5e4	0.069316655
8	0x3d0ff8a1	0.03514922
9	0xbbd8d908	-0.006617669
10	0x3d07c12f	0.03314322
11	0x3ddcb51d	0.10776732
12	0x3d37893c	0.04480861
13	0x3c7c60fb	0.015403981
14	0x3dbd7fb1	0.09252871
15	0x3d72b4f6	0.05925461
16	0xbda29bb8	-0.07939857
17	0x3c1e52ac	0.009663265
18	0x3e106c5f	0.1410384
19	0xbc98f72b	-0.018672546
20	0x3cb733c0	0.022363544
21	0x3d00b306	0.03142073
22	0x3c0b4360	0.00849995
23	0x3d64719a	0.0557724
24	0xbd7b7896	-0.061394297
25	0xbd6e3bcc	-0.058162495
26	0xbd90739e	-0.07053302
27	0xbcfc1fe3	-0.030776924
28	0x3d433733	0.047660064
29	0x3da89f4e	0.0823351
30	0x3c8fb7ac	0.017543636
31	0xbc91c3e8	-0.01779361
32	0xbc902355	-0.017594973
33	0xbc946ca2	-0.018118206
34	0x3e363897	0.17795025
35	0xbcb680af	-0.022278158
36	0x3de4d804	0.11174014
37	0x3d931f8d	0.07183752
38	0x3da576c5	0.08079294
39	0x3d685839	0.05672476
40	0x3e1072a7	0.14106236
41	0x3e2c67a4	0.16836411
42	0x3d776bb0	0.060405433
43	0xbd01161d	-0.03151523
44	0x3ca3e597	0.020006938
45	0xbcf035a8	-0.02932246
46	0xbdbd42af	-0.092412345
47	0x3e05080e	0.12991354
48	0x3db79f6e	0.08965956
49	0xbdbf75b3	-0.09348621
50	0x3d689094	0.056778505
51	0x3c60ead8	0.013727866
52	0xb9be7213	-0.00036324616
53	0xbd1d6e45	-0.03843524
54	0x3da5f667	0.08103638
55	0xbd2e695b	-0.042580944
56	0x3c4b0cf4	0.012393225
57	0xbc942767	-0.018085195
58	0x3e233a85	0.15940292
59	0xbd89975c	-0.06718323
60	0x3be22e14	0.0069024656
61	0x3e251b7e	0.16123769
62	0xbd46e852	-0.0485614
63	0xbcc8f413	-0.024530446
64	0x3da1de6f	0.07903754
65	0xbd045708	-0.032309562
66	0xbd232c10	-0.039836943
67	0xbdf8983e	-0.12138413
68	0x3db22807	0.08699041
69	0xbd742c3d	-0.0596125
70	0x3dc5fb34	0.09667054
71	0x3d974fca	0.073882654
72	0x3c6cfbe9	0.014464357
73	0x3dd073b8	0.101783216
74	0x3df3bc9a	0.11901207
75	0x3d2d1ec4	0.04226567
76	0x3d55797a	0.052117802
77	0xbd942055	-0.07232729
78	0xbddf9244	-0.1091657
79	0x3e4f3d3f	0.20238207
80	0x3ce5109c	0.027962022
81	0x3de317f2	0.110885516
82	0x3dac8dc0	0.08425474
83	0xbc19295d	-0.009348241
84	0x3dc99c00	0.09844208
85	0x3e191eae	0.1495311
86	0xbcc334f4	-0.023828961
87	0x3d9bf498	0.07615012
88	0x3ca62987	0.020283474
89	0xbc8f16f7	-0.017467005
90	0xbd7a32e9	-0.061083708
91	0x3d987abb	0.07445284
92	0x3d66e857	0.05637392
93	0x3d700e5a	0.058607437
94	0x3de4844f	0.11158048
95	0xbd97fbcb	-0.074210726
96	0x3e36d1ad	0.17853422
97	0x3d49ac2f	0.049236473
98	0xbd247dfe	-0.040159218
99	0xbce2ac7b	-0.027670136
100	0xbd30785d	-0.043083537
101	0xbcf798cc	-0.030224226
102	0x3cfab170	0.030602187
103	0x3e141d1f	0.14464234
104	0x3d354f61	0.044265155
105	0x3cb00497	0.021486564
106	0x3d4fb946	0.0507138
107	0x3d394233	0.045229148
108	0xbdd66841	-0.104691036
109	0x3c745c84	0.014914636
110	0x3e41aeca	0.18914333
111	0x3d962949	0.07332093
112	0x3e20d775	0.1570719
113	0x3dd6c7eb	0.1048735
114	0x3dcc6087	0.09979349
115	0x3dc933f0	0.098243594
116	0xbc871fb6	-0.016494613
117	0x3ce457a5	0.027873823
118	0x3e063371	0.13105561
119	0x3e007d07	0.12547694
120	0x3c9d1b1c	0.019177966
121	0x3da16361	0.07880283
122	0x3d9ae534	0.07563248
123	0x3e292cd3	0.16521005
124	0xbdc9b71a	-0.09849377
125	0xbd9e1c28	-0.07720214
126	0x3d10cc89	0.03535131
127	0x3c29281e	0.010324506
128	0x3c9853e1	0.018594684
129	0xbd563aab	-0.052302044
130	0x3b058dd0	0.0020378716
131	0xbd897999	-0.06712646
132	0xbcf53fd1	-0.029937657
133	0x3db55716	0.08854501
134	0x3b6568fd	0.0035005205
135	0x3dbf3062	0.093354
136	0x3cce46b4	0.025180198
137	0x3d31f09f	0.043442365
138	0xbcf330ee	-0.029686417
139	0xbd7cc27a	-0.061708905
140	0xbd0b4643	-0.034002554
141	0x3d9e7dcd	0.07738838
142	0x3c952827	0.018207623
143	0x3c6dcedc	0.014514651
144	0xbd0bfc61	-0.034176234
145	0xbdaa15cf	-0.08304941
146	0xbe0b157e	-0.13582417
147	0xbda51f70	-0.08062637
148	0x3cdea767	0.027179433
149	0xbd0a1eb2	-0.03372068
150	0x3d069c88	0.032864124
151	0x3e499a58	0.19687784
152	0x3b0046c9	0.0019573441
153	0x3de9ae3e	0.11410187
154	0x3dc18627	0.09449416
155	0x3c0eb454	0.008709986
156	0x3e6bee90	0.23040223
157	0x3cf63b1d	0.030057484
158	0x3d9471dc	0.072482795
159	0x3c1e8202	0.009674551
160	0xbe2a336f	-0.16621183
161	0x3d02856d	0.031865526
162	0x3dadfca4	0.08495453
163	0x3d971135	0.07376329
164	0x3c99fcc4	0.018797286
165	0x3d92eb1c	0.0717375
166	0xbd8c2bdf	-0.06844305
167	0xbce58f92	-0.028022561
168	0xbcb2e1c7	-0.021836175
169	0x3d317c01	0.04333115
170	0x3d07ac90	0.033123553
171	0x3d1fcd14	0.039013937
172	0xbba11ad0	-0.0049165264
173	0x3e429d75	0.19005378
174	0xbdba8c64	-0.09108809
175	0xbdd2995c	-0.10283157
176	0xbd299dea	-0.041410364
177	0xbd69b2d8	-0.057055324
178	0x3c76f63d	0.015073356
179	0x3c018176	0.007904401
180	0x3dc786af	0.09742486
181	0xbd0274a3	-0.031849515
182	0x3cae535c	0.021279983
183	0xbdaa2580	-0.08307934
184	0x3d82874d	0.06373463
185	0xbd8be588	-0.06830889
186	0xbb59141d	-0.003312356
187	0x3cfd532b	0.030923447
188	0x3e2b6363	0.16737132
189	0x3acd18e5	0.0015647678
190	0xbc28059a	-0.010255242
191	0x3d128827	0.035774376
192	0x3c28b019	0.010295891
193	0x3dacc6f7	0.08436387
194	0xbdcf0b8f	-0.101096265
195	0xbc0fe6e7	-0.008783079
196	0xbe05265c	-0.13002914
197	0x3da794e1	0.08182693
198	0x3de1b8c0	0.110215664
199	0x3c21c766	0.0098742
200	0xbd348e0e	-0.044080786
201	0x3dc3a83f	0.09553575
202	0xbdab5240	-0.08365297
203	0xbd973119	-0.073824115
204	0x3d64e61d	0.055883516
205	0x3b4b84f6	0.0031054593
206	0x3d3126dd	0.043249954
207	0xbdcddbd5	-0.10051695
208	0x3d426804	0.04746248
209	0xbcb67216	-0.022271197
210	0xbbd46759	-0.0064820466
211	0x3d8673e7	0.06565075
212	0xbd28ec5f	-0.041241046
213	0x3c1c2c79	0.0095320875
214	0xbd1305f1	-0.035894338
215	0x3dd61a0d	0.104541875
216	0xbd5e97f4	-0.054344133
217	0x3d21b86a	0.03948251
218	0xbda1406a	-0.07873614
219	0xbd213958	-0.039361328
220	0x3d4a66d6	0.04941448
221	0x3e1f586d	0.15561076
222	0x3d44fe62	0.04809416
223	0xbc88724a	-0.01665606
224	0x3d7188fe	0.058968537
225	0xbd41ca8e	-0.04731231
226	0xbce4b925	-0.027920315
227	0x3e0d0d59	0.13774623
228	0x3d1821a8	0.037141472
229	0x3d96c073	0.073609255
230	0x3df091e5	0.11746577
231	0x3db8e242	0.0902753
232	0x3dd94d70	0.10610473
233	0x3debe1fc	0.115177125
234	0xbd921fd3	-0.07134976
235	0xbcbb0805	-0.022830972
236	0xbd0037e0	-0.031303287
237	0x3de54607	0.11194997
238	0x3df1fef6	0.11816208
239	0xbbf627f6	-0.007512088
240	0xbcd2cc7d	-0.025732273
241	0x3db11ac8	0.08647686
242	0x3d177078	0.036972493
243	0xbd5b31be	-0.053514235
244	0x3a1e152e	0.00060303777
245	0x3d99e98a	0.07515247
246	0xbd99a2bd	-0.07501743
247	0xbd41041d	-0.047123063
248	0x3e63fab2	0.22263601
249	0xbd2bb181	-0.041917328
250	0xbd8a248c	-0.06745252
251	0xba3d0929	-0.0007211143
252	0x3cf5549a	0.029947568
253	0xbc920f68	-0.017829612
254	0xbcc21b1b	-0.023694566
255	0x3d82b49d	0.063821055
