loto6_cnn/loto6_30_480.model (npz, 491181 bytes, 38 tensors)

bn1/beta f4 [64]
00000000: 946a 4a3d 3167 523c 2003 cb3c 337c 953d
00000010: 736e 55bc 3509 3f3d 1198 e53d 58c7 9a3c
00000020: 15fc 483c 784c 873d 0bae ad3d 87e8 a33d
00000030: f366 353d ef5f 853d 540f bb3d 4379 513d
00000040: e990 c53d 3edf 133d ba61 8e3c 9f85 383d
00000050: 23d5 843d fbef 503d c45c 643d 6490 ec3b
00000060: 860b a93d 495d 2b3d 6833 23bc c1b4 173d
00000070: 52ad 9b3d ca02 fb3b 853c 5a3d 6ff8 0c3c
00000080: 840a 603c bd33 b33c da45 a03d b21b 203d
00000090: 6f05 cb3b cfcc ec3c 9402 cb3d 5976 c33d
000000a0: 428d b23c 47c5 733d 482f e03c b807 ec3c
000000b0: e4d0 403d ce66 a4bb 3a49 9ebb fe9f b73d
000000c0: 389c 963c 98a6 a23d 6961 81bc a593 743c
000000d0: 81d1 8a3d 68dc 203d 73ee 8e3d 2a68 0f3d
000000e0: 1911 b53d de1c 373d 8457 8cbc a924 e63d
000000f0: a579 553d 7e6b ba3c 50f9 743d e54f ed3c
0.049418047 0.012841986 0.024781764 0.0729908 -0.013026821 0.04663964 0.11210645 0.018893883
0.012267132 0.06606382 0.08480462 0.080033354 0.044287633 0.065124385 0.09133783 0.051141035
0.0964678 0.036101572 0.017380584 0.045049306 0.06485965 0.051010113 0.05575253 0.007219361
0.08254151 0.04183701 -0.009960987 0.037037615 0.076014176 0.0076602446 0.053280372 0.008604153
0.013674382 0.021875257 0.07825823 0.039088912 0.006195716 0.028906254 0.09912601 0.095440574
0.021795873 0.05951431 0.027366295 0.028812274 0.047074214 -0.005017138 -0.0048305066 0.08966063
0.018385038 0.079419315 -0.01579352 0.014927779 0.06778241 0.039272696 0.06979074 0.035011448
0.08841152 0.044705264 -0.017131574 0.11237461 0.052117962 0.022756334 0.059808075 0.02896876

bn3/gamma f4 [64]
00000000: 3fb9 893f c1d8 8b3f 19d0 8a3f 22d2 883f
00000010: dbc7 813f e7e2 853f 7b37 863f bf3d 823f
00000020: 99d8 853f 4211 823f f7af 7d3f 5dcc 823f
00000030: 1078 813f b3d2 863f 1285 833f c558 7e3f
00000040: 8da9 7e3f 3b6e 803f 1cb5 863f e244 7d3f
00000050: f283 833f 3aab 843f 8b72 803f 68a7 813f
00000060: 92dd 813f fb7a 813f 2b80 813f af29 813f
00000070: a3b1 823f bdfd 813f 9955 7f3f 8923 863f
00000080: 53c7 813f 9bb7 813f 65e4 833f 6257 833f
00000090: ac5c 813f 544a 8a3f 4107 8c3f 5595 843f
000000a0: af5b 823f 89a2 823f fe17 823f 0d7d 843f
000000b0: 68d7 853f 7f77 843f c64b 813f 2331 873f
000000c0: faed 813f ab41 843f 02d7 803f b2ec 7f3f
000000d0: db0c 823f 5b29 7d3f 814a 873f cb0a 8d3f
000000e0: 12e5 833f b9ad 813f e4d3 7f3f 57ca 823f
000000f0: dca1 813f e95d 823f 5aca 8c3f 02de 813f
1.0759658 1.0925523 1.0844756 1.0689127 1.0139116 1.045987 1.0485681 1.0175093
1.0456725 1.0161517 0.99096626 1.0218617 1.0114765 1.053305 1.0274985 0.993542
0.99477464 1.003364 1.052402 0.9893323 1.0274642 1.0364754 1.0034956 1.0129213
1.0145743 1.0115656 1.0117239 1.0090846 1.021046 1.015556 0.99739987 1.0479594
1.0138954 1.0134157 1.0304075 1.0261042 1.0106406 1.0803933 1.0939714 1.0358073
1.018423 1.0205852 1.0163572 1.0350662 1.0456362 1.0348967 1.0101249 1.056187
1.015075 1.033254 1.0065615 0.99970543 1.0160173 0.9889123 1.0569612 1.1018919
1.0304282 1.0131141 0.99932694 1.0217999 1.012752 1.0184909 1.0999253 1.0145876

bn4/beta f4 [32]
00000000: 4376 fc3c 4ccb 863d a736 983c ebc1 a13d
00000010: e8d0 643d e338 713d a50e 053e fbf7 023d
00000020: 9514 e83d ad2c 123e ab28 af3d 98ab a33d
00000030: a7bf 803d dd7a b83d dff9 9c3b 2c78 a03c
00000040: 2d52 873c c578 9b3d 64e1 483d 19e8 543c
00000050: d83e 943d 339e d5bb 41b3 723a 6178 653d
00000060: ef34 a73d 7dd0 753d ba1a b83d a201 363b
00000070: 9809 863d ca42 033e f85c b33d 6c48 ab3d
0.03081811 0.065817446 0.018580748 0.07898315 0.05586329 0.058892142 0.12993868 0.031974774
0.11332051 0.14274855 0.08552679 0.07991713 0.06286555 0.09007809 0.004790529 0.019588552
0.016518677 0.07591394 0.049043074 0.0129947895 0.07238549 -0.006519103 0.00092582783 0.056023005
0.08164393 0.060013283 0.08989473 0.002777197 0.065447986 0.12818447 0.08757967 0.08363423

bn2/avg_mean f4 [64]
00000000: af48 92be 8e2f 33bf 0e85 68bf e2c1 9fbf
00000010: 3cc1 943d 1aec e5be 1039 a2bf 989a b3bf
00000020: b93d f3be 2793 bdbf 4b4e cabe 32e5 ccbe
00000030: d362 4dbf c1de 46bf 412f 573f bfb4 80bf
00000040: fe93 1cbf 643f 64bf b619 71bf 8727 8bbf
00000050: 0c85 56bf a575 b9bf 5b47 c2be 7eb2 3a3d
00000060: d462 74bf 27ab 61bf da11 40bf 163a 1fbf
00000070: c9ec a93e 4e2a cebe 02f6 b7bc 04a9 6cbf
00000080: 3eac 313d 35d2 803e f05d 893d 42bb bdbf
00000090: d1f9 bcbe 2397 d43d 0061 18be 09b1 82be
000000a0: 2ed2 78bf 44bf 13be 66c5 65bf 134f e83e
000000b0: dc15 60bf d07c 75bf 7f88 f1be 4e6c a8bf
000000c0: 1bed 5fbf 3110 4fbf f019 61bf f2ce 16bc
000000d0: f602 a8bf 419b 6abf 05dd 5ebf d069 86bd
000000e0: ae95 9abf eda5 8cbf e8ff 08bf 1265 983e
000000f0: 7d36 03be 8c9d acbf 4335 91bf c7c6 8fbf
-0.28571078 -0.6999444 -0.90828025 -1.2481043 0.07263419 -0.44906694 -1.2673664 -1.4031553
-0.47508028 -1.4810532 -0.39512858 -0.40018612 -0.8022892 -0.77683645 0.8405648 -1.0055159
-0.6116332 -0.89159226 -0.94179857 -1.0871438 -0.83796763 -1.4489027 -0.37945065 0.04558038
-0.954633 -0.8815178 -0.7502724 -0.6219801 0.33188465 -0.4026665 -0.022456173 -0.924454
0.043377154 0.25160375 0.0670737 -1.4822772 -0.36909345 0.103803895 -0.14880753 -0.25525692
-0.9719571 -0.14428431 -0.8975433 0.4537283 -0.87533355 -0.95893574 -0.4717445 -1.3158052
-0.8747117 -0.8088408 -0.879302 -0.009204613 -1.3125904 -0.9164315 -0.87056 -0.06563151
-1.2076929 -1.0988137 -0.5351548 0.2976461 -0.12813754 -1.348558 -1.1344379 -1.1232537

conv1_6/b f4 [32]
00000000: 126b 31b9 73c6 4e39 9f06 43ba 8bda 0dba
00000010: e714 6cba 8dc7 2fb8 9cab 3737 5090 373a
00000020: 63c3 deb9 6de1 46b9 e10b a238 277a 143a
00000030: 3a4e 9bb9 49cb 20ba 770b 7b39 69d8 5d39
00000040: 2353 1d3a 36eb 38b9 646e 4bba 8456 f6b9
00000050: 3d64 423a a2ba 4fb9 c1b0 c639 8897 bd38
00000060: 1b02 27b9 43c0 923a 150b 4638 b25e fbb8
00000070: 5ce6 84b9 8365 3939 d17d a539 f18a 8839
-0.00016919922 0.00019719619 -0.0007439646 -0.00054112886 -0.00090058 -4.1909097e-05 1.0947606e-05 0.00070024
-0.00042488714 -0.00018966729 7.7269746e-05 0.0005663954 -0.00029622187 -0.00061338075 0.00023941496 0.00021156821
0.0006001463 -0.0001763523 -0.0007760285 -0.00046985236 0.00074154494 -0.00019810584 0.00037897195 9.040447e-05
-0.00015927145 0.0011196214 4.72172e-05 -0.00011986251 -0.00025348633 0.00017680791 0.00031564993 0.0002604346

conv1_5/b f4 [32]
00000000: 2533 c7b9 ad76 cb38 d689 203a 0ec9 1739
00000010: 6d47 97b9 9e39 8f39 b53d 2f39 39fe 1eb9
00000020: 470d 1739 6532 35b9 3dde c0b9 df32 8c39
00000030: 1356 edb9 ca0c b639 1349 1238 a9a9 253a
00000040: 5a3b 0838 f978 ee39 6a4e 6539 d0b4 c1b9
00000050: 931e e038 d0ba d639 06cf e0ba 2595 23b9
00000060: e722 ceb7 f60c 003a 4bab 1939 974e c339
00000070: 9e2e 7f39 65e6 e7b9 9a20 0838 c318 0439
-0.00037994343 9.7018994e-05 0.0006124055 0.00014475381 -0.0002885418 0.00027318014 0.00016712288 -0.0001516276
0.00014405428 -0.00017280279 -0.00036786674 0.00026740783 -0.00045268293 0.00034723274 3.487717e-05 0.0006319532
3.2480202e-05 0.0004548503 0.00021868353 -0.00036946544 0.00010686847 0.00040956447 -0.0017151542 -0.00015600452
-2.4573366e-05 0.0004884744 0.00014655029 0.00037251852 0.00024336061 -0.0004423141 3.245529e-05 0.00012597725

bn3/avg_var f4 [64]
00000000: 8d71 983e 2e0b 313f e333 043f 9012 123f
00000010: 32dd d73e 017d 9a3e 86b8 4a3f a6c8 a53e
00000020: cc47 cd3e b04a b63e fdca b33e 25a0 ad3e
00000030: 12eb f23e 0bbe 883e e706 203f eb67 b73e
00000040: d9ea 953e 8ed8 b63e fb2c bd3e ae45 153f
00000050: b8a3 b23e 148b b83e cf95 ad3e be52 ed3e
00000060: 7e8e b53e f26f d43e 51aa 903e cc39 0e3f
00000070: a4db a83e b210 8e3e e7fc d73e 32bc e23e
00000080: fe7d b43e 00e0 ca3e 26e1 b33e ac65 c03e
00000090: aaaa d43e e1c2 053f 6a79 3f3f 6d3b a73e
000000a0: 41ea ad3e 1c43 803e ae07 a53e b02f 8d3e
000000b0: f77b bc3e 167f 9c3e 7f1d 6e3e ce37 133f
000000c0: 35a7 ac3e 48b9 b93e ad4b d93e 36bd b03e
000000d0: 19c1 1f3f cbc6 a23e 132c a93e a68d 393f
000000e0: 8400 d93e c393 623e 22c9 ae3e fbd5 b33e
000000f0: d97d 0a3f 5591 8e3e b348 1f3f b178 fe3e
0.29774132 0.69157684 0.5164167 0.57059574 0.42160946 0.30173495 0.7918781 0.32379645
0.4009384 0.35603857 0.35115805 0.33911243 0.4744497 0.2670749 0.6251053 0.3582147
0.29280737 0.35712093 0.3694838 0.5830945 0.34890532 0.36043608 0.33903357 0.4635219
0.35460275 0.41491657 0.2825494 0.5555694 0.32980072 0.27747113 0.42185137 0.44284207
0.35252374 0.39624023 0.35132712 0.3757757 0.41536456 0.52250487 0.7479464 0.32662526
0.33967784 0.250512 0.32232422 0.27575445 0.36813328 0.3056571 0.2325344 0.57507026
0.3372132 0.3627417 0.4244055 0.34519356 0.6240402 0.31792292 0.33041438 0.72481763
0.42383206 0.22126679 0.34137827 0.35124192 0.5409828 0.27845255 0.62220305 0.49701455

conv1_3/W f4 [64, 64, 3, 3]
00000000: 9464 4cbc f5b1 b1bd 9c3a d2bb 7724 b63d
00000010: 43ff 2cbd 77bc 243d f8fb a23c d3a8 dd3c
00000020: 2731 623c 2f89 2ebc d562 a23c c132 bebd
00000030: 63e7 f3bc dcdb 313d a729 90bb 190a 243b
00000040: 20d3 65bd 23d7 d53c 3a59 76bd abc1 7cbd
00000050: f11d 4d3c 002c ebbb 5075 b03c e19d f83c
00000060: 9a1c 9ebc e9f4 6cbd 5bee 8bbd 9395 b73b
00000070: 5732 4b3d 4579 04bd 80c6 14bc 7612 d83d
00000080: 1ded debc 11de 3e3d 3e8b 05bd 3e58 553c
00000090: ce3b 7dbb dedd 79bd 5e07 233d f40c 993d
000000a0: 90f2 253c a9bc 343b 7812 e03b 7696 50bd
000000b0: 78f3 0b3d 611c 9fbc 5d6e 26bd df69 65bd
000000c0: ab15 793c 2255 11bd 6241 703c bb93 743d
000000d0: 094c db3a 63ff d9bb 45d8 e63c f1c8 a53c
000000e0: 134e d2bc f259 1ebd fa73 abbd 49f6 4e3c
000000f0: f692 2c3a b1fb 41bc ae96 e1bc 462f cb3b
00000100: 751c 26bd bf6b f3bc f52e 393c 1a86 b3bc
00000110: f854 3dbc a01f 9d3c c3ce e13a b7b2 a53c
00000120: 731b 5dbc 36a2 23bc cb4f 7d3d e3f2 783d
00000130: 7d11 c43c f178 c1bb 3ae3 753c 8c1b 383b
00000140: f8ec 8dbc a301 d4bc fb8e 713d b66a e8bc
00000150: 403c 07bd dc36 b1bd 328a ba3c 1c38 70bd
00000160: 2bec 6cbd 8d15 0d3d 2f46 05bc 85fc 8c3c
00000170: 30c3 fd3c 9f97 9f3b 4d75 87bd f1d8 8fbc
00000180: 11d3 343d 1df3 a0bd 2680 4fbc a4f9 2abd
00000190: 1f0f 46bc d0a1 acbb 0426 a5bc 952d 6ebd
000001a0: fe77 acbd 0877 9bbb 4f89 1fbb bad4 b8bc
000001b0: 35a1 3dbd 0d50 fab9 36d9 28bd 8bc2 87bd
000001c0: 0fd1 e63c eec6 9dbb 441e eabc f1ab 4a3c
000001d0: c365 3cbd 07b1 71bc 51c9 b23b ded8 2d3d
000001e0: 0799 69bd b803 cebc 5962 86bd b432 57bd
000001f0: c0cd 88bd e135 a53c 32b3 153c 2d29 8e3c
00000200: db51 02bd 1cb0 c8bc 1b17 c53b 26ba ae3d
00000210: d6fd 2d3c 94dd 26bc c2be bfbd 5142 223c
00000220: 674a babc 8181 643d b7fe aa3b d739 353d
00000230: a04e 0abd 73b5 06bd 4251 48bc d6ec 553c
00000240: 31fb 5dbd 4be3 3ebc 0b91 c0bb 935a 3d3d
00000250: ffaa b6bc cc20 383d f81e 383c 70ce eabc
00000260: 3f81 223b 3295 66bd 544a c1bc 778f 7a3d
00000270: fc01 9cbd 5bde 1a3c 07e9 3dbc 1026 a4bd
00000280: 6a6b dc3c 38f9 c33c dd08 383c c89d 7bbd
00000290: 3252 a2bc 3fb6 913b b54f f4bc 71d1 4dbd
000002a0: 5529 b83c d06f 0e3d 11f8 85bc 5d13 55bc
000002b0: 4e8d 99bd c80b 1b3d b677 5abd 3d77 53bd
000002c0: edd2 d83d e849 e7bb 111e d73c 1cc6 063d
000002d0: d0a8 943c 7eee 93bd de72 9bbc 2cd7 7e3c
000002e0: 2706 883c 734a 6939 9d26 77bd c60a 9d3c
000002f0: d852 aebb 009a 96bc 6184 edb9 9239 193d
00000300: 2cc9 acbc 4308 86bc 7668 00bd c8b2 703d
00000310: ad45 183c 5118 f03b 8e43 41bd abd1 4c3d
00000320: 1e44 3ebd 9aa6 19bc 3e76 bf3c d552 323d
00000330: d958 49bc 7eaa aabc 0b0a 5ebd 87a7 d9bc
00000340: cb02 d239 683f 5fbb 8e9f c93c db98 133d
00000350: 55fe 17bd 08ab d3bd 55ca 923b 0c3f 2ebd
00000360: 970f bcbd 1e11 893d 0adf b8bd d4e9 77bc
00000370: aa73 933b e8bd 0d3c 5221 463b 452d 54bd
00000380: 8aa7 9c3d d74d 073c 26b4 d93b 4b78 b5bd
00000390: 7c1a 413d b47f a43d 9f08 30bd 7a30 e43b
000003a0: 85c5 0b3b b440 d2bc ea17 91bc bc4c 2cbc
000003b0: f5f2 b5bc 6501 77bd c0a3 75bd 939d b93c
000003c0: 113e 533d 84aa 0a3d a437 e83c 4327 7fbd
000003d0: 17ea 073d 5b12 033d 420a 3abd 4eaf dabc
000003e0: f8b2 e8bc 9d2a 403c 68a4 043c f4a4 a5bc
000003f0: a5bc 92bc d344 263c 866d 92bd bae2 56bd
-0.012475152 -0.08676521 -0.006415678 0.08893674 -0.042235624 0.040218797 0.019895539 0.02705804
0.013805664 -0.010652824 0.019822517 -0.09287024 -0.02977342 0.043422565 -0.0043994966 0.0025030433
-0.056109548 0.026103562 -0.060143687 -0.061708134 0.012519346 -0.007176876 0.021540314 0.03034872
-0.019300748 -0.057850752 -0.06832572 0.0056025474 0.049608555 -0.032342214 -0.009080529 0.10550396
-0.027212674 0.046598498 -0.032603495 0.013021527 -0.0038640383 -0.061002605 0.039801948 0.07473174
0.010128632 0.002757827 0.006838139 -0.05092474 0.034167737 -0.019422712 -0.040632594 -0.05600917
0.01520292 -0.03548158 0.014664026 0.0597112 0.0016731034 -0.006652759 0.028179297 0.020237418
-0.025671994 -0.038659997 -0.0837173 0.012631961 0.0006583178 -0.011839793 -0.02753767 0.006200704
-0.040554482 -0.029714463 0.011302699 -0.02191453 -0.011555903 0.019180119 0.0017227757 0.02022682
-0.013495314 -0.009987405 0.061843675 0.06077851 0.02393412 -0.00590431 0.015007788 0.002809259
-0.01732491 -0.025879687 0.058974247 -0.028371196 -0.033016443 -0.08653042 0.022770975 -0.05864726
-0.057842415 0.03444438 -0.008134409 0.017210254 0.030976862 0.0048703696 -0.0661417 -0.0175595
0.0441466 -0.0785887 -0.01266483 -0.041741982 -0.012088566 -0.005268313 -0.020159729 -0.05814894
-0.08421324 -0.0047444142 -0.0024343317 -0.022562373 -0.046296317 -0.00047743358 -0.041222773 -0.06628903
0.028175859 -0.004814974 -0.028578885 0.012370096 -0.045995485 -0.014751679 0.0054561277 0.04244315
-0.057030704 -0.025148258 -0.06561727 -0.05253859 -0.06679869 0.020167293 0.009136962 0.017353619
-0.031816345 -0.024498038 0.0060147173 0.08531599 0.010619601 -0.010184664 -0.09362556 0.009903506
-0.022740556 0.055787567 0.0052183527 0.044244613 -0.03376639 -0.032887887 -0.012226405 0.013056954
-0.054194633 -0.011650871 -0.0058766655 0.046228956 -0.022298334 0.044953153 0.011237852 -0.02866289
0.0024796275 -0.056294627 -0.023595013 0.061171975 -0.07617566 0.009452428 -0.011591203 -0.08015072
0.026906688 0.023922548 0.011232582 -0.06142977 -0.019814584 0.0044467743 -0.029823164 -0.050248567
0.022480646 0.0347746 -0.016353639 -0.013005105 -0.07497655 0.037853032 -0.05333682 -0.051627386
0.10587106 -0.007058371 0.026259454 0.032903776 0.018146902 -0.07223223 -0.018975671 0.015554231
0.016604496 0.00022248346 -0.06033956 0.019170176 -0.0053199343 -0.01838398 -0.00045302793 0.03740842
-0.02109202 -0.016361361 -0.03134962 0.05876425 0.009293956 0.0073271175 -0.047183566 0.050004642
-0.04645168 -0.0093781 0.023371812 0.043536026 -0.012289249 -0.02083325 -0.054208796 -0.026569141
0.00040056402 -0.0034064893 0.024612214 0.036034446 -0.037107784 -0.10335356 0.0044796863 -0.042540595
-0.09182661 0.06692718 -0.09026916 -0.015131433 0.004499872 0.008651234 0.0030232263 -0.051800985
0.07649143 0.008258305 0.00664379 -0.08860835 0.047144398 0.0803217 -0.04297697 0.0069637867
0.0021327448 -0.025665618 -0.017711598 -0.010516342 -0.022210578 -0.060304064 -0.059970617 0.022658145
0.051572863 0.033854023 0.028346844 -0.062293302 0.03318223 0.031999927 -0.04541994 -0.02669492
-0.028405651 0.01172891 0.008095838 -0.020220257 -0.017912218 0.010148245 -0.07149796 -0.052462317

bn4/avg_mean f4 [32]
00000000: d5ec 0a40 3c45 a23f 2d11 38bf 2b1d 84be
00000010: 1bcc 2b3e bb2d e3bf 373a 2bc0 f749 8f3e
00000020: 72a6 00be 7e27 c1be c8e5 debf fdd5 26c0
00000030: 5b66 0cc0 2cae d6bf 96ef 453f f2e7 4dbf
00000040: e54f 77bd 5e84 a5be 88ca 84bf 479c 01c0
00000050: 4cf0 11c0 ed4e a23f 4115 1540 bd31 1ac0
00000060: 1823 0cc0 507c 733f b2bd 3ac0 e567 87bf
00000070: 11c0 b0bf 3274 42c0 365b 30c0 17c1 0c3d
2.170705 1.2677379 -0.7190121 -0.25803503 0.16777079 -1.7748331 -2.6754282 0.27986118
-0.12563494 -0.37725443 -1.7413874 -2.6068108 -2.1937473 -1.6771903 0.77318704 -0.80432045
-0.060378928 -0.3232755 -1.0374308 -2.0251634 -2.2802916 1.2680336 2.3294222 -2.4092858
-2.189642 0.9511156 -2.917828 -1.0578581 -1.3808614 -3.038342 -2.755567 0.034363832

bn3/beta f4 [64]
00000000: f5db 3a3b be82 58bc 84b1 dbba 7a4b 9fbc
00000010: b0fd 12bc 97a2 573a 87fc 7f3d 8cc2 a03c
00000020: 6934 c53c 770c 3abb b501 c9bc 83c9 e03c
00000030: 19fe 023c c56a a33c 5be6 803c 7c7e a4bb
00000040: 363d 49bc 407c 05bd a939 a83c 21ce e8bc
00000050: 1224 773c 3744 103d cfe0 6cbc 1de6 7cbc
00000060: b505 1cbd 5a5f 183c 787c 833c d8bd 5d39
00000070: 0727 f13b ed76 993b b3ef 0dbd 1d8f 32bc
00000080: e56d 41bb c8e9 31bb 47c9 7f3c 934c a43c
00000090: 9d8b 4f3c 4582 a9b9 081a 3cbd 599b 0a3d
000000a0: 640d 653c 33d9 9c3c 269f 0ebc daf1 603c
000000b0: f48f 6e3c 7f2f ac3c 185b 9aba 5a03 053d
000000c0: fb0d d63a 6b2e a63c ac25 d4ba 7d11 8bbc
000000d0: de0c 013d b12f cebc ac71 233d 4a20 283c
000000e0: 0c8f 3a3d 8550 f2bc f0e7 943b af57 adbc
000000f0: b6f1 8abb 73af 27bc a719 e4bc 2686 a2bb
0.0028512452 -0.013214765 -0.0016761278 -0.01944517 -0.008971617 0.0008225827 0.06249669 0.019624017
0.024072843 -0.0028388777 -0.024536947 0.027439838 0.007995152 0.019948373 0.015734842 -0.005019961
-0.01228266 -0.032589197 0.020535307 -0.028418602 0.015084283 0.035221305 -0.014457895 -0.015435723
-0.03809138 0.009300077 0.016050562 0.00021146925 0.0073593888 0.0046833665 -0.034652423 -0.010898379
-0.0029514965 -0.00271474 0.015611953 0.020056045 0.012667564 -0.0003233125 -0.045923263 0.033839557
0.013980243 0.019146537 -0.008704936 0.013729537 0.014560688 0.021018742 -0.0011776416 0.0324739
0.0016331071 0.020285806 -0.0016185543 -0.016976112 0.03150641 -0.025169225 0.039903328 0.010261605
0.045546576 -0.02957941 0.0045442507 -0.021159975 -0.00424024 -0.010234701 -0.027844263 -0.0049598394

conv1_7/b f4 [3]
00000000: d8b8 f03c cad1 003c af4c 0bbc
0.029385015 0.007862518 -0.0085021695

conv1_4/W f4 [32, 64, 3, 3]
00000000: 53d5 0fbd 9423 453d 6df6 193c 5ac5 8a3d
00000010: 593a e23d e5ea debc ec60 5abc f8b8 353a
00000020: 122a 4f3c 21ed 4e3d e1de 62bd 58dc e7bc
00000030: 9bdd 1a3d b9ae 5c3d 817a 59bd 9c60 d7bd
00000040: 5c6c b53c eb3b 173d cf31 023c 43ba 4abd
00000050: 1483 38bd da2f f93c 2894 c2bd 6fcf be3c
00000060: 12a8 68bc 530a a63d 37fb b4bd 5703 063d
00000070: dcc3 8fbc 334d 24bc 4a23 19ba 6426 863a
00000080: c89d 8e3c 386d b9bc 0e16 8f3c e1c7 663b
00000090: 1020 3cbd c734 8c3b 52d5 f7bb 5bea 8bbc
000000a0: 2fa6 ebbc 03fb aa3c 81d1 8e3b 0096 f03b
000000b0: cb19 7c3d 0e31 b5bb a39e ff3c d3ee 703c
000000c0: 347c a33c 4151 69bc e3ca 9e3c 09d2 b5bb
000000d0: 92aa 073d d018 863c 79a6 883d c791 a83d
000000e0: b97f 29bb a80e 5bbd 7e0d 0a3d 9ba8 88bc
000000f0: 0706 453b e287 813c 2acf 9fbd ad29 abbc
00000100: cebd c83d 9c58 d23c 2eb4 003c 3a98 aa3c
00000110: 8491 0e3c c4bb 753c 3ca1 a2bc da85 69bd
00000120: 1f93 a4bd 4e7f 073c 154e 03bd 3ef6 533d
00000130: bed6 2fbd 9ab4 3a3d e53a 27ba e27b cb3c
00000140: 5b3e 99b9 ee36 dfbc bf01 22bd 9ef5 83bc
00000150: 84a7 c8bd 108a 663d fe8b 823d 84ad 333d
00000160: 466d 013d e14e 60bc 5f80 073d 5d5b 963c
00000170: cfcd eb3c 6e7d e63b b01e 763c 44c7 d5bb
00000180: fcbe 863c 005e 1ebd 45ac fd3c 8386 8ebb
00000190: 96ec 26bd e2b2 383d f95f a6bd ab6e c13a
000001a0: 082a f53c 3cd4 53bd 060b 763d 7b1e 03bc
000001b0: cb43 8f3c 62b0 693c 88c5 f9bd f138 c1bc
000001c0: fdeb 23bd 44ee 03bb 2750 56bd e489 c7bc
000001d0: d460 f1bc 31a1 463c a4fa 2abd 72fd bfbc
000001e0: c7a8 4d3b 8817 723d 6f08 c3bc aa97 52bb
000001f0: a54f 123d 23d2 053d f6e4 57bc 50f2 a7bd
00000200: 7472 7fbb 23d5 9d3c cdd5 593d e1f1 20bd
00000210: 3910 813d ea62 aa3d be97 033d d463 b93c
00000220: bd7c 9b3c 318c 653d 82fd e2bc d535 c73c
00000230: b847 9c3d c0cc 973c e0a1 86bd c747 a3bc
00000240: ddb0 54bd 752d 4c3c b90c 1abd b79b c83c
00000250: b26e 863d 2721 85bc 64ba 8dbd d116 9bbc
00000260: 4014 a63c e893 96bd 94aa d2bc 7dbf f63c
00000270: e6e7 e1bb 5131 983d 2d83 4f3d 4810 923d
00000280: cd25 e03c 7771 a3bd 56a7 babc 7892 633c
00000290: 005d b0bc 5feb 803c 6723 88bc a7e8 1ebd
000002a0: 5db8 68bd e174 3fbc f6d2 aabc 6e30 393d
000002b0: 0312 a33d 3c8f 4f3d f061 b5bc 665d 19bc
000002c0: 0bef b73c a934 0c3c 756f cd3c 044d 7d3d
000002d0: 7ff0 5fbc 01fa e73b ad2e 6b3d 4e48 5f3d
000002e0: a73d b1bc 0085 d83c 2654 813d 701f b83c
000002f0: 71ee 8bbd 5ab2 43bd 0e4e 9c3d 9421 50bd
00000300: b4ee c5bc e2f1 bb3c fa75 943c faf1 52bc
00000310: 69d5 41bd 26af 16bd 045f 83bb 8126 623d
00000320: 8364 bc3a fe16 c4bc 0bba f83c d898 0bbd
00000330: cec5 053d 9d96 6a3d 21fc bf3c 059a f83c
00000340: db54 ab3d d4ef 0d3d e41a 73bb 6a16 ac3c
00000350: 95c0 8e3c 9fd8 c73b 92fa 063d ab9c b53c
00000360: 5540 813b e30b 143d 6d24 71bc a9cc 733c
00000370: 32b8 063d 5c8b 00bc 4e33 bc3c effb 2b3d
00000380: b4b0 81bd 881a a1bb abab 53bd 0933 fabc
00000390: 3aa4 473b 5f54 a53d 0b10 043d ef29 703c
000003a0: 427c 60bd 12ef a93c 5c4c 633c a647 0cbd
000003b0: 098c 2f3d 18ca d1bc 756a 993d 678d 043d
000003c0: 9080 28bd f4ab 06bd 6556 21bd 3933 c43d
000003d0: 2c2a 39bd 0f11 913d 4509 d23c 9b98 c43d
000003e0: 7d75 c9bc 4f41 833c 0089 883d 3bed 493b
000003f0: 0e4a 433d 2d34 0a3d 8799 593b f280 17bc
-0.03511555 0.048129633 0.009397131 0.06775923 0.11046285 -0.027211616 -0.013328772 0.00069321645
0.012644308 0.050519112 -0.055388335 -0.02830331 0.037808996 0.053877566 -0.053095344 -0.10516474
0.022146396 0.036922377 0.007946446 -0.04949404 -0.04504688 0.030418325 -0.09500915 0.023292271
-0.014200227 0.08107438 -0.08836978 0.03271803 -0.017549448 -0.010028171 -0.00058417453 0.001023483
0.01740922 -0.022635087 0.017466571 0.0035214352 -0.045929015 0.0042787525 -0.0075632716 -0.017079523
-0.028765766 0.020871645 0.004358471 0.0073421 0.061548036 -0.0055295294 0.031203574 0.014705378
0.019956686 -0.014240564 0.019383853 -0.00554872 0.033121653 0.016369253 0.06672377 0.0823093
-0.0025863482 -0.053480774 0.033704273 -0.01668196 0.0030063407 0.015811864 -0.07803185 -0.020893896
0.09801827 0.025677018 0.007855458 0.02082454 0.008701686 0.01499838 -0.019852273 -0.057012416
-0.080358736 0.008270098 -0.032056887 0.051748507 -0.042929403 0.04558239 -0.00063793204 0.024839345
-0.00029228893 -0.027247872 -0.039552446 -0.01610833 -0.09797576 0.05628401 0.06374358 0.04386665
0.031598352 -0.013690681 0.03308141 0.018354112 0.02878466 0.0070339954 0.015021965 -0.0065239985
0.01644849 -0.038663864 0.030965934 -0.004349531 -0.04075297 0.04509247 -0.08123774 0.0014757713
0.029927269 -0.051716074 0.060069107 -0.008002873 0.01748838 0.014263244 -0.12195879 -0.023586722
-0.040019978 -0.002013103 -0.052322533 -0.024357744 -0.029465117 0.012123392 -0.041742936 -0.023436282
0.0031381117 0.059104472 -0.023807732 -0.0032133856 0.035720486 0.032671105 -0.013177147 -0.08200514
-0.0038978131 0.01926667 0.053182412 -0.039293174 0.06301922 0.083196476 0.032127135 0.02263061
0.018980378 0.0560419 -0.027708773 0.024317661 0.07630867 0.01853025 -0.06573844 -0.019931687
-0.051926482 0.01246201 -0.03760979 0.024488313 0.06564082 -0.01625116 -0.06920317 -0.018931778
0.020273328 -0.0735243 -0.025716104 0.030120606 -0.0068940995 0.07431281 0.05066221 0.07132012
0.027361775 -0.07980626 -0.02278487 0.013889901 -0.02152872 0.015737234 -0.016618444 -0.038796093
-0.056816448 -0.011685581 -0.020852547 0.0452122 0.0796242 0.05067371 -0.022141427 -0.009360647
0.022452852 0.008557477 0.02507756 0.061841026 -0.013668179 0.0070793633 0.05741756 0.054512314
-0.021635843 0.026430607 0.06314878 0.022475928 -0.068325885 -0.04777751 0.07632075 -0.050813273
-0.024161674 0.022942487 0.018122662 -0.0128750745 -0.047322664 -0.03678813 -0.0040091295 0.0552125
0.0014373217 -0.023936745 0.03036215 -0.03408131 0.032659344 0.057272542 0.023435654 0.03034688
0.08365794 0.034652546 -0.0037094885 0.021006782 0.017425815 0.0060988213 0.032953806 0.022169432
0.0039444366 0.03614415 -0.014718157 0.014880338 0.032890506 -0.007845726 0.022973683 0.04198831
-0.063325316 -0.004916493 -0.051677387 -0.030541914 0.0030462877 0.08072733 0.032241862 0.014658435
-0.054806 0.02074388 0.013873186 -0.034248017 0.042858157 -0.025609061 0.07491008 0.032361414
-0.04113823 -0.03287883 -0.039389033 0.095800824 -0.045206234 0.07083332 0.025639186 0.0959942
-0.024592156 0.016022353 0.06666756 0.0030811566 0.047678046 0.033741165 0.0033203082 -0.009247052

bn1/gamma f4 [64]
00000000: d5de 793f 3056 773f cfe5 773f b508 7a3f
00000010: b322 7a3f 2ed6 7a3f b43a 803f 8ab3 7a3f
00000020: da15 803f ba93 803f e021 7f3f b1fe 843f
00000030: 63fe 7b3f 7635 793f 6073 813f b3f2 743f
00000040: e637 803f 2d4c 743f 05ac 723f d95b 7d3f
00000050: d51c 813f 687e 813f 0144 7e3f dbf2 7c3f
00000060: 4f56 843f 701e 6f3f 75de 7b3f 4e41 763f
00000070: 81b9 7f3f c6b5 793f c80f 753f 87b6 7c3f
00000080: 325a 753f b54c 7c3f ca58 853f 2759 793f
00000090: 7192 793f 9244 773f 6ee8 813f d8ba 803f
000000a0: 9703 763f 2c2b 813f a018 7a3f 2c31 803f
000000b0: 3fc0 7f3f 6395 773f c474 7c3f 58c8 763f
000000c0: 6040 773f 7916 813f 5a89 703f 4ed2 793f
000000d0: 7ec2 773f 4504 753f c566 763f a2ca 7e3f
000000e0: 8918 7b3f 4cd4 803f a93b 773f 162b 813f
000000f0: 1a24 773f cd0f 7c3f 8e31 7a3f 4556 793f
0.9760564 0.96615887 0.96835035 0.97669536 0.97709197 0.9798306 1.0017915 0.97930205
1.0006669 1.0045083 0.99661064 1.0390226 0.9843504 0.973472 1.0113335 0.9568283
1.0017059 0.95428735 0.9479373 0.98968273 1.0086924 1.0116701 0.99322516 0.9880807
1.0338839 0.9340582 0.9838632 0.961934 0.9989243 0.9754299 0.95727205 0.98716015
0.9584075 0.98554546 1.0417721 0.9740166 0.97489077 0.96589005 1.0149057 1.005702
0.9609923 1.00913 0.97693825 1.0015006 0.9990272 0.9671232 0.9861567 0.9639945
0.96582603 1.0084983 0.9395958 0.97586524 0.96781147 0.9570964 0.96250564 0.99527943
0.9808431 1.0064788 0.9657541 1.0091274 0.9653946 0.9846161 0.97731864 0.9739726

conv1_4/b f4 [32]
00000000: 29f9 bf39 97f0 15b8 ecd2 8a37 e036 f538
00000010: 7c53 a2b9 e9b7 55ba 1340 1f3a ac1e 7d37
00000020: 2b78 6bb8 c2a7 e9b8 4a6f 1b38 db9e f7b8
00000030: 351a 13ba 61af 4ab9 8ab1 c737 9b2e 7239
00000040: f9b6 daba ab04 3b38 6623 98b9 433c fab8
00000050: f806 1bb8 7573 b6b8 61ac 86b9 e0c3 3839
00000060: 835e 0837 7927 8c3a 349e e439 adf0 6ab8
00000070: 7af1 ff38 fd0d 4838 7661 3d39 b938 95b9
0.00036615998 -3.5748435e-05 1.65491e-05 0.00011692732 -0.0003096125 -0.000815271 0.00060749165 1.50871165e-05
-5.614028e-05 -0.00011141553 3.7058526e-05 -0.00011807467 -0.000561151 -0.00019329555 2.3805322e-05 0.0002309628
-0.001668661 4.458862e-05 -0.00029018073 -0.000119321536 -3.696137e-05 -8.699942e-05 -0.00025686904 0.00017620577
8.128237e-06 0.0010692916 0.0004360542 -5.6014094e-05 0.00012204326 4.7696743e-05 0.00018060752 -0.00028461756

conv1_5/W f4 [32, 32, 3, 3]
00000000: c1dc 66bd 24a4 31bd 580a 7c3c 2696 7bbd
00000010: 5884 893d 41ec 6438 a8e2 d7bb 243f b73d
00000020: 0228 363d 155b ab3c 8f20 583d b563 c3bc
00000030: d9f6 82bd dfb4 8f3c 83a7 c5bc 78f0 08be
00000040: 2cb2 2b3d 47f7 b03c 4f9b 98bc 868f 003d
00000050: 8f6b c33c 1f1a cdbb ca6a 2bbe 832e 723d
00000060: 3fd5 8bbd 4558 38be 987f 483d 8faf 413d
00000070: d95f 033c 24f0 6d3d e248 5abb 9fe8 903d
00000080: 0f34 7cbd 9c98 7f3d dc2b 043d 8460 853d
00000090: d811 aa3a 78c4 cebc 3cfc 7ebb 74c6 a2bc
000000a0: 0ef5 4abd b723 113d ef60 a7bc 2a6f babc
000000b0: 3bc5 403d a5db d33c 3a92 5fbc 4eee 173d
000000c0: 4c4f 46bd 84cc d0bc 3210 0f3d fed9 95bc
000000d0: 95f2 c03d 50f1 353d 97f2 f73c 1de4 d5bd
000000e0: 1cd9 31bd cfa2 5b3d abc9 e4bc 19cb d63c
000000f0: 7509 60bd 87a0 353d 4e76 ac3d 1ba3 79bc
00000100: 2c01 6f3d 653e c53c 7e69 b3bd 15e6 ebbc
00000110: 6867 0dbd 6fef 403d e001 d6bd fa5c 1f3d
00000120: 9144 2bbc 41f4 4cbc e3d7 bebc f657 5a3d
00000130: fe9b 38bd 10e6 b7bb 04e6 4e3d 190d b2bc
00000140: 6bd4 a43b ba73 9f3c 76ea 92bd c869 aa3c
00000150: 51e0 a9bb 522c 273c a469 fd3c 5cb5 c0bd
00000160: 2c3b a73d c865 c03c 3708 0d3d a283 973d
00000170: 7783 3d3d 2d82 cb3d 1984 a8bc a614 78bc
00000180: 9bc3 e1bc a4d5 47bd 62db 3b3d 764c 3a3b
00000190: 4d37 29bd b036 a63c b6ca 9d3d 3e9f 6a3d
000001a0: 34ee 843c 5e6d 96bd fb70 bf3a 3d98 14bd
000001b0: 8930 d0bd 65f4 b3bc a14f 4a3d 38c6 abbd
000001c0: c11d a5bb e787 b53d fcef 893c 2d64 0bbd
000001d0: 464c 15bd 97ed 6c3d a7a5 bd3c a2de 92bc
000001e0: e94d de3d 39fa 733d 3764 13bd a55f e83c
000001f0: a907 d63c e169 ca3a fa4c c3bd e1b5 cd3d
00000200: e47a 833d d3ef debc 43b5 e83d ffa4 92bd
00000210: d076 cbbc 0082 cd3c 519a 9e3b 48cd 6dbd
00000220: c646 3b3d 7fce 4ebd f1d6 49bd 69ce 64bd
00000230: 3e42 d73c 5544 133c 862f e83b caa6 c6bc
00000240: 426b a33c cbfa 233b 57eb afbd 326e 6fbd
00000250: f05f c93c f4b6 5c3c 96b4 2b3d b972 823b
00000260: 0188 09bd cdb3 7ebc 8ec7 9bbd 991e 153c
00000270: d945 a53c 6488 9bbd 78a9 05be 4a0d 0d3b
00000280: 917d 8e3d b000 18bd b3d1 bebd 1ee7 10bd
00000290: dabc 98bd e0a2 093e 1ce2 153e c17a 8abc
000002a0: 93a4 203d cf59 713d 9b8c f73d e41a ff3b
000002b0: ed8a 0d3d 973e 4f3b 725b 583c 66b6 89bd
000002c0: 2c82 2fbd ea8a 30bd 4c62 5cbd 3050 963c
000002d0: 0817 d43b b6b1 4d3d 1c91 7cbd c6b8 c33c
000002e0: da2c 5d3c d721 86bc 455e a73d b08e 1a3d
000002f0: d978 3bbd 42a4 163d a743 21be 8672 363b
00000300: 1f06 43bd 7b7b b73b c1a2 0e3d 3b37 7f3d
00000310: c0f7 21bc 5976 bd3c d910 3d3d 04e4 39bd
00000320: ed13 c5bd fc55 163d ce6b 953d 5e12 b63d
00000330: 414a b6bc 1017 c0ba 5e07 76bc c3f6 da3c
00000340: b8e3 a63c d29c 76bd a8e0 8cbc 2e4a 393c
00000350: 11c0 6f3d 7b8f 453d 2cfd 0ebd f2cd b33d
00000360: 81fa 3cbc 9bca cb3c 2ca4 cabd 74af a7bd
00000370: 887c 1abd dd51 923d 5e47 22bc e8c6 f4bc
00000380: 804d 89ba c3cb 92bc 2f15 67bd 2be8 fdbc
00000390: a71e dc3c 138a 86bc 840c 4b3d 74e4 7bbd
000003a0: 15ab 65bd 80db 2b3d 7bea 6b3d 2997 2a3e
000003b0: 32d1 163c aff4 803c d7f5 1ebd 9b1d 03bd
000003c0: b9d6 4d3d ae08 283d 2b94 e73c 3b1c 44bd
000003d0: 5951 a23d 60fd c6bb 6e42 dc3b 9088 773a
000003e0: 6d75 c3bd f393 aabd 172f 103c 2c6b c53d
000003f0: 206a 2abc f7b3 9b3c 3bc1 b23c 3a04 1fbd
-0.05636287 -0.043369427 0.0153833255 -0.06142249 0.06714696 5.4579465e-05 -0.006588299 0.0894759
0.04447175 0.020917455 0.052765425 -0.023851255 -0.06394739 0.0175423 -0.024127727 -0.13372982
0.041917965 0.021602286 -0.018628744 0.031386875 0.023854999 -0.0062592174 -0.16739956 0.05912639
-0.06827783 -0.18002422 0.048949808 0.047286566 0.008018457 0.058090344 -0.0033307602 0.07075619
-0.061573084 0.0624014 0.03226839 0.065125495 0.0012975289 -0.025240168 -0.0038907668 -0.01987002
-0.04955011 0.03543445 -0.020431964 -0.022758085 0.047063094 0.02586157 -0.013645703 0.0370925
-0.048415467 -0.025488146 0.034927554 -0.018292423 0.09421269 0.044419587 0.030267043 -0.104439
-0.043419942 0.053622063 -0.027928194 0.026219891 -0.05469652 0.044342544 0.08421002 -0.015236641
0.058350727 0.024077604 -0.087603554 -0.028796235 -0.034522444 0.04710334 -0.104495764 0.03890703
-0.010453359 -0.012509407 -0.023296302 0.053306542 -0.04507064 -0.0056121424 0.05051233 -0.021734761
0.005030205 0.019464362 -0.07173626 0.020802394 -0.0051842113 0.010203438 0.030934162 -0.094095916
0.08165583 0.023486033 0.034431662 0.07398154 0.046267953 0.099369384 -0.020570802 -0.015141642
-0.027559092 -0.048787728 0.045863517 0.0028426922 -0.041312505 0.020289749 0.0770468 0.05728077
0.016226865 -0.07345079 0.0014605814 -0.036278 -0.10165507 -0.021967122 0.049392346 -0.083874166
-0.0050389473 0.08863812 0.016838066 -0.034031082 -0.036449693 0.05784377 0.023150278 -0.017928425
0.10854704 0.059564803 -0.035984244 0.02836592 0.0261267 0.0015442931 -0.095361665 0.10044456
0.06419924 -0.027213966 0.11362698 -0.07160377 -0.024836928 0.025086403 0.0048401733 -0.0580571
0.04572179 -0.0504899 -0.04927725 -0.05586091 0.026276704 0.00898846 0.0070857434 -0.024249453
0.019948605 0.002502131 -0.085898094 -0.0584547 0.02458188 0.013471354 0.041920267 0.003980961
-0.03357697 -0.0155457975 -0.076064214 0.009101533 0.020174908 -0.07594374 -0.13052928 0.0021522813
0.06957544 -0.03711003 -0.09317341 -0.03537666 -0.074578956 0.13441038 0.14637035 -0.016904237
0.03921945 0.05892354 0.12087365 0.007785188 0.034556318 0.0031623 0.013205396 -0.06724243
-0.04284875 -0.04310123 -0.05380468 0.018348783 0.006472472 0.050218306 -0.061661825 0.023891818
0.013499463 -0.016373558 0.08172277 0.037733734 -0.045769546 0.036777742 -0.15748464 0.0027839257
-0.04761326 0.005599437 0.034823183 0.06230853 -0.009885728 0.023127722 0.046158645 -0.04538347
-0.09622941 0.036703095 0.07295953 0.08890222 -0.022252204 -0.0014655311 -0.015016405 0.026728993
0.020372257 -0.06020815 -0.017196968 0.01130919 0.05853278 0.048232537 -0.034909412 0.08779515
-0.011534334 0.024876883 -0.098945946 -0.08187762 -0.03771642 0.071445204 -0.009904711 -0.029880002
-0.0010475367 -0.017919427 -0.056416687 -0.030994495 0.026870085 -0.01642326 0.049572483 -0.061497167
-0.05607136 0.04195738 0.057596665 0.16659226 0.0092051495 0.015741674 -0.03880867 -0.032010656
0.050253604 0.041023903 0.028268894 -0.047878485 0.07925672 -0.006072685 0.006721786 0.00094426516
-0.095438816 -0.08329 0.00880029 0.09639582 -0.010401279 0.019006712 0.021820655 -0.03882239

bn5/beta f4 [32]
00000000: a8b3 b53d 88a2 9d3d 53ac 293b 579c 033e
00000010: a7eb 8b3d ce60 803d 0cd2 043e f338 433d
00000020: 2cf1 043e e6ae b93d 06fe e63d b5a0 f23d
00000030: 721a 523d 73f1 863d 7a2a a33c eec4 713c
00000040: d161 de3c 7976 b73d 1712 383d 715a 553b
00000050: 6eb9 a53d 602e 033d d13c 06bb 0f08 0b3c
00000060: 2bdd 1a3e 52cc 7e3d f42b 0d3d 0d01 ad3d
00000070: 8e4a 003e 803b 003e 422b 953d 8435 843d
0.08872157 0.07697016 0.0025890067 0.12852608 0.068320565 0.06268464 0.12970752 0.047661733
0.12982625 0.09066562 0.1127892 0.11847059 0.05129475 0.065890215 0.019917715 0.014756424
0.027146252 0.08958144 0.044939127 0.0032555128 0.080920085 0.03202665 -0.0020483027 0.008485808
0.15123431 0.062206574 0.034465745 0.08447466 0.1252844 0.12522697 0.072836414 0.0645552

bn2/gamma f4 [64]
00000000: be7e 7d3f 70b5 753f 8413 783f bf32 7e3f
00000010: 9935 7c3f cdbb 833f 8382 833f aa4e 803f
00000020: d1ee 803f b332 7f3f c7ff 7c3f 2a9d 7a3f
00000030: 0d3c 803f d57c 7e3f 84ae 793f bfc6 823f
00000040: af0d 7d3f ca28 7e3f dd1e 7a3f b2b1 7e3f
00000050: a593 7d3f bc30 833f 9772 783f c4ed 7d3f
00000060: 52e9 803f a916 803f 4c40 823f f74f 773f
00000070: 1092 733f 14b7 803f 399f 833f 3037 7c3f
00000080: 6590 7d3f 90e9 7b3f cac1 7c3f a172 803f
00000090: d176 7e3f 83f0 7a3f 47fd 7d3f 8c37 7d3f
000000a0: 7a20 853f 1849 7c3f 4e61 7a3f 5d3a 803f
000000b0: 78c2 833f 8e11 833f eaa0 7b3f c6e6 823f
000000c0: c470 7e3f 3049 7b3f 1946 823f 29b9 733f
000000d0: 70f1 883f f163 7f3f 2107 823f 163b 7a3f
000000e0: aab3 7e3f 66a4 7b3f 3a74 7b3f 8d47 763f
000000f0: eaa3 783f 53fa 7f3f bc3d 883f a15b 7c3f
0.9902152 0.95979977 0.9690478 0.9929618 0.98519284 1.0291687 1.0274204 1.0024006
1.0072881 0.99686736 0.98827785 0.97896063 1.0018326 0.9940923 0.97531915 1.0216902
0.98849005 0.9928099 0.97703344 0.9948989 0.9905341 1.0249248 0.9704985 0.99190927
1.0071204 1.0006915 1.0175872 0.9660639 0.9514475 1.0055871 1.0282966 0.9852171
0.99048454 0.98403263 0.987332 1.0034982 0.9940005 0.9802324 0.99214596 0.9891288
1.0400536 0.9854903 0.97804725 1.0017811 1.0293722 1.0239732 0.9829241 1.0226676
0.99390817 0.9815855 1.0177642 0.95204407 1.0698681 0.99761873 1.0158426 0.9774641
0.99492896 0.9829773 0.9822422 0.9620293 0.97125113 0.9999134 1.064384 0.98577315

conv1_2/b f4 [64]
00000000: 332b f3b7 bd65 8ab7 cf23 a238 8447 ae39
00000010: 39e5 88b8 ac2b a3b8 2314 18b9 5b94 a239
00000020: f67a 0cb8 4e62 e138 7e5e 1139 1744 32b7
00000030: c617 2037 3655 7038 7885 87b9 3ad7 95b8
00000040: 2a16 98b9 cd60 dc38 175b abb8 dd37 51b9
00000050: 8569 a3b8 f863 46b9 81b6 8e37 06d6 6638
00000060: ceea bcb9 626e 60b8 3162 6e38 974e 2f39
00000070: 23c3 0d39 066a d338 338e d738 8671 0aba
00000080: b81d 65b8 60ab b6b7 4716 9438 81d0 3038
00000090: 779b 5f38 c849 7339 066e e3b8 6a5b 13b9
000000a0: e496 c2b7 a9fb f8b8 a9ee f937 7717 58b8
000000b0: 1d04 23b9 adc5 e1b7 e833 df36 74a8 95b9
000000c0: d5e0 3cb8 0c68 8a37 546f 0e39 5d25 6037
000000d0: 034a 4a39 8698 5038 4543 bdb9 845e f9b8
000000e0: 7874 8eb8 f57d 5a37 2fd3 5fb9 6b5c 29b9
000000f0: 8c82 4f38 f7a2 0c39 e20c 61b9 2fbc c538
-2.8987974e-05 -1.6498258e-05 7.731432e-05 0.0003324115 -6.5276814e-05 -7.78058e-05 -0.00014503351 0.0003100958
-3.3493117e-05 0.00010747147 0.00013863479 -1.062548e-05 9.542278e-06 5.7299818e-05 -0.00025848649 -7.144963e-05
-0.00029008213 0.00010508448 -8.170882e-05 -0.00019952604 -7.7921e-05 -0.00018919993 1.7012704e-05 5.5035598e-05
-0.00036033097 -5.3508564e-05 5.683507e-05 0.00016718578 0.00013519502 0.000100810124 0.000102784856 -0.00052811985
-5.4625532e-05 -2.1775893e-05 7.0613394e-05 4.2155854e-05 5.331213e-05 0.00023201772 -0.00010844697 -0.00014053067
-2.3196866e-05 -0.00011872437 2.9794248e-05 -5.1520266e-05 -0.00015546424 -2.691414e-05 6.6519606e-06 -0.00028545002
-4.5032084e-05 1.6499333e-05 0.00013583648 1.336014e-05 0.00019291793 4.9733113e-05 -0.0003609901 -0.0001189085
-6.792782e-05 1.3023139e-05 -0.0002134561 -0.00016151524 4.9474227e-05 0.0001341215 -0.00021462471 9.428744e-05

bn2/avg_var f4 [64]
00000000: bcae aa3e 89ba 1e3f 9f49 f23e 51b5 fe3e
00000010: 1ffc b83e 2f89 e43e 501e fe3e cce1 bf3e
00000020: b51c e73e aa7c f73e c056 e53e e72b 153f
00000030: 8a5f cf3e cbfb 933e 9c5e 073f b973 c73e
00000040: 8e0a c13e 76f7 cf3e 1068 303f d208 c33e
00000050: 4e7d 303f a9d3 0b3f 8749 d93e b71a cc3e
00000060: b167 e13e dc66 cc3e 96ba bf3e 060a 893e
00000070: 18af 033f 28e6 c33e 1d50 f43e e95b c33e
00000080: ad3b bd3e 3ef3 f63e 97bb 053f 2272 163f
00000090: 44e3 be3e 27a8 133f 25aa e13e 573b d93e
000000a0: 20ea 3e3f 179a de3e 94ae d83e 4098 033f
000000b0: d1bd f23e 599d f93e 2ca7 f43e 5617 083f
000000c0: ec4d f63e d5f0 ba3e b516 c13e 5cca fe3e
000000d0: 0271 073f c8a3 ef3e 1a38 fd3e bfeb e33e
000000e0: 5b30 d13e 16c3 cb3e 7960 a43e abfa b23e
000000f0: 6c31 f53e b194 003f 1f2f 0c3f 10b1 ee3e
0.33336437 0.6200338 0.47321793 0.49747708 0.36129853 0.44635913 0.49632502 0.37476957
0.4513909 0.483373 0.44792747 0.58270115 0.40502578 0.2890304 0.5287874 0.38955477
0.37703365 0.40618485 0.68908787 0.38092667 0.689412 0.5461984 0.4243891 0.39864132
0.44024423 0.39922225 0.3744704 0.2676546 0.51439047 0.38261533 0.47717372 0.3815606
0.36959592 0.48232454 0.52239364 0.587679 0.37282765 0.57678455 0.44075122 0.42428085
0.74575996 0.43476936 0.42320693 0.5140419 0.47410443 0.4875286 0.47783792 0.5316061
0.48106325 0.36511865 0.37712637 0.49763763 0.5290681 0.46804643 0.49456865 0.44515797
0.40857205 0.39797276 0.32104853 0.3495687 0.47889268 0.50226885 0.547594 0.46619463

bn6/beta f4 [32]
00000000: 8684 c03d e2fe f83d 17c4 fe3b e267 e43d
00000010: ffc7 463d 69a7 303d e4c8 eb3d 1867 0c3d
00000020: cfd9 d33d 56e4 b03d cd71 1b3e 0584 0f3e
00000030: 05da 693d b4ed a23d ecc4 2d3d e53a 293d
00000040: 77db 7f3c 8715 bf3d f16c ad3d 1962 003c
00000050: 9db8 c43d 8c39 873c e7ee cf3d 862d f83c
00000060: a78e 8e3e ca72 613d 00a4 843d 6376 e23d
00000070: 9cf5 e03d 2587 cb3d 8b28 e73d 2e7d a13d
0.09400277 0.1215799 0.0077748406 0.111526266 0.048530575 0.043128405 0.11512926 0.034278005
0.10344278 0.086373016 0.1518013 0.14015205 0.057092685 0.079554945 0.042424127 0.04131593
0.015616289 0.09330278 0.084680445 0.007835888 0.09605525 0.016506933 0.10152989 0.030295145
0.2784321 0.055041112 0.06476593 0.11057737 0.10984346 0.09937886 0.1128703 0.07885204

conv1_7/W f4 [3, 32, 3, 3]
00000000: 39ef ca3c dd6b 373d bb51 a03d d641 cd3c
00000010: 1a48 df3c 5be1 0ebd 5dac 2a3d 6035 953d
00000020: 6b05 223d afc6 81bb 9cde 1b3d 1795 e73d
00000030: c7e8 4f3d e336 833c 6698 cc3d 2a78 823d
00000040: d17d 9dbd 139f 583c 74e3 143e 9242 7dbc
00000050: 57b2 c83c 65f1 0a3d be9f 443c 533b 733d
00000060: f75a 77bd 36ca 68bd 6ee1 8dbd cc19 cebc
00000070: f2ab 5f3d 4159 b43d fd6f a93c beeb 56bc
00000080: 2af9 74bc 46ac 87bc c251 3e3e 14f0 99bc
00000090: cc01 f13d ac1e 9c3d 8272 ad3d a679 793d
000000a0: 2568 163e 1118 323e f5bf 843d 1bd2 e6bc
000000b0: 1164 bb3c 6931 d6bc c327 babd 4208 0a3e
000000c0: ddee c03d 39e8 c2bd b1f9 7a3d b820 893c
000000d0: e2ed 023b ea22 14bd 2fbb b43d c132 1bbd
000000e0: acac 823c 9598 5fbc b559 2c3e e5a6 84bd
000000f0: 4569 3c3c 53f5 2c3e 96b3 3cbd a608 a1bc
00000100: 1a7f ad3d b125 f3bc 03b1 18bd 4504 f9bd
00000110: fe14 bd3d 62e7 69bd 513d d23d fbb9 a13d
00000120: 55ed 9e3c f238 dd3d deee fb3d 19c5 3f3d
00000130: e1e3 693d fb01 92bd fad8 debd 611b 563e
00000140: 8f82 003d c6bc f03d 07ee bb3d 8192 dcbb
00000150: b706 d93d bee6 223e b7cc aebc 35e8 a53d
00000160: 92f3 c83c b18a 81bc 7e90 6dbd 9944 a43d
00000170: 182d 753d 6cc3 813d e256 f03d 1b69 98bd
00000180: 0fa7 3d3e 90aa 5b3d d2a2 1abd 2c83 d5bc
00000190: 4198 30bd 63bf debc 8bf1 0d3d 8a26 1a3e
000001a0: 6f35 3b3d 8712 d03c 69b0 5f3d 8375 453d
000001b0: 1897 cebd bdd8 a33c c5ab 473e 2f10 a53d
000001c0: 29e5 283e 5e40 e03d 5294 d83d 8bd9 d63d
000001d0: bf7d 47bc 9824 073d 9153 0c3e 8f24 063e
000001e0: 9081 bc3c 5851 ae3d 7439 a33d 494e 303e
000001f0: fa77 c2bd 2e69 97bd 6d7a 223d 938a 523c
00000200: fed7 b63c e44e 4ebd d87e e13b 2548 8bbd
00000210: c56a dabc 4088 bd3d 5d16 cf3b 2c4f c73d
00000220: 8fe1 da3c 5ade 403d d577 d7bc fe43 80bd
00000230: d12e 01bd 491e ab3d e450 a43c d06e 8b3c
00000240: d55d f6bc 0db3 a8bd 39ed 09be 8cbb a0bd
00000250: c59e fe3c 6c45 ffbc 8f41 193d 5784 503e
00000260: 3892 903b c730 f53d cf51 cc3d 9f11 4d3c
00000270: 7429 743e 4f2c 113d 9524 9e3d 97f8 613c
00000280: 1538 2cbe ce98 123d f8d7 b33d 9110 a03d
00000290: 3709 b23c 65bc 9d3d 547f 95bd a4f8 c5bc
000002a0: c8cb 97bc 0424 423d d425 113d c9de 303d
000002b0: 0654 a8ba 50e5 473e ab8b b9bd 43c6 cdbd
000002c0: c6c3 1dbd 7d7f 63bd 8030 923c 2b91 3a3c
000002d0: 5b19 d13d d433 f2bc db23 d43c b198 acbd
000002e0: c7af 8e3d 6788 88bd acc2 e7b9 4565 0a3d
000002f0: 7d8b 2f3e 69f4 993b 92b9 14bc 11ef 233d
00000300: 1e86 4f3c d562 b63d 0035 cfbd d4bd a3bb
00000310: ecef 05be b6e3 af3d 9cdc e93d e33d 633c
00000320: bc9f 2fbd 455a cc3d fe89 a8bd 8684 93bd
00000330: 6bf4 733d 76d6 e93b b255 3e3d 39b9 c7bd
00000340: 2c9c 4a3d 7da4 9abc 2f4f 45bb 426c 8e3d
00000350: 2628 2bbd 52bd 473c 649f 06bd 96b8 de3d
00000360: 8859 50bd 9279 303d 0206 a2bd 189d 10bd
00000370: 5a90 653d 509b 273e ce47 583d e18f 4dbc
00000380: d279 7d3d 94d4 34bd 5822 c0bc 3a57 123e
00000390: 1a46 283d f371 a23d 9de0 fb3d a91f c23d
000003a0: 9260 e43d 1cd9 f63d 2c43 8abd 893b 99bc
000003b0: 7992 eabc a06d f43d b91d 023e bbde c7bb
000003c0: da7f b3bc 4941 bd3d 6e6a 253d 4bdb 52bd
000003d0: f795 973b e2a2 a73d f1ec 93bd a2a0 3abd
000003e0: dfc5 6c3e 8e27 22bd f544 87bd bc93 683b
000003f0: ecae 093d 580f 81bc 49f9 b1bc a26a 8c3d
0.024772273 0.0447806 0.07828089 0.025055807 0.02725606 -0.034882884 0.041668285 0.07285571
0.03955595 -0.0039604525 0.038054094 0.113077335 0.050759103 0.016017383 0.09990005 0.06370576
-0.07690013 0.01322152 0.14539891 -0.015457766 0.024499102 0.033921618 0.012000976 0.059382748
-0.060389485 -0.05683347 -0.06927763 -0.025158785 0.05460734 0.08806086 0.020683283 -0.013117729
-0.0149519835 -0.016561639 0.18585876 -0.018791236 0.11767921 0.07623038 0.08469106 0.06090703
0.14688165 0.17391993 0.064819254 -0.028176358 0.022874864 -0.026146607 -0.09089615 0.13479713
0.094205596 -0.09516949 0.06127328 0.016739234 0.0019978215 -0.03616611 0.08824765 -0.0378902
0.015951477 -0.013647218 0.16831096 -0.06477145 0.011499708 0.16890459 -0.046069704 -0.019657444
0.08471508 -0.029681059 -0.037278187 -0.121590175 0.092325196 -0.05710543 0.102656014 0.07896801
0.019400278 0.10801877 0.1230142 0.046818826 0.057102088 -0.07129284 -0.10881229 0.20908882
0.03137451 0.11754756 0.091762595 -0.006731332 0.10596984 0.15908334 -0.02133785 0.081009306
0.024530206 -0.015813204 -0.057999127 0.080208965 0.059857458 0.06336102 0.117353216 -0.07441922
0.18520759 0.053629458 -0.037752934 -0.026063524 -0.04311395 -0.02719087 0.03465418 0.15053764
0.045705255 0.02539946 0.054611597 0.04820777 -0.100874126 0.02000081 0.19499119 0.080597274
0.16493668 0.10949777 0.10575165 0.10490712 -0.012175976 0.032993883 0.13703753 0.13099883
0.023010999 0.08511609 0.07969943 0.17217363 -0.0949554 -0.07393108 0.039667536 0.0128504215
0.02231979 -0.050368205 0.006881576 -0.0680087 -0.02666224 0.09254503 0.0063198046 0.09731898
0.026718883 0.04708705 -0.026302258 -0.062629685 -0.03153879 0.08355386 0.020058103 0.017020613
-0.03007404 -0.08237276 -0.134694 -0.07848272 0.031081567 -0.031161033 0.037416037 0.20362984
0.004411962 0.11972194 0.09976541 0.012516408 0.23843938 0.035442647 0.07721821 0.013792179
-0.16818269 0.035790257 0.08781427 0.0781566 0.02173291 0.07701949 -0.072996765 -0.024166413
-0.018529788 0.04739763 0.035436466 0.043181214 -0.0012842424 0.1952107 -0.09059843 -0.10047581
-0.038516782 -0.055541504 0.017845392 0.01138715 0.10209914 -0.02956573 0.025896003 -0.08427561
0.069671206 -0.06666642 -0.00044204795 0.033787984 0.17143054 0.0046983254 -0.009077447 0.040022913
0.012666253 0.089055695 -0.10117531 -0.0049969945 -0.13079804 0.08588354 0.11419031 0.013869735
-0.042876944 0.09978155 -0.08229445 -0.07203011 0.059559267 0.0071361614 0.046468444 -0.09752125
0.049465343 -0.018877262 -0.0030107012 0.06954242 -0.041786335 0.012191134 -0.03286685 0.10875051
-0.050866634 0.04308469 -0.07911302 -0.035306066 0.056045868 0.16367841 0.052802853 -0.01254651
0.061883755 -0.044148043 -0.023453876 0.14291087 0.04108248 0.0793189 0.12298701 0.09478695
0.11151232 0.12053129 -0.06751093 -0.018705146 -0.028634297 0.11934972 0.12706651 -0.0060995496
-0.02191155 0.09240968 0.040384702 -0.051478665 0.0046260315 0.08185364 -0.07222927 -0.045563348
0.23122357 -0.039588504 -0.066049494 0.0035488447 0.033614084 -0.015754387 -0.021725314 0.06856276
