loto6_cnn/loto6_30_110.model (npz, 491069 bytes, 38 tensors)

bn1/beta f4 [64]
000000 30 27 24 3d c0 54 51 3c 0e 0e b4 3c 08 5a 8c 3d
       0.040076435 0.012776554 0.021979358 0.068531096
000010 c8 1f 65 bc ab d3 31 3d 6b 98 d2 3d 5a e8 80 3c
       -0.013984628 0.043414753 0.10282978 0.015735794
000020 24 c5 29 3c 0c 66 71 3d d1 57 a0 3d 9d 5b 92 3d
       0.010361943 0.05893521 0.0782925 0.0714638
000030 24 a3 34 3d 16 5c 81 3d 58 71 b2 3d 0e 73 2d 3d
       0.044100896 0.06316392 0.08713025 0.042346053
000040 c8 eb b8 3d 87 ed 01 3d 33 55 49 3c e1 4f 27 3d
       0.09029347 0.031720664 0.0122883795 0.040847663
000050 f0 d2 7e 3d d6 38 47 3d 7f 40 4f 3d e2 7b f5 3b
       0.062212884 0.048638187 0.050598618 0.0074915746
000060 fc 1b a2 3d 32 4c 19 3d 57 47 54 bc 71 ac 1d 3d
       0.07915494 0.03742618 -0.012956462 0.03849453
000070 26 09 8e 3d df 3f 4e 3b ad 5e 3c 3d b0 c8 8e 3b
       0.06935339 0.0031471176 0.045988727 0.00435742
000080 ed 82 36 3c 57 b4 8b 3c 2a 12 98 3d 93 62 1e 3d
       0.011139614 0.017053766 0.074253395 0.038668226
000090 2e 82 ae 3b c9 2d d7 3c ff 95 be 3d 35 7d b0 3d
       0.005325577 0.02626695 0.09305953 0.08617631
0000a0 5c 49 ad 3c 78 0a 53 3d 9e ff c1 3c 54 75 cc 3c
       0.021153145 0.051523656 0.023681458 0.02495829
0000b0 0e 8d 34 3d 3d 32 c3 bb fd 4b 5a bb 44 4f b1 3d
       0.044079833 -0.0059569166 -0.0033309453 0.08657697
0000c0 36 8e 96 3c dc 28 90 3d f8 81 80 bc 3c eb 5c 3c
       0.018378358 0.07039043 -0.015686974 0.013483819
0000d0 3a 1b 83 3d 44 a8 1a 3d 84 d4 8c 3d 55 f6 03 3d
       0.064016774 0.037758127 0.06876472 0.032217342
0000e0 06 5a aa 3d dd 90 2f 3d b3 a9 8a bc de f9 ca 3d
       0.08317952 0.04286276 -0.016926622 0.0991094
0000f0 ef e1 40 3d be 82 d1 3c 9e c1 68 3d 9b d3 e1 3c
       0.047090467 0.025575038 0.056825273 0.027566722

bn3/gamma f4 [64]
000000 9c 81 86 3f 6b 98 89 3f 9e a4 89 3f 2c 57 87 3f
       1.0508304 1.0749639 1.0753362 1.0573478
000010 67 d3 80 3f df d9 83 3f 03 54 85 3f c3 cc 80 3f
       1.0064515 1.0300864 1.0416263 1.0062488
000020 a6 17 84 3f f8 7c 80 3f 89 53 7b 3f 40 82 82 3f
       1.0319717 1.0038137 0.9817434 1.0195999
000030 ee 37 80 3f 13 11 85 3f 65 69 82 3f 10 3d 7c 3f
       1.0017068 1.0395836 1.0188414 0.98530674
000040 34 ae 7c 3f e0 dc 7f 3f 4f 74 85 3f fd d5 7b 3f
       0.9870331 0.99946404 1.042612 0.98373395
000050 29 e4 82 3f db 1d 84 3f c5 84 7e 3f 59 50 80 3f
       1.0225879 1.0321611 0.9942134 1.002452
000060 e0 28 81 3f 5c b9 81 3f 35 fe 80 3f 83 88 80 3f
       1.0090599 1.0134692 1.0077578 1.004166
000070 07 c4 81 3f c9 ab 80 3f 79 7a 7d 3f 9e f0 84 3f
       1.0137948 1.0052425 0.99015003 1.038593
000080 73 20 81 3f b3 bf 80 3f 28 e8 82 3f d1 6f 82 3f
       1.0088028 1.0058502 1.0227098 1.0190374
000090 82 2f 81 3f 1a 12 89 3f 3e 19 89 3f b8 9f 83 3f
       1.0092623 1.0708649 1.0710828 1.0283117
0000a0 09 70 81 3f 0c ba 81 3f 8a 28 81 3f e5 92 83 3f
       1.0112315 1.0134902 1.0090497 1.0279204
0000b0 d9 86 84 3f 28 5b 83 3f 7b 0f 80 3f a5 00 86 3f
       1.0353652 1.0262194 1.0004724 1.0468947
0000c0 98 27 81 3f 62 3f 83 3f fb 14 80 3f c1 26 7e 3f
       1.0090208 1.0253718 1.0006403 0.99277884
0000d0 3a ef 80 3f 6d 8b 7c 3f 17 55 85 3f 7d 1b 8b 3f
       1.0073006 0.98650247 1.0416592 1.0867764
0000e0 72 de 82 3f 3a c2 7f 3f ba 6e 7e 3f fa 7d 81 3f
       1.0224135 0.9990574 0.99387705 1.011657
0000f0 7d 25 81 3f 64 f7 80 3f 8f 90 89 3f 98 b0 81 3f
       1.0089566 1.0075498 1.0747241 1.0132017

bn4/beta f4 [32]
000000 29 bd 57 3c 6c 49 52 3d ab 77 7b 3c 72 db 7b 3d
       0.013167658 0.05133955 0.015348355 0.061488576
000010 4b 64 31 3d 31 e9 69 3d 89 c2 cf 3d a7 60 75 3c
       0.043308537 0.057107154 0.101445265 0.014976657
000020 00 57 b8 3d 18 a5 d9 3d 3e c8 86 3d ae 57 90 3d
       0.09000969 0.10627192 0.06581162 0.070479736
000030 0d 25 43 3d a6 85 93 3d 14 f9 ba 3b df e6 77 3c
       0.047642756 0.07203226 0.005705962 0.015130728
000040 a2 11 40 3c 5a b5 87 3d 7f ca 2c 3d 61 8d a7 3b
       0.011722954 0.06626387 0.042185303 0.005113289
000050 a1 73 87 3d b6 7a 09 bc 1b 4d 4e ba 9e ea 44 3d
       0.06613851 -0.008391073 -0.0007869766 0.04807531
000060 b2 1a 90 3d 1d cf 47 3d 61 fc 8e 3d bd 8c 86 bb
       0.07036342 0.048781503 0.06981731 -0.004106133
000070 26 88 56 3d 1f af cc 3d ac 08 9f 3d f2 7f 87 3d
       0.052375935 0.09994339 0.07765326 0.066162005

bn2/avg_mean f4 [64]
000000 61 50 8e be 67 51 27 bf 6c 4d 62 bf df 25 a2 bf
       -0.277957 -0.65358585 -0.88399386 -1.2667807
000010 b3 41 bd 3d 9e 2e db be 6f 23 9d bf 57 60 ad bf
       0.09241047 -0.42809004 -1.2276438 -1.3545026
000020 eb 0a e0 be 96 88 b7 bf 00 55 b7 be 90 51 c2 be
       -0.4375833 -1.4338558 -0.35807037 -0.37952852
000030 74 af 3b bf fd 8b 34 bf e6 6b 4d 3f ce ff 78 bf
       -0.73314595 -0.70526105 0.80242765 -0.97265327
000040 7a 28 15 bf fc 49 6b bf 2f 46 6c bf ee ab 8e bf
       -0.5826489 -0.91909766 -0.9229459 -1.1146219
000050 f9 30 52 bf 79 8a b4 bf da ec b4 be 48 70 0a 3d
       -0.82105976 -1.4104759 -0.35336953 0.033798486
000060 86 8a 60 bf 9d 50 61 bf 43 e3 32 bf 04 11 10 bf
       -0.8771137 -0.8801363 -0.69878024 -0.56275964
000070 98 77 b1 3e dc 76 e8 be 30 c0 cc 3c 6d 45 6b bf
       0.34661555 -0.45403183 0.024993986 -0.9190281
000080 a4 e0 0d ba 33 28 60 3e 28 6a 48 3d 85 6a b3 bf
       -0.0005412197 0.21890335 0.048929363 -1.4016882
000090 5d e5 9d be 0c a2 cc 3d 17 a8 67 bd 6d 28 61 be
       -0.30839053 0.099918455 -0.056556787 -0.21988077
0000a0 56 ab 68 bf c5 6c 01 be 6d 61 62 bf fb c9 f3 3e
       -0.9088644 -0.12639149 -0.8842991 0.47615036
0000b0 82 23 59 bf 6a e7 6e bf 86 44 d4 be 25 0a a2 bf
       -0.84819806 -0.9332186 -0.4145853 -1.2659346
0000c0 bb 17 52 bf e2 d9 3e bf 84 6c 75 bf 2b 92 b4 b9
       -0.8206746 -0.7455121 -0.95868707 -0.0003444118
0000d0 4b b2 a3 bf cf aa 59 bf 1e 97 57 bf f4 db 78 bd
       -1.2788786 -0.8502626 -0.8421496 -0.06075664
0000e0 70 35 93 bf 01 f3 91 bf 64 59 07 bf 37 61 a9 3e
       -1.1500683 -1.1402284 -0.52870774 0.33081982
0000f0 f7 a0 b2 bd 0a 38 ab bf 1f 63 91 bf 53 3a 89 bf
       -0.08722108 -1.3376477 -1.1358374 -1.0720924

conv1_6/b f4 [32]
000000 c2 85 2b b9 95 a8 4f 39 20 97 45 ba 4c 83 0d ba
       -0.0001635766 0.0001980386 -0.0007537473 -0.0005398288
000010 9b 31 6d ba c0 de 09 b8 e9 22 fa 36 0a 9c 39 3a
       -0.00090482243 -3.2870797e-05 7.4546447e-06 0.00070804416
000020 b8 05 dd b9 5f fd 3f b9 9e 94 99 38 4a 6a 13 3a
       -0.00042156666 -0.00018309568 7.3232906e-05 0.0005623443
000030 9c 85 96 b9 00 18 21 ba d0 31 89 39 9d d6 5c 39
       -0.00028709776 -0.0006145239 0.0002616779 0.00021060785
000040 6f 4b 1d 3a 5c ff 31 b9 4a ed 4a ba 4a 61 f6 b9
       0.0006000315 -0.00016975164 -0.00077410473 -0.00046993262
000050 78 30 42 3a 7d 5b 53 b9 97 57 c6 39 cd 73 b8 38
       0.0007407735 -0.0002015661 0.00037830762 8.795373e-05
000060 26 dc 7e 38 d4 32 92 3a a8 a9 3b 38 95 1c fc b8
       6.076335e-05 0.0011154064 4.474228e-05 -0.0001202162
000070 53 40 84 b9 19 36 3e 39 3e 94 a6 39 23 64 8f 39
       -0.00025224927 0.00018139965 0.00031772436 0.00027349693

conv1_5/b f4 [32]
000000 01 e8 c6 b9 03 86 bc 38 2a 4d 20 3a 19 6a 2a 39
       -0.0003793836 8.9895e-05 0.0006115014 0.00016251988
000010 5a e1 97 b9 d2 3c 89 39 af d4 31 39 0f a6 e2 b8
       -0.00028968864 0.0002617599 0.00016959266 -0.000108074506
000020 c4 06 07 39 04 4b 41 b9 8b c7 c5 b9 05 33 a4 39
       0.00012877124 -0.0001843386 -0.0003772344 0.0003131853
000030 2c 56 f3 b9 48 b7 b4 39 25 c3 fa 37 7c 00 26 3a
       -0.00046412775 0.0003446883 2.9893194e-05 0.00063324696
000040 eb df 0e 38 b1 eb f4 39 53 e9 65 39 92 ad c0 b9
       3.4063978e-05 0.0004671491 0.00021926062 -0.00036750414
000050 1a 97 cd 38 d7 db d4 39 d1 df e0 ba 51 97 25 b9
       9.8033066e-05 0.00040599584 -0.0017156546 -0.00015791996
000060 86 e7 9b b7 8e 7e ff 39 3e 50 1a 39 93 aa bf 39
       -1.8585251e-05 0.0004873168 0.00014716477 0.00036557447
000070 c1 6a 7c 39 89 21 e7 b9 cb 90 9c b6 9b e3 ed 38
       0.00024072362 -0.0004408474 -4.6660184e-06 0.000113434355

bn3/avg_var f4 [64]
000000 2c a2 a5 3e 4a ae 36 3f 2c 6e 0b 3f 21 7d 17 3f
       0.3235029 0.71359694 0.54464984 0.59175307
000010 2a fa ea 3e 76 46 aa 3e 77 fc 47 3f b2 bd b8 3e
       0.45893985 0.33256882 0.78119606 0.36082226
000020 34 c1 dc 3e ae 6d c7 3e 82 a9 cb 3e b8 c0 b9 3e
       0.43116152 0.38950866 0.39777762 0.36279845
000030 41 c2 04 3f 0f d4 94 3e c5 d5 19 3f a3 d9 c5 3e
       0.5185891 0.29068038 0.6009181 0.38642606
000040 78 4c b8 3e eb 54 be 3e 0a 0e c8 3e b4 87 25 3f
       0.3599584 0.37174162 0.3907321 0.6466019
000050 38 87 c2 3e e8 2e ba 3e 14 05 bc 3e d5 c2 ed 3e
       0.3799379 0.36363912 0.36722624 0.46437708
000060 e6 b2 bd 3e 3f 2c e0 3e 64 21 9c 3e 46 14 18 3f
       0.3705055 0.43783757 0.30494225 0.59405935
000070 ff a3 b5 3e 94 82 95 3e cb 12 e4 3e 2a 7a de 3e
       0.35476682 0.29201186 0.44545588 0.4345258
000080 f8 62 b8 3e 17 35 de 3e 4b 7c c0 3e 7f 3e d8 3e
       0.36013007 0.4339988 0.37594828 0.4223518
000090 b9 e3 d8 3e 98 23 11 3f 93 fb 3e 3f 45 86 b1 3e
       0.4236124 0.56694937 0.7460262 0.34672752
0000a0 45 8c be 3e 80 2f 82 3e 14 89 bb 3e 67 b6 93 3e
       0.37216392 0.25426865 0.3662802 0.288501
0000b0 1d 10 d8 3e 4b 1a a6 3e 64 59 81 3e f5 2e 11 3f
       0.42199793 0.32441935 0.25263512 0.56712276
0000c0 c0 f6 b6 3e 76 ac ca 3e e3 b4 fa 3e 09 5f c0 3e
       0.3573513 0.39584702 0.4896613 0.37572506
0000d0 77 d9 2c 3f 0f 25 b4 3e 7c 2e aa 3e f3 7f 38 3f
       0.67519325 0.35184523 0.3323859 0.72070235
0000e0 30 49 e3 3e d1 ed 68 3e e0 e4 b7 3e 8d 7c d0 3e
       0.44391775 0.2274697 0.35916805 0.40720025
0000f0 bd 3b 09 3f 53 b9 9d 3e 79 96 28 3f 21 f8 07 3f
       0.5360678 0.30805454 0.65854603 0.5311299

conv1_3/W f4 [64, 64, 3, 3]
000000 af 5c 49 bb 44 9a ab bd 57 8e 59 bb ba 51 b6 3d
       -0.003072541 -0.08379033 -0.0033196413 0.08902307
000010 77 87 30 bd cf 63 2c 3d 13 2b 5d 3c 22 28 f6 3c
       -0.04309794 0.042087372 0.013499039 0.030048434
000020 cf 78 66 3c 8d 4d 24 bc 20 d1 9d 3c 8c f6 bb bd
       0.014066889 -0.010028255 0.019264758 -0.091778845
000030 40 ef dc bc e9 e6 3c 3d 1b 02 a3 3a 9c 93 a0 3a
       -0.026969552 0.04611865 0.001243654 0.0012251022
000040 70 68 70 bd c1 1d e2 3c 57 19 62 bd 81 40 7d bd
       -0.05869335 0.027602078 -0.055199947 -0.061829094
000050 8e cf 4e 3c ba 04 0c bc 60 60 f8 3c d7 43 0a 3d
       0.012622727 -0.008546049 0.030319393 0.033756103
000060 d3 20 78 bc 7b e0 6b bd 3d 84 84 bd ef 9c e3 3b
       -0.015144545 -0.057587128 -0.06470535 0.006946198
000070 06 20 4b 3d c1 4e fd bc 4a 57 49 bc cd 4e d3 3d
       0.049591087 -0.030921342 -0.012288878 0.103177644
000080 a9 04 d7 bc 56 1c 40 3d eb c7 fc bc fa 59 59 3c
       -0.02624734 0.046902023 -0.030857047 0.013266081
000090 e9 0f 66 bb 39 0b 8a bd 0e 9a 08 3d 2b f5 91 3d
       -0.0035104698 -0.06740422 0.033350043 0.0712684
0000a0 f0 f9 6b 3c 6e 9f af 3b 3e 30 22 3c d5 0a 59 bd
       0.014402851 0.0053595817 0.009899197 -0.052988846
0000b0 2c 57 06 3d 52 33 ac bc 59 60 24 bd ba 2b 60 bd
       0.032797977 -0.021020565 -0.040130947 -0.0547292
0000c0 3e 73 65 3c be 54 0e bd 1f 15 92 3c 62 91 66 3d
       0.014004527 -0.034748785 0.017832337 0.05629099
0000d0 78 27 4a 3c 22 d3 b8 bb cd 0c dd 3c 7d f6 aa 3c
       0.012338512 -0.0056404034 0.026983643 0.020869488
0000e0 ba 09 dd bc 68 21 3e bd 08 96 b6 bd 71 af 3c 3c
       -0.026982177 -0.046418577 -0.08915335 0.011516438
0000f0 64 f7 ac 3b 96 2d 2c bc 79 b9 aa bc 5d 7e 0e 3c
       0.0052785147 -0.010508915 -0.020840393 0.00869712
000100 49 66 0c bd f4 43 17 bd ea 43 2b 3c 51 75 0e bc
       -0.034277234 -0.03693004 0.010453204 -0.008694963
000110 9c a8 9d bc 05 c9 4d 3c d5 aa d9 bb 62 c1 ce 3c
       -0.019245438 0.012560134 -0.006642679 0.025238696
000120 7c 61 e5 bb 4a d8 3b bb 1a 9b 89 3d 76 7f 86 3d
       -0.0070001464 -0.0028662854 0.067190364 0.0656728
000130 93 ac e5 3c ff 5e 96 bb 2d fc 8d 3c 85 1d eb 3b
       0.028036391 -0.004588961 0.01733216 0.00717515
000140 00 c4 c0 bc 79 c2 ac bc 7f b0 79 3d 4b ce be bc
       -0.02353096 -0.021088826 0.060959335 -0.023291728
000150 b0 0e 12 bd 26 91 ba bd 00 95 d5 3c fe 3f 4e bd
       -0.03565854 -0.09109716 0.026072025 -0.050353996
000160 e6 79 67 bd 6d 01 04 3d d9 ef 1d bc 03 02 99 3c
       -0.056512736 0.032227922 -0.009639704 0.018677717
000170 b4 93 0f 3d ee 2b 16 3a 93 4a 88 bd fa 81 82 bc
       0.03505297 0.0005728592 -0.06654849 -0.015931118
000180 1e 8d 3a 3d 06 76 9b bd 94 cf 5a bc dd ef 2d bd
       0.045544736 -0.075908706 -0.013355155 -0.04246508
000190 e2 66 1f bc b0 d5 8b bb 17 05 aa bc 58 d9 82 bd
       -0.009729119 -0.004267417 -0.02075438 -0.06389111
0001a0 cf 34 af bd b2 5e 15 bc 17 9a bb bb 0d 4a bf bc
       -0.08554994 -0.009116815 -0.005725156 -0.02335074
0001b0 fe d1 40 bd 8a c5 18 bc 0c ae 0e bd bd 32 82 bd
       -0.047075264 -0.009324441 -0.034833953 -0.06357334
0001c0 a8 3d ce 3c 12 31 39 bb dd 30 be bc 2e f8 84 3c
       0.025175884 -0.0028258008 -0.02321666 0.016231623
0001d0 6a 3c 44 bd 48 9a e9 bb 91 bc 17 3c 3b a5 2a 3d
       -0.047909178 -0.0071289875 0.009261266 0.041661482
0001e0 6b 77 66 bd fc 56 0a bd 72 df 80 bd d9 e2 5e bd
       -0.05626623 -0.03377436 -0.06292619 -0.054415558
0001f0 ec 1f 86 bd 1d 07 a1 3c 35 a9 e6 3b da 70 cd 3c
       -0.06549057 0.019656712 0.007039214 0.025078226
000200 74 59 03 bd 2b 61 a6 bc 72 77 91 3b 3e fa a7 3d
       -0.03206773 -0.020310005 0.004439288 0.08202027
000210 b8 39 57 3c 22 ac 56 bc d0 cc c0 bd 78 11 41 3c
       0.01313632 -0.013102563 -0.09414065 0.01178395
000220 19 97 cd bc e4 76 72 3d 3d 03 e3 3a e9 e6 36 3d
       -0.025096463 0.059195414 0.0017319691 0.044653807
000230 2a 56 08 bd f3 70 f8 bc f2 e0 2e bc 7a cf 2a 3c
       -0.033285297 -0.030327296 -0.010673748 0.010425443
000240 36 cc 5f bd 47 82 87 bc e6 7f 1f bc ba ee 5b 3d
       -0.05463811 -0.016541613 -0.009735083 0.053694464
000250 76 cf 03 bd fe 85 3b 3d 2d 3a 4b 3c a3 70 df bc
       -0.032180272 0.04578208 0.012404007 -0.027275389
000260 08 b6 8a bb 61 a3 62 bd 26 0f 05 bd a4 34 4c 3d
       -0.0042331256 -0.05533159 -0.03248515 0.04985489
000270 23 fb 9f bd e1 0c e8 3b 99 f3 6c bc 13 a5 a5 bd
       -0.078115724 0.0070816134 -0.014462375 -0.08088126
000280 bd f3 06 3d 03 f6 cd 3c 49 63 30 3c 71 8e 7c bd
       0.03294729 0.025141722 0.010765859 -0.06165928
000290 31 71 ad bc 3f 7f 03 3c bf 82 f0 bc d1 4b 39 bd
       -0.021172138 0.008025943 -0.02935922 -0.04523832
0002a0 9d 9b ab 3c e2 df 0d 3d bd e2 22 bc c3 4d 01 bc
       0.020948226 0.03463734 -0.009941754 -0.007892075
0002b0 7f 61 9a bd 43 3d 10 3d 03 bd 4b bd 5f 05 3b bd
       -0.07538127 0.035214674 -0.049740802 -0.04565942
0002c0 cc 8e d3 3d fd e9 4b bc 5e 75 ee 3c 28 eb 04 3d
       0.10329971 -0.012445924 0.0291087 0.032450825
0002d0 b2 37 97 3c a0 72 89 bd 74 e1 8e bc 60 6b ba 3c
       0.018459175 -0.06711316 -0.017441489 0.022756279
0002e0 15 ba 2e 3c 2d 52 f1 ba af 17 7f bd 49 5c 83 3c
       0.010664483 -0.0018411331 -0.062278446 0.016035216
0002f0 56 cc 9f bb a3 9b a2 bc 65 f6 a2 ba 70 a0 0b 3d
       -0.0048766537 -0.019849604 -0.001243305 0.034088552
000300 df 00 9d bc c0 52 96 bc f1 10 c9 bc 89 75 70 3d
       -0.019165454 -0.018350005 -0.024544211 0.05870584
000310 3c 5b ca 3b 24 4a db 3a af db 45 bd 3d a1 45 3d
       0.0061754268 0.001673047 -0.04830521 0.048249472
000320 e4 fd 34 bd b9 b7 37 bc d6 6c a6 3c 89 39 26 3d
       -0.04418744 -0.0112132365 0.020315569 0.040582214
000330 80 cf 82 bc 0a cb d4 bc 75 6e 54 bd 4f 4e cd bc
       -0.015968084 -0.025975723 -0.051863153 -0.025061755
000340 22 45 53 3b ab 05 19 bb c9 08 8b 3c 66 ba 12 3d
       0.0032237251 -0.0023349326 0.016971963 0.035822295
000350 1a 71 17 bd 0f 11 d3 bd 64 5a 71 3a 31 df 3e bd
       -0.036973096 -0.10305988 0.00092068897 -0.04659957
000360 34 4f b0 bd e9 9a 8e 3d 0f 79 aa bd df 3f 69 bc
       -0.08608857 0.069631405 -0.08323871 -0.014236419
000370 9e 9d 75 3b d5 dd eb 3b ee 32 80 bb 1c a8 4e bd
       0.003747798 0.0071980753 -0.0039123213 -0.05045329
000380 a5 8a 9e 3d 73 35 59 bb e2 13 05 3c 43 d3 ba bd
       0.07741288 -0.003314343 0.008122416 -0.09122326
000390 db c9 4d 3d c1 00 ab 3d 8f 4f 31 bd 61 89 4d 3c
       0.050241333 0.08349753 -0.043288764 0.012544961
0003a0 8a da bc 3b a9 0c b9 bc 28 25 c4 bc 0c c4 3e bc
       0.0057633566 -0.022589045 -0.023943499 -0.011643421
0003b0 6a a9 93 bc 81 be 7c bd 2a bf 6e bd 1e d7 ca 3c
       -0.018025119 -0.061705116 -0.058287777 0.024760779
0003c0 aa 80 61 3d 1f b6 ee 3c a9 a5 e9 3c 8b 7b 7f bd
       0.055054344 0.029139576 0.028521376 -0.06237368
0003d0 50 b5 01 3d 16 13 16 3d 7e 35 3f bd 17 ae ee bc
       0.031667054 0.036639296 -0.046681874 -0.029135747
0003e0 e1 cb b4 bc a3 2e 16 3c 3f bd d9 3b 87 48 9f bc
       -0.022069873 0.0091663925 0.0066448743 -0.019443763
0003f0 c6 b4 ac bc 8a 73 9a 3c 6e 6a 9c bd 6b c2 6a bd
       -0.021082293 0.018853921 -0.07637487 -0.057314318

bn4/avg_mean f4 [32]
000000 15 29 e2 3f 90 ad 69 3f 8e 51 45 bf 2e 13 c4 be
       1.7668787 0.9128046 -0.7707757 -0.38295883
000010 98 d5 80 3b 79 37 c4 bf d8 ca 20 c0 d1 4d b4 3e
       0.0039317124 -1.5329429 -2.5123806 0.3521562
000020 89 28 70 3e b6 39 ab be 63 be da bf 9d a0 0d c0
       0.23452963 -0.33442467 -1.7089351 -2.212928
000030 f4 39 0f c0 12 be db bf d2 9d 00 3f 73 06 4e bf
       -2.2379122 -1.716738 0.50240815 -0.8047859
000040 f6 e6 7a bc ba 6f 67 be 07 fc 68 bf 17 75 13 c0
       -0.015313854 -0.22601214 -0.91009563 -2.3040216
000050 46 cc 05 c0 c0 d7 89 3f e1 9f f4 3f d7 7a 10 c0
       -2.0905929 1.0768967 1.9111291 -2.2574975
000060 5d c7 e9 bf 25 dd 62 3f 52 03 2f c0 1e 53 85 bf
       -1.8263966 0.8861869 -2.7345777 -1.041599
000070 7c 10 ad bf 7c 73 3d c0 f4 7a 26 c0 11 e4 4a be
       -1.3520656 -2.9601736 -2.6012545 -0.19813563

bn3/beta f4 [64]
000000 09 79 3d 3b 6d e5 08 ba bc 88 91 ba 0c da 44 bc
       0.0028911254 -0.00052221754 -0.0011103372 -0.012014877
000010 2f 78 04 bc b8 3f d4 ba 4d 7e 63 3d 66 4b 8f 3c
       -0.008085295 -0.0016193306 0.05554037 0.017492007
000020 42 48 a0 3c c0 eb c0 bb 33 2a d6 bc b6 9f e5 3c
       0.019565705 -0.0058874786 -0.026143169 0.028030258
000030 ac 98 5b 3a 47 01 68 3c a6 69 2e 3c ba 68 ea bb
       0.0008376937 0.014160461 0.010645306 -0.0071535977
000040 6f ae 57 bc fa f6 d5 bc ec ed 89 3c 18 66 e8 bc
       -0.013164147 -0.026118744 0.016837083 -0.028368995
000050 fe 7c 7c 3c f4 0e 0e 3d 3c f4 88 bc 80 55 6d bc
       0.01541066 0.03468223 -0.016718023 -0.014485717
000060 76 02 07 bd ec f2 64 3c 35 d9 63 3c fe 86 97 ba
       -0.03296133 0.013973933 0.013906767 -0.0011560617
000070 3f 31 9d 3b 85 d7 96 3b 8a c3 03 bd 3c 74 bd bb
       0.0047971304 0.0046033286 -0.032168902 -0.0057816785
000080 ae d0 50 bb 44 21 9d bb 81 0c 84 3c eb 30 84 3c
       -0.0031862664 -0.0047952253 0.016119244 0.016136607
000090 ec 00 3b 3c e5 2a 9c 3b 07 e6 fb bc 4a 22 f2 3c
       0.011413794 0.0047658556 -0.030749334 0.029557366
0000a0 bd 1b 2e 3c 9d 4a 87 3c 2c 7b 05 bc 8c 65 19 3c
       0.0106267305 0.01651507 -0.008147042 0.00936259
0000b0 aa 5f 89 3c 0c 0c ab 3c e3 7d 44 bb 3e 19 fc 3c
       0.016769249 0.020879768 -0.002998226 0.030773755
0000c0 07 e9 81 ba 4c 89 9c 3c 10 c2 44 bb 2a 09 7c bc
       -0.0009911367 0.019108437 -0.0030022897 -0.015383044
0000d0 80 26 d4 3c fd da 98 bc 9a 00 11 3d 50 ee 44 3c
       0.025897264 -0.01865911 0.035400964 0.012019709
0000e0 ec 0b 2b 3d 65 c8 d6 bc c1 54 e0 39 2e a3 87 bc
       0.041759416 -0.026218602 0.00042787756 -0.016557302
0000f0 da 4e cf ba ac e6 46 bc 40 1e ac bc 69 ee cf bb
       -0.0015816346 -0.012139957 -0.021010518 -0.0063455594

conv1_7/b f4 [3]
000000 2f e0 c2 3c cd 3c 16 3c 69 ef 2b bc
       0.02378854 0.0091697695 -0.010494092

conv1_4/W f4 [32, 64, 3, 3]
000000 1b af c7 bc 82 86 45 3d a2 d6 81 3c 26 92 93 3d
       -0.024375489 0.04822398 0.015849415 0.0720561
000010 ac fb d4 3d 75 65 e0 bc b0 7a 9b bc a9 df 9b bb
       0.10399565 -0.027392128 -0.0189794 -0.004756887
000020 fc 23 3c 3c e6 65 60 3d e0 2b 63 bd 5b 0c f0 bc
       0.011483189 0.054784678 -0.055461764 -0.029302767
000030 98 05 13 3d f8 43 2d 3d d4 3b 44 bd d5 52 dd bd
       0.035894006 0.04230115 -0.04790862 -0.108068146
000040 3f 7a fb 3b 55 91 03 3d af 6e 36 3c 7d 5a 49 bd
       0.007674485 0.03212102 0.011134787 -0.049158562
000050 2d aa 4c bd fd 24 01 3d 01 3d a9 bd b2 20 ad 3c
       -0.04996698 0.031529415 -0.08263589 0.021133754
000060 57 fb 6e bc 3a 36 a8 3d e7 e6 b6 bd 29 64 0e 3d
       -0.014586291 0.08213468 -0.0893076 0.03476349
000070 1f 8e ac bc e1 11 e3 bb cf 05 04 bb b9 15 83 3b
       -0.021063862 -0.0069296216 -0.0020145064 0.0040003923
000080 15 7a a0 3c 04 d1 e4 bc d5 1e 4a 3c c0 7c 91 3b
       0.019589463 -0.027931698 0.0123364525 0.00443992
000090 e5 a0 43 bd e0 5e c4 3b 05 84 16 bc 60 e5 8f bc
       -0.047760863 0.0059927553 -0.009186749 -0.01756543
0000a0 29 c5 01 bd 4b 38 bd 3c 2b a1 b5 3b f4 5d a4 3b
       -0.031682167 0.023098132 0.0055428944 0.005016083
0000b0 19 7a 7b 3d f8 0f 87 bb cf 2d 12 3d a8 78 2f 3c
       0.06139574 -0.0041217767 0.035688218 0.010709919
0000c0 96 cd 94 3c 7c 2d 50 bc 8f 74 6c 3c 0c 6a 00 bc
       0.018164437 -0.012706157 0.014432087 -0.007837784
0000d0 5e 41 cf 3c 04 54 a4 3c 51 9b 8a 3d 49 7f ac 3d
       0.025299724 0.020059593 0.067679055 0.08422715
0000e0 61 01 76 b9 a2 43 70 bd b4 09 b8 3c 7e c1 7f bc
       -0.00023460902 -0.05865825 0.022465564 -0.015610097
0000f0 bd 95 4e 3b 90 9a b1 3b 01 0d a2 bd 14 79 8b bc
       0.0031522356 0.0054200366 -0.079126365 -0.017025508
000100 4b 10 c5 3d c5 59 c8 3c ce a0 c3 3b 25 bb c2 3c
       0.09622248 0.024456868 0.005970097 0.023770878
000110 c6 dc 49 3c 5a 2f 72 3c d1 00 b6 bc f8 18 59 bd
       0.012320703 0.014781797 -0.022217186 -0.053002328
000120 c3 0a 9c bd 81 3f ca 3b 68 05 f2 bc e5 88 52 3d
       -0.0761924 0.006172121 -0.029543594 0.051400084
000130 2d e1 13 bd ab 1b 3e 3d 8a 5c 3e b8 e1 59 a6 3c
       -0.036103416 0.046413105 -4.5385714e-05 0.02030653
000140 fa 21 2b 3b ac 94 f6 bc 8b 0d 17 bd 77 18 67 bc
       0.002611278 -0.03010019 -0.03687815 -0.014104954
000150 31 69 c2 bd 68 d9 5c 3d ab 31 8a 3d 14 df 4c 3d
       -0.0949272 0.053918272 0.06747755 0.05001743
000160 74 40 d2 3c cf c7 47 bc 3e 25 0c 3d 5f 90 9d 3c
       0.0256655 -0.012193634 0.034215204 0.01923388
000170 98 c5 c5 3c 4a 69 ed 3b 3b c0 80 3c a3 22 98 ba
       0.024142072 0.0072452174 0.015716663 -0.0011607002
000180 87 bf 34 3c 3d f8 1d bd 29 0b 0c 3d 63 13 de ba
       0.011031992 -0.038566817 0.03419033 -0.0016943034
000190 fc 89 2d bd 70 8d 2d 3d 62 63 aa bd 88 2b 50 b9
       -0.04236792 0.042371213 -0.08319737 -0.00019852642
0001a0 ff 6a db 3c 3e 88 54 bd c8 4e 63 3d c8 f0 ec bb
       0.026784418 -0.051887743 0.055495054 -0.007230852
0001b0 01 a0 9b 3c 12 62 48 3c c9 71 fc bd d7 a1 9e bc
       0.018997194 0.012230413 -0.1232639 -0.01936428
0001c0 3b e0 2a bd 89 56 1b 3b d5 58 48 bd 8b 08 c3 bc
       -0.04171775 0.0023702702 -0.04891284 -0.023807785
0001d0 42 c7 f3 bc 60 1b 1b 3c 0d 36 3a bd 1f a5 cb bc
       -0.0297581 0.009466976 -0.045461703 -0.02485901
0001e0 88 e9 65 3b 79 39 83 3d 4a 0c b4 bc ed 01 7c bb
       0.0035081822 0.064074464 -0.021978516 -0.0038453296
0001f0 36 af d8 3c 2c 2b 12 3d e2 ee 4c bc 22 6e ae bd
       0.026450735 0.035685703 -0.012508126 -0.085171
000200 c0 6a 9e bb 5c a2 1a 3c 48 b8 00 3d 1a 96 22 bd
       -0.004834503 0.009438124 0.031425744 -0.03969393
000210 f3 9f 7c 3d d5 06 92 3d a1 01 96 3c 74 ce b9 3c
       0.061675977 0.07130209 0.018311324 0.022681452
000220 79 41 d1 3c cf d1 64 3d 20 5f f3 bc 42 e4 ac 3c
       0.025543915 0.05586415 -0.029708445 0.021104936
000230 23 a3 9f 3d d7 23 9d 3c e5 fa 83 bd a7 a5 e9 bc
       0.07794788 0.019182129 -0.06444339 -0.028521372
000240 7f cb 46 bd e7 74 6d 3c d4 af ed bc 05 a6 dc 3c
       -0.048533913 0.014493204 -0.029014505 0.026934633
000250 fd bd 7c 3d 43 a8 5b bc 1d c3 92 bd 45 cd e0 bc
       0.061704624 -0.013406816 -0.07166121 -0.02744163
000260 db b5 9c 3c 65 70 9e bd 5c f5 fa bc 75 f0 04 3d
       0.019129684 -0.07736281 -0.030634575 0.03245588
000270 f3 be a5 bb c4 e9 a0 3d d8 ad 4a 3d ac 79 92 3d
       -0.0050581633 0.07857087 0.049482197 0.07152113
000280 6c 29 04 3d 68 95 a0 bd ea a5 89 bc af d1 75 3c
       0.032266065 -0.07840997 -0.016802747 0.015003606
000290 f5 13 b6 bc 7a 9a 88 3c 06 35 68 bc 35 27 f1 bc
       -0.022226313 0.016675223 -0.014172798 -0.02943764
0002a0 6c 7f 82 bd 73 f6 59 bc c9 5e bd bc db 4a 3f 3d
       -0.0637196 -0.013303387 -0.023116486 0.046702247
0002b0 14 b0 98 3d 3a e6 3c 3d 56 a2 b9 bc 07 38 5d bc
       0.07455459 0.046118 -0.022660416 -0.0135021275
0002c0 13 97 b8 3c 9c cb 25 3c 9f be 98 3c 87 3a 60 3d
       0.022532975 0.010119345 0.018645583 0.054743316
0002d0 a0 fc 53 bc 30 d1 ca 3b 48 4d 69 3d eb f7 66 3d
       -0.012938648 0.006189488 0.056958467 0.056388777
0002e0 63 4a b2 bc 00 a0 cb 3c cf 5e 6c 3d 81 cb 4f 3c
       -0.021763986 0.024856567 0.057707604 0.012682796
0002f0 03 38 86 bd ba ae 5f bd 6a 17 9c 3d 06 df 4a bd
       -0.06553652 -0.05460999 0.076216534 -0.049529098
000300 fa c0 bd bc 98 7f 8b 3c 2e 19 a7 3c 0d 4e 2e bc
       -0.023163307 0.017028615 0.020397749 -0.010638726
000310 df 93 32 bd 68 13 14 bd cd 80 00 3b 08 8e 57 3d
       -0.043598052 -0.03615132 0.0019608021 0.052625686
000320 f0 6f 8f 3b f4 0d cb bc 0c b6 f4 3c 9e 82 0a bd
       0.0043773577 -0.024786927 0.029871963 -0.033815973
000330 38 61 1a 3d b9 15 5d 3d 39 3b bc 3c d6 c0 f6 3c
       0.03769037 0.053975794 0.022977458 0.030121248
000340 f7 f7 ae 3d 13 99 1a 3d b5 04 62 39 4b 46 92 3c
       0.08543389 0.03774364 0.00021554793 0.017855784
000350 f1 65 94 3c 2f be ff 3a b3 8e c0 3c 6f 83 b4 3c
       0.018115016 0.0019511635 0.023505544 0.022035329
000360 d5 a3 45 3b ad 6f 0e 3d 4e a3 a4 bc 90 5f 6d 3c
       0.0030157466 0.03477447 -0.020097401 0.014488116
000370 ec 8c 10 3d bd 9f be bb 0a e0 c5 3c 6a 9e 28 3d
       0.035290644 -0.005817382 0.024154682 0.0411667
000380 51 e6 7a bd b8 95 0b bc 3b 62 61 bd f8 95 04 bd
       -0.061254803 -0.008519582 -0.05502532 -0.032369584
000390 5f b7 5b 3b 14 06 aa 3d e0 60 dd 3c 4a ea 95 3c
       0.0033526046 0.083019406 0.027023733 0.018300194
0003a0 a9 13 82 bd 37 19 bf 3c 05 3e 85 3c 87 fa e8 bc
       -0.06351406 0.023327453 0.016264925 -0.028439773
0003b0 40 33 22 3d af 74 cb bc 9d 32 8b 3d cd ef 11 3d
       0.039599657 -0.024835913 0.06796763 0.035629082
0003c0 70 36 1a bd e9 4e d8 bc 4e 4d 4b bd f8 d9 cd 3d
       -0.037649572 -0.026404815 -0.04963427 0.1005134
0003d0 74 fa 38 bd a3 4f 95 3d d7 ef c3 3c b4 ba b5 3d
       -0.045160726 0.0729058 0.023918075 0.088735014
0003e0 bd bc b9 bc 48 51 96 3c 2a 48 91 3d 26 d9 b8 3a
       -0.022673005 0.018349305 0.07093842 0.0014102801
0003f0 a8 80 40 3d bd 74 13 3d cd 9f 8b 39 4a 61 26 bc
       0.046997696 0.036000002 0.00026631207 -0.010155031

bn1/gamma f4 [64]
000000 93 3a 7b 3f eb 51 78 3f c2 05 79 3f 1c 4e 7d 3f
       0.9813625 0.96999997 0.9727441 0.9894731
000010 bf 43 7a 3f 87 95 7c 3f b6 eb 80 3f 12 8e 7b 3f
       0.9775962 0.9866566 1.0071933 0.9826366
000020 9d d4 7f 3f db 10 81 3f 4c a1 80 3f 85 e3 84 3f
       0.999338 1.0083269 1.0049224 1.0381933
000030 72 9a 7c 3f 15 6e 7b 3f 01 5d 82 3f 7b 47 77 3f
       0.98673165 0.98214847 1.0184633 0.96593446
000040 9d df 80 3f bf 77 75 3f ab c1 73 3f 45 1f 7e 3f
       1.0068241 0.95885843 0.9521739 0.99266464
000050 59 01 82 3f a0 c2 81 3f f0 a8 7e 3f dd 2f 7d 3f
       1.0156661 1.013752 0.9947653 0.9890116
000060 68 9c 84 3f 5e de 70 3f b8 99 7b 3f 73 c1 78 3f
       1.0360231 0.94089305 0.9828143 0.9717018
000070 06 62 80 3f 57 3b 7a 3f ff 48 77 3f 33 9c 7c 3f
       1.0029914 0.97746795 0.9659576 0.9867584
000080 c1 50 77 3f 22 7b 7c 3f f0 6e 85 3f 57 02 7b 3f
       0.96607596 0.98625386 1.042448 0.98050445
000090 50 d1 79 3f 22 b0 78 3f cf 4f 82 3f 8a 30 81 3f
       0.9758501 0.9714376 1.0180606 1.0092938
0000a0 c3 fa 77 3f 87 5f 81 3f cd d0 7a 3f 03 72 80 3f
       0.96867007 1.0107278 0.97974855 1.0034794
0000b0 3e 38 80 3f 91 06 78 3f 71 22 7d 3f 19 08 7a 3f
       1.0017164 0.9688502 0.9888068 0.97668606
0000c0 09 9d 78 3f 7d 91 81 3f 0d 42 72 3f a9 7b 7a 3f
       0.97114617 1.0122524 0.94632035 0.9784494
0000d0 ce c0 79 3f b3 72 76 3f 8b 71 78 3f e7 35 7f 3f
       0.9755982 0.9626877 0.9704825 0.99691623
0000e0 58 14 7c 3f d9 56 81 3f f6 2b 78 3f 5e d4 81 3f
       0.9846854 1.0104629 0.9694208 1.0142934
0000f0 63 c7 79 3f 00 a0 7d 3f 86 9d 7b 3f 5e a7 7a 3f
       0.97569865 0.99072266 0.98287237 0.9791163

conv1_4/b f4 [32]
000000 6d dc b6 39 17 d2 0f b8 b3 de 9b 37 6a b9 f0 38
       0.00034877975 -3.428952e-05 1.8581142e-05 0.00011478628
000010 26 b8 a0 b9 64 af 56 ba 25 83 1a 3a ef f1 79 37
       -0.0003065478 -0.00081895874 0.0005894176 1.4897886e-05
000020 5f 6a 6a b8 b2 19 eb b8 04 2e 3f 38 e7 ac f1 b8
       -5.5889013e-05 -0.00011210459 4.5580804e-05 -0.00011523981
000030 cf 0a 15 ba f6 f8 42 b9 0d 7c d6 37 d2 cd 72 39
       -0.00056855095 -0.00018594027 2.5568554e-05 0.00023155592
000040 e1 a8 da ba c1 cd 32 38 ab 75 98 b9 64 9b 0a b9
       -0.001668241 4.263013e-05 -0.0002907937 -0.00013218593
000050 0d 79 1a b8 fc 79 b8 b8 26 70 90 b9 c3 22 3e 39
       -3.68292e-05 -8.796525e-05 -0.00027549377 0.00018132762
000060 fe 3e 89 37 8e 4c 8d 3a c9 7c e1 39 26 67 6c b8
       1.6361006e-05 0.0010780261 0.00043008316 -5.636285e-05
000070 91 a5 02 39 61 ec 66 38 ad d2 3d 39 26 65 95 b9
       0.00012459444 5.505642e-05 0.00018102927 -0.00028494856

conv1_5/W f4 [32, 32, 3, 3]
000000 e0 6d 63 bd 8b aa 38 bd 92 ff 45 3c 4c 07 8a bd
       -0.055524707 -0.045084517 0.0120848585 -0.06739673
000010 53 d9 7a 3d d7 ff fa ba fc df b0 bb 19 a8 b1 3d
       0.061242413 -0.0019149733 -0.005397795 0.0867464
000020 24 33 04 3d a2 9f 96 3c 9a 71 55 3d 1a b8 db bc
       0.032275334 0.018386666 0.052110292 -0.026821185
000030 72 f6 59 bd 3f 1e 8c 3c 59 82 af bc 51 f4 08 be
       -0.053213544 0.017104266 -0.02142446 -0.1337445
000040 57 d3 15 3d 23 5e 26 3c 34 38 77 bc 30 3a 10 3d
       0.036578503 0.01015428 -0.015089083 0.035211742
000050 b2 ee f7 3c 48 d3 0a bc 39 33 36 be 07 06 60 3d
       0.030265186 -0.008473225 -0.17792977 0.054693248
000060 9c a3 69 bd 8c e2 32 be d7 0d 37 3d 9c ad 34 3d
       -0.057040796 -0.17469233 0.044690933 0.04411088
000070 2e d9 ae 3b f7 69 68 3d 15 95 eb b9 0d 78 9c 3d
       0.0053359484 0.05674168 -0.00044933768 0.07640085
000080 09 1c 94 bd 05 6d 7d 3d 0e 7c f5 3c bb e1 9a 3d
       -0.0723191 0.061871547 0.02996638 0.07562586
000090 3e 19 6c 3b 97 62 f4 bc 6c 74 12 bc 10 01 a0 bc
       0.0036025788 -0.029832168 -0.00893889 -0.019531757
0000a0 e5 f2 6d bd 1e d7 09 3d 48 c5 6b bc 54 46 bb bc
       -0.05809297 0.033652417 -0.014390297 -0.022860684
0000b0 c5 2b 2b 3d 7f 00 e8 3c 09 83 97 bc ba 82 29 3d
       0.04178979 0.028320549 -0.0184951 0.041384436
0000c0 14 af 33 bd 38 fd 91 bc 14 7f 0b 3d b1 53 a0 bc
       -0.04386814 -0.01782094 0.034056738 -0.019571157
0000d0 e3 75 c5 3d 45 cd 3c 3d 7c 5b f5 3c 19 ff d4 bd
       0.09641626 0.046094198 0.02995085 -0.104002185
0000e0 f2 f1 4f bd 86 eb 49 3d 07 7e 06 bd 51 77 dd 3c
       -0.050767846 0.04929688 -0.032835033 0.027034434
0000f0 7f 48 4b bd 79 0c 11 3d 0f 7e a9 3d fe e8 8c bc
       -0.049629685 0.035412285 0.08275997 -0.017200943
000100 d9 30 7b 3d 25 11 e9 3c d6 51 9f bd c5 7a f5 bc
       0.06132588 0.028450558 -0.07779281 -0.029965768
000110 80 08 1c bd 8a 45 38 3d 68 3b de bd 7c 6c 11 3d
       -0.038094044 0.044988193 -0.108511746 0.03550385
000120 9d 61 23 bc 28 86 3f bc 76 b6 8e bc fb 24 58 3d
       -0.009972003 -0.0116897 -0.017420989 0.052769642
000130 87 ad 58 bd 18 2d 50 bc 27 01 60 3d 45 24 ae bc
       -0.052899864 -0.012706064 0.0546886 -0.021257529
000140 49 c0 fe 3b 7a 8e 59 3c 3b e7 98 bd c9 57 73 3c
       0.007774387 0.013278598 -0.07465979 0.014852473
000150 2f 80 83 bb 68 de e1 3b dd 54 1c 3d 28 86 c3 bd
       -0.0040130834 0.006892968 0.03816687 -0.09547073
000160 86 e2 80 3d ed 98 a9 3c 72 b0 28 3d 8c 74 90 3d
       0.06293206 0.020702804 0.041183896 0.070534796
000170 8f 83 45 3d 6d f6 c2 3d df 86 c5 bc cd 0b 2e bc
       0.048221167 0.09519658 -0.024112163 -0.010622931
000180 ba ac 04 bd 3a 86 4f bd 3b 33 35 3d 1f df e9 3b
       -0.032391287 -0.050665118 0.04423831 0.007137194
000190 50 eb 27 bd e4 f8 c1 3c c4 8c 90 3d 51 c8 49 3d
       -0.040995896 0.02367825 0.07058099 0.049263302
0001a0 09 c9 aa 3c eb 17 96 bd 20 ce b3 bb 50 e1 0a bd
       0.020847814 -0.07328781 -0.0054872185 -0.03390628
0001b0 d5 24 ca bd ea b8 c9 bc ec 74 4c 3d 6c 33 ae bd
       -0.098703064 -0.024624307 0.049916193 -0.08505902
0001c0 a3 02 fc bb 55 6a ab 3d cf 3f 2b 3c 80 eb 24 bd
       -0.007690744 0.083698906 0.010452225 -0.040263653
0001d0 fc dc 21 bd c1 be 55 3d bd f3 bb 3c 37 ae ab bc
       -0.039517388 0.05218387 0.022943372 -0.020957096
0001e0 fa 1c f1 3d 9b d9 66 3d 4b 53 11 bd 16 3c 01 3d
       0.11773105 0.05635987 -0.035479825 0.031551443
0001f0 d5 e5 b6 3c 5b a5 8b 3b 29 ba c5 bd ad fd c0 3d
       0.02232639 0.0042616553 -0.09654648 0.09423385
000200 37 cd 7c 3d 30 27 db bc 7b a1 e5 3d 83 49 83 bd
       0.061719146 -0.026752084 0.112124406 -0.064105056
000210 76 97 bd bc ed 84 9b 3c b2 5b 83 ba f7 df 6b bd
       -0.023143511 0.018984282 -0.0010021834 -0.057586636
000220 91 5f 30 3d ec e3 4e bd 51 2f 3b bd 08 02 5c bd
       0.04305989 -0.050510332 -0.04569942 -0.053712875
000230 c6 87 fc 3c ce c7 00 3c 67 b3 a9 3b 74 37 d0 bc
       0.03082646 0.007860137 0.005178857 -0.025417067
000240 0f 73 d4 3c 52 58 0c 3b 35 2a b7 bd fa e9 6b bd
       0.02593377 0.0021414948 -0.08943597 -0.057596184
000250 33 03 cf 3c fc 29 67 3c fd 40 1e 3d 43 65 db 39
       0.02527008 0.014109131 0.038636196 0.0004184638
000260 33 ef dc bc 12 78 7b bc 40 8d 9c bd 68 21 1a 3c
       -0.026969528 -0.015348451 -0.07644129 0.009407379
000270 87 79 9a 3c 67 33 a0 bd f5 2f 0a be a8 d3 8e bb
       0.018856777 -0.07822304 -0.13494857 -0.0043587275
000280 17 2a a5 3d 60 7a 08 bd b9 48 c1 bd 7c c0 0f bd
       0.080646686 -0.03331983 -0.09437699 -0.035095677
000290 56 1b 9c bd 15 68 05 3e b2 5e 16 3e 5d e7 32 bc
       -0.076224014 0.13027985 0.14684561 -0.010919419
0002a0 62 ee 13 3d 70 de 58 3d ea 1d f1 3d 01 9c ac 3b
       0.03611601 0.052946508 0.11773284 0.0052676206
0002b0 18 12 06 3d 8a 4c 4e 3b 43 54 5c 3c d1 2b 8a bd
       0.0327321 0.0031478726 0.013447824 -0.067466386
0002c0 8d 38 4b bd be db 53 bd 5a 6d 55 bd 67 e4 c5 3c
       -0.049614478 -0.051723234 -0.05210624 0.024156762
0002d0 db 1f f0 3b 3e 7b 50 3d 04 93 79 bd 9b 4c cc 3c
       0.007328016 0.050898783 -0.06093122 0.024938872
0002e0 90 ca 8b 3c f8 66 0b bc 7f c7 ab 3d 13 94 f3 3c
       0.017064363 -0.008508436 0.0838766 0.029733693
0002f0 03 cc 2f bd 76 7a 2c 3d e6 81 1f be ca 66 33 3b
       -0.04291917 0.042108975 -0.15576896 0.00273745
000300 bd 9e 50 bd a7 01 75 bb 34 b0 03 3d 3e 33 95 3d
       -0.050932635 -0.0037385018 0.032150462 0.07285164
000310 3e 5b 6b bc 9e c7 53 3c 5a 78 2a 3d 1b dc 36 bd
       -0.014365016 0.01292601 0.041618682 -0.044643503
000320 62 f4 bf bd c5 3c 12 3d a9 be 8e 3d 32 72 a4 3d
       -0.09372784 0.035702486 0.06969959 0.080295935
000330 3c 1c cb bc d0 f1 88 bc fb 35 c0 bc 58 45 f0 3c
       -0.024793737 -0.016716868 -0.02346324 0.02932994
000340 ba 29 98 3c 1c c2 81 bd b0 9e 7f bc f3 03 7b 3c
       0.018574584 -0.063358516 -0.015601799 0.015320766
000350 c2 8f 9a 3d 58 87 63 3d 26 da 1e bd 05 46 ad 3d
       0.07546951 0.055548996 -0.03878226 0.08460621
000360 87 3b 60 bc 46 0c ca 3c 03 de d2 bd 0f 6d 9b bd
       -0.013686067 0.024664056 -0.102962516 -0.07589161
000370 4d d4 1b bd 6d b8 a7 3d 14 21 10 bc 84 de f5 bc
       -0.038044263 0.08189473 -0.008796949 -0.03001333
000380 90 63 c3 ba 06 97 8a bc 3f 85 80 bd be 09 03 bd
       -0.0014906991 -0.016917717 -0.06275415 -0.031991713
000390 2b e4 f1 3c 21 d1 5c bc a5 5c 4c 3d a1 0e 84 bd
       0.029527744 -0.013477595 0.04989304 -0.06448103
0003a0 09 8d 7e bd 67 f8 03 3d 2d 75 69 3d 23 2e 2a 3e
       -0.06214622 0.032219317 0.056996513 0.16619162
0003b0 38 5c c8 3b 2f a1 69 3c 53 79 1a bd 22 71 ce bc
       0.006114509 0.014259621 -0.03771336 -0.02520043
0003c0 6b f9 76 3d a4 a9 06 3d 14 00 b4 3c 1c d2 27 bd
       0.060296457 0.032876626 0.021972694 -0.04097186
0003d0 b9 84 aa 3d a8 b7 f0 bb 1e 9e 00 3c a3 70 0d 3b
       0.08326096 -0.0073461123 0.007850198 0.002158203
0003e0 0c 23 bf bd 0d 1a a3 bd 46 53 42 3c ba d9 bd 3d
       -0.093328565 -0.07963953 0.011860674 0.09270044
0003f0 86 64 09 bc 08 8d 8d 3c ba 29 a9 3c 77 3a 14 bd
       -0.008385783 0.017279163 0.02064978 -0.03618857

bn5/beta f4 [32]
000000 5f 0a 73 3d 63 b5 59 3d 2b c0 c4 39 01 ce b7 3d
       0.059336063 0.0531515 0.0003752721 0.08974839
000010 37 75 5f 3d ad a1 2c 3d 41 ce d3 3d 20 c6 14 3d
       0.054555144 0.042146374 0.10342074 0.03632176
000020 5c c6 d8 3d 5c 81 94 3d 70 e6 ba 3d 90 5c cb 3d
       0.10584709 0.07251236 0.09125984 0.09929764
000030 1f 93 25 3d 2f d7 48 3d b7 26 67 3c 15 1b 1c 3c
       0.04042351 0.04903334 0.014108351 0.009527941
000040 d0 6c af 3c 55 14 89 3d 98 5b 03 3d 78 e9 ec b6
       0.02141419 0.06693331 0.032069772 -7.0605274e-06
000050 77 06 82 3d b8 39 cd 3c 61 cc 07 bc 97 8c 24 ba
       0.06348889 0.025051937 -0.008288474 -0.0006277053
000060 70 b5 00 3e 41 43 41 3d 13 a8 cd 3c f3 6d 84 3d
       0.12569213 0.04718328 0.025104558 0.06466284
000070 90 cf c8 3d 87 63 c8 3d 95 7b 77 3d 89 f2 44 3d
       0.098052144 0.09784608 0.06042059 0.048082862

bn2/gamma f4 [64]
000000 32 72 7e 3f f9 86 75 3f b4 00 78 3f 0e dc 7e 3f
       0.99393 0.95909077 0.9687607 0.99554527
000010 7f 60 7c 3f 45 9c 82 3f ec fc 82 3f b4 4a 80 3f
       0.9858474 1.020394 1.0233436 1.0022798
000020 88 43 81 3f 93 11 7f 3f fa c1 7d 3f 68 58 7b 3f
       1.0098734 0.9963619 0.9912411 0.9818177
000030 cc da 7f 3f 30 24 7e 3f 97 c6 79 3f fb fc 82 3f
       0.9994323 0.9927397 0.9756865 1.0233454
000040 e1 e3 7c 3f 14 fd 7e 3f 53 a8 79 3f c1 8e 7e 3f
       0.98785216 0.99604917 0.9752247 0.99436575
000050 e4 0f 7e 3f dc bc 82 3f b7 32 79 3f 40 56 7f 3f
       0.99243 1.0213885 0.9734301 0.9974098
000060 a3 f2 80 3f 2e 31 81 3f 2a 22 82 3f 17 1e 78 3f
       1.0074047 1.0093133 1.0166676 0.96920913
000070 1d 1f 74 3f e3 56 80 3f cc dd 83 3f e7 b4 7b 3f
       0.95359975 1.0026516 1.0302062 0.9832291
000080 30 0e 7e 3f 8a 22 7c 3f 90 35 7d 3f 90 8a 80 3f
       0.992404 0.984902 0.98909855 1.0042286
000090 b3 99 7e 3f cb cb 7a 3f ce 09 80 3f 1f 7a 7f 3f
       0.99453276 0.97967213 1.0002992 0.99795717
0000a0 95 ee 84 3f cc c6 7d 3f 26 7f 79 3f 5b 55 80 3f
       1.038531 0.99131465 0.9745964 1.0026048
0000b0 af d6 83 3f 53 0c 83 3f 58 f3 7c 3f 18 f1 82 3f
       1.0299891 1.0238136 0.98808813 1.0229826
0000c0 6a 7b 7e 3f 22 12 7b 3f 2f bf 81 3f 50 20 75 3f
       0.99407065 0.98074543 1.013647 0.9575243
0000d0 53 1c 88 3f 6f 0c 80 3f b4 f4 81 3f bf 33 7b 3f
       1.0633644 1.0003794 1.0152802 0.98125833
0000e0 0c 6b 7e 3f ce 3e 7b 3f 54 be 7b 3f 3e c6 77 3f
       0.9938209 0.9814271 0.9833729 0.9678687
0000f0 21 b4 78 3f 9f 71 80 3f 69 24 87 3f a0 1f 7c 3f
       0.97149855 1.0034674 1.0557986 0.98485756

conv1_2/b f4 [64]
000000 df 51 02 b8 79 44 91 b7 34 1a a1 38 43 df a3 39
       -3.1070664e-05 -1.7317232e-05 7.681959e-05 0.00031256126
000010 14 ea 88 b8 54 fe 96 b8 ab fc 12 b9 f5 8e 9f 39
       -6.528586e-05 -7.19993e-05 -0.00014017771 0.00030433355
000020 3e 46 f4 b7 04 ca de 38 d1 32 14 39 5a fa 1b b7
       -2.9119776e-05 0.00010623413 0.0001413331 -9.2970095e-06
000030 9e ac 2c 37 6d b7 6c 38 6f db 89 b9 8a 51 90 b8
       1.02921895e-05 5.6437613e-05 -0.00026294167 -6.881643e-05
000040 de 02 98 b9 10 8e e2 38 c7 99 ad b8 a2 65 53 b9
       -0.00028993835 0.00010802981 -8.277926e-05 -0.00020160389
000050 5b 1a a3 b8 b9 d3 40 b9 2a 2f aa 37 c0 10 6d 38
       -7.777355e-05 -0.0001838942 2.0287542e-05 5.6520803e-05
000060 5e 87 bf b9 37 d7 8b b8 d5 71 5f 38 bd 89 33 39
       -0.00036531215 -6.6681234e-05 5.3273357e-05 0.00017122082
000070 8a 6a 0d 39 d5 96 da 38 83 fe d5 38 8d a5 09 ba
       0.00013486497 0.00010423145 0.00010204038 -0.0005250804
000080 15 92 64 b8 13 03 c3 b7 d0 60 94 38 1f ed 32 38
       -5.4495486e-05 -2.3247243e-05 7.075223e-05 4.2659343e-05
000090 3d 00 54 38 c8 aa 72 39 0d 34 e1 b8 44 96 13 b9
       5.054496e-05 0.0002314254 -0.00010738531 -0.00014074991
0000a0 ac bf c7 b7 a9 86 fa b8 2a b5 11 38 4e 7d 5d b8
       -2.3811903e-05 -0.00011946011 3.4739416e-05 -5.2807205e-05
0000b0 a3 fc 2a b9 83 77 02 b8 01 c0 31 37 6d 8b 95 b9
       -0.00016306578 -3.110572e-05 1.05947265e-05 -0.00028523375
0000c0 76 1f 31 b8 d8 0e 94 37 d7 a5 0b 39 89 a9 5c 37
       -4.222939e-05 1.7649887e-05 0.00013317853 1.3152495e-05
0000d0 7a ff 3d 39 02 4e 5c 38 a5 31 ba b9 5f 96 fb b8
       0.00018119617 5.2524738e-05 -0.00035513673 -0.000119966215
0000e0 51 31 93 b8 91 8a e8 36 8b 15 5e b9 11 bd 27 b9
       -7.018692e-05 6.93027e-06 -0.00021179595 -0.00015996794
0000f0 3d 9e 4e 38 51 4e 10 39 2e b7 64 b9 39 b2 bc 38
       4.9261598e-05 0.00013762085 -0.00021812014 8.997735e-05

bn2/avg_var f4 [64]
000000 c9 8b ae 3e 6e 15 21 3f b7 9d f3 3e 85 2e 04 3f
       0.34091023 0.62923324 0.47581264 0.51633483
000010 2f f9 c1 3e cb c7 dd 3e 93 f7 f6 3e 94 ec bd 3e
       0.37885424 0.43316492 0.4823576 0.37094557
000020 48 9e e9 3e 9b 53 f8 3e a2 46 e3 3e 6c 73 0e 3f
       0.45628572 0.48501286 0.44389826 0.5564487
000030 96 ac ce 3e f6 eb 98 3e d2 85 05 3f 2b dc cb 3e
       0.40366048 0.29867524 0.5215732 0.39816412
000040 5b 35 c7 3e 94 1e cf 3e 2a fd 32 3f ab 42 cc 3e
       0.38907894 0.40453017 0.6991755 0.39894614
000050 62 d4 2d 3f 33 45 08 3f e4 49 dd 3e cd d5 cb 3e
       0.67902195 0.5323059 0.43220437 0.39811555
000060 cc ee db 3e d8 33 d1 3e f0 ca c0 3e f9 7d 8d 3e
       0.42955625 0.40859866 0.3765483 0.27635172
000070 83 8a 02 3f b0 4e c7 3e 5a 5e f4 3e 58 af c5 3e
       0.509926 0.3892722 0.47728235 0.3861034
000080 cf 49 c1 3e 22 4c fd 3e 27 bc 02 3f 2f 9e 11 3f
       0.37751624 0.49472147 0.5106835 0.56881994
000090 56 93 bf 3e ce 7f 13 3f 40 84 de 3e ca af d6 3e
       0.37417096 0.5761689 0.43460274 0.4193099
0000a0 ba f0 39 3f d7 83 e0 3e 4a 2d da 3e b2 59 02 3f
       0.72632945 0.43850586 0.42612678 0.50918114
0000b0 e4 4b ef 3e e3 04 f5 3e 57 d9 f2 3e 79 05 06 3f
       0.46737587 0.4785529 0.47431442 0.523521
0000c0 96 f6 ff 3e 89 a4 b8 3e 9a da cb 3e e2 b7 f5 3e
       0.49992818 0.3606303 0.39815217 0.47991854
0000d0 5c 4a 04 3f d1 5b ef 3e 3e 97 f8 3e 0a 25 e9 3e
       0.51675963 0.46749738 0.4855289 0.4553607
0000e0 b1 0e d3 3e f5 cc d2 3e 1d 14 a9 3e 3f f8 b3 3e
       0.41222146 0.41171995 0.33023158 0.35150334
0000f0 3f bf 07 3f d7 25 00 3f 9e a7 0a 3f 1f 55 f2 3e
       0.53026193 0.5005774 0.54162014 0.47330567

bn6/beta f4 [32]
000000 24 24 6a 3d f8 84 bc 3d 94 ba 25 3b a7 ad af 3d
       0.057163373 0.09205049 0.0025288211 0.085780434
000010 ca bf 1a 3d 0a b3 d9 3c 01 5c b4 3d 08 bf c4 3c
       0.03778056 0.02657463 0.08806611 0.024016872
000020 8b 52 a8 3d 15 ba 83 3d d2 fe f9 3d aa 91 dd 3d
       0.08218869 0.06431977 0.12206806 0.10818799
000030 39 15 35 3d 16 69 72 3d ad ad ea 3c 33 4c de 3c
       0.044209693 0.05918225 0.028647268 0.027135944
000040 d8 89 1c 3c 56 1e 96 3d 1a 5a 85 3d c4 aa 0a 3b
       0.009554349 0.07330005 0.06511326 0.0021158913
000050 31 21 98 3d 24 91 13 3c 15 63 8f 3d a6 36 41 3c
       0.07428206 0.009006772 0.0700132 0.011792814
000060 d3 ad 65 3e 83 52 27 3d 65 0e 4f 3d d4 c9 a1 3d
       0.2242959 0.040850174 0.050550837 0.07899824
000070 1b 13 a5 3d c8 ec 98 3d 17 af b6 3d d7 8b 78 3d
       0.08060285 0.074670374 0.089201145 0.060680237
