loto6_cnn/loto6_30_10.model (npz, 491110 bytes, 38 tensors)

bn1/beta f4 [64]
00000000: 52f8 963c f330 323c 069e bf3b ad2f 183d
00000010: 2428 b7bc 15d5 ca3c 148b 5d3d acc2 80ba
00000020: 9c2d 513a b762 113d 4327 0c3d 2961 1f3d
00000030: 5620 e93c 1e5c 123d 6ae9 4f3d 8db0 eb3b
00000040: 57f1 343d 7e52 003c 440b 20bb 2a67 a03c
00000050: 104f 163d 7d4a d23c ddad 963c 49de 2d3b
00000060: 3f51 703d 8389 813c 4448 71bc 1f2f d73c
00000070: 63b7 0e3d 5abb 60bc 7bd0 ec3c e309 25bc
00000080: e5ae b6ba 8f41 08bc a1e0 4e3d be5b c63c
00000090: e013 a4bb 6ffc 273c fbae 3c3d 7d44 243d
000000a0: 7b12 ce3b 24b3 8d3c b84b 7a3c 8b6b 5d3c
000000b0: 1e1e ab3c 0895 d6bb 711d 773b f895 453d
000000c0: bd93 b13b ac58 813c d512 b7bc 0136 233c
000000d0: bed0 323d 4505 ac3c 059b 113d 0250 f03b
000000e0: 7d9b 483d b411 af3c f569 abbc c469 273d
000000f0: a208 b93c da11 953c 579e a33c c036 233c
0.018428955 0.010875928 0.0058476953 0.037154842 -0.022358008 0.024759809 0.054087713 -0.0009823642
0.00079795136 0.035494532 0.03421713 0.03891102 0.028457802 0.03573238 0.05075971 0.0071926774
0.044175472 0.007832168 -0.0024420777 0.019580442 0.036696494 0.025670284 0.018393451 0.0026530197
0.058671232 0.015812641 -0.014726702 0.026267586 0.03484286 -0.013716543 0.028908005 -0.010073158
-0.0013937621 -0.008316412 0.05050719 0.024213668 -0.005007252 0.010253056 0.046065312 0.040104378
0.006288824 0.017297335 0.015276842 0.01351441 0.020888384 -0.0065485276 0.0037706757 0.048238724
0.005419223 0.015789352 -0.022347847 0.009961606 0.043656103 0.020998606 0.03554823 0.0073337564
0.04897641 0.021370746 -0.020924548 0.04087235 0.022587124 0.018196989 0.019972963 0.009961784

bn3/gamma f4 [64]
00000000: a88d 803f 09d9 813f 9f49 843f 17e2 823f
00000010: 783b 7e3f efaf 7f3f ba07 833f 1ea2 7e3f
00000020: 2ac7 803f 098c 7c3f 0a55 793f fff5 803f
00000030: 4d78 7d3f 40e0 7f3f df02 7f3f 1547 7d3f
00000040: 5db5 7b3f 6101 7e3f 1f0e 823f 6e79 7a3f
00000050: 48e0 813f d5e0 813f 21d8 7a3f a6b8 7d3f
00000060: 3e11 7d3f ce9e 813f 1f51 7f3f cb5a 803f
00000070: 3644 7e3f f598 7c3f ff6b 803f 08ae 803f
00000080: 9fd7 803f fd9e 7e3f a610 813f d846 813f
00000090: 8dbc 7f3f f66b 843f dba3 803f ae42 823f
000000a0: a261 803f f342 7f3f 0128 7f3f 83e0 803f
000000b0: 30c9 803f b158 803f 4ca5 7d3f ddff 833f
000000c0: 3bc1 7f3f 3554 823f 6c17 7f3f f085 7b3f
000000d0: 0c46 7e3f 2b4b 803f baa9 813f 625e 833f
000000e0: 4d18 803f f057 7a3f d8fc 7d3f a091 7d3f
000000f0: fa13 803f d691 7c3f 2434 803f a25f 803f
1.004323 1.0144359 1.0334967 1.0225247 0.9930949 0.9987783 1.0236733 0.9946612
1.006078 0.98651177 0.97395384 1.0075072 0.9901169 0.99951553 0.99613756 0.9893659
0.98323613 0.99220854 1.016056 0.97841537 1.014657 1.0146738 0.97986037 0.99109876
0.98854434 1.0126588 0.99733156 1.0027708 0.9932283 0.98670894 1.0032958 1.005311
1.0065802 0.99461347 1.0083206 1.0099745 0.9989708 1.0345447 1.0050005 1.0176599
1.0029795 0.9971153 0.99670416 1.0068516 1.0061398 1.0027066 0.9908035 1.0312458
0.9990422 1.0181948 0.99645114 0.9825125 0.99325633 1.002294 1.0129921 1.0263178
1.0007416 0.9779043 0.99213934 0.9905033 1.0006096 0.9866003 1.0015912 1.0029185

bn4/beta f4 [32]
00000000: 12a4 9fba a656 873c 129c 863b 3cbf 993c
00000010: 919e 673c 81df 793c 3376 033d 76ba 62bc
00000020: e419 9b3c 121e 683c 47ee 183c 5568 c73c
00000030: bcd8 763c e47e ff3c 2e95 fcba 3c56 be3a
00000040: 3fae 02bb 91b6 193d dd00 943c ed11 81bc
00000050: 7803 303d 1c15 e6bb 8fc2 73bc f0a3 033d
00000060: e653 963c cf4c af3c 03ff b83c 530b 86bc
00000070: c2ca d23c 7d0b 7e3c b764 203c a64f d83c
-0.0012179634 0.01652081 0.0041079605 0.018767945 0.014136926 0.015251041 0.032095145 -0.013838401
0.018933244 0.014167326 0.0093341535 0.024341742 0.015066322 0.031188436 -0.0019270533 0.001452155
-0.0019940285 0.037527625 0.018066818 -0.015755618 0.042972058 -0.0070215594 -0.014877929 0.032138765
0.018350553 0.02139893 0.022582537 -0.016362822 0.025731448 0.015505669 0.009789637 0.026405167

bn2/avg_mean f4 [64]
00000000: 3a6b 9dbe 6fba 97be 31ab 5dbf 1e95 77bf
00000010: c43a 62be 0c16 3fbe 0d99 20bf 1776 84bf
00000020: 0c9c 18bc c88d 84bf 6438 97be 73ae 92bd
00000030: 7eec b2be b117 90be 88f4 2e3f 3103 24bf
00000040: f582 4dbe 9e72 3cbf 01e8 25bf 0a9d 8bbf
00000050: 2836 24bf e466 27bf 7030 a3be 1e13 0bbd
00000060: d7c2 fcbe a5f4 3bbf 38ea b3be 1806 13bf
00000070: 1239 1f3f 3585 ddbe 37fb 503e 23b3 47bf
00000080: 0518 3dbe 6370 4a3d d67e 243e e1f5 43bf
00000090: 0129 983d 5a85 51bc f328 a33e d2ed acbd
000000a0: 4c92 cabe 2528 353e 497b 2dbf 8dbc 263f
000000b0: 8a16 0ebf 198c e8be 3db8 48be ec99 39bf
000000c0: db89 98be a6f4 aebe d983 70bf db05 d83d
000000d0: a062 3dbf 2b82 d8be 68c2 d8be d7da d33c
000000e0: d90e 36bf 674c 41bf 4a8c 9abe 8250 fe3e
000000f0: 274d c83c 9700 79bf a9df 65bf 844f 70bf
-0.3074587 -0.29634425 -0.8658934 -0.9671191 -0.2209273 -0.18660754 -0.62733537 -1.0348538
-0.009314548 -1.0355768 -0.2953521 -0.0716218 -0.34946054 -0.28143075 0.68341875 -0.6406737
-0.20069487 -0.7361239 -0.64807135 -1.09073 -0.64145136 -0.65391374 -0.31872892 -0.03395378
-0.493674 -0.7342017 -0.35139632 -0.57431173 0.6219646 -0.4326569 0.20408331 -0.78007716
-0.18466194 0.049423587 0.16064009 -0.76547056 0.07429696 -0.012788141 0.3186718 -0.08443798
-0.3956474 0.17691095 -0.67766243 0.65131456 -0.5550314 -0.45419386 -0.19601531 -0.7250049
-0.29792675 -0.34171027 -0.93951184 0.10547992 -0.73978615 -0.4228681 -0.4233582 0.025861187
-0.71116406 -0.75507206 -0.30185157 0.49670798 0.024450852 -0.97266525 -0.89794403 -0.9387133

conv1_6/b f4 [32]
00000000: eba1 94b9 48ee 0339 5b8b 2aba 244d 14ba
00000010: 738a 69ba 5da6 fd36 8b75 6338 505a 223a
00000020: 4e7d dbb9 5e5b 7038 7222 9e38 2f78 c139
00000030: dd45 87b9 d8f1 0dba 0bfb c439 21ac 1839
00000040: e022 023a 34f9 20b9 ffac 41ba 8f27 d5b9
00000050: f11b fa39 f6e2 80b9 6ce8 f039 bb11 fd38
00000060: bbd4 adb7 e1fa 913a 1194 dd38 56ad 01b9
00000070: 85e4 e8b8 f69f f038 daac 9c39 4225 b939
-0.00028349398 0.000125819 -0.0006505751 -0.0005657247 -0.0008908875 7.559355e-06 5.4230488e-05 0.0006193267
-0.00041864294 5.730555e-05 7.540443e-05 0.00036901372 -0.0002580126 -0.00054147607 0.00037571075 0.00014559973
0.0004964303 -0.00015351624 -0.0007388144 -0.00040656 0.00047704534 -0.00024583162 0.00045949535 0.00012067283
-2.0722267e-05 0.001113739 0.00010565681 -0.00012366971 -0.00011105187 0.00011473887 0.00029883423 0.0003531371

conv1_5/b f4 [32]
00000000: 8972 abb9 bb3f 1539 db34 783a 081b 1639
00000010: aa40 6bb9 d740 8c39 46a9 4fb8 2ffe d7b8
00000020: 6800 a4b9 5e66 43b9 7240 8eb9 b402 9439
00000030: 8407 e2b9 fa26 a239 a88f 3638 89de 3c3a
00000040: a599 f336 7de5 8139 b2eb 2039 1b94 cdb9
00000050: ae7a 0339 cbd8 cb39 aa62 ddba b9e9 03b9
00000060: 56aa c738 02f5 0a3a 5d1c e838 318a b339
00000070: df2e b838 60b8 14ba 66a6 c0b7 f70b dc38
-0.00032700997 0.00014233489 0.00094683253 0.00014315185 -0.00022435436 0.0002675119 -4.9510294e-05 -0.00010299344
-0.0003128082 -0.00018634784 -0.00027132366 0.00028230774 -0.0004311168 0.00030928088 4.352597e-05 0.0007204791
7.259851e-06 0.0002477578 0.00015346592 -0.00039210994 0.00012538835 0.000388807 -0.0016890366 -0.00012580202
9.520787e-05 0.0005300791 0.00011067905 0.000342445 8.782534e-05 -0.0005673226 -2.2965669e-05 0.00010492646

bn3/avg_var f4 [64]
00000000: 2cee cc3e a8e7 123f 0d74 e13e 113e fe3e
00000010: 3e2e 0e3f 7f95 c03e bc2f 263f 6ba4 fe3e
00000020: d25d fb3e 42b8 e03e 2812 153f e8e2 b83e
00000030: 05d0 203f ce4f a23e 0247 183f 5ef2 dd3e
00000040: 1d89 003f 2e31 cb3e 2a69 f53e 2b65 5e3f
00000050: 3849 c73e f8ca bc3e 9baa d63e 36f3 da3e
00000060: 279c b83e 91fd e63e d8dc bd3e c6cc 163f
00000070: b3bd d53e 0fbe ad3e d288 093f 767f d33e
00000080: e614 cb3e fc23 f73e f84a c93e 48e3 e93e
00000090: 6f4a d93e 0af3 153f f31e 0b3f 433c cf3e
000000a0: d78c d03e e949 993e 3def 1a3f c7a5 093f
000000b0: 6b2e 0e3f a642 bc3e 7b38 dc3e eeae 0b3f
000000c0: 93a0 d33e 1213 003f 8726 243f b835 e43e
000000d0: 09db 1c3f 9c17 cf3e d350 bf3e c080 123f
000000e0: 0a26 e33e c575 9a3e 1e7b d83e b476 e33e
000000f0: 0831 d63e 133b c23e d8bb 0f3f c90c f33e
0.4002546 0.5738473 0.44033852 0.49656728 0.5553931 0.37614056 0.64916587 0.49734816
0.49095017 0.43890578 0.5823083 0.36110616 0.6281741 0.3170151 0.5948335 0.43348974
0.5020922 0.3968596 0.47931796 0.8687312 0.3892305 0.36873603 0.41927037 0.4276368
0.36056635 0.4511533 0.37082553 0.5890621 0.41746292 0.33934066 0.53724396 0.41308182
0.39664382 0.4826964 0.3931501 0.45681214 0.424396 0.58573973 0.543441 0.40475664
0.40732452 0.299392 0.605213 0.5376858 0.5553958 0.367696 0.4301184 0.54563797
0.41333446 0.500291 0.6412129 0.44572234 0.6127172 0.404477 0.3736635 0.57227707
0.4436496 0.30167976 0.4228143 0.444265 0.41834283 0.37935695 0.56146 0.47470692

conv1_3/W f4 [64, 64, 3, 3]
00000000: 0d19 69bb 82e2 a9bd b21e 953b f04f b93d
00000010: 56c7 19bd 9d19 963d 9de8 42bb f58f 863c
00000020: 44e6 ff3b 6edd f7bb 06d5 963c 5f08 b1bd
00000030: 5cd6 bdbc d6a7 d73c 6ffa 743b 96fc c53c
00000040: f15f a3bd 6c81 013d 1d88 2dbd 8f15 52bd
00000050: 4538 983c 4886 b9bb 1769 3b3d 2fd1 713d
00000060: b382 30bc fe94 3dbd 7c2a 88bd 7d25 733c
00000070: f956 723d 6a31 bdbc 3863 9abc f03a ce3d
00000080: 657a c7bc a387 203d 95f7 18bd 4a1a 853c
00000090: e719 b43a 6ebe 8cbd 13b1 ae3c f8f0 753d
000000a0: 53c3 ed3c df07 233b 098f 473c bf35 12bd
000000b0: 3b39 ce3b 19cb 7fbc 028b 64bd 5ba4 45bd
000000c0: c9aa 923b 78b1 f5bc 2deb 763c 9d8d 413d
000000d0: bc66 bf3b 6a36 a4bb 6e84 e33c 49e5 9a3c
000000e0: 0055 01bd 33b9 3dbd a4f6 b6bd 22cb 773c
000000f0: 6230 183c f29d b3ba 90cc 8fbc 9746 133d
00000100: e696 7bbc 033c 18bd a8bc 8ebb f8c2 183c
00000110: 0408 30bd de77 c23b 57eb 69bc d754 273d
00000120: f13e cc3c c0f0 623a 75a3 9b3d 69f8 573d
00000130: 2226 133d 9cc6 bdbb 4e95 423c 92a8 1d3c
00000140: 934c 16bd 28e3 51bc 3fbf 603d 9c49 b4bc
00000150: 76f0 92bc d269 aabd 5041 023d 9c71 13bd
00000160: 875f 78bd 3ddc d83c 52b0 25ba ab9d 0c3c
00000170: efbe 573d 02f6 e3bb ff75 92bd f42d 403c
00000180: 2c43 753d e38c babd 7f08 1ebc a798 96bc
00000190: 5e0b 31ba 5cc6 41bb 2824 eabc 8472 6ebd
000001a0: 24be b4bd 418a 8cbc 7064 0dbd cbdf c3bc
000001b0: 6c1c 32bd 6e4b b3bc 94f3 43bc b3a9 21bd
000001c0: f427 273d a7fa a33c 5dc5 acbc cda3 023c
000001d0: 1fde 58bd 83d1 4d3c 2f87 1c3d 93cb 5d3d
000001e0: 0448 70bd 7496 3bbd e5e1 39bd 6126 6ebd
000001f0: 1bea 89bd c415 023d 3e4c f339 bad5 1a3d
00000200: 5528 06bd 5f74 6cbc be39 743b 61fd 983d
00000210: 2074 213b 6cff dcbb d40e afbd 0a01 cd3c
00000220: 02d7 6dbc cf31 843d aad4 873c 6402 303d
00000230: 83c5 c5bc 91e0 fcbc e3eb 80bc 5d78 07bc
00000240: 7312 59bd 5659 e6bc 8de0 75bc 0a68 7c3d
00000250: 33f4 4ebd 4e36 1d3d 2b4c 9a39 e51d a3bc
00000260: d815 ec3a 129e 6ebd ea0f 18bd f963 ef3c
00000270: cf68 d7bd 89ba 943c e4ab 49bc 2a3c aebd
00000280: 3e89 113d 186c 953c 6584 503c 5031 87bd
00000290: 86f6 86bc dc10 b23c 02a4 a6bc e1ee f9bc
000002a0: bfb2 a93c e567 073d 1991 57bb 43e0 e0bb
000002b0: fc98 8ebd a092 2f3d 5847 1bbd 4b18 d8bc
000002c0: 7db2 bf3d 9cbb 96bc b356 fc3c 269a f53c
000002d0: b15a 003d ee64 8abd f2c1 53bc 24e5 083d
000002e0: 8059 89bc 027b 9fbb 2052 7abd 004b 813c
000002f0: c584 c2bb db8f afbc d72b 8a3b ce2e e03c
00000300: 214f ba3b 373a 36bc 541b 93bc f23a 6d3d
00000310: fc9f 17bb 6c6f 4bbc f5b9 23bd 1215 3d3d
00000320: b93a 13bd 3d7c 823c 0a03 ac3c 86b8 f33c
00000330: fa4a b5bc 22b9 60bd 92b8 33bd 37c4 9bbc
00000340: 4f93 153c 399e 1d3c 22e4 59bc 0a29 9f3c
00000350: 319c 0ebd 0da7 b7bd ae01 46bb 24fe 47bd
00000360: 6cf9 96bd 64b2 783d 9050 a7bd dd68 c6bc
00000370: d5a4 4bbc 47f5 123c 099b aabc 91c0 edbc
00000380: 9a7f 943d e8b8 363a 87af b23c 719a c8bd
00000390: f282 733d fcd7 b53d 96b4 cabc 6d77 e3ba
000003a0: 8322 2c3c 9110 b9bc c74a b2bc 22c4 c8bb
000003b0: af15 7dbc b14e 60bd ad4e 40bd 2c21 623d
000003c0: dbc2 673d 96cf ce3b affe a13c 4b86 62bd
000003d0: 27ee ad3c 3a41 363d 9f36 0cbd aa99 75bc
000003e0: 11ae 19bd dad3 653c 2140 e6ba 39f1 a3bc
000003f0: aa2a d9bc b052 d33c cfd4 a7bd 3650 a3bd
-0.003556791 -0.08295156 0.0045507783 0.0904845 -0.037543617 0.07329104 -0.00297407 0.016426066
0.007809432 -0.0075642383 0.018412124 -0.08644175 -0.023173504 0.026325148 0.0037380715 0.024168294
-0.07977284 0.031617567 -0.042366136 -0.05129009 0.018581519 -0.0056617595 0.04575452 0.059037384
-0.010773349 -0.04628467 -0.06648728 0.014840481 0.059164975 -0.023094852 -0.01884614 0.10069835
-0.024350354 0.039191853 -0.037345488 0.016247887 0.001374063 -0.06872259 0.02132467 0.06004426
0.029023802 0.0024876518 0.012180098 -0.035695788 0.0062934435 -0.015612387 -0.05579663 -0.048252445
0.0044759256 -0.02999185 0.015070719 0.047254194 0.0058411043 -0.0050113695 0.027773108 0.01890816
-0.031575203 -0.046319198 -0.08933762 0.015124114 0.009288879 -0.0013703688 -0.017553598 0.03595599
-0.015355801 -0.037166607 -0.0043559857 0.009323828 -0.042976394 0.0059346994 -0.014277301 0.040852394
0.024932357 0.00086570904 0.07599536 0.052727137 0.03592504 -0.0057914983 0.011876417 0.00962271
-0.03669412 -0.012810506 0.054869886 -0.022007756 -0.017936926 -0.08320965 0.031800568 -0.03599702
-0.060637977 0.026472205 -0.0006320524 0.008582513 0.052672323 -0.0069568167 -0.07151412 0.011729706
0.059878513 -0.09108903 -0.00964558 -0.018383337 -0.0006753708 -0.0029567694 -0.028581694 -0.05821468
-0.08825329 -0.017155768 -0.034519613 -0.023910424 -0.043484136 -0.021886554 -0.011959929 -0.03946848
0.040809587 0.020016981 -0.021090204 0.007973623 -0.052946206 0.0125621585 0.03821486 0.05414922
-0.05866243 -0.04579778 -0.045381445 -0.05814207 -0.06734105 0.03175904 0.00046405377 0.03780148
-0.032753307 -0.014432042 0.0037265862 0.07470203 0.0024635866 -0.006744316 -0.0854775 0.02502491
-0.014516594 0.06454813 0.016580898 0.04297103 -0.024142032 -0.0308688 -0.01573748 -0.008268443
-0.05299611 -0.02811877 -0.01500715 0.061622657 -0.050525855 0.038381867 0.00029429919 -0.019911716
0.0018011881 -0.058256216 -0.03712455 0.029222475 -0.105180375 0.018155353 -0.012309048 -0.08507569
0.035531275 0.01824002 0.012726878 -0.066012025 -0.016474973 0.021736555 -0.020341877 -0.030509414
0.020715116 0.033058066 -0.0032892881 -0.0068626716 -0.06962773 0.042864442 -0.037909836 -0.026378771
0.09360216 -0.018400006 0.03080306 0.02998073 0.03133649 -0.06757532 -0.012924658 0.03342165
-0.01676631 -0.0048669586 -0.061113477 0.015782833 -0.0059362375 -0.0214309 0.004216652 0.027366068
0.0056857024 -0.011122278 -0.017957367 0.057917543 -0.002313613 -0.012416702 -0.039972264 0.046162672
-0.035944674 0.015928382 0.020997543 0.029751074 -0.022130478 -0.054864056 -0.04387719 -0.019014461
0.009129359 0.009620243 -0.01329902 0.019428749 -0.034816924 -0.08967409 -0.0030213404 -0.04882635
-0.07371792 0.060717 -0.08169663 -0.024219925 -0.012429436 0.0089696115 -0.02082588 -0.029022487
0.072509006 0.0006970302 0.021812214 -0.09795082 0.05945105 0.088790864 -0.024744313 -0.0017354317
0.010506275 -0.022590907 -0.021764172 -0.0061268965 -0.015447064 -0.054762546 -0.04695003 0.055207416
0.056582313 0.0063113673 0.019774763 -0.055303853 0.021231724 0.0444958 -0.03423178 -0.01499025
-0.03751952 0.01402756 -0.0017566719 -0.020012485 -0.026509602 0.025796264 -0.08194887 -0.079742834

bn4/avg_mean f4 [32]
00000000: 0b4b 0fbf d696 573f c973 8ebf fd58 48be
00000010: 73a3 b13e ea11 d83d df36 c1bf 4f36 963f
00000020: 26e0 e03f cabb 36bf f027 c2bf f06c 8abf
00000030: 4ba3 17c0 fc77 b8bf 6c6a 8ebf 5d30 24be
00000040: 8cd0 c7be 3485 16bf a097 85bf 14d5 00c0
00000050: 197a f5bf ea8f 78be e196 ac3f 9642 cfbf
00000060: 750c aabe 76ca 9c3f f8b1 29c0 a840 98bf
00000070: a274 f1bf c652 05c0 3c62 c3bf 1892 96be
-0.5597388 0.8421453 -1.1129085 -0.19565196 0.34695014 0.10550292 -1.509487 1.1735324
1.7568405 -0.71380293 -1.5168438 -1.0814495 -2.3693416 -1.4411616 -1.1126227 -0.16034074
-0.39026296 -0.58797 -1.0436897 -2.0130053 -1.9177886 -0.24273649 1.3483545 -1.6192195
-0.3321263 1.2249286 -2.6514874 -1.1894732 -1.8863719 -2.083177 -1.5264354 -0.29408336

bn3/beta f4 [64]
00000000: 4ad7 cf3a 1cc5 ca3b cec6 353c bb7e 403c
00000010: d6f8 88bb 3478 ebbb 2448 263d 4111 633c
00000020: d45d 323c a944 5cbc f4dc b6bc 4995 8d3c
00000030: 41ba 5dbc aca1 bfbb ab77 763a aae8 88bb
00000040: 33e8 5dbc 806f 7ebc 9057 113c cf12 bbbc
00000050: 924d 7c3c ebb6 b23c c6a7 aebc 8a45 3bbc
00000060: 3a92 49bc ed70 843c 091d c23a 8056 e33a
00000070: 6e48 52bb cc9d 63ba 1556 75bb b542 4aba
00000080: 3bfb a33b 69b1 cebb c38b 003c 820e 283c
00000090: 0aed 5739 3ebc d73c 32d8 deba 9d76 aa3c
000000a0: 02a3 cc3b 5113 f63b 0937 1dbc 8de8 113b
000000b0: 70dc 093c 2425 b93b c31f 73bb de4c 0f3d
000000c0: 235e a6ba 2857 7b3c 610d c2bb e8e9 69bc
000000d0: a57c 113c 8d4d 563b da9e a13c 42a1 b23b
000000e0: 9480 b13c c4ac 6bbc 1326 56bb 4045 4ebc
000000f0: dbfb d2ba 78b8 6bbc 12f1 67bc 7828 07bc
0.0015857008 0.006188048 0.011094762 0.011748965 -0.004180054 -0.00718596 0.040596142 0.013859094
0.010886628 -0.013444104 -0.022322156 0.017283099 -0.013533176 -0.00584813 0.0009401987 -0.0041781263
-0.01354413 -0.015529513 0.008870974 -0.022836117 0.015399354 0.021815738 -0.021320235 -0.011430154
-0.01230293 0.016167128 0.0014809679 0.0017344505 -0.0032086628 -0.00086828764 -0.0037435342 -0.00077156286
0.0050043142 -0.00630777 0.007845822 0.010257365 0.00020592302 0.026334878 -0.0017001687 0.020808512
0.006245018 0.007509627 -0.009595641 0.0022263855 0.008414373 0.0056501795 -0.003709779 0.034985416
-0.001269285 0.015340604 -0.005922005 -0.014276959 0.008879815 0.0032700032 0.019729067 0.0054513523
0.021667756 -0.014384452 -0.0032676503 -0.012589753 -0.0016096787 -0.0143872425 -0.014156597 -0.008249395

conv1_7/b f4 [3]
00000000: 459b 643c 86ad 1fbc d92b 2abb
0.013953035 -0.009745961 -0.0025966077

conv1_4/W f4 [32, 64, 3, 3]
00000000: 829b d9bc 5e93 3d3d 14ee a63c 6863 813d
00000010: cf7f a33d ee77 09bd 1fbc 07bd 33a3 dfbb
00000020: 3a4f 023c c4b6 493d c6a3 4bbd bd7e cebc
00000030: 6f65 f23b 03c3 6f3c 5be2 31bd 8d2a eabd
00000040: 7dfb 1abc 1385 bb3c ce1a 17bb 7be2 1ebd
00000050: fdcf a6bd 04ef 053d 6a97 73bd 2e02 883c
00000060: 8ff3 ddbc faef a83d 4967 a8bd 8637 df3c
00000070: af41 86bc 5caa 543c e154 e6bc b27f 5b3c
00000080: 6baa 8c3c c5a8 45bd c3a2 c5bb 552a 143c
00000090: 6dc7 7fbd ff3c 593c 766c 53bc b796 b5bc
000000a0: 79be e5bc 88d4 973c 7c55 a33b 2eab 1d3c
000000b0: a54d 573d 2220 13bc ffca 043d 78d3 ef3b
000000c0: 0a47 89bb 910b 45bc 67be 43bb 3bac 8dbc
000000d0: 399f 1a3c cc04 de3c 5391 6d3d d980 cf3d
000000e0: 01f2 d6ba ced3 76bd 3e23 4d3c 434a 00bc
000000f0: 6809 e83a e8d2 4cbc 55a6 aabd c907 cdbc
00000100: 7ba0 c63d f7bb 8c3c 8217 56bc 35c3 3e3d
00000110: 9400 c53c c5f2 e13b 59bd 39bc f562 33bd
00000120: 3069 9cbd bcf1 373c 0450 18bd f757 063d
00000130: e89f e4bc a6ec 303d 9128 7a3b 3be0 2e3c
00000140: 621d 613c 43d9 48bd 8636 b4bc 5f9d 42bc
00000150: 916e c0bd cc22 973c 8e0b 963d ac76 493d
00000160: 9c10 913c 081d 69bc 1466 d93c 2b20 b23c
00000170: d2ba cf3b d124 ec3a b76e d43c fc80 bebb
00000180: 5127 27bc 872b c0bc bae0 123d e63d c2bb
00000190: a493 3fbd b4be 263d f1a1 bcbd 5a44 d33b
000001a0: 4b3e 053d 0f9b 78bd 0c9e 4b3d 2444 cd3a
000001b0: c97e f63b cc5c 853c 2035 07be 3e6d 1cbd
000001c0: b0b3 1ebd 0c81 1d3b b6a5 82bd dabb a0bc
000001d0: 54bb 11bd fbfd 48ba 302f 31bd 32b1 bebc
000001e0: 5cfb a7bb a619 803d dca5 76bc 3790 94bc
000001f0: 8308 b43c 87ed 3f3d 5901 02bd 6500 a6bd
00000200: 99ce 6bbc 8f24 8ebc 14c2 ab3b fd86 1dbd
00000210: 1f25 483d 4f47 473d a14c 80bc 8ae1 893c
00000220: ff7f 873c ca33 da3c 4d18 00bd 2e86 bd3c
00000230: e107 4e3d aa33 833c affe 9bbd a542 29bd
00000240: 6ac7 47bd 3b2f b23c 7bb7 273b d39b bf3c
00000250: b7f1 e83c 4135 9fbc 210e abbd 47b3 25bd
00000260: eb64 7e3c 933b afbd bc5f bfbc 84d5 273d
00000270: 1528 6ebc 8c2b a73d 3ba5 473d 01ff 863d
00000280: f9cd 0f3d f575 63bd 8e6b cebc 165d f03c
00000290: 5bf9 27bd 1701 b7ba f21b 03bc 2658 1dbd
000002a0: ea13 93bd ce6e 52bb a2e4 b0bc 2a34 263d
000002b0: 312b c73d 87f4 083d 97a8 f3bc fc09 df3b
000002c0: 2768 223c 90f6 0d3c 6144 a53c 28dd 553d
000002d0: 6e61 2abc dbb6 a73b f932 913d 7a41 163d
000002e0: 3a58 8cbc d696 833c dab3 423d 05e1 333c
000002f0: 6934 87bd 5c54 b2bd 9dc4 a13d e3db 38bd
00000300: fbdf c2bc 9aa7 133c 4902 fc3c e747 3cbc
00000310: 12fe 05bd ae8b 0dbd b418 063c 479a 413d
00000320: 2835 903b be38 1ebd df97 033d 3087 2cbd
00000330: dd30 053d 1ded 563d ae40 bf3c 0b02 af3c
00000340: 7102 b13d fdcd 543d 5b59 26bc e006 ceb9
00000350: d69b 973c 9523 febb 7f81 323c ee47 a73c
00000360: 5adf f6bb 6d42 3e3d 73cd 3dbd 6071 233c
00000370: 806a db3c ba94 f23a 72af af3c fd76 1d3d
00000380: 20d1 7ebd 4b4b 82bc 6543 15bd 6884 00bd
00000390: 8e70 36bc 0c06 713d 8adf f93c a45e 5d3c
000003a0: 212a 9dbd 2261 ca3c 8681 573c 2f5a b3bc
000003b0: 1217 863c 0adb cbbc f44a 563d 6757 253d
000003c0: 9dd6 09bd b4e3 a1bc 2a36 89bd 3551 c23d
000003d0: 7450 1fbd c119 b93d bcdc a03c a00b 9b3d
000003e0: c7a6 1dbc 5228 9a3c 8ec2 4d3d a1d7 7bbc
000003f0: d74e 023d 5889 0c3d 879a 63bc 79a3 82bc
-0.02656341 0.04628312 0.020377196 0.06317788 0.07983362 -0.03356164 -0.03313839 -0.006824875
0.007953459 0.049246565 -0.049716733 -0.025206918 0.0073973457 0.014633897 -0.04342876 -0.11433897
-0.009459374 0.022890603 -0.0023056748 -0.038790207 -0.08145139 0.032698646 -0.05947057 0.016602602
-0.027093677 0.08248897 -0.08222825 0.027248155 -0.016388742 0.01298007 -0.028116645 0.013397144
0.017171105 -0.048256654 -0.0060313656 0.009043296 -0.062446047 0.0132591715 -0.012904277 -0.022166593
-0.028044926 0.01853396 0.0049845558 0.009623332 0.052564282 -0.008979829 0.032420155 0.00731891
-0.0041893767 -0.012026683 -0.0029868127 -0.01729404 0.009437376 0.027101897 0.05799992 0.101319976
-0.0016399027 -0.060260586 0.012520609 -0.007830205 0.0017702999 -0.012501456 -0.083325066 -0.025028126
0.09698578 0.017179472 -0.013067128 0.046572883 0.024048127 0.0068953955 -0.011336648 -0.043795545
-0.076372504 0.011227068 -0.037185684 0.032798734 -0.02790828 0.043194436 0.0038171152 0.010673578
0.013739916 -0.049035322 -0.021998655 -0.0118783405 -0.09396089 0.01844921 0.07326423 0.04918544
0.017708115 -0.014228113 0.026537932 0.021743855 0.0063394094 0.0018016343 0.0259317 -0.005813716
-0.010202245 -0.023458255 0.035858847 -0.005927789 -0.04677166 0.040709212 -0.09210575 0.006447357
0.03253011 -0.06069475 0.049711272 0.0015660566 0.007522438 0.0162796 -0.1320386 -0.03819012
-0.038745582 0.0024033217 -0.06379263 -0.019620825 -0.03557904 -0.00076672406 -0.043257892 -0.023277853
-0.0051264 0.06254892 -0.015054192 -0.018135173 0.021976715 0.046857383 -0.031739566 -0.08105544
-0.014392518 -0.017351417 0.005241642 -0.038458813 0.048863526 0.04865199 -0.01566154 0.016831178
0.016540525 0.026636023 -0.031273175 0.02313527 0.050300483 0.016015846 -0.076169364 -0.041323323
-0.04877416 0.021751037 0.002559154 0.023389732 0.028435571 -0.019434573 -0.08352304 -0.040454175
0.01552699 -0.08556285 -0.02336108 0.04097511 -0.0145359235 0.08162603 0.04874156 0.06591607
0.03510854 -0.055532414 -0.02519777 0.029341262 -0.04100929 -0.0013962117 -0.008002268 -0.038414143
-0.07181533 -0.0032109502 -0.021593396 0.04057709 0.09725035 0.033436324 -0.029743476 0.00680661
0.009912527 0.008664742 0.020174207 0.052212864 -0.010399206 0.0051182336 0.070898004 0.036683537
-0.017131913 0.016063135 0.0475348 0.010978942 -0.06601793 -0.087074965 0.07898829 -0.045131575
-0.023788443 0.009012127 0.030762808 -0.011491752 -0.032713003 -0.034557037 0.008184601 0.04726627
0.004400868 -0.038628332 0.032127257 -0.042121112 0.032517303 0.052472223 0.023346271 0.021363279
0.08643044 0.05195426 -0.01015314 -0.00039296504 0.018506926 -0.0077557066 0.010895132 0.020420041
-0.00753395 0.046450067 -0.04633851 0.009975761 0.026784182 0.0018507459 0.021445964 0.038443554
-0.062211156 -0.015905043 -0.036441226 -0.031376272 -0.011135234 0.058843657 0.0305021 0.013511334
-0.07674051 0.02470452 0.013153439 -0.021893589 0.016368423 -0.02488472 0.052317575 0.040366556
-0.033651937 -0.019761898 -0.06699784 0.09488145 -0.038895085 0.09038115 0.019636504 0.07570577
-0.009622282 0.018818054 0.05023437 -0.015371234 0.03181347 0.03431067 -0.013891823 -0.01594709

bn1/gamma f4 [64]
00000000: df29 7f3f 3a7f 7d3f 5b10 7d3f bf01 823f
00000010: d2b7 793f e013 803f 2989 823f 0bfa 7c3f
00000020: 2f1b 803f 4452 823f 771a 813f e7b2 823f
00000030: 4ccd 803f 5bc1 803f 8ee7 833f 5b4f 7c3f
00000040: 9de4 813f afaa 793f f13e 793f 4289 7e3f
00000050: 481e 833f a783 813f 2996 7e3f 1860 7e3f
00000060: ba1a 853f e0f2 763f 523a 7c3f 998f 7d3f
00000070: 25f0 803f 6baa 7b3f a1ee 7b3f 4bc5 7b3f
00000080: 127e 7a3f 2b5c 7c3f 1b04 853f c640 803f
00000090: e02d 7b3f 1439 7c3f 5d67 813f 8375 813f
000000a0: ee99 7d3f 48f3 803f b784 7c3f f75d 803f
000000b0: 4d50 803f 2cf4 793f d308 7f3f 8bb4 803f
000000c0: be6b 7d3f 1ab6 803f c36f 773f 2eea 7d3f
000000d0: a5ba 7f3f d802 7c3f 4bc3 7b3f cc15 7e3f
000000e0: b431 813f d4ff 803f d808 7a3f 1b10 823f
000000f0: b27f 7f3f 8ba3 803f 168e 7d3f 79ea 7f3f
0.99673265 0.9902226 0.9885308 1.0156783 0.9754611 1.0006065 1.0198108 0.98819035
1.0008296 1.0181355 1.0086201 1.0210847 1.0062652 1.0059007 1.030504 0.98558587
1.0147892 0.9752607 0.97361666 0.9942819 1.0243616 1.0118302 0.99447876 0.9936538
1.0398781 0.9646435 0.9852649 0.9904724 1.0073286 0.9830691 0.98410994 0.9834792
0.9784862 0.9857814 1.0391878 1.0019767 0.98116875 0.98524594 1.0109669 1.0113987
0.99063003 1.0074244 0.98640007 1.0028676 1.0024506 0.976382 0.9962284 1.0055097
0.98992527 1.0055573 0.9665491 0.99185455 0.9989417 0.9844184 0.9834487 0.9925201
1.0093293 1.0078073 0.97669744 1.0161165 0.9980422 1.0049909 0.9904493 0.9996715

conv1_4/b f4 [32]
00000000: 9c41 c139 664c 11b8 0b53 f937 3030 b338
00000010: bc43 81b9 92a9 4eba a2c4 ef39 7a4a 7737
00000020: c813 72b9 220a 9eb8 3968 6f37 34cf 90b9
00000030: b9ea 02ba 90b3 c1b9 11a8 b6b7 ff94 6a39
00000040: 7b86 d5ba aab2 3b37 99eb d7b9 d21e 99b7
00000050: a2e4 aeb8 3cce 22b8 b7ad ccb9 ae1d 5539
00000060: 3ea7 02b7 6139 933a cbb3 ce39 6b60 87b8
00000070: f1fe 1c39 a0f1 7d38 eb1c 1f39 4452 8cb9
0.0003686071 -3.4641846e-05 2.9721783e-05 8.544361e-05 -0.00024655263 -0.00078835443 0.00045732135 1.4739688e-05
-0.00023086288 -7.5359145e-05 1.4269776e-05 -0.000276202 -0.0004994083 -0.00036945613 -2.1774353e-05 0.00022371484
-0.0016290689 1.1187667e-05 -0.0004118353 -1.8253373e-05 -8.339553e-05 -3.881588e-05 -0.0003903934 0.0002032432
-7.787543e-06 0.001123231 0.00039425338 -6.455261e-05 0.00014972292 6.054493e-05 0.00015174194 -0.00026764174

conv1_5/W f4 [32, 32, 3, 3]
00000000: f0d7 42bd 5ef2 38bd e1f8 5bbb e04b 74bd
00000010: e6b9 4b3d 20d6 8fba 279c f8bb efad 9f3d
00000020: dd8f 043c 7992 6d3c c8b3 393d 2e05 dfbc
00000030: 70a1 6cbd 4a84 843c c6db 99bc 089a 0fbe
00000040: d435 1b3c 6602 7cbc 4b16 503b 48ba d03c
00000050: efa2 723d 2983 d7bb 605a 45be f860 1f3d
00000060: 96fc 8cbd 2ba8 33be 7704 4b3d 7786 313d
00000070: 46c7 2a3b ce5f 4a3d aa7b cbbb ff38 bf3d
00000080: f61d b7bd 548b 473d 9a19 b93c ad68 d53d
00000090: 5028 2d3b d759 ebbc e6a6 4fbc d817 28bb
000000a0: 409a 7fbd fd4d fe3c 9b4d 24bc c879 9cbc
000000b0: cd7f 223d 5c47 d23c 6e84 34bd c1eb 2c3d
000000c0: b4bd 74bd 2f4e a8bc 3b86 a33c ad55 c9bc
000000d0: e6e0 263d eef2 ef3c d39e ff3c 3b7b 98bd
000000e0: 2aed 47bd 9552 353d 651b 05bd 68b2 973c
000000f0: 5f69 18bd bb2c c93c 5d0c a73d a686 80bc
00000100: 1144 843d 8221 443d 7749 45bd 3e32 07bd
00000110: 5bde 68bd 35b5 213d 74f4 f4bd 2795 e63c
00000120: ff63 e83a f4c1 03bc 6cc7 50bc 4d90 2e3d
00000130: 36e0 99bd 36bf a0bc 4585 443d c463 b3bc
00000140: 241d 93bc f922 bd3c c310 9bbd b9fa 483c
00000150: fd45 aa3c f624 99bb 6248 213d e394 08be
00000160: 8f32 c93c fb32 c739 9d0d 783d 3fe3 7f3d
00000170: b3d2 273d 4e2e a03d efdd 18bd 8a25 ab3c
00000180: 9776 2fbd 7da2 5cbd bcf8 353d 62b4 71ba
00000190: 358b 0cbd d5a8 db3c 78c4 833d 5799 a8bc
000001a0: eabc a03c 3c37 76bd 0df2 e0bb 1d9f 0bbd
000001b0: 2f9c cdbd b662 8fbc acc4 3c3d 969b 9cbd
000001c0: 44b8 64bc 3306 ac3d 4b29 44bb 5d2e 5abd
000001d0: 2298 42bd 079f 083d 9a83 ef3c 6d58 d4bc
000001e0: ade4 133e 44bc 533d 602f 54bc 354e 883c
000001f0: 5167 873c 7b53 bc3c 49e6 b6bd b13b b03d
00000200: b574 423d f5b1 efbc 8ca5 b63d 2716 0fbd
00000210: 2e4b f5bc a877 4e3c c8e5 a7bc 87f0 76bd
00000220: ca3a fb3c e92e 5dbd fbd4 7cbd eede 4ebd
00000230: 698e 173d 4a4d 293c 6056 12bd 85d1 01bd
00000240: 6e36 d23c 0809 203c 4d1d 9abd c89c 73bd
00000250: ff1e 443c 1f60 1ebb 8a9a ff3c af3f 8ebb
00000260: defd 88bc 0802 5ebc f135 8dbd 2090 493c
00000270: 9312 3b3c d016 e0bd 71c4 10be 49d6 00bd
00000280: e593 843d 1a21 12bd 6643 c6bd 1571 3bbd
00000290: f66f 9fbd 8aa2 b13d 4122 153e 1128 5bbb
000002a0: e719 103d ca25 6f3c 2ead d33d d69c 26bb
000002b0: 0475 bd3c 7cc8 533c e0c3 c03c ae1f 8abd
000002c0: 0af3 79bd f5af 9bbd 4b30 50bd 04ef 0e3d
000002d0: 6aec 89ba ff31 613d 8ad6 9bbd ae92 2a3a
000002e0: 9efa 1b3c 1160 b53b 1172 643d bffd 29bc
000002f0: 2064 25bd 724b 003d c9a7 1bbe 6a29 64bc
00000300: 45dd 4fbd ee8d 81bd b971 c03c e765 cc3d
00000310: 52db 6fbc 61a8 c7bc a9b5 373d c571 4abd
00000320: f004 b3bd ed0f 073c 80d6 643d 5a23 8b3d
00000330: ccaf c8bc e461 25bd ea75 41bd dae7 3f3d
00000340: 8ad0 ed3c a99c afbd f580 e5bc 3817 65bb
00000350: 5f48 fa3d b387 703d df48 56bd ed32 603d
00000360: c99a c6bc 5d55 ac3c ee3a cabd 9a8d 71bd
00000370: 2e65 febc 93ab b13d 28c4 5dbc c35c febc
00000380: dab4 c039 4bd6 59bc 5984 9bbd 7428 41bd
00000390: a1eb cc3c 4e50 edbb 003e 513d 20b7 94bd
000003a0: e6ee 9fbd f6d3 653c 2d86 8c3d 4015 263e
000003b0: ff38 b7ba 26d8 ab3c 2ad9 20bd 0c5f 00b9
000003c0: 1499 bd3d fde0 993c 9d11 95bb d8bd 9dbc
000003d0: 7402 bc3d 04ae 8ab9 f3b4 393c a14f 993b
000003e0: c441 b1bd 94a7 94bd dcf1 0d3c 4c86 a63d
000003f0: 7f7f 61bc e991 8b3c 5c11 8d3c dd01 18bd
-0.047569215 -0.045153014 -0.0033565091 -0.059642673 0.049737833 -0.0010973848 -0.007586974 0.07796847
0.00809094 0.014500254 0.04533747 -0.02722415 -0.057771146 0.016176362 -0.018781554 -0.14023602
0.009473283 -0.015381431 0.003175157 0.02547945 0.059237417 -0.006576915 -0.19272757 0.038910836
-0.068841144 -0.1754462 0.049564805 0.043341126 0.0026058718 0.049407773 -0.0062098103 0.09337043
-0.089412615 0.048716858 0.022595216 0.10420356 0.0026421733 -0.028729362 -0.012674069 -0.0025648978
-0.062402964 0.031043047 -0.010028268 -0.019101039 0.03967266 0.025668792 -0.044071607 0.04221702
-0.059751227 -0.020545093 0.019961467 -0.024576986 0.040741824 0.029290643 0.031203663 -0.07445379
-0.04881016 0.04426821 -0.03249683 0.018517688 -0.037209865 0.024557462 0.08156655 -0.015689205
0.06458295 0.047883518 -0.048165765 -0.0330069 -0.05685268 0.039479453 -0.11960688 0.028147293
0.0017729996 -0.0080418475 -0.012742858 0.042618085 -0.07513468 -0.019622426 0.04797866 -0.021898158
-0.017958231 0.023087965 -0.075715564 0.012266808 0.020785326 -0.0046735955 0.03937567 -0.13338046
0.024560241 0.0003799422 0.060559858 0.06247258 0.040972423 0.07821332 -0.037321027 0.020891923
-0.042837705 -0.0538659 0.044426665 -0.00092202995 -0.034312446 0.026813904 0.06433958 -0.02058093
0.019621331 -0.06011127 -0.006864792 -0.03408729 -0.10039555 -0.017503124 0.046086 -0.07646863
-0.013959948 0.0839962 -0.002993184 -0.05326687 -0.047508366 0.033354785 0.029237557 -0.025921071
0.14442702 0.051693216 -0.012950748 0.016638855 0.016528757 0.022989025 -0.08930642 0.08605135
0.04747458 -0.029259661 0.08918294 -0.034933235 -0.029943075 0.01260177 -0.02049531 -0.06028798
0.030667681 -0.053999815 -0.06172655 -0.05050557 0.037001047 0.010333369 -0.035726905 -0.031693954
0.02566072 0.009767778 -0.0752512 -0.05947569 0.011970281 -0.002416618 0.03120162 -0.004341088
-0.016722616 -0.013550289 -0.06895054 0.0123024285 0.011418003 -0.10941851 -0.14137436 -0.03145436
0.06473521 -0.0356761 -0.09680824 -0.04576214 -0.07785027 0.0867358 0.14563848 -0.003344063
0.035180952 0.014596412 0.10335766 -0.0025423071 0.023127086 0.012926217 0.0235309 -0.06744324
-0.061022796 -0.076019205 -0.050827306 0.03489591 -0.0010522727 0.05497932 -0.076092795 0.00065068423
0.009520201 0.0055351336 0.055772845 -0.010375439 -0.04037869 0.03132195 -0.15200724 -0.0139258895
-0.05074813 -0.06325899 0.023491727 0.09980374 -0.014639692 -0.024372282 0.04485098 -0.049424905
-0.08741176 0.008243543 0.055868626 0.06793852 -0.024497889 -0.04037656 -0.047231592 0.04685197
0.029030103 -0.085748024 -0.028015593 -0.0034956466 0.12220835 0.058723163 -0.05231559 0.054736067
-0.02424373 0.021036798 -0.09874521 -0.058972932 -0.031054106 0.08675303 -0.013535537 -0.031050092
0.0003675584 -0.01329572 -0.07593603 -0.04715772 0.0250147 -0.007242239 0.05108452 -0.07261491
-0.07809238 0.014027586 0.068615295 0.16219044 -0.0013978778 0.020977091 -0.039269604 -0.00012242439
0.09257713 0.01878404 -0.004549219 -0.019255564 0.091801554 -0.00026451063 0.011334646 0.004678682
-0.08655122 -0.072585255 0.008663621 0.08131084 -0.013763308 0.017037349 0.017220192 -0.037111152

bn5/beta f4 [32]
00000000: 9f99 e53b e933 b63b 9fac e2bb b062 da3b
00000010: 7476 a53c b91c 43bc e206 b93c fa66 2f3b
00000020: 195f e23c 0994 8e3c 555e 8b3c 0848 bb3c
00000030: 2caa 923c ffeb 5a3c 8ba0 12bc 9f91 0abc
00000040: fcb4 7039 108a 613c d294 10bb 430a 37bc
00000050: 0c0e 143c a793 043c 256e 00bc da88 72bc
00000060: e1d4 de3c 9ed5 793c cddc 343b 8d81 8b3c
00000070: df24 0e3d 0b5d a43c 5d70 9cbb 1442 873c
0.0070068385 0.0055603874 -0.0069175507 0.0066645965 0.020198084 -0.0119087035 0.02258629 0.002676426
0.027633237 0.017404573 0.017012754 0.022861496 0.01790341 0.01336193 -0.008949409 -0.00845757
0.00022955606 0.013765827 -0.002206136 -0.01117188 0.009036552 0.008091844 -0.0078387605 -0.014803136
0.027201118 0.015248684 0.0027597428 0.017029548 0.03470313 0.020063898 -0.004774137 0.016511

bn2/gamma f4 [64]
00000000: a742 813f a14d 783f ec41 783f d1ae 803f
00000010: 37b3 7c3f 5cd6 803f 1930 813f 53be 7e3f
00000020: bd10 823f 17e3 7d3f 818a 7f3f b59e 7f3f
00000030: c7cb 7c3f 4d6d 7c3f 02e7 7b3f c102 823f
00000040: e04c 7d3f 825b 7f3f 6d1f 7d3f 61b0 7e3f
00000050: 595c 803f 8ebb 813f b723 7a3f f922 813f
00000060: 224c 803f dada 813f 9dbe 803f 9c05 793f
00000070: 8fa5 7a3f c715 823f 0760 843f 0531 7d3f
00000080: b6d8 7e3f 1c95 7d3f f1e8 803f 020f 813f
00000090: 81ce 7e3f 9ca9 7c3f b761 813f cdf4 7f3f
000000a0: 9ddf 833f 3233 813f 0ce1 793f e7ab 803f
000000b0: 4e01 823f 4f2f 823f 9783 803f 837b 823f
000000c0: 8592 803f baf7 7a3f ef40 803f 8ce6 793f
000000d0: 87fa 843f 9f12 803f 8c0e 823f 4198 7d3f
000000e0: 0cf0 7f3f e4ab 7c3f b6a4 7d3f c9b3 7e3f
000000f0: 61fd 783f 6f7c 813f fe4d 823f 5ab8 7b3f
1.0098466 0.9699345 0.9697559 1.005335 0.9871096 1.0065417 1.0092803 0.9950916
1.0161358 0.99174637 0.99820715 0.9985154 0.9874844 0.9860428 0.98399365 1.015709
0.98945427 0.99749005 0.98876077 0.9948788 1.0028182 1.0135362 0.97710747 1.0088798
1.0023234 1.0144913 1.005817 0.97274184 0.9790887 1.0162896 1.0341805 0.9890292
0.99549425 0.9905565 1.0071088 1.0082705 0.9953385 0.98696303 1.0107945 0.9998291
1.0302616 1.0093749 0.9760902 1.005246 1.0156648 1.0170687 1.0040158 1.0193943
1.0044714 0.9803425 1.0019816 0.9761741 1.0388955 1.0005683 1.0160689 0.99060446
0.9997566 0.98699784 0.99079454 0.9949308 0.97261626 1.0116099 1.0180051 0.98328173

conv1_2/b f4 [64]
00000000: 4d51 3cb8 cdfb 42b6 36e9 8a38 d85e 0739
00000010: 05ac 1cb8 1c08 7036 5c20 14b9 6457 8f39
00000020: 88cc 01b8 7d9c d037 3cf9 cf38 aeb2 2a38
00000030: 6b34 1a38 5ae7 8cb8 9a3f 89b9 af16 6437
00000040: d0b6 6eb9 f129 1039 5d52 15b8 6bde 1eb9
00000050: 946e fd37 5ac7 5fb9 fe81 0239 1577 0938
00000060: 866a 06b9 fb88 a8b8 f0bc 73b7 0511 e038
00000070: 25f8 b838 e4a3 5a38 95e6 3539 01c2 4eb9
00000080: bf75 55b7 e6cb 73b7 7469 1038 00cc cd38
00000090: 4bb6 8538 5bb1 7039 b237 5c37 da36 b3b8
000000a0: 7cfc c5b5 0e2f 65b8 16f1 0eb8 3be0 a537
000000b0: 3aa4 eeb8 d3f8 34b9 42d5 abb8 dd8a 1637
000000c0: 1c6e de37 2f32 8337 f707 c038 66ef 46b7
000000d0: bd70 1c39 2f61 4b38 e625 a9b8 4ba4 f1b7
000000e0: f8e6 e2b8 b535 0139 68d1 40b9 8d49 8db8
000000f0: c0c1 3c38 cfe5 4a39 8fa5 5fb9 a955 9938
-4.489841e-05 -2.905482e-06 6.623792e-05 0.00012909935 -3.7353504e-05 3.5767507e-06 -0.00014126435 0.00027340197
-3.094648e-05 2.4868403e-05 9.916953e-05 4.0697567e-05 3.676528e-05 -6.718813e-05 -0.00026178063 1.359514e-05
-0.00022765552 0.00013748535 -3.5601075e-05 -0.00015150911 3.0211442e-05 -0.00021341202 0.00012446192 3.277425e-05
-0.00012818919 -8.036379e-05 -1.4527919e-05 0.000106843225 8.820024e-05 5.2127885e-05 0.00017347404 -0.00019717963
-1.2723204e-05 -1.45314025e-05 3.4430486e-05 9.81316e-05 6.375889e-05 0.00022954254 1.3125989e-05 -8.545602e-05
-1.4751126e-06 -5.4641678e-05 -3.4079967e-05 1.9773948e-05 -0.00011379314 -0.00017258832 -8.193638e-05 8.973028e-06
2.6515736e-05 1.5639785e-05 9.156757e-05 -1.1857459e-05 0.00014919318 4.848948e-05 -8.065607e-05 -2.8805944e-05
-0.00010819541 0.00012322406 -0.00018388557 -6.737104e-05 4.5003137e-05 0.00019349832 -0.00021328613 7.311564e-05

bn2/avg_var f4 [64]
00000000: 9a5b a33e e4ac 143f 553d e63e e7e7 f13e
00000010: 04ba d53e ea33 b33e 7172 b53e 0e56 a83e
00000020: b334 c23e 0358 d13e f8f9 cf3e 34b7 da3e
00000030: 3aaf f53e 39d7 8a3e 322a e33e c823 b93e
00000040: 89e2 c53e 106d cc3e 2482 173f 8cad dc3e
00000050: 78fc 0e3f d3da ba3e b62e c93e 096e ba3e
00000060: 5542 c13e 3471 de3e 536d a73e a378 893e
00000070: 819d ed3e f015 a83e 9e74 c13e d494 b13e
00000080: 9e10 ba3e c74c 053f d4fe c43e 0d06 d33e
00000090: b479 d43e d0bb 0d3f cfbe ba3e f041 b03e
000000a0: ed95 143f 19ef ab3e 40a9 bc3e 5285 f13e
000000b0: 0a24 d03e de14 b03e 077e c93e 10b8 ca3e
000000c0: 49ca 003f 8e8a 953e 5097 bf3e 8878 c33e
000000d0: 92f5 c03e 92ad ee3e 5696 d43e 1974 c13e
000000e0: 9fc5 c73e cf63 be3e 961e 9e3e 91fe 9a3e
000000f0: c32b 153f b74f c53e fc63 e03e 0394 ec3e
0.31905824 0.5807631 0.44968668 0.4724724 0.4174348 0.35000545 0.35438874 0.32878155
0.3793083 0.4088746 0.406204 0.42717898 0.4798525 0.27117327 0.4436813 0.3616011
0.38649395 0.39926958 0.59182954 0.43101156 0.55853987 0.36495075 0.3929345 0.36412075
0.3774592 0.43445742 0.32700595 0.2684985 0.46409228 0.32829237 0.37784284 0.3468386
0.36340803 0.5207028 0.38475668 0.41215554 0.41499102 0.55364704 0.364737 0.34425306
0.5804127 0.33580855 0.36847878 0.47172028 0.40652496 0.3439092 0.39353964 0.39593554
0.5030866 0.2920727 0.3742013 0.38177896 0.37687355 0.466168 0.41520947 0.37783888
0.3901796 0.37185523 0.3088271 0.30272344 0.582699 0.3853738 0.43826282 0.46206674

bn6/beta f4 [32]
00000000: 976e 733c 365c ba3c 6e35 18bc e0f6 a73c
00000010: 1098 563c b028 36bc e251 d13c 1c0a 46bb
00000020: 4de4 6a3c 5c74 cfba b18c e23c 9218 ff39
00000030: a78c 923c 9742 853c 93c4 33bc e132 cfbb
00000040: 91d3 dbbb 7f52 d63c f8ba 823b d141 47bc
00000050: fa12 5c3c 8b4d b6bb 41db dd3b b99e 9bba
00000060: 7a84 303d dd2e 4f3c 026b 3d3c 06ae a73b
00000070: fd7d b93c 3f85 653c 06f0 acbb f37a a73c
0.01485791 0.022749048 -0.009290082 0.020503461 0.013097778 -0.011118099 0.02555174 -0.0030218428
0.014336658 -0.0015827524 0.027654978 0.00048655696 0.017889334 0.016267104 -0.01097216 -0.006323204
-0.0067085703 0.026162384 0.0039895736 -0.012161688 0.013432259 -0.005563443 0.006770522 -0.0011872865
0.04309509 0.01264545 0.011561157 0.0051171808 0.022643084 0.014008819 -0.0052776365 0.020444369

conv1_7/W f4 [3, 32, 3, 3]
00000000: a5b5 ae3b 11c8 2a3d fcb6 443d c299 783b
00000010: a4e4 843c 19c5 b6bc 1e93 833c 616a 5b3d
00000020: 012b ab3c 0ef6 88bc 59b5 713c f2f6 b23d
00000030: cff6 cd3c 380e 9d3c 4f71 813d 8ad0 303d
00000040: 6c56 a3bd 749e f7b9 ee1b f73d 135d cbbc
00000050: 7f02 a93c 88b9 e33c 529d 6abb 6ae2 403d
00000060: 4918 7dbd 4264 6abd 0bdc 89bd 178d 55bd
00000070: 5f37 b03c 02dc 693d e4e3 2e3c ffca cdbc
00000080: 97f3 e9bc 7b30 ddbc f9e2 0f3e f43b 06bd
00000090: fdd1 aa3d eb1a 633d efa8 8c3d 3837 263d
000000a0: a345 ee3d 40d7 133e 177f 2c3d a89c 2abd
000000b0: 9ca5 493c f502 1dbd bee2 aebd 8215 e33d
000000c0: f566 863d 51ba aebd b705 253d 07b5 10ba
000000d0: 709f f7bb 8aa8 16bd 1499 543d ca99 4bbd
000000e0: 8094 383b 50dd 05bd 2e86 fa3d 323b 96bd
000000f0: 71fa e4bb 584a 023e f383 56bd de26 2ebd
00000100: 8153 513d 6099 12bd 70f8 1abd 946b e4bd
00000110: 175c 753d 8891 6bbd 5ce8 953d 3dae 5c3d
00000120: 4f6b 37ba d549 9b3d 9de5 c33d aaa6 d93c
00000130: 7db0 163d 1260 8ebd 3bf3 cebd 3f10 313e
00000140: 9b0f 4e3c cfb4 ae3d 1b48 7f3d 7f34 6fbc
00000150: 4f3d 8a3d fed5 dc3d f207 cebc 9da5 5f3d
00000160: ee7f 8f3c 9d04 b8bc 2411 80bd ef23 563d
00000170: 108b 393d af94 1c3d bdbe bb3d cdac 85bd
00000180: 09dd 173e f6cf 1e3d ac66 4abd 77c2 eebc
00000190: 5f9e 1dbd 538b 2cbd 1995 153c c052 f33d
000001a0: 649e 0d3d 1ad4 ea3b 69b5 113d 1660 0d3d
000001b0: 485a dfbd 2807 9cbb 70f9 273e ec0c 3a3d
000001c0: df47 003e fe8e bd3d 32b6 9c3d 13ce 9a3d
000001d0: 9a2c e5bc ae26 403c af92 d63d 6bc4 d33d
000001e0: a35a 1f3c 148d 593d 470c 7d3d 623f 083e
000001f0: 4519 cbbd 567f a7bd b734 9d3c 5ff2 ecba
00000200: ea3c c53b 42ad 42bd c14e 22bc 39c4 33bd
00000210: ade2 38bd 5b9d 8d3d 5ead 8aba ab83 963d
00000220: 9bd6 613c 6e95 e63c 88b9 26bd 6cbf 2fbd
00000230: a293 23bd 77e8 453d f77a 3d3c 96bd de3b
00000240: 853f 4ebd 9972 93bd 2d52 04be 0b39 a7bd
00000250: 6de9 a23c 3dcc 08bd 9494 783c b0aa 283e
00000260: 61fc c6bb 5b4f c13d 0269 9d3d 9725 83bb
00000270: 10cc 433e de98 913c f084 643d 57f8 deba
00000280: cd44 0cbe 7d02 783c b180 963d 18e0 623d
00000290: 4d5e 533c af32 5e3d b580 e9bc bebf 1fbd
000002a0: 505b 14bd bfaf de3c 0f45 c63c 4dbc bd3c
000002b0: 1aa2 84bc b60d 283e 6f19 adbd 8403 dfbd
000002c0: 0dd7 33bd d9d6 77bd e618 78ba 5659 30bb
000002d0: 950c 9a3d 6753 03bd 27e9 d939 a087 7dbd
000002e0: 2cb7 183d 781b 7bbd 5799 50bc 5731 be3c
000002f0: c1d9 1a3e 195d dabb fd49 44bb 4782 b23c
00000300: e083 703b ea89 7b3d 2702 a3bd fe25 cabc
00000310: 5281 f1bd 25cc 8a3d 5fcd bb3d ec4d 88bb
00000320: b0f6 edbc 2d11 933d fedd 9cbd 4771 98bd
00000330: eba1 0b3d 8d59 0bbc e880 fc3c de03 d9bd
00000340: f4bc 153d 19e4 0cbd e057 48bc cc5a 3f3d
00000350: b1ec 9ebc 9597 2cbb fac4 36bd c42a b03d
00000360: 826f 84bd 743a db3c b21e 96bd 346d 22bd
00000370: 21d8 e33c 7757 f33d b41d ea3c 0df2 f3bc
00000380: 74e6 623d 387e 4ebd d223 31bd 3a53 f23d
00000390: 65be bd3c 1fd1 3d3d bfa8 c43d 2420 923d
000003a0: d869 ac3d ce6f c33d ba1c a5bd f347 07bd
000003b0: b774 18bd a55b a23d a2ea a83d 5b5f 823b
000003c0: 9350 20bd f71a 893d b322 d63c ec58 61bd
000003d0: 6f4a 3bbc de06 593d 2756 a6bd 63ad 3bbd
000003e0: 14d4 3e3e 2fab 36bd f383 95bd 067d 3cbc
000003f0: dbdb 993c 680c 55bc 78a0 c5bc 7b88 293d
0.0053317123 0.041694704 0.04802607 0.0037933444 0.016222306 -0.02231078 0.016061362 0.053568248
0.02089453 -0.01671889 0.014752709 0.08738507 0.025142102 0.01917182 0.0632044 0.04316763
-0.07975468 -0.00047229568 0.12065874 -0.024824655 0.020631073 0.02779843 -0.0035799337 0.047090925
-0.06179074 -0.05722452 -0.06731423 -0.052136507 0.021510778 0.05709458 0.010674451 -0.02512121
-0.028558536 -0.027000656 0.14051427 -0.03277202 0.08340833 0.055445593 0.06868159 0.040580004
0.11634376 0.1443758 0.04211339 -0.041653305 0.012307551 -0.0383329 -0.085393414 0.11088087
0.06562606 -0.08531631 0.040288653 -0.0005520139 -0.007556848 -0.036781825 0.0519038 -0.04970721
0.0028164685 -0.032681763 0.12232624 -0.07335509 -0.0069878628 0.12723672 -0.05237193 -0.042517535
0.051105026 -0.0357908 -0.037834585 -0.111533314 0.059902277 -0.057511836 0.0731971 0.053877104
-0.0006996886 0.07582442 0.0956528 0.02656873 0.036789406 -0.06951918 -0.10104986 0.17291354
0.012576963 0.0853058 0.062324625 -0.014599918 0.06749975 0.10783003 -0.025150273 0.0546013
0.017517056 -0.022463137 -0.06253269 0.052280363 0.045298636 0.038227733 0.0916724 -0.065271
0.14830412 0.038772546 -0.04941432 -0.029145462 -0.038481113 -0.042125057 0.009129786 0.11881018
0.03457488 0.0071663978 0.035573397 0.034515463 -0.10905892 -0.0047615953 0.16403747 0.04542248
0.12527417 0.09255789 0.076519385 0.07558837 -0.02797537 0.011727972 0.104771964 0.10340198
0.009726199 0.05311306 0.061779287 0.13305429 -0.09916929 -0.08178584 0.019190175 -0.0018077603
0.0060192244 -0.047528513 -0.009906472 -0.043888304 -0.04513805 0.06914779 -0.0010580232 0.073493324
0.013784076 0.028147426 -0.04070428 -0.042907164 -0.039935715 0.0483174 0.011564962 0.0067975027
-0.050353546 -0.07199592 -0.12921973 -0.08165177 0.019886697 -0.0333979 0.015172143 0.16471362
-0.0060725664 0.09438964 0.07686044 -0.004002284 0.19120812 0.017773088 0.05579084 -0.0017011267
-0.1369812 0.015137312 0.07348765 0.055389494 0.012900901 0.054247554 -0.028503755 -0.03900122
-0.036219895 0.027183412 0.024202852 0.023161078 -0.016190577 0.1641148 -0.08452117 -0.108893424
-0.04390626 -0.06050763 -0.00094641594 -0.0026908717 0.07521931 -0.03206196 0.00041563177 -0.06189692
0.03728406 -0.061305493 -0.012731872 0.023216886 0.15122129 -0.00666393 -0.0029951327 0.021790637
0.0036699697 0.061410822 -0.07959395 -0.02467632 -0.11792244 0.06777219 0.09170031 -0.0041596796
-0.029048294 0.071810104 -0.07659529 -0.07443481 0.034089964 -0.008505237 0.030823186 -0.10596441
0.036557153 -0.03439722 -0.012227982 0.04671745 -0.019399973 -0.0026335467 -0.044621445 0.08601907
-0.06466581 0.026761271 -0.073300734 -0.039654925 0.02781302 0.11881917 0.028578617 -0.029778505
0.05539556 -0.05041334 -0.04324705 0.118322805 0.023162076 0.04634201 0.09602498 0.071350366
0.084186256 0.095428094 -0.0806212 -0.0330276 -0.037220683 0.07927636 0.08247878 0.0039786524
-0.03913934 0.06694596 0.026139593 -0.055016443 -0.011431321 0.052985065 -0.08121901 -0.04581965
0.18635589 -0.044596847 -0.07300558 -0.011504417 0.018781593 -0.013003446 -0.024124369 0.041389924
