loto6_cnn/loto6_30_730.model (npz, 491100 bytes, 38 tensors)

bn1/beta f4 [64]
0.052927464 0.012837672 0.025744706 0.074512735 -0.0132277375 0.048718702 0.11570318 0.0202114
0.012684538 0.06818096 0.08723474 0.083200246 0.045290124 0.065911435 0.09300535 0.054059893
0.098701894 0.037305355 0.019091764 0.046748977 0.066220894 0.051662624 0.057876486 0.0071761445
0.08374688 0.043188844 -0.008501235 0.036656935 0.07827911 0.008750428 0.055465423 0.010111028
0.014902989 0.02324551 0.079423465 0.039120678 0.006857107 0.030332481 0.101215355 0.09827465
0.021783851 0.06164761 0.028129784 0.030747933 0.048416246 -0.004892763 -0.00525431 0.091199115
0.018898455 0.08375267 -0.015999403 0.015431705 0.06892428 0.039673205 0.07024519 0.036555246
0.09036812 0.045413863 -0.017372528 0.11709503 0.05381984 0.022176167 0.06187222 0.029309489
00000000: 78ca 583d 1955 523c 90e6 d23c 229a 983d
00000010: 27b9 58bc 438d 473d caf5 ec3d 6192 a53c
00000020: cfd2 4f3c 76a2 8b3d 21a8 b23d e464 aa3d
00000030: 2382 393d 93fc 863d 9779 be3d e86d 5d3d
00000040: 3824 ca3d 80cd 183d 5566 9c3c db7b 3f3d
00000050: d29e 873d 309c 533d e50f 6d3d dd25 eb3b
00000060: 7c83 ab3d c9e6 303d c448 0bbc 9525 163d
00000070: cc50 a03d f55d 0f3c b62f 633d baa8 253c
00000080: ab2b 743c 5e6d be3c c5a8 a23d 013d 203d
00000090: 95b1 e03b d37b f83c ff49 cf3d 3844 c93d
000000a0: 0c74 b23c 3482 7c3d 6f70 e63c 17e3 fb3c
000000b0: 1d50 463d 7953 a0bb 592c acbb 9ac6 ba3d
000000c0: efd0 9a3c 8586 ab3d 2e11 83bc 43d5 7c3c
000000d0: 2c28 8d3d 5f80 223d b6dc 8f3d f4ba 153d
000000e0: ec12 b93d e303 3a3d d550 8ebc 85cf ef3d
000000f0: 3172 5c3d cbaa b53c ba6d 7d3d 741a f03c

bn3/gamma f4 [64]
1.0837977 1.0990323 1.0869284 1.0736974 1.0174178 1.0506418 1.0509703 1.0207304
1.0500094 1.0202214 0.99426824 1.0226005 1.014961 1.0568534 1.0304857 0.9960657
0.9971192 1.0046326 1.055357 0.99060154 1.0284911 1.0381757 1.0064034 1.0158098
1.0159472 1.0108113 1.012929 1.0113205 1.0230032 1.019515 1.0006013 1.0502175
1.0156273 1.0159487 1.0328546 1.0284419 1.0120587 1.0842094 1.1025119 1.0382863
1.0215274 1.0229604 1.0185909 1.037098 1.0487597 1.0375469 1.0126356 1.0598674
1.0174835 1.0361778 1.0088441 1.0011597 1.0190465 0.9906522 1.0613606 1.1079943
1.0334066 1.0172311 1.000991 1.0243332 1.0138524 1.0220824 1.1092831 1.0145148
00000000: e2b9 8a3f 17ad 8c3f 7820 8b3f eb6e 893f
00000010: bf3a 823f 6e7b 863f 3286 863f 4ba7 823f
00000020: b566 863f 9d96 823f 5d88 7e3f 93e4 823f
00000030: 3eea 813f f946 873f f5e6 833f 29fe 7e3f
00000040: 3443 7f3f cd97 803f f015 873f 1098 7d3f
00000050: 99a5 833f f1e2 843f d4d1 803f 0e06 823f
00000060: 8f0a 823f 4462 813f a8a7 813f f372 813f
00000070: c5f1 823f 787f 823f b413 803f 876d 863f
00000080: 1300 823f 9b0a 823f 9434 843f fca3 833f
00000090: 248b 813f 60c7 8a3f 1c1f 8d3f 91e6 843f
000000a0: 69c1 823f 5ef0 823f 3061 823f a1bf 843f
000000b0: c23d 863f 56ce 843f 0b9e 813f bca9 873f
000000c0: e63c 823f 79a1 843f ce21 813f 0026 803f
000000d0: 1e70 823f 629b 7d3f aada 873f c2d2 8d3f
000000e0: ab46 843f a134 823f 7920 803f 5a1d 833f
000000f0: eac5 813f 99d3 823f fdfc 8d3f 9fdb 813f

bn4/beta f4 [32]
0.03788831 0.07140601 0.020172525 0.08498703 0.060287412 0.060115032 0.14013591 0.03818209
0.12449879 0.15685642 0.093421705 0.08475349 0.06876256 0.09664979 0.0049810354 0.022193357
0.018513594 0.08006895 0.052520726 0.01607325 0.0754688 -0.005029448 0.0021301028 0.05984929
0.08627591 0.06421213 0.09656414 0.005726378 0.0712988 0.13940382 0.09279146 0.09074383
00000000: c630 1b3d 503d 923d da40 a53c ae0d ae3d
00000010: efef 763d 2e3b 763d ca7f 0f3e d364 1c3d
00000020: 39f9 fe3d f89e 203e e153 bf3d 3d93 ad3d
00000030: 63d3 8c3d 53f0 c53d f437 a33b d8ce b53c
00000040: d2a9 973c 31fb a33d f91f 573d 0cac 833c
00000050: 638f 9a3d 11ce a4bb 3299 0b3b 8724 753d
00000060: 6db1 b03d a681 833d 6bc3 c53d 57a4 bb3b
00000070: 1b05 923d e0bf 0e3e 7309 be3d e7d7 b93d

bn2/avg_mean f4 [64]
-0.29085794 -0.705487 -0.9155203 -1.2344847 0.07459544 -0.4610607 -1.2824024 -1.4222902
-0.4801594 -1.5119364 -0.3878956 -0.4014678 -0.83151543 -0.80112344 0.8439525 -1.0202472
-0.62367153 -0.88137627 -0.93462926 -1.077673 -0.83822954 -1.4725709 -0.38564467 0.04479359
-0.9663153 -0.8813879 -0.77910715 -0.6389036 0.33080536 -0.38890913 -0.039564237 -0.93320745
0.03759088 0.25096068 0.07426779 -1.511345 -0.38978425 0.10197277 -0.16926092 -0.25791422
-0.99106026 -0.14371602 -0.9045606 0.45445788 -0.8828279 -0.9729302 -0.48835647 -1.3216468
-0.88381934 -0.8312022 -0.8687276 -0.009432957 -1.3309466 -0.942741 -0.873412 -0.081360005
-1.2393671 -1.0921024 -0.53990984 0.2913168 -0.13092643 -1.3589324 -1.130196 -1.1440818
00000000: 55eb 94be cc9a 34bf 8a5f 6abf 9803 9ebf
00000010: 7ec5 983d 2610 ecbe c325 a4bf 9b0d b6bf
00000020: 74d7 f5be 2287 c1bf 419a c6be 308d cdbe
00000030: 32de 54bf 6d16 4dbf 450d 583f 7697 82bf
00000040: f0a8 1fbf e0a1 61bf dd43 6fbf 30f1 89bf
00000050: 3696 56bf 347d bcbf 3873 c5be 7c79 373d
00000060: 7160 77bf a3a2 61bf 9173 47bf 308f 23bf
00000070: 525f a93e 191f c7be 1c0e 22bd afe6 6ebf
00000080: e5f8 193d eb7d 803e b619 983d c173 c1bf
00000090: cd91 c7be 1ad7 d03d bc52 2dbe 550d 84be
000000a0: 20b6 7dbf 4b2a 13be 4991 67bf b4ae e83e
000000b0: 0201 62bf f411 79bf dc09 fabe b92b a9bf
000000c0: fc41 62bf abc9 54bf ef64 5ebf b08c 1abc
000000d0: 755c aabf 7957 71bf ee97 5fbf 13a0 a6bd
000000e0: 95a3 9ebf 03ca 8bbf 8837 0abf 7a27 953e
000000f0: 9411 06be 7ff1 adbf 43aa 90bf 4671 92bf

conv1_6/b f4 [32]
-0.0001706754 0.00019719466 -0.0007444005 -0.00054102886 -0.00090008817 -4.141931e-05 1.1033265e-05 0.0006999483
-0.000425522 -0.00018955686 7.742444e-05 0.0005668679 -0.00029554073 -0.0006128141 0.00024002783 0.00021193549
0.00060039945 -0.0001765487 -0.00077594235 -0.0004693714 0.0007414496 -0.00019733595 0.00037931735 9.0582456e-05
-0.00015746558 0.0011199792 4.809421e-05 -0.000120265286 -0.00025337772 0.00017697905 0.00031581876 0.00025884787
00000000: 54f7 32b9 0ac6 4e39 df23 43ba d5d3 0dba
00000010: e5f3 6bba a5b9 2db8 831b 3937 bc7c 373a
00000020: 9918 dfb9 c8c3 46b9 ee5e a238 dc99 143a
00000030: cef2 9ab9 42a5 20ba fbaf 7b39 003b 5e39
00000040: 2064 1d3a ee1f 39b9 9c68 4bba f715 f6b9
00000050: d75d 423a f7eb 4eb9 1ddf c639 16f7 bd38
00000060: 581d 25b9 44cc 923a c4b8 4938 ef36 fcb8
00000070: c8d7 84b9 7493 3939 7a94 a539 f9b5 8739

conv1_5/b f4 [32]
-0.00037938598 9.6984106e-05 0.0006112794 0.00014332426 -0.0002879705 0.0002691966 0.00015972597 -0.00014958801
0.00014510307 -0.00017212522 -0.00036724578 0.0002650903 -0.00045224998 0.00034733114 3.526419e-05 0.00063164445
3.3181783e-05 0.0004537885 0.00021880164 -0.00037114602 0.00010759693 0.00040935262 -0.0017144742 -0.00015608339
-2.4465937e-05 0.0004886961 0.00014657447 0.0003721936 0.00024368994 -0.00044200636 3.064831e-05 0.00012584633
00000000: 53e8 c6b9 f263 cb38 443e 203a 5049 1639
00000010: bffa 96b9 f522 8d39 1d7c 2739 bada 1cb9
00000020: cf26 1839 837c 34b9 e58a c0b9 d1fb 8a39
00000030: f71b edb9 ff19 b639 a3e8 1338 f194 253a
00000040: ab2c 0b38 76ea ed39 1e6e 6539 6096 c2b9
00000050: a9a5 e138 619e d639 35b8 e0ba 51aa 23b9
00000060: 333c cdb7 d71b 003a c9b1 1939 fb22 c339
00000070: 0587 7f39 17bd e7b9 5f8c 0038 9ef5 0339

bn3/avg_var f4 [64]
0.29087973 0.6877624 0.5081434 0.5606629 0.41601455 0.29286852 0.79567343 0.31829223
0.39498642 0.34731942 0.33694 0.33355278 0.46326783 0.26136926 0.6228645 0.34838104
0.27860135 0.35499018 0.3719555 0.5603947 0.33739436 0.35854816 0.33466643 0.46498182
0.34933573 0.40915215 0.28002664 0.54341847 0.32471398 0.27462748 0.41022298 0.4451383
0.34939185 0.39210185 0.34536093 0.36754102 0.411117 0.5092946 0.7470551 0.32618856
0.3336306 0.25011063 0.31242025 0.27509934 0.36342394 0.3025173 0.22482927 0.57571566
0.3349588 0.35397375 0.41011742 0.3353258 0.6051134 0.30639693 0.3293629 0.7262663
0.42288777 0.22160602 0.33736697 0.33848256 0.53879684 0.2701918 0.62183225 0.4925918
00000000: 30ee 943e 3211 303f b015 023f 9b87 0f3f
00000010: dcff d43e ddf2 953e 41b1 4b3f 33f7 a23e
00000020: a93b ca3e dad3 b13e 6683 ac3e 6ec7 aa3e
00000030: 7131 ed3e 31d2 853e 0c74 1f3f 005f b23e
00000040: d6a4 8e3e 46c1 b53e f470 be3e 0776 0f3f
00000050: f4be ac3e a093 b73e 6659 ab3e 1912 ee3e
00000060: 22dc b23e 647c d13e a75f 8f3e 791d 0b3f
00000070: e940 a63e f99b 8c3e bf08 d23e 2be9 e33e
00000080: 7de3 b23e 93c1 c83e 26d3 b03e 562e bc3e
00000090: ed7d d23e 2261 023f 013f 3f3f 3002 a73e
000000a0: a1d1 aa3e 800e 803e 8cf5 9f3e d2d9 8c3e
000000b0: b412 ba3e 8ce3 9a3e a539 663e 1a62 133f
000000c0: b87f ab3e 0c3c b53e e9fa d13e d3af ab3e
000000d0: b6e8 1a3f 0fe0 9c3e 41a2 a83e 97ec 393f
000000e0: bf84 d83e b0ec 623e 5dbb ac3e 964d ad3e
000000f0: 97ee 093f 9456 8a3e 6630 1f3f fe34 fc3e

conv1_3/W f4 [64, 64, 3, 3]
-0.016064137 -0.08723873 -0.006325756 0.08722984 -0.042731218 0.039401673 0.021923132 0.026075428
0.013762734 -0.01059957 0.019284144 -0.09319128 -0.030897995 0.04332091 -0.005538422 0.0027496503
-0.054543905 0.02522958 -0.06194747 -0.060923994 0.012083131 -0.006894083 0.019150874 0.029051062
-0.019733641 -0.057422627 -0.07002195 0.0057549933 0.049135637 -0.032700755 -0.008579355 0.10618736
-0.027725505 0.046938095 -0.033610027 0.012740331 -0.0039198427 -0.059507586 0.041340593 0.07515857
0.009771008 0.0025488215 0.0061504403 -0.049948018 0.034063388 -0.018726533 -0.04054876 -0.05669988
0.014128118 -0.03474298 0.013345035 0.060207207 -0.0019488874 -0.0064096544 0.02787761 0.019819913
-0.026373282 -0.037353124 -0.08057877 0.012960133 -0.00064051105 -0.012380886 -0.02866313 0.005060282
-0.043434713 -0.027804932 0.011104382 -0.02430189 -0.009716455 0.021271491 0.0049873632 0.01931709
-0.014597839 -0.013208571 0.05990919 0.059509344 0.021656705 -0.0065888534 0.015237747 0.000929161
-0.015395327 -0.027624255 0.05690884 -0.02977353 -0.03233991 -0.08480776 0.021848997 -0.05980291
-0.05793648 0.034586746 -0.0078004086 0.015300774 0.029857429 0.0064341705 -0.065900624 -0.017128026
0.04314712 -0.079937175 -0.012612046 -0.04099679 -0.01283497 -0.0067023924 -0.020500917 -0.056345798
-0.08412713 -0.0034475864 -0.0012632101 -0.022899628 -0.04756987 0.00012571021 -0.04233161 -0.066355176
0.028173046 -0.0060998634 -0.029648142 0.011077466 -0.045387052 -0.015635591 0.0049878634 0.041430447
-0.05599481 -0.0226176 -0.06595267 -0.051251963 -0.066378266 0.021687431 0.009513421 0.0152843455
-0.032505248 -0.027515976 0.0057755476 0.08607289 0.009679017 -0.009814542 -0.094571784 0.0088528255
-0.022681348 0.05392746 0.0063874307 0.045953114 -0.03365001 -0.033314608 -0.0124444915 0.012569751
-0.05319653 -0.010871292 -0.0049748565 0.045208655 -0.02009615 0.04498067 0.010504325 -0.028919684
0.0040587154 -0.056524806 -0.022267325 0.06459321 -0.075422265 0.012312448 -0.01049012 -0.07941281
0.025158573 0.023727138 0.0105945105 -0.0615618 -0.020231105 0.0042810477 -0.029518439 -0.05058893
0.023164155 0.034582768 -0.018211931 -0.014745381 -0.07396486 0.03822092 -0.05433442 -0.051780075
0.106170714 -0.005096919 0.025515467 0.033016693 0.01865501 -0.073467396 -0.019799914 0.01385119
0.017192487 0.00069797854 -0.058866926 0.020127589 -0.005692182 -0.018460777 -0.00031505953 0.038808912
-0.022533398 -0.014884527 -0.033700757 0.059510298 0.0105063105 0.007379466 -0.046452202 0.049988333
-0.047163438 -0.009120098 0.02360425 0.044233568 -0.012057507 -0.019900724 -0.05570104 -0.027527109
-0.00067396124 -0.003159102 0.028160155 0.034929026 -0.037184257 -0.10346694 0.0045248917 -0.042058494
-0.09265612 0.066329606 -0.0915171 -0.015041723 0.0049445652 0.009887043 0.004903073 -0.05231957
0.07645261 0.010984545 0.006345443 -0.08781139 0.045586586 0.08057367 -0.04185248 0.0042519597
0.0012934067 -0.027428946 -0.015849112 -0.010297509 -0.024899537 -0.05936112 -0.05994301 0.02328357
0.051448368 0.034819335 0.02872089 -0.060840342 0.034565564 0.030454176 -0.04490597 -0.025971059
-0.029520532 0.013630454 0.00825175 -0.020056007 -0.017805591 0.006985821 -0.07114844 -0.051636104
00000000: f098 83bc 38aa b2bd 4a48 cfbb 8fa5 b23d
00000010: ee06 2fbd a663 213d 2498 b33c 239c d53c
00000020: 177d 613c d2a9 2dbc c8f9 9d3c 12db bebd
00000030: cb1d fdbc 4471 313d a77b b5bb 7a33 343b
00000040: 6e69 5fbd 44ae ce3c a1bc 7dbd 708b 79bd
00000050: 53f8 453c c3e7 e1bb 4be2 9c3c 7efc ed3c
00000060: 72a8 a1bc fd33 6bbd ab67 8fbd 6294 bc3b
00000070: 7342 493d 3af1 05bd 6c90 0cbc c278 d93d
00000080: 9920 e3bc 2942 403d abaa 09bd d2bc 503c
00000090: 0672 80bb 3abe 73bd c154 293d bdec 993d
000000a0: 9416 203c 210a 273b a289 c93b 4b96 4cbd
000000b0: 0d86 0b3d 6368 99bc 7516 26bd 223e 68bd
000000c0: 9f79 673c a84e 0ebd 22a5 5a3c d59b 763d
000000d0: cf71 ffba 1408 d2bb 965f e43c 5f5d a23c
000000e0: c80c d8bc 97ff 18bd 7b06 a5bd bd56 543c
000000f0: f8e7 27ba 33d9 4abc f1ce eabc b9d0 a53b
00000100: 99e8 31bd 2bc7 e3bc 27ef 353c c214 c7bc
00000110: c431 1fbc 8d41 ae3c 096d a33b e03e 9e3c
00000120: c62b 6fbc c368 58bc 5763 753d 12c0 733d
00000130: 6769 b13c 4fe7 d7bb bea7 793c f092 733a
00000140: ae3c 7cbc 434c e2bc 3e19 693d 9ee7 f3bc
00000150: da76 04bd b1af adbd abfc b23c e5f3 74bd
00000160: cd4e 6dbd d5aa 0d3d 929a ffbb 19b0 7a3c
00000170: 9197 f43c bcd5 d23b e8f6 86bd 1350 8cbc
00000180: 09bb 303d 1ab6 a3bd c1a2 4ebc 40ec 27bd
00000190: c449 52bc be9f dbbb 8af1 a7bc daca 66bd
000001a0: d84a acbd e7f0 61bb 4c92 a5ba 0098 bbbc
000001b0: a0d8 42bd 14d1 0339 e963 2dbd 39e5 87bd
000001c0: 29cb e63c 5de1 c7bb a9e0 f2bc 437e 353c
000001d0: c6e7 39bd 3616 80bc 3b71 a33b f9b2 293d
000001e0: d05a 65bd 8c48 b9bc 3212 87bd 94ed 51bd
000001f0: 54f1 87bd d7a9 b13c 2ede 1b3c 316b 7a3c
00000200: 3924 05bd 2f69 e1bc ce40 bd3b fc46 b03d
00000210: bd94 1e3c 2ccd 20bc daae c1bd 710b 113c
00000220: 3cce b9bc 0ae3 5c3d a74d d13b 5539 3c3d
00000230: 98d4 09bd e674 08bd fbe3 4bbc 5bf1 4d3c
00000240: 9be4 59bd 811d 32bc 1f04 a3bb b62c 393d
00000250: aea0 a4bc a73d 383d 551a 2c3c f9e8 ecbc
00000260: f9fe 843b 8e86 67bd f769 b6bc 7249 843d
00000270: fd76 9abd 26ba 493c c1de 2bbc 2fa3 a2bd
00000280: 5a19 ce3c 6a5f c23c 9994 2d3c 3a28 7cbd
00000290: b4bb a5bc 0848 8c3b a7d0 f1bc 5636 4fbd
000002a0: c1c2 bd3c a9a6 0d3d 3031 95bc 9c96 71bc
000002b0: e37a 97bd 8a8d 1c3d c58d 5ebd 5817 54bd
000002c0: 0870 d93d 0e04 a7bb d005 d13c 833c 073d
000002d0: 64d2 983c 1376 96bd 6e33 a2bc 1af0 623c
000002e0: 42d7 8c3c 8cf8 363a 721e 71bd 9de2 a43c
000002f0: 7c85 babb 0e3b 97bc 932e a5b9 18f6 1e3d
00000300: f697 b8bc 3bde 73bc ce09 0abd 12c1 733d
00000310: a922 2c3c 73cf f13b aa44 3ebd 91c0 4c3d
00000320: 732e 41bd 776c 15bc b35d c13c 422e 353d
00000330: da8c 45bc d806 a3bc c626 64bd 8880 e1bc
00000340: c6ac 30ba f008 4fbb 20b0 e63c bd11 0f3d
00000350: 854e 18bd 7ae6 d3bd 8b45 943b 8745 2cbd
00000360: 7ec2 bdbd d1d7 873d 516d bbbd 8f71 76bc
00000370: 0506 a23b 44fd 213c f5a9 a03b 0c4d 56bd
00000380: 3093 9c3d 85f8 333c 6fed cf3b 75d6 b3bd
00000390: 00b9 3a3d cf03 a53d 826d 2bbd 0654 8b3b
000003a0: 8787 a93a abb2 e0bc ffd5 81bc e2b6 28bc
000003b0: 1dfa cbbc a524 73bd cd86 75bd 2fbd be3c
000003c0: 86bb 523d b89e 0e3d 1248 eb3c b933 79bd
000003d0: 9f94 0d3d 097b f93c 53ef 37bd 42c1 d4bc
000003e0: 0bd5 f1bc 4552 5f3c 5932 073c 7f4c a4bc
000003f0: 08dd 91bc 50e9 e43b 46b6 91bd 6180 53bd

bn4/avg_mean f4 [32]
2.2606435 1.3467333 -0.70023197 -0.209046 0.22426616 -1.8131089 -2.7308483 0.29423717
-0.19499795 -0.42853668 -1.7431409 -2.7205007 -2.1853905 -1.6620163 0.8500777 -0.7756121
-0.03356116 -0.34596813 -1.0487788 -1.9472537 -2.3264735 1.3694605 2.4847994 -2.482304
-2.3102176 0.9872731 -3.0110514 -1.0826393 -1.3806729 -3.0600705 -2.8104346 0.09854032
00000000: 62ae 1040 c261 ac3f 6742 33bf 2810 56be
00000010: 07a6 653e f413 e8bf 38c6 2ec0 41a6 963e
00000020: 8bad 47be 2969 dbbe 3e1f dfbf af1c 2ec0
00000030: 70dd 0bc0 f3bc d4bf b19e 593f 848e 46bf
00000040: 6d77 09bd bc22 b1be 623e 86bf 9c3f f9bf
00000050: f1e4 14c0 7b4a af3f f406 1f40 12de 1ec0
00000060: 9bda 13c0 eebd 7c3f 11b5 40c0 ed93 8abf
00000070: e4b9 b0bf 32d8 43c0 29de 33c0 82cf c93d

bn3/beta f4 [64]
0.0028919121 -0.017366244 -0.0021765742 -0.02106575 -0.009387343 0.0019193372 0.06520719 0.019982774
0.025958788 -0.0025182655 -0.023883069 0.027413053 0.010431235 0.020984508 0.017485514 -0.0046626036
-0.012526441 -0.03371267 0.021918451 -0.028880779 0.014887958 0.03586702 -0.014367309 -0.016199416
-0.039782964 0.0074127703 0.017006988 0.0005720831 0.007970001 0.0039404784 -0.035250835 -0.01318923
-0.002986151 -0.0020228461 0.015396905 0.021564104 0.0134653365 -0.0006144351 -0.050074726 0.0353814
0.015304838 0.020226529 -0.008907019 0.015385616 0.013507204 0.021668745 -0.0011662279 0.033569288
0.0026554514 0.020410035 -0.00096383336 -0.017684141 0.03337949 -0.025725901 0.04168469 0.010154963
0.047254797 -0.030345103 0.005884925 -0.02372929 -0.0050545544 -0.0094136605 -0.030146802 -0.0047630444
00000000: 3c86 3d3b a743 8ebc dba4 0ebb 1492 acbc
00000010: 5fcd 19bc 4592 fb3a 598b 853d eab2 a33c
00000020: 86a7 d43c 7c09 25bb 6da6 c3bc 5791 e03c
00000030: c5e7 2a3c b4e7 ab3c c83d 8f3c c1c8 98bb
00000040: b43b 4dbc 4c16 0abd 538e b33c 6297 ecbc
00000050: 9fec 733c 4ce9 123d dd64 6bbc a3b4 84bc
00000060: 76f3 22bd d3e6 f23b 3d52 8b3c d9f7 153a
00000070: 9b94 023c 211f 813b 2e63 10bd a417 58bc
00000080: 4db3 43bb ba91 04bb 4d43 7c3c 34a7 b03c
00000090: b79d 5c3c 0b12 21ba 281b 4dbd 16ec 103d
000000a0: 25c1 7a3c 1bb2 a53c bfee 11bc f313 7c3c
000000b0: 524d 5d3c a782 b13c 1ddc 98ba f37f 093d
000000c0: 1507 2e3b f232 a73c c3a9 7cba 55de 90bc
000000d0: efb8 083d 20bf d2bc 91bd 2a3d 0061 263c
000000e0: 3f8e 413d 4b96 f8bc 54d6 c03b ee63 c2bc
000000f0: ada0 a5bb c13b 1abc 6df6 f6bc 5013 9cbb

conv1_7/b f4 [3]
0.031543095 0.0074902033 -0.007478085
00000000: 5533 013d 6170 f53b b90a f5bb

conv1_4/W f4 [32, 64, 3, 3]
-0.03724553 0.04770926 0.007701648 0.066941254 0.11134766 -0.028213944 -0.011985408 0.0014583883
0.013321465 0.049391523 -0.056182895 -0.027985023 0.037687268 0.056704484 -0.054587554 -0.104703985
0.027170725 0.03782335 0.0074821915 -0.049610462 -0.0440353 0.03039881 -0.09970089 0.023383342
-0.013765281 0.079329744 -0.0883459 0.032513417 -0.01610319 -0.011142599 4.6353307e-05 3.461153e-05
0.016982395 -0.021538246 0.018529754 0.0028588139 -0.04563445 0.004282832 -0.006614344 -0.016965812
-0.027112776 0.021198565 0.0046151364 0.008943601 0.061811645 -0.0057674195 0.029042305 0.015010213
0.019888846 -0.015464872 0.020373132 -0.0056053973 0.035505977 0.016233396 0.06653136 0.08214755
-0.0029390552 -0.052185304 0.03723768 -0.016761607 0.0036271655 0.018084075 -0.0780708 -0.022025837
0.099040285 0.025663557 0.008305623 0.020960405 0.00789669 0.014890471 -0.019796692 -0.05751251
-0.08135256 0.00876797 -0.032696232 0.052038085 -0.04527304 0.046626206 -0.0010730042 0.024029728
-0.0009552169 -0.026511254 -0.040283196 -0.016679892 -0.09861075 0.056718543 0.06276158 0.042862352
0.03335334 -0.014409073 0.0324853 0.017833143 0.029514723 0.0069242194 0.013926128 -0.009588118
0.017529745 -0.03844037 0.029394662 -0.0048014075 -0.040073007 0.045800056 -0.08038072 0.003067899
0.030865353 -0.05189475 0.06034443 -0.0078002103 0.017634962 0.014870029 -0.120969474 -0.025346851
-0.038961444 -0.0027550564 -0.052532133 -0.024935337 -0.029572995 0.013141396 -0.040280294 -0.02262502
0.003095621 0.058557093 -0.024234608 -0.0020421494 0.038259294 0.031701505 -0.013849454 -0.08098342
-0.0042686057 0.021403907 0.059150655 -0.03908784 0.06339971 0.08628263 0.0361192 0.02264961
0.01780533 0.054340146 -0.026967287 0.025085077 0.07491022 0.01762966 -0.06574016 -0.018115953
-0.053062037 0.011645534 -0.039216664 0.024236517 0.06629388 -0.016371908 -0.068142794 -0.016779032
0.020168222 -0.072251976 -0.024083741 0.02916965 -0.007427527 0.0735891 0.051385973 0.07166306
0.025747653 -0.07910412 -0.024235949 0.013237955 -0.022859538 0.015289588 -0.017434169 -0.041498113
-0.05429641 -0.011502831 -0.020083033 0.044904687 0.08131157 0.05132365 -0.021448638 -0.009028571
0.023177654 0.007750023 0.02572962 0.063859366 -0.0135822175 0.006291206 0.056613635 0.053911828
-0.021513732 0.026907597 0.06473713 0.025213871 -0.06917532 -0.046008464 0.07619676 -0.051193397
-0.025253 0.024795236 0.017546177 -0.0126199 -0.049568772 -0.036716733 -0.0055179284 0.055571493
0.0002466474 -0.023659155 0.030640163 -0.03455568 0.031144207 0.05848571 0.023263268 0.03015656
0.0827527 0.033800393 -0.0046968274 0.021089084 0.01692202 0.007947085 0.035643715 0.021473715
0.0045694835 0.036377996 -0.012876774 0.015593412 0.03204745 -0.0077662715 0.022837687 0.042367052
-0.06417564 -0.0036397856 -0.05027459 -0.029713165 0.0038387245 0.080145404 0.033664405 0.013953519
-0.052696925 0.019631442 0.013483916 -0.0354649 0.043295488 -0.026159218 0.07637426 0.031453896
-0.041671168 -0.03510946 -0.03678541 0.09445526 -0.04559728 0.0707849 0.026199797 0.09764626
-0.022704242 0.016271885 0.06547608 0.0029879238 0.047831565 0.03319241 0.004035478 -0.009163065
00000000: c58e 18bd c96a 433d 1b5e fc3b 7f18 893d
00000010: 3e0a e43d ee20 e7bc 725e 44bc 6427 bf3a
00000020: 4642 5a3c c44e 4a3d 0920 66bd d940 e5bc
00000030: f75d 1a3d f642 683d 3397 5fbd 0b6f d6bd
00000040: 2495 de3c a8ec 1a3d 2c2d f53b 5734 4bbd
00000050: 5c5e 34bd ed06 f93c fb2f ccbd 6c8e bf3c
00000060: c687 61bc a277 a23d b2ee b4bd ca2c 053d
00000070: d6ea 83bc 738f 36bc 7c6b 4238 d92b 1138
00000080: aa1e 8b3c fa70 b0bc b6cb 973c f05a 3b3b
00000090: 30eb 3abd 0057 8c3b 24bd d8bb e3fb 8abc
000000a0: 9d1b debc 9da8 ad3c 923a 973b 2e88 123c
000000b0: 352e 7d3d 9ffc bcbb 21ea ed3c 65ed 753c
000000c0: efed a23c 6060 7dbc 8ee5 a63c 7bad b7bb
000000d0: b76e 113d e6fb 843c 9841 883d fa3c a83d
000000e0: 2a9d 40bb 42c0 55bd 8a86 183d a34f 89bc
000000f0: bdb5 6d3b 0e25 943c 95e3 9fbd 876f b4bc
00000100: a2d5 ca3d 613c d23c 4f14 083c 28b5 ab3c
00000110: 1e61 013c 29f7 733c ac2c a2bc 3d92 6bbd
00000120: 2c9c a6bd 88a7 0f3c 7cec 05bd e325 553d
00000130: 3970 39bd 1ffb 3e3d 0ca4 8cba fed9 c43c
00000140: 8567 7aba 212e d9bc feff 24bd 45a4 88bc
00000150: 6ff4 c9bd b451 683d 2589 803d 6f90 2f3d
00000160: 839d 083d 0814 6cbc 4e0f 053d d016 923c
00000170: dcc8 f13c 90e4 e23b 6a2a 643c 7b17 1dbc
00000180: 8a9a 8f3c a673 1dbd 13cd f03c 2055 9dbb
00000190: 9823 24bd d798 3b3d a69e a4bd ce0e 493b
000001a0: 56d9 fc3c 978f 54bd b92b 773d e898 ffbb
000001b0: 3277 903c 6ca1 733c d8be f7bd 33a4 cfbc
000001c0: 0996 1fbd 2d8e 34bb ef2b 57bd 3145 ccbc
000001d0: 1143 f2bc 034f 573c f3fc 24bd 1b58 b9bc
000001e0: e7df 4a3b 90d9 6f3d a887 c6bc 95d5 05bb
000001f0: c7b5 1c3d 70d9 013d d2e8 62bc a3da a5bd
00000200: a9df 8bbb 3f57 af3c f547 723d 921a 20bd
00000210: b5d7 813d f3b4 b03d baf1 133d ad8b b93c
00000220: 7cdc 913c c693 5e3d 80ea dcbc 387f cd3c
00000230: 886a 993d 146c 903c c7a2 86bd e867 94bc
00000240: 9457 59bd e9cc 3e3c a7a1 20bd a98b c63c
00000250: 16c5 873d 611e 86bc 738e 8bbd 2e74 89bc
00000260: d437 a53c d8f8 93bd 444b c5bc 31f5 ee3c
00000270: 9d62 f3bb e2b5 963d 197a 523d 15c4 923d
00000280: beec d23c 5701 a2bd 788a c6bc 02e4 583c
00000290: ed43 bbbc 2e81 7a3c 1ad2 8ebc edf9 29bd
000002a0: ea65 5ebd 5f76 3cbc 2c85 a4bc faed 373d
000002b0: ae86 a63d bf38 523d 0eb5 afbc 92ec 13bc
000002c0: 10df bd3c e8f3 fd3b edc6 d23c b3c8 823d
000002d0: f387 5ebc 7626 ce3b b3e3 673d a6d2 5c3d
000002e0: 913d b0bc 526d dc3c e794 843d 528d ce3c
000002f0: caab 8dbd 5f73 3cbd 0c0d 9c3d 2bb0 51bd
00000300: 61df cebc 611f cb3c 00bd 8f3c b2c3 4ebc
00000310: a008 4bbd 4964 16bd bdcf b4bb ef9e 633d
00000320: 7450 8139 d8d0 c1bc 1401 fb3c 428a 0dbd
00000330: 2322 ff3c b68e 6f3d 9c92 be3c e40a f73c
00000340: 3f7a a93d 4872 0a3d d8e7 99bb 04c3 ac3c
00000350: 0ca0 8a3c 7e34 023c 25ff 113d a5e9 af3c
00000360: 9bbb 953b 1801 153d 1bf9 52bc 837b 7f3c
00000370: 3044 033d 357c febb 1a16 bb3c 1389 2d3d
00000380: 856e 83bd 7889 6ebb baec 4dbd 0669 f3bc
00000390: 1c93 7b3b 4623 a43d b0e3 093d 4d9d 643c
000003a0: bbd8 57bd 1ed2 a03c a5eb 5c3c a543 11bd
000003b0: 9c56 313d db4b d6bc 1c6a 9c3d cdd5 003d
000003c0: 63af 2abd f0ce 0fbd 4cac 16bd c271 c13d
000003d0: 37c4 3abd acf7 903d f5a0 d63c c3fa c73d
000003e0: 3ffe b9bc 9e4c 853c 5318 863d 0bd1 433b
000003f0: 08eb 433d c4f4 073d 0b3c 843b ae20 16bc

bn1/gamma f4 [64]
0.97373396 0.96402776 0.9668399 0.9718242 0.97638315 0.9778245 1.0008111 0.9780792
1.0010836 1.0030041 0.9942422 1.0392894 0.9836576 0.97067726 1.0088806 0.95392936
1.0003579 0.9519561 0.9467639 0.9887376 1.0063521 1.0107507 0.99309874 0.98766947
1.0332642 0.93133324 0.9843501 0.9588702 0.9977631 0.97467566 0.95420325 0.9875764
0.95630705 0.9846028 1.0414572 0.9720509 0.974531 0.9636151 1.0138066 1.0035696
0.9582684 1.0084597 0.9760299 1.0010275 0.99805844 0.9668484 0.9853537 0.9605023
0.9640661 1.0077723 0.9372832 0.9751072 0.96511865 0.9548901 0.95939255 0.99495196
0.978685 1.0051079 0.9647477 1.0077854 0.96221715 0.9823135 0.9760975 0.9720137
00000000: a146 793f 86ca 763f d282 773f 79c9 783f
00000010: 3ff4 793f b552 7a3f 941a 803f 6663 7a3f
00000020: 8223 803f 7062 803f a886 7e3f 6f07 853f
00000030: fcd0 7b3f 4e7e 783f 0023 813f b734 743f
00000040: ba0b 803f 65b3 733f 1e5f 723f e81d 7d3f
00000050: 25d0 803f 4760 813f b83b 7e3f e8d7 7c3f
00000060: 0042 843f db6b 6e3f 5efe 7b3f 8478 753f
00000070: 676d 7f3f 5884 793f aa46 743f cfd1 7c3f
00000080: 8ad0 743f ee0e 7c3f 784e 853f 54d8 783f
00000090: dd7a 793f 7baf 763f 6ac4 813f f874 803f
000000a0: 1451 753f 3515 813f 18dd 793f ab21 803f
000000b0: c280 7f3f 6083 773f 2440 7c3f 7be3 753f
000000c0: 09cd 763f affe 803f cbf1 6f3f a0a0 793f
000000d0: 0412 773f ad73 743f c09a 753f 2cb5 7e3f
000000e0: 1a8b 7a3f 60a7 803f b5f9 763f 1dff 803f
000000f0: dd53 763f e678 7b3f 87e1 793f e4d5 783f

conv1_4/b f4 [32]
0.00036531824 -3.558991e-05 1.6490336e-05 0.00011685286 -0.00030955367 -0.0008154495 0.0006049335 1.5092076e-05
-5.594827e-05 -0.00011152059 3.6960715e-05 -0.0001172413 -0.00056180614 -0.00019388963 2.3995264e-05 0.0002309405
-0.0016686734 4.4533834e-05 -0.00029123964 -0.00011876674 -3.697775e-05 -8.6589906e-05 -0.00025215212 0.0001762087
7.994147e-06 0.0010695667 0.00043598568 -5.5794797e-05 0.00012140389 4.689435e-05 0.00018036408 -0.0002846228
00000000: 2f88 bf39 6046 15b8 ba54 8a37 e70e f538
00000010: 974b a2b9 e4c3 55ba 6694 1e3a f933 7d37
00000020: ffa9 6ab8 29e0 e9b8 4406 1b38 72df f5b8
00000030: 2c46 13ba da4e 4bb9 7049 c937 9e28 7239
00000040: 63b7 daba d7c9 3a38 86b1 98b9 6812 f9b8
00000050: 8f18 1bb8 9a97 b5b8 4933 84b9 aac4 3839
00000060: 9a1e 0637 b430 8c3a 0295 e439 3505 6ab8
00000070: 389a fe38 6db0 4438 1d20 3d39 6d39 95b9

conv1_5/W f4 [32, 32, 3, 3]
-0.05660338 -0.04262743 0.015163335 -0.059465397 0.06975543 0.002530096 -0.0070950007 0.08963071
0.048195973 0.02140927 0.052771248 -0.022481931 -0.06446694 0.018799044 -0.02531487 -0.13390611
0.043879464 0.025925567 -0.019340552 0.030297961 0.023988435 -0.0052400124 -0.16511273 0.060663383
-0.07075581 -0.1802249 0.050015196 0.047730844 0.00809554 0.058743488 -0.003568928 0.069761746
-0.059704382 0.06063464 0.033348657 0.06245444 0.0008685915 -0.023262676 -0.002979533 -0.0193775
-0.047057156 0.03570107 -0.021480562 -0.02250025 0.047929972 0.025012763 -0.012975931 0.03548017
-0.049023278 -0.027024696 0.03483694 -0.018535106 0.09383212 0.04353046 0.030051563 -0.10424654
-0.041596398 0.054718338 -0.02634201 0.02585724 -0.055690695 0.04685426 0.0847053 -0.015089722
0.05785817 0.023506233 -0.08889283 -0.028829494 -0.033046592 0.04756117 -0.10367821 0.039689608
-0.01104708 -0.013019033 -0.024278762 0.053474203 -0.04315432 -0.0027128323 0.049334366 -0.021653444
0.003460904 0.021850532 -0.07072943 0.02232765 -0.006680732 0.011543468 0.029103786 -0.09132183
0.08564292 0.025592647 0.03303432 0.074284576 0.044644173 0.09984657 -0.019164266 -0.015747016
-0.02596567 -0.048704203 0.045920305 0.002790263 -0.039891887 0.019159732 0.07752086 0.059968807
0.015105316 -0.07340328 0.0029496185 -0.036106635 -0.10232022 -0.021048855 0.04918958 -0.08355046
-0.0040828045 0.089619674 0.018911341 -0.0320284 -0.035883408 0.059370954 0.023333948 -0.017379554
0.10592433 0.060545504 -0.036236126 0.027709566 0.027132431 -2.801422e-05 -0.094447 0.101945296
0.06481598 -0.027111338 0.11503666 -0.0723122 -0.025699193 0.026063802 0.00704569 -0.05872523
0.045875933 -0.050048675 -0.04925144 -0.05528916 0.024486877 0.008607429 0.0076505723 -0.023605658
0.018392289 0.0028941578 -0.08313724 -0.059430033 0.0246513 0.013351503 0.041964427 0.0049759923
-0.03534846 -0.015809964 -0.075419426 0.007876774 0.020771023 -0.0763254 -0.12880777 0.004912938
0.06852374 -0.03806922 -0.09369822 -0.03595423 -0.07327704 0.13674171 0.1475433 -0.0191785
0.039188284 0.060796868 0.12182855 0.008690806 0.03495879 0.0040351916 0.0134682 -0.06711551
-0.042352773 -0.04377352 -0.0539179 0.0168813 0.006629178 0.05007557 -0.06075373 0.023712775
0.012476598 -0.019025749 0.08147264 0.040028166 -0.045713313 0.03659041 -0.1567915 0.0022568286
-0.047540877 0.00931457 0.036978662 0.059717745 -0.009342162 0.026033266 0.047763962 -0.045025803
-0.09448243 0.038405273 0.07487207 0.09029329 -0.021937912 0.0031312166 -0.011673323 0.026888898
0.020429602 -0.058734376 -0.017797008 0.01138271 0.055416465 0.046470728 -0.0352386 0.08867699
-0.01090002 0.024716605 -0.09707511 -0.083008856 -0.037931293 0.068636425 -0.010120672 -0.029348692
-0.0011798533 -0.017832821 -0.054964203 -0.03058303 0.026484901 -0.016867552 0.049067035 -0.060617447
-0.054211624 0.04396108 0.058737412 0.16689405 0.009851741 0.015638608 -0.038471967 -0.033407733
0.049096536 0.042572953 0.030114412 -0.049316857 0.07810714 -0.0056261495 0.0067673097 0.0006506169
-0.095718324 -0.083964474 0.008312452 0.0972585 -0.011071583 0.019206995 0.022064354 -0.039677694
00000000: f2d8 67bd 1a9a 2ebd a36f 783c fd91 73bd
00000010: efdb 8e3d f8cf 253b 2e7d e8bb 4e90 b73d
00000020: 2469 453d 7e62 af3c aa26 583d 072c b8bc
00000030: 3e07 84bd 7400 9a3c 2161 cfbc af1e 09be
00000040: f4ba 333d db61 d43c 1470 9ebc 6e33 f83c
00000050: 6583 c43c 69b4 abbb 5013 29be 2b7a 783d
00000060: 6ce8 90bd e08c 38be bcdc 4c3d 6b81 433d
00000070: 28a3 043c 039d 703d ade4 69bb 3fdf 8e3d
00000080: 958c 74bd 075c 783d 9a98 083d 3ad0 7f3d
00000090: 30b2 633a 5e91 bebc 4544 43bb 90bd 9ebc
000000a0: 01bf 40bd 493b 123d 01f8 afbc 7252 b8bc
000000b0: 3852 443d 91e7 cc3c 0099 54bc a853 113d
000000c0: a2cc 48bd e562 ddbc 2eb1 0e3d efd6 97bc
000000d0: 0e2b c03d ff4c 323d b22e f63c 367f d5bd
000000e0: fc60 2abd 5620 603d 33cb d7bc 90d2 d33c
000000f0: ed1b 64bd 41ea 3f3d f979 ad3d e23a 77bc
00000100: b0fc 6c3d 2590 c03c 720d b6bd d52b ecbc
00000110: dd5b 07bd 80cf 423d 3e55 d4bd 9291 223d
00000120: d0fe 34bc c84d 55bc 41e4 c6bc c407 5b3d
00000130: 96c2 30bd c6c9 31bb d512 4a3d 9062 b1bc
00000140: 55d0 623b e3ff b23c 97da 90bd 7ae8 b63c
00000150: 0bea dabb d020 3d3c 106b ee3c f106 bbbd
00000160: 8e65 af3d aca7 d13c ff4e 073d 8322 983d
00000170: cfdc 363d 5c7c cc3d 61fe 9cbc e3ff 80bc
00000180: f5b5 d4bc 0f7e 47bd ee16 3c3d d8dc 363b
00000190: ad65 23bd dff4 9c3c 42c3 9e3d daa1 753d
000001a0: 4a7c 773c 7554 96bd 634e 413b 8de4 13bd
000001b0: 438d d1bd a66e acbc 037b 493d 811c abbd
000001c0: 0cc9 85bb 858a b73d f5eb 9a3c 3630 03bd
000001d0: 7bfa 12bd f52e 733d d626 bf3c 915f 8ebc
000001e0: dbee d83d 90fe 773d 556c 14bd 2cff e23c
000001f0: d544 de3c 1400 ebb7 6e6d c1bd b2c8 d03d
00000200: 3ebe 843d 9918 debc 5798 eb3d 6b18 94bd
00000210: 1d87 d2bc c183 d53c 88df e63b de89 70bd
00000220: 67e8 3b3d d7ff 4cbd e1bb 49bd e376 62bd
00000230: b498 c83c 2d06 0d3c a7b1 fa3b a760 c1bc
00000240: 6dab 963c e9ab 3d3b db43 aabd e86c 73bd
00000250: 86f1 c93c 43c0 5a3c e4e2 2b3d a60d a33b
00000260: 8cc9 10bd e683 81bc 8075 9abd 960d 013c
00000270: fe27 aa3c 7e50 9cbd 2fe6 03be b6fc a03b
00000280: 2d56 8c3d 78ee 1bbd dae4 bfbd be44 13bd
00000290: 4612 96bd 0506 0c3e 9715 173e 3b1c 9dbc
000002a0: e583 203d 2306 793d 3f81 f93d e263 0e3c
000002b0: f330 0f3d a439 843b baa9 5c3c db73 89bd
000002c0: 1a7a 2dbd dd4b 33bd 04d9 5cbd a74a 8a3c
000002d0: 9339 d93b 0a1c 4d3d e7d8 78bd 4b41 c23c
000002e0: a56a 4c3c e3db 9bbc 21db a63d 93f4 233d
000002f0: e23d 3bbd d3df 153d f38d 20be 4de7 133b
00000300: 39ba 42bd 239c 183c f076 173d 989a 743d
00000310: de0f 19bc b743 d53c 25a4 433d fa6c 38bd
00000320: 0180 c1bd d94e 1d3d 8756 993d b0eb b83d
00000330: 23b7 b3bc 1935 4d3b 7741 3fbc 1b46 dc3c
00000340: fb5b a73c 7593 70bd 08cb 91bc 8c7e 3a3c
00000350: 60fc 623d 1758 3e3d 5a56 10bd 489c b53d
00000360: ff95 32bc 7a7a ca3c 51cf c6bd 8c00 aabd
00000370: d85d 1bbd 4191 8c3d 2dd1 25bc ab6c f0bc
00000380: 4fa5 9aba 2316 92bc 2522 61bd 4389 fabc
00000390: ddf6 d83c d22d 8abc 84fa 483d 004a 78bd
000003a0: 020d 5ebd 8910 343d a496 703d 46e6 2a3e
000003b0: 3269 213c 8a1c 803c c894 1dbd 8cd6 08bd
000003c0: 7319 493d fa60 2e3d 80b2 f63c 7900 4abd
000003d0: a3f6 9f3d 905b b8bb 4fc0 dd3b 298e 2a3a
000003e0: f807 c4bd 91f5 abbd f330 083c 772f c73d
000003f0: 9665 35bc fd57 9d3c 4ec0 b43c 1485 22bd

bn5/beta f4 [32]
0.10017225 0.086249955 0.0037595057 0.14156125 0.07341218 0.06818655 0.13692683 0.051505756
0.13893262 0.09843911 0.12110527 0.12585899 0.055564933 0.071896374 0.023449626 0.016650654
0.029824654 0.098139 0.05059871 0.0043433947 0.08728729 0.035152484 0.0019442913 0.01265369
0.16156934 0.06827857 0.03836457 0.09193632 0.13646233 0.13628982 0.077809796 0.07119717
00000000: 1c27 cd3d d1a3 b03d 0a62 763b 6ff5 103e
00000010: 2059 963d 64a5 8b3d 8c36 0c3e b3f7 523d
00000020: 5a44 0e3e 729a c93d 0a06 f83d 2ee1 003e
00000030: 0e98 633d 683e 933d 6e19 c03c f466 883c
00000040: d552 f43c 1afd c83d 9840 4f3d 0953 8e3b
00000050: aec3 b23d 0dfc 0f3d 97d7 fe3a 6c51 4f3c
00000060: 6f72 253e a3d5 8b3d 2b24 1d3d 1c49 bc3d
00000070: c8bc 0b3e 8f8f 0b3e be5a 9f3d d2cf 913d

bn2/gamma f4 [64]
0.98818 0.960374 0.96864617 0.99222136 0.9847353 1.0313448 1.0285451 1.0026553
1.0060426 0.99665785 0.9874716 0.97839916 1.0028814 0.9936864 0.9750485 1.0207299
0.98788077 0.99149686 0.9777245 0.9944567 0.98999906 1.0266287 0.9689629 0.9893265
1.0070354 0.9981471 1.0177861 0.96509826 0.9508967 1.0066826 1.0271592 0.9860236
0.98888403 0.98399305 0.9872605 1.0034189 0.9941167 0.9806042 0.99014634 0.9867657
1.0406775 0.9838099 0.97920877 1.0012839 1.0288674 1.0242653 0.98161113 1.0223206
0.9939895 0.981573 1.0191948 0.95095855 1.0721811 0.9969227 1.0164084 0.97652286
0.99523145 0.98364305 0.98112595 0.96033806 0.97121036 0.99904096 1.0673316 0.98619163
00000000: 5df9 7c3f 12db 753f 32f9 773f 3802 7e3f
00000010: 9d17 7c3f 1b03 843f 5ea7 833f 0257 803f
00000020: 01c6 803f f824 7f3f f0ca 7c3f 5e78 7a3f
00000030: 6b5e 803f 3b62 7e3f c79c 793f 47a7 823f
00000040: c1e5 7c3f bdd2 7d3f 274c 7a3f b794 7e3f
00000050: 9470 7d3f 9268 833f f40d 783f 8044 7d3f
00000060: 89e6 803f 9186 7f3f d146 823f ae10 773f
00000070: f76d 733f fada 803f f479 833f 0b6c 7c3f
00000080: 8127 7d3f f8e6 7b3f 1bbd 7c3f 0870 803f
00000090: 6f7e 7e3f e008 7b3f 3b7a 7d3f ad9c 7c3f
000000a0: ec34 853f f7da 7b3f 6dad 7a3f 122a 803f
000000b0: edb1 833f 201b 833f de4a 7b3f 67db 823f
000000c0: 1976 7e3f 5e48 7b3f fa74 823f 0572 733f
000000d0: 3b3d 893f 5336 7f3f ac19 823f 67fd 793f
000000e0: 7dc7 7e3f 08d0 7b3f 122b 7b3f b7d8 753f
000000f0: 3ea1 783f 26c1 7f3f 529e 883f 0e77 7c3f

conv1_2/b f4 [64]
-2.8843924e-05 -1.629128e-05 7.688746e-05 0.00033211775 -6.527279e-05 -7.80124e-05 -0.00014522336 0.00030949683
-3.4006312e-05 0.000107012725 0.0001386874 -1.0594427e-05 9.757982e-06 5.6692752e-05 -0.00025864565 -7.134242e-05
-0.00029035925 0.0001044311 -8.177586e-05 -0.00019859213 -7.788514e-05 -0.00018834778 1.68791e-05 5.500757e-05
-0.00036018048 -5.4104163e-05 5.7237747e-05 0.00016711673 0.00013525087 0.00010087888 0.00010279735 -0.0005278346
-5.4608267e-05 -2.1610726e-05 7.059072e-05 4.1782037e-05 5.3504264e-05 0.00023198323 -0.000108564425 -0.00014039334
-2.3290795e-05 -0.000118565054 3.044088e-05 -5.1563733e-05 -0.00015676615 -2.6820971e-05 7.2312305e-06 -0.0002856421
-4.4398876e-05 1.6362006e-05 0.000135954 1.3365852e-05 0.00019223023 4.9054543e-05 -0.00036132836 -0.000118972785
-6.8101304e-05 1.3560971e-05 -0.00021343994 -0.00016133169 4.949083e-05 0.00013407921 -0.00021515875 9.422237e-05
00000000: dbf5 f1b7 42a9 88b7 a43e a138 1720 ae39
00000010: 10e3 88b8 979a a3b8 1947 18b9 f643 a239
00000020: 00a2 0eb8 056c e038 9e6c 1139 b8be 31b7
00000030: 37b6 2337 61c9 6d38 d59a 87b9 ac9d 95b8
00000040: 5c3b 98b9 0502 db38 157f abb8 2b3d 50b9
00000050: 4456 a3b8 397f 45b9 9797 8d37 eeb7 6638
00000060: 9bd6 bcb9 e7ed 62b8 9012 7038 0e3c 2f39
00000070: 21d2 0d39 f08e d338 e894 d738 615e 0aba
00000080: 2e0b 65b8 ae48 b5b7 1b0a 9438 1f3f 2f38
00000090: c469 6038 8640 7339 15ad e3b8 8d36 13b9
000000a0: 9a60 c3b7 21a6 f8b8 4b5b ff37 2346 58b8
000000b0: 9861 24b9 99fd e0b7 cca3 f236 3cc2 95b9
000000c0: ee38 3ab8 2441 8937 e08e 0e39 e63d 6037
000000d0: 6991 4939 eabf 4d38 ac70 bdb9 0781 f9b8
000000e0: 9cd1 8eb8 ed83 6337 d9ce 5fb9 252b 29b9
000000f0: 6094 4f38 9d97 0c39 3d9c 61b9 4099 c538

bn2/avg_var f4 [64]
0.32951522 0.61452806 0.4727924 0.48915356 0.3598373 0.45012677 0.50349265 0.3756477
0.4539806 0.48719284 0.44693273 0.58509195 0.40547153 0.28537625 0.5330919 0.3833919
0.3696507 0.40312254 0.68381274 0.37547967 0.69455796 0.55217946 0.4246585 0.3974656
0.4425368 0.39784735 0.37692398 0.26815072 0.5142113 0.3820545 0.4829646 0.38432625
0.36513793 0.4790967 0.5279368 0.5935713 0.37407738 0.575948 0.4429689 0.424702
0.75348014 0.43392205 0.42272565 0.5115642 0.48286211 0.4934006 0.4814571 0.5306247
0.47949114 0.3693136 0.37172848 0.50530946 0.5386199 0.46871415 0.48998594 0.43904442
0.41332307 0.3984403 0.31901994 0.3482988 0.47004092 0.5063838 0.55521464 0.4650936
00000000: 38b6 a83e b651 1d3f d811 f23e 5672 fa3e
00000010: 983c b83e 0477 e63e e5e4 003f e554 c03e
00000020: 2570 e83e 5771 f93e 5ed4 e43e 96c8 153f
00000030: f799 cf3e d61c 923e b678 083f f14b c43e
00000040: db42 bd3e 1466 ce3e 5a0e 2f3f df3e c03e
00000050: 8dce 313f a25b 0d3f d76c d93e 9c80 cb3e
00000060: 2f94 e23e a6b2 cb3e 2efc c03e 0d4b 893e
00000070: 5aa3 033f a69c c33e 2347 f73e 69c6 c43e
00000080: 5cf3 ba3e 2a4c f53e de26 073f 4af4 173f
00000090: 1287 bf3e 5471 133f d2cc e23e 8a72 d93e
000000a0: 13e4 403f 082b de3e 7f6f d83e dff5 023f
000000b0: b439 f73e 019f fc3e 8c81 f63e 05d7 073f
000000c0: dd7f f53e ac16 bd3e 3253 be3e f65b 013f
000000d0: fee2 093f 4dfb ef3e 70df fa3e 6eca e03e
000000e0: 159f d33e 5e00 cc3e 9556 a33e 3854 b23e
000000f0: 34a9 f03e 5ea2 013f 8c22 0e3f c020 ee3e

bn6/beta f4 [32]
0.108368374 0.13384314 0.010037073 0.120093 0.052617323 0.0483151 0.12499115 0.038177554
0.11205577 0.09543962 0.16358374 0.15117818 0.062156707 0.08676904 0.04751312 0.045928117
0.017900163 0.10103342 0.09176503 0.010132435 0.10455273 0.019343084 0.11242647 0.037604112
0.29749852 0.060405906 0.07036545 0.122427136 0.1216222 0.108649746 0.12261282 0.085901186
00000000: 3df0 dd3d 2d0e 093e 8972 243c 52f3 f53d
00000010: 4385 573d 0ee6 453d 5cfb ff3d 1160 1c3d
00000020: 7f7d e53d d975 c33d 7f82 273e 74ce 1a3e
00000030: 0898 7e3d f7b3 b13d 1e9d 423d 1f1f 3c3d
00000040: 5da3 923c 9cea ce3d 4eef bb3d 8302 263c
00000050: be1f d63d 6375 9e3c d93f e63d c506 1a3d
00000060: ba51 983e 2f6c 773d c31b 903d 14bb fa3d
00000070: 0f15 f93d c283 de3d 6e1c fb3d f6ec af3d

conv1_7/W f4 [3, 32, 3, 3]
0.02724619 0.045789354 0.081662856 0.027571078 0.029528588 -0.03463224 0.044816274 0.07491571
0.041951157 -0.0025643792 0.040819306 0.116084784 0.05410732 0.01629792 0.10410233 0.066305585
-0.07551906 0.01521022 0.1478132 -0.013742131 0.025668373 0.03539106 0.013918926 0.061307427
-0.059812717 -0.05614374 -0.06855253 -0.022113003 0.058529224 0.09128087 0.022525348 -0.010555695
-0.013490386 -0.015832903 0.19019918 -0.016858125 0.120955646 0.07863113 0.08685474 0.063252404
0.15009665 0.177 0.06725028 -0.026289923 0.02452449 -0.02442527 -0.089876465 0.13744897
0.09657585 -0.09651283 0.06380748 0.018425908 0.003259827 -0.03491471 0.0922506 -0.035212155
0.01787152 -0.011113487 0.17331815 -0.06353296 0.014049825 0.17320378 -0.044719253 -0.017081732
0.087931655 -0.028209796 -0.035848647 -0.12191195 0.095199764 -0.05568072 0.105820864 0.08182082
0.02219298 0.111609206 0.1251556 0.049357858 0.06004045 -0.07071238 -0.10854229 0.2129274
0.033229128 0.12134187 0.095993504 -0.005321381 0.11018179 0.1644827 -0.01994393 0.08374584
0.027157078 -0.014925605 -0.056152508 0.08351606 0.06175217 0.06599091 0.12074293 -0.07455137
0.18886918 0.056180913 -0.0365619 -0.025210463 -0.043139055 -0.025528293 0.036800753 0.15390062
0.046529476 0.027492287 0.056764226 0.04972717 -0.09876277 0.022819856 0.19822206 0.08463602
0.1693507 0.11210663 0.10910234 0.10865084 -0.009721326 0.035972815 0.14028941 0.13401744
0.025160335 0.08866473 0.08204172 0.17606542 -0.09286451 -0.072045885 0.04201789 0.014096419
0.024441062 -0.0492216 0.0096018845 -0.06850657 -0.024910206 0.09483162 0.007821531 0.09924367
0.02761654 0.049006872 -0.024559574 -0.06320915 -0.030233016 0.08688367 0.020946853 0.018213904
-0.027944876 -0.0819512 -0.13411216 -0.077221364 0.03307553 -0.02975992 0.039862357 0.20734195
0.005730257 0.122899845 0.10272014 0.0146257905 0.24289963 0.038590558 0.07991047 0.016211731
-0.16919558 0.03791686 0.08923515 0.08066395 0.023321388 0.07997692 -0.07553728 -0.022075264
-0.016615631 0.049543366 0.036720514 0.045407083 0.00071208755 0.19811423 -0.09032089 -0.099244244
-0.036777794 -0.05475408 0.019306691 0.013375022 0.10463184 -0.028307715 0.028470028 -0.08488928
0.072987504 -0.06564615 0.0011031155 0.035461616 0.1736638 0.0064871325 -0.008470166 0.04244067
0.014002328 0.09160567 -0.10124002 -0.0028874367 -0.13116646 0.08796934 0.11634027 0.01608191
-0.04229212 0.102180205 -0.081595466 -0.071057126 0.061553456 0.009299023 0.048195306 -0.095807664
0.050499205 -0.016985258 -0.0009852016 0.07175848 -0.04222878 0.01363444 -0.031080551 0.111012794
-0.049032025 0.045125414 -0.07921664 -0.033002235 0.059806015 0.16816588 0.05539439 -0.010236771
0.06361972 -0.042352796 -0.020991828 0.14580688 0.043200914 0.082497925 0.12608317 0.09725496
0.114510424 0.12353105 -0.06532776 -0.016458964 -0.027195571 0.12352527 0.13211296 -0.0052932114
-0.019790588 0.09582131 0.04218863 -0.0504141 0.0068803527 0.0856493 -0.07078973 -0.044674557
0.23611452 -0.038326934 -0.06542128 0.006004216 0.03569178 -0.014521348 -0.020690873 0.07122995
00000000: 6733 df3c 9e8d 3b3d db3e a73d bedc e13c
00000010: f0e5 f13c 89da 0dbd 4591 373d 686d 993d
00000020: fad4 2b3d 250f 28bb 2532 273d dcbd ed3d
00000030: a39f 5d3d 3783 853c 9a33 d53d 39cb 873d
00000040: bda9 9abd 4934 793c 585c 173e ad26 61bc
00000050: 7b46 d23c 37f6 103d 350c 643c 7f1d 7b3d
00000060: 2efe 74bd faf6 65bd 4565 8cbd 5426 b5bc
00000070: 57bc 6f3d 77f1 ba3d 1487 b83c cbf1 2cbc
00000080: c806 5dbc 01b4 81bc 93c3 423e 0d1a 8abc
00000090: 98b7 f73d 5c09 a13d e6e0 b13d 7a8a 813d
000000a0: f0b2 193e 7d3f 353e 84ba 893d f75d d7bc
000000b0: 95e7 c83c 8117 c8bc 2711 b8bd 6cbf 0c3e
000000c0: 8fc9 c53d 85a8 c5bd 7fad 823d eef1 963c
000000d0: d2a2 553b ba02 0fbd e2ed bc3d 9f3a 10bd
000000e0: 4b67 923c 5815 36bc 507a 313e 921d 82bd
000000f0: 3d31 663c 555c 313e 892b 37bd fdee 8bbc
00000100: 8315 b43d 3b18 e7bc 08d6 12bd f9ac f9bd
00000110: 18f8 c23d 7711 64bd 9cb8 d83d ad91 a73d
00000120: 0dce b53c 5e93 e43d ca28 003e 772b 4a3d
00000130: faec 753d a7d1 90bd 6c4b debd a409 5a3e
00000140: 441b 083d 1682 f83d 3e98 c43d fb5e aebb
00000150: fea6 e13d 276e 283e 7461 a3bc f082 ab3d
00000160: 8578 de3c 868a 74bc 2c00 66bd 780a ab3d
00000170: d8ef 7c3d 3e26 873d 1248 f73d 64ae 98bd
00000180: ec66 413e f51d 663d eec1 15bd 2c86 cebc
00000190: 94b2 30bd b620 d1bc 63bc 163d 2098 1d3e
000001a0: b195 3e3d 8137 e13c 9b81 683d b8ae 4b3d
000001b0: 2344 cabd b5f0 ba3c b9fa 4a3e a655 ad3d
000001c0: 456a 2d3e 2998 e53d 0c71 df3d 5584 de3d
000001d0: 3246 1fbc 3b58 133d 07a8 0f3e de3b 093e
000001e0: 0c1d ce3c db95 b53d 7d05 a83d 7e4a 343e
000001f0: c02f bebd cb8c 93bd f31a 2c3d abf4 663c
00000200: 9f38 c83c 979c 49bd 3951 1d3c 2c4d 8cbd
00000210: 7d10 ccbc 1537 c23d e125 003c 4440 cb3d
00000220: 153c e23c 6ebb 483d 2931 c9bc cd73 81bd
00000230: 3bab f7bc 11f0 b13d bc98 ab3c 5335 953c
00000240: a7ec e4bc 08d6 a7bd b354 09be 3c26 9ebd
00000250: 357a 073d 13cb f3bc b646 233d 7351 543e
00000260: e1c4 bb3b eab2 fb3d f05e d23d 03a1 6f3c
00000270: aeba 783e 2211 1e3d 1aa8 a33d 77ce 843c
00000280: 9b41 2dbe b64e 1b3d ebc0 b63d 2433 a53d
00000290: 7f0c bf3c f0ca a33d 4ab3 9abd 2fd7 b4bc
000002a0: 811d 88bc fced 4a3d 4068 163d c7fc 393d
000002b0: 63ab 3a3a 75de 4a3e 29fa b8bd 9140 cbbd
000002c0: 50a4 16bd d045 60bd 1129 9e3c e922 5b3c
000002d0: 3849 d63d 95e5 e7bc fa39 e93c 6eda adbd
000002e0: 797a 953d 7d71 86bd 6a96 903a 3340 113d
000002f0: ecd4 313e 0392 d43b 73c6 0abc 45d6 2d3d
00000300: 056a 653c c19b bb3d ed56 cfbd 263b 3dbb
00000310: 8050 06be 4529 b43d cf43 ee3d 36be 833c
00000320: 813a 2dbd db43 d13d 861b a7bd 6686 91bd
00000330: 7a1f 7c3d ee5a 183c 7168 453d cf36 c4bd
00000340: 41d8 4e3d ab24 8bbc e121 81ba 1cf6 923d
00000350: 16f8 2cbd fc62 5f3c a49c febc ad5a e33d
00000360: ced5 48bd 6dd5 383d 553c a2bd 5a2d 07bd
00000370: 27f7 743d ad33 2c3e 3ae5 623d 21b8 27bc
00000380: 0e4b 823d 207a 2dbd 0ef7 abbc 664e 153e
00000390: 71f3 303d acf4 a83d f21b 013e 9c2d c73d
000003a0: 7184 ea3d d9fd fc3d 90ca 85bd f3d4 86bc
000003b0: 3fc9 debc d1fa fc3d 9f48 073e ad72 adbb
000003c0: df1f a2bc f73d c43d fccd 2c3d 047f 4ebd
000003d0: 9574 e13b e668 af3d 35fa 90bd abfc 36bd
000003e0: 01c8 713e b4fc 1cbd 98fb 85bd 04bf c43b
000003f0: 8b31 123d f3ea 6dbc e87f a9bc 02e1 913d
