loto6_cnn/loto6_30_280.model (npz, 491146 bytes, 38 tensors)

bn1/beta f4 [64]
000000 02 9f 3c 3d 6c 45 53 3c 41 b8 c1 3c 9f 41 92 3d
       0.04605008 0.012894969 0.02364743 0.071414225
000010 1b ca 59 bc e1 d2 38 3d 77 41 de 3d 39 e7 8e 3c
       -0.013292815 0.045122985 0.1085233 0.01744424
000020 72 e3 41 3c d1 59 82 3d c7 6b a8 3d 70 8a 9d 3d
       0.011834012 0.06364787 0.08223682 0.076924205
000030 e2 70 32 3d 85 ec 83 3d b6 79 b7 3d 9a 45 44 3d
       0.043564685 0.06441597 0.089587614 0.04791794
000040 fc a0 c0 3d e3 5e 0e 3d ca 38 7e 3c 57 9f 30 3d
       0.09405705 0.03475846 0.015516469 0.04312071
000050 c1 5e 82 3d 29 b1 4e 3d 5f 9a 5c 3d c0 eb f0 3b
       0.06365729 0.05046192 0.053858157 0.0073523223
000060 9b 76 a6 3d 1f 3b 24 3d e1 bf 39 bc 6a 2d 1a 3d
       0.08128091 0.040095445 -0.011337251 0.037640966
000070 02 46 97 3d 5f 28 ce 3b 1f 91 4f 3d 18 0c de 3b
       0.073864 0.0062914337 0.050675508 0.006776344
000080 47 08 4b 3c da e6 a6 3c 6e 6a 9d 3d 83 8b 1f 3d
       0.01239211 0.02037375 0.076863155 0.038951408
000090 0c 3a ae 3b aa e3 e0 3c 8b 88 c6 3d 46 32 bd 3d
       0.0053169783 0.027452309 0.09694012 0.092381045
0000a0 f1 37 b2 3c 50 15 69 3d a6 ba d7 3c f3 ae db 3c
       0.02175519 0.05690509 0.026334118 0.02681682
0000b0 21 ad 3b 3d 0c 8d ae bb fc 07 95 bb da 59 b5 3d
       0.045819405 -0.0053268727 -0.004548071 0.088550285
0000c0 77 6c 95 3c a8 9d 9a 3d b3 0b 7e bc 6d 21 68 3c
       0.018240197 0.07549602 -0.015505719 0.014168126
0000d0 7c 2d 88 3d 76 16 1f 3d 0c 38 8e 3d 0d 1f 0a 3d
       0.066493005 0.03883978 0.06944284 0.03372102
0000e0 db 27 b1 3d 67 a7 34 3d 07 1b 8a bc 1a a7 dc 3d
       0.0865018 0.04410496 -0.01685859 0.107740596
0000f0 47 7f 4e 3d 9d 33 c1 3c fd 68 6e 3d a2 75 ec 3c
       0.05041435 0.023584181 0.058205593 0.028864685

bn3/gamma f4 [64]
000000 cc 8a 88 3f 74 03 8b 3f 19 71 8a 3f 55 37 88 3f
       1.0667357 1.0860429 1.0815765 1.0641886
000010 b1 5b 81 3f 62 34 85 3f 00 e4 85 3f 0c c0 81 3f
       1.0106107 1.0406611 1.0460205 1.0136733
000020 fa 38 85 3f cd 80 81 3f 44 c2 7c 3f ed b3 82 3f
       1.0408013 1.0117432 0.98733926 1.0211159
000030 51 01 81 3f 7e 43 86 3f 6a 1f 83 3f 85 9c 7d 3f
       1.0078527 1.0489347 1.0243962 0.99066955
000040 30 ec 7d 3f eb 3e 80 3f 8a 49 86 3f ef d7 7c 3f
       0.9918852 1.0019201 1.0491192 0.9876699
000050 7a 54 83 3f 9e 75 84 3f 8b 08 80 3f 47 2f 81 3f
       1.0260155 1.0348394 1.0002607 1.0092553
000060 ee a1 81 3f 4f 93 81 3f da 50 81 3f 37 df 80 3f
       1.0127542 1.012308 1.0102799 1.006812
000070 0c 62 82 3f e9 80 81 3f 97 7f 7e 3f b3 c9 85 3f
       1.0186172 1.0117465 0.99413437 1.0452179
000080 2a 7e 81 3f a1 5a 81 3f 90 83 83 3f 3c 04 83 3f
       1.0116627 1.0105783 1.0274525 1.0235667
000090 70 36 81 3f 67 d1 89 3f 8b ea 8a 3f 81 3e 84 3f
       1.0094738 1.076703 1.0852827 1.0331575
0000a0 c7 ff 81 3f 93 4f 82 3f 8c c4 81 3f ea 2b 84 3f
       1.0156182 1.0180534 1.0138106 1.0325902
0000b0 b8 60 85 3f 65 16 84 3f 4e db 80 3f 22 b9 86 3f
       1.0420141 1.0319334 1.0066926 1.0525248
0000c0 ae a0 81 3f ff d7 83 3f eb 88 80 3f cd 6c 7f 3f
       1.012716 1.0300292 1.0041784 0.9977539
0000d0 6b a4 81 3f 38 c2 7c 3f 39 a8 86 3f 01 46 8c 3f
       1.0128301 0.98733854 1.0520087 1.0958863
0000e0 75 81 83 3f 9b 10 81 3f 11 4d 7f 3f ca 5e 82 3f
       1.0273882 1.0083193 0.9972697 1.0185177
0000f0 df 74 81 3f 5a df 81 3f c4 90 8b 3f 80 d9 81 3f
       1.0113791 1.0146286 1.0903554 1.0144501

bn4/beta f4 [32]
000000 49 36 c1 3c ef cf 75 3d a3 26 8c 3c cf ab 94 3d
       0.023585455 0.060012754 0.017108267 0.072593324
000010 f4 68 51 3d 75 e0 6d 3d ac f3 f3 3d 90 e8 d1 3c
       0.05112548 0.058075387 0.11911711 0.02562359
000020 d2 bd d2 3d fb 88 03 3e 3c 0d 9f 3d 2c e9 9a 3d
       0.102901116 0.12845223 0.07766196 0.07564005
000030 87 e7 68 3d 29 6b aa 3d 28 74 9f 3b 14 4e 8d 3c
       0.056861427 0.083212204 0.004866142 0.017249145
000040 fb 1b 70 3c 97 18 93 3d fc 8c 3c 3d eb 03 23 3c
       0.014655109 0.071824245 0.04603289 0.009949665
000050 28 82 8e 3d fb 17 fb bb 8d a5 70 38 be 79 57 3d
       0.06958419 -0.007662771 5.737464e-05 0.052606337
000060 39 ec 9d 3d b9 f3 63 3d b2 15 a9 3d 58 a7 bc b8
       0.077110715 0.055652354 0.08256091 -8.995709e-05
000070 ed 59 75 3d 3d a1 ef 3d a7 d8 a9 3d cd 99 9c 3d
       0.059900213 0.11700676 0.08293276 0.07646523

bn2/avg_mean f4 [64]
000000 93 9c 90 be 08 8b 2f bf b3 6f 67 bf 73 9c a0 bf
       -0.28244457 -0.6857152 -0.90404814 -1.2547745
000010 e4 d4 9f 3d 64 25 dc be aa 2e a0 bf 3b e8 b0 bf
       0.078042775 -0.42997277 -1.2514241 -1.3820871
000020 d6 96 ed be 81 19 ba bf 3a 58 c7 be b1 1f cc be
       -0.4640414 -1.4539033 -0.389345 -0.3986793
000030 1a 36 47 bf 74 76 41 bf b6 4a 55 3f 05 6e 7e bf
       -0.7781693 -0.7557137 0.83317125 -0.99386626
000040 34 2e 19 bf 14 39 69 bf 6f 38 71 bf ec 8d 8b bf
       -0.59836125 -0.9110272 -0.94226736 -1.0902686
000050 9d 12 56 bf eb 47 b7 bf 6c 1b bd be 61 4f 42 3d
       -0.8362215 -1.4318823 -0.36934984 0.047438983
000060 ae e7 6e bf 96 1f 61 bf 2c 56 39 bf 30 b7 19 bf
       -0.93322265 -0.8793882 -0.7239711 -0.60045147
000070 ce bf aa 3e 58 03 d6 be bc e9 ba bb d6 e3 69 bf
       0.3334946 -0.41799426 -0.005704133 -0.91363275
000080 34 6b 1a 3d 3a f4 80 3e 30 57 6e 3d b8 f9 b9 bf
       0.037699893 0.2518633 0.058188617 -1.4529333
000090 e3 aa b2 be 88 50 d0 3d 53 c4 fa bd 98 7e 7a be
       -0.34896 0.1017161 -0.12244477 -0.24462354
0000a0 53 9a 72 bf 7e b5 0c be bb 43 62 bf ae d3 e9 3e
       -0.9476673 -0.13741109 -0.883846 0.4566931
0000b0 e0 eb 5e bf 0f cc 72 bf c8 c7 e9 be d8 54 a7 bf
       -0.87078667 -0.9484262 -0.45660233 -1.3072767
0000c0 f0 94 5c bf 67 0e 4a bf b7 25 67 bf 4d 00 e8 bb
       -0.8616476 -0.78928226 -0.90291923 -0.007080114
0000d0 56 49 a6 bf e2 8d 64 bf 52 f1 5a bf 27 ea 5c bd
       -1.299113 -0.89278996 -0.85524476 -0.053934243
0000e0 85 04 98 bf 19 90 8e bf 88 17 09 bf 44 2d 9b 3e
       -1.1876379 -1.1137725 -0.5355153 0.30307972
0000f0 5e 3f f4 bd 5a fe ab bf a7 c1 91 bf 84 4c 8d bf
       -0.11926149 -1.3436997 -1.1387223 -1.1038976

conv1_6/b f4 [32]
000000 89 a2 34 b9 88 4f 4f 39 52 39 42 ba 73 c1 0d ba
       -0.00017226687 0.00019770686 -0.0007409054 -0.00054075493
000010 85 37 6c ba e7 83 2d b8 c0 b5 37 37 da ed 37 3a
       -0.00090109586 -4.1369258e-05 1.0949967e-05 0.00070163386
000020 4f d4 de b9 7a 9b 45 b9 3a f0 9d 38 8f 94 14 3a
       -0.00042501322 -0.00018845304 7.531089e-05 0.0005667889
000030 c2 08 9b b9 3f 24 20 ba d7 97 7e 39 6b 1a 5d 39
       -0.0002957043 -0.0006108917 0.00024279892 0.00021086044
000040 ff 70 1d 3a 96 9a 36 b9 76 42 4b ba 6d c7 f5 b9
       0.00060059124 -0.0001741446 -0.0007753739 -0.00046878625
000050 36 f4 42 3a e7 a0 4e b9 93 68 c6 39 56 a2 be 38
       0.0007436903 -0.00019705632 0.00037843417 9.0901434e-05
000060 8a 80 03 b9 64 13 93 3a 49 e8 50 38 61 74 fc b8
       -0.00012541018 0.0011220989 4.9807397e-05 -0.00012037974
000070 fb ee 84 b9 87 fb 3a 39 ed 96 a5 39 b8 d7 8e 39
       -0.00025355056 0.00017832044 0.000315837 0.00027245074

conv1_5/b f4 [32]
000000 de 91 c7 b9 42 65 ca 38 64 87 20 3a 26 4c 1c 39
       -0.00038064917 9.650971e-05 0.00061236904 0.00014905687
000010 00 93 97 b9 d1 dd 91 39 85 82 31 39 77 89 26 b9
       -0.00028910488 0.0002782182 0.00016928658 -0.00015882203
000020 ae a3 10 39 e4 d7 36 b9 41 70 c3 b9 a9 d7 8e 39
       0.00013793886 -0.00017437298 -0.00037276934 0.0002724503
000030 37 df eb b9 e8 2f b7 39 52 78 08 38 69 69 25 3a
       -0.00044989 0.00034940173 3.2536984e-05 0.0006309958
000040 ad 3c 03 38 63 fc ec 39 cd 2d 66 39 c0 58 c3 b9
       3.1289343e-05 0.0004520147 0.00021951571 -0.00037259422
000050 ee 0b e1 38 15 08 d7 39 46 c0 e0 ba 86 9c 23 b9
       0.00010731058 0.00041014017 -0.0017147146 -0.00015603201
000060 00 3f d8 b7 7f ee ff 39 eb f4 19 39 a8 3a c3 39
       -2.5778543e-05 0.00048815084 0.00014682456 0.00037237
000070 5d 7d 81 39 25 f1 e7 b9 d2 88 0a 38 cd 9d 04 39
       0.000246982 -0.0004423942 3.3029188e-05 0.00012647286

bn3/avg_var f4 [64]
000000 08 56 9d 3e e4 9c 32 3f 6d 2e 06 3f 65 50 13 3f
       0.307297 0.69770646 0.5241459 0.5754455
000010 95 c1 de 3e a4 5f 9e 3e 11 dc 47 3f d3 d5 ab 3e
       0.43507066 0.30932343 0.7807017 0.33561572
000020 d6 2d d2 3e ed 0f ba 3e 60 6c bb 3e 54 ac b0 3e
       0.41050595 0.36340275 0.3660612 0.34506476
000030 d6 f1 f7 3e 75 1e 8d 3e 8f a3 1d 3f d1 33 bb 3e
       0.48426694 0.275623 0.61577696 0.3656297
000040 b4 fc 9f 3e 8e 28 b9 3e 97 7a be 3e de a9 19 3f
       0.31247485 0.36163753 0.37202904 0.6002482
000050 7e d3 b8 3e 2c 9e b9 3e 86 07 b3 3e bb cc ec 3e
       0.36098856 0.36253488 0.34966677 0.46249947
000060 f2 44 b7 3e 6c b9 d7 3e f0 9b 93 3e 36 e0 11 3f
       0.3579479 0.42133653 0.28829908 0.56982744
000070 42 de ad 3e ac 8a 90 3e dd 4b dc 3e bd 51 df 3e
       0.33958632 0.28230798 0.4302663 0.4361705
000080 18 60 b6 3e 80 f7 cf 3e 29 ec b7 3e 84 7b c7 3e
       0.3562019 0.40618515 0.35922363 0.38961422
000090 8b 61 d7 3e be f7 08 3f 53 8f 3e 3f 53 0d a9 3e
       0.42066607 0.53503025 0.74437445 0.33017978
0000a0 42 6f b3 3e e8 5e 80 3e bf 69 ab 3e dd 27 8d 3e
       0.3504582 0.25072408 0.33479115 0.27569476
0000b0 c2 0d c4 3e c3 4d a0 3e 4c c2 72 3e da 6c 10 3f
       0.38291746 0.31309327 0.23706931 0.56416094
0000c0 8d 88 af 3e e0 2a be 3e 09 bd e4 3e 4e 86 b6 3e
       0.34283867 0.37142086 0.44675472 0.3564934
0000d0 5f 96 23 3f 38 17 a7 3e 89 db a9 3e e6 16 39 3f
       0.63901323 0.32634902 0.33175305 0.72300565
0000e0 dd 78 dd 3e ed 8e 64 3e 7a 26 b1 3e 9f 57 bc 3e
       0.43256274 0.22320147 0.34599668 0.367856
0000f0 d9 80 09 3f b4 a9 93 3e f7 93 20 3f dd 6e 01 3f
       0.5371223 0.2884041 0.62725776 0.5055979

conv1_3/W f4 [64, 64, 3, 3]
000000 d9 f5 16 bc 07 ab af bd 8b d3 b6 bb 20 3f b8 3d
       -0.009213888 -0.08577543 -0.005579417 0.08996415
000010 e1 05 2d bd 9e 50 27 3d 2c dc 88 3c 07 ef e7 3c
       -0.042241935 0.040848367 0.016706549 0.02831222
000020 3a 68 60 3c 18 7d 2e bc 6a c8 9f 3c cf 58 bd bd
       0.013696725 -0.010649942 0.019504745 -0.092454545
000030 98 54 ed bc 4b 17 34 3d 13 76 2c bb 73 b2 fd 3a
       -0.028971002 0.043967526 -0.0026315495 0.001935555
000040 dc 37 6a bd da 7e dd 3c 9f 7b 6e bd cd 9e 7d bd
       -0.057182178 0.027038027 -0.058223363 -0.061919022
000050 f0 8b 50 3c 76 ad ff bb 73 fb c6 3c 7b bd 03 3d
       0.012728676 -0.0078026606 0.024289822 0.032163125
000060 f2 8b 94 bc c0 e6 6d bd 48 c5 88 bd 57 8a c4 3b
       -0.018133137 -0.05808139 -0.066782534 0.0059979367
000070 34 78 4a 3d 02 bb 02 bd 20 a9 20 bc 3e 35 d7 3d
       0.04943104 -0.031916626 -0.009805948 0.10508202
000080 56 63 dc bc a5 ad 3e 3d bf 54 03 bd 06 9e 57 3c
       -0.026902836 0.04655232 -0.032063242 0.013160234
000090 b8 97 79 bb 10 0a 81 bd 63 cb 18 3d e4 53 97 3d
       -0.0038084816 -0.063007474 0.03730334 0.07389048
0000a0 b1 0f 34 3c c0 fd 5c 3b 6e 50 ef 3b a1 05 56 bd
       0.010990069 0.0033720583 0.007303289 -0.052251462
0000b0 b2 79 0b 3d c8 14 a7 bc 43 0a 27 bd a7 2e 63 bd
       0.034051605 -0.020395651 -0.04078127 -0.055464413
0000c0 f3 75 7a 3c 06 b2 10 bd 91 21 85 3c 98 7d 71 3d
       0.01528691 -0.035326026 0.016251357 0.058957666
0000d0 48 25 b1 3b e6 5f d4 bb 10 4c e5 3c 9c 40 a8 3c
       0.0054060556 -0.0064811585 0.027990371 0.02053862
0000e0 75 c0 d1 bc 55 47 25 bd f8 33 b2 bd 44 82 43 3c
       -0.025604466 -0.04035123 -0.087013185 0.011932913
0000f0 bd 4f 1e 3b 15 f9 31 bc da c9 d1 bc ab d0 e9 3b
       0.0024156414 -0.010862608 -0.025608946 0.007135471
000100 68 8b 19 bd 1b 18 07 bd bd 27 3c 3c 8b 8f 91 bc
       -0.037486464 -0.032981973 0.011484084 -0.017768642
000110 87 c4 61 bc 16 1d 87 3c f5 74 d8 ba 45 4e b0 3c
       -0.013779766 0.016493361 -0.0016514348 0.021521697
000120 78 5f 46 bc cc 98 e6 bb cf 31 82 3d 86 4d 80 3d
       -0.012107722 -0.007037258 0.063571565 0.062647864
000130 7a 9e d5 3c 72 d5 ac bb e9 5a 74 3c f9 2a 92 3b
       0.026076544 -0.005274468 0.014914253 0.004460689
000140 20 3f a2 bc 4f ba c4 bc 94 8b 76 3d c2 b9 d9 bc
       -0.019805491 -0.02401462 0.060191706 -0.026577834
000150 84 f9 09 bd f4 57 b4 bd cc a4 c3 3c 0b 1c 66 bd
       -0.033685222 -0.08805838 0.023882292 -0.056179088
000160 60 d4 6a bd cb 67 0b 3d ab 34 13 bc ed 28 95 3c
       -0.057331443 0.03403453 -0.008984725 0.018207991
000170 59 56 04 3d cf 5b 6c 3b 2d 0f 88 bd d5 f2 8f bc
       0.03230891 0.0036065464 -0.066435196 -0.017571846
000180 d9 eb 36 3d 2f c3 9e bd 5c 51 50 bc 40 ee 2e bd
       0.044658516 -0.07752072 -0.01271471 -0.04270768
000190 a9 ee 34 bc d4 ff 9b bb f0 6d a8 bc 23 db 77 bd
       -0.011043229 -0.0047607217 -0.020560235 -0.06051172
0001a0 68 3d ad bd d0 ff d1 bb c7 65 85 bb 97 97 b7 bc
       -0.08458978 -0.006408669 -0.0040709707 -0.02241115
0001b0 6a 00 3c bd 13 ac 2e bb d6 24 20 bd 32 b0 85 bd
       -0.045898832 -0.0026652857 -0.03909763 -0.06527747
0001c0 76 37 dd 3c 71 3c 74 bb 02 01 db bc 9e 22 63 3c
       0.027003985 -0.0037267471 -0.026733879 0.013863234
0001d0 e9 ea 40 bd 82 9b 59 bc d4 29 d3 3b 41 4b 2e 3d
       -0.047099028 -0.013281705 0.0064441953 0.042552236
0001e0 3d 04 6d bd b3 11 e6 bc d9 ec 84 bd 81 d6 59 bd
       -0.05786537 -0.028084612 -0.064904876 -0.053183082
0001f0 c0 bf 88 bd 76 cf 9c 3c 8a c7 08 3c e9 fd a4 3c
       -0.066771984 0.019141894 0.008348355 0.020140605
000200 6f 87 00 bd 6e 44 b7 bc 65 fe be 3b 18 52 ac 3d
       -0.03137916 -0.022371497 0.005828666 0.08414096
000210 24 b8 40 3c 47 bd 2d bc 1b ce be bd b0 1c 22 3c
       0.011762653 -0.010604209 -0.09316655 0.009894535
000220 43 5d bf bc e0 1b 68 3d ec fc 84 3b bf 10 34 3d
       -0.0233599 0.05666721 0.004058471 0.043961283
000230 ef f9 09 bd f6 2b 03 bd 41 bb 3d bc 24 d5 4b 3c
       -0.03368562 -0.032024346 -0.011580289 0.012440953
000240 c8 05 61 bd b7 58 56 bc 4f 26 db bb 2f 0f 45 3d
       -0.054937154 -0.013082675 -0.0066879163 0.048110183
000250 75 f4 cf bc 9f d1 38 3d 5f c7 3f 3c 87 5d e9 bc
       -0.02538512 0.045121785 0.011705249 -0.02848698
000260 38 bd 37 b9 e5 92 65 bd ce 81 d7 bc 8a 3e 69 3d
       -0.0001752273 -0.056048293 -0.026307013 0.056944408
000270 f2 30 9d bd 56 aa 04 3c 9b b7 56 bc ef ad a5 bd
       -0.07675351 0.008097252 -0.013105298 -0.08089816
000280 5b 4d ee 3c 39 ce c5 3c d4 a9 3b 3c 84 0d 7b bd
       0.02908962 0.024146186 0.011454064 -0.061292186
000290 a6 7d a2 bc ae 7f a2 3b f2 17 f5 bc 51 62 49 bd
       -0.019835304 0.0049590683 -0.029918645 -0.049166027
0002a0 76 d3 b0 3c 78 af 0e 3d b6 1b 68 bc 37 21 35 bc
       0.021585207 0.03483531 -0.014166763 -0.011055282
0002b0 39 95 9a bd ef 85 18 3d d2 c9 54 bd 68 b9 4d bd
       -0.07547993 0.037237104 -0.051950283 -0.050225645
0002c0 6b b6 d7 3d f0 85 15 bc b9 7a de 3c 10 38 07 3d
       0.1053284 -0.0091261715 0.027158128 0.03301245
0002d0 61 e5 8f 3c bc 26 90 bd f2 23 95 bc e5 fa 92 3c
       0.017565431 -0.07038638 -0.018205617 0.017941901
0002e0 2d 03 7b 3c 11 05 a7 b9 d0 d2 79 bd 04 83 94 3c
       0.015320581 -0.00031856497 -0.060992062 0.01812888
0002f0 50 46 a7 bb 4c ff 99 bc 6b e6 10 ba c8 03 13 3d
       -0.0051048175 -0.018798493 -0.0005527499 0.035892278
000300 20 6a a2 bc f3 be 8e bc e5 92 eb bc 9b af 6e 3d
       -0.019825995 -0.017425036 -0.028756568 0.05827294
000310 9a fa 07 3c 9e d7 d4 3b 28 78 43 bd 30 3f 4b 3d
       0.008299494 0.00649543 -0.04772201 0.049620807
000320 fd fd 3a bd 69 ad 24 bc c4 1a b9 3c 41 09 2f 3d
       -0.04565238 -0.01005111 0.02259577 0.042733435
000330 92 d1 5c bc 00 56 ba bc dd ac 5a bd ac 0f d6 bc
       -0.0134777 -0.022746086 -0.05338751 -0.02613052
000340 dc 59 e7 3a e8 f7 7b bb 74 81 aa 3c 8d a9 15 3d
       0.0017650682 -0.0038447324 0.020813681 0.03653865
000350 2a 7d 17 bd d1 a5 d3 bd 30 28 85 3b 17 d8 32 bd
       -0.0369846 -0.10334361 0.0040636286 -0.04366311
000360 f3 f2 b7 bd ce cc 89 3d 3a 95 b4 bd 86 da 70 bc
       -0.08981886 0.067285165 -0.08817525 -0.014700538
000370 0b e9 8f 3b 2f 7f fc 3b c9 fc 64 39 6c 69 52 bd
       0.0043917946 0.007705591 0.00021837944 -0.05137007
000380 22 f5 9c 3d 9c 0e 9b 3b 95 32 d7 3b 79 3f b8 bd
       0.07663943 0.004731966 0.006567309 -0.089964814
000390 8e 97 44 3d 72 19 a6 3d 7a 1a 33 bd 93 50 1c 3c
       0.047996096 0.08110322 -0.043726422 0.009540695
0003a0 4f e9 66 3b 91 ae c4 bc 2d 1b a8 bc 93 8b 37 bc
       0.0035234278 -0.024009021 -0.02052077 -0.011202711
0003b0 81 1b a2 bc b2 dc 7b bd 5a 7e 74 bd 5a 74 bb 3c
       -0.019788506 -0.06148977 -0.05969081 0.02288263
0003c0 70 b3 56 3d 06 b8 02 3d f6 b9 e4 3c 9a 1d 81 bd
       0.05241722 0.03191378 0.027920704 -0.06304474
0003d0 9b dc 03 3d 7f 93 09 3d 3e 27 3c bd 3b 92 e1 bc
       0.032192808 0.03358793 -0.04593586 -0.027535548
0003e0 a8 2e d7 bc df 45 25 3c 1d 55 fa 3b 48 f0 a0 bc
       -0.026267365 0.010087459 0.007639541 -0.019645825
0003f0 4b b6 9c bc f5 95 5e 3c 6b 05 95 bd 0a c3 5f bd
       -0.019129893 0.013585557 -0.07276424 -0.054629363

bn4/avg_mean f4 [32]
000000 e9 4d 04 40 da 30 93 3f fc 3e 3f bf fa 0f 9f be
       2.0672553 1.1499283 -0.7470548 -0.31066877
000010 5a 27 b5 3d 58 5f da bf c4 39 27 c0 44 26 91 3e
       0.08845396 -1.7060347 -2.6129007 0.28349507
000020 86 f5 20 bd 60 6a ab be d6 b6 dd bf bb 80 1e c0
       -0.03929665 -0.33479595 -1.7321422 -2.476607
000030 d3 ca 0d c0 5e 3d d9 bf a2 4c 30 3f 74 da 51 bf
       -2.2155044 -1.6971853 0.6886693 -0.8197396
000040 21 81 97 bd c6 c1 94 be 3a aa 7f bf f9 b3 06 c0
       -0.07397676 -0.29054087 -0.9986912 -2.1047347
000050 63 c6 0d c0 84 74 96 3f e7 03 0a 40 8a 20 15 c0
       -2.2152336 1.1754308 2.1564882 -2.330111
000060 22 d2 03 c0 17 81 6b 3f a3 03 35 c0 95 2b 84 bf
       -2.0597005 0.9199385 -2.828347 -1.03258
000070 f0 f5 af bf 7b 4c 41 c0 c7 58 2c c0 e4 f5 61 bd
       -1.3746929 -3.020293 -2.6929185 -0.05516614

bn3/beta f4 [64]
000000 d0 c0 32 3b 1d 03 0e bc aa c8 bb ba 83 97 8c bc
       0.002727557 -0.008667734 -0.001432677 -0.01716209
000010 d2 1c 10 bc 17 50 87 b9 87 d1 74 3d 8e a1 9e 3c
       -0.008795934 -0.00025808878 0.059770133 0.019364145
000020 0f 6f b4 3c 66 45 52 bb c5 84 cf bc 8a 5a e3 3c
       0.022025613 -0.0032084822 -0.025331864 0.027753133
000030 3d be b1 3b f1 b7 95 3c f6 b4 64 3c e8 28 ba bb
       0.0054242895 0.018276187 0.01395916 -0.005681146
000040 d1 10 4a bc 99 68 fd bc 55 56 9b 3c b1 a2 e3 bc
       -0.012333111 -0.030933665 0.018962065 -0.027787538
000050 3b 67 79 3c 14 d1 0e 3d 09 a5 74 bc e9 7d 74 bc
       0.015222366 0.03486736 -0.014931926 -0.014922597
000060 01 ae 14 bd 57 e7 37 3c ed 9a 77 3c a0 f7 a8 b9
       -0.036298756 0.011224589 0.015112621 -0.00032227952
000070 4f da cf 3b 04 12 9e 3b b5 a0 0b bd 5a 93 11 bc
       0.006343163 0.004823925 -0.03408881 -0.008885229
000080 3e 95 4a bb d7 9e 6a bb b7 58 81 3c 82 77 98 3c
       -0.003091171 -0.0035800242 0.015789373 0.018611673
000090 05 7b 46 3c 0f 75 44 3a f8 7e 27 bd 20 42 04 3d
       0.012114291 0.000749425 -0.04089257 0.032289624
0000a0 f1 92 4b 3c a3 81 92 3c ad 80 0b bc c9 5f 46 3c
       0.01242517 0.017884081 -0.008514565 0.012107798
0000b0 bc 99 7f 3c 1c a3 a8 3c 04 30 cb ba a6 01 02 3d
       0.015600618 0.02058559 -0.0015501981 0.031739853
0000c0 4f c5 0f 3a f8 c8 a2 3c df 53 10 bb c0 25 85 bc
       0.00054844184 0.01987122 -0.0022022647 -0.016253352
0000d0 00 a7 f0 3c 05 1e c0 bc d0 dd 1d 3d 02 89 2e 3c
       0.029376507 -0.023451814 0.038541615 0.010652782
0000e0 3f 9b 33 3d 94 63 e8 bc 6d f9 46 3b d1 04 9b bc
       0.043849226 -0.028367795 0.0030361072 -0.018923195
0000f0 c3 26 5f bb 9c 39 31 bc e7 0e cc bc a8 0d b3 bb
       -0.0034050203 -0.010816958 -0.02490945 -0.0054642744

conv1_7/b f4 [3]
000000 e9 36 de 3c 2d ca 08 3c bb c0 1a bc
       0.027125793 0.008348984 -0.009445365

conv1_4/W f4 [32, 64, 3, 3]
000000 f9 c3 02 bd f9 18 48 3d 3a bb 3c 3c 33 5a 8d 3d
       -0.031925175 0.04885194 0.011519248 0.0690197
000010 07 29 df 3d 95 f1 d8 bc c7 bb 77 bc 30 1c 3f ba
       0.10896497 -0.026482383 -0.015120453 -0.0007290272
000020 cd 31 48 3c e9 8a 53 3d cf 6b 62 bd a9 33 eb bc
       0.012218905 0.051646147 -0.055278596 -0.028711157
000030 6d 27 19 3d f5 64 4d 3d 01 e7 51 bd a3 e0 d8 bd
       0.037391115 0.05014511 -0.051245693 -0.10589721
000040 37 f1 87 3c 52 d7 11 3d 99 7d 10 3c f9 72 4b bd
       0.016594512 0.035605736 0.008819007 -0.049670193
000050 aa c3 3c bd 2f 62 f8 3c cb b7 b8 bd 85 e6 b9 3c
       -0.046085037 0.030320255 -0.09019431 0.022692928
000060 78 a1 72 bc db 9d a8 3d 04 46 b5 bd 02 5d 07 3d
       -0.014809005 0.082332335 -0.08851245 0.033047684
000070 70 26 a1 bc d8 9e 13 bc 86 35 8d ba b5 0b ff 3a
       -0.019671649 -0.009010039 -0.0010773398 0.0019458445
000080 39 ce 95 3c ea 32 c7 bc 5f 89 81 3c f2 6f 85 3b
       0.018286811 -0.02431627 0.015812574 0.004072183
000090 f0 05 3e bd 6e 85 97 3b a5 64 09 bc ac d1 8c bc
       -0.04639238 0.0046240604 -0.008385812 -0.017189823
0000a0 2b 1d f8 bc f0 f9 ae 3c 2e 5d 8f 3b 64 cb c8 3b
       -0.030287346 0.021359414 0.0043751216 0.0061277617
0000b0 2a 4a 7c 3d c0 83 a9 bb e4 77 07 3d 6a 79 63 3c
       0.061594166 -0.0051731765 0.03307332 0.013883928
0000c0 46 26 a2 3c 30 d9 53 bc 0b 96 95 3c 1a a8 c6 bb
       0.01979364 -0.0129301995 0.018260023 -0.0060625197
0000d0 93 64 f8 3c 31 9b 8d 3c 76 a2 89 3d 5a 91 a9 3d
       0.030321395 0.017285915 0.0672044 0.08279677
0000e0 9d 21 e8 ba fa ff 61 bd e9 8a ed 3c 65 2b 85 bc
       -0.0017710213 -0.05517576 0.028996902 -0.016256044
0000f0 98 9c 30 3b c3 65 53 3c 76 2f a0 bd be ac 9e bc
       0.0026948806 0.01290268 -0.078215525 -0.01936948
000100 3c ed c7 3d ff d4 d1 3c 1e db df 3b d0 b9 a6 3c
       0.09762046 0.02561426 0.0068315407 0.020352274
000110 36 55 28 3c 95 64 78 3c 61 1b a7 bc 5e b9 65 bd
       0.010274222 0.015160699 -0.020398797 -0.056084983
000120 2c 14 a2 bd 46 4a 00 3c 88 87 fd bc 4b a6 53 3d
       -0.07914004 0.007830208 -0.030948415 0.05167226
000130 7f 50 25 bd d9 0c 3a 3d 39 37 c5 b9 90 aa c4 3c
       -0.04035997 0.04542241 -0.00037615912 0.024007112
000140 06 0b ff 39 b8 68 e5 bc f0 c4 1d bd dd 6d 78 bc
       0.00048645603 -0.028004035 -0.038517892 -0.015162912
000150 5a f4 c6 bd b4 20 62 3d 01 f8 84 3d c4 be 39 3d
       -0.09714575 0.05520697 0.064926155 0.045347944
000160 63 1b ee 3c 38 ee 53 bc 52 8e 09 3d 93 b9 9a 3c
       0.029065793 -0.012935214 0.033582993 0.018887317
000170 3e c8 e4 3c 8a c8 e8 3b ad e8 81 3c 85 c4 69 bb
       0.027927514 0.0071039842 0.015858019 -0.0035670113
000180 ef 90 71 3c 29 af 1d bd 1c ce 04 3d 1c 80 68 bb
       0.0147440275 -0.038497124 0.032423124 -0.003547675
000190 b4 37 28 bd 88 81 35 3d 5a 80 a8 bd 1b 5b dc 37
       -0.041068748 0.044312984 -0.08227606 2.6268468e-05
0001a0 d1 c2 ec 3c f6 60 53 bd 80 aa 71 3d 47 f2 fe bb
       0.02890149 -0.05160614 0.059000492 -0.0077803466
0001b0 6f 92 91 3c 57 dc 5f 3c 0c 46 fb bd d2 6f b3 bc
       0.01777002 0.013663373 -0.1226922 -0.021903906
0001c0 6e 8e 28 bd a9 a6 46 ba 37 c4 52 bd 37 62 c4 bc
       -0.041151457 -0.0007577935 -0.051456656 -0.023972614
0001d0 60 72 f0 bc 79 f0 36 3c 50 13 31 bd 1b c1 c2 bc
       -0.029351413 0.011165732 -0.04323131 -0.02377372
0001e0 4b 99 64 3b c0 4f 78 3d 4b 10 ba bc df dc 79 bb
       0.0034881409 0.06062293 -0.022712847 -0.0038126034
0001f0 02 81 06 3d 16 97 0a 3d 19 e6 4d bc a1 1d ab bd
       0.032837875 0.033835493 -0.012567067 -0.08355261
000200 ba bc 77 bb 82 08 8a 3c 3f ef 39 3d a8 82 20 bd
       -0.0037801699 0.01684976 0.04539418 -0.039187104
000210 be 89 80 3d 50 47 a3 3d 7e e7 e6 3c 30 56 bb 3c
       0.06276272 0.07972586 0.028186556 0.022868246
000220 54 41 ac 3c e1 a5 6a 3d 74 ec e6 bc 9f 50 c2 3c
       0.021027245 0.0572871 -0.028188922 0.023720084
000230 b6 2a 9f 3d 0e 06 9c 3c 68 10 86 bd 04 18 b3 bc
       0.07771818 0.019045856 -0.06546098 -0.021862037
000240 28 9c 4f bd 2b d2 59 3c 7a 9c 0f bd 6f 30 cf 3c
       -0.05068603 0.013294737 -0.035061337 0.02529165
000250 f4 f1 84 3d 77 c2 7c bc fe d8 8f bd 13 b7 b0 bc
       0.064914614 -0.015427223 -0.0702381 -0.021571672
000260 e9 11 a3 3c d4 78 99 bd ba e5 e1 bc f4 73 fd 3c
       0.019906001 -0.07493749 -0.027575362 0.03093908
000270 41 46 ce bb 5e 90 9b 3d b3 0e 4d 3d 38 a8 91 3d
       -0.006294996 0.07595895 0.050062846 0.07112163
000280 e3 b2 ef 3c 45 c8 a3 bd 5d af a9 bc c3 ed 6c 3c
       0.029260105 -0.07997183 -0.020713503 0.014460984
000290 56 6e ac bc 3c 69 81 3c 9f 62 83 bc 5e 55 11 bd
       -0.021048706 0.01579725 -0.016038237 -0.035481803
0002a0 e1 83 74 bd bd c0 46 bc e8 52 b0 bc 16 81 3a 3d
       -0.059696082 -0.012130913 -0.021523908 0.045533262
0002b0 bb 29 9f 3d d4 8b 4c 3d 8c d6 b7 bc 13 97 2f bc
       0.07771631 0.049938038 -0.022441171 -0.010717171
0002c0 2f c4 b6 3c e4 23 18 3c cd 36 c3 3c 62 5b 73 3d
       0.022310345 0.009285901 0.023829842 0.05941332
0002d0 a3 31 5e bc 50 62 f5 3b b6 b4 6c 3d 3c d8 60 3d
       -0.013561639 0.0074885264 0.057789527 0.054893717
0002e0 1e 30 af bc f2 d0 d7 3c 39 ed 79 3d 00 e3 9c 3c
       -0.021385249 0.02634475 0.06101725 0.01915121
0002f0 eb dd 89 bd 14 09 4b bd 20 29 9d 3d 76 87 4e bd
       -0.067317806 -0.049569204 0.076738596 -0.050422154
000300 1a 00 c1 bc db 7a aa 3c 9a 53 9a 3c c4 d7 53 bc
       -0.023559619 0.020810535 0.018838692 -0.0129298605
000310 99 bb 39 bd 8f ac 15 bd 5d a2 ff ba f8 16 60 3d
       -0.045344923 -0.036541518 -0.0019503344 0.054709405
000320 08 9f 33 3b 00 7c c6 bc 9a 11 f7 3c 6e b9 09 bd
       0.0027408022 -0.02422905 0.03015976 -0.033624105
000330 05 fb 0d 3d fb 1a 65 3d c5 a4 be 3c 10 de fa 3c
       0.03466322 0.055933934 0.023271928 0.030623466
000340 5a e9 ac 3d 76 3b 11 3d e5 44 1a bb da 2d a4 3c
       0.08442946 0.035457097 -0.00235396 0.020041395
000350 dd 5b 95 3c dc d6 8d 3b ab e4 f4 3c 12 03 b9 3c
       0.01823228 0.0043285917 0.029894194 0.022584472
000360 ca 16 5d 3b a1 29 10 3d 9d 7e 84 bc 4e a1 6a 3c
       0.0033735507 0.03519595 -0.016173655 0.014320685
000370 66 9e 0a 3d 90 9a f0 bb 47 09 bf 3c 19 d6 29 3d
       0.033842467 -0.007342644 0.023319853 0.041463945
000380 98 14 7f bd c2 fc d2 bb 7a 62 5a bd 5e 1c 00 bd
       -0.0622755 -0.0064388225 -0.05331657 -0.031277053
000390 81 19 32 3b cd 9d a7 3d 68 fd fa 3c 69 34 7d 3c
       0.0027175846 0.08184395 0.030638412 0.01545439
0003a0 f8 16 6e bd 6f 64 b3 3c 1e c6 70 3c 50 84 05 bd
       -0.058127373 0.021898476 0.014695672 -0.032596886
0003b0 8d ef 2b 3d 93 b0 ce bc 4b 40 94 3d 6b d4 09 3d
       0.0419765 -0.025230682 0.072388254 0.033649843
0003c0 4b f7 23 bd ed b7 f5 bc 31 8f 2e bd e3 d5 c7 3d
       -0.04003076 -0.02999493 -0.042617027 0.097575925
0003d0 65 2c 38 bd bc 48 91 3d ed 09 cd 3c 84 5a bf 3d
       -0.044964213 0.07093951 0.025029147 0.09343436
0003e0 dd 28 cc bc 0f 06 87 3c a1 95 8c 3d fb 51 36 3b
       -0.024921829 0.016482381 0.06864477 0.002781986
0003f0 a5 10 43 3d a6 8e 0d 3d a1 ed 1b 3b 9a 53 1a bc
       0.047623295 0.03455987 0.002379276 -0.009419346

bn1/gamma f4 [64]
000000 5f 70 7a 3f 75 e2 77 3f c2 50 78 3f 9b 48 7b 3f
       0.97827715 0.9682992 0.96998227 0.9815766
000010 30 43 7a 3f dd 74 7b 3f 0b 6c 80 3f 60 fe 7a 3f
       0.9775877 0.98225194 1.0032972 0.98044395
000020 74 08 80 3f 2d c4 80 3f 9f db 7f 3f 0e f3 84 3f
       1.000258 1.0059868 0.9994449 1.0386674
000030 e0 24 7c 3f b4 01 7a 3f bd c0 81 3f ad cf 75 3f
       0.98493767 0.9765885 1.0136944 0.96020013
000040 fa 72 80 3f 3c d7 74 3f ae 0d 73 3f 29 a1 7d 3f
       1.0035088 0.9564092 0.9494275 0.99074036
000050 eb 78 81 3f 83 9b 81 3f 6d 66 7e 3f d6 11 7d 3f
       1.0115026 1.0125583 0.9937504 0.9885534
000060 2b 6b 84 3f 64 c6 6f 3f 44 c5 7b 3f d7 2a 77 3f
       1.0345205 0.93662095 0.9834788 0.96549743
000070 39 11 80 3f 1a ea 79 3f 19 e0 75 3f f2 9b 7c 3f
       1.0005256 0.97622836 0.9604507 0.98675454
000080 e6 f9 75 3f fb 6c 7c 3f 25 62 85 3f 84 ea 79 3f
       0.9608444 0.9860379 1.0420576 0.9762347
000090 73 a1 79 3f 74 c9 77 3f 5e 12 82 3f 87 f7 80 3f
       0.97511977 0.9679177 1.0161855 1.0075539
0000a0 c8 be 76 3f 52 3e 81 3f 6f 5b 7a 3f 32 42 80 3f
       0.9638486 1.0097144 0.97795767 1.0020201
0000b0 5c 03 80 3f 35 b5 77 3f f5 ab 7c 3f a8 e4 77 3f
       1.0001025 0.96760875 0.98699886 0.96833277
0000c0 65 c2 77 3f 85 3a 81 3f 8a 2a 71 3f d3 03 7a 3f
       0.96781 1.0095984 0.94205534 0.97662085
0000d0 b2 76 78 3f 8b 89 75 3f 6f 35 77 3f a6 e5 7e 3f
       0.97056115 0.95913 0.9656591 0.99569166
0000e0 b0 8b 7b 3f f9 0a 81 3f 0b 95 77 3f fe 70 81 3f
       0.9826002 1.0081474 0.96711797 1.0112607
0000f0 0d 13 78 3f 9b a2 7c 3f ab 9f 7a 3f ef d0 79 3f
       0.9690407 0.98685616 0.97899884 0.9758443

conv1_4/b f4 [32]
000000 99 91 bd 39 08 5c 0f b8 e5 00 89 37 07 92 f6 38
       0.00036157368 -3.4179568e-05 1.633209e-05 0.00011757394
000010 06 c7 a1 b9 ed 3d 55 ba 18 83 1e 3a f3 f2 7d 37
       -0.00030856597 -0.0008134533 0.0006046756 1.5136541e-05
000020 55 a8 6b b8 57 12 ea b8 71 27 1e 38 20 04 f4 b8
       -5.6185138e-05 -0.000111614056 3.7706868e-05 -0.00011635595
000030 99 92 13 ba 66 01 4b b9 6b f1 be 37 e5 c0 71 39
       -0.000562945 -0.0001936011 2.2762184e-05 0.0002305541
000040 05 b5 da ba b5 43 3b 38 ed 14 98 b9 57 78 f9 b8
       -0.0016686028 4.464733e-05 -0.0002900729 -0.0001189566
000050 c9 9c 1f b8 a5 5b b6 b8 67 b7 87 b9 b9 aa 37 39
       -3.805457e-05 -8.6955064e-05 -0.00025885852 0.00017515839
000060 7a c2 0b 37 0a 63 8c 3a bc f7 e3 39 c2 d3 6a b8
       8.330326e-06 0.0010710668 0.0004348139 -5.5987162e-05
000070 22 e2 fd 38 a1 96 42 38 e9 64 3f 39 66 55 95 b9
       0.000121061006 4.639349e-05 0.00018252771 -0.0002848312

conv1_5/W f4 [32, 32, 3, 3]
000000 d1 84 64 bd b2 fd 34 bd 51 d6 6d 3c 12 f7 82 bd
       -0.055790726 -0.044187255 0.014516429 -0.06394781
000010 b9 c1 84 3d 32 dc 11 bb 17 1c d6 bb 2f c4 b5 3d
       0.06482262 -0.002225649 -0.0065341103 0.0887531
000020 4c 41 24 3d 27 76 a4 3c f7 70 57 3d 0a b2 cc bc
       0.040101334 0.02007587 0.052597966 -0.02498724
000030 de 8d 78 bd 21 0d 89 3c 54 9f bc bc 4e ff 08 be
       -0.06068217 0.016729893 -0.023025192 -0.13378641
000040 3b c5 22 3d 8a f6 88 3c ae 47 91 bc e6 39 07 3d
       0.039738875 0.016719121 -0.017734375 0.0330142
000050 a0 8f cd 3c 88 dd e9 bb 24 e5 2e be a3 a5 6c 3d
       0.0250929 -0.0071370043 -0.17079598 0.05777515
000060 b2 a2 84 bd 58 76 37 be 34 4b 42 3d ae 3a 41 3d
       -0.06476344 -0.17916238 0.047435 0.047175102
000070 1f 4c f7 3b 0c 51 6b 3d 50 3a 1b bb ec 02 94 3d
       0.007546916 0.05745034 -0.002368588 0.0722712
000080 3b 29 84 bd 90 54 81 3d 3b 41 ff 3c 8d c8 8b 3d
       -0.064531766 0.06314957 0.031159034 0.068253614
000090 90 e6 09 3b fd 48 df bc 64 b0 b5 bb 16 21 a5 bc
       0.0021041967 -0.027256483 -0.005544709 -0.020157378
0000a0 a4 bd 56 bd 55 cc 0f 3d 64 ad 99 bc 5d 18 bc bc
       -0.05242695 0.035106976 -0.018759437 -0.022960836
0000b0 b0 ae 3a 3d e7 a6 db 3c b8 b0 75 bc 3b 89 1f 3d
       0.04557675 0.026812984 -0.014995746 0.038949233
0000c0 90 dd 40 bd 73 cc bf bc 6e cd 0d 3d 9d f5 96 bc
       -0.0470863 -0.023412919 0.03461974 -0.018427664
0000d0 61 36 c2 3d d2 6d 38 3d 83 35 fa 3c 7f 3f d6 bd
       0.09483028 0.045026608 0.030543095 -0.1046133
0000e0 3c b0 3c bd 11 47 56 3d a9 1f f1 bc a9 18 da 3c
       -0.046066508 0.052313868 -0.029434042 0.026623087
0000f0 86 a7 5a bd 77 b0 29 3d fe 70 ab 3d f7 53 7c bc
       -0.05338242 0.041428056 0.08371161 -0.015400878
000100 95 70 73 3d 39 e9 cd 3c d9 e0 ad bd ea 5f ed bc
       0.05943354 0.025135623 -0.08490152 -0.0289764
000110 63 35 13 bd 0e 35 3e 3d 5f d0 d8 bd ad 25 1b 3d
       -0.035939585 0.046437316 -0.10586619 0.037877727
000120 c5 52 23 bc 44 a5 43 bc 0d 69 b0 bc b5 3d 59 3d
       -0.009968464 -0.011941258 -0.021534467 0.053037364
000130 a8 76 42 bd 1c 96 07 bc 01 cf 54 3d 0f d8 b2 bc
       -0.04747644 -0.008275535 0.051955227 -0.02183154
000140 33 d4 d9 3b 25 66 8a 3c 92 f7 94 bd 3c 78 99 3c
       0.0066476106 0.01689441 -0.07273783 0.01873409
000150 c6 31 90 bb c4 a9 12 3c 36 30 09 3d 6e 55 c4 bd
       -0.0044004647 0.008951608 0.033493243 -0.09586607
000160 bb 87 9b 3d 9e 57 b4 3c c1 70 15 3d 43 d1 95 3d
       0.07594248 0.022014435 0.036484484 0.07315304
000170 63 28 42 3d cd 3c c8 3d 28 0b b5 bc 07 f8 6a bc
       0.047401797 0.09777222 -0.022100046 -0.014341361
000180 f6 5e f0 bc 5c db 49 bd be f8 39 3d 53 e8 77 3b
       -0.029342156 -0.049281463 0.045403235 0.0037827685
000190 fd f6 2c bd ba 04 b1 3c 54 9e 9a 3d 36 09 5e 3d
       -0.042227734 0.0216087 0.0754973 0.054208003
0001a0 aa ed 8e 3c 52 81 96 bd e7 30 14 ba 68 cd 12 bd
       0.017447311 -0.07348885 -0.0005653039 -0.035840422
0001b0 c6 99 cd bd 80 e1 bc bc d7 d0 4b 3d 99 dc ac bd
       -0.100390956 -0.023056746 0.049759712 -0.08440513
0001c0 63 a3 c5 bb 33 8e b2 3d 47 43 71 3c ec 65 14 bd
       -0.00603144 0.087185286 0.014725513 -0.036230013
0001d0 89 80 18 bd 3f 45 65 3d 2f d4 bc 3c 6d ce 99 bc
       -0.037231956 0.05597424 0.023050396 -0.01877519
0001e0 7f 41 e4 3d 41 dc 6e 3d 89 55 11 bd 71 85 f0 3c
       0.11145305 0.05831552 -0.035481963 0.029360505
0001f0 c5 a3 ca 3c 1e 1b 3a 3b 4a 76 c4 bd e9 8e c9 3d
       0.024736295 0.002839751 -0.09592874 0.09841711
000200 2f e4 81 3d 7f b9 de bc f1 34 e7 3d d2 fa 8e bd
       0.06342351 -0.02718806 0.11289395 -0.06981434
000210 42 33 c7 bc 92 13 bc 3c 03 72 1f 3b 1e 17 6c bd
       -0.024316434 0.02295855 0.002432943 -0.057639234
000220 6c 38 38 3d 00 88 4e bd 86 8f 45 bd 99 dd 64 bd
       0.044975683 -0.05042267 -0.048232578 -0.055875394
000230 ed 60 e3 3c 88 a7 10 3c 54 75 d3 3b 04 f5 cf bc
       0.027756179 0.008829005 0.0064531956 -0.025385387
000240 84 88 b3 3c 9f df 05 3b a1 fd b4 bd 36 0b 6d bd
       0.021915682 0.0020427478 -0.088374384 -0.05787202
000250 d1 08 cb 3c 68 66 59 3c 93 51 28 3d fb ae 25 3b
       0.024784477 0.013269044 0.04109342 0.0025281298
000260 76 b2 01 bd d2 e2 7c bc 50 15 9c bd 1f 9f 25 3c
       -0.031664334 -0.015434938 -0.076212525 0.010108738
000270 c4 2e a0 3c 1f 9b 9b bd 51 41 07 be b7 a2 7c b9
       0.01955355 -0.075979464 -0.1320851 -0.00024093209
000280 38 02 94 3d 88 ea 13 bd 40 96 be bd 21 96 0f bd
       0.07226986 -0.03611234 -0.09306002 -0.035055283
000290 67 3e 9a bd 7a dd 07 3e a5 26 15 3e 9e 6a 70 bc
       -0.075314336 0.1326808 0.14565523 -0.014673857
0002a0 3a c0 1d 3d b4 31 68 3d c5 fe f3 3d 8a 19 eb 3b
       0.0385134 0.056688026 0.11913828 0.0071746754
0002b0 2e 27 0c 3d 76 5b 3a 3b c5 8e 54 3c f8 d9 89 bd
       0.034217052 0.0028435863 0.012973492 -0.06731027
0002c0 09 66 35 bd 7c a2 35 bd b9 52 5b bd 16 c4 a6 3c
       -0.04428676 -0.04434441 -0.053545687 0.020357173
0002d0 3e 72 d8 3b dc 71 4f 3d 1e 1a 7d bd 9d 14 c8 3c
       0.0066054156 0.050645694 -0.061792485 0.024423892
0002e0 37 3e 6e 3c 16 66 58 bc 8a af a8 3d 1d f9 0c 3d
       0.0145412 -0.013207933 0.082366064 0.03441726
0002f0 be c1 39 bd d4 34 1c 3d 91 97 21 be e9 a5 37 3b
       -0.045350783 0.03813632 -0.15780474 0.0028022474
000300 df c3 46 bd 1e 2b f0 3a ad 5e 06 3d 9f 6b 85 3d
       -0.04852664 0.0018323397 0.032805134 0.06514668
000310 f1 0b 38 bc 71 31 a0 3c ca 37 35 3d 26 64 3a bd
       -0.011233316 0.019554825 0.044242658 -0.045505665
000320 8d 8f c6 bd f5 fa 12 3d 61 e0 91 3d 07 ba b0 3d
       -0.09695349 0.035883863 0.07122875 0.08629232
000330 a1 a2 bd bc 11 53 eb bb a8 d2 99 bc e0 c9 df 3c
       -0.023148837 -0.007181533 -0.018777207 0.027317941
000340 8c 25 a6 3c 9e 76 7c bd bb dd 87 bc ca 39 4b 3c
       0.020281576 -0.06163656 -0.016585222 0.012403915
000350 f7 8f 81 3d df 68 4f 3d f8 0f 13 bd 20 d0 b1 3d
       0.06326287 0.050637122 -0.0359039 0.08682275
000360 5a 5e 48 bc 46 9a cc 3c 33 99 ce bd 0a c3 a3 bd
       -0.012229526 0.024975907 -0.10087814 -0.07996185
000370 3e 7e 1a bd 91 e0 99 3d a2 1e 1b bc da 36 f7 bc
       -0.03771805 0.07513536 -0.009467753 -0.030177522
000380 12 a7 a1 ba 57 56 90 bc 7b 07 6f bd 8c eb ff bc
       -0.0012333116 -0.017619295 -0.058356743 -0.031240247
000390 a1 a4 e2 3c 0a 33 81 bc 0a d1 4c 3d 63 1b 80 bd
       0.027666392 -0.015771408 0.050004043 -0.062552236
0003a0 97 8e 6e bd 58 54 20 3d 82 b7 68 3d e6 6e 2a 3e
       -0.058241453 0.039142936 0.05681563 0.16643867
0003b0 37 2b 06 3c 15 77 78 3c dc f5 1e bd 81 69 f7 bc
       0.008189014 0.01516511 -0.03880869 -0.030201675
0003c0 83 9b 57 3d 5a 6b 1e 3d 3a 8c d7 3c 2b 60 3c bd
       0.052638542 0.038676597 0.026311982 -0.04599015
0003d0 41 61 a5 3d db 1a d1 bb e9 47 ed 3b c0 e6 b8 3a
       0.0807519 -0.0063813752 0.0072412384 0.0014106855
0003e0 ba 35 c2 bd 20 4f a8 bd 12 2f 1f 3c 33 e7 c2 3d
       -0.09482904 -0.08218217 0.009715812 0.09516754
0003f0 d2 66 20 bc 63 f1 9a 3c a7 a1 b1 3c 42 46 1b bd
       -0.009790139 0.01891393 0.021683527 -0.0379088

bn5/beta f4 [32]
000000 56 b3 9d 3d 1f 6a 8a 3d bd 53 cf 3a 20 29 ea 3d
       0.07700221 0.06758522 0.0015817803 0.11433625
000010 8e 05 81 3d 1c 13 64 3d b0 38 f8 3d 74 dc 31 3d
       0.062998876 0.055682287 0.12120187 0.04342313
000020 68 b5 f6 3d 76 1e aa 3d dd f6 d5 3d fd 80 e3 3d
       0.12046319 0.08306591 0.10447476 0.11108587
000030 b3 54 40 3d 9a ee 73 3d 4b 6d 8b 3c ef d1 52 3c
       0.046955775 0.05955372 0.017019888 0.012867435
000040 b7 96 ca 3c e1 5b a5 3d 50 00 22 3d 2f d2 0c 3b
       0.02473007 0.08074165 0.03955108 0.0021487584
000050 ff 59 98 3d d3 76 ee 3c 0a 10 b0 bb f0 28 96 3b
       0.074390404 0.029109394 -0.0053730058 0.004582517
000060 c5 70 10 3e 5f 05 66 3d e4 4b fb 3c e9 39 9d 3d
       0.14105518 0.056157466 0.030675836 0.07677061
000070 02 0c ea 3d 83 31 ea 3d f0 99 8b 3d cf 09 6d 3d
       0.114280716 0.11435225 0.068164706 0.057870682

bn2/gamma f4 [64]
000000 f3 d8 7d 3f 5c 8f 75 3f 81 1b 78 3f 6c 6f 7e 3f
       0.99159163 0.95921874 0.9691697 0.99388766
000010 28 5d 7c 3f a6 6f 83 3f a1 57 83 3f 5d 51 80 3f
       0.98579645 1.0268447 1.0261117 1.002483
000020 8b 1a 81 3f c4 2b 7f 3f 79 42 7d 3f 27 da 7a 3f
       1.0086225 0.99676156 0.98929554 0.97989124
000030 ae 1a 80 3f 32 89 7e 3f ac c0 79 3f 8e e6 82 3f
       1.0008142 0.99428093 0.9755962 1.022661
000040 d9 1d 7d 3f 02 7b 7e 3f 61 f0 79 3f 1b c5 7e 3f
       0.9887367 0.99406445 0.97632414 0.9951951
000050 48 b9 7d 3f 05 f8 82 3f e7 c7 78 3f 4b 7d 7e 3f
       0.9911084 1.023194 0.97180027 0.9940993
000060 d0 ec 80 3f 3a 7f 80 3f ae 38 82 3f b9 95 77 3f
       1.007227 1.0038826 1.0173547 0.96712834
000070 fb c8 73 3f f6 8b 80 3f b0 b3 83 3f 0c fb 7b 3f
       0.95228547 1.0042713 1.0289211 0.9842994
000080 2d ea 7d 3f f7 f9 7b 3f c1 ce 7c 3f d6 6d 80 3f
       0.9918545 0.9842829 0.9875298 1.0033519
000090 77 6f 7e 3f c2 d8 7a 3f 11 b2 7e 3f b4 fd 7d 3f
       0.9938883 0.97986996 0.9949046 0.99215245
0000a0 18 0c 85 3f aa d1 7c 3f f2 2e 7a 3f 98 44 80 3f
       1.0394316 0.9875742 0.9772788 1.0020933
0000b0 94 ce 83 3f ca 0f 83 3f 9d 09 7c 3f 5d ef 82 3f
       1.0297418 1.0239193 0.9845217 1.0229298
0000c0 1f 6b 7e 3f 00 35 7b 3f ca 15 82 3f 08 2b 74 3f
       0.99382204 0.98127747 1.01629 0.9537816
0000d0 44 99 88 3f da aa 7f 3f 0b fc 81 3f 94 8c 7a 3f
       1.0671773 0.99870074 1.0155042 0.97870755
0000e0 d4 a3 7e 3f b6 72 7b 3f 63 a2 7b 3f 66 c6 76 3f
       0.9946873 0.9822191 0.9829466 0.9639648
0000f0 44 a3 78 3f 18 1e 80 3f 67 d4 87 3f d2 38 7c 3f
       0.97124124 1.0009184 1.0611695 0.985242

conv1_2/b f4 [64]
000000 b7 ab f0 b7 3f aa 8e b7 98 32 9f 38 89 da ad 39
       -2.869019e-05 -1.7006996e-05 7.5911346e-05 0.00033159953
000010 74 ae 88 b8 57 52 a4 b8 07 f7 16 b9 90 54 a1 39
       -6.51748e-05 -7.8354664e-05 -0.0001439714 0.00030771317
000020 be e4 0b b8 2f 24 e3 38 95 3d 11 39 cf 02 30 b7
       -3.3353215e-05 0.00010830943 0.00013851219 -1.0491071e-05
000030 9c 52 26 37 95 1b 76 38 ba bc 87 b9 45 d4 94 b8
       9.913605e-06 5.867666e-05 -0.0002588982 -7.096728e-05
000040 26 e0 97 b9 88 e3 d9 38 c2 75 ad b8 ff 2d 52 b9
       -0.00028967968 0.00010389747 -8.271217e-05 -0.00020044296
000050 45 07 a3 b8 6b 3f 45 b9 d3 38 8a 37 37 25 67 38
       -7.7738e-05 -0.00018811009 1.6477343e-05 5.510935e-05
000060 a6 cb bd b9 e8 f6 62 b8 e4 45 6c 38 6a 70 2f 39
       -0.0003620062 -5.411255e-05 5.6331875e-05 0.00016731178
000070 f3 13 0e 39 35 9a d4 38 f0 e1 d6 38 35 a1 0a ba
       0.00013549607 0.00010137671 0.00010246399 -0.0005288304
000080 0f b4 64 b8 9e bc b6 b7 af 65 93 38 a0 f4 2a 38
       -5.452713e-05 -2.1783922e-05 7.028446e-05 4.0758983e-05
000090 96 6d 5e 38 ff 00 73 39 11 d4 e2 b8 9d 00 13 b9
       5.3030984e-05 0.00023174657 -0.0001081602 -0.00014019241
0000a0 28 a7 c0 b7 5c 05 f9 b8 46 35 f5 37 2b 95 57 b8
       -2.2966022e-05 -0.000118742435 2.9231083e-05 -5.1398918e-05
0000b0 ee 67 23 b9 aa 66 e9 b7 ad 62 ee 36 44 d2 96 b9
       -0.00015583608 -2.7823571e-05 7.10444e-06 -0.0002876689
0000c0 60 b9 3e b8 24 ca 89 37 a1 3f 0e 39 2d 8e 5d 37
       -4.5472174e-05 1.6425802e-05 0.00013565879 1.3205729e-05
0000d0 64 e5 4a 39 f1 53 53 38 99 50 be b9 79 d6 f9 b8
       0.00019349676 5.0384497e-05 -0.00036299674 -0.00011913194
0000e0 5c 1a 90 b8 99 2a 48 37 f2 98 60 b9 41 59 29 b9
       -6.871365e-05 1.1930847e-05 -0.00021419281 -0.00016150346
0000f0 4f 25 50 38 65 8b 0c 39 e5 e3 63 b9 cf 9c c2 38
       4.962581e-05 0.00013403369 -0.00021733304 9.279849e-05

bn2/avg_var f4 [64]
000000 dc 89 ab 3e bc 2a 1f 3f 8d d0 f3 3e c0 8c 01 3f
       0.33503616 0.6217458 0.4762005 0.5060539
000010 1e 5c bb 3e 72 ae e1 3e 2c ce fb 3e a1 f2 bf 3e
       0.36593717 0.44078404 0.49180734 0.374898
000020 7a 31 e7 3e 82 08 f7 3e 89 3e e4 3e cd 4d 13 3f
       0.45154935 0.48248678 0.4457896 0.5754059
000030 65 5f ce 3e 8f d3 94 3e 4f 8b 06 3f d7 13 c9 3e
       0.40307155 0.29067656 0.5255632 0.3927295
000040 46 99 c3 3e 33 fc ce 3e 42 b9 31 3f 63 ff c5 3e
       0.38202876 0.40426788 0.69423306 0.38671407
000050 2d e5 30 3f f9 7c 0a 3f 84 c9 d9 3e c3 35 cc 3e
       0.69099694 0.54096943 0.42536557 0.39884767
000060 bf bd df 3e 12 f1 cc 3e ee 07 bf 3e e5 d0 8a 3e
       0.43699452 0.40027672 0.37310737 0.271125
000070 0b e5 01 3f d3 d9 c7 3e 4c 72 f5 3e ed 2d c4 3e
       0.50740117 0.39033374 0.47938764 0.3831629
000080 29 69 bf 3e 16 ae f7 3e 1a 42 05 3f 97 c7 14 3f
       0.37384918 0.48375005 0.5205399 0.5811705
000090 78 bc be 3e 3e b3 13 3f 87 2f e1 3e a3 bf d8 3e
       0.37253165 0.57695377 0.43981573 0.42333707
0000a0 d6 7e 3d 3f ed c3 df 3e 3e 56 d9 3e f4 a7 03 3f
       0.7402166 0.43704167 0.4244861 0.5142815
0000b0 5e 10 ef 3e 5d a6 f9 3e 48 34 f4 3e f7 96 07 3f
       0.46692175 0.48759738 0.47696137 0.5296473
0000c0 be 93 f8 3e 84 36 ba 3e 36 93 c4 3e db e1 fa 3e
       0.48550218 0.36369717 0.38393563 0.4900044
0000d0 b8 dc 06 3f 08 db ef 3e 9f a2 f8 3e ec 6a e7 3e
       0.5268054 0.46846795 0.4856157 0.45198762
0000e0 df 1f d2 3e 4f 2a ce 3e 56 59 a5 3e ca a9 b4 3e
       0.4103994 0.40266654 0.3229472 0.3528579
0000f0 8e 28 ff 3e 26 32 00 3f 4e 9f 0b 3f 67 4c f0 3e
       0.49835628 0.5007652 0.54539955 0.4693329

bn6/beta f4 [32]
000000 1b 5f a2 3d 71 86 e0 3d a4 06 b8 3b ce 71 d1 3d
       0.07928296 0.10963143 0.005616026 0.10226785
000010 37 87 35 3d c2 88 18 3d 46 c6 d6 3d ae 9e f8 3c
       0.044318404 0.037239797 0.104870364 0.030349102
000020 9d 56 c2 3d 13 a6 9e 3d de 53 0f 3e b3 a7 03 3e
       0.094891764 0.0774652 0.13996837 0.12856941
000030 83 c8 54 3d e1 45 93 3d e6 5f 18 3d 22 af 14 3d
       0.051949035 0.07191063 0.03720083 0.036299832
000040 4c 81 5a 3c 57 0a af 3d 86 6c 9e 3d 30 e2 b6 3b
       0.013336491 0.08546894 0.07735543 0.005581163
000050 87 37 b3 3d c8 ad 5f 3c 11 78 b8 3d 0a e5 bb 3c
       0.087508254 0.0136522725 0.09007276 0.022936363
000060 21 63 84 3e 0f b9 4a 3d 3c 8b 72 3d 67 6b c9 3d
       0.2585688 0.049492892 0.059214815 0.098349385
000070 12 de c8 3d d8 06 b8 3d 28 0c d4 3d 67 ba 92 3d
       0.098079816 0.0898568 0.10353881 0.0716446
