loto6_cnn/loto6_30_520.model (npz, 491087 bytes, 38 tensors)

bn1/beta f4 [64]
0	0x3d4cfccb	0.05004577
1	0x3c5242f0	0.012833342
2	0x3ccc6270	0.024949282
3	0x3d9605fd	0.07325361
4	0xbc54ef95	-0.012996574
5	0x3d408357	0.047000255
6	0x3de6e15c	0.11273453
7	0x3c9cfbd2	0.019163046
8	0x3c49d51f	0.012318878
9	0x3d880def	0.066432826
10	0x3dae8112	0.08520712
11	0x3da5007a	0.080567315
12	0x3d362106	0.044465087
13	0x3d859f8e	0.06524573
14	0x3dbbab01	0.09163476
15	0x3d539b23	0.05166162
16	0x3dc66833	0.09687843
17	0x3d14bd59	0.03631339
18	0x3c90bd94	0.017668523
19	0x3d39ed94	0.045392588
20	0x3d854ba6	0.065085694
21	0x3d515e44	0.05111529
22	0x3d65be2b	0.05608956
23	0x3bec4740	0.007210642
24	0x3da9832f	0.082769744
25	0x3d2c628f	0.04208618
26	0xbc1effa9	-0.009704509
27	0x3d1770d6	0.036972843
28	0x3d9c663b	0.076366864
29	0x3c001b05	0.007818942
30	0x3d5bcd93	0.053662848
31	0x3c11e396	0.008904358
32	0x3c63a936	0.0138953235
33	0x3cb556ed	0.022136176
34	0x3da0b52b	0.07847055
35	0x3d204186	0.039124988
36	0x3bcf4286	0.006325069
37	0x3ceef690	0.029170305
38	0x3dcbc618	0.09949893
39	0x3dc467d2	0.09590115
40	0x3cb26f47	0.021781577
41	0x3d7549ce	0.05988484
42	0x3ce11163	0.027474111
43	0x3ceedc8c	0.0291579
44	0x3d41a50c	0.04727654
45	0xbba36ce9	-0.0049873483
46	0xbb9ff56f	-0.004881553
47	0x3db81a0b	0.08989342
48	0x3c9743ad	0.018464888
49	0x3da41e91	0.080136426
50	0xbc81bd08	-0.015837207
51	0x3c7636dd	0.015027729
52	0x3d8b3a1f	0.06798195
53	0x3d211ca2	0.039333947
54	0x3d8f04a3	0.06983306
55	0x3d104de5	0.035230536
56	0x3db5b9bc	0.08873317
57	0x3d379d23	0.04482759
58	0xbc8c9adf	-0.017163692
59	0x3de7c766	0.11317329
60	0x3d5684f0	0.052372873
61	0x3cb98d4f	0.022650389
62	0x3d764c9d	0.060131658
63	0x3cedaf8f	0.029014377

bn3/gamma f4 [64]
0	0x3f89e8a0	1.0774117
1	0x3f8bfdbb	1.0936807
2	0x3f8adeed	1.0849282
3	0x3f88edbd	1.0697552
4	0x3f81d9c7	1.0144585
5	0x3f85fdeb	1.0468115
6	0x3f8645bd	1.0490032
7	0x3f825030	1.0180721
8	0x3f85f0fa	1.0464165
9	0x3f8227cf	1.0168399
10	0x3f7dd5a8	0.9915414
11	0x3f82d02a	1.0219777
12	0x3f818c4d	1.0120941
13	0x3f86e83d	1.0539623
14	0x3f839719	1.0280486
15	0x3f7e74cb	0.9939696
16	0x3f7ec4db	0.9951913
17	0x3f8075ee	1.0035989
18	0x3f86c5f9	1.0529166
19	0x3f7d5310	0.9895487
20	0x3f838a9d	1.0276676
21	0x3f84b573	1.0367874
22	0x3f808523	1.004063
23	0x3f81b7f9	1.0134269
24	0x3f81e6d1	1.0148565
25	0x3f81761a	1.0114167
26	0x3f8187d9	1.0119582
27	0x3f8136c1	1.0094835
28	0x3f82bc46	1.0213706
29	0x3f8213b1	1.0162259
30	0x3f7f7ccf	0.9979982
31	0x3f863238	1.0484076
32	0x3f81d205	1.0142218
33	0x3f81c6a8	1.013875
34	0x3f83f254	1.0308328
35	0x3f836536	1.0265262
36	0x3f8164d8	1.01089
37	0x3f8a5f58	1.0810347
38	0x3f8c3753	1.0954384
39	0x3f84a319	1.0362273
40	0x3f826aaa	1.0188801
41	0x3f82b025	1.0210005
42	0x3f822595	1.0167719
43	0x3f848977	1.0354451
44	0x3f85e859	1.0461532
45	0x3f848626	1.0353439
46	0x3f815b7c	1.0106044
47	0x3f8746d3	1.0568489
48	0x3f81fb50	1.015482
49	0x3f8451b6	1.0337436
50	0x3f80e3c3	1.0069507
51	0x3f7fff80	0.9999924
52	0x3f821e59	1.0165511
53	0x3f7d3d26	0.9892143
54	0x3f876442	1.0577471
55	0x3f8d2d5d	1.1029469
56	0x3f83f62d	1.0309502
57	0x3f81c66c	1.0138679
58	0x3f7fe938	0.9996524
59	0x3f82d97a	1.0222619
60	0x3f81a802	1.0129397
61	0x3f8272d1	1.0191289
62	0x3f8cfe81	1.1015168
63	0x3f81ddcf	1.0145816

bn4/beta f4 [32]
0	0x3d034605	0.032049198
1	0x3d88cdf7	0.0667991
2	0x3c9a64fc	0.018846981
3	0x3da3eaa6	0.0800374
4	0x3d67ffa5	0.056640286
5	0x3d71f0a5	0.059067387
6	0x3e06e126	0.13171825
7	0x3d077b2d	0.033076454
8	0x3debec53	0.11519685
9	0x3e14ad4f	0.14519237
10	0x3db1f1d9	0.08688707
11	0x3da54fb5	0.080718435
12	0x3d82dbd0	0.06389582
13	0x3dbadb11	0.09123815
14	0x3b9d49aa	0.004800041
15	0x3ca3ded8	0.020003721
16	0x3c8a061c	0.016848616
17	0x3d9ced8c	0.07662496
18	0x3d4b32fb	0.049609166
19	0x3c5dcebc	0.013538059
20	0x3d954dcf	0.072902314
21	0xbbcdf55d	-0.006285353
22	0x3a8f7b5a	0.0010946796
23	0x3d67fc90	0.056637347
24	0x3da8d602	0.08243944
25	0x3d78d232	0.060747333
26	0x3dba8de8	0.09109098
27	0x3b5758a5	0.0032859233
28	0x3d881209	0.06644065
29	0x3e053d44	0.13011652
30	0x3db514d0	0.0884186
31	0x3dadc96b	0.08485683

bn2/avg_mean f4 [64]
0	0xbe92adfe	-0.2864837
1	0xbf33402a	-0.7001978
2	0xbf690c58	-0.9103446
3	0xbf9f855f	-1.2462577
4	0x3d998fc8	0.07498127
5	0xbee605cd	-0.449263
6	0xbfa28d82	-1.2699435
7	0xbfb3f587	-1.4059304
8	0xbef3f001	-0.47644046
9	0xbfbe6207	-1.4873666
10	0xbeca29e8	-0.39485097
11	0xbecd1116	-0.40052098
12	0xbf4ebd26	-0.8075737
13	0xbf485c83	-0.7826616
14	0x3f577580	0.84163666
15	0xbf80ff97	-1.0078
16	0xbf1d303f	-0.6140174
17	0xbf639721	-0.8890248
18	0xbf70d3f0	-0.9407339
19	0xbf8ae044	-1.084969
20	0xbf5609fb	-0.8360898
21	0xbfb9d8dd	-1.4519306
22	0xbec23e84	-0.3793832
23	0x3d37d35d	0.044879306
24	0xbf74cd20	-0.95625496
25	0xbf621386	-0.8831104
26	0xbf413ba6	-0.7548164
27	0xbf1ffb9c	-0.624933
28	0x3eaa4c21	0.33261207
29	0xbecbb84c	-0.39789045
30	0xbcd854f7	-0.026407702
31	0xbf6dc2c5	-0.9287532
32	0x3d3491d2	0.044084378
33	0x3e81045b	0.25198635
34	0x3d895741	0.067060955
35	0xbfbe3dcf	-1.4862612
36	0xbebfb1a1	-0.37440208
37	0x3dd8f3e7	0.10593396
38	0xbe1b33b4	-0.15156442
39	0xbe83463b	-0.2563952
40	0xbf79faf6	-0.9764856
41	0xbe140c21	-0.14457752
42	0xbf660c18	-0.89862204
43	0x3ee886d6	0.45415372
44	0xbf60873a	-0.8770634
45	0xbf761a57	-0.9613394
46	0xbef3636c	-0.4753679
47	0xbfa84eca	-1.3149045
48	0xbf609b2e	-0.87736785
49	0xbf501032	-0.8127471
50	0xbf6061b5	-0.8764909
51	0xbc1db540	-0.009625733
52	0xbfa84c29	-1.3148242
53	0xbf6be98d	-0.92153245
54	0xbf5edadc	-0.870527
55	0xbd8b5d1c	-0.068048686
56	0xbf9b6347	-1.2139672
57	0xbf8c7716	-1.0973842
58	0xbf09255c	-0.5357263
59	0x3e973c4a	0.29538184
60	0xbe03d476	-0.12874016
61	0xbfacf7dd	-1.3513142
62	0xbf912bb2	-1.134146
63	0xbf8fef38	-1.1244879

conv1_6/b f4 [32]
0	0xb9331cd8	-0.00017081515
1	0x394ebfe6	0.00019717179
2	0xba430e8f	-0.0007440829
3	0xba0dd1d9	-0.0005409993
4	0xba6bfedf	-0.00090025173
5	0xb82ea343	-4.1636882e-05
6	0x3735a6c0	1.0827265e-05
7	0x3a378256	0.00070003176
8	0xb9decfed	-0.00042498056
9	0xb946945e	-0.00018938023
10	0x38a1b21e	7.710255e-05
11	0x3a147ef5	0.000566467
12	0xb99b47e6	-0.00029617472
13	0xba20bf75	-0.0006132045
14	0x397bb0e4	0.00024003122
15	0x395e1c2a	0.00021182062
16	0x3a1d57f4	0.0006002181
17	0xb939231b	-0.00017656053
18	0xba4b6d5c	-0.0007760131
19	0xb9f65cc5	-0.00046989895
20	0x3a4255eb	0.00074133155
21	0xb94f891f	-0.0001979214
22	0x39c6d92d	0.00037927311
23	0x38bd5652	9.028301e-05
24	0xb924422b	-0.00015664908
25	0x3a92c003	0.001119614
26	0x38486c93	4.7784833e-05
27	0xb8fbfc3a	-0.000120155935
28	0xb984dd11	-0.0002534171
29	0x393970a4	0.00017684937
30	0x39a58135	0.0003156752
31	0x3988cf6b	0.0002609448

conv1_5/b f4 [32]
0	0xb9c7256b	-0.00037984116
1	0x38cb9d4b	9.7090924e-05
2	0x3a20778a	0.00061213283
3	0x3916ccae	0.00014381364
4	0xb9970ba1	-0.0002880963
5	0x398e56ed	0.00027149115
6	0x392bf878	0.00016400393
7	0xb92082af	-0.00015307472
8	0x3916472b	0.00014331627
9	0xb934f8bd	-0.000172588
10	0xb9c0feb1	-0.00036810854
11	0x398bb40e	0.00026646297
12	0xb9ecec71	-0.0004518959
13	0x39b60123	0.00034714592
14	0x3811e2ac	3.47818e-05
15	0x3a25a3b6	0.00063186453
16	0x38085586	3.2504577e-05
17	0x39ee2603	0.00045423218
18	0x39655732	0.00021871625
19	0xb9c227e9	-0.000370323
20	0x38df0136	0.00010633694
21	0x39d69a79	0.00040932352
22	0xbae0ce29	-0.0017151284
23	0xb923b440	-0.0001561204
24	0xb7ce1f17	-2.4571591e-05
25	0x3a000955	0.0004884203
26	0x3919b7d1	0.00014659694
27	0x39c3467d	0.00037245816
28	0x397e7035	0.00024265128
29	0xb9e7ce61	-0.00044213518
30	0x380488b7	3.1598578e-05
31	0x3903daff	0.00012574716

bn3/avg_var f4 [64]
0	0x3e981e06	0.29710406
1	0x3f30c0c0	0.69044113
2	0x3f0341a3	0.5127203
3	0x3f116f6f	0.5681066
4	0x3ed834fb	0.4222792
5	0x3e98dfa2	0.29858118
6	0x3f4add1e	0.7924365
7	0x3ea4d89a	0.32196504
8	0x3ecc2a9e	0.39876264
9	0x3eb4c12b	0.35303625
10	0x3eb1f827	0.34759638
11	0x3eac6f3a	0.3367861
12	0x3ef0e8cb	0.47052607
13	0x3e87ee32	0.26548916
14	0x3f1f6609	0.6226507
15	0x3eb5a71b	0.35479054
16	0x3e95b8bb	0.292425
17	0x3eb60ba8	0.35555768
18	0x3ebd085c	0.3692044
19	0x3f144dfb	0.5793149
20	0x3eb0f81d	0.34564295
21	0x3eb8a37d	0.36062232
22	0x3ead7065	0.33874813
23	0x3eed9eab	0.46410117
24	0x3eb53e53	0.35399112
25	0x3ed2de94	0.4118544
26	0x3e90b528	0.2826321
27	0x3f0dacd0	0.55341816
28	0x3ea91579	0.33024195
29	0x3e8d9a68	0.27656865
30	0x3ed65d0c	0.41867864
31	0x3ee24358	0.44192004
32	0x3eb40828	0.35162473
33	0x3eca1516	0.39469212
34	0x3eb3cc6b	0.35116896
35	0x3ebe6758	0.3718822
36	0x3ed2a0c6	0.41138285
37	0x3f055ff2	0.52099526
38	0x3f3f0128	0.7461114
39	0x3ea80377	0.32815143
40	0x3ead8e88	0.33897805
41	0x3e7fd25e	0.24982592
42	0x3ea3ab52	0.31966645
43	0x3e8cfdc8	0.2753737
44	0x3ebc3483	0.36758813
45	0x3e9c1ee0	0.30492306
46	0x3e6ae35d	0.22938295
47	0x3f1199e0	0.5687542
48	0x3eacf419	0.33779982
49	0x3eb9490a	0.36188537
50	0x3ed8b2af	0.42323825
51	0x3eaf0ee5	0.3419105
52	0x3f1ebab4	0.62003636
53	0x3ea18104	0.31543744
54	0x3eaa0903	0.3321
55	0x3f3a04d2	0.72663605
56	0x3edb031e	0.42775816
57	0x3e626f5a	0.2211279
58	0x3eaf0e42	0.34190565
59	0x3eb1f7fd	0.34759513
60	0x3f0a5486	0.5403522
61	0x3e8e44eb	0.27786955
62	0x3f1ff345	0.62480575
63	0x3efd21a8	0.4943974

conv1_3/W f4 [64, 64, 3, 3]
0	0xbc579f86	-0.013160592
1	0xbdb20e3f	-0.086941235
2	0xbbd05efe	-0.00635898
3	0x3db5b41e	0.08872245
4	0xbd2cb951	-0.04216892
5	0x3d2440f1	0.040100995
6	0x3ca67f06	0.020324241
7	0x3cdb83c4	0.02679623
8	0x3c6202c6	0.013794607
9	0xbc2f03a6	-0.010682022
10	0x3ca1ac38	0.01973544
11	0xbdbe49d1	-0.09291423
12	0xbcf3c068	-0.029754832
13	0x3d317b5f	0.043330546
14	0xbb94d728	-0.00454225
15	0x3b28e00e	0.0025768313
16	0xbd64bd33	-0.055844497
17	0x3cd4f436	0.025995355
18	0xbd77b0dc	-0.0604714
19	0xbd7c47dc	-0.061591968
20	0x3c4c1fc1	0.012458743
21	0xbbe8a724	-0.007100003
22	0x3cac6602	0.021044735
23	0x3cf6959b	0.030100634
24	0xbc9f10df	-0.019417224
25	0xbd6cb8b7	-0.057793345
26	0xbd8c6c93	-0.068566464
27	0x3bb6bc98	0.0055766813
28	0x3d4af76e	0.049552374
29	0xbd04b78e	-0.032401614
30	0xbc125410	-0.008931175
31	0x3dd84b99	0.10561294
32	0xbcdf248f	-0.027239112
33	0x3d3f3ce7	0.04668894
34	0xbd062b01	-0.032755855
35	0x3c53c75b	0.012925948
36	0xbb807adb	-0.0039208955
37	0xbd78eac6	-0.060770772
38	0x3d241568	0.040059477
39	0x3d992ef3	0.07479658
40	0x3c2414c9	0.010014721
41	0x3b3290a9	0.0027246869
42	0x3bdd84e2	0.0067602256
43	0xbd4fdcc4	-0.050747648
44	0x3d0c319b	0.034226995
45	0xbc9e2fed	-0.019309962
46	0xbd26f596	-0.040761553
47	0xbd65a436	-0.056064807
48	0x3c77aa78	0.0151163265
49	0xbd10bf33	-0.03533859
50	0x3c6ed0cb	0.014576147
51	0x3d753caf	0.059872326
52	0x3a859d22	0.0010193924
53	0xbbd95795	-0.006632755
54	0x3ce64626	0.028109621
55	0x3ca4fa99	0.020139026
56	0xbcd302fb	-0.025758257
57	0xbd1d4e90	-0.038405
58	0xbdaa2ff8	-0.083099306
59	0x3c510deb	0.012759666
60	0x39dc1ae1	0.00041981696
61	0xbc4585e6	-0.01205585
62	0xbce33d51	-0.027739199
63	0x3bc6bad8	0.006064754
64	0xbd28d5ad	-0.041219402
65	0xbcf0563b	-0.029337993
66	0x3c377976	0.011198392
67	0xbcb7e5a5	-0.02244837
68	0xbc3759cb	-0.011190842
69	0x3ca08db0	0.019598812
70	0x3b150650	0.0022739358
71	0x3ca4f286	0.020135175
72	0xbc605db2	-0.013694214
73	0xbc2da092	-0.010597365
74	0x3d7c09b5	0.061532695
75	0x3d7812a4	0.060564652
76	0x3cc178bf	0.023617147
77	0xbbc8581b	-0.0061140186
78	0x3c76fff7	0.015075675
79	0x3b252803	0.002520085
80	0xbc8b716e	-0.01702186
81	0xbcd6f324	-0.026238985
82	0x3d701920	0.05861771
83	0xbceb0a04	-0.0286913
84	0xbd06a05d	-0.032867778
85	0xbdb0c6be	-0.08631657
86	0x3cb95181	0.022621872
87	0xbd71cdee	-0.05903428
88	0xbd6d24c3	-0.057896387
89	0x3d0d5269	0.03450242
90	0xbc04376c	-0.008069854
91	0x3c8aae2b	0.016928753
92	0x3cfcb95b	0.030850103
93	0x3ba7d9d8	0.0051224045
94	0xbd8756c0	-0.06608343
95	0xbc8f4f39	-0.017493831
96	0x3d343cea	0.044003405
97	0xbda15b27	-0.07878714
98	0xbc4eaa00	-0.012613773
99	0xbd2a77bd	-0.041618098
100	0xbc47f358	-0.012204014
101	0xbbb43325	-0.005499261
102	0xbca55028	-0.020179823
103	0xbd6ce170	-0.05783218
104	0xbdac7198	-0.08420104
105	0xbb93e9bc	-0.0045139473
106	0xbb0c3c26	-0.0021398156
107	0xbcb957f4	-0.022624947
108	0xbd3eab02	-0.046549805
109	0xb9a3c6aa	-0.000312378
110	0xbd29c66e	-0.041449003
111	0xbd87beac	-0.06628165
112	0x3ce7136a	0.0282075
113	0xbba2eca1	-0.004972056
114	0xbcec13c8	-0.028818026
115	0x3c464ddf	0.012103527
116	0xbd3b8db4	-0.045789436
117	0xbc74b6eb	-0.014936189
118	0x3baecc10	0.0053343847
119	0x3d2cedde	0.042219035
120	0xbd692290	-0.056917727
121	0xbcca5058	-0.024696514
122	0xbd867505	-0.065652885
123	0xbd5674dc	-0.05235754
124	0xbd88a789	-0.0667258
125	0x3ca76f2f	0.020438759
126	0x3c15c845	0.009141986
127	0x3c8ae778	0.016956076
128	0xbd02d2a1	-0.031939153
129	0xbccd10d4	-0.025032438
130	0x3bc383c1	0.005966634
131	0x3daf1ff9	0.0855102
132	0x3c2ad99e	0.010427861
133	0xbc255895	-0.01009192
134	0xbdc00f80	-0.093779564
135	0x3c1f25be	0.009713588
136	0xbcba5260	-0.022744358
137	0x3d636d8c	0.055524394
138	0x3bb11b5e	0.0054048738
139	0x3d3687f6	0.044563256
140	0xbd0a2dc6	-0.03373506
141	0xbd074294	-0.03302248
142	0xbc488a28	-0.01223997
143	0x3c5503bb	0.013001378
144	0xbd5d7a76	-0.054071866
145	0xbc3c1a74	-0.011480916
146	0xbbbb4159	-0.005714577
147	0x3d3c9563	0.046040904
148	0xbcb2ba7b	-0.021817436
149	0x3d384731	0.04498977
150	0x3c3852d4	0.0112502165
151	0xbcea8e4d	-0.028632307
152	0x3b38a417	0.0028173977
153	0xbd66ecf7	-0.05637833
154	0xbcbed170	-0.023293227
155	0x3d7ceb3f	0.061747786
156	0xbd9ba168	-0.07599145
157	0x3c22898b	0.009920488
158	0xbc3a5a98	-0.011374138
159	0xbda3e186	-0.080019996
160	0x3cd9fb6f	0.02660915
161	0x3cc3677e	0.02385306
162	0x3c366a77	0.011133782
163	0xbd7bcec8	-0.0614765
164	0xbca3451c	-0.019930415
165	0x3b911106	0.004427078
166	0xbcf3b690	-0.029750139
167	0xbd4e18f1	-0.050316755
168	0x3cb96413	0.022630727
169	0x3d0e3e19	0.03472719
170	0xbc88af22	-0.016685072
171	0xbc5a5748	-0.0133264735
172	0xbd995a5e	-0.07487939
173	0x3d1b884d	0.037971783
174	0xbd5b5263	-0.053545367
175	0xbd53ba66	-0.051691435
176	0x3dd901ee	0.10596071
177	0xbbdb9dd4	-0.006702164
178	0x3cd5c135	0.026093105
179	0x3d06ccc4	0.032910123
180	0x3c959c16	0.018262904
181	0xbd948283	-0.07251456
182	0xbc9ca77c	-0.019122832
183	0x3c7972de	0.01522514
184	0x3c89305d	0.016746694
185	0x39a0d364	0.00030675076
186	0xbd7618a5	-0.060082097
187	0x3c9e3003	0.019310003
188	0xbbb125f4	-0.0054061357
189	0xbc968b1b	-0.018376878
190	0xba11213e	-0.00055362645
191	0x3d1a38da	0.037651874
192	0xbcaec335	-0.021333316
193	0xbc8472a1	-0.01616794
194	0xbd01ffeb	-0.031738203
195	0x3d713d73	0.058896493
196	0x3c1a89c1	0.009432257
197	0x3bf1ca33	0.0073788404
198	0xbd40e4de	-0.047093265
199	0x3d4cad86	0.049970172
200	0xbd3ee6e9	-0.04660693
201	0xbc179d18	-0.009253763
202	0x3cc03e70	0.023467273
203	0x3d330a91	0.04371125
204	0xbc46fe9f	-0.012145667
205	0xbca8c757	-0.020602865
206	0xbd5ebea1	-0.054381017
207	0xbcdae404	-0.026720054
208	0x39287ed1	0.00016068971
209	0xbb5c4747	-0.003361182
210	0x3ccdb26d	0.025109494
211	0x3d13015f	0.03588998
212	0xbd180818	-0.037117094
213	0xbdd3c0ae	-0.10339485
214	0x3b941a60	0.0045197457
215	0xbd2de907	-0.04245856
216	0xbdbca6a5	-0.092114724
217	0x3d88e9c9	0.06685216
218	0xbdb967db	-0.09053012
219	0xbc78036e	-0.015137536
220	0x3b93a4ad	0.004505715
221	0x3c13716c	0.00899921
222	0x3b5c2816	0.003359323
223	0xbd548f85	-0.051894683
224	0x3d9caaca	0.07649763
225	0x3c0fbd89	0.008773216
226	0x3bdaa4cf	0.0066724787
227	0xbdb51cf3	-0.08843412
228	0x3d402b6b	0.046916407
229	0x3da43ad5	0.08019034
230	0xbd2f1bea	-0.04275123
231	0x3bd529b0	0.0065052137
232	0x3af6f621	0.0018841663
233	0xbcd43a52	-0.025906716
234	0xbc8e3cf9	-0.017363058
235	0xbc2b77b0	-0.010465547
236	0xbcba0efa	-0.02271222
237	0xbd75e4f1	-0.06003279
238	0xbd759c49	-0.0599635
239	0x3cba87c5	0.022769818
240	0x3d52ce67	0.051466372
241	0x3d0b2e5a	0.03397975
242	0x3ce8f046	0.028434884
243	0xbd7e9411	-0.062152926
244	0x3d08c49d	0.03339063
245	0x3d02228b	0.031771224
246	0xbd39a06e	-0.045319013
247	0xbcd93cac	-0.026518188
248	0xbcea7a58	-0.028622791
249	0x3c45bb5f	0.0120685985
250	0x3c04f035	0.00811391
251	0xbca6058e	-0.02026632
252	0xbc925ef4	-0.017867543
253	0x3c1e2765	0.009652947
254	0xbd924f89	-0.071440764
255	0xbd567d66	-0.052365683

bn4/avg_mean f4 [32]
0	0x400c40f0	2.1914635
1	0x3fa446f7	1.2834157
2	0xbf37be56	-0.71774805
3	0xbe7b22ab	-0.24524944
4	0x3e34c8e0	0.17654753
5	0xbfe474f8	-1.7848196
6	0xc02beac5	-2.6862042
7	0x3e92579e	0.28582472
8	0xbe0bc333	-0.13648681
9	0xbec493ff	-0.38394162
10	0xbfded552	-1.740885
11	0xc0284acb	-2.629565
12	0xc00c2403	-2.189698
13	0xbfd602e0	-1.6719627
14	0x3f4a4d21	0.7902394
15	0xbf4d07bc	-0.80089927
16	0xbd6a12b5	-0.057146747
17	0xbea92964	-0.3303939
18	0xbf852f72	-1.0405104
19	0xc00090d7	-2.0088403
20	0xc01274cc	-2.2883787
21	0x3fa47882	1.2849276
22	0x4016d990	2.357029
23	0xc01b3660	-2.4251938
24	0xc00d7453	-2.2102249
25	0x3f75b330	0.95976543
26	0xc03bf56c	-2.9368544
27	0xbf87f430	-1.0621395
28	0xbfb13988	-1.3845682
29	0xc042cae2	-3.043633
30	0xc030da08	-2.7633076
31	0x3d487180	0.048936367

bn3/beta f4 [64]
0	0x3b3bce49	0.002865689
1	0xbc648b19	-0.013949179
2	0xbae10330	-0.0017167088
3	0xbca19020	-0.019722044
4	0xbc140044	-0.009033266
5	0x3a868203	0.0010262135
6	0x3d80fae6	0.06297855
7	0x3ca13caf	0.019682257
8	0x3cc795e1	0.02436346
9	0xbb39ac2c	-0.0028331382
10	0xbcc83d6d	-0.024443353
11	0x3ce0d2aa	0.027444202
12	0x3c0a4907	0.008440263
13	0x3ca53f24	0.02017171
14	0x3c83c6dc	0.016086034
15	0xbba2bc6a	-0.0049663084
16	0xbc4a37ea	-0.0123424325
17	0xbd063bdc	-0.03277193
18	0x3caa3dbe	0.020781394
19	0xbce9b263	-0.028527444
20	0x3c76a0aa	0.015052954
21	0x3d10ac56	0.035320602
22	0xbc6c7136	-0.0144312885
23	0xbc7f437f	-0.015580057
24	0xbd1d34e2	-0.03838051
25	0x3c12fcab	0.008971374
26	0x3c84d92d	0.016216839
27	0x398988f3	0.0002623271
28	0x3bf5a49c	0.0074964296
29	0x3b955540	0.0045572817
30	0xbd0e2beb	-0.034709852
31	0xbc3881bf	-0.011261403
32	0xbb3f8692	-0.0029224497
33	0xbb284860	-0.0025677904
34	0x3c7f085a	0.015565956
35	0x3ca64ab3	0.020299291
36	0x3c51956a	0.012791971
37	0xb9d20f4d	-0.0004006572
38	0xbd3f30a8	-0.04667726
39	0x3d0bb307	0.03410628
40	0x3c68fbf3	0.014220226
41	0x3c9e3939	0.019314395
42	0xbc0f65c4	-0.00875229
43	0x3c659d93	0.014014619
44	0x3c6a9196	0.014316937
45	0x3cad133a	0.021127332
46	0xba95ae6b	-0.0011419778
47	0x3d05bd3a	0.032651164
48	0x3aee3c84	0.0018175994
49	0x3ca64e3a	0.020300973
50	0xbac577af	-0.0015065576
51	0xbc8c0751	-0.017093332
52	0x3d028a33	0.03187008
53	0xbccf6e21	-0.025321068
54	0x3d2492cd	0.040179063
55	0x3c27ba79	0.01023733
56	0x3d3bc8a7	0.045845654
57	0xbcf3ea2f	-0.029774753
58	0x3b9c68dd	0.004773243
59	0xbcb102e8	-0.021607831
60	0xbb9039c4	-0.0044014174
61	0xbc253391	-0.010083095
62	0xbce7ff8f	-0.028320102
63	0xbba14d11	-0.004922517

conv1_7/b f4 [3]
0	0x3cf3d5c3	0.029765015
1	0x3bff6006	0.0077934293
2	0xbc087b8c	-0.008330237

conv1_4/W f4 [32, 64, 3, 3]
0	0xbd11ccbc	-0.03559564
1	0x3d44dcb2	0.048062034
2	0x3c14bb29	0.009077826
3	0x3d8a896c	0.067644924
4	0x3de2953f	0.11063623
5	0xbce0549f	-0.0273841
6	0xbc5639ec	-0.013075333
7	0x3a5e167e	0.00084719795
8	0x3c511eb7	0.012763671
9	0x3d4e623b	0.05038665
10	0xbd634c2e	-0.055492572
11	0xbce7199c	-0.028210454
12	0x3d1b25ae	0.03787773
13	0x3d5edb31	0.054408256
14	0xbd5aa25d	-0.053377498
15	0xbdd72ee2	-0.10506989
16	0x3cbd0fdf	0.023078857
17	0x3d17f590	0.03709942
18	0x3c00fbe1	0.007872553
19	0xbd4af0ce	-0.049546055
20	0xbd37fda5	-0.04491963
21	0x3cf9b1c9	0.030480282
22	0xbdc43b20	-0.0958159
23	0x3cbf899a	0.023381043
24	0xbc6654c2	-0.014058294
25	0x3da568e7	0.08076649
26	0xbdb50ab9	-0.08839936
27	0x3d05f2b0	0.032702148
28	0xbc8d3bdd	-0.01724046
29	0xbc26c5b2	-0.01017897
30	0xb9f47c4a	-0.0004663191
31	0x3a5d3a56	0.00084391737
32	0x3c8e0354	0.017335571
33	0xbcb6dee4	-0.02232308
34	0x3c90fbd4	0.017698206
35	0x3b60865c	0.0034259772
36	0xbd3c095f	-0.045907374
37	0x3b8b4fc9	0.0042514545
38	0xbbf23193	-0.0073911636
39	0xbc8bb823	-0.017055577
40	0xbce94b12	-0.02847818
41	0x3cab1f58	0.02088897
42	0x3b8f95c1	0.0043818657
43	0x3bf8efde	0.007596954
44	0x3d7c1e8f	0.06155258
45	0xbbb6fa8a	-0.005584066
46	0x3cfd0350	0.030885369
47	0x3c72618c	0.014793765
48	0x3ca3a05a	0.019973923
49	0xbc6ce14b	-0.014458011
50	0x3c9fff4b	0.019530913
51	0xbbb3e667	-0.0054901126
52	0x3d097deb	0.03356735
53	0x3c867d3b	0.016417136
54	0x3d8895ab	0.06669172
55	0x3da88753	0.08228936
56	0xbb31aa40	-0.0027109534
57	0xbd59fe0f	-0.053220805
58	0x3d0cd50a	0.034382857
59	0xbc88f2b1	-0.016717287
60	0x3b4c86aa	0.0031208196
61	0x3c84cd58	0.016211197
62	0xbd9fd79f	-0.07804798
63	0xbcac880e	-0.02106097
64	0x3dc8d4a9	0.09806187
65	0x3cd27c2a	0.025693972
66	0x3c031956	0.008001646
67	0x3cab3128	0.020897463
68	0x3c0a4a72	0.008440601
69	0x3c759661	0.014989466
70	0xbca21dd3	-0.019789612
71	0xbd69ddff	-0.057096478
72	0xbda4df38	-0.08050388
73	0x3c08667b	0.0083252145
74	0xbd03eb65	-0.03220691
75	0x3d544415	0.05182274
76	0xbd3196cc	-0.0433567
77	0x3d3b1219	0.045671556
78	0xba42c25e	-0.00074294757
79	0x3ccae954	0.024769463
80	0xb9cd6adb	-0.0003918026
81	0xbcde00c0	-0.027099967
82	0xbd22773f	-0.039664503
83	0xbc84ed50	-0.01622644
84	0xbdc8d1fd	-0.09805677
85	0x3d670c88	0.056408435
86	0x3d822a1d	0.06355689
87	0x3d32ee53	0.043684315
88	0x3d02ff6a	0.031981863
89	0xbc62d782	-0.013845326
90	0x3d071b6c	0.032985136
91	0x3c95c073	0.018280244
92	0x3cecabf2	0.028890584
93	0x3be52df8	0.0069940053
94	0x3c72c806	0.014818197
95	0xbbe89068	-0.0070972927
96	0x3c88d8f1	0.016705008
97	0xbd1e237f	-0.03860807
98	0x3cfbd442	0.03074086
99	0xbb915240	-0.004434854
100	0xbd269489	-0.040668998
101	0x3d392a19	0.045206163
102	0xbda61244	-0.08108953
103	0x3ae4d134	0.0017457367
104	0x3cf6455b	0.030062368
105	0xbd53f0f2	-0.051743455
106	0x3d766a4f	0.060159978
107	0xbc029cd3	-0.00797196
108	0x3c8f1a1b	0.017468503
109	0x3c6b419d	0.014358905
110	0xbdf9645c	-0.12177345
111	0xbcc3a38a	-0.023881692
112	0xbd233b5b	-0.039851528
113	0xbb0d5a10	-0.0021568574
114	0xbd569ee5	-0.052397627
115	0xbcc846d5	-0.024447838
116	0xbcf19f68	-0.029494956
117	0x3c4a1d7a	0.012336129
118	0xbd29fa3c	-0.041498408
119	0xbcbee03c	-0.023300283
120	0x3b4c3225	0.0031157818
121	0x3d719a04	0.05898477
122	0xbcc437dc	-0.023952417
123	0xbb454127	-0.0030098648
124	0x3d148739	0.03626177
125	0x3d04f2f4	0.03245826
126	0xbc5930fb	-0.013256307
127	0xbda776e9	-0.08176977
128	0xbb81118f	-0.0039388607
129	0x3ca0cfa8	0.019630268
130	0x3d5ea063	0.054352175
131	0xbd20f3d5	-0.039295036
132	0x3d8101e0	0.06299186
133	0x3dabb448	0.08383995
134	0x3d06933c	0.032855257
135	0x3cb93391	0.022607597
136	0x3c9a6ec8	0.018851653
137	0x3d647e79	0.055784676
138	0xbce20591	-0.027590545
139	0x3cc85a01	0.02445698
140	0x3d9bb54c	0.07602939
141	0x3c96cd18	0.018408343
142	0xbd86c0c3	-0.06579735
143	0xbca049d6	-0.019566458
144	0xbd5582e0	-0.052126765
145	0x3c4aa9f6	0.012369623
146	0xbd1b382a	-0.03789536
147	0x3cc828e1	0.024433555
148	0x3d869a61	0.06572414
149	0xbc85a4a4	-0.016313858
150	0xbd8d5fd3	-0.06903043
151	0xbc97ce84	-0.018531092
152	0x3ca64c33	0.020300006
153	0xbd9618a2	-0.07328917
154	0xbccff4d0	-0.02538529
155	0x3cf597a5	0.029979536
156	0xbbe49976	-0.006976302
157	0x3d97d70b	0.07414063
158	0x3d4fda09	0.050745044
159	0x3d924f47	0.07144027
160	0x3cdd98a2	0.02705032
161	0xbda3592d	-0.07975993
162	0xbcbce4b6	-0.023058277
163	0x3c625961	0.013815255
164	0xbcb17f3c	-0.021667115
165	0x3c809d84	0.01570011
166	0xbc898cd8	-0.016790792
167	0xbd20ffa2	-0.03930629
168	0xbd66fe9d	-0.056395162
169	0xbc3e4596	-0.01161327
170	0xbca9ee52	-0.020743523
171	0x3d38ef37	0.045150008
172	0x3da3d9e9	0.080005474
173	0x3d503bd7	0.050838318
174	0xbcb488d5	-0.022037903
175	0xbc182982	-0.00928724
176	0x3cb89f6f	0.022536961
177	0x3c0a26b3	0.008432078
178	0x3cce4791	0.02518061
179	0x3d7efe33	0.062254142
180	0xbc5f7841	-0.013639511
181	0x3be43b02	0.006965042
182	0x3d6ad155	0.05732854
183	0x3d5f17e1	0.054466132
184	0xbcb16e00	-0.021658897
185	0x3cd875e0	0.026423395
186	0x3d8205c1	0.06348754
187	0x3cbc9592	0.02302054
188	0xbd8c2fb5	-0.06845037
189	0xbd420ed1	-0.04737741
190	0x3d9c35ee	0.07627474
191	0xbd507516	-0.05089291
192	0xbcc75940	-0.02433455
193	0x3cbe8e15	0.02326111
194	0x3c937ad3	0.018002903
195	0xbc5131e8	-0.012768246
196	0xbd435f60	-0.04769838
197	0xbd16ca22	-0.036813863
198	0xbb8c1cee	-0.0042759096
199	0x3d627a6f	0.055292543
200	0x3aa361fd	0.0012465116
201	0xbcc389a2	-0.02386934
202	0x3cf927a7	0.030414416
203	0xbd0c0792	-0.034186907
204	0x3d04ba87	0.03240445
205	0x3d6b65be	0.057470076
206	0x3cc018b7	0.023449285
207	0x3cf82664	0.030291744
208	0x3daaf43e	0.08347367
209	0x3d0d5005	0.03450014
210	0xbb806739	-0.003918555
211	0x3cac9460	0.021066844
212	0x3c8df01e	0.01732641
213	0x3bd1abaa	0.006398638
214	0x3d08e28c	0.033419177
215	0x3cb4e9ba	0.022084106
216	0x3b84fe94	0.0040586684
217	0x3d140b92	0.036143847
218	0xbc6c0ad6	-0.01440688
219	0x3c75f0f3	0.01501106
220	0x3d063b8d	0.032771636
221	0xbc01049c	-0.007874634
222	0x3cbc2504	0.02296687
223	0x3d2c80b7	0.04211494
224	0xbd820f44	-0.06350568
225	0xbb998873	-0.0046854555
226	0xbd528794	-0.05139883
227	0xbcf8ea9f	-0.030385314
228	0x3b4dc8a2	0.0031400104
229	0x3da501df	0.080569975
230	0x3d052522	0.032506116
231	0x3c6e8bbb	0.0145596815
232	0xbd5ed0ea	-0.054398455
233	0x3ca82602	0.020525936
234	0x3c6171e9	0.013760068
235	0xbd0d53e1	-0.03450382
236	0x3d3027d4	0.043006733
237	0xbcd2667a	-0.02568363
238	0x3d9a14db	0.07523509
239	0x3d03c7f1	0.0321731
240	0xbd290cb0	-0.041271865
241	0xbd08dae8	-0.03341189
242	0xbd1f3d9c	-0.038877115
243	0x3dc3b6bd	0.09556339
244	0xbd394855	-0.045234997
245	0x3d9118a9	0.07084782
246	0x3cd2c3ac	0.02572807
247	0x3dc5745c	0.096413344
248	0xbcc70736	-0.02429543
249	0x3c833ecc	0.016021155
250	0x3d87eea2	0.066373125
251	0x3b4cf8d0	0.0031276233
252	0x3d434864	0.04767646
253	0x3d09d090	0.033646166
254	0x3b60f509	0.003432574
255	0xbc1702be	-0.009216962

bn1/gamma f4 [64]
0	0x3f79c5ce	0.9756745
1	0x3f773eb4	0.9658005
2	0x3f77d30d	0.9680641
3	0x3f79d015	0.97583133
4	0x3f7a1a9a	0.9769684
5	0x3f7ac15e	0.97951305
6	0x3f803448	1.0015955
7	0x3f7aa816	0.9791273
8	0x3f801763	1.0007137
9	0x3f808a4e	1.0042207
10	0x3f7f03e2	0.996153
11	0x3f850011	1.0390645
12	0x3f7bf7d4	0.9842503
13	0x3f7913d1	0.9729586
14	0x3f816563	1.0109066
15	0x3f74cfdd	0.95629674
16	0x3f8030d9	1.0014907
17	0x3f743310	0.95390415
18	0x3f729b7a	0.9476849
19	0x3f7d50b7	0.98951286
20	0x3f810e4e	1.008249
21	0x3f81799b	1.0115236
22	0x3f7e3ebc	0.99314475
23	0x3f7cec4d	0.98798066
24	0x3f845370	1.0337963
25	0x3f6f0070	0.9336004
26	0x3f7be4e2	0.9839612
27	0x3f761c82	0.9613725
28	0x3f7fa980	0.9986801
29	0x3f79ac4a	0.9752852
30	0x3f74ed85	0.95674926
31	0x3f7cbcb4	0.9872544
32	0x3f754183	0.9580309
33	0x3f7c445b	0.985418
34	0x3f855777	1.0417317
35	0x3f794261	0.9736691
36	0x3f798fa6	0.97484815
37	0x3f772ac4	0.9654963
38	0x3f81e24a	1.0147183
39	0x3f80ae84	1.0053258
40	0x3f75e2f1	0.9604941
41	0x3f812794	1.0090203
42	0x3f7a0c14	0.9767468
43	0x3f802e49	1.0014125
44	0x3f7fb292	0.9988185
45	0x3f7792cb	0.96708363
46	0x3f7c6bae	0.98601806
47	0x3f769e41	0.96335226
48	0x3f772f2c	0.96556354
49	0x3f81118f	1.0083483
50	0x3f7070d0	0.9392214
51	0x3f79c998	0.9757323
52	0x3f77a441	0.96735007
53	0x3f74eb51	0.95671564
54	0x3f7643da	0.96197283
55	0x3f7ec7b9	0.995235
56	0x3f7b0087	0.9804768
57	0x3f80cb8a	1.0062115
58	0x3f772ff8	0.9655757
59	0x3f8121a5	1.0088392
60	0x3f76fd94	0.9648068
61	0x3f7bf98e	0.98427665
62	0x3f7a2302	0.9770967
63	0x3f794148	0.97365236

conv1_4/b f4 [32]
0	0x39bfbb49	0.00036569897
1	0xb817186d	-3.6023954e-05
2	0x378aa6fd	1.6528642e-05
3	0x38f53121	0.00011691661
4	0xb9a25231	-0.00030960285
5	0xba55c39f	-0.0008154455
6	0x3a1f074d	0.00060664566
7	0x377ca9d5	1.5059913e-05
8	0xb86b487c	-5.6095872e-05
9	0xb8e9c65c	-0.00011147253
10	0x381baabd	3.7113892e-05
11	0xb8f66840	-0.00011749612
12	0xba13044b	-0.00056082447
13	0xb94a922b	-0.00019318673
14	0x37c8c2c5	2.3932555e-05
15	0x39722334	0.00023092033
16	0xbadab751	-0.0016686713
17	0x383b0032	4.4584456e-05
18	0xb99859f3	-0.00029058717
19	0xb8f99111	-0.00011900266
20	0xb81c6bdf	-3.729376e-05
21	0xb8b6449f	-8.691218e-05
22	0xb985a37a	-0.00025489536
23	0x3938c074	0.00017619302
24	0x370a5de3	8.247301e-06
25	0x3a8c2dd6	0.0010694813
26	0x39e49110	0.0004359563
27	0xb86acf82	-5.5983204e-05
28	0x38ffedf9	0.000122036734
29	0x38488af1	4.7813115e-05
30	0x393d8d2a	0.00018077032
31	0xb9953fc7	-0.00028467012

conv1_5/W f4 [32, 32, 3, 3]
0	0xbd674d6a	-0.056470312
1	0xbd312f35	-0.04325791
2	0x3c7ce046	0.01543433
3	0xbd7a0686	-0.061041377
4	0x3d8a664d	0.067577936
5	0x39decc4d	0.00042495356
6	0xbbd9ce5a	-0.0066469135
7	0x3db75929	0.08952553
8	0x3d38e7c1	0.045142893
9	0x3cabd7a3	0.020976847
10	0x3d582db9	0.05277798
11	0xbcc1a09b	-0.023636153
12	0xbd834e24	-0.064113885
13	0x3c913ada	0.017728258
14	0xbcc73575	-0.024317482
15	0xbe08eb85	-0.13371094
16	0x3d2d2a14	0.042276457
17	0x3cb75fe8	0.022384599
18	0xbc996abf	-0.018727658
19	0x3cff6f5d	0.031181032
20	0x3cc33cb0	0.023832649
21	0xbbc81bb1	-0.0061068167
22	0xbe2af512	-0.1669505
23	0x3d733521	0.05937684
24	0xbd8cb0b6	-0.068696424
25	0xbe386732	-0.18008116
26	0x3d494a1d	0.049142946
27	0x3d41d988	0.047326595
28	0x3c03d762	0.008046957
29	0x3d6e5b46	0.058192514
30	0xbb5e58a3	-0.0033927343
31	0x3d908011	0.07055677
32	0xbd7abd5c	-0.061215743
33	0x3d7ea4ed	0.062169004
34	0x3d04eda1	0.032453183
35	0x3d844fe8	0.064605534
36	0x3a9f5989	0.0012157421
37	0xbccbee43	-0.024893885
38	0xbb71b19d	-0.0036879547
39	0xbca1f651	-0.019770773
40	0xbd4913f9	-0.049091313
41	0x3d115e1a	0.035490133
42	0xbca920ca	-0.020645518
43	0xbcba64fe	-0.022753235
44	0x3d418094	0.047241762
45	0x3cd29292	0.025704656
46	0xbc5d28ab	-0.0134984655
47	0x3d16aaba	0.03678391
48	0xbd46b952	-0.04851658
49	0xbcd2f1c0	-0.025750041
50	0x3d0f3615	0.034963686
51	0xbc95d9ac	-0.01829227
52	0x3dc0cf96	0.09414594
53	0x3d355f26	0.044280194
54	0x3cf79cc3	0.030226117
55	0xbdd5c659	-0.104382224
56	0xbd307912	-0.04308421
57	0x3d5c74bc	0.053822264
58	0xbce2c08e	-0.027679708
59	0x3cd60e7f	0.02612996
60	0xbd60be25	-0.054868836
61	0x3d3797bf	0.04482245
62	0x3dac9b91	0.084281094
63	0xbc79cf24	-0.01524714
64	0x3d6e7b87	0.058223274
65	0x3cc3fdfe	0.023924824
66	0xbdb40cf1	-0.08791531
67	0xbcebc975	-0.028782586
68	0xbd0c6bfb	-0.034282666
69	0x3d413788	0.0471721
70	0xbdd5a51b	-0.10431882
71	0x3d1ff789	0.039054427
72	0xbc2ced11	-0.010554568
73	0xbc4e2a24	-0.012583289
74	0xbcc0a4bc	-0.023516051
75	0x3d5a7cf2	0.053341813
76	0xbd3729d0	-0.04471761
77	0xbba86995	-0.0051395395
78	0x3d4e1010	0.050308287
79	0xbcb1d17a	-0.021706332
80	0x3b9a7d8f	0.004714675
81	0x3ca34af5	0.019933203
82	0xbd929041	-0.071564205
83	0x3cacd51a	0.021097708
84	0xbbb1a9f5	-0.005421872
85	0x3c2b25fd	0.010446069
86	0x3cfa2af0	0.030538052
87	0xbdbfe62f	-0.09370076
88	0x3da8c46a	0.08240588
89	0x3cc2be12	0.023772273
90	0x3d0bedef	0.034162458
91	0x3d979e98	0.07403296
92	0x3d3c65d2	0.04599554
93	0x3dcbd660	0.09952998
94	0xbca640cb	-0.020294568
95	0xbc7a074f	-0.015260532
96	0xbcdf8737	-0.027286155
97	0xbd47b34a	-0.048754968
98	0x3d3bf480	0.04588747
99	0x3b37f2ce	0.0028068307
100	0xbd28320e	-0.04106336
101	0x3ca46ae5	0.020070503
102	0x3d9e0d81	0.077174194
103	0x3d6cac0a	0.057781257
104	0x3c8365ec	0.016039811
105	0xbd965653	-0.07340684
106	0x3ae5413d	0.0017490756
107	0xbd14a33a	-0.036288477
108	0xbdd072c6	-0.10178141
109	0xbcb268cc	-0.021778487
110	0x3d4a2b06	0.049357437
111	0xbdab9eda	-0.08379908
112	0xbb9fcf13	-0.00487698
113	0x3db5e631	0.08881796
114	0x3c8cae63	0.017172998
115	0xbd09f944	-0.033684984
116	0xbd14efa3	-0.036361348
117	0x3d6e2fbc	0.05815099
118	0x3cbdbb60	0.023160636
119	0xbc9232ff	-0.017846582
120	0x3ddd621f	0.10809731
121	0x3d74cd04	0.05976583
122	0xbd13a0bd	-0.036041964
123	0x3ce7148d	0.028208042
124	0x3cd7b03b	0.02632915
125	0x3aa82061	0.0012827032
126	0xbdc31635	-0.0952572
127	0x3dce326f	0.10068213
128	0x3d83b9c0	0.064319134
129	0xbcdea6d4	-0.02717916
130	0x3de93705	0.11387447
131	0xbd9313da	-0.07181521
132	0xbccc9b9a	-0.02497654
133	0x3ccf74b2	0.0253242
134	0x3baae930	0.0052157864
135	0xbd6e532b	-0.058184784
136	0x3d3b7c6c	0.045772955
137	0xbd4eb5b0	-0.05046624
138	0xbd49e983	-0.04929496
139	0xbd648af2	-0.05579657
140	0x3cd53d9d	0.026030356
141	0x3c12f8a4	0.008970413
142	0x3bec21d5	0.0072061815
143	0xbcc57b7d	-0.024106735
144	0x3ca11441	0.019662978
145	0x3b271626	0.002549538
146	0xbdaf04ce	-0.08545838
147	0xbd6ff620	-0.058584332
148	0x3cc991bb	0.024605623
149	0x3c5cf2ba	0.013485605
150	0x3d2c094c	0.042001054
151	0x3b8a1324	0.0042137075
152	0xbd0a9f4a	-0.033843316
153	0xbc7f3a81	-0.015577913
154	0xbd9b92c3	-0.07596352
155	0x3c1238de	0.008924691
156	0x3ca5ef80	0.020255804
157	0xbd9bc8ca	-0.07606657
158	0xbe05620f	-0.13025688
159	0x3b2cfbb9	0.0026395156
160	0x3d8dfa5b	0.06932517
161	0xbd18a244	-0.037264124
162	0xbdbf0a3c	-0.09328124
163	0xbd11445c	-0.035465583
164	0xbd986b63	-0.074423574
165	0x3e0a07c3	0.13479523
166	0x3e1613e1	0.1465602
167	0xbc8d71f3	-0.01726625
168	0x3d20cff0	0.039260805
169	0x3d72c4f6	0.059269868
170	0x3df8033d	0.12109993
171	0x3c01e0cd	0.007927132
172	0x3d0dd928	0.034630924
173	0x3b56a4ea	0.0032752105
174	0x3c589f34	0.013221551
175	0xbd89b09d	-0.067231394
176	0xbd2f1ae6	-0.04275026
177	0xbd30806a	-0.043091215
178	0xbd5c7814	-0.053825453
179	0x3c93dac0	0.018048644
180	0x3bd34f4b	0.0064486614
181	0x3d4d85e0	0.0501765
182	0xbd7c0a39	-0.061533187
183	0x3cc36ae7	0.023854686
184	0x3c5ace58	0.01335486
185	0xbc8a7e61	-0.016905965
186	0x3da74133	0.08166733
187	0x3d1c732c	0.038195774
188	0xbd3b6512	-0.045750685
189	0x3d163044	0.036667123
190	0xbe212d50	-0.15739942
191	0x3b333296	0.0027343384
192	0xbd429bdb	-0.047511917
193	0x3bcd66b3	0.006268346
194	0x3d0ff604	0.03514673
195	0x3d7d9ee8	0.061919123
196	0xbc1f5479	-0.00972473
197	0x3cc23535	0.023707012
198	0x3d3e2bcb	0.046428483
199	0xbd39bdbd	-0.045346964
200	0xbdc49bcf	-0.09600031
201	0x3d1759ec	0.03695099
202	0x3d961137	0.07327502
203	0x3db6b411	0.08921064
204	0xbcb5ce6f	-0.022193162
205	0xba1bd6c2	-0.0005944782
206	0xbc6bae24	-0.01438478
207	0x3cdac85b	0.026706865
208	0x3ca715a6	0.020396065
209	0xbd75bf7d	-0.05999707
210	0xbc8dad4b	-0.017294547
211	0x3c38e83b	0.011285837
212	0x3d6d0042	0.057861574
213	0x3d441c92	0.04787881
214	0xbd0ed00a	-0.03486637
215	0x3db40696	0.08790319
216	0xbc3b4684	-0.011430386
217	0x3ccb880a	0.024845142
218	0xbdca042b	-0.09864076
219	0xbda829cc	-0.08211097
220	0xbd1a87cb	-0.03772716
221	0x3d912d82	0.07088758
222	0xbc237ca2	-0.009978445
223	0xbcf42ecb	-0.029807469
224	0xba8cac00	-0.0010732412
225	0xbc92fceb	-0.017942866
226	0xbd65f4c7	-0.05614164
227	0xbcfd8247	-0.03094591
228	0x3cdb6df4	0.026785828
229	0xbc86d8a3	-0.016460722
230	0x3d4ac368	0.04950276
231	0xbd7b4118	-0.061341375
232	0xbd645f6e	-0.05575507
233	0x3d2d7473	0.042347383
234	0x3d6cf81a	0.057853796
235	0x3e2aa442	0.16664222
236	0x3c19174d	0.009343934
237	0x3c810df6	0.015753727
238	0xbd1ebf14	-0.038756445
239	0xbd0457ba	-0.032310225
240	0x3d4cb0ea	0.049973406
241	0x3d295eb5	0.041350085
242	0x3cea0a50	0.02856937
243	0xbd452949	-0.048135076
244	0x3da1de79	0.079037614
245	0xbbc53004	-0.006017687
246	0x3bdbb8cb	0.0067053786
247	0x3a67a874	0.0008837052
248	0xbdc39a0b	-0.09550866
249	0xbdaad492	-0.08341326
250	0x3c0e73f3	0.008694637
251	0x3dc5bbd4	0.09654966
252	0xbc2c1171	-0.010502205
253	0x3c9c1781	0.019054176
254	0x3cb330d1	0.021873863
255	0xbd1fb49c	-0.038990602

bn5/beta f4 [32]
0	0x3db9c8bd	0.09071491
1	0x3da0e5ee	0.078563556
2	0x3b366c45	0.002783553
3	0x3e05fb7e	0.13084218
4	0x3d8dc085	0.06921486
5	0x3d828949	0.06373841
6	0x3e062b15	0.13102372
7	0x3d461cf8	0.04836747
8	0x3e068efd	0.13140483
9	0x3dbc6b9f	0.092002146
10	0x3de9eb4e	0.11421834
11	0x3df545db	0.119762145
12	0x3d552046	0.05203273
13	0x3d891a34	0.06694451
14	0x3ca7bc4b	0.020475527
15	0x3c771f41	0.015083135
16	0x3ce1fc20	0.027586043
17	0x3dba8773	0.09107866
18	0x3d3c06fb	0.045905095
19	0x3b61873b	0.003441288
20	0x3da7f8e3	0.08201768
21	0x3d055564	0.032552138
22	0xbab5e170	-0.001387639
23	0x3c164590	0.009171858
24	0x3e1cac9e	0.15300223
25	0x3d818bd4	0.06325498
26	0x3d0fe5f8	0.035131425
27	0x3dafa816	0.08576982
28	0x3e023e1b	0.12719004
29	0x3e022bfb	0.1271209
30	0x3d96dffe	0.07366942
31	0x3d868ff3	0.06570425

bn2/gamma f4 [64]
0	0x3f7d6a67	0.9899048
1	0x3f75c00b	0.9599616
2	0x3f781101	0.96900946
3	0x3f7e2ae7	0.99284214
4	0x3f7c315e	0.9851283
5	0x3f83c7cb	1.0295347
6	0x3f838963	1.0276302
7	0x3f804ed2	1.0024054
8	0x3f80e6b8	1.007041
9	0x3f7f2e76	0.9968027
10	0x3f7cf53b	0.9881169
11	0x3f7a9749	0.9788709
12	0x3f80412f	1.0019892
13	0x3f7e7a31	0.994052
14	0x3f79ab1e	0.9752673
15	0x3f82c015	1.0214869
16	0x3f7d06c2	0.98838437
17	0x3f7e1a83	0.99259204
18	0x3f7a25f1	0.97714144
19	0x3f7eae65	0.99484855
20	0x3f7d8da8	0.99044275
21	0x3f833bfe	1.0252683
22	0x3f786399	0.97026974
23	0x3f7dd07e	0.9914626
24	0x3f80ea55	1.0071512
25	0x3f800742	1.0002215
26	0x3f8240da	1.0176041
27	0x3f7746fb	0.9659268
28	0x3f738bc1	0.9513512
29	0x3f80bdef	1.0057963
30	0x3f839a7a	1.0281518
31	0x3f7c3f7e	0.9853438
32	0x3f7d7e6f	0.9902105
33	0x3f7be80d	0.98400956
34	0x3f7cc129	0.9873224
35	0x3f80737d	1.0035244
36	0x3f7e78d5	0.99403125
37	0x3f7af71c	0.9803331
38	0x3f7de4ff	0.99177545
39	0x3f7d191b	0.9886643
40	0x3f8523eb	1.0401586
41	0x3f7c3545	0.9851878
42	0x3f7a6c8f	0.978219
43	0x3f80379f	1.0016974
44	0x3f83be31	1.0292417
45	0x3f8312bb	1.0240091
46	0x3f7b9245	0.98270065
47	0x3f82e5aa	1.0226338
48	0x3f7e7121	0.9939137
49	0x3f7b4a85	0.9816058
50	0x3f824ea7	1.0180253
51	0x3f73a93b	0.951801
52	0x3f88fe97	1.0702695
53	0x3f7f590e	0.9974526
54	0x3f8208c7	1.0158929
55	0x3f7a3002	0.97729504
56	0x3f7eb6db	0.99497765
57	0x3f7bace6	0.983107
58	0x3f7b6914	0.9820721
59	0x3f7631f6	0.96169984
60	0x3f78a3a5	0.971247
61	0x3f7ff06a	0.9997622
62	0x3f884e71	1.0648938
63	0x3f7c5fef	0.98583883

conv1_2/b f4 [64]
0	0xb7f30ede	-2.897478e-05
1	0xb789da92	-1.6433452e-05
2	0x38a1bc84	7.712192e-05
3	0x39ae0f2b	0.00033199167
4	0xb889046c	-6.533493e-05
5	0xb8a34375	-7.7850105e-05
6	0xb917dbde	-0.00014482389
7	0x39a2aae2	0.00031026365
8	0xb80ce73b	-3.359395e-05
9	0x38e10847	0.00010730378
10	0x3911724f	0.00013870861
11	0xb732e259	-1.0662327e-05
12	0x372421ca	9.783029e-06
13	0x386e7bed	5.6859037e-05
14	0xb987949c	-0.0002585993
15	0xb89590d1	-7.131848e-05
16	0xb99824d9	-0.00029019153
17	0x38dbf2e9	0.00010487979
18	0xb8ab596c	-8.1705715e-05
19	0xb950da9d	-0.00019917866
20	0xb8a339ed	-7.783235e-05
21	0xb945e15d	-0.00018871338
22	0x378dd946	1.6909686e-05
23	0x3866e46c	5.5049008e-05
24	0xb9bd07a1	-0.00036054573
25	0xb8614f28	-5.37179e-05
26	0x386f2cda	5.702381e-05
27	0x392f4629	0.00016715437
28	0x390dd081	0.00013524482
29	0x38d39960	0.00010089832
30	0x38d79649	0.00010279992
31	0xba0a78f4	-0.00052823056
32	0xb864f5e8	-5.4588454e-05
33	0xb7b6614a	-2.1741394e-05
34	0x389423e8	7.063878e-05
35	0x3830a213	4.2112613e-05
36	0x38603c73	5.346206e-05
37	0x39734aa7	0.00023202096
38	0xb8e380ea	-0.000108482156
39	0xb913507a	-0.00014048992
40	0xb7c29a40	-2.319843e-05
41	0xb8f8e945	-0.00011869011
42	0x37fc3518	3.0065465e-05
43	0xb8584ad8	-5.1568117e-05
44	0xb9237dc4	-0.00015591743
45	0xb7e31d47	-2.7074142e-05
46	0x36ea4f4e	6.9829757e-06
47	0xb9959e27	-0.00028537327
48	0xb83c7b97	-4.4937795e-05
49	0x378950ba	1.6369264e-05
50	0x390e6e10	0.00013583177
51	0x375fee87	1.3347372e-05
52	0x3949d994	0.00019249908
53	0x384f5d45	4.943951e-05
54	0xb9bd33bc	-0.00036087434
55	0xb8f9717e	-0.00011894385
56	0xb88ef8a0	-6.817398e-05
57	0x3763153f	1.3535201e-05
58	0xb95fea94	-0.00021354324
59	0xb92956ef	-0.00016149481
60	0x384f7c56	4.9468443e-05
61	0x390c92b9	0.00013406099
62	0xb9614a87	-0.00021485436
63	0x38c5f0fd	9.4385796e-05

bn2/avg_var f4 [64]
0	0x3ea9b3c9	0.33144978
1	0x3f1d5839	0.6146274
2	0x3ef33f5a	0.4750927
3	0x3efcf66d	0.49406758
4	0x3eb984f1	0.3623424
5	0x3ee49a86	0.44649142
6	0x3eff96b0	0.49919653
7	0x3ebfce64	0.3746215
8	0x3ee73709	0.45159176
9	0x3ef6c407	0.48196432
10	0x3ee53814	0.44769347
11	0x3f140a1a	0.57827914
12	0x3ecdf829	0.40228394
13	0x3e92c538	0.2866609
14	0x3f07a8b8	0.5299182
15	0x3ec6b997	0.3881347
16	0x3ebf91e2	0.37415987
17	0x3ece6cdb	0.40317425
18	0x3f2fe0b6	0.68702257
19	0x3ec30c11	0.38095143
20	0x3f314020	0.6923847
21	0x3f0c0893	0.54700583
22	0x3eda5afd	0.42647544
23	0x3ecbff00	0.39842987
24	0x3ee17bd3	0.44039783
25	0x3ecc8e60	0.39952374
26	0x3ebedd05	0.37278
27	0x3e88fe09	0.26756313
28	0x3f0310e1	0.5119763
29	0x3ec5ea41	0.38655284
30	0x3ef67f46	0.48143977
31	0x3ec4490c	0.3833698
32	0x3ebc550b	0.36783633
33	0x3ef74542	0.48295027
34	0x3f0735da	0.52816546
35	0x3f167214	0.5876782
36	0x3ec002af	0.37502047
37	0x3f131b4c	0.57463527
38	0x3ee178fc	0.44037616
39	0x3ed7f2e6	0.42177504
40	0x3f3f4289	0.747109
41	0x3edd7401	0.43252566
42	0x3ed8a986	0.42316836
43	0x3f039d1f	0.5141162
44	0x3ef3e1ca	0.476332
45	0x3efca31b	0.4934319
46	0x3ef56a6b	0.47932753
47	0x3f0786f6	0.5294031
48	0x3ef5de95	0.4802138
49	0x3ebc0406	0.3672182
50	0x3ec1ce2c	0.3785261
51	0x3efe45e9	0.49662712
52	0x3f07bbee	0.5302113
53	0x3ef0309b	0.46912083
54	0x3efbfd0c	0.49216497
55	0x3ee34ae0	0.44393063
56	0x3ed1d38e	0.40981716
57	0x3ecc76a2	0.3993426
58	0x3ea33a14	0.31880248
59	0x3eb346d8	0.35014987
60	0x3ef5ccc4	0.48007786
61	0x3f00abd0	0.50262165
62	0x3f0ca88a	0.5494467
63	0x3eed939e	0.46401685

bn6/beta f4 [32]
0	0x3dc59d4f	0.09649145
1	0x3dfd4663	0.12366941
2	0x3c05a179	0.008156174
3	0x3de780af	0.11303841
4	0x3d49b2af	0.04924267
5	0x3d3478dc	0.044060573
6	0x3def4f03	0.11684992
7	0x3d0f259e	0.034947984
8	0x3dd6e019	0.10491962
9	0x3db411c5	0.08792452
10	0x3e1d8605	0.15383156
11	0x3e117fde	0.14208934
12	0x3d6d7497	0.057972517
13	0x3da5851c	0.08082029
14	0x3d31562c	0.04329507
15	0x3d2c8fd3	0.04212935
16	0x3c831e1b	0.016005566
17	0x3dc1d1d9	0.094638534
18	0x3daff2b9	0.085912175
19	0x3c06cd46	0.008227652
20	0x3dc7b6c6	0.09751658
21	0x3c8b3459	0.016992735
22	0x3dd3ceb6	0.10342161
23	0x3d01358d	0.03154521
24	0x3e9040ca	0.2817443
25	0x3d6549d4	0.05597861
26	0x3d869b6f	0.06572615
27	0x3de6a8fa	0.112626985
28	0x3de51932	0.11186446
29	0x3dced5f2	0.100994006
30	0x3dea83ea	0.11450942
31	0x3da3fdc8	0.08007389

conv1_7/W f4 [3, 32, 3, 3]
0	0x3cce8dfe	0.025214192
1	0x3d383542	0.044972666
2	0x3da184ed	0.07886682
3	0x3cd0db30	0.025495142
4	0x3ce28f2b	0.027656158
5	0xbd0eaab8	-0.03483078
6	0x3d2cf24f	0.04222327
7	0x3d95f175	0.07321445
8	0x3d23c149	0.039979253
9	0xbb72869b	-0.00370065
10	0x3d1ddb6d	0.03853934
11	0x3de8a817	0.113601856
12	0x3d525130	0.051346958
13	0x3c83bd94	0.016081609
14	0x3dce16c8	0.10062939
15	0x3d8365cf	0.06415903
16	0xbd9cfc29	-0.07665283
17	0x3c5e6284	0.013573293
18	0x3e15527b	0.14582245
19	0xbc7839d5	-0.015150507
20	0x3cca6d2a	0.024710257
21	0x3d0c02bd	0.0341823
22	0x3c4a35f9	0.01234197
23	0x3d74a54e	0.05972796
24	0xbd76e8c6	-0.060280584
25	0xbd6841e5	-0.056703467
26	0xbd8d9d62	-0.06914784
27	0xbcc9a5dc	-0.02461522
28	0x3d627a44	0.055292383
29	0x3db580b7	0.08862441
30	0x3cac2383	0.021013027
31	0xbc4f6f26	-0.012660777
32	0xbc70b8a0	-0.0146924555
33	0xbc86864b	-0.016421458
34	0x3e3f1855	0.18661626
35	0xbc971edf	-0.018447338
36	0x3df23084	0.1182566
37	0x3d9cfd24	0.0766547
38	0x3dae3a51	0.08507217
39	0x3d7b2910	0.061318457
40	0x3e16fb7d	0.14744373
41	0x3e32a599	0.17445983
42	0x3d85a05f	0.06524729
43	0xbce41d46	-0.02784599
44	0x3cbdc30f	0.0231643
45	0xbcd3a7f8	-0.02583693
46	0xbdb9ca90	-0.09071839
47	0x3e0a839b	0.13526766
48	0x3dc1cc21	0.094627626
49	0xbdc3531d	-0.09537337
50	0x3d7cccc3	0.061718713
51	0x3c8b98c8	0.017040625
52	0x3b11e841	0.0022263678
53	0xbd133620	-0.03594029
54	0x3db62b96	0.08895032
55	0xbd194710	-0.037421286
56	0x3c857d9b	0.016295245
57	0xbc584ee6	-0.013202405
58	0x3e2d3e35	0.16918261
59	0xbd843074	-0.06454554
60	0x3c43c4c7	0.011948771
61	0x3e2dba06	0.16965494
62	0xbd3bb62c	-0.04582803
63	0xbc9d3cae	-0.019193973
64	0x3daea56a	0.08527644
65	0xbcf10278	-0.029420123
66	0xbd179bb4	-0.037013724
67	0xbdf917aa	-0.12162717
68	0x3dbe1f98	0.0928337
69	0xbd68d6ee	-0.056845598
70	0x3dd36514	0.103220135
71	0x3da2c0c5	0.07946924
72	0x3ca2f22c	0.019890867
73	0x3dde7f5c	0.108641356
74	0x3dfcb655	0.123394646
75	0x3d419a4c	0.04726629
76	0x3d6bf9d9	0.05761132
77	0xbd91ca72	-0.071186915
78	0xbddebd08	-0.108758986
79	0x3e56c905	0.2097512
80	0x3d01d8c6	0.031700872
81	0x3df2171d	0.11820815
82	0x3dbd7256	0.092503235
83	0xbbd45235	-0.0064795264
84	0x3dda880b	0.106704794
85	0x3e23dce1	0.16002227
86	0xbcacc939	-0.021092044
87	0x3da6e4a2	0.08149077
88	0x3ccca801	0.024982454
89	0xbc803e50	-0.015654713
90	0xbd6c3a73	-0.05767293
91	0x3da57369	0.08078653
92	0x3d768be5	0.060192008
93	0x3d82b71e	0.06382583
94	0x3df18b9f	0.11794209
95	0xbd98707f	-0.07443332
96	0x3e3e4ffc	0.18585199
97	0x3d5d7dd0	0.054075062
98	0xbd19becc	-0.037535474
99	0xbcd430e3	-0.025902217
100	0xbd30963a	-0.043112017
101	0xbcdc507e	-0.02689385
102	0x3d0f84e0	0.03503883
103	0x3e1abfab	0.15112178
104	0x3d3bd01f	0.045852777
105	0x3cd31d8f	0.02577093
106	0x3d614047	0.05499294
107	0x3d469739	0.04848406
108	0xbdcdcec6	-0.100492045
109	0x3ca7ee97	0.02049951
110	0x3e484055	0.1955579
111	0x3da683b2	0.08130588
112	0x3e29af24	0.16570717
113	0x3de1309d	0.109956004
114	0x3dd9c7f8	0.10633844
115	0x3dd83163	0.10556295
116	0xbc40796d	-0.0117477
117	0x3d0948c4	0.03351666
118	0x3e0ce99b	0.13760988
119	0x3e06afc6	0.1315299
120	0x3cbf9d60	0.023390472
121	0x3daf9531	0.08573378
122	0x3da40f88	0.08010775
123	0x3e310028	0.17285216
124	0xbdc1b883	-0.09459021
125	0xbd96bc34	-0.07360116
126	0x3d242eb8	0.040083617
127	0x3c565f73	0.01308428
128	0x3cb9e3cf	0.022691635
129	0xbd4d73bb	-0.050159197
130	0x3bf13ffa	0.007362363
131	0xbd8b6eda	-0.06808253
132	0xbcd7d2b0	-0.02634558
133	0x3dbe5b2d	0.09294734
134	0x3bd7e1ba	0.006588188
135	0x3dc80a59	0.09767599
136	0x3cdc322e	0.026879396
137	0x3d424565	0.04742946
138	0xbcd4d4d0	-0.025980383
139	0xbd806fd2	-0.06271328
140	0xbd00369b	-0.031302076
141	0x3dac530f	0.0841428
142	0x3ca5afa3	0.020225352
143	0x3c8d428d	0.017243648
144	0xbcf32efd	-0.029685492
145	0xbda88606	-0.08228688
146	0xbe09cf5b	-0.13458006
147	0xbda0407a	-0.07824798
148	0x3d00cce4	0.0314454
149	0xbcfd319c	-0.030907445
150	0x3d1b0f2d	0.03785627
151	0x3e512f74	0.20428258
152	0x3b985ab1	0.004649483
153	0x3df6556e	0.12028013
154	0x3dcd6245	0.10028509
155	0x3c532677	0.012887589
156	0x3e74f66a	0.23922125
157	0x3d136dae	0.03599327
158	0x3d9f1ab3	0.07768764
159	0x3c68e9e5	0.014215921
160	0xbe2c647c	-0.16835207
161	0x3d14219b	0.03616486
162	0x3db46336	0.088079855
163	0x3da0f751	0.07859672
164	0x3cb45a83	0.022015816
165	0x3d9ed015	0.07754532
166	0xbd965f2b	-0.073423706
167	0xbcc2ef6a	-0.023795802
168	0xbc950925	-0.018192837
169	0x3d43b611	0.047781054
170	0x3d12162f	0.035665687
171	0x3d327fc0	0.043578863
172	0xba73eeaa	-0.0009305278
173	0x3e486a38	0.19571769
174	0xbdb96d0a	-0.09054001
175	0xbdcd5189	-0.10025317
176	0xbd1c87dd	-0.038215507
177	0xbd62e5ec	-0.05539505
178	0x3c945767	0.018108083
179	0x3c40481a	0.01173594
180	0x3dd205f6	0.10255043
181	0xbcf059ed	-0.029339755
182	0x3cd7d3bb	0.026346078
183	0xbdacc878	-0.08436674
184	0x3d8fdf04	0.07024959
185	0xbd882ac6	-0.066487834
186	0xb9282bba	-0.00016038018
187	0x3d0b9b85	0.03408386
188	0x3e2ff29e	0.17182395
189	0x3ba44383	0.005012931
190	0xbc12c9a0	-0.008959204
191	0x3d25ab3b	0.0404465
192	0x3c536d6a	0.012904504
193	0x3db74fb3	0.08950748
194	0xbdcf353a	-0.10117574
195	0xbb97675c	-0.0046204757
196	0xbe05ff0a	-0.13085571
197	0x3db0a80f	0.08625805
198	0x3deaa6b4	0.11457577
199	0x3c69aa99	0.014261865
200	0xbd2f25a4	-0.042760506
201	0x3dcd3859	0.10020513
202	0xbda84207	-0.08215719
203	0xbd932902	-0.07185556
204	0x3d756542	0.05991102
205	0x3bf68b8f	0.007523961
206	0x3d3f9b27	0.046778824
207	0xbdc71b85	-0.09722046
208	0x3d4b62fb	0.049654942
209	0xbc97e855	-0.018543402
210	0xbb2df2f7	-0.0026542523
211	0x3d8f3742	0.069929615
212	0xbd2b6710	-0.041846335
213	0x3c4c0162	0.012451502
214	0xbd055870	-0.032555044
215	0x3ddf8a60	0.10915065
216	0xbd4ef9cf	-0.050531205
217	0x3d31f288	0.043444186
218	0xbda20e02	-0.07912828
219	0xbd0ef1c9	-0.034898553
220	0x3d684010	0.05670172
221	0x3e2868df	0.16446255
222	0x3d5a2990	0.053262293
223	0xbc46e7c1	-0.012140215
224	0x3d7ebb19	0.06219015
225	0xbd337dad	-0.043821026
226	0xbcbc91e6	-0.023018789
227	0x3e12dc37	0.14341818
228	0x3d29d839	0.04146597
229	0x3da39500	0.07987404
230	0x3dfcfca9	0.123528786
231	0x3dc304bc	0.095223874
232	0x3de573e2	0.112037435
233	0x3df7ecb6	0.12105696
234	0xbd8978e5	-0.06712512
235	0xbc95f369	-0.018304544
236	0xbce875b3	-0.028376436
237	0x3df5ebd6	0.12007873
238	0x3e030435	0.12794574
239	0xbbc30ace	-0.0059522158
240	0xbcb06e0b	-0.021536848
241	0x3dbe78cd	0.09300385
242	0x3d26bba6	0.0407063
243	0xbd5209fe	-0.05127906
244	0x3ba4a690	0.0050247386
245	0x3da8fe68	0.08251649
246	0xbd936120	-0.071962595
247	0xbd39f5cc	-0.045400426
248	0x3e6da4a8	0.23207343
249	0xbd2137e3	-0.03935994
250	0xbd87041a	-0.06592579
251	0x3b8266cc	0.0039795395
252	0x3d0b2e65	0.033979792
253	0xbc7e8a17	-0.015535853
254	0xbcb069de	-0.021534856
255	0x3d8d60d9	0.06903238
