loto6_cnn/loto6_30_940.model (npz, 491136 bytes, 38 tensors)

bn1/beta f4 [64]
0	0x3d6287af	0.05530518
1	0x3c53426f	0.012894257
2	0x3cd91335	0.026498416
3	0x3d9adcdb	0.07561656
4	0xbc5c4d2a	-0.013446132
5	0x3d4d4398	0.05011329
6	0x3df1b185	0.11801437
7	0x3cad42bb	0.021149984
8	0x3c5478bb	0.0129682375
9	0x3d8efd7b	0.06981941
10	0x3db63ced	0.088983394
11	0x3daea479	0.085274644
12	0x3d3bbd1e	0.045834653
13	0x3d88930d	0.06668673
14	0x3dc1195b	0.09428664
15	0x3d6457d4	0.055747822
16	0x3dcd47a2	0.100234285
17	0x3d1c4bc1	0.038158182
18	0x3ca7f4a6	0.0205024
19	0x3d436828	0.047706753
20	0x3d8a3162	0.067477
21	0x3d5555b0	0.05208367
22	0x3d73bda1	0.059507016
23	0x3bf04499	0.007332396
24	0x3dad6b4b	0.0846773
25	0x3d338f19	0.04383764
26	0xbbefd4d8	-0.007319074
27	0x3d15c176	0.03656145
28	0x3da380ac	0.079835266
29	0x3c19365a	0.009351337
30	0x3d69cb47	0.057078626
31	0x3c3388d4	0.010957915
32	0x3c83d24c	0.016091488
33	0x3cc57b83	0.024106747
34	0x3da42a65	0.080158986
35	0x3d202f79	0.039107773
36	0x3bf58835	0.007493044
37	0x3cffaf66	0.031211566
38	0x3dd30d76	0.10305302
39	0x3dcddbfb	0.100517236
40	0x3cb308f5	0.021854857
41	0x3d814b71	0.063132174
42	0x3cecff1b	0.028930238
43	0x3d037289	0.03209165
44	0x3d4a0008	0.049316436
45	0xbb9e073b	-0.0048226393
46	0xbbb72cfc	-0.0055900794
47	0x3dbdb29a	0.09262581
48	0x3c9d4e1f	0.01920229
49	0x3db2378d	0.08702002
50	0xbc849c03	-0.016187673
51	0x3c818b33	0.015813446
52	0x3d8ef7ae	0.06980835
53	0x3d242e1e	0.040083043
54	0x3d90945c	0.07059547
55	0x3d1a17ad	0.037620235
56	0x3dbc848b	0.09204968
57	0x3d3c7aa6	0.046015404
58	0xbc901309	-0.017587202
59	0x3df73ea4	0.120724946
60	0x3d617882	0.055046566
61	0x3cb0fe4d	0.021605635
62	0x3d8203e6	0.063484
63	0x3cf19df8	0.02949427

bn3/gamma f4 [64]
0	0x3f8b658d	1.0890366
1	0x3f8d45a9	1.1036884
2	0x3f8b537a	1.088485
3	0x3f89dbfa	1.0770257
4	0x3f829318	1.020114
5	0x3f86e299	1.0537902
6	0x3f86bc22	1.0526164
7	0x3f82ebe7	1.0228242
8	0x3f86c812	1.0529807
9	0x3f82f6af	1.0231532
10	0x3f7f21c5	0.99660903
11	0x3f82f3f9	1.0230705
12	0x3f8238bd	1.0173565
13	0x3f8790e7	1.0591096
14	0x3f842bc5	1.0325857
15	0x3f7f733a	0.99785197
16	0x3f7fa53c	0.998615
17	0x3f80b6d7	1.0055798
18	0x3f87606b	1.05763
19	0x3f7ddf84	0.9916918
20	0x3f83ba15	1.0291163
21	0x3f850de3	1.0394863
22	0x3f811339	1.0083991
23	0x3f8249e3	1.0178798
24	0x3f822ab5	1.0169283
25	0x3f8155d7	1.0104321
26	0x3f81c895	1.0139338
27	0x3f81aa38	1.0130072
28	0x3f83214c	1.0244536
29	0x3f82e952	1.0227454
30	0x3f8064fd	1.0030819
31	0x3f86a4fb	1.0519098
32	0x3f8228ae	1.0168664
33	0x3f824cff	1.0179747
34	0x3f846822	1.0344279
35	0x3f83dced	1.0301796
36	0x3f81a99e	1.0129888
37	0x3f8b25bd	1.0870892
38	0x3f8dea4a	1.1087124
39	0x3f8522c1	1.0401231
40	0x3f830dee	1.0238626
41	0x3f832c14	1.0247827
42	0x3f829143	1.020058
43	0x3f84ef80	1.038559
44	0x3f868b81	1.0511323
45	0x3f851019	1.0395538
46	0x3f81d2da	1.0142472
47	0x3f880110	1.0625324
48	0x3f82773f	1.0192641
49	0x3f84e8f7	1.0383595
50	0x3f8157db	1.0104936
51	0x3f804246	1.0020225
52	0x3f82b97d	1.0212857
53	0x3f7ddf4a	0.9916884
54	0x3f88353e	1.0641248
55	0x3f8e6b82	1.1126559
56	0x3f848d9a	1.0355713
57	0x3f82924e	1.0200899
58	0x3f8042a8	1.0020342
59	0x3f835458	1.0260115
60	0x3f81e0a4	1.014668
61	0x3f832663	1.024609
62	0x3f8ee18d	1.1162583
63	0x3f81e2b5	1.014731

bn4/beta f4 [32]
0	0x3d2f9813	0.04286964
1	0x3d9a0225	0.0751994
2	0x3caef62b	0.021357616
3	0x3db6e2d9	0.089299865
4	0x3d81b07d	0.063324906
5	0x3d7aab74	0.061198667
6	0x3e16f48f	0.14741729
7	0x3d2e7adc	0.042597637
8	0x3e07f319	0.13276328
9	0x3e2ac1ec	0.16675538
10	0x3dca990e	0.09892474
11	0x3db4c54f	0.08826696
12	0x3d955de3	0.07293298
13	0x3dcf3d3c	0.101191014
14	0x3baac6d6	0.0052116914
15	0x3cc4843e	0.02398884
16	0x3ca3acd4	0.019979872
17	0x3da9ff17	0.08300608
18	0x3d616497	0.05502757
19	0x3c969ba1	0.018384757
20	0x3d9f276f	0.07771193
21	0xbb787c46	-0.003791587
22	0x3b4f69d8	0.003164878
23	0x3d80f0cc	0.06295928
24	0x3db76977	0.08955663
25	0x3d8968ab	0.06709417
26	0x3dcf5ad0	0.10124743
27	0x3c0154f4	0.00789379
28	0x3d9a65b7	0.07538932
29	0x3e16f79d	0.14742894
30	0x3dc62269	0.09674532
31	0x3dc42653	0.09577622

bn2/avg_mean f4 [64]
0	0xbe96da9e	-0.29463667
1	0xbf33adb0	-0.701869
2	0xbf6b0875	-0.9180978
3	0xbf9d5469	-1.2291385
4	0x3d9d073e	0.07667397
5	0xbef1e254	-0.47242987
6	0xbfa4de22	-1.288029
7	0xbfb833da	-1.4390824
8	0xbef81876	-0.48456162
9	0xbfc3ca2c	-1.5296073
10	0xbec68d65	-0.3877975
11	0xbed07c70	-0.40719938
12	0xbf59a876	-0.85022676
13	0xbf4fb9f0	-0.81143093
14	0x3f571cde	0.8402842
15	0xbf83bca1	-1.029194
16	0xbf234974	-0.63783956
17	0xbf60c913	-0.87806815
18	0xbf6ebfec	-0.932616
19	0xbf893ffc	-1.0722651
20	0xbf589570	-0.84603024
21	0xbfbe7e43	-1.4882282
22	0xbec6641c	-0.38748252
23	0x3d405db8	0.046964377
24	0xbf793f2b	-0.9736201
25	0xbf60e4ca	-0.87849104
26	0xbf4c236d	-0.79741555
27	0xbf270ca4	-0.65253663
28	0x3ea8472c	0.328668
29	0xbec4e49c	-0.38455665
30	0xbd5a1e43	-0.053251516
31	0xbf709b6a	-0.93987143
32	0x3ce40b7c	0.027837507
33	0x3e7eeb3d	0.24894424
34	0x3da36ad4	0.0797936
35	0xbfc3e3e5	-1.5303923
36	0xbecb3815	-0.39691225
37	0x3dc32006	0.09527592
38	0xbe39f249	-0.1815883
39	0xbe8336aa	-0.25627643
40	0xbf8000c4	-1.0000234
41	0xbe138324	-0.14405495
42	0xbf69020d	-0.91018754
43	0x3ee6595d	0.44990054
44	0xbf63b871	-0.8895331
45	0xbf7ac08d	-0.9795006
46	0xbefe0271	-0.49611238
47	0xbfa9869a	-1.3244202
48	0xbf649201	-0.89285284
49	0xbf592b84	-0.84832025
50	0xbf5d85fb	-0.8653256
51	0xbc1311ff	-0.008976459
52	0xbfaba6fe	-1.3410337
53	0xbf769ca7	-0.9633278
54	0xbf60739e	-0.8767642
55	0xbdcbc468	-0.09949571
56	0xbfa22bcf	-1.2669619
57	0xbf8aec41	-1.0853349
58	0xbf0a3b2d	-0.53996545
59	0x3e9404c9	0.289099
60	0xbe01d836	-0.12680134
61	0xbfae5b72	-1.3621657
62	0xbf90c0e4	-1.1308866
63	0xbf9474de	-1.1598165

conv1_6/b f4 [32]
0	0xb933975a	-0.00017127153
1	0x394eca82	0.00019721131
2	0xba4324ba	-0.00074441324
3	0xba0dd2b2	-0.0005410119
4	0xba6bf26f	-0.0009000664
5	0xb82e0339	-4.1487834e-05
6	0x37373f91	1.092245e-05
7	0x3a376c8c	0.0006997071
8	0xb9defbcc	-0.00042530743
9	0xb946a0e3	-0.00018942686
10	0x38a217b9	7.729181e-05
11	0x3a1496df	0.00056682335
12	0xb99afdea	-0.0002956235
13	0xba20a602	-0.0006128253
14	0x397c2c42	0.0002404908
15	0x395e2d22	0.00021188383
16	0x3a1d6a43	0.0006004909
17	0xb93917d8	-0.00017651857
18	0xba4b65b6	-0.00077589916
19	0xb9f61dde	-0.0004694303
20	0x3a426657	0.00074157625
21	0xb94eeab8	-0.0001973313
22	0x39c6ec49	0.0003794155
23	0x38bdc417	9.048747e-05
24	0xb923f0b8	-0.00015634566
25	0x3a92cb2e	0.0011199468
26	0x38497044	4.802669e-05
27	0xb8fc589e	-0.000120328026
28	0xb984da6b	-0.00025339736
29	0x39398bf4	0.00017695111
30	0x39a58502	0.0003157035
31	0x3987feae	0.00025938958

conv1_5/b f4 [32]
0	0xb9c6e4fa	-0.00037936104
1	0x38cb7cd9	9.703049e-05
2	0x3a204256	0.00061134004
3	0x39158799	0.00014260261
4	0xb99715e5	-0.00028817277
5	0x398cf294	0.00026883616
6	0x3926b504	0.00015898427
7	0xb91da1ea	-0.00015033004
8	0x3916d6df	0.0001438516
9	0xb933f4c3	-0.00017161951
10	0xb9c07158	-0.0003670554
11	0x398aa709	0.00026445862
12	0xb9ed4fe1	-0.00045263677
13	0x39b6205d	0.00034737858
14	0x3814abff	3.5446134e-05
15	0x3a258dec	0.00063153985
16	0x380b8898	3.3267395e-05
17	0x39edd517	0.00045362927
18	0x396578e6	0.0002188418
19	0xb9c2a62a	-0.00037126365
20	0x38e15204	0.00010744113
21	0x39d6a432	0.00040939596
22	0xbae0be4d	-0.0017146558
23	0xb9239c5b	-0.00015603138
24	0xb7cc7627	-2.4373714e-05
25	0x3a001aae	0.0004886788
26	0x3919ba6b	0.00014660663
27	0x39c335ad	0.0003723329
28	0x397f43e2	0.00024343983
29	0xb9e7b551	-0.00044194845
30	0x37fde1e7	3.0265144e-05
31	0x3903f24e	0.00012583399

bn3/avg_var f4 [64]
0	0x3e91936b	0.28432783
1	0x3f2f841a	0.68560946
2	0x3f026287	0.5093159
3	0x3f0ebf65	0.55760795
4	0x3ed15624	0.40886033
5	0x3e9301a5	0.28712192
6	0x3f4ce6e6	0.80039823
7	0x3ea081cb	0.31349024
8	0x3ec7429b	0.38918003
9	0x3eb04516	0.34427708
10	0x3ea76c19	0.3269966
11	0x3ea61f8e	0.3244595
12	0x3eea0c2b	0.45712408
13	0x3e83132c	0.25600564
14	0x3f20026d	0.625037
15	0x3eb1e5e6	0.3474571
16	0x3e8abf8a	0.27099258
17	0x3eb547e2	0.35406405
18	0x3ebf1a2a	0.3732465
19	0x3f0aae7d	0.541725
20	0x3ea95753	0.33074436
21	0x3eb859d4	0.36006033
22	0x3ea91ea6	0.33031195
23	0x3eed5ca2	0.46359736
24	0x3eb33624	0.35002244
25	0x3eccf314	0.40029204
26	0x3e8d138c	0.27553976
27	0x3f09352a	0.53596747
28	0x3ea41ddb	0.32054028
29	0x3e8b1e2c	0.27171457
30	0x3ecff17b	0.40613922
31	0x3ee2db6e	0.44308037
32	0x3eb0bcb8	0.3451898
33	0x3ec55043	0.38537797
34	0x3eae058b	0.33988604
35	0x3eb8c33b	0.3608645
36	0x3ed069ee	0.40705818
37	0x3efd1762	0.49431902
38	0x3f404bbe	0.75115573
39	0x3ea68d12	0.32529503
40	0x3ea865da	0.32890207
41	0x3e803b25	0.25045124
42	0x3e9dbdb0	0.30808783
43	0x3e8b8419	0.2724922
44	0x3eb8c0dc	0.3608464
45	0x3e981c12	0.29708916
46	0x3e61e29c	0.22059101
47	0x3f13bcb7	0.5770983
48	0x3eaad90c	0.3336872
49	0x3eb19440	0.34683418
50	0x3ecaa3f7	0.3957822
51	0x3ea874d6	0.3290164
52	0x3f17de0f	0.5932321
53	0x3e9aee3d	0.30259886
54	0x3ea8141f	0.3282785
55	0x3f3a7054	0.7282765
56	0x3ed6b305	0.41933456
57	0x3e63f1f4	0.22260267
58	0x3eabd0d7	0.3355777
59	0x3ea982b3	0.33107528
60	0x3f098101	0.5371247
61	0x3e888ee5	0.2667152
62	0x3f211436	0.62921464
63	0x3ef8f61c	0.48625267

conv1_3/W f4 [64, 64, 3, 3]
0	0xbc959cc4	-0.018263228
1	0xbdb200a7	-0.08691531
2	0xbbc625a9	-0.00604697
3	0x3dafde9e	0.08587383
4	0xbd2f875e	-0.042853706
5	0x3d1f16e4	0.03884019
6	0x3cbe41e1	0.023224773
7	0x3cd08af5	0.025456885
8	0x3c5ca6e3	0.013467523
9	0xbc2cbdcc	-0.010543298
10	0x3c9b7269	0.018975453
11	0xbdbed14f	-0.09317266
12	0xbd022e4e	-0.03178244
13	0x3d31b037	0.043380942
14	0xbbcbdef4	-0.0062216464
15	0x3b15f38e	0.0022880766
16	0xbd58e653	-0.05295403
17	0x3cc866b0	0.024463028
18	0xbd8114f4	-0.063028246
19	0xbd77157f	-0.060323235
20	0x3c424880	0.011858106
21	0xbbd30dca	-0.006440853
22	0x3c8de6e3	0.01732201
23	0x3ce46e52	0.027884636
24	0xbca2ab19	-0.019856976
25	0xbd6b295d	-0.057412494
26	0xbd91daa3	-0.0712178
27	0x3bc8902c	0.0061207023
28	0x3d46fb4a	0.04857949
29	0xbd06915d	-0.032853473
30	0xbc096e7e	-0.00838816
31	0x3dd9da5e	0.10637353
32	0xbce42fb2	-0.027854774
33	0x3d413fdb	0.047180038
34	0xbd0de731	-0.03464431
35	0x3c4ec7f7	0.0126209175
36	0xbb89468d	-0.0041893185
37	0xbd6dc4ee	-0.058049135
38	0x3d2e2c25	0.04252257
39	0x3d99b936	0.07506029
40	0x3c232c3e	0.009959279
41	0x3b3359cf	0.0027366763
42	0x3bb901b5	0.0056459554
43	0xbd492aa7	-0.049112942
44	0x3d09e7c1	0.033668283
45	0xbc9535f6	-0.018214207
46	0xbd24f614	-0.04027374
47	0xbd6a3a0b	-0.05718426
48	0x3c5b9d20	0.013404161
49	0xbd0d2d1d	-0.03446685
50	0x3c430489	0.011902937
51	0x3d793e74	0.060850576
52	0xbb92f6db	-0.004484994
53	0xbbc7178f	-0.0060758065
54	0x3ce1ac89	0.027548091
55	0x3c9f2565	0.01942701
56	0xbcdaddda	-0.026717115
57	0xbd14b6f6	-0.036307298
58	0xbda27302	-0.07932092
59	0x3c53acb7	0.012919596
60	0xbabfc4b7	-0.0014630769
61	0xbc4b146a	-0.012395004
62	0xbcf23f53	-0.029571211
63	0x3b8ff415	0.0043931105
64	0xbd395403	-0.045246135
65	0xbcd88a81	-0.026433231
66	0x3c390e66	0.011294937
67	0xbcd4c9a2	-0.025975052
68	0xbc042b56	-0.008066973
69	0x3cb86e3a	0.022513498
70	0x3bf0531c	0.007334126
71	0x3c9a77ec	0.018856011
72	0xbc7a0695	-0.015260358
73	0xbc83263a	-0.016009439
74	0x3d6f4950	0.058419526
75	0x3d733ff5	0.059387166
76	0x3ca19fc4	0.019729502
77	0xbbdef69f	-0.006804302
78	0x3c804904	0.015659817
79	0xba24bcc3	-0.0006284231
80	0xbc698f09	-0.014255294
81	0xbceaea0b	-0.028676054
82	0x3d629de8	0.055326372
83	0xbcfa35cc	-0.03054323
84	0xbd02a969	-0.031899843
85	0xbdab28cf	-0.08357393
86	0x3cae9eb7	0.021315916
87	0xbd790d5a	-0.06080375
88	0xbd6e14e2	-0.058125384
89	0x3d0dc9d3	0.034616303
90	0xbbee0c56	-0.007264654
91	0x3c6053bf	0.013691842
92	0x3cee5919	0.02909522
93	0x3c00998c	0.007849108
94	0xbd87443b	-0.06604811
95	0xbc86c7f4	-0.016452767
96	0x3d2dae1f	0.042402383
97	0xbda62ece	-0.08114396
98	0xbc4b6f09	-0.01241661
99	0xbd23f9c6	-0.040033124
100	0xbc57c2e9	-0.013169029
101	0xbc0180f0	-0.007904276
102	0xbca7e754	-0.020496048
103	0xbd62abaa	-0.055339493
104	0xbdac6f8e	-0.08419715
105	0xbb178d17	-0.0023124868
106	0xba47309d	-0.00075984915
107	0xbcbc1ba6	-0.022962403
108	0xbd446e3a	-0.047956683
109	0x3a50a7f6	0.00079595984
110	0xbd2eb3f0	-0.04265207
111	0xbd87a0a4	-0.06622437
112	0x3ce337a2	0.027736489
113	0xbbef63ee	-0.0073056137
114	0xbcfc54ec	-0.030802213
115	0x3c2b6f16	0.010463497
116	0xbd37c703	-0.044867527
117	0xbc8587c0	-0.016300082
118	0x3b9785a6	0.0046240864
119	0x3d26cc78	0.04072234
120	0xbd626587	-0.055272605
121	0xbcac497d	-0.021031136
122	0xbd871037	-0.065948896
123	0xbd4cd8be	-0.05001139
124	0xbd86e01a	-0.06585713
125	0x3cbbdcbb	0.0229324
126	0x3c2bbc9c	0.01048198
127	0x3c6f0345	0.014588182
128	0xbd070408	-0.03296283
129	0xbcf11dcd	-0.029433155
130	0x3bb28e91	0.005449124
131	0x3db0dad0	0.08635485
132	0x3c179441	0.009251655
133	0xbc1c7747	-0.009549922
134	0xbdc35fd3	-0.095397614
135	0x3c04fc04	0.008116726
136	0xbcbaf73b	-0.022822967
137	0x3d559172	0.05214066
138	0x3be2e17e	0.0069238534
139	0x3d40ef9b	0.047103506
140	0xbd090dc0	-0.03346038
141	0xbd0a4feb	-0.033767622
142	0xbc51789d	-0.012785104
143	0x3c42b9dc	0.011885133
144	0xbd56109c	-0.052261934
145	0xbc31d9d4	-0.010855157
146	0xbb932a0f	-0.0044910978
147	0x3d35202a	0.044220127
148	0xbc9b4b7c	-0.018956892
149	0x3d37c5bc	0.04486631
150	0x3c1fe8fd	0.009760139
151	0xbceed3de	-0.02915376
152	0x3b918b86	0.0044416813
153	0xbd677961	-0.05651224
154	0xbcb62ac4	-0.02223719
155	0x3d88ac08	0.06673437
156	0xbd986298	-0.0744068
157	0x3c6fd79f	0.01463881
158	0xbc17ea6a	-0.009272197
159	0xbda23a92	-0.07921328
160	0x3cc4dbf0	0.024030656
161	0x3cc1d1f9	0.023659693
162	0x3c2bae1c	0.010478523
163	0xbd7d0dac	-0.061780617
164	0xbca94cf3	-0.020666575
165	0x3b93b635	0.0045078048
166	0xbcf07fb7	-0.029357774
167	0xbd4fd86c	-0.050743505
168	0x3cbefcc3	0.023313886
169	0x3d0b666d	0.034033228
170	0xbc9f395b	-0.019436529
171	0xbc81b836	-0.015834909
172	0xbd95b612	-0.07310118
173	0x3d1d3881	0.038383964
174	0xbd5ee14f	-0.05441409
175	0xbd5326ca	-0.051550664
176	0x3dd9de49	0.10638101
177	0xbb73439c	-0.0037119156
178	0x3ccdec62	0.02513713
179	0x3d076b2e	0.0330612
180	0x3c9f5b5a	0.01945274
181	0xbd9806f9	-0.07423205
182	0xbca696e4	-0.020335622
183	0x3c5207b2	0.0128192175
184	0x3c8caa74	0.017171122
185	0x3a8fe6d6	0.0010978829
186	0xbd6aa83e	-0.057289355
187	0x3ca8e8df	0.020618854
188	0xbbc5e15f	-0.006038829
189	0xbc963e22	-0.018340174
190	0x38fb00b3	0.00011968743
191	0x3d22debf	0.03976321
192	0xbcc2d6dc	-0.023784094
193	0xbc66490d	-0.014055503
194	0xbd10c2a7	-0.035341885
195	0x3d76ed6a	0.06028501
196	0x3c36bb8e	0.011153115
197	0x3bee2146	0.00726715
198	0xbd3c0314	-0.045901373
199	0x3d4c32ec	0.04985325
200	0xbd438459	-0.04773364
201	0xbc1340f7	-0.008987657
202	0x3cc09d32	0.023512457
203	0x3d38da98	0.045130342
204	0xbc4df913	-0.012571591
205	0xbc9f9dff	-0.019484518
206	0xbd688a08	-0.05677226
207	0xbce46e65	-0.027884671
208	0xbaca07a0	-0.0015413649
209	0xbb408c18	-0.0029380377
210	0x3cfeb804	0.031093605
211	0x3d0946f0	0.033514917
212	0xbd19d522	-0.037556775
213	0xbdd3b0b4	-0.10336438
214	0x3ba4ee43	0.005033286
215	0xbd2b2de6	-0.04179182
216	0xbdbe0a15	-0.09279267
217	0x3d86afd5	0.06576506
218	0xbdbcf96d	-0.09227262
219	0xbc74829f	-0.014923721
220	0x3bac206f	0.00525289
221	0x3c3103d3	0.010804134
222	0x3bc2a4d9	0.0059400615
223	0xbd594e63	-0.05305327
224	0x3d9c2db6	0.07625906
225	0x3c570b2c	0.013125222
226	0x3bbe97fe	0.0058164587
227	0xbdb23ebd	-0.08703373
228	0x3d371bc6	0.04470422
229	0x3da567af	0.08076417
230	0xbd273b7c	-0.040828213
231	0x3b274997	0.002552604
232	0x3a586d08	0.0008255993
233	0xbcec26bd	-0.028827066
234	0xbc69bbfe	-0.014266012
235	0xbc272077	-0.010200611
236	0xbcd9c225	-0.026581833
237	0xbd721e54	-0.059110954
238	0xbd76994a	-0.06020478
239	0x3cc288fb	0.023746958
240	0x3d53fe60	0.051756263
241	0x3d0fec84	0.03513767
242	0x3ced9c74	0.029005267
243	0xbd7440eb	-0.059632223
244	0x3d110377	0.035403695
245	0x3cf5915b	0.029976537
246	0xbd3570ae	-0.044296913
247	0xbcd5533a	-0.026040662
248	0xbcf52aed	-0.029927695
249	0x3c810146	0.015747678
250	0x3c0d56a1	0.008626611
251	0xbca352e9	-0.019936996
252	0xbc90ce87	-0.017676605
253	0x3ba57d47	0.0050503346
254	0xbd91cb31	-0.07118834
255	0xbd51f410	-0.051258147

bn4/avg_mean f4 [32]
0	0x4013f0af	2.3115652
1	0x3fb142dc	1.3848529
2	0xbf31b717	-0.6942
3	0xbe37c49e	-0.17946097
4	0x3e80f8dd	0.25189868
5	0xbfe8de15	-1.8192774
6	0xc030db58	-2.7633877
7	0x3ea5e505	0.3240129
8	0xbe7a639c	-0.2445206
9	0xbef53856	-0.47894543
10	0xbfdfeac8	-1.7493525
11	0xc03373f6	-2.8039527
12	0xc00c1fe4	-2.1894464
13	0xbfd4d1f1	-1.6626569
14	0x3f641041	0.890873
15	0xbf455b13	-0.77092093
16	0xbac3c83c	-0.0014936994
17	0xbebb9cd8	-0.366431
18	0xbf894826	-1.0725143
19	0xbff1e660	-1.889843
20	0xc01802ce	-2.3751712
21	0x3fb9a3c1	1.4503099
22	0x402627ec	2.5961866
23	0xc0224855	-2.5356648
24	0xc01a17b9	-2.407698
25	0x3f823c3a	1.017463
26	0xc0448695	-3.0707142
27	0xbf8c6481	-1.0968171
28	0xbfb0ff76	-1.382796
29	0xc04520cf	-3.0801275
30	0xc0364cdc	-2.8484411
31	0x3df09af6	0.117483065

bn3/beta f4 [64]
0	0x3b38b124	0.0028181756
1	0xbca73b19	-0.020413922
2	0xbb399565	-0.0028317806
3	0xbcb7c21f	-0.022431431
4	0xbc1de6b4	-0.009637523
5	0x3b2c1fb0	0.0026264004
6	0x3d898a03	0.06715777
7	0x3ca66e75	0.020316342
8	0x3ce05095	0.027382175
9	0xbb27c50c	-0.0025599627
10	0xbcbf0c8d	-0.023321414
11	0x3cdf4c4c	0.02725806
12	0x3c43eb22	0.0119579155
13	0x3cb20df4	0.021735169
14	0x3c980ee2	0.018561784
15	0xbb8db6d7	-0.0043247747
16	0xbc51122f	-0.012760683
17	0xbd0d1fb1	-0.03445405
18	0x3cbb57ad	0.022868956
19	0xbced7fd5	-0.02899162
20	0x3c7121d6	0.01471754
21	0x3d151a4f	0.036402043
22	0xbc6a94dd	-0.014317718
23	0xbc8987aa	-0.016788322
24	0xbd26bcb7	-0.040707316
25	0x3bc180da	0.005905253
26	0x3c921239	0.017830955
27	0x3a59d41e	0.0008309501
28	0x3c05f299	0.008175516
29	0x3b67e052	0.0035381508
30	0xbd1286f9	-0.03577325
31	0xbc743ad1	-0.014906601
32	0xbb4eddac	-0.0031565232
33	0xbabb202d	-0.0014276557
34	0x3c79083d	0.015199718
35	0x3cb9ec1b	0.022695592
36	0x3c67bbe2	0.014143916
37	0xba644f3f	-0.00087093184
38	0xbd58b138	-0.052903384
39	0x3d143ff8	0.036193818
40	0x3c82f6c2	0.015986804
41	0x3caace93	0.020850455
42	0xbc147f1b	-0.009063507
43	0x3c896067	0.016769601
44	0x3c53656f	0.012902602
45	0x3cb52471	0.022112103
46	0xba998d5b	-0.0011715101
47	0x3d0c8ac7	0.034312036
48	0x3b5dc428	0.0033838842
49	0x3ca65ec2	0.020308856
50	0xba04177d	-0.00050389004
51	0xbc956271	-0.018235417
52	0x3d0d2f36	0.034468852
53	0xbcd42ec5	-0.025901208
54	0x3d300b35	0.042979438
55	0x3c2686cf	0.010163977
56	0x3d46c661	0.048529033
57	0xbcfd2248	-0.030900136
58	0x3bd99a7c	0.0066407304
59	0xbcd0e673	-0.025500512
60	0xbbb4bb1d	-0.0055154697
61	0xbc0f94a6	-0.008763468
62	0xbd014e49	-0.0315688
63	0xbb96d067	-0.00460248

conv1_7/b f4 [3]
0	0x3d072988	0.03299859
1	0x3beb5da5	0.007182794
2	0xbbdd0b51	-0.006745734

conv1_4/W f4 [32, 64, 3, 3]
0	0xbd1d836e	-0.03845542
1	0x3d423cb7	0.047421183
2	0x3bdafc07	0.006682876
3	0x3d8818e2	0.06645371
4	0x3de5cd34	0.1122078
5	0xbced45a9	-0.02896388
6	0xbc38fbc0	-0.011290491
7	0x3b016960	0.0019746646
8	0x3c657980	0.014006019
9	0x3d463f2e	0.048400097
10	0xbd69751f	-0.05699646
11	0xbce4050c	-0.027834438
12	0x3d19925c	0.037493095
13	0x3d72b4ce	0.05925446
14	0xbd636b81	-0.055522446
15	0xbdd59afd	-0.10429952
16	0x3cfc96ad	0.030833567
17	0x3d1da0cc	0.038483426
18	0x3be779ba	0.0070640715
19	0xbd4c3406	-0.0498543
20	0xbd30ab40	-0.043132067
21	0x3cf878b3	0.030330991
22	0xbdd37526	-0.10325079
23	0x3cbc82df	0.023011623
24	0xbc60148a	-0.013676772
25	0x3d9fdee6	0.078061864
26	0xbdb4ed5d	-0.08834336
27	0x3d04ea51	0.032450024
28	0xbc7e87c3	-0.015535298
29	0xbc45cb22	-0.012072356
30	0x3a098594	0.000524604
31	0xb82eed2c	-4.1705716e-05
32	0x3c8864ba	0.016649593
33	0xbcadacd8	-0.021200582
34	0x3c9f51a1	0.019448103
35	0x3b144bc1	0.002262816
36	0xbd3a72ee	-0.04551976
37	0x3b8f1704	0.0043667573
38	0xbbc02b40	-0.005864531
39	0xbc8aa122	-0.016922537
40	0xbcd4eb3d	-0.025991077
41	0x3cb0fcab	0.021604856
42	0x3ba5dc30	0.005061649
43	0x3c20814c	0.009796452
44	0x3d7e564b	0.062094014
45	0xbbc66911	-0.0060550054
46	0x3ce02a38	0.027363881
47	0x3c78b848	0.015180655
48	0x3ca1f87d	0.019771809
49	0xbc83a672	-0.016070578
50	0x3cadbece	0.021209147
51	0xbbc187d7	-0.005906086
52	0x3d17d586	0.037068866
53	0x3c8157e1	0.015788974
54	0x3d87edd0	0.06637156
55	0x3da7ebf7	0.081993036
56	0xbb4b588f	-0.0031028127
57	0xbd51f9f2	-0.051263757
58	0x3d20467e	0.039129727
59	0xbc88266b	-0.016619882
60	0x3b8c5717	0.004282843
61	0x3c9f2a8a	0.019429464
62	0xbd9ffdd8	-0.07812089
63	0xbcbb03bb	-0.022828927
64	0x3dcc57c2	0.09977676
65	0x3ccfcc15	0.025365869
66	0x3c0c958a	0.008580575
67	0x3caafac0	0.02087152
68	0x3bf948d4	0.0076075587
69	0x3c7299b7	0.014807156
70	0xbca28087	-0.019836677
71	0xbd6c4ed8	-0.05769238
72	0xbda85b5c	-0.082205504
73	0x3c10d2a2	0.008839281
74	0xbd079c94	-0.03310831
75	0x3d5616f3	0.05226798
76	0xbd3f6c68	-0.046734244
77	0x3d4282ea	0.04748813
78	0xba81ec59	-0.0009912356
79	0x3cbdb279	0.023156391
80	0xba9edb5d	-0.0012119819
81	0xbcd642d3	-0.026154911
82	0xbd28abad	-0.041179348
83	0xbc8c4d31	-0.017126651
84	0xbdcab37e	-0.09897517
85	0x3d6851e3	0.05671872
86	0x3d7f6fcd	0.06236248
87	0x3d2cd469	0.042194758
88	0x3d0d0017	0.034423914
89	0xbc737fb8	-0.0148619935
90	0x3d02e83d	0.03195976
91	0x3c8ec2a2	0.017426793
92	0x3cf3dd2e	0.029768553
93	0x3be54ec0	0.006997913
94	0x3c5534eb	0.013013105
95	0xbc363156	-0.011120161
96	0x3c950a69	0.01819344
97	0xbd1c02ea	-0.038088717
98	0x3ce78e5d	0.028266126
99	0xbba7ec90	-0.005124636
100	0xbd2247df	-0.039619323
101	0x3d3dec80	0.046368122
102	0xbda30239	-0.07959408
103	0x3b89a616	0.004200707
104	0x3d00a2f4	0.031405404
105	0xbd552dcd	-0.052045632
106	0x3d784ecb	0.060622018
107	0xbbfa5261	-0.007639215
108	0x3c913163	0.017723745
109	0x3c7a7ae2	0.015288087
110	0xbdf66ecc	-0.120328516
111	0xbcd9e984	-0.026600607
112	0xbd1c3362	-0.03813494
113	0xbb4bf0a9	-0.0031118786
114	0xbd56f517	-0.05247983
115	0xbccfe720	-0.025378764
116	0xbcf25eab	-0.029586157
117	0x3c633048	0.013866492
118	0xbd208b3f	-0.039195295
119	0xbcb58d52	-0.022162113
120	0x3b4e9707	0.0031523125
121	0x3d703f46	0.058654092
122	0xbcc54d11	-0.0240846
123	0xba775d02	-0.00094361615
124	0x3d240835	0.04004689
125	0x3d003fba	0.031310774
126	0xbc6d61ad	-0.01448862
127	0xbda55618	-0.08073062
128	0xbb9efb38	-0.004851725
129	0x3cbdfefb	0.023192873
130	0x3d803117	0.06259363
131	0xbd1e077e	-0.038581364
132	0x3d81ac59	0.06331701
133	0x3db3e08b	0.087830625
134	0x3d1fb475	0.038990457
135	0x3cb8fbc5	0.02258099
136	0x3c8b16f5	0.01697872
137	0x3d57abfd	0.052654255
138	0xbcd874c4	-0.026422866
139	0x3cd27eab	0.025695166
140	0x3d979529	0.07401497
141	0x3c8986ea	0.016787965
142	0xbd85a789	-0.065260954
143	0xbc8b897f	-0.017033337
144	0xbd5d17ce	-0.05397778
145	0x3c31aaa5	0.0108439075
146	0xbd2480d5	-0.040161926
147	0x3cc5ca96	0.024144452
148	0x3d8857c9	0.06657369
149	0xbc8541ae	-0.01626667
150	0xbd89e761	-0.06733585
151	0xbc80fd09	-0.015745657
152	0x3ca32b8d	0.019918228
153	0xbd922199	-0.071353145
154	0xbcbd76f1	-0.023128005
155	0x3ce9779f	0.028499423
156	0xbbff9c40	-0.007800609
157	0x3d95c5a4	0.073130876
158	0x3d5461cf	0.05185109
159	0x3d931d39	0.07183308
160	0x3cd11ba3	0.025525874
161	0xbda0b817	-0.07847612
162	0xbcce559c	-0.025187306
163	0x3c51f142	0.012813868
164	0xbcc261f0	-0.02372834
165	0x3c7545c3	0.014970246
166	0xbc91e5ee	-0.017809834
167	0xbd30b06b	-0.043136995
168	0xbd568235	-0.05237027
169	0xbc3c52f1	-0.011494384
170	0xbc9f3a44	-0.019436963
171	0x3d371a52	0.044702835
172	0x3da7d43d	0.08194778
173	0x3d5176e1	0.051138762
174	0xbca93ffd	-0.020660395
175	0xbc1436a1	-0.009046228
176	0x3cc22d44	0.023703225
177	0x3bf393f8	0.0074334107
178	0x3cd832a7	0.02639134
179	0x3d84b31e	0.064794764
180	0xbc6083ff	-0.013703345
181	0x3bb980bd	0.0056610988
182	0x3d641697	0.055685606
183	0x3d5a2f58	0.053267807
184	0xbcaeb7dd	-0.021327907
185	0x3ce2d5c1	0.027689816
186	0x3d868391	0.06568063
187	0x3cdaacb2	0.026693676
188	0xbd8ec3b2	-0.0697092
189	0xbd3804fd	-0.044926632
190	0x3d9bd2c1	0.076085575
191	0xbd53e714	-0.051734045
192	0xbcd5cec1	-0.026099565
193	0x3cd4f347	0.02599491
194	0x3c8e35c5	0.017359624
195	0xbc48e6b9	-0.01226204
196	0xbd522260	-0.051302314
197	0xbd15f951	-0.03661472
198	0xbbd92db7	-0.006627764
199	0x3d63c61e	0.05560886
200	0xba558f89	-0.00081466936
201	0xbcc1f15b	-0.023674658
202	0x3cfcdea0	0.030867875
203	0xbd0efbf4	-0.03490825
204	0x3cf5e51e	0.030016478
205	0x3d743e01	0.059629444
206	0x3cbdb402	0.023157123
207	0x3cf5eb61	0.030019464
208	0x3da7da21	0.08195902
209	0x3d07b80a	0.033134498
210	0xbba68c6c	-0.0050826576
211	0x3cab6f3d	0.020927066
212	0x3c873194	0.016503133
213	0x3c19637c	0.009362098
214	0x3d197a93	0.03747041
215	0x3caa5d86	0.020796549
216	0x3ba57289	0.005049054
217	0x3d14b9c3	0.03630997
218	0xbc39883f	-0.0113239875
219	0x3c83ed8d	0.016104484
220	0x3d007a37	0.031366553
221	0xbbeef6fe	-0.0072926274
222	0x3cba0d53	0.022711432
223	0x3d2e4b0e	0.042552046
224	0xbd84a39b	-0.06476518
225	0xbb35bed2	-0.0027732146
226	0xbd4a1579	-0.049336884
227	0xbcef74aa	-0.029230434
228	0x3b916a36	0.00443771
229	0x3da3a170	0.07989776
230	0x3d0e6e8b	0.03477339
231	0x3c5c71c1	0.013454855
232	0xbd519fe6	-0.05117788
233	0x3c9c00fa	0.019043434
234	0x3c5b0479	0.013367766
235	0xbd141d5a	-0.036160804
236	0x3d310ac4	0.043223158
237	0xbcd90782	-0.026492838
238	0x3d9e4b55	0.07729212
239	0x3cfe60a9	0.03105195
240	0xbd2bb5e5	-0.041921515
241	0xbd135591	-0.035970274
242	0xbd1021f5	-0.035188634
243	0x3dbf3ba5	0.09337548
244	0xbd3d5d12	-0.046231337
245	0x3d908000	0.07055664
246	0x3cd95dd6	0.026534002
247	0x3dc9ac75	0.09847347
248	0xbcab5c3d	-0.020918006
249	0x3c88d48d	0.016702915
250	0x3d83d886	0.06437783
251	0x3b34c456	0.0027582846
252	0x3d449f49	0.04800347
253	0x3d06ba5c	0.03289257
254	0x3b914ac4	0.0044339616
255	0xbc15ffa3	-0.009155187

bn1/gamma f4 [64]
0	0x3f78c69a	0.9717804
1	0x3f765157	0.96217865
2	0x3f774e73	0.9660408
3	0x3f77e3a1	0.9683171
4	0x3f79d35d	0.9758814
5	0x3f79f794	0.976434
6	0x3f80064b	1.000192
7	0x3f7a2221	0.97708327
8	0x3f8034f5	1.0016161
9	0x3f80414b	1.0019926
10	0x3f7e166c	0.99252963
11	0x3f850a3e	1.0393751
12	0x3f7b9790	0.9827814
13	0x3f78020d	0.9687813
14	0x3f80e6f2	1.0070479
15	0x3f73b480	0.95197296
16	0x3f7fcd9e	0.9992312
17	0x3f734c7d	0.95038587
18	0x3f722834	0.94592595
19	0x3f7cf192	0.9880611
20	0x3f80a147	1.0049218
21	0x3f814eeb	1.0102209
22	0x3f7e4216	0.9931959
23	0x3f7ccfaf	0.987544
24	0x3f8432aa	1.0327961
25	0x3f6de178	0.92922163
26	0x3f7c15fc	0.98471045
27	0x3f750504	0.9571078
28	0x3f7f371d	0.9969347
29	0x3f795c28	0.97406244
30	0x3f73bfc6	0.952145
31	0x3f7ce171	0.98781496
32	0x3f747525	0.9549125
33	0x3f7bd5e3	0.9837324
34	0x3f8545d6	1.0411937
35	0x3f78881e	0.970827
36	0x3f796896	0.9742521
37	0x3f76383c	0.96179557
38	0x3f81a805	1.01294
39	0x3f803b2d	1.0018059
40	0x3f74e3b2	0.95659935
41	0x3f80ff7d	1.0077969
42	0x3f79b488	0.97541094
43	0x3f80138e	1.0005968
44	0x3f7f52a0	0.9973545
45	0x3f7774fb	0.96662873
46	0x3f7c18c5	0.98475295
47	0x3f75525f	0.95828813
48	0x3f767acd	0.9628113
49	0x3f80e625	1.0070235
50	0x3f6f8101	0.9355622
51	0x3f797710	0.974473
52	0x3f768f9d	0.96312886
53	0x3f7407b4	0.95324254
54	0x3f750250	0.95706654
55	0x3f7e96c3	0.99448794
56	0x3f7a0f98	0.97680044
57	0x3f8081d1	1.0039617
58	0x3f76d631	0.9642058
59	0x3f80e631	1.0070249
60	0x3f75bbb2	0.95989525
61	0x3f7afc47	0.98041195
62	0x3f79aeff	0.9753265
63	0x3f787157	0.9704794

conv1_4/b f4 [32]
0	0x39bfbde1	0.0003657183
1	0xb814fb3e	-3.5519937e-05
2	0x378a984a	1.6521797e-05
3	0x38f50fe6	0.00011685472
4	0xb9a24dbc	-0.00030956964
5	0xba55c5fa	-0.0008154806
6	0x3a1e878d	0.00060474203
7	0x377d8c1a	1.5112595e-05
8	0xb86adf34	-5.599782e-05
9	0xb8e9f151	-0.000111552545
10	0x381ac382	3.6898542e-05
11	0xb8f5df7f	-0.0001172414
12	0xba1357e0	-0.00056206994
13	0xb94b4353	-0.00019384669
14	0x37c83d6e	2.3870463e-05
15	0x39723b5c	0.00023101032
16	0xbadab6d6	-0.001668657
17	0x383acf00	4.453864e-05
18	0xb998ba62	-0.00029130565
19	0xb8f9344e	-0.00011882988
20	0xb81bbd0b	-3.713094e-05
21	0xb8b59c18	-8.659827e-05
22	0xb9840f72	-0.0002518851
23	0x3938c577	0.00017621169
24	0x3705e5bd	7.980908e-06
25	0x3a8c3794	0.0010697716
26	0x39e45d32	0.00043556985
27	0xb86a27ab	-5.582689e-05
28	0x38fea79d	0.00012142884
29	0x3845d2e2	4.716486e-05
30	0x393d1164	0.00018030923
31	0xb99534d8	-0.00028458866

conv1_5/W f4 [32, 32, 3, 3]
0	0xbd68054d	-0.05664568
1	0xbd2c1699	-0.04201374
2	0x3c6b7e09	0.014373311
3	0xbd6e9f23	-0.058257233
4	0x3d92d0c2	0.07168724
5	0x3b93c7cb	0.004509901
6	0xbbf8b84f	-0.0075903307
7	0x3db76892	0.08955492
8	0x3d4f2a97	0.050577726
9	0x3cb2c6b7	0.02182327
10	0x3d57d595	0.052693922
11	0xbcaf7d80	-0.021422148
12	0xbd83cef7	-0.0643596
13	0x3ca34404	0.019929893
14	0xbcd4f6da	-0.025996614
15	0xbe096f50	-0.13421369
16	0x3d39a98f	0.04532772
17	0x3ced8c30	0.02899751
18	0xbca0bbe9	-0.019620853
19	0x3cf3c05e	0.029754814
20	0x3cc79438	0.024362668
21	0xbb93fda9	-0.0045163226
22	0xbe27a256	-0.1637052
23	0x3d7d1046	0.061783098
24	0xbd9458e7	-0.07243519
25	0xbe38a1b7	-0.1803044
26	0x3d505691	0.050863806
27	0x3d43ddad	0.04781883
28	0x3c02219e	0.007942585
29	0x3d71c332	0.059024043
30	0xbb713fd5	-0.0036811728
31	0x3d8d8afa	0.06911273
32	0xbd705ddb	-0.058683258
33	0x3d7204a7	0.059086468
34	0x3d0b9dec	0.034086153
35	0x3d79a9ee	0.060953073
36	0x3a3c8c21	0.00071925117
37	0xbcb34a49	-0.021886008
38	0xbb228ebc	-0.0024804315
39	0xbc9b408f	-0.018951682
40	0xbd395e35	-0.04525586
41	0x3d12ae42	0.035810716
42	0xbcb3455d	-0.02188366
43	0xbcb5b335	-0.02218018
44	0x3d466b2c	0.04844205
45	0x3cc7d4ad	0.024393404
46	0xbc564f36	-0.013080409
47	0x3d0d8e11	0.034559313
48	0xbd4b1eea	-0.04959003
49	0xbce4af8b	-0.027915737
50	0x3d0e1eb1	0.03469724
51	0xbc9b163e	-0.018931504
52	0x3dbfcc29	0.09365112
53	0x3d2f43eb	0.04278938
54	0x3cf44ab8	0.029820785
55	0xbdd5a3ab	-0.10431608
56	0xbd265207	-0.04060557
57	0x3d633910	0.05547434
58	0xbcccd959	-0.025005983
59	0x3cd0c63a	0.025485147
60	0xbd665763	-0.056235682
61	0x3d46e003	0.048553478
62	0x3dae591a	0.085130885
63	0xbc74f61f	-0.014951258
64	0x3d6bb4ce	0.057545476
65	0x3cbe502f	0.023231594
66	0xbdb70908	-0.089372694
67	0xbceca4ba	-0.028887141
68	0xbd02d885	-0.03194477
69	0x3d449606	0.047994636
70	0xbdd334ad	-0.103127815
71	0x3d2519fa	0.040307976
72	0xbc3b9222	-0.011448415
73	0xbc5beb2b	-0.013422768
74	0xbccb4229	-0.024811821
75	0x3d5af64f	0.053457554
76	0xbd2bb4cd	-0.041920472
77	0xba13cc3b	-0.00056380377
78	0x3d46f335	0.048571784
79	0xbcb03f12	-0.02151445
80	0x3b24e3c7	0.002516018
81	0x3cbe2646	0.02321161
82	0xbd8efc57	-0.06981724
83	0x3cbed452	0.023294602
84	0xbbfc4c69	-0.0076995385
85	0x3c49c323	0.012314591
86	0x3ce759d6	0.02824108
87	0xbdb703ea	-0.089362934
88	0x3db45903	0.0880604
89	0x3ce0dc2c	0.027448736
90	0x3d03739b	0.03209267
91	0x3d9863c2	0.07440902
92	0x3d30b9fe	0.043146126
93	0x3dcbe934	0.09956589
94	0xbc96a680	-0.01838994
95	0xbc8398bf	-0.016064046
96	0xbccd4362	-0.025056545
97	0xbd47e8c1	-0.048805956
98	0x3d3b713e	0.045762293
99	0x3b3505cd	0.0027621866
100	0xbd1f7ec2	-0.038939245
101	0x3c96c8d2	0.018406305
102	0x3d9ebf54	0.07751337
103	0x3d7d379a	0.061820604
104	0x3c6b2016	0.014350912
105	0xbd966c1c	-0.07344839
106	0x3b7685a4	0.0037616277
107	0xbd12a92d	-0.03580587
108	0xbdd269a1	-0.10274053
109	0xbca7ef8e	-0.02049997
110	0x3d4904ad	0.049076725
111	0xbdaa428c	-0.08313474
112	0xbb5784cb	-0.0032885547
113	0x3db8e93a	0.090288594
114	0x3ca722e4	0.02040238
115	0xbcfb2de5	-0.030661533
116	0xbd1110ab	-0.035416286
117	0x3d76d02d	0.060257126
118	0x3cc14b9b	0.023595622
119	0xbc8ba729	-0.017047482
120	0x3dd5bdf1	0.10436619
121	0x3d7ab0c0	0.06120372
122	0xbd140194	-0.036134318
123	0x3ce0d5cd	0.027445698
124	0x3ce29f0a	0.027663726
125	0xba9dd29e	-0.0012040918
126	0xbdbfb8e1	-0.09361435
127	0x3dd2ef25	0.102995194
128	0x3d854b84	0.06508544
129	0xbcdd1939	-0.026989566
130	0x3dedaa2e	0.11604725
131	0xbd944768	-0.07240182
132	0xbcd98584	-0.026552923
133	0x3cd7162b	0.026255688
134	0x3c0f183c	0.008733805
135	0xbd728008	-0.05920413
136	0x3d3b3c79	0.045711968
137	0xbd4abace	-0.049494557
138	0xbd49c95b	-0.049264293
139	0xbd5fc220	-0.05462849
140	0x3cbd6877	0.023121102
141	0x3c0346e6	0.008012509
142	0x3c029480	0.0079699755
143	0xbcbf5bae	-0.023359146
144	0x3c8dbc46	0.01730169
145	0x3b3fc17f	0.002925962
146	0xbda611d1	-0.08108867
147	0xbd78311d	-0.060593713
148	0x3cc9b260	0.024621189
149	0x3c582750	0.013192967
150	0x3d2b096f	0.041757043
151	0x3bb33ce8	0.005469907
152	0xbd16e81c	-0.03684245
153	0xbc827d62	-0.015928928
154	0xbd9921e6	-0.07477169
155	0x3be1c1e9	0.006889571
156	0x3cae854f	0.0213038
157	0xbd9c61f8	-0.076358736
158	0xbe025f00	-0.12731552
159	0x3bdb5442	0.006693394
160	0x3d8bafae	0.068206176
161	0xbd1eb8fb	-0.03875063
162	0xbdc0c249	-0.09412057
163	0xbd161106	-0.03663733
164	0xbd9348c0	-0.0719161
165	0x3e0d8cb1	0.13823201
166	0x3e181e00	0.14855194
167	0xbcaa9741	-0.020824077
168	0x3d1f28b4	0.038857177
169	0x3d7e3186	0.062058948
170	0x3dfa1d31	0.12212599
171	0x3c17c628	0.009263553
172	0x3d107665	0.03526916
173	0x3b9f31f7	0.004858251
174	0x3c650def	0.013980373
175	0xbd896287	-0.06708246
176	0xbd2bbd29	-0.041928444
177	0xbd36a440	-0.044590235
178	0xbd5d5e8a	-0.054045238
179	0x3c84e61c	0.016223006
180	0x3bdcfd43	0.0067440583
181	0x3d4d0d52	0.05006153
182	0xbd762a29	-0.0600988
183	0x3cc2ad5e	0.023764309
184	0x3c3d3973	0.0115493415
185	0xbca908c8	-0.02063407
186	0x3da6a61a	0.0813715
187	0x3d29be58	0.04144129
188	0xbd3a77d5	-0.045524437
189	0x3d15b7e5	0.03655233
190	0xbe1fe388	-0.1561414
191	0x3aac020a	0.0013123166
192	0xbd444a8d	-0.04792266
193	0x3c3fd682	0.0117088575
194	0x3d1f5280	0.038897038
195	0x3d6ab117	0.057297792
196	0xbc16992a	-0.009191791
197	0x3ce3211f	0.027725754
198	0x3d47f866	0.048820876
199	0xbd37d562	-0.044881232
200	0xbdbe4498	-0.09290427
201	0x3d21e7e5	0.039527792
202	0x3d9c6b3e	0.07637642
203	0x3dba46a6	0.09095506
204	0xbcb3477e	-0.021884676
205	0x3bc9a946	0.006154212
206	0xbc1e50d8	-0.009662829
207	0x3ce0259a	0.02736168
208	0x3ca7c74e	0.020480778
209	0xbd6cf48b	-0.0578504
210	0xbc94a4c8	-0.01814498
211	0x3c3d9cd3	0.011573034
212	0x3d5ccd17	0.053906526
213	0x3d399f74	0.045318082
214	0xbd126ea9	-0.035750065
215	0x3db74c92	0.089501515
216	0xbc2aeb96	-0.010432145
217	0x3cc877fa	0.024471272
218	0xbdc46198	-0.09588927
219	0xbdab2258	-0.0835616
220	0xbd1bbb47	-0.0380204
221	0x3d896eb2	0.067105666
222	0xbc234f19	-0.009967589
223	0xbcec4551	-0.028841646
224	0xbaa1fa63	-0.0012357946
225	0xbc90e179	-0.017685639
226	0xbd5e0078	-0.054199666
227	0xbcf7bc0a	-0.030241031
228	0x3cd79ef9	0.026320921
229	0xbc8c4b6c	-0.017125808
230	0x3d481e11	0.0488568
231	0xbd757698	-0.059927553
232	0xbd599997	-0.05312499
233	0x3d39250a	0.04520134
234	0x3d7263c7	0.059177186
235	0x3e2b114c	0.16705817
236	0x3c23d6a0	0.009999901
237	0x3c7fdaaa	0.015616098
238	0xbd1c2550	-0.03812152
239	0xbd0b940e	-0.034076743
240	0x3d46baa5	0.04851784
241	0x3d31b9a3	0.043389928
242	0x3d00b35e	0.031421058
243	0xbd4d582a	-0.050132908
244	0x3d9e802c	0.077392906
245	0xbbaa7e77	-0.005203064
246	0x3be2c082	0.0069199214
247	0x3a16051f	0.0005722809
248	0xbdc3ff4f	-0.095701806
249	0xbdaccf4d	-0.08437977
250	0x3c054e25	0.008136307
251	0x3dc8a111	0.09796346
252	0xbc3e46a2	-0.01161352
253	0x3c9ec9dc	0.019383363
254	0x3cb5fe71	0.022216054
255	0xbd24e648	-0.040258676

bn5/beta f4 [32]
0	0x3dddaa78	0.1082353
1	0x3dbe3318	0.09287089
2	0x3b97197c	0.0046111923
3	0x3e1a14e1	0.15047027
4	0x3d9d9012	0.07693495
5	0x3d9194b3	0.0710844
6	0x3e110eec	0.14165848
7	0x3d5c7a18	0.053827375
8	0x3e14c26c	0.14527291
9	0x3dd4be69	0.1038788
10	0x3e02034b	0.12696569
11	0x3e05fc39	0.13084497
12	0x3d6fe58a	0.058568515
13	0x3d9bc99b	0.076068126
14	0x3cd71640	0.026255727
15	0x3c9325ce	0.017962363
16	0x3d0277b7	0.03185245
17	0x3dd5473a	0.10413976
18	0x3d5fac0e	0.054607444
19	0x3ba9ba29	0.0051796627
20	0x3dbbec6d	0.09175954
21	0x3d19af79	0.03752086
22	0x3ba89857	0.0051451134
23	0x3c81e019	0.015853928
24	0x3e2ceed4	0.1688798
25	0x3d94a17e	0.07257365
26	0x3d289122	0.041154034
27	0x3dc776d9	0.09739465
28	0x3e140211	0.14453913
29	0x3e13d7c4	0.14437777
30	0x3da732b1	0.081639655
31	0x3d9b5b06	0.07585721

bn2/gamma f4 [64]
0	0x3f7c920f	0.9866037
1	0x3f75ee1f	0.9606647
2	0x3f77ded7	0.968244
3	0x3f7dd538	0.9915347
4	0x3f7c0116	0.98439157
5	0x3f8440f0	1.0332317
6	0x3f83c388	1.0294046
7	0x3f8066ec	1.0031409
8	0x3f80a944	1.0051656
9	0x3f7f1dac	0.9965465
10	0x3f7ca5bb	0.98690385
11	0x3f7a54b0	0.9778547
12	0x3f807ef3	1.0038742
13	0x3f7e5cc9	0.9936033
14	0x3f798f05	0.97483855
15	0x3f829556	1.0201824
16	0x3f7cbb71	0.9872351
17	0x3f7d9640	0.9905739
18	0x3f7a6b63	0.9782011
19	0x3f7e912f	0.9944028
20	0x3f7d4eb9	0.98948246
21	0x3f8387aa	1.0275776
22	0x3f77c062	0.9677793
23	0x3f7cbbf6	0.98724306
24	0x3f80e1f4	1.0068955
25	0x3f7f0dad	0.9963024
26	0x3f824a7e	1.0178983
27	0x3f76de9f	0.9643344
28	0x3f735568	0.95052195
29	0x3f80ec2e	1.0072076
30	0x3f83509b	1.0258974
31	0x3f7c9682	0.98667157
32	0x3f7ce45d	0.98785955
33	0x3f7beef5	0.98411494
34	0x3f7cbe43	0.98727816
35	0x3f8066f5	1.003142
36	0x3f7e8a42	0.99429715
37	0x3f7b2052	0.9809619
38	0x3f7d2af7	0.98893684
39	0x3f7c3a47	0.98526424
40	0x3f85430b	1.0411085
41	0x3f7b877a	0.98253596
42	0x3f7adaee	0.9799031
43	0x3f801a2b	1.0007986
44	0x3f83aa31	1.0286313
45	0x3f832407	1.024537
46	0x3f7b0ea1	0.98069197
47	0x3f82cf35	1.0219485
48	0x3f7e7043	0.9939005
49	0x3f7b3b4d	0.9813736
50	0x3f829c27	1.0203904
51	0x3f733f07	0.9501805
52	0x3f896ff6	1.0737293
53	0x3f7f1c64	0.99652696
54	0x3f822e8f	1.0170459
55	0x3f79d396	0.9758848
56	0x3f7edc0c	0.99554515
57	0x3f7bf4d7	0.9842047
58	0x3f7af358	0.98027563
59	0x3f759308	0.95927477
60	0x3f78a94b	0.9713332
61	0x3f7fa4fd	0.9986113
62	0x3f88de5b	1.0692858
63	0x3f7c8759	0.98644024

conv1_2/b f4 [64]
0	0xb7f23d1c	-2.8877104e-05
1	0xb78889c3	-1.6276614e-05
2	0x38a135c2	7.6870914e-05
3	0x39ae2bf8	0.00033220625
4	0xb888e1f8	-6.527075e-05
5	0xb8a36e42	-7.792983e-05
6	0xb9187418	-0.00014539098
7	0x39a24502	0.00030950463
8	0xb80f21ca	-3.4125325e-05
9	0x38e03d3f	0.0001069256
10	0x39117149	0.0001387048
11	0xb73185a8	-1.0581141e-05
12	0x37227a1f	9.684386e-06
13	0x386e1507	5.6763205e-05
14	0xb987a6c3	-0.00025873454
15	0xb89579cf	-7.127562e-05
16	0xb99840e1	-0.00029040038
17	0x38db6f83	0.000104635044
18	0xb8ab7a9f	-8.1767554e-05
19	0xb95059a9	-0.00019869827
20	0xb8a33718	-7.782708e-05
21	0xb9457ca2	-0.00018833813
22	0x378d67f8	1.6856924e-05
23	0x3866bcbe	5.5012053e-05
24	0xb9bccbf2	-0.00036010105
25	0xb8631e39	-5.4149164e-05
26	0x386fda56	5.718538e-05
27	0x392f2c3e	0.00016705782
28	0x390dd2ad	0.0001352529
29	0x38d3a079	0.000100911544
30	0x38d78868	0.000102774065
31	0xba0a6686	-0.00052795594
32	0xb86511e4	-5.4614517e-05
33	0xb7b539c4	-2.160378e-05
34	0x389406e9	7.058477e-05
35	0x382f09f5	4.1732525e-05
36	0x38609762	5.3546748e-05
37	0x397342b1	0.0002319913
38	0xb8e3b730	-0.00010858325
39	0xb9133052	-0.00014037013
40	0xb7c31b46	-2.3258512e-05
41	0xb8f8aa59	-0.00011857291
42	0x3800b62c	3.068724e-05
43	0xb8586632	-5.159359e-05
44	0xb9246b21	-0.00015680167
45	0xb7e03c7c	-2.6731046e-05
46	0x36f4f70e	7.3005276e-06
47	0xb995af97	-0.0002855032
48	0xb83ad983	-4.454843e-05
49	0x37891631	1.6342006e-05
50	0x390e9758	0.00013598555
51	0x37600b0e	1.3354014e-05
52	0x39498831	0.00019219589
53	0x384de95b	4.9093138e-05
54	0xb9bd784f	-0.00036138526
55	0xb8f988e7	-0.00011898745
56	0xb88ec5b2	-6.807911e-05
57	0x37642b7c	1.35999835e-05
58	0xb95fc7a1	-0.00021341305
59	0xb9292f90	-0.00016134814
60	0x384f9975	4.9495564e-05
61	0x390c9293	0.00013406044
62	0xb9614ac9	-0.00021485532
63	0x38c598aa	9.422128e-05

bn2/avg_var f4 [64]
0	0x3ea7d5e2	0.32780367
1	0x3f1b5abf	0.6068534
2	0x3ef2b849	0.47406223
3	0x3ef7957b	0.48356232
4	0x3eb7c906	0.35895556
5	0x3ee9bde2	0.45652682
6	0x3f01aac9	0.5065122
7	0x3ec1422d	0.377458
8	0x3ee8db06	0.45479602
9	0x3ef9a037	0.48755047
10	0x3ee5049d	0.44730082
11	0x3f168a01	0.5880433
12	0x3ecee40e	0.40408367
13	0x3e910872	0.28326756
14	0x3f0755b1	0.5286513
15	0x3ec41513	0.38297328
16	0x3ebcc1f2	0.3686672
17	0x3eccfa87	0.40034887
18	0x3f2f2d14	0.6842816
19	0x3ebe6ab5	0.37190786
20	0x3f30f47f	0.6912307
21	0x3f0e764f	0.55649275
22	0x3eda9400	0.4269104
23	0x3eccca86	0.39998263
24	0x3ee35abd	0.44405165
25	0x3ecb3f12	0.39696556
26	0x3ec2654e	0.37967914
27	0x3e8935bd	0.26798812
28	0x3f03ff06	0.5156101
29	0x3ec2942b	0.38003668
30	0x3ef74526	0.48294944
31	0x3ec2f714	0.3807913
32	0x3eb9f095	0.36316362
33	0x3ef4780b	0.47747836
34	0x3f06daba	0.526775
35	0x3f199357	0.5999045
36	0x3ebe591f	0.3717737
37	0x3f12c88e	0.5733727
38	0x3ee2696a	0.4422105
39	0x3ed909f8	0.42390418
40	0x3f42763f	0.7596168
41	0x3edc1c4f	0.42990348
42	0x3ed56642	0.4167958
43	0x3f033043	0.51245517
44	0x3ef9cfad	0.48791257
45	0x3efdcb98	0.49569392
46	0x3ef9207a	0.4865759
47	0x3f082097	0.5317473
48	0x3ef687aa	0.48150378
49	0x3ebc7219	0.368058
50	0x3ebeee20	0.3729105
51	0x3f025ae0	0.50919914
52	0x3f0a5c5f	0.540472
53	0x3ef05597	0.469403
54	0x3efcb2f4	0.4935528
55	0x3edf3ad6	0.43599576
56	0x3ed27f66	0.41112822
57	0x3ecc5e21	0.39915565
58	0x3ea31c0c	0.31857336
59	0x3eb0cf8c	0.34533346
60	0x3eebe158	0.4607036
61	0x3f027b65	0.50969535
62	0x3f0ef776	0.55846345
63	0x3eeeb4e8	0.46622396

bn6/beta f4 [32]
0	0x3df30dac	0.11867842
1	0x3e1234e4	0.14277989
2	0x3c3fda30	0.011709735
3	0x3e012a3f	0.12613772
4	0x3d632f68	0.055465132
5	0x3d543436	0.051807605
6	0x3e073f3f	0.1320772
7	0x3d2819e6	0.041040324
8	0x3df21fe9	0.11822493
9	0x3dd08e6f	0.10183417
10	0x3e2ff658	0.17183816
11	0x3e228c16	0.15873751
12	0x3d86a159	0.065737434
13	0x3dbc07d9	0.09181184
14	0x3d519ac1	0.051172975
15	0x3d490ede	0.049086444
16	0x3ca05ac9	0.01957454
17	0x3dda2789	0.10652072
18	0x3dc5fbed	0.09667192
19	0x3c42965b	0.011876668
20	0x3de26de8	0.11056119
21	0x3cafb832	0.021450136
22	0x3df6632b	0.120306335
23	0x3d30616e	0.043061666
24	0x3e9f1fbd	0.31078902
25	0x3d835d22	0.06414248
26	0x3d988bc2	0.07448532
27	0x3e06359a	0.13106385
28	0x3e053771	0.1300943
29	0x3dec1b97	0.115287
30	0x3e04f797	0.12985073
31	0x3db9fc99	0.09081382

conv1_7/W f4 [3, 32, 3, 3]
0	0x3cebeef3	0.028800463
1	0x3d3d6f32	0.046248622
2	0x3dac111a	0.08401699
3	0x3cef9e48	0.02925028
4	0x3cfe742e	0.031061258
5	0xbd0de857	-0.034645405
6	0x3d404eb2	0.04695005
7	0x3d9c4b8a	0.076315954
8	0x3d326aec	0.043559
9	0xbaf2330c	-0.0018478348
10	0x3d2ed4a2	0.04268325
11	0x3df1fefc	0.118162125
12	0x3d66c53d	0.056340445
13	0x3c852bb1	0.016256185
14	0x3ddb4ab3	0.10707607
15	0x3d8b513b	0.06802603
16	0xbd98e6e7	-0.07465916
17	0x3c873c8b	0.016508361
18	0x3e190478	0.14943111
19	0xbc4fb053	-0.012676316
20	0x3cd7d30d	0.026345754
21	0x3d14ca17	0.03632554
22	0x3c786a60	0.0151620805
23	0x3d801623	0.06254222
24	0xbd73d4a7	-0.059528973
25	0xbd649157	-0.05580267
26	0xbd8b93ad	-0.06815276
27	0xbca4e4da	-0.020128656
28	0x3d7ad149	0.061234746
29	0x3dbf789d	0.09349177
30	0x3cc23f08	0.023711696
31	0xbc11d468	-0.008900739
32	0xbc4eab59	-0.012614095
33	0xbc7edc71	-0.015555487
34	0x3e45dd29	0.19322647
35	0xbc7fd5f6	-0.015614977
36	0x3dfc4cd3	0.123193406
37	0x3da44ea7	0.08022814
38	0x3db4c5a5	0.0882676
39	0x3d84b7be	0.064803585
40	0x3e1bf774	0.15231115
41	0x3e377093	0.17914037
42	0x3d8d0f9b	0.06887742
43	0xbcccffa1	-0.025024237
44	0x3cd1df27	0.025619103
45	0xbcbf7241	-0.02336991
46	0xbdb6bf6d	-0.0892323
47	0x3e0e8b84	0.13920408
48	0x3dc8ef3a	0.09811254
49	0xbdc85e5e	-0.09783624
50	0x3d86282b	0.0655063
51	0x3c9fd471	0.01951048
52	0x3b83bce7	0.0040203216
53	0xbd0bdf09	-0.03414825
54	0x3dc2977a	0.09501548
55	0xbd08efa8	-0.03343168
56	0x3c9c6223	0.019089764
57	0xbc1ad472	-0.009450065
58	0x3e351694	0.17684394
59	0xbd80a529	-0.06281502
60	0x3c80f538	0.01574193
61	0x3e346e9d	0.1762032
62	0xbd33bae9	-0.043879423
63	0xbc7d9a94	-0.015478749
64	0x3db8b890	0.090195775
65	0xbcdf9c9f	-0.027296362
66	0xbd0f884d	-0.035042096
67	0xbdfac5bd	-0.12244747
68	0x3dc6eb49	0.09712846
69	0xbd60cf7c	-0.054885373
70	0x3ddcff28	0.10790855
71	0x3dab82d6	0.08374564
72	0x3cc4dff8	0.024032578
73	0x3de9c7e9	0.11415083
74	0x3e019edd	0.12658258
75	0x3d512aa8	0.05106607
76	0x3d7e64df	0.062107917
77	0xbd903e14	-0.070430905
78	0xbdde46ea	-0.108533695
79	0x3e5cd231	0.21564557
80	0x3d0d299d	0.034463514
81	0x3dfdcd19	0.12392635
82	0x3dca8456	0.09888522
83	0xbb916880	-0.004437506
84	0x3de787c8	0.11305195
85	0x3e2c5811	0.1683047
86	0xbc9bcf70	-0.019019812
87	0x3daf3578	0.0855512
88	0x3ced5437	0.02897082
89	0xbc6b92c8	-0.014378257
90	0xbd613bd5	-0.0549887
91	0x3dafa70d	0.08576784
92	0x3d810dd3	0.06301465
93	0x3d8aade4	0.06771448
94	0x3dfc2388	0.123114645
95	0xbd992e65	-0.07479552
96	0x3e43ee35	0.19133838
97	0x3d6d45b0	0.057927787
98	0xbd12e60f	-0.035863932
99	0xbccaf652	-0.024775658
100	0xbd3170f4	-0.04332061
101	0xbcc84ca0	-0.0244506
102	0x3d1c5f00	0.038176537
103	0x3e200943	0.15628533
104	0x3d407db4	0.04699488
105	0x3cec1974	0.02882073
106	0x3d6e519d	0.0581833
107	0x3d4f74ab	0.050648373
108	0xbdc78f59	-0.09744138
109	0x3cca226a	0.024674613
110	0x3e4d418f	0.2004454
111	0x3db2f958	0.08738965
112	0x3e309132	0.17242888
113	0x3de93bed	0.11388383
114	0x3de40b9a	0.11135025
115	0x3de3c40d	0.11121378
116	0xbc03b034	-0.008037616
117	0x3d1bacef	0.03800672
118	0x3e11e835	0.14248736
119	0x3e0b5203	0.13605504
120	0x3cd95a2f	0.02653226
121	0x3dbaa15c	0.09112808
122	0x3dab4b5e	0.083639845
123	0x3e370fd6	0.17877135
124	0xbdbb4f42	-0.091459766
125	0xbd90fd34	-0.07079545
126	0x3d325e9b	0.043547254
127	0x3c713812	0.014722841
128	0x3cd3d60d	0.025858903
129	0xbd46e5e4	-0.048559085
130	0x3c3b2c76	0.0114241745
131	0xbd8d784c	-0.069077104
132	0xbcc308ea	-0.023807961
133	0x3dc55035	0.09634439
134	0x3c0fbd00	0.008773088
135	0x3dcd746e	0.10031973
136	0x3ce65941	0.028118731
137	0x3d4dd5c3	0.050252687
138	0xbcc10eec	-0.023566686
139	0xbd82ce77	-0.06387036
140	0xbcf15a7c	-0.029462092
141	0x3db6762a	0.08909257
142	0x3caf646a	0.021410186
143	0x3c9a921f	0.018868504
144	0xbcdabb6e	-0.026700702
145	0xbda7bbf3	-0.08190145
146	0xbe091c4c	-0.133897
147	0xbd9cc19f	-0.07654118
148	0x3d0c4b12	0.03425128
149	0xbcecd469	-0.028909879
150	0x3d29715e	0.04136788
151	0x3e56eeac	0.20989484
152	0x3bd64e18	0.006540071
153	0x3dfff405	0.12497715
154	0x3dd658fd	0.10466192
155	0x3c834e32	0.016028497
156	0x3e7bd2d7	0.24592148
157	0x3d26ee9e	0.040754907
158	0x3da7781e	0.081772074
159	0x3c91e544	0.017809518
160	0xbe2e39bd	-0.17014213
161	0x3d211a30	0.039331615
162	0x3db83b6f	0.08995711
163	0x3da8b1bc	0.08237025
164	0x3cc76de1	0.024344387
165	0x3da7cc27	0.08193236
166	0xbd9ef6e5	-0.07761935
167	0xbca9a8d7	-0.020710392
168	0xbc7c9877	-0.01541721
169	0x3d50b3bc	0.050952658
170	0x3d19bee2	0.037535556
171	0x3d3fe406	0.04684832
172	0x3b058a2d	0.0020376549
173	0x3e4cee9b	0.20012896
174	0xbdb8ed4c	-0.09029636
175	0xbdc9bcd4	-0.09850469
176	0xbd11d5ad	-0.035604168
177	0xbd5e8dbe	-0.054334395
178	0x3ca596c5	0.020213494
179	0x3c70fbd0	0.014708474
180	0x3dd9b19c	0.106295794
181	0xbce1f17c	-0.027580969
182	0x3cf78f86	0.030219804
183	0xbdaf4739	-0.085585065
184	0x3d9a2fc4	0.07528642
185	0xbd8526c2	-0.06501533
186	0x3b0618a9	0.0020461476
187	0x3d158801	0.036506657
188	0x3e335c85	0.17515762
189	0x3bfa9618	0.007647287
190	0xbc07277d	-0.008249161
191	0x3d348135	0.044068534
192	0x3c72cfe3	0.014820072
193	0x3dbf2477	0.09333127
194	0xbdcfd565	-0.10148124
195	0xbac4efe3	-0.0015025105
196	0xbe06c153	-0.13159685
197	0x3db6e2e6	0.08929996
198	0x3df10619	0.11768741
199	0x3c8f6671	0.017504903
200	0xbd2c6637	-0.042089667
201	0x3dd48aca	0.103780344
202	0xbda69153	-0.08133187
203	0xbd9066ba	-0.070508435
204	0x3d80b472	0.06284417
205	0x3c2fac5d	0.010722247
206	0x3d49dbcc	0.04928188
207	0xbdc1e74d	-0.09467945
208	0x3d513999	0.05108032
209	0xbc80fa7c	-0.01574444
210	0x39cfca41	0.00039632808
211	0x3d961972	0.07329072
212	0xbd2f3df1	-0.04278368
213	0x3c6de218	0.014519237
214	0xbcf4e98a	-0.029896516
215	0x3de67926	0.11253576
216	0xbd444ee7	-0.04792681
217	0x3d3e3ad4	0.04644282
218	0xbda2d8ef	-0.07951533
219	0xbd011e9b	-0.03152333
220	0x3d7fa1e8	0.062410265
221	0x3e2f6999	0.17130126
222	0x3d69dcc6	0.05709531
223	0xbc0e9e60	-0.008704752
224	0x3d848e92	0.06472506
225	0xbd2903f3	-0.041263532
226	0xbc9e8b8b	-0.019353649
227	0x3e17541e	0.14778182
228	0x3d3662a7	0.044527676
229	0x3dad68e0	0.08467269
230	0x3e034a1e	0.12821242
231	0x3dca6b5b	0.09883758
232	0x3deeb20d	0.11655054
233	0x3e009e60	0.12560415
234	0xbd82e538	-0.06391376
235	0xbc76600d	-0.015037549
236	0xbcd778c2	-0.026302699
237	0x3e01749e	0.12642142
238	0x3e0af395	0.13569482
239	0xbb9ef17e	-0.0048505655
240	0xbc96ec67	-0.018423272
241	0x3dc9132a	0.098181084
242	0x3d31a2e5	0.04336824
243	0xbd4c2d3a	-0.04984782
244	0x3c09b9a3	0.008406076
245	0x3db4c8f3	0.088273905
246	0xbd8f49a5	-0.069964685
247	0xbd34e2aa	-0.044161476
248	0x3e755602	0.2395859
249	0xbd19db8b	-0.037562888
250	0xbd8575fc	-0.06516644
251	0x3bfa6643	0.007641585
252	0x3d17a474	0.03702207
253	0xbc61ca10	-0.013781086
254	0xbca4fb19	-0.020139264
255	0x3d9577ad	0.07298217
