loto6_cnn/loto6_30_620.model (npz, 491150 bytes, 38 tensors)

bn1/beta f4 [64]
0.051478066 0.012833356 0.025383674 0.0738363 -0.013081538 0.047813367 0.11425826 0.019719336
0.012505944 0.06725797 0.08620449 0.081920624 0.044900224 0.06556918 0.09228336 0.05291537
0.09783563 0.036852293 0.018374087 0.046108894 0.06563245 0.051372077 0.05690537 0.007153833
0.083254576 0.042589065 -0.009128313 0.036783237 0.07726893 0.008314192 0.054522976 0.009532336
0.014405412 0.02270052 0.07895616 0.03914985 0.006572435 0.02973145 0.100398794 0.09707803
0.021739246 0.060816962 0.027766181 0.029947456 0.047790688 -0.0049299398 -0.0050471304 0.090445526
0.018678691 0.08184851 -0.015929747 0.015222166 0.06846282 0.03945684 0.070031956 0.035850406
0.08953718 0.045104623 -0.017247574 0.11511155 0.05313079 0.022377264 0.061036527 0.02917197
00000000: aada 523d ff42 523c 6cf1 cf3c 7c37 973d
00000010: f253 56bc f3d7 433d 3c00 ea3d 728a a13c
00000020: bbe5 4c3c 8cbe 893d fb8b b03d 00c6 a73d
00000030: 4ce9 373d 2249 863d 0fff bc3d c9bd 583d
00000040: 0c5e c83d 6ef2 163d 4185 963c aedc 3c3d
00000050: 4e6a 863d 876b 523d 9b15 693d b36a ea3b
00000060: 6081 aa3d df71 2e3d eb8e 15bc 05aa 163d
00000070: 2c3f 9e3d 4038 083c 7c53 5f3d 842d 1c3c
00000080: ad04 6c3c 71f6 b93c c4b3 a13d 985b 203d
00000090: 955d d73b 5f8f f33c e29d cd3d d9d0 c63d
000000a0: 8116 b23c 351b 793d e775 e33c 5e54 f53c
000000b0: 2bc0 433d 558b a1bb 6662 a5bb 813b b93d
000000c0: 0e04 993c 31a0 a73d 1a7f 82bc 6466 793c
000000d0: 3c36 8c3d 7f9d 213d ea6c 8f3d e0d7 123d
000000e0: 455f b73d a0bf 383d c94a 8dbc 9bbf eb3d
000000f0: ac9f 593d 8650 b73c 7001 7a3d 0efa ee3c

bn3/gamma f4 [64]
1.0806752 1.0963261 1.0859699 1.071748 1.0158858 1.0487287 1.0499849 1.0194052
1.048262 1.0184993 0.9929192 1.0223099 1.0135192 1.0554355 1.0292659 0.9950733
0.9961556 1.0041082 1.0541414 0.990055 1.0280727 1.0374811 1.0052409 1.0146166
1.0154052 1.0111297 1.0124426 1.0104058 1.0221895 1.0178218 0.99925375 1.0493209
1.0149357 1.014881 1.0318474 1.02745 1.0114102 1.0825623 1.0989658 1.0372423
1.0201774 1.0219833 1.0176986 1.036261 1.0474213 1.0364417 1.0116668 1.0583845
1.016455 1.0349754 1.0078895 1.0006044 1.0177873 0.9899421 1.0595595 1.1054188
1.0321662 1.0155433 1.0003475 1.0232687 1.0133883 1.0205737 1.1053272 1.0145855
00000000: 9153 8a3f 6a54 8c3f 1001 8b3f 0a2f 893f
00000010: 8c08 823f be3c 863f e865 863f df7b 823f
00000020: 732d 863f 2f5e 823f f42f 7e3f 0ddb 823f
00000030: ffba 813f 8318 873f fcbe 833f 20bd 7e3f
00000040: 0e04 7f3f 9e86 803f 1bee 863f 3f74 7d3f
00000050: e397 833f 2ecc 843f bcab 803f f5de 813f
00000060: ccf8 813f b36c 813f b897 813f fa54 813f
00000070: 1bd7 823f fc47 823f 18cf 7f3f 2650 863f
00000080: 6ae9 813f 9fe7 813f 9313 843f 7b83 833f
00000090: e475 813f 6791 8a3f e9aa 8c3f 5bc4 843f
000000a0: 2c95 823f 59d0 823f f343 823f 33a4 843f
000000b0: e711 863f 1faa 843f 4c7e 813f 2579 873f
000000c0: 331b 823f 137a 843f 8602 813f ce13 803f
000000d0: db46 823f d86c 7d3f a59f 873f 5d7e 8d3f
000000e0: 061e 843f 53fd 813f 630b 803f 78fa 823f
000000f0: b5b6 813f 29a2 823f 5d7b 8d3f f0dd 813f

bn4/beta f4 [32]
0.034942262 0.069090776 0.019487325 0.082467765 0.0584512 0.059538133 0.13587599 0.03561575
0.11971083 0.1509387 0.09012005 0.08267619 0.066296086 0.09393157 0.004868193 0.021074075
0.017661603 0.07831096 0.05101202 0.014770485 0.07416983 -0.00569064 0.0015607696 0.058195673
0.08431637 0.062461983 0.09380086 0.0044786483 0.06882836 0.13467573 0.09054493 0.087765135
00000000: 9e1f 0f3d 777f 8d3d e2a3 9f3c dce4 a83d
00000010: 876a 6f3d 42de 733d 1323 0b3e d2e1 113d
00000020: f42a f53d ad8f 1a3e dc90 b83d 2252 a93d
00000030: 3ec6 873d 325f c03d 5d85 9f3b 8aa3 ac3c
00000040: 11af 903c 7f61 a03d fbf1 503d e8ff 713c
00000050: 5ae6 973d 8c78 babb bd92 cc3a 965e 6e3d
00000060: 10ae ac3d 23d8 7f3d aa1a c03d a0c1 923b
00000070: e2f5 8c3d 6fe8 093e 9f6f b93d 35be b33d

bn2/avg_mean f4 [64]
-0.28652957 -0.7057712 -0.9150313 -1.241195 0.075278796 -0.45576814 -1.2757576 -1.4149679
-0.47581163 -1.5004709 -0.39232028 -0.40031007 -0.81776667 -0.7916932 0.8437264 -1.0150836
-0.6195313 -0.8838603 -0.93835366 -1.0796688 -0.8367121 -1.4617021 -0.38306308 0.044267856
-0.9622488 -0.88271946 -0.7661424 -0.6311845 0.3330409 -0.3921572 -0.034520768 -0.9298766
0.042064175 0.25089785 0.07054042 -1.4980718 -0.38125384 0.10416102 -0.16195309 -0.25861502
-0.983179 -0.14398102 -0.9009625 0.4546198 -0.87849545 -0.9685722 -0.48165125 -1.3174998
-0.8808069 -0.82143 -0.8721354 -0.00955048 -1.322615 -0.9314585 -0.8725233 -0.0748355
-1.2261451 -1.095014 -0.5384313 0.2938409 -0.13033454 -1.3545604 -1.1323507 -1.1348656
00000000: 01b4 92be 6cad 34bf 7e3f 6abf 7adf 9ebf
00000010: c52b 9a3d 715a e9be 064c a3bf ab1d b5bf
00000020: 959d f3be 6e0f c0bf 34de c8be 71f5 ccbe
00000030: 2859 51bf 68ac 4abf 74fe 573f 42ee 81bf
00000040: 9a99 1ebf ab44 62bf f237 70bf 9632 8abf
00000050: c432 56bf 0e19 bbbf d820 c4be 3652 353d
00000060: f055 76bf e7f9 61bf e921 44bf 4f95 21bf
00000070: 5684 aa3e d4c8 c8be a665 0dbd 650c 6ebf
00000080: 7c4b 2c3d af75 803e 7f77 903d d1c0 bfbf
00000090: b433 c3be 5f52 d53d 08d7 25be 3069 84be
000000a0: 9eb1 7bbf c36f 13be 7aa5 66bf edc3 e83e
000000b0: 14e5 60bf 59f4 77bf fe9a f6be d5a3 a8bf
000000c0: 907c 61bf 3d49 52bf 4444 5fbf 9e79 1cbc
000000d0: 734b a9bf 1074 6ebf b05d 5fbf 5b43 99bd
000000e0: 53f2 9cbf 6b29 8cbf a2d6 09bf 5072 963e
000000f0: 6b76 05be 3c62 adbf def0 90bf 4743 91bf

conv1_6/b f4 [32]
-0.00017067917 0.00019721278 -0.0007445386 -0.000540935 -0.00090018834 -4.146549e-05 1.0865095e-05 0.0006998241
-0.00042545563 -0.00018946282 7.6460674e-05 0.0005668371 -0.00029575996 -0.000612998 0.00023988534 0.00021213146
0.0006003315 -0.00017653797 -0.0007760153 -0.00046926204 0.0007413298 -0.00019833002 0.0003794366 9.0873196e-05
-0.00015612546 0.0011201329 4.7579415e-05 -0.00012018337 -0.0002533058 0.00017710669 0.0003156117 0.00025895715
00000000: 57f8 32b9 e7ca 4e39 242d 43ba 89cd 0dba
00000010: 9efa 6bba 3beb 2db8 3a49 3637 6674 373a
00000020: b00f dfb9 8aaa 46b9 8359 a038 cb97 143a
00000030: 3b10 9bb9 99b1 20ba bb89 7b39 9b6f 5e39
00000040: 915f 1d3a 0d1d 39b9 816d 4bba 4907 f6b9
00000050: cd55 423a cff6 4fb9 1eef c639 2d93 be38
00000060: 9cb5 23b9 6cd1 923a 0290 4738 f50a fcb8
00000070: 21ce 84b9 b7b5 3939 af78 a539 a4c4 8739

conv1_5/b f4 [32]
-0.00037952967 9.6875134e-05 0.00061149366 0.00014403807 -0.00028811913 0.00026885085 0.0001596651 -0.0001519849
0.00014393263 -0.0001721412 -0.00036770137 0.00026508278 -0.00045261192 0.00034731266 3.49586e-05 0.00063137186
3.3086748e-05 0.00045359987 0.00021873442 -0.00037165004 0.00010722644 0.0004092771 -0.0017148091 -0.00015603966
-2.4355699e-05 0.00048851245 0.00014655074 0.00037217318 0.00024350443 -0.00044200243 3.0979827e-05 0.00012582113
00000000: 9cfb c6b9 7129 cb38 a54c 203a ed08 1739
00000010: b20e 97b9 8df4 8c39 c66b 2739 235e 1fb9
00000020: 9fec 1639 cd80 34b9 0bc8 c0b9 cffa 8a39
00000030: 8b4c edb9 8417 b639 83a0 1238 a682 253a
00000040: a0c6 0a38 25d1 ed39 135c 6539 06da c2b9
00000050: c2de e038 3e94 d639 72c3 e0ba 949e 23b9
00000060: 774f ccb7 840f 003a 6aab 1939 3d20 c339
00000070: 3955 7f39 90bc e7b9 56f0 0138 daee 0339

bn3/avg_var f4 [64]
0.2943898 0.69074506 0.51073414 0.56368816 0.416552 0.29516202 0.79533374 0.31935906
0.39744723 0.3513503 0.340896 0.33408886 0.46855918 0.26272175 0.62082607 0.3550152
0.28386426 0.35654348 0.3689109 0.57125956 0.34228393 0.35935643 0.33580735 0.46291697
0.355205 0.41278946 0.28069785 0.5457366 0.32632264 0.2745312 0.4153341 0.44303578
0.34878615 0.39439172 0.3476815 0.36666885 0.41202405 0.51475936 0.7487904 0.32576883
0.33536348 0.24990316 0.31519544 0.27440718 0.36489704 0.30260715 0.22813079 0.57257295
0.3355766 0.35770604 0.414113 0.33750966 0.61015797 0.31142223 0.33130527 0.726212
0.4238622 0.2210748 0.3376675 0.34216228 0.5419893 0.2733577 0.62729836 0.49319708
00000000: 43ba 963e abd4 303f 79bf 023f de4d 103f
00000010: 4e46 d53e 7a1f 973e fe9a 4b3f 0883 a33e
00000020: 347e cb3e 30e4 b33e ec89 ae3e b20d ab3e
00000030: fde6 ef3e 7783 863e 75ee 1e3f 8dc4 b53e
00000040: a856 913e de8c b63e e4e1 bc3e 113e 123f
00000050: d73f af3e 91fd b73e f1ee ab3e 7403 ed3e
00000060: 6edd b53e 2459 d33e a1b7 8f3e 65b5 0b3f
00000070: c313 a73e 5a8f 8c3e aca6 d43e 96d5 e23e
00000080: 1994 b23e b6ed c93e 4f03 b23e 05bc bb3e
00000090: d1f4 d23e 45c7 033f bab0 3f3f 2ccb a63e
000000a0: c3b4 ab3e 9de6 7f3e 4c61 a13e 197f 8c3e
000000b0: c9d3 ba3e 53ef 9a3e 1e9b 693e 2494 123f
000000c0: b2d0 ab3e 3f25 b73e 9e06 d43e 11ce ac3e
000000d0: 5033 1c3f bc72 9f3e d8a0 a93e 08e9 393f
000000e0: 7704 d93e 6f61 623e c1e2 ac3e e52f af3e
000000f0: d0bf 0a3f 8af5 8b3e a096 203f 5484 fc3e

conv1_3/W f4 [64, 64, 3, 3]
-0.014538741 -0.08723867 -0.006485889 0.0880626 -0.04239331 0.039735164 0.021133645 0.026319018
0.013823613 -0.010598108 0.019628061 -0.09303485 -0.030206008 0.043297347 -0.005047845 0.002639825
-0.055253483 0.025606584 -0.061261415 -0.061255343 0.012284692 -0.007000359 0.020085216 0.029552948
-0.01959532 -0.057622764 -0.069314644 0.0056339046 0.049407035 -0.032542307 -0.008817332 0.10588242
-0.027568022 0.046816133 -0.03308853 0.012832213 -0.0038280592 -0.060180936 0.040726263 0.07497917
0.009844981 0.0026224868 0.006575371 -0.050364207 0.034294136 -0.019016912 -0.040699594 -0.056303564
0.014669897 -0.035184383 0.013887303 0.05994215 -0.00039619437 -0.006540894 0.028009607 0.019983377
-0.026099835 -0.037900645 -0.08172297 0.012910648 -0.00010887757 -0.012267676 -0.028263783 0.0056206128
-0.04227387 -0.028477153 0.011116962 -0.023384696 -0.010573047 0.02048883 0.003636016 0.019743202
-0.0140956445 -0.011862757 0.06073024 0.059919965 0.022787424 -0.0063823033 0.015146105 0.0018410068
-0.016134784 -0.027031343 0.05787659 -0.029281965 -0.03263028 -0.08546131 0.02224874 -0.059500057
-0.057924446 0.034540262 -0.007906514 0.01623328 0.030295849 0.005730389 -0.065992825 -0.017382346
0.043536555 -0.07929154 -0.012679011 -0.041314658 -0.012528765 -0.0060324892 -0.020361809 -0.05700563
-0.08413526 -0.003957068 -0.0016888361 -0.022780048 -0.047027804 5.1600895e-05 -0.041975904 -0.06641367
0.0281954 -0.0055086263 -0.029221121 0.0115344515 -0.045612473 -0.015316436 0.0051833047 0.041847885
-0.05632074 -0.023681026 -0.06587527 -0.051991597 -0.06652657 0.021111462 0.009218852 0.016026605
-0.03216863 -0.026168944 0.0058409963 0.08592068 0.010077372 -0.009936179 -0.09411428 0.0094179865
-0.022615245 0.05491868 0.005912084 0.04508358 -0.033774488 -0.03316752 -0.012322923 0.012804285
-0.05362241 -0.011115676 -0.005294219 0.04562793 -0.020895552 0.04496425 0.010875361 -0.028804848
0.0035608488 -0.05646865 -0.022677096 0.063286856 -0.07562801 0.011067615 -0.011029587 -0.07960572
0.025895266 0.023822255 0.010836043 -0.06143968 -0.020034978 0.004313193 -0.029644841 -0.05048166
0.022912823 0.034808557 -0.017439252 -0.0139688 -0.07449201 0.038114727 -0.054090526 -0.051714387
0.10603189 -0.005847842 0.025776614 0.03299114 0.018470578 -0.07298502 -0.019423878 0.0144111905
0.016994873 0.00048588798 -0.05948337 0.019787565 -0.005531426 -0.01839957 -0.00038853823 0.03825183
-0.021905858 -0.015455416 -0.032744773 0.059142016 0.009964254 0.0073208665 -0.04675958 0.049968388
-0.046930525 -0.009099762 0.023650477 0.04387309 -0.012143928 -0.020105766 -0.055015218 -0.027089488
-0.00023144617 -0.0032287224 0.02663533 0.035535287 -0.03716934 -0.10350078 0.004461915 -0.042220473
-0.09249085 0.06671723 -0.09097228 -0.015171898 0.0046170894 0.00937309 0.004247672 -0.05210506
0.07644408 0.009881049 0.0066768364 -0.08805976 0.046271652 0.080281466 -0.0423379 0.005338733
0.0016606 -0.026675241 -0.016603593 -0.010292639 -0.023805212 -0.059720933 -0.059939947 0.023017466
0.05137669 0.03439104 0.028481666 -0.061581664 0.03398122 0.031097379 -0.04514618 -0.026208343
-0.02912743 0.012591474 0.008171771 -0.02025153 -0.017784178 0.008344054 -0.071216315 -0.051943902
00000000: e633 6ebc 30aa b2bd 9587 d4bb 2a5a b43d
00000010: 9ca4 2dbd 57c1 223d 7720 ad3c fb9a d73c
00000020: 6f7c 623c b0a3 2dbc 07cb a03c 0e89 bebd
00000030: 9772 f7bc 8f58 313d 6568 a5bb ea00 2d3b
00000040: 7a51 62bd e6c4 d13c 40ed 7abd e2e6 7abd
00000050: bc45 493c 4463 e5bb c089 a43c 0619 f23c
00000060: 5d86 a0bc d905 6cbd d6f4 8dbd 9e9c b83b
00000070: 085f 4a3d 154b 05bd 9276 10bc e2d8 d83d
00000080: 55d6 e1bc 46c2 3f3d d787 07bd 343e 523c
00000090: 2de0 7abb 4980 76bd 95d0 263d ae8e 993d
000000a0: d84c 213c 07de 2b3b 3676 d73b b34a 4ebd
000000b0: 0278 0c3d 5bc9 9bbc 9eb4 26bd 919e 66bd
000000c0: 025a 703c 801d 10bd 9287 633c e685 753d
000000d0: 4fb8 cfb9 ff54 d6bb 6774 e53c 2eb4 a33c
000000e0: 52cf d5bc b53d 1bbd 5f5e a7bd 2f87 533c
000000f0: 3355 e4b8 5dfe 48bc 7389 e7bc 1e2d b83b
00000100: 5e27 2dbd eb48 e9bc eb23 363c 4391 bfbc
00000110: 933a 2dbc 31d8 a73c 3a4a 6e3b 7fbc a13c
00000120: 6bf1 66bc 025c 42bc 46c0 783d a36e 753d
00000130: b1ac ba3c a422 d1bb 5e27 783c f04d f13a
00000140: 182d 84bc d670 ddbc 0110 6d3d bbe0 efbc
00000150: 54a7 05bd 5706 afbd fd42 b63c 55b6 73bd
00000160: 2f42 6dbd 177a 0d3d 538a 01bc a8fb 843c
00000170: 002f f83c fdc5 bb3b 3f27 87bd 6c65 8ebc
00000180: 6353 323d 9a63 a2bd a0bb 4fbc 8f39 29bd
00000190: 7345 4dbc 30ac c5bb cfcd a6bc bc7e 69bd
000001a0: 1b4f acbd 4baa 81bb f05b ddba 399d babc
000001b0: 3aa0 40bd 0a6e 5838 edee 2bbd e403 88bd
000001c0: 0afa e63c b581 b4bb 2261 efbc fffa 3c3c
000001d0: 25d4 3abd caf1 7abc b6d8 a93b b068 2b3d
000001e0: 94b0 66bd b6fe c1bc 9de9 86bd 24f5 54bd
000001f0: 153f 88bd f2f1 ac3c ab0a 173c 3a4a 833c
00000200: 41c3 03bd 4160 d6bc d465 bf3b 2ef7 af3d
00000210: 901b 253c 5bcb 22bc fdbe c0bd e64d 1a3c
00000220: 9b43 b9bc 69f2 603d 28ba c13b 8fa9 383d
00000230: 1e57 0abd aada 07bd 16e6 49bc 10c9 513c
00000240: 2ca3 5bbd 861e 36bc 217b adbb 5ae4 3a3d
00000250: 262d abbc 6f2c 383d 922e 323c 25f8 ebbc
00000260: 215d 693b ac4b 67bd 51c5 b9bc 8a9c 813d
00000270: dce2 9abd f154 353c 71b5 34bc 5308 a3bd
00000280: 4f22 d43c e426 c33c a989 313c 2da8 7bbd
00000290: 6520 a4bc af55 8d3b bdd9 f2bc dbc5 4ebd
000002a0: acb3 bb3c 6b93 0e3d c3dc 8ebc 65dd 64bc
000002b0: 448f 98bd 301e 1c3d 078e 5dbd 77d2 53bd
000002c0: 3f27 d93d 419f bfbb 7a29 d33c b821 073d
000002d0: 9c4f 973c 2c79 95bd d31e 9fbc ea1c 6c3c
000002e0: d538 8b3c c8be fe39 d6a4 73bd 8819 a23c
000002f0: f740 b5bb b2ba 96bc b8b4 cbb9 f3ad 1c3d
00000300: ea73 b3bc b738 7dbc 621f 06bd e63e 723d
00000310: 1c41 233c e1e3 ef3b f986 3fbd a7ab 4c3d
00000320: 393a 40bd 2b17 15bc a5be c13c 45b4 333d
00000330: 53f7 46bc d9b4 a4bc a357 61bd c6ea ddbc
00000340: 5cb0 72b9 f998 53bb 5632 da3c 738d 113d
00000350: e13e 18bd 38f8 d3bd 4235 923b 60ef 2cbd
00000360: d86b bdbd 0ba3 883d ad4f babd 8d93 78bc
00000370: f44a 973b 9791 193c 0e30 8b3b 1e6c 55bd
00000380: b78e 9c3d 20e4 213c 5dc9 da3b ad58 b4bd
00000390: 5887 3d3d 9c6a a43d 816a 2dbd 8af0 ae3b
000003a0: 7da8 d93a 0986 dabc 4204 88bc 75a2 28bc
000003b0: 2603 c3bc f09d 74bd 9783 75bd 208f bc3c
000003c0: 5d70 523d 9fdd 0c3d 6252 e93c 0e3d 7cbd
000003d0: e42f 0b3d eebf fe3c 33eb 38bd e1b2 d6bc
000003e0: a69c eebc 784c 4e3c e4e2 053c 89e6 a5bc
000003f0: 20b0 91bc 80b5 083c dcd9 91bd 21c3 54bd

bn4/avg_mean f4 [32]
2.2289653 1.3181571 -0.70808935 -0.22868475 0.20242882 -1.7985424 -2.7050817 0.28437236
-0.1656875 -0.40860388 -1.7440501 -2.6719577 -2.1840675 -1.666046 0.81758803 -0.78488404
-0.04612524 -0.33810008 -1.0481992 -1.9768225 -2.3100324 1.3273675 2.4180799 -2.4517252
-2.2611349 0.9761686 -2.9733808 -1.0719565 -1.3828732 -3.049185 -2.7867546 0.07776078
00000000: 5ea7 0e40 5fb9 a83f 5845 35bf 562c 6abe
00000010: 8049 4f3e a336 e6bf 0f20 2dc0 4199 913e
00000020: fca9 29be 8734 d1be 093d dfbf 5b01 2bc0
00000030: c3c7 0bc0 ff40 d5bf 734d 513f 29ee 48bf
00000040: d2ed 3cbd 741b adbe 642b 86bf 8508 fdbf
00000050: 92d7 13c0 2ee7 a93f d2c1 1a40 11e9 1cc0
00000060: 6fb6 10c0 2fe6 793f df4b 3ec0 df35 89bf
00000070: fd01 b1bf d925 43c0 305a 32c0 0b41 9f3d

bn3/beta f4 [64]
0.0028685785 -0.015633637 -0.0019098668 -0.020390477 -0.009161492 0.0014528497 0.06408005 0.019844716
0.025140574 -0.0026870957 -0.024198212 0.02744256 0.009418956 0.020567307 0.016805312 -0.004757669
-0.012404295 -0.033210896 0.021355737 -0.028806698 0.014952675 0.035577886 -0.014394352 -0.015875762
-0.039135758 0.008240436 0.016611608 0.00045441362 0.007754789 0.0042421897 -0.034896348 -0.0121825505
-0.0029129456 -0.002320176 0.015484369 0.020896869 0.0130853355 -0.00054403476 -0.048328675 0.034761235
0.014818876 0.019820193 -0.008816653 0.014670672 0.013900671 0.021408103 -0.0011301851 0.033108052
0.0022223971 0.020434173 -0.0012451159 -0.01739414 0.032633163 -0.025573427 0.040905014 0.010175673
0.04655312 -0.030092856 0.005321156 -0.02269042 -0.00473759 -0.009773056 -0.029300941 -0.004841017
00000000: c3fe 3b3b 1d12 80bc 7f54 faba ee09 a7bc
00000010: 151a 16bc 8c6d be3a 673c 833d 6391 a23c
00000020: 9bf3 cd3c fc19 30bb 543b c6bc 38cf e03c
00000030: f751 1a3c c57c a83c 4bab 893c 38e6 9bbb
00000040: 623b 4bbc 2608 08bd 3af2 ae3c 06fc ebbc
00000050: 11fc 743c 1eba 113d 4ad6 6bbc e30d 82bc
00000060: d14c 20bd e502 073c 1115 883c 5d3e ee39
00000070: e31b fe3b 1102 8b3b 79ef 0ebd 5299 47bc
00000080: 1ee7 3ebb 180e 18bb 27b2 7d3c e92f ab3c
00000090: e063 563c 8e9d 0eba 4af4 45bd cc61 0e3d
000000a0: dfca 723c f55d a23c b973 10bc 425d 703c
000000b0: a4bf 633c 0c60 af3c b822 94ba 4f9c 073d
000000c0: a3a5 113b 9165 a73c 2833 a3ba 287e 8ebc
000000d0: 5aaa 053d 5d7f d1bc 048c 273d deb7 263c
000000e0: 7cae 3e3d 4b85 f6bc 175d ae3b 42e1 b9bc
000000f0: c93d 9bbb 2b1f 20bc 8708 f0bc 65a1 9ebb

conv1_7/b f4 [3]
0.030651199 0.007636903 -0.007914156
00000000: 3918 fb3c fc3e fa3b 60aa 01bc

conv1_4/W f4 [32, 64, 3, 3]
-0.036428668 0.047885288 0.008387628 0.06733515 0.110937364 -0.027826514 -0.012475805 0.0011465047
0.012986104 0.049926177 -0.055797096 -0.028046366 0.03778701 0.05556207 -0.05397939 -0.10486536
0.025118232 0.03747894 0.0076922746 -0.04953735 -0.04452342 0.030455817 -0.097723 0.023426851
-0.013858493 0.080055036 -0.08835897 0.032617055 -0.016583811 -0.010609321 -0.00022586869 0.00042050635
0.017148482 -0.021816794 0.018098803 0.003163608 -0.04578901 0.0042464826 -0.0069956104 -0.017027756
-0.027793705 0.021026596 0.004498879 0.008301783 0.061657615 -0.0056895437 0.029972497 0.014934082
0.01994963 -0.014974846 0.019893203 -0.0055058235 0.034559052 0.016398042 0.066596895 0.08220029
-0.0028793951 -0.052696325 0.035873886 -0.016800262 0.003345818 0.017189639 -0.07804769 -0.021572435
0.09842692 0.025722822 0.008162019 0.020886159 0.008145383 0.014915077 -0.019734934 -0.05729721
-0.08093952 0.008553719 -0.03242261 0.051942676 -0.04436244 0.046119116 -0.0009310107 0.024561375
-0.00068501045 -0.02681475 -0.039899297 -0.016476192 -0.09828019 0.056645807 0.06312126 0.043315057
0.032776784 -0.014157386 0.032760043 0.018032061 0.029268902 0.0069347327 0.014340947 -0.008381376
0.017145226 -0.03854443 0.030135855 -0.0046576136 -0.04041585 0.04547427 -0.08076268 0.0023919574
0.030445635 -0.051793955 0.060269088 -0.00792218 0.01752458 0.014598546 -0.121358305 -0.024601439
-0.03941581 -0.0024458047 -0.05250357 -0.024689132 -0.029546585 0.012738639 -0.040956695 -0.023008749
0.0030628315 0.05866995 -0.024151525 -0.002605132 0.037356682 0.031972226 -0.013528936 -0.08129009
-0.0040602987 0.020509688 0.05701327 -0.03927453 0.06314319 0.0851918 0.034545824 0.022638554
0.018388228 0.055162717 -0.027327277 0.024756439 0.07541985 0.018030457 -0.06581902 -0.018731982
-0.052569654 0.012040618 -0.038602818 0.02433873 0.0660614 -0.016411228 -0.06860077 -0.017577784
0.020234106 -0.07277169 -0.024690686 0.029571451 -0.0072107073 0.07386946 0.0510692 0.071637884
0.026276663 -0.07938541 -0.023700217 0.01353543 -0.022168927 0.015558796 -0.017105889 -0.0405595
-0.055337213 -0.011500172 -0.020382943 0.045016177 0.08072164 0.051115707 -0.021777296 -0.009155128
0.022801979 0.008114404 0.025495829 0.063101545 -0.01359093 0.006593877 0.05700273 0.054245085
-0.02166704 0.026643896 0.06418778 0.024092201 -0.0687911 -0.046707682 0.07617819 -0.05101117
-0.024819365 0.024069604 0.017732596 -0.01258188 -0.04863173 -0.036799762 -0.004917056 0.05542799
0.0008093959 -0.023744736 0.030501 -0.034361683 0.03182267 0.057954475 0.023399286 0.030235866
0.083115585 0.034153827 -0.004319852 0.021166006 0.017141957 0.007172953 0.034518972 0.021805763
0.0043337755 0.036274422 -0.01369655 0.015316536 0.032445826 -0.007920321 0.022937478 0.04224334
-0.063855626 -0.0041478057 -0.050799493 -0.030027308 0.0034519425 0.08028518 0.03303279 0.014291894
-0.05350409 0.02006326 0.013581025 -0.03497169 0.04322936 -0.025964698 0.075960435 0.03179883
-0.04149372 -0.034356657 -0.037782695 0.095027864 -0.04536414 0.07085297 0.02598044 0.097136185
-0.023537938 0.016134795 0.06593712 0.0031053175 0.047729485 0.03343058 0.003721151 -0.009182365
00000000: 3a36 15bd 5d23 443d 436c 093c 03e7 893d
00000010: 2133 e33d 6ef4 e3bc 5267 4cbc 5046 963a
00000020: abc3 543c 647f 4c3d 7f8b 64bd 7ec1 e5bc
00000030: 8dc6 1a3d 0e95 633d 7e19 5dbd a6c3 d6bd
00000040: c0c4 cd3c 8483 193d 7a0f fc3b ade7 4abd
00000050: 315e 36bd 7a7e f93c ff22 c8bd abe9 bf3c
00000060: bc0e 63bc e5f3 a33d 8cf5 b4bd 7699 053d
00000070: c6da 87bc b8d2 2dbc 2ad7 6cb9 6877 dc39
00000080: f97a 8c3c 22b9 b2bc f143 943c 8954 4f3b
00000090: 428d 3bbd 1426 8b3b 6f3b e5bb cb7d 8bbc
000000a0: a0af e3bc f83f ac3c 556b 933b 3404 083c
000000b0: b28c 7c3d 5a6f babb e288 f53c 14ae 743c
000000c0: 686d a33c 0e59 75bc 12f7 a23c 326a b4bb
000000d0: cb8d 0d3d 3055 863c f463 883d a058 a83d
000000e0: 3cb4 3cbb 1ad8 57bd 7ff0 123d b4a0 89bc
000000f0: 8345 5b3b 49d1 8c3c 78d7 9fbd adb8 b0bc
00000100: 0e94 c93d abb8 d23c fdb9 053c 7319 ab3c
00000110: 3674 053c 5e5e 743c 28ab a1bc 7bb0 6abd
00000120: 9ec3 a5bd e624 0c3c 92cd 04bd d8c1 543d
00000130: 64b5 35bd 66e7 3c3d 120f 74ba f034 c93c
00000140: 4692 33ba 9baa dbbc 726d 23bd 14f9 86bc
00000150: 2047 c9bd 6f05 683d b845 813d 216b 313d
00000160: f340 063d 61f4 67bc 652f 063d f9b7 933c
00000170: 56c5 ef3c c13c e33b 4bf6 6a3c 0a52 09bc
00000180: 2574 8c3c c4e0 1dbd 78df f63c e59e 98bb
00000190: 178b 25bd 3a43 3a3d e766 a5bd 63c2 1c3b
000001a0: 2069 f93c e625 54bd b8dc 763d 08cc 01bc
000001b0: b58f 8f3c bd2e 6f3c b48a f8bd f588 c9bc
000001c0: 7972 21bd cb49 20bb fc0d 57bd dd40 cabc
000001d0: ae0b f2bc b9b5 503c 35c2 27bd d87c bcbc
000001e0: c9b9 483b e74f 703d 6bd9 c5bc ddba 2abb
000001f0: 5203 193d 4ff5 023d 78a8 5dbc 6b7b a6bd
00000200: 410c 85bb ef03 a83c bf86 693d 54de 20bd
00000210: 3851 813d 0a79 ae3d ec7f 0d3d 7d74 b93c
00000220: e9a2 963c 4df2 613d 74dd dfbc 04ce ca3c
00000230: b975 9a3d 9cb4 933c 1fcc 86bd d073 99bc
00000240: 4753 57bd 0346 453c fd1d 1ebd 0462 c73c
00000250: 334b 873d d770 86bc 8f7e 8cbd 49ff 8fbc
00000260: ffc1 a53c 5309 95bd 1f44 cabc d43f f23c
00000270: cc47 ecbb df48 973d f02d 513d e2b6 923d
00000280: 2842 d73c d194 a2bd f526 c2bc b5c3 5d3c
00000290: 9c9b b5bc 52ea 7e3c a621 8cbc b821 26bd
000002a0: 46a9 62bd 386b 3cbc 21fa a6bc e262 383d
000002b0: 6351 a53d b45e 513d 4d66 b2bc 64ff 15bc
000002c0: 37cb ba3c 47f2 043c a1dc d03c 623b 813d
000002d0: 7eac 5ebc 7311 d83b b27b 693d 1830 5e3d
000002e0: 147f b1bc 4d44 da3c e274 833d 025d c53c
000002f0: 59e2 8cbd 8e50 3fbd 5003 9c3d 17f1 50bd
00000300: fb51 cbbc 9e2d c53c f343 913c 3b24 4ebc
00000310: 1132 47bd 59bb 16bd 411f a1bb 7608 633d
00000320: a42d 543a 5284 c2bc 3cdd f93c d6be 0cbd
00000330: 7d58 023d ac61 6d3d dcaf bf3c 35b1 f73c
00000340: 8138 aa3d e2e4 0b3d 8c8d 8dbb 5564 ad3c
00000350: 4a6d 8c3c 170b eb3b c463 0d3d 00a2 b23c
00000360: 5802 8e3b 7d94 143d 7f67 60bc 35f2 7a3c
00000370: eae5 043d 3cc4 01bc 61e7 bb3c 5a07 2d3d
00000380: bdc6 82bd 51ea 87bb 2113 50bd d4fb f5bc
00000390: fc39 623b 8e6c a43d 644d 073d 8c28 6a3c
000003a0: 1b27 5bbd b55b a43c f382 5e3c 7a3e 0fbd
000003b0: 4511 313d ebb3 d4bc 2591 9b3d 7d3f 023d
000003c0: 52f5 29bd 91b9 0cbd 07c2 1abd f89d c23d
000003d0: c0cf 39bd 5d1b 913d efd4 d43c 56ef c63d
000003e0: a2d2 c0bc 1e2d 843c 0a0a 873d 9582 4b3b
000003f0: fe7f 433d 81ee 083d 8ede 733b a171 16bc

bn1/gamma f4 [64]
0.9747398 0.96492743 0.9674387 0.97386396 0.9766876 0.9786391 1.0012444 0.9786522
1.0008543 1.0035965 0.9952071 1.0391572 0.9840071 0.9718307 1.0098748 0.9551299
1.0009553 0.95297897 0.9472006 0.9891188 1.0072695 1.0111456 0.9930518 0.9878072
1.0335367 0.9324327 0.98415697 0.9600627 0.99819136 0.9749909 0.95546275 0.9874237
0.95719 0.9850417 1.0415938 0.9728277 0.9746882 0.9645651 1.0142643 1.0045255
0.95936847 1.0087881 0.9763649 1.0012335 0.9983878 0.9669784 0.9856847 0.96189606
0.9648352 1.0080221 0.93826705 0.9754296 0.9662887 0.955822 0.960721 0.99509484
0.9796177 1.0056419 0.965167 1.0082687 0.9634923 0.9832656 0.97664 0.9728473
00000000: 8c88 793f 7c05 773f 10aa 773f 264f 793f
00000010: 3308 7a3f 1888 7a3f c728 803f f388 7a3f
00000020: fe1b 803f da75 803f e4c5 7e3f 1a03 853f
00000030: e4e7 7b3f e6c9 783f 9443 813f 6583 743f
00000040: 4e1f 803f 6ef6 733f bd7b 723f e436 7d3f
00000050: 35ee 803f 386d 813f a538 7e3f efe0 7c3f
00000060: ee4a 843f e9b3 6e3f b6f1 7b3f abc6 753f
00000070: 7889 7f3f 0199 793f 3599 743f cdc7 7c3f
00000080: 670a 753f b12b 7c3f f252 853f 3c0b 793f
00000090: 2a85 793f bded 763f 6ad3 813f 4b94 803f
000000a0: 2c99 753f f81f 813f 0df3 793f 6b28 803f
000000b0: 5896 7f3f e58b 773f d555 7c3f d23e 763f
000000c0: 71ff 763f de06 813f 4532 703f c1b5 793f
000000d0: b25e 773f c0b0 743f d0f1 753f 89be 7e3f
000000e0: 3ac8 7a3f e0b8 803f 2f15 773f f30e 813f
000000f0: 6ea7 763f 4bb7 7b3f 1405 7a3f 850c 793f

conv1_4/b f4 [32]
0.00036531533 -3.5964065e-05 1.6460466e-05 0.00011693312 -0.00030961822 -0.00081555545 0.0006050987 1.5045426e-05
-5.6012883e-05 -0.000111543 3.7137535e-05 -0.000117467265 -0.00056137005 -0.00019356237 2.3877048e-05 0.0002308624
-0.0016686824 4.4595334e-05 -0.00029124008 -0.00011885646 -3.7257218e-05 -8.658917e-05 -0.0002529056 0.00017639103
8.1610915e-06 0.0010695754 0.00043639474 -5.5842822e-05 0.0001211164 4.7432215e-05 0.00018031138 -0.0002847036
00000000: cb87 bf39 1fd8 16b8 9514 8a37 fe39 f538
00000010: 4154 a2b9 00cb 55ba 7d9f 1e3a 9d6b 7c37
00000020: 60ef 6ab8 31ec e9b8 20c4 1b38 c258 f6b8
00000030: e828 13ba 01f7 4ab9 924b c837 a713 7239
00000040: b1b7 daba e00b 3b38 95b1 98b9 9342 f9b8
00000050: a244 1cb8 3597 b5b8 6a98 84b9 9bf5 3839
00000060: 9feb 0837 ff30 8c3a e9cb e439 c638 6ab8
00000070: dfff fd38 f4f1 4638 f811 3d39 4544 95b9

conv1_5/W f4 [32, 32, 3, 3]
-0.05656104 -0.04292174 0.015410881 -0.06022368 0.06863006 0.001481585 -0.006828242 0.08961516
0.046720646 0.021239156 0.05278923 -0.02305819 -0.0643702 0.018230777 -0.02481897 -0.13378282
0.04307609 0.024140816 -0.019107547 0.030721355 0.023891637 -0.0056465976 -0.16594663 0.06003211
-0.069796845 -0.18023503 0.049561176 0.047532182 0.008094433 0.058498684 -0.0035135879 0.07014137
-0.060406607 0.06149214 0.03290239 0.06354414 0.0010320464 -0.02405458 -0.0032900043 -0.019554194
-0.048047863 0.035607968 -0.021096474 -0.022641694 0.047616217 0.025394917 -0.013178438 0.036135733
-0.048780598 -0.026413925 0.034935452 -0.018387023 0.09396464 0.043919045 0.030136576 -0.10426766
-0.042283837 0.054264933 -0.027029471 0.026003629 -0.055302043 0.045829974 0.084491536 -0.015191471
0.058023512 0.023716152 -0.08845251 -0.028804092 -0.033654958 0.047359098 -0.10399673 0.0393377
-0.0108107645 -0.012806687 -0.023950905 0.053416222 -0.04393908 -0.003921108 0.049838502 -0.021663621
0.004068467 0.02090744 -0.071168795 0.021764422 -0.0060329493 0.010992893 0.02981483 -0.092589155
0.08410482 0.024706664 0.033574153 0.0741956 0.045373283 0.09973944 -0.019715946 -0.015517588
-0.02659315 -0.048696086 0.04595988 0.0027732817 -0.04048259 0.01960929 0.07742942 0.058861226
0.015560529 -0.07341493 0.002322778 -0.03623212 -0.10208251 -0.021382498 0.049260724 -0.08370123
-0.004499936 0.089238934 0.01801279 -0.03285201 -0.036113907 0.05880997 0.02323728 -0.017552594
0.10701439 0.060151413 -0.03617599 0.027938342 0.026771499 0.00069017976 -0.094867304 0.10137361
0.064602315 -0.027183741 0.11442671 -0.072090775 -0.025282942 0.02577497 0.0061266674 -0.058410294
0.045853335 -0.050273087 -0.049307253 -0.05558181 0.02529099 0.0088282805 0.007419215 -0.02384872
0.019040696 0.0027350672 -0.084287554 -0.058962584 0.024611922 0.013448978 0.04201052 0.004589339
-0.03456196 -0.015693441 -0.07570601 0.008429488 0.020528449 -0.07617587 -0.12952857 0.0037467116
0.06888347 -0.037668932 -0.093436815 -0.03568173 -0.07387063 0.13575701 0.14704052 -0.01819371
0.039291564 0.060047384 0.12149959 0.008308449 0.03478311 0.0036136855 0.013283451 -0.067195274
-0.04254198 -0.043350004 -0.053881545 0.017431693 0.0065320698 0.05011775 -0.0611095 0.023771657
0.012964376 -0.018004367 0.08154879 0.039117716 -0.045765053 0.036615115 -0.15710415 0.002583619
-0.04749361 0.007804212 0.036057316 0.06083188 -0.009512709 0.024944432 0.047129277 -0.045177348
-0.0952661 0.037658468 0.07406194 0.08985475 -0.022065869 0.0012747039 -0.0130274175 0.02674099
0.020437188 -0.05935111 -0.017586168 0.011290444 0.056600537 0.047160592 -0.03498735 0.08826977
-0.01118362 0.024789877 -0.09780507 -0.08258506 -0.037816774 0.06970843 -0.010102503 -0.029627735
-0.0011251182 -0.017888302 -0.055526763 -0.03076808 0.026617829 -0.01667499 0.049249772 -0.060970943
-0.054959793 0.043171376 0.058311053 0.16679335 0.009659226 0.015687903 -0.038657416 -0.032882404
0.04945455 0.04200267 0.029358404 -0.048701536 0.07855118 -0.0058388617 0.0067123645 0.0007468133
-0.09565379 -0.083727844 0.008454247 0.096869245 -0.010772546 0.01912724 0.021991108 -0.039300498
00000000: 8dac 67bd b5ce 2fbd eb7d 7c3c 1bad 76bd
00000010: eb8d 8c3d be31 c23a 72bf dfbb 2788 b73d
00000020: 265e 3f3d bdfd ad3c 8539 583d 87e4 bcbc
00000030: 86d4 83bd b658 953c 2751 cbbc 5dfe 08be
00000040: 8e70 303d f6c2 c53c 6e87 9cbc 5aab fb3c
00000050: 65b8 c33c 1807 b9bb eaed 29be 3be4 753d
00000060: a6f1 8ebd 888f 38be a900 4b3d 1bb1 423d
00000070: 839e 043c 519c 6f3d 3944 66bb 47a6 8f3d
00000080: eb6c 77bd 2fdf 7b3d a8c4 063d 6e23 823d
00000090: bb45 873a 1c0e c5bc 1d9d 57bb 1e30 a0bc
000000a0: d6cd 44bd a9d9 113d 83d2 acbc 137b b9bc
000000b0: 3909 433d 0009 d03c 60ea 57bc 1003 143d
000000c0: 2ace 47bd 0462 d8bc 7a18 0f3d 62a0 96bc
000000d0: 8870 c03d 75e4 333d fbe0 f63c 488a d5bd
000000e0: d131 2dbd e844 5e3d e96c ddbc 9005 d53c
000000f0: 6584 62bd 36b8 3b3d e609 ad3d a6e5 78bc
00000100: 10aa 6d3d 6048 c23c 9726 b5bd 8ff6 ebbc
00000110: c8d9 09bd 9dfb 413d 3dfc d4bd 9120 213d
00000120: a21f 31bc 23d3 51bc b034 c4bc f8ca 5a3d
00000130: 77f9 33bd a37c 80bb 7523 4c3d e877 b1bc
00000140: c650 853b 1446 ab3c f2c0 91bd 4d4b b23c
00000150: 0cb0 c5bb 891b 343c 3b3e f43c 629f bdbd
00000160: 263f ac3d a165 ca3c 0d85 093d ddf3 973d
00000170: 56d9 393d 3144 cc3d 5683 a1bc 7b3d 7ebc
00000180: e1d9 d9bc 8c75 47bd 6d40 3c3d f2bf 353b
00000190: 13d1 25bd a9a3 a03c 5193 9e3d 7818 713d
000001a0: 97f1 7e3c 915a 96bd c039 183b 2268 14bd
000001b0: a310 d1bd 592a afbc 9dc5 493d 8d6b abbd
000001c0: 3374 93bb e7c2 b63d 8f8f 933c d48f 06bd
000001d0: 2dec 13bd b9e2 703d 1c5c be3c 75ca 8fbc
000001e0: 5c2a db3d 5461 763d 462d 14bd f3de e43c
000001f0: e74f db3c 2eed 343a ca49 c2bd f89c cf3d
00000200: 384e 843d 70b0 debc 8d58 ea3d 54a4 93bd
00000210: 2c1e cfbc 0826 d33c 36c2 c83b a23f 6fbd
00000220: b5d0 3b3d 27eb 4dbd 67f6 49bd c1a9 63bd
00000230: 0d2f cf3c 7ea4 103c e31c f33b 645e c3bc
00000240: 3cfb 9b3c d03e 333b f49e acbd c082 71bd
00000250: f19e c93c 1a59 5c3c 3913 2c3d 2a62 963b
00000260: d790 0dbd 888f 80bc c10b 9bbd d61b 0a3c
00000270: 472b a83c 1802 9cbd 23a3 04be 648b 753b
00000280: c712 8d3d bd4a 1abd cd5b bfbd 0127 12bd
00000290: 7c49 97bd e303 0b3e ca91 163e fa0a 95bc
000002a0: 31f0 203d 3ff4 753d c7d4 f83d 2920 083c
000002b0: bc78 0e3d 95d3 6c3b d5a2 593c ad9d 89bd
000002c0: 8040 2ebd c68f 31bd e5b2 5cbd e9cc 8e3c
000002d0: f90a d63b 4548 4d3d f44d 7abd c7bc c23c
000002e0: 8968 543c e57d 93bc 0d03 a73d e639 203d
000002f0: 2374 3bbd bbf9 153d e9df 20be ef51 293b
00000300: a988 42bd 7aba ff3b d6b0 133d d92a 793d
00000310: 32db 1bbc 4458 cc3c a10a 413d e20b 39bd
00000320: df1a c3bd c43f 1a3d c9ad 973d c405 b83d
00000330: 7bc3 b4bc f713 a73a f370 55bc ec0f db3c
00000340: e46b a73c 261a 73bd de10 90bc 8efb 383c
00000350: f7d5 673d 772b 413d e54e 0fbd c8c6 b43d
00000360: 813b 37bc 2414 cb3c 064e c8bd 5b22 a9bd
00000370: c3e5 1abd 4bc3 8e3d f884 25bc ddb5 f2bc
00000380: b478 93ba 7d8a 92bc 0870 63bd 570d fcbc
00000390: a20d da3c fd99 88bc 21ba 493d abbc 79bd
000003a0: 851d 61bd 78d4 303d 92d7 6e3d e0cb 2a3e
000003b0: bb41 1e3c eb83 803c 3d57 1ebd b3af 06bd
000003c0: db90 4a3d fe0a 2c3d 0981 f03c 437b 47bd
000003d0: 71df a03d ec53 bfbb 65f3 db3b cbc5 433a
000003e0: 22e6 c3bd 8179 abbd af83 0a3c 6263 c63d
000003f0: 557f 30bc bbb0 9c3c b226 b43c 8ff9 20bd

bn5/beta f4 [32]
0.09538563 0.08234514 0.0032573834 0.13618773 0.07129641 0.06608669 0.13399012 0.049972735
0.1351183 0.095159456 0.117611304 0.12276039 0.05378224 0.0694018 0.021900328 0.01584957
0.02867274 0.09459297 0.048214417 0.003880626 0.084609345 0.03381388 0.00021974195 0.010861802
0.15719281 0.06573186 0.036723837 0.08879052 0.13174997 0.13162677 0.07568148 0.06841514
00000000: 8b59 c33d 92a4 a83d d379 553b cc74 0b3e
00000010: da03 923d 7558 873d b534 093e 36b0 4c3d
00000020: 745c 0a3e f6e2 c23d 32de f03d cd69 fb3d
00000030: c44a 5c3d 8822 8e3d 5168 b33c f5d6 813c
00000040: 18e3 ea3c f6b9 c13d 7b7c 453d 1a52 7e3b
00000050: aa47 ad3d 6c80 0a3d 886a 6639 b3f5 313c
00000060: 27f7 203e 6d9e 863d bc6b 163d ced7 b53d
00000070: 77e9 063e 2bc9 063e e4fe 9a3d 3d1d 8c3d

bn2/gamma f4 [64]
0.98908395 0.9602298 0.96885645 0.99256253 0.9848894 1.0303677 1.0280671 1.002436
1.0065435 0.99673104 0.9878062 0.97866374 1.0024134 0.99388593 0.9751673 1.0211121
0.9881696 0.99207836 0.9773918 0.9946392 0.9902464 1.0259631 0.96965027 0.9904348
1.0071294 0.9992248 1.0176919 0.96555805 0.9510896 1.0063086 1.0276996 0.98572654
0.9895679 0.98399466 0.9873059 1.0034883 0.99402153 0.9804612 0.9909143 0.9876559
1.0404207 0.98449653 0.97872907 1.001477 1.0290616 1.0241271 0.9821534 1.0225011
0.99396014 0.9816201 1.0186033 0.9513889 1.0712264 0.9971655 1.0161234 0.9768699
0.9950749 0.9833456 0.9816182 0.96104914 0.97124714 0.99934053 1.066084 0.9860351
00000000: 9b34 7d3f 9fd1 753f fa06 783f 9418 7e3f
00000010: b621 7c3f 17e3 833f b497 833f d34f 803f
00000020: 6bd6 803f c429 7f3f dee0 7c3f b589 7a3f
00000030: 154f 803f 4f6f 7e3f 90a4 793f cdb3 823f
00000040: aff8 7c3f d9f8 7d3f 5936 7a3f ada0 7e3f
00000050: ca80 7d3f c252 833f 003b 783f 238d 7d3f
00000060: 9ee9 803f 32cd 7f3f ba43 823f d02e 773f
00000070: 9c7a 733f b8ce 803f a98b 833f 9358 7c3f
00000080: 5254 7d3f 13e7 7b3f 14c0 7c3f 4e72 803f
00000090: 3278 7e3f 81ff 7a3f 8fac 7d3f 04d7 7c3f
000000a0: 812c 853f f707 7c3f fd8d 7a3f 6630 803f
000000b0: 4ab8 833f 9916 833f 686e 7b3f 51e1 823f
000000c0: 2c74 7e3f 744b 7b3f 9861 823f 398e 733f
000000d0: f21d 893f 3d46 7f3f 5510 823f 2514 7a3f
000000e0: 3bbd 7e3f 8abc 7b3f 554b 7b3f 5107 763f
000000f0: a7a3 783f c8d4 7f3f 7175 883f cc6c 7c3f

conv1_2/b f4 [64]
-2.8921902e-05 -1.627844e-05 7.702176e-05 0.00033180992 -6.528783e-05 -7.799904e-05 -0.00014532081 0.00030980594
-3.381011e-05 0.00010712054 0.00013870845 -1.0628672e-05 9.805289e-06 5.6669494e-05 -0.0002586397 -7.133566e-05
-0.00029022538 0.00010466086 -8.172436e-05 -0.00019859835 -7.7910845e-05 -0.00018834084 1.6896101e-05 5.499203e-05
-0.0003604125 -5.39834e-05 5.7277215e-05 0.00016729468 0.00013521964 0.00010088757 0.000102783364 -0.0005278084
-5.4574597e-05 -2.1659378e-05 7.0585564e-05 4.1919382e-05 5.3484375e-05 0.00023198659 -0.000108554654 -0.00014040581
-2.3342975e-05 -0.00011856763 3.0295936e-05 -5.1658364e-05 -0.00015630006 -2.6894773e-05 7.131388e-06 -0.0002854684
-4.4579927e-05 1.6188345e-05 0.00013603333 1.3377424e-05 0.00019217406 4.9327118e-05 -0.00036112397 -0.00011898817
-6.79569e-05 1.3414393e-05 -0.0002134792 -0.00016140804 4.9470982e-05 0.0001341533 -0.00021512657 9.416288e-05
00000000: 509d f2b7 af8d 88b7 be86 a138 c6f6 ad39
00000010: 23eb 88b8 6a93 a3b8 4261 18b9 736d a239
00000020: 54cf 0db8 e7a5 e038 4472 1139 cc51 32b7
00000030: 6581 2437 68b0 6d38 089a 87b9 0a9a 95b8
00000040: 6429 98b9 5f7d db38 6f63 abb8 d73e 50b9
00000050: 1164 a3b8 5c7d 45b9 1abc 8d37 3ea7 6638
00000060: bff5 bcb9 3c6c 62b8 f13c 7038 d36b 2f39
00000070: bfc9 0d39 9a93 d338 668d d738 9f5c 0aba
00000080: 07e7 64b8 29b1 b5b7 5607 9438 98d2 2f38
00000090: 6954 6038 6d41 7339 d6a7 e3b8 e639 13b9
000000a0: a8d0 c3b7 83a7 f8b8 0724 fe37 bfab 58b8
000000b0: 7ae4 23b9 169c e1b7 284a ef36 ecaa 95b9
000000c0: 55fb 3ab8 35cc 8737 2ba4 0e39 996f 6037
000000d0: 5582 4939 97e4 4e38 3d55 bdb9 4a89 f9b8
000000e0: 1584 8eb8 610e 6137 63d9 5fb9 a43f 29b9
000000f0: 107f 4f38 81ab 0c39 9993 61b9 5079 c538

bn2/avg_var f4 [64]
0.33199888 0.61594176 0.4769893 0.49528715 0.362687 0.4494433 0.49743477 0.37636194
0.45443323 0.4826686 0.44635424 0.58132863 0.404567 0.28718126 0.52912843 0.38772446
0.3734393 0.4034011 0.6895374 0.37902132 0.6912791 0.5463489 0.42326584 0.39701235
0.44239742 0.39802507 0.37505087 0.26723576 0.51344955 0.38130215 0.4816631 0.38311952
0.3663696 0.48003805 0.5289872 0.59132314 0.3729623 0.57484555 0.4410578 0.4221619
0.74870086 0.43071172 0.42148858 0.5129167 0.47807866 0.49019954 0.47845602 0.5275117
0.480713 0.36791492 0.37344816 0.49949154 0.5319492 0.46636328 0.49080798 0.43800464
0.4090553 0.39819026 0.31908888 0.34785184 0.47277224 0.50599927 0.55237556 0.46882316
00000000: c2fb a93e 5cae 1d3f f137 f43e 4796 fd3e
00000010: 1cb2 b93e 6f1d e63e c5af fe3e 83b2 c03e
00000020: 79ab e83e 5720 f73e 8b88 e43e f4d1 143f
00000030: 6823 cf3e 6c09 933e f674 073f d283 c63e
00000040: 7033 bf3e 978a ce3e 8685 303f 150f c23e
00000050: abf7 303f 86dd 0b3f 4db6 d83e 3445 cb3e
00000060: ea81 e23e f1c9 cb3e ab06 c03e 20d3 883e
00000070: 6e71 033f 093a c33e 8c9c f63e 3e28 c43e
00000080: cc94 bb3e 8cc7 f53e b56b 073f f460 173f
00000090: eaf4 be3e 1429 133f 54d2 e13e 9b25 d83e
000000a0: dcaa 3f3f 3f86 dc3e 5acd d73e 824e 033f
000000b0: bac6 f43e 6ffb fa3e 30f8 f43e 020b 073f
000000c0: 0420 f63e 585f bc3e 9934 bf3e 5bbd ff3e
000000d0: d32d 083f 2bc7 ee3e 2f4b fb3e 2542 e03e
000000e0: b26f d13e 98df cb3e 9e5f a33e a319 b23e
000000f0: 340f f23e 2b89 013f 7c68 0d3f 9709 f03e

bn6/beta f4 [32]
0.10234907 0.12866864 0.009075489 0.116544046 0.050914377 0.0462057 0.12088021 0.036535524
0.10842262 0.091614105 0.15863714 0.14659208 0.060040575 0.08377552 0.045375343 0.0440245
0.016934317 0.09780101 0.088806495 0.009155925 0.10098601 0.018148212 0.10786097 0.034522064
0.28953126 0.058174632 0.06800105 0.117451854 0.116678365 0.1047649 0.118460715 0.08295462
00000000: 649c d13d b6c1 033e 5cb1 143c a5ae ee3d
00000010: 988b 503d 3042 3d3d 0b90 f73d 46a6 153d
00000020: ae0c de3d 2da0 bb3d c671 223e 3c1c 163e
00000030: 1bed 753d 8092 ab3d 7fdb 393d 0953 343d
00000040: d6b9 8a3c e54b c83d 2ee0 b53d bc02 163c
00000050: c1d1 ce3d 8fab 943c 36e6 dc3d 0267 0d3d
00000060: 713d 943e 8648 6e3d 2244 8b3d 998a f03d
00000070: 11f5 ee3d fb8e d63d 889b f23d 1de4 a93d

conv1_7/W f4 [3, 32, 3, 3]
0.026240155 0.045401257 0.080253914 0.026530497 0.028590284 -0.03471682 0.043510657 0.074059255
0.040967163 -0.003120563 0.039673455 0.11483593 0.052730687 0.016207762 0.10234823 0.06523297
-0.07608146 0.014391529 0.14681554 -0.014440651 0.025197785 0.034786418 0.013134939 0.06052508
-0.060036458 -0.056410726 -0.06884447 -0.023361197 0.05689695 0.089944385 0.02177426 -0.01160457
-0.014085783 -0.016114438 0.18839483 -0.017651213 0.11959993 0.07764169 0.08596334 0.062281374
0.14876015 0.17571977 0.06624676 -0.027071593 0.023840971 -0.025126291 -0.09029983 0.13635899
0.095611036 -0.09590514 0.06276094 0.01773819 0.0027533171 -0.035420045 0.09059317 -0.036323212
0.017089091 -0.01216078 0.17122836 -0.064033456 0.012992903 0.17141363 -0.04527099 -0.018132841
0.08659493 -0.028811913 -0.036417592 -0.12174202 0.09401538 -0.05624303 0.10452328 0.08064126
0.0210392 0.11010687 0.12427552 0.04830794 0.058809824 -0.07094241 -0.10864254 0.2113197
0.03246466 0.11976612 0.094235346 -0.005898029 0.10843177 0.16222864 -0.020519271 0.08261485
0.026058478 -0.015285922 -0.056912128 0.082140364 0.060970154 0.06490751 0.11932833 -0.07447976
0.18735363 0.05512017 -0.03704152 -0.025543131 -0.04311641 -0.026207028 0.035924453 0.15249464
0.046193577 0.026631296 0.05587739 0.049113717 -0.09962464 0.021658551 0.19688313 0.08296449
0.16751349 0.11102338 0.10771228 0.1070981 -0.010742691 0.034730997 0.13894542 0.13277034
0.02427635 0.08718415 0.08106657 0.17444608 -0.09373313 -0.07282567 0.04105239 0.013607529
0.023565447 -0.049679805 0.008484759 -0.06827366 -0.025625316 0.093891665 0.0072093355 0.098480135
0.027248608 0.04822349 -0.02524911 -0.06293561 -0.0307581 0.08551788 0.02060077 0.017743316
-0.028795289 -0.08210266 -0.13432705 -0.07771708 0.032279093 -0.030327749 0.038863737 0.20580426
0.005192015 0.12158495 0.101500444 0.013754382 0.24105158 0.037280995 0.07879304 0.015218302
-0.16875522 0.037041742 0.088673614 0.07962437 0.02267513 0.07876994 -0.07444735 -0.022932522
-0.017397586 0.048666246 0.036195975 0.044494644 -0.00011078231 0.19690812 -0.09041723 -0.09974314
-0.037503306 -0.055064496 0.018713638 0.012551388 0.10359256 -0.0288166 0.027404694 -0.08460352
0.07161003 -0.06606737 0.00047709254 0.034777127 0.17274281 0.0057509486 -0.008699508 0.041441157
0.013457653 0.09055718 -0.101189904 -0.0037531843 -0.13099611 0.08712369 0.115464844 0.015174895
-0.04250536 0.101191245 -0.08185583 -0.071449794 0.060729872 0.008413702 0.047490854 -0.0965154
0.050085753 -0.017764023 -0.0018220682 0.07084102 -0.04201112 0.01304343 -0.031817965 0.1100821
-0.049777277 0.044284746 -0.0791618 -0.033951323 0.05824228 0.16629955 0.054328803 -0.011191802
0.06290473 -0.043079052 -0.022007473 0.14460671 0.04234068 0.08117747 0.12479665 0.09623926
0.11326553 0.12228263 -0.06622726 -0.017376952 -0.027781723 0.12178949 0.13000976 -0.0056167897
-0.0206673 0.09439949 0.04145027 -0.050835367 0.0059505105 0.08407098 -0.07136194 -0.04503319
0.23407285 -0.03883482 -0.06566022 0.0049877632 0.034834906 -0.01502635 -0.021099938 0.07012743
00000000: 98f5 d63c abf6 393d 2a5c a43d 7c56 d93c
00000010: 2c36 ea3c 3933 0ebd 3b38 323d 61ac 973d
00000020: 2fcd 273d 5c82 4cbb a280 223d 1a2f eb3d
00000030: 22fc 573d 24c6 843c f39b d13d dd98 853d
00000040: 99d0 9bbd 73ca 6b3c d056 163e 7b98 6cbc
00000050: 966b ce3c 347c 0e3d ed33 573c 25e9 773d
00000060: cae8 75bd ef0e 67bd 54fe 8cbd fb5f bfbc
00000070: c70c 693d c334 b83d ef5f b23c 1821 3ebc
00000080: 0ec8 66bc 6d02 84bc 93ea 403e 4799 90bc
00000090: cff0 f43d 9b02 9f3d 8c0d b03d c11a 7f3d
000000a0: 9554 183e e2ef 333e 62ac 873d 3fc5 ddbc
000000b0: 244e c33c a7d5 cdbc 1eef b8bd b1a1 0b3e
000000c0: b8cf c33d ea69 c4bd cf88 803d ae4f 913c
000000d0: ff70 343b 9c14 11bd e988 b93d a6c7 14bd
000000e0: 6cfe 8b3c 023e 47bc 7d56 2f3e f923 83bd
000000f0: 2fe0 543c 0e87 2f3e 136e 39bd 538b 94bc
00000100: af58 b13d f606 ecbc 9d2a 15bd e153 f9bd
00000110: 238b c03d 175f 66bd 4d10 d63d 3f27 a53d
00000120: 665a ac3c b67f e13d 2a84 fe3d 8cde 453d
00000130: 92e2 703d 414a 91bd fb7f debd 3164 583e
00000140: aaf9 043d f147 f53d 76fe c03d 4144 c1bb
00000150: 7a11 de3d 441f 263e 0818 a8bc f931 a93d
00000160: 9778 d53c ce71 7abc b11c 69bd 3539 a83d
00000170: d7bb 793d 3bee 843d 6962 f43d d888 98bd
00000180: a1d9 3f3e b0c5 613d d9b8 17bd d43f d1bc
00000190: d59a 30bd 1fb0 d6bc 8525 133d 8e27 1c3e
000001a0: 7a35 3d3d e029 da3c b1df 643d 772b 493d
000001b0: 0108 ccbd 466d b13c bb9b 493e 49e9 a93d
000001c0: a888 2b3e 3a60 e33d 4198 dc3d 4056 db3d
000001d0: 1d02 30bc 1742 0e3d b547 0e3e f3f4 073e
000001e0: 32df c63c 9b8d b23d 3b06 a63d fea1 323e
000001f0: 28f7 bfbd a025 95bd 8d26 283d 1df2 5e3c
00000200: 530c c13c 0d7d 4bbd a903 0b3c 10d3 8bbd
00000210: 2fec d1bc 464a c03d 4a3c ec3b f4af c93d
00000220: 7938 df3c ff85 453d 39d7 cebc 63e4 80bd
00000230: 69f8 fbbc 0024 af3d f2c2 a83c 6e5a 913c
00000240: 19e4 ebbc 7025 a8bd 088d 09be 222a 9fbd
00000250: 1537 043d e671 f8bc 952f 1f3d 5abe 523e
00000260: c721 aa3b 8801 f93d 77df cf3d 0f5a 613c
00000270: 3ad6 763e f5b3 183d 3f5e a13d 2f56 793c
00000280: 2bce 2cbe 15b9 173d 839a b53d 1a12 a33d
00000290: 32c1 b93c 2252 a13d da77 98bd fcdc bbbc
000002a0: 6285 8ebc 4256 473d 3b42 143d 0440 363d
000002b0: cd53 e8b8 48a2 493e ab2c b9bd 2246 ccbd
000002c0: 119d 19bd 4f8b 61bd 584d 993c 56a4 4d3c
000002d0: 5628 d43d ca10 ecbc cf7f e03c 9c44 adbd
000002e0: 48a8 923d 544e 87bd 4722 fa39 7672 0e3d
000002f0: 7ee3 303e 7472 bc3b 6288 0ebc 34be 293d
00000300: 7d7d 5c3c 0b76 b93d a73c cfbd fcf7 75bb
00000310: d823 06be e86d b23d d578 ec3d 1fa0 783c
00000320: 1a1a 2ebd 5b3d cf3d 08a4 a7bd 4554 92bd
00000330: e3bf 783d a0d9 093c c585 423d dea9 c5bd
00000340: b826 4d3d db85 91bc 77d2 eeba 1915 913d
00000350: da13 2cbd 1cb4 553c 8e53 02bd b972 e13d
00000360: 42e3 4bbd ec63 353d 951f a2bd 8b10 0bbd
00000370: 758f 6e3d 6e4a 2a3e e187 5e3d d25d 37bc
00000380: 32d4 803d a973 30bd 0449 b4bc c813 143e
00000390: 6c6d 2d3d 6040 a63d 6395 ff3d 1719 c53d
000003a0: c2f7 e73d 516f fa3d 28a2 87bd 1c5a 8ebc
000003b0: 7f96 e3bc c56c f93d 4721 053e 0c0d b8bb
000003c0: 784e a9bc 8554 c13d c2c7 293d bf38 50bd
000003d0: 80fc c23b 682d ac3d 3526 92bd b974 38bd
000003e0: cbb0 6f3e 4311 1fbd de78 86bd 6470 a33b
000003f0: 0caf 0e3d 1431 76bc c7d9 acbc f89e 8f3d
