loto6_cnn/loto6_30_680.model (npz, 491143 bytes, 38 tensors)

bn1/beta f4 [64]
00000000: da4a 563d e728 523c ae84 d13c cdf7 973d
00000010: 6e72 58bc 6fe4 453d 67a0 eb3d 3ed1 a33c
00000020: 3591 4e3c d8c3 8a3d eab1 b13d 6739 a93d
00000030: 01dc 383d 72ac 863d 51c9 bd3d 0f5f 5b3d
00000040: 735e c93d 36d7 173d 55f9 993c 795e 3e3d
00000050: f416 873d c328 533d 3e26 6b3d 234c eb3b
00000060: bc07 ab3d 30a2 2f3d 21bb 0fbc 7149 163d
00000070: 0a6f 9f3d eb2a 0c3c b48f 613d a9f8 213c
00000080: a0f5 6f3c c77a bc3c fc39 a23d 552f 203d
00000090: 0927 dd3b 9899 f63c da92 ce3d 022e c83d
000000a0: d201 b23c f019 7b3d e036 e53c 1827 f93c
000000b0: c527 453d 7b3c a1bb 41b5 a8bb 1208 ba3d
000000c0: 5d59 9a3c 15b5 a93d 3ee7 82bc e130 7b3c
000000d0: 69be 8c3d c51f 223d d1a2 8f3d 3686 143d
000000e0: b152 b83d 487a 393d 98af 8dbc 960b ee3d
000000f0: 940b 5b3d 9208 b63c 26e5 7b3d fbae ef3c
0.052317478 0.012827135 0.025575962 0.07420311 -0.013210876 0.048313554 0.11505204 0.019997235
0.012607862 0.067756355 0.086765125 0.08262902 0.045131687 0.0657586 0.09266914 0.05355745
0.09832468 0.037070476 0.018795649 0.046476815 0.06596175 0.051552545 0.057409517 0.007180707
0.083510846 0.042879283 -0.008772642 0.036691133 0.07784851 0.008555154 0.055068687 0.009885945
0.014645964 0.023007764 0.07921216 0.03910764 0.006749038 0.030102536 0.100866035 0.097744
0.021729384 0.061304033 0.027980268 0.03041415 0.04813363 -0.00492054 -0.0051485603 0.090835705
0.01884144 0.08286492 -0.015979405 0.015331478 0.06872255 0.03958108 0.07013477 0.036260806
0.09000147 0.045282632 -0.017295644 0.116233036 0.05347784 0.022220884 0.06149783 0.029258242

bn3/gamma f4 [64]
00000000: 758c 8a3f f285 8c3f 6412 8b3f 9252 893f
00000010: 4024 823f 9660 863f 5178 863f 2793 823f
00000020: 1a4e 863f f17b 823f 4b62 7e3f fadf 823f
00000030: cbd4 813f 7932 873f 17d5 833f c4e0 7e3f
00000040: be27 7f3f de8f 803f 1f03 873f 7789 7d3f
00000050: 859f 833f 7cd8 843f d6c1 803f 82f4 813f
00000060: af02 823f 5866 813f da9f 813f 2f65 813f
00000070: 2be6 823f 7f66 823f 8cff 7f3f e660 863f
00000080: 76f5 813f 55fb 813f 8326 843f f494 833f
00000090: 4c81 813f 50af 8a3f 95eb 8c3f 22d7 843f
000000a0: 92ae 823f 06e2 823f 9354 823f 04b4 843f
000000b0: 772a 863f 85be 843f cf8f 813f bf94 873f
000000c0: 362e 823f 878f 843f 5814 813f 961d 803f
000000d0: fa5d 823f ff86 7d3f 1dc0 873f b6ac 8d3f
000000e0: 7434 843f 931a 823f b217 803f 2a0e 833f
000000f0: 2bbf 813f 52bd 823f e6c1 8d3f 0ddd 813f
1.0824114 1.0978377 1.0864987 1.0728323 1.0167313 1.0498226 1.0505468 1.0201157
1.0492585 1.0194074 0.99368733 1.0224602 1.0143064 1.0562278 1.0299405 0.99561715
0.99670017 1.0043905 1.0547827 0.9903788 1.0283056 1.0378566 1.0059154 1.0152743
1.0157069 1.0109358 1.0126908 1.0109004 1.0226492 1.0187529 0.9999931 1.0498321
1.0153034 1.0154825 1.0324253 1.0279832 1.0117583 1.0834751 1.1009394 1.0378153
1.0209525 1.0225227 1.018206 1.0367436 1.0481709 1.0370642 1.0122012 1.0592269
1.0170352 1.0356301 1.0084333 1.0009029 1.0184929 0.9903411 1.0605503 1.1068332
1.0328507 1.016436 1.0007231 1.0238698 1.0136465 1.0214026 1.1074798 1.0145584

bn4/beta f4 [32]
00000000: 93c7 153d e028 903d cdba a23c 53bf ab3d
00000010: 8e99 733d bd1f 753d 018e 0d3e 4ec9 173d
00000020: 639b fa3d dce9 1d3e b34f bc3d eeaa ab3d
00000030: ef94 8a3d 7b79 c33d 244b a13b 81bc b13c
00000040: 958e 943c 4061 a23d 685e 543d 23d3 7d3c
00000050: 2964 993d e0f8 aebb bc0b f33a 4c0c 723d
00000060: a6e9 ae3d 72e9 813d e53d c33d 7873 a93b
00000070: 8dc3 8f3d a798 0c3e cff5 bb3d 5823 b73d
0.036567282 0.07039046 0.019864464 0.083861016 0.059472613 0.05984472 0.13823701 0.037057213
0.12236669 0.15421242 0.09194889 0.083822116 0.06766688 0.09544655 0.0049222875 0.021696331
0.018134395 0.07928705 0.051847845 0.015492233 0.07489807 -0.005339727 0.0018542926 0.05909376
0.08540659 0.06343354 0.0953329 0.0051712357 0.0701972 0.13730107 0.09177744 0.08942288

bn2/avg_mean f4 [64]
00000000: 7e77 94be a613 35bf 3b5d 6abf ff87 9ebf
00000010: 4d06 9a3d 5b25 ebbe 56bd a3bf 59c4 b5bf
00000020: ffe6 f4be 5f19 c1bf 8a2d c7be c1cb cdbe
00000030: 195e 53bf 7ae0 4bbf d22e 583f fc33 82bf
00000040: defb 1ebf 25db 61bf cd9a 6fbf e21b 8abf
00000050: 5954 56bf d4cf bbbf 45c3 c4be 697e 3c3d
00000060: 411b 77bf 2596 61bf b2e5 45bf f3c8 22bf
00000070: 5889 aa3e dcd2 c7be a417 1abd 4789 6ebf
00000080: 0783 213d 6296 7f3e 72bf 923d 1ab5 c0bf
00000090: 1e63 c5be d72c d03d feea 29be de55 84be
000000a0: 26f0 7cbf fb4c 12be cc3a 67bf 9bd3 e83e
000000b0: 517b 61bf cb6d 78bf f07a f9be b6dc a8bf
000000c0: 99db 61bf 84ec 53bf a89c 5ebf e59a 34bc
000000d0: d5e1 a9bf 7e15 70bf f275 5fbf c995 9fbd
000000e0: 26e5 9dbf f9fd 8bbf 0f1d 0abf c581 953e
000000f0: be15 06be 1399 adbf f4cd 90bf 83f4 91bf
-0.28997415 -0.70733106 -0.9154851 -1.2385253 0.07520733 -0.45926937 -1.2792156 -1.4200546
-0.47832486 -1.5085868 -0.3890193 -0.40194514 -0.82565457 -0.796394 0.8444644 -1.0172114
-0.6210307 -0.88225013 -0.9359558 -1.0789759 -0.83722454 -1.4672799 -0.3843023 0.04601899
-0.9652596 -0.8811973 -0.7730361 -0.63587874 0.3330791 -0.3902806 -0.0376202 -0.9317822
0.039431598 0.2495971 0.071654215 -1.5055268 -0.38552183 0.101648025 -0.16593549 -0.2584676
-0.9880394 -0.14287178 -0.9032409 0.45473942 -0.8807879 -0.9704253 -0.48726606 -1.3192356
-0.88225704 -0.8278277 -0.8695779 -0.011023258 -1.3272043 -0.93782794 -0.87289345 -0.07792241
-1.2335556 -1.0936881 -0.5395059 0.2920057 -0.13094231 -1.356234 -1.1312852 -1.1402744

conv1_6/b f4 [32]
00000000: f7ad 32b9 7cd3 4e39 b415 43ba 23d5 0dba
00000010: 40f8 6bba cf59 2db8 bb59 3837 e094 373a
00000020: e713 dfb9 94e7 46b9 2538 a238 0e95 143a
00000030: 5e01 9bb9 cfa3 20ba aa91 7b39 0f22 5e39
00000040: b362 1d3a d502 39b9 456c 4bba 7a16 f6b9
00000050: 8c5d 423a f667 4fb9 e3e1 c639 211e be38
00000060: bc0b 25b9 ecd0 923a 3a5b 4838 9f50 fcb8
00000070: e1d2 84b9 5897 3939 058f a539 46a5 8739
-0.0001704021 0.00019724475 -0.00074418937 -0.0005410483 -0.00090015307 -4.1330055e-05 1.0988147e-05 0.000700308
-0.00042548703 -0.00018969021 7.73522e-05 0.0005667963 -0.00029564922 -0.0006127925 0.0002399149 0.00021184258
0.0006003782 -0.0001764403 -0.0007759969 -0.00046937523 0.0007414452 -0.00019779787 0.00037933802 9.065518e-05
-0.00015739998 0.001120118 4.7768677e-05 -0.00012031313 -0.0002533412 0.00017699355 0.0003157781 0.00025872345

conv1_5/b f4 [32]
00000000: 8aee c6b9 2841 cb38 5840 203a 0397 1639
00000010: 1afc 96b9 2a89 8d39 9893 2839 eb85 1db9
00000020: 9e72 1739 85ac 34b9 a896 c0b9 6736 8b39
00000030: 1c37 edb9 601f b639 f8f1 1238 d491 253a
00000040: cc1a 0b38 d5fc ed39 ff68 6539 ae8a c2b9
00000050: 32df e138 e29f d639 2cb9 e0ba 6faf 23b9
00000060: 81b6 ccb7 3c1a 003a a4bd 1939 bb1f c339
00000070: 51b7 7f39 febf e7b9 ed78 0138 30f9 0339
-0.00037943228 9.6919306e-05 0.00061131036 0.00014361371 -0.0002879806 0.0002699581 0.00016076711 -0.00015022575
0.0001444318 -0.00017230406 -0.0003673334 0.0002655268 -0.00045245222 0.0003473712 3.5034464e-05 0.00063159806
3.316514e-05 0.00045392537 0.00021878256 -0.00037105888 0.000107704094 0.00040936383 -0.0017145029 -0.00015610245
-2.440368e-05 0.0004886722 0.00014661864 0.0003721694 0.00024386986 -0.000442028 3.0868618e-05 0.00012585963

bn3/avg_var f4 [64]
00000000: 2b28 963e 3d3f 303f fb0b 023f 81bb 0f3f
00000010: 2d7f d63e b069 963e ff28 4c3f 5873 a33e
00000020: aabc ca3e c9ee b23e 3ade ac3e d459 ab3e
00000030: 535e ee3e 7a2a 863e d41d 1f3f 4c73 b43e
00000040: e375 903e 6eed b63e a651 be3e 851e 113f
00000050: c2aa ad3e d79a b73e 8608 ac3e 2f3e ed3e
00000060: 16e5 b33e d292 d13e b4fe 8f3e 269b 0b3f
00000070: 0019 a73e ad5a 8c3e 062c d33e 8acf e23e
00000080: 7752 b33e 2858 c83e d4eb b03e 8583 bc3e
00000090: a714 d23e 0f52 023f 285d 3f3f 26b1 a63e
000000a0: 5cb0 aa3e 10e0 803e fea8 9f3e 836f 8c3e
000000b0: d8ec ba3e 5422 9a3e 9e96 673e 1de6 123f
000000c0: cd81 ab3e 280c b63e 0e43 d33e 1951 ac3e
000000d0: c832 1c3f f0db 9e3e 65e0 a83e 5386 3a3f
000000e0: 690b d83e ba19 603e ff8d ac3e 3be7 ac3e
000000f0: 3806 0a3f 90d0 8a3e a695 1f3f 3138 fb3e
0.2932752 0.68846494 0.5079953 0.56145483 0.41893902 0.29377508 0.79750055 0.31923938
0.39597064 0.34947804 0.33763295 0.3346697 0.4655634 0.26204282 0.6215489 0.35244215
0.2821494 0.3572802 0.37171668 0.56687194 0.3391934 0.3586032 0.33600253 0.46336505
0.35135716 0.40932328 0.2812401 0.5453361 0.3263626 0.2741293 0.41244525 0.44298965
0.35023853 0.39129758 0.34554923 0.3681909 0.4103138 0.5090646 0.7475152 0.3255703
0.33337677 0.25170946 0.31183618 0.27428827 0.36508822 0.30104315 0.2261605 0.57382375
0.33497468 0.3555615 0.41262096 0.33655623 0.61014986 0.31027174 0.329837 0.7286121
0.42196205 0.21884814 0.33702084 0.33770165 0.5391574 0.27112246 0.6233772 0.49066308

conv1_3/W f4 [64, 64, 3, 3]
00000000: c4dd 7cbc 4d95 b2bd 328d d3bb c867 b33d
00000010: e655 2ebd ffd7 213d 93ed b03c 0c40 d63c
00000020: 6fff 613c e911 2ebc 16a7 9f3c 34b6 bebd
00000030: dc23 fabc aaaa 313d fc11 aebb 7de4 323b
00000040: b8ca 60bd d029 d03c 906a 7cbd 984e 7abd
00000050: b50a 473c 97e6 e3bb 2978 a03c 4c94 ef3c
00000060: 728f a1bc e094 6bbd e3cb 8ebd b603 ba3b
00000070: 92c3 493d 69b9 05bd 4313 0ebc 0a3e d93d
00000080: 1ec6 e2bc 32ec 3f3d 2b9b 08bd 3776 513c
00000090: 3347 80bb eef3 74bd cb14 283d c1b0 993d
000000a0: 50b9 203c cbfd 283b 0e85 d03b 4459 4dbd
000000b0: ee2a 0c3d 855e 9abc 9044 26bd a982 67bd
000000c0: bc62 6b3c 2cc8 0ebd 071a 5e3c 96f2 753d
000000d0: a526 a4ba 6623 d4bb 1300 e53c 58f8 a23c
000000e0: 2347 d7bc 5516 1abd 64ff a5bd c629 543c
000000f0: 742e d9b9 1aa0 4abc 5069 e9bc 739c ad3b
00000100: 0dbb 2fbd 7a47 e6bc 8924 363c c6bd c3bc
00000110: 92a5 26bc 9c3f ab3c 7697 8e3b aac2 9f3c
00000120: 2d75 6bbc 8c4b 4ebc 7d26 773d f21d 743d
00000130: 5ed6 b53c 120c d7bb 98d3 783c 29c7 aa3a
00000140: 58f5 80bc 9050 e0bc eea1 6a3d 4c93 f2bc
00000150: 99fc 04bd 206c aebd 4251 b43c 2860 74bd
00000160: 574f 6dbd 548d 0d3d 8a5f 00bc b718 813c
00000170: 1f3f f63c 3200 c83b 7b19 87bd 814b 8dbc
00000180: 4d85 313d dc20 a3bd f928 50bc 1a92 28bd
00000190: d9b2 4fbc ed1b d2bb 31bb a7bc b9d9 67bd
000001a0: d149 acbd 4f52 73bb 7336 b9ba be44 bbbc
000001b0: 67d0 41bd 6d95 2839 67da 2cbd 6118 88bd
000001c0: ab15 e73c 7603 bfbb 2647 f1bc 9cd0 383c
000001d0: 7567 3abd f419 7ebc 17e4 a43b 6e55 2a3d
000001e0: e84b 66bd 9533 bdbc cf0a 87bd c1b9 53bd
000001f0: bd1b 88bd 3692 af3c e6a1 183c 7a9f 7f3c
00000200: b57a 04bd af72 dcbc c3a4 bf3b cf2d b03d
00000210: 31d2 213c 4762 21bc 663f c1bd df2e 143c
00000220: 60fd b8bc 7b9a 5e3d 24f9 ca3b 836f 3a3d
00000230: 5d3f 0abd 9418 08bd f5ed 4abc fe9c 4f3c
00000240: e30d 5bbd 0a3a 33bc 3290 a7bb 03dd 393d
00000250: e09c a7bc e439 383d 15e0 2f3c 9e75 ecbc
00000260: 458a 7c3b 8c83 67bd 00f3 b7bc 4418 833d
00000270: fcaa 9abd d0b0 403c 288a 30bc ede0 a2bd
00000280: 08b4 d03c a3a2 c23c 6c80 2f3c b6a5 7bbd
00000290: 46d8 a4bc acde 8b3b 7156 f2bc 1e1a 4fbd
000002a0: 41f4 bc3c 6228 0e3d b06f 92bc 40b6 6cbc
000002b0: 0504 98bd d560 1c3d 935e 5ebd 8fe3 53bd
000002c0: 9f5d d93d a0aa b1bb b0f3 d13c 1618 073d
000002d0: fbe1 973c d8ff 95bd c3b0 a0bc ccc5 653c
000002e0: ac85 8b3c 0811 1a3a 6e34 72bd 327a a33c
000002f0: 6d1e b8bb 1ef0 96bc 5fcf 98b9 23dd 1d3d
00000300: 0348 b6bc 9258 77bc 8b73 08bd e5ea 723d
00000310: ca8d 283c 5e3e f13b 0be1 3ebd 31ce 4c3d
00000320: 3498 40bd 6ff2 15bc bb7b c13c 5290 343d
00000330: 10d7 44bc 760b a4bc 40a6 62bd 3406 e0bc
00000340: 035f ffb9 cc5a 4fbb 62ba e03c 2962 103d
00000350: 7d4a 18bd 0df5 d3bd 64f6 923b b095 2cbd
00000360: f7c4 bdbd 5529 883d 4305 bbbd a2eb 77bc
00000370: 45d3 9e3b f7e8 1d3c b064 963b 52c5 55bd
00000380: c08d 9c3d bf71 2b3c d81b d53b b31c b4bd
00000390: b2cd 3b3d 26cc a43d c060 2cbd 7006 9a3b
000003a0: e40a c23a 69e0 ddbc 1ccd 84bc 2fd8 28bc
000003b0: f47d c8bc d8d5 73bd 0a95 75bd d784 bd3c
000003c0: 7b44 523d 7aeb 0d3d eb63 ea3c e9c9 7abd
000003d0: 2976 0c3d 374f fb3c f59c 38bd c866 d5bc
000003e0: 34d0 f0bc 88cc 553c 9d40 073c 99c4 a4bc
000003f0: c076 91bc 42b3 f83b 78c2 91bd dc2d 54bd
-0.015433732 -0.08719883 -0.006456041 0.08760029 -0.042562388 0.03951263 0.02159766 0.026153587
0.01379381 -0.010624387 0.019488852 -0.09312096 -0.030534677 0.04337565 -0.0053122025 0.0027296834
-0.054880828 0.025410563 -0.061625063 -0.06111011 0.012148549 -0.0069549787 0.019588547 0.029245518
-0.01972172 -0.057515025 -0.06972482 0.005676712 0.049258776 -0.032647524 -0.008671585 0.10607536
-0.02768236 0.046856113 -0.033351105 0.012784532 -0.0039147376 -0.059802942 0.041035455 0.07504416
0.009809807 0.0025786038 0.0063635176 -0.05013396 0.03422063 -0.018843899 -0.04059273 -0.05652109
0.014366802 -0.034858868 0.01355601 0.0600458 -0.0012523724 -0.0064739464 0.027954137 0.01989381
-0.026279038 -0.037618954 -0.081053525 0.012949413 -0.00041424076 -0.012367273 -0.0284926 0.005298191
-0.042902995 -0.028110255 0.011117109 -0.023894202 -0.010171311 0.020904355 0.0043515516 0.019502003
-0.014371199 -0.012591254 0.06033944 0.05959887 0.022196945 -0.006562718 0.015187167 0.0013029325
-0.015741989 -0.027382165 0.057283334 -0.029611252 -0.03246746 -0.08516717 0.022011403 -0.059662014
-0.057936992 0.03455861 -0.007835278 0.015758855 0.030059395 0.006103539 -0.06596657 -0.017247917
0.043340016 -0.07965252 -0.012705081 -0.04115496 -0.012676918 -0.0064120204 -0.020475002 -0.05660412
-0.08412517 -0.0037127917 -0.0014130607 -0.022859927 -0.04731789 0.00016077394 -0.042200472 -0.06645275
0.028208574 -0.00582927 -0.029452872 0.011280205 -0.04550882 -0.015509117 0.0050320732 0.04158538
-0.056224734 -0.023095885 -0.065938585 -0.05169082 -0.06645916 0.021432023 0.009315943 0.015601987
-0.032343585 -0.026910154 0.0058484985 0.08602487 0.009876774 -0.009850091 -0.094359204 0.009044378
-0.022581756 0.054346543 0.0061942507 0.045516502 -0.033751834 -0.033226565 -0.012385835 0.012671707
-0.05348004 -0.010939131 -0.005113625 0.04537679 -0.020460546 0.044977084 0.010734578 -0.028864678
0.0038534564 -0.056521937 -0.022454739 0.06401113 -0.07552144 0.011760905 -0.0107751265 -0.079530574
0.02547647 0.023759192 0.0107117705 -0.06143733 -0.020122658 0.004268488 -0.029582234 -0.050562017
0.023065688 0.03470648 -0.017875522 -0.014447749 -0.07422642 0.038178284 -0.05428941 -0.05173069
0.1061356 -0.0054219514 0.025628895 0.032981955 0.018540373 -0.07324189 -0.019615537 0.014024209
0.017031513 0.00058771716 -0.059132032 0.019955728 -0.0056188614 -0.018425044 -0.00029146203 0.03854097
-0.022251135 -0.0150968 -0.033313315 0.059306044 0.010287711 0.007362171 -0.046601336 0.050001327
-0.047020152 -0.009152039 0.02361857 0.044082947 -0.0120141655 -0.020024996 -0.05533433 -0.027346708
-0.0004870818 -0.0031639813 0.027432624 0.035249863 -0.037180413 -0.10349474 0.0044849385 -0.04213494
-0.09266084 0.066485085 -0.09131863 -0.015131863 0.0048469626 0.009638063 0.0045896396 -0.052190132
0.07644224 0.010464131 0.0065035634 -0.087945364 0.045850463 0.08046751 -0.042084455 0.0047004744
0.0014804271 -0.027084546 -0.016211085 -0.010305448 -0.024474122 -0.05953011 -0.059956588 0.023134632
0.05133484 0.034648396 0.028612098 -0.061227713 0.034292374 0.030677421 -0.04507156 -0.026049986
-0.029396154 0.013049252 0.008255151 -0.020113276 -0.01775682 0.0075897286 -0.0711717 -0.051801547

bn4/avg_mean f4 [32]
00000000: edc4 0f40 3371 aa3f 694c 34bf 9d99 60be
00000010: e866 5b3e 072d e7bf 700a 2ec0 aa8d 963e
00000020: b968 39be cbf1 d5be ff06 dfbf 59a3 2cc0
00000030: fcf6 0bc0 bffc d4bf 9a2f 563f 6ada 47bf
00000040: bd58 18bd e638 b0be 1f15 86bf 232e fbbf
00000050: 3e40 14c0 7d0e ad3f e123 1d40 a6df 1dc0
00000060: c24c 12c0 2186 7b3f 0cd4 3fc0 a308 8abf
00000070: 65bb b0bf 305c 43c0 222b 33c0 0244 b93d
2.2463944 1.3315796 -0.7042909 -0.21933599 0.21425974 -1.8060616 -2.719387 0.29404956
-0.18106355 -0.41786036 -1.742401 -2.69747 -2.1869497 -1.6639632 0.83666384 -0.7806765
-0.037194002 -0.3441841 -1.0475196 -1.9623455 -2.316421 1.3520046 2.4553149 -2.4667754
-2.285935 0.9825154 -2.9973173 -1.0783886 -1.3807188 -3.0525017 -2.7995076 0.090461746

bn3/beta f4 [64]
00000000: c473 3b3b 42d9 87bc 2c5c 05bb dcff a9bc
00000010: 3c02 18bc f8f1 e23a d682 843d 4410 a33c
00000020: 16f3 d13c 7726 2abb a5e2 c4bc 8ea1 e03c
00000030: fc20 233c 9f9d aa3c 4aba 8c3c b390 99bb
00000040: de96 4cbc ee26 09bd d055 b13c 8b4a ecbc
00000050: b776 743c bd5b 123d 7c3a 6bbc a48a 83bc
00000060: aeb8 21bd b5db fe3b 17c2 893c 8bbd 053a
00000070: 7349 013c f565 853b cebe 0fbd 0170 50bc
00000080: 7fea 42bb 013c 0dbb efe7 7c3c a324 ae3c
00000090: b59e 593c 6691 15ba 8cd3 49bd 0dd9 0f3d
000000a0: 3b6a 773c a84a a43c 2215 11bc 3dc7 763c
000000b0: ebfe 5f3c b6b3 b03c 5651 97ba b2c2 083d
000000c0: fe14 223b 136d a73c e3a2 8dba aaed 8fbc
000000d0: dc63 073d f262 d2bc 2045 293d 307f 263c
000000e0: 3846 403d 3dc8 f7bc bfe5 b83b 3a8d bebc
000000f0: be8b a1bb e2f2 1cbc 7a0d f4bc f452 9dbb
0.0028602937 -0.016583089 -0.0020349128 -0.020751886 -0.0092778765 0.0017314544 0.064702675 0.019905217
0.025628608 -0.0025962868 -0.024033854 0.027420785 0.009956595 0.020827113 0.017178673 -0.004686439
-0.012487141 -0.033484392 0.021647364 -0.028844139 0.014920882 0.03573202 -0.0143572055 -0.01605732
-0.039482765 0.007777656 0.016816182 0.00051017915 0.007891047 0.004070992 -0.035094075 -0.012722016
-0.0029741821 -0.0021550658 0.015436157 0.021257704 0.013282468 -0.0005705565 -0.049274012 0.035119105
0.015101011 0.02005513 -0.008855136 0.015062151 0.013671617 0.021570068 -0.0011544626 0.0333888
0.002473175 0.020437753 -0.001080599 -0.017569382 0.033054218 -0.025681946 0.04132569 0.01016216
0.046941966 -0.030246848 0.0056426222 -0.023260701 -0.0049299886 -0.009579392 -0.029791582 -0.0048011485

conv1_7/b f4 [3]
00000000: a129 ff3c 2d96 f73b 6a71 fbbb
0.03114778 0.007555744 -0.007673432

conv1_4/W f4 [32, 64, 3, 3]
00000000: a7f3 16bd feda 433d f4c1 033c 9b66 893d
00000010: 1c9a e33d 2515 e6bc d424 48bc 2d92 ad3a
00000020: 7612 573c ff57 4b3d 2970 65bd 2077 e5bc
00000030: 2483 1a3d 8155 663d d67e 5ebd 358e d6bd
00000040: 9468 d63c 2d67 1a3d e60f f83b 98f4 4abd
00000050: 6e44 35bd eb1d f93c b959 cabd 05bd bf3c
00000060: a459 62bc ac15 a33d 4ee8 b4bd 275d 053d
00000070: 38aa 85bc 2f52 32bc d6d1 5db8 8951 4e39
00000080: d3c3 8b3c cf64 b1bc e4f8 953c 5224 433b
00000090: c334 3bbd 03c6 8b3b dceb ddbb db2b 8bbc
000000a0: 93c1 e0bc caeb ac3c b787 943b 4a01 0e3c
000000b0: bfab 7c3d 212a bcbb 0eb6 f13c 0e93 753c
000000c0: 4a5b a33c dfe9 79bc b9dc a43c dbbf b6bb
000000d0: eea4 0f3d f59f 853c ba56 883d 4b69 a83d
000000e0: 8044 3dbb 93bc 56bd 220e 163d 746d 89bc
000000f0: f1d7 633b eada 903c 90da 9fbd 43a0 b2bc
00000100: 2437 ca3d ced4 d23c 5223 073c 232b ab3c
00000110: 9617 023c 845d 743c a036 a2bc 361b 6bbd
00000120: 4e3a a6bd b078 0e3c 7a67 05bd 04f8 543d
00000130: f8ea 37bd a4de 3d3d 9f3c 87ba 25b5 c63c
00000140: f014 5aba b062 dabc 893c 24bd 00d1 87bc
00000150: f1a6 c9bd 6c1d 683d 2dd5 803d 9b63 303d
00000160: 61a9 073d 7641 6abc f49c 053d 2acd 923c
00000170: eb1d f13c 3de7 e23b ea2d 673c f07d 13bc
00000180: 6337 8e3c 0aaf 1dbd 5d6d f33c f9d2 9bbb
00000190: 91b7 24bd caea 3a3d acfd a4bd 2b7b 353b
000001a0: 741a fb3c 4f6a 54bd c2e6 763d a662 01bc
000001b0: 05e8 8f3c 847a 713c 7c0b f8bd 37e6 ccbc
000001c0: 3d7b 20bd 9ad4 2abb f635 57bd d740 cbbc
000001d0: af19 f2bc c60e 543c 6c3e 26bd dba4 babc
000001e0: 0541 493b e3e3 6f3d 62a3 c6bc 213d 14bb
000001f0: a803 1b3d 0b58 023d abca 60bc 6e09 a6bd
00000200: 2c57 88bb a2e3 ab3c 5180 6e3d 558d 20bd
00000210: 7494 813d c0be af3d 2706 113d febb b93c
00000220: f70a 943c 7310 603d 3d36 debc bf7e cc3c
00000230: e2cb 993d 2f98 913c 4ab3 86bd 4e8a 96bc
00000240: 9075 58bd c6a4 413c de79 1fbd afda c63c
00000250: 7b8e 873d d45c 86bc a0ef 8bbd b43e 8cbc
00000260: f889 a53c 9f7a 94bd 342a c7bc fc67 f03c
00000270: 1985 efbb 4703 973d 50cd 513d 49c3 923d
00000280: d5b7 d43c 9253 a2bd d376 c4bc fe53 5b3c
00000290: 7f0c b9bc 359f 7c3c 2483 8dbc 6351 28bd
000002a0: 9a51 60bd 16b6 3bbc 4286 a5bc b326 383d
000002b0: 9f1e a63d 5ffa 513d be00 b1bc 2f8a 15bc
000002c0: b967 bc3c 907d 013c acf3 d13c 191f 823d
000002d0: 2bc5 5ebc 3788 d23b cdc3 683d 5771 5d3d
000002e0: dbc5 b0bc 0b79 db3c 4419 843d 4f1b ca3c
000002f0: f55c 8dbd 82b2 3dbd 9114 9c3d 923d 51bd
00000300: 2e55 cdbc 61ab c83c 028a 903c 3b24 4fbc
00000310: e82d 49bd cb8b 16bd 74ed abbb 556c 633d
00000320: f943 0f3a ad34 c2bc a177 fa3c b62b 0dbd
00000330: e3ff 003d bd6b 6e3d ab21 bf3c 9e3f f73c
00000340: 1fd9 a93d 6427 0b3d cd21 94bb 7945 ad3c
00000350: 998c 8b3c 6d00 f93b acf2 0f3d 8cff b03c
00000360: 7e98 923b 45da 143d 8fbd 58bc 6197 7d3c
00000370: f320 043d 0966 00bc a17b bb3c eb52 2d3d
00000380: 2f2d 83bd 0760 7dbb 1fd3 4ebd 5752 f4bc
00000390: cffa 6d3b 463d a43d f79f 083d 0fed 663c
000003a0: 8641 59bd 9a2c a23c cdf4 5d3c 8649 10bd
000003b0: f32b 313d 87ca d5bc 010b 9c3d 5656 013d
000003c0: 7a87 2abd 197d 0ebd cb64 18bd 82fb c13d
000003d0: f352 3abd b308 913d 2cd2 d53c fcad c73d
000003e0: 4864 bdbc 18ec 843c 3073 863d 3cc8 483b
000003f0: d0be 433d 3574 083d edae 7f3b 2f2b 16bc
-0.03685346 0.04781627 0.0080418475 0.067090236 0.111133784 -0.028086254 -0.012215812 0.0013242416
0.01312696 0.049644466 -0.056015167 -0.028010905 0.03772272 0.056233887 -0.05432018 -0.104763426
0.026172914 0.037696052 0.0075702546 -0.04954967 -0.044254713 0.030409774 -0.098803945 0.023405561
-0.013815317 0.07963118 -0.08833371 0.03255954 -0.016316518 -0.010883852 -5.288593e-05 0.00019676065
0.01706115 -0.021654515 0.018307157 0.0029776287 -0.045704614 0.004265548 -0.0067725014 -0.016988685
-0.027436053 0.021108527 0.00453278 0.0086672995 0.061687227 -0.005742327 0.029505756 0.014988674
0.019940991 -0.015253513 0.02012478 -0.00557707 0.0350694 0.016311625 0.06657167 0.08223208
-0.002887994 -0.052425932 0.03663457 -0.016775824 0.0034766162 0.017682511 -0.07805359 -0.021804934
0.098737985 0.025736239 0.008248167 0.020894593 0.007940194 0.014914874 -0.019801438 -0.057398997
-0.081165895 0.008695766 -0.032569386 0.05199434 -0.044901818 0.046354905 -0.0010317749 0.024256298
-0.000831916 -0.026658386 -0.040096793 -0.016579151 -0.09846295 0.056668684 0.0629066 0.04306374
0.033120517 -0.014297834 0.032620385 0.017920095 0.029433211 0.0069245384 0.014110068 -0.009002194
0.017360395 -0.03849701 0.029715234 -0.0047553745 -0.040214125 0.04563407 -0.080561966 0.0027691822
0.030652262 -0.051859196 0.06027866 -0.007897055 0.01756669 0.014738683 -0.121115655 -0.025012119
-0.03918003 -0.0026066662 -0.052541696 -0.024811191 -0.029553263 0.012942975 -0.040586874 -0.022783687
0.003070892 0.05856694 -0.024247829 -0.0022619443 0.037845284 0.031822246 -0.013720195 -0.08107267
-0.0041607823 0.020982567 0.05822784 -0.039197285 0.06327143 0.085813046 0.035406258 0.02267265
0.018071635 0.054703187 -0.027125472 0.024962781 0.07509591 0.017772762 -0.065771654 -0.018376496
-0.05284649 0.01181907 -0.03893458 0.024274198 0.06618973 -0.016401686 -0.06832814 -0.017119743
0.02020739 -0.072499506 -0.024312116 0.029346459 -0.0073095676 0.07373672 0.051221192 0.07166154
0.025966564 -0.07926096 -0.023982441 0.0133867245 -0.022588966 0.015418817 -0.017274447 -0.04109324
-0.05476532 -0.011456987 -0.02020562 0.04495878 0.08111309 0.051264163 -0.0216068 -0.009127184
0.022998678 0.007903472 0.025628887 0.06353588 -0.013596813 0.0064249295 0.056827355 0.054063167
-0.02157872 0.026791116 0.064501315 0.024671225 -0.06902496 -0.046312816 0.0762111 -0.05108411
-0.02506503 0.024495782 0.017643932 -0.012642915 -0.049116045 -0.03675441 -0.0052468125 0.055523235
0.0005465146 -0.023706758 0.030574622 -0.034465514 0.031494033 0.058208216 0.023331484 0.030181702
0.08293366 0.033973113 -0.004520631 0.021151291 0.017034816 0.0075989277 0.03514354 0.02160623
0.004473745 0.03634097 -0.013228788 0.015477986 0.032257985 -0.007836827 0.0228861 0.042315405
-0.064051025 -0.0038661973 -0.05049431 -0.029824419 0.0036312824 0.080194995 0.03335568 0.014094605
-0.053041004 0.019796658 0.013547135 -0.035226367 0.043254804 -0.02609755 0.07619286 0.031576477
-0.041633107 -0.03478727 -0.0372055 0.094717994 -0.045489263 0.07081737 0.026101194 0.09749982
-0.023119107 0.01622586 0.06564939 0.0030636927 0.047789395 0.03331395 0.0039014176 -0.009165569

bn1/gamma f4 [64]
00000000: 5164 793f dee5 763f ad94 773f 3703 793f
00000010: a4fb 793f 986b 7a3f 3021 803f 7774 7a3f
00000020: 3520 803f a96b 803f 55a0 7e3f 9503 853f
00000030: bfdb 7b3f 669f 783f 9c30 813f 4158 743f
00000040: 9713 803f 93d0 733f 3a6d 723f 4c29 7d3f
00000050: 0ade 803f 2466 813f a73a 7e3f bbdc 7c3f
00000060: ea45 843f bc88 6e3f 3ff9 7b3f fd9a 753f
00000070: e37a 7f3f 4c8e 793f 276d 743f 4ace 7c3f
00000080: 4de8 743f 9b1c 7c3f e750 853f 7bef 783f
00000090: 1f80 793f 2bcc 763f cacc 813f 9f82 803f
000000a0: 8f6e 753f 911a 813f 94e6 793f 2025 803f
000000b0: c489 7f3f 8186 773f fb49 7c3f b40b 763f
000000c0: fbe4 763f f701 813f b50c 703f 28a9 793f
000000d0: 5a35 773f 648f 743f e8bf 753f e1ba 7e3f
000000e0: d8a7 7a3f 56b0 803f e606 773f 7a07 813f
000000f0: 2c78 763f e392 7b3f c9ef 793f 62ee 783f
0.97418696 0.964445 0.96711236 0.9727053 0.976496 0.97820425 1.0010128 0.9783396
1.0009829 1.0032855 0.994634 1.0391718 0.9838218 0.9711822 1.009296 0.95447165
1.0005978 0.95240134 0.94697917 0.9889114 1.0067761 1.0109296 0.99308246 0.9877431
1.0333836 0.9317739 0.98427194 0.9593962 0.99796885 0.9748275 0.95479053 0.9875227
0.9566696 0.9848115 1.0415314 0.9724042 0.9746112 0.96405286 1.0140622 1.0039862
0.95871824 1.0086232 0.9761746 1.001133 0.9981959 0.9668961 0.98550385 0.9611161
0.96443146 1.0078725 0.9376939 0.97523737 0.96565783 0.95531297 0.9599595 0.99503905
0.9791236 1.0053813 0.964949 1.0080407 0.9627712 0.98271006 0.9763151 0.97238743

conv1_4/b f4 [32]
00000000: f88b bf39 6114 16b8 4c32 8a37 c219 f538
00000010: 3b49 a2b9 b8c2 55ba 12a5 1e3a 1b5d 7d37
00000020: a6cc 6ab8 fb00 eab8 1b8b 1b38 55ea f5b8
00000030: ec3a 13ba a02e 4bb9 4b84 c837 8827 7239
00000040: fdb6 daba f0f5 3a38 93ba 98b9 9b27 f9b8
00000050: 692e 1bb8 4999 b5b8 dd4f 84b9 3fe0 3839
00000060: 3062 0737 d931 8c3a 04a3 e439 c22e 6ab8
00000070: bf13 fe38 aa9e 4538 8b34 3d39 2a3b 95b9
0.00036534644 -3.5781766e-05 1.6474303e-05 0.00011687308 -0.0003095361 -0.00081543205 0.0006051819 1.5101653e-05
-5.598054e-05 -0.00011158172 3.7084432e-05 -0.00011726158 -0.0005616385 -0.00019376958 2.3903462e-05 0.00023093645
-0.0016686615 4.4574903e-05 -0.00029130708 -0.00011880622 -3.6998103e-05 -8.659304e-05 -0.00025236505 0.00017631146
8.069488e-06 0.0010696008 0.00043609005 -5.5833494e-05 0.00012115342 4.7116228e-05 0.00018044018 -0.00028463575

conv1_5/W f4 [32, 32, 3, 3]
00000000: 59c0 67bd fe2e 2fbd 46f3 793c 05ef 74bd
00000010: e6d8 8d3d 8bde 083b af89 e4bb d28d b73d
00000020: 5eb2 423d 9079 ae3c 5527 583d e71f babc
00000030: b3da 83bd 6af6 973c b19e cdbc b50b 09be
00000040: 9644 323d e7ed cd3c 4df3 9dbc 17d0 f93c
00000050: e62f c43c f112 b1bb f075 29be cf51 773d
00000060: d306 90bd b28d 38be c6fa 4b3d 901d 433d
00000070: af8d 043c 5023 703d f2fa 66bb 6633 8f3d
00000080: 48cf 75bd 4ce9 793d d3c0 073d fddc 803d
00000090: 9c53 743a a376 c1bc 86a1 4cbb 3a46 9fbc
000000a0: 4db3 42bd 7a09 123d dbb2 aebc 76e0 b8bc
000000b0: c1c5 433d 752d ce3c fc40 56bc 3e95 123d
000000c0: 0e3d 48bd 862d dbbc 82cc 0e3d 9b4f 97bc
000000d0: 043f c03d 6d03 333d a489 f63c 6471 d5bd
000000e0: 5999 2bbd 994c 5f3d 246b dabc 9d58 d43c
000000f0: d770 63bd 5a07 3e3d 2747 ad3d f654 78bc
00000100: 2f53 6d3d 4567 c13c 69a7 b5bd 0bf9 ebbc
00000110: db80 08bd 7e62 423d 11a6 d4bd 03dc 213d
00000120: 5a80 33bc b5ee 53bc c9b9 c5bc 65dc 5a3d
00000130: 7220 32bd 1210 54bb 1704 4b3d 308b b1bc
00000140: 8a90 733b 2d9b af3c 1149 91bd d2a8 b43c
00000150: e464 d2bb 2cea 383c 57c1 f03c a325 bcbd
00000160: 1a11 ae3d f66b ce3c 6c44 083d d009 983d
00000170: b223 383d 6960 cc3d e9e5 9ebc fc2b 80bc
00000180: 340a d7bc d672 47bd 392b 3c3d 41f2 373b
00000190: d86c 24bd 5481 9e3c 35ac 9e3d e1a9 733d
000001a0: 9d07 7b3c c861 96bd a82c 2f3b b02f 14bd
000001b0: ed3f d1bd 71c0 adbc 248c 493d 1f43 abbd
000001c0: 2c6c 8cbb ee2f b73d cfaa 973c 2b9b 04bd
000001d0: 7b61 13bd 211e 723d 3db1 be3c c615 8fbc
000001e0: 3eec d93d 2c39 773d 007c 14bd 06c9 e33c
000001f0: c837 dd3c c3bd a839 97cf c1bd dd33 d03d
00000200: f18a 843d 9d72 debc 1617 eb3d fbe8 93bd
00000210: 5bf1 d0bc ef90 d43c 87bb d93b 6208 70bd
00000220: 40d6 3b3d 1a5a 4dbd f8af 49bd 0802 63bd
00000230: 9f3e cb3c bb9c 0e3c 9730 f73b ee37 c2bc
00000240: 5209 993c 14c0 393b 084f abbd 3d70 72bd
00000250: 10cd c93c d871 5b3c a8ee 2b3d 0314 9d3b
00000260: 844f 0fbd 9546 81bc d1d0 9abd d5f4 043c
00000270: 5423 a93c d32d 9cbd 0037 04be 6b28 913b
00000280: 53a4 8c3d c04c 1bbd a2b9 bfbd fed1 12bd
00000290: b293 96bd ea9d 0b3e c8dd 163e fbbc 99bc
000002a0: 59b8 203d 69a4 773d 0337 f93d 25b4 0b3c
000002b0: dad6 0e3d 62f0 7a3b 5c19 5b3c 4b80 89bd
000002c0: 3cc8 2dbd c273 32bd 03c1 5cbd 4232 8c3c
000002d0: 8aac d73b 9b31 4d3d 5976 79bd f274 c23c
000002e0: 0844 503c 7d29 98bc 90e6 a63d 4e51 223d
000002f0: c24d 3bbd c113 163d 5eb7 20be 131e 1d3b
00000300: c8b9 42bd 5212 0e3c 1dd3 153d fe92 763d
00000310: bb91 1abc ef10 d13c 5c6b 423d 42a7 38bd
00000320: a72d c2bd c91e 1c3d 7c9e 983d 7c8e b83d
00000330: de0c b4bc 0f36 173b b008 49bc 40c7 db3c
00000340: 2c0a a73c 6cc9 71bd a422 91bc c3ac 3a3c
00000350: 8326 653d 4b99 3f3d 2cf2 0fbd b43c b53d
00000360: 76bd 34bc e7eb ca3c 007c c7bd a5a0 a9bd
00000370: 803a 1bbd 9c82 8d3d 4bdc 25bc b354 f1bc
00000380: e7f1 97ba 6258 92bc 0c17 62bd be2d fbbc
00000390: f460 d93c 2c8b 89bc aa47 493d eeef 78bd
000003a0: 7657 5fbd 37a7 323d c0f8 6f3d 8bd4 2a3e
000003b0: 0a05 203c c260 803c 1ce6 1dbd cee0 07bd
000003c0: 15ef 493d 665a 2d3d 2c08 f43c c2d8 48bd
000003d0: 7660 a03d 2625 bbbb 3f62 dd3b dc29 363a
000003e0: b5f5 c3bd d4cb abbd 543b 093c 2eda c63d
000003f0: 6a2e 33bc 83ef 9c3c 3f5b b43c 44e5 21bd
-0.05657992 -0.042769425 0.015255755 -0.05979826 0.06926136 0.00208846 -0.006974421 0.08962597
0.047533385 0.0212982 0.052771885 -0.02272029 -0.06438198 0.018550117 -0.025100084 -0.13383372
0.04352244 0.025137855 -0.019281054 0.030494733 0.023948621 -0.0054038693 -0.16548896 0.060380753
-0.070325516 -0.18022802 0.049799703 0.047635615 0.008090421 0.058627427 -0.003524479 0.06992225
-0.060012132 0.061013505 0.033142876 0.0629215 0.000932032 -0.02361614 -0.0031224205 -0.019442666
-0.047534276 0.03565357 -0.02132552 -0.022567969 0.047796015 0.02516816 -0.013077017 0.03578686
-0.04888635 -0.026755106 0.034863003 -0.018470576 0.09387019 0.04370444 0.030094929 -0.10422018
-0.04189429 0.05451641 -0.026662417 0.02592116 -0.055527534 0.04639373 0.08460837 -0.015156975
0.05794066 0.023608813 -0.088698216 -0.028805276 -0.03332601 0.04745721 -0.10383237 0.03951646
-0.010955894 -0.01293533 -0.02413644 0.05343284 -0.043487974 -0.0032358211 0.049564447 -0.021672815
0.003716501 0.021436298 -0.070940144 0.022053156 -0.0064207185 0.0112863 0.029389067 -0.09186866
0.084993556 0.025197964 0.033268377 0.074237466 0.044955917 0.09979326 -0.01939674 -0.015645973
-0.026249982 -0.0486935 0.045939658 0.0028067979 -0.040142864 0.019348778 0.0774769 0.05948818
0.015321639 -0.07342869 0.0026729498 -0.03617829 -0.10217271 -0.021209927 0.049205914 -0.08362412
-0.004285356 0.08944689 0.018514065 -0.032374542 -0.035981636 0.059110764 0.023277873 -0.017466437
0.10640763 0.060357258 -0.036251068 0.027805816 0.027004138 0.0003218484 -0.09463423 0.10166142
0.064718135 -0.027154261 0.11479013 -0.07222172 -0.025505712 0.025948016 0.0066446695 -0.058601744
0.04585862 -0.050134756 -0.049240083 -0.05542186 0.024810134 0.00870436 0.007543634 -0.02370831
0.018681202 0.0028343247 -0.083646834 -0.05918907 0.024633914 0.013393842 0.041975647 0.0047936453
-0.03498794 -0.015780726 -0.0755936 0.008115013 0.020646729 -0.07625928 -0.12911606 0.004429867
0.0686728 -0.03791499 -0.093615785 -0.035844795 -0.073523894 0.13634458 0.1473304 -0.01876687
0.039238308 0.060459528 0.12168696 0.0085268365 0.034872867 0.0038290252 0.013372745 -0.06713923
-0.042427287 -0.043567427 -0.053895008 0.017113809 0.0065818476 0.050096136 -0.06090388 0.023737404
0.012711532 -0.01857447 0.08149445 0.03962832 -0.045728453 0.036639933 -0.15694949 0.0023974224
-0.047540456 0.00867136 0.036578286 0.060198776 -0.009434159 0.02552077 0.047465667 -0.045081384
-0.09481364 0.038115297 0.074521035 0.09011552 -0.021978792 0.0023072993 -0.012270138 0.026828408
0.020390593 -0.05902998 -0.017716713 0.011393729 0.05594493 0.04677705 -0.035143062 0.08849469
-0.011031499 0.02477069 -0.09740448 -0.08282594 -0.037897587 0.069096774 -0.010123323 -0.029459333
-0.0011592478 -0.01786441 -0.05519776 -0.03066146 0.026535489 -0.016789995 0.04914061 -0.06077569
-0.05452677 0.0436165 0.058586836 0.16682641 0.009766826 0.015671138 -0.038549528 -0.033173375
0.049300272 0.04232254 0.029789053 -0.04903484 0.078308985 -0.0057112155 0.0067560966 0.00069489866
-0.09568349 -0.083884865 0.008375961 0.09709583 -0.010936359 0.019157177 0.022016166 -0.039525285

bn5/beta f4 [32]
00000000: 7ebf c83d 2a11 ad3d 589e 673b 2b8a 0e3e
00000010: 8c6d 943d 7cc6 893d 84e1 0a3e 3d3f 503d
00000020: d088 0c3e d39c c63d 67d6 f43d 2df6 fe3d
00000030: 4b56 603d 0bf9 903d f048 ba3c b076 853c
00000040: 200e f03c 76c2 c53d 9ee2 4a3d c097 873b
00000050: ff53 b03d 8084 0d3d fd06 983a 2001 423c
00000060: 497a 233e 7581 893d fe25 1a3d 636d b93d
00000070: c392 093e 926c 093e 7068 9d3d fe46 8f3d
0.09802149 0.084505394 0.0035342183 0.13919894 0.07247457 0.06727311 0.1356259 0.05084156
0.13724065 0.096978806 0.119549565 0.12449298 0.054769795 0.07078751 0.022739857 0.016291946
0.02930361 0.09656231 0.049532525 0.004137963 0.08609771 0.03455019 0.0011598762 0.0118410885
0.15964617 0.06714145 0.03763389 0.09054067 0.13434891 0.13420323 0.076859355 0.069959626

bn2/gamma f4 [64]
00000000: 5914 7d3f 24d6 753f 8aff 773f 150d 7e3f
00000010: 0c1c 7c3f 07f4 833f 59a0 833f 7b53 803f
00000020: 00ce 803f da26 7f3f 2dd5 7c3f a67f 7a3f
00000030: ec56 803f a567 7e3f 129f 793f 33ad 823f
00000040: 12ee 7c3f fee0 7d3f de41 7a3f a699 7e3f
00000050: f877 7d3f b55e 833f 0a20 783f f065 7d3f
00000060: cee7 803f 85a4 7f3f 0645 823f 031e 773f
00000070: 7b74 733f 64d5 803f 6982 833f 1664 7c3f
00000080: 933a 7d3f 70e6 7b3f c5bd 7c3f f670 803f
00000090: e97a 7e3f 2106 7b3f 7290 7d3f 2ab4 7c3f
000000a0: 3331 853f 50ee 7b3f b59e 7a3f a02c 803f
000000b0: 5eb5 833f e919 833f 0a5c 7b3f 84de 823f
000000c0: a174 7e3f 8b4a 7b3f 846c 823f b37c 733f
000000d0: 6f2f 893f 683d 7f3f 8014 823f 8107 7a3f
000000e0: f4c3 7e3f 00c8 7b3f f03b 7b3f 56ef 753f
000000f0: eca0 783f 35cb 7f3f 0b8d 883f ae73 7c3f
0.98859173 0.9602988 0.96874297 0.9923871 0.98480296 1.0308846 1.0283309 1.0025476
1.0062866 0.9966866 0.9876278 0.97851026 1.0026526 0.993769 0.9750835 1.0209106
0.98800766 0.99171436 0.97756755 0.994532 0.9901118 1.0263277 0.9692389 0.9898367
1.0070741 0.9986041 1.0177314 0.9653017 0.9509961 1.0065122 1.0274173 0.9859022
0.989175 0.98398495 0.98727065 1.0034473 0.99406296 0.98056227 0.9904853 0.9871241
1.040564 0.9841051 0.9789842 1.0013618 1.0289724 1.0242282 0.98187315 1.0224156
0.9939671 0.9816062 1.0189366 0.9511215 1.07176 0.99703074 1.0162506 0.976677
0.9951775 0.9835205 0.9813833 0.9606832 0.9712055 0.99919444 1.0668043 0.98614013

conv1_2/b f4 [64]
00000000: f485 f2b7 88bc 88b7 324a a138 3c17 ae39
00000010: e3da 88b8 8b76 a3b8 507f 18b9 8b48 a239
00000020: 0962 0eb8 6a3c e038 076d 1139 6ffa 31b7
00000030: 391f 2437 a0ab 6d38 0b94 87b9 7380 95b8
00000040: f635 98b9 184a db38 4d6e abb8 0045 50b9
00000050: 6362 a3b8 547b 45b9 5847 8d37 92b6 6638
00000060: 62e3 bcb9 2a0a 63b8 b15a 7038 0c5c 2f39
00000070: ffd4 0d39 2a90 d338 8a84 d738 8958 0aba
00000080: e912 65b8 d264 b5b7 050b 9438 58c6 2f38
00000090: d261 6038 3241 7339 8da9 e3b8 c13d 13b9
000000a0: 96e7 c3b7 dcab f8b8 1678 fe37 ea8a 58b8
000000b0: a74d 24b9 e8a8 e1b7 07fd f036 6bc4 95b9
000000c0: bd52 3ab8 ccb9 8837 908e 0e39 6527 6037
000000d0: 507c 4939 4614 4e38 fc64 bdb9 e787 f9b8
000000e0: 59e6 8eb8 2a34 6237 afd7 5fb9 cd25 29b9
000000f0: cf96 4f38 5c96 0c39 2ca7 61b9 b780 c538
-2.8911025e-05 -1.6300255e-05 7.690898e-05 0.00033205177 -6.525756e-05 -7.794526e-05 -0.00014543277 0.00030953097
-3.394674e-05 0.00010692405 0.00013868893 -1.0608331e-05 9.782431e-06 5.666504e-05 -0.00025859507 -7.128799e-05
-0.00029031903 0.00010456535 -8.1744605e-05 -0.0001986213 -7.7907716e-05 -0.00018833327 1.6841732e-05 5.5006305e-05
-0.00036027568 -5.4130483e-05 5.7304922e-05 0.0001672359 0.00013526155 0.00010088117 0.00010276686 -0.0005277475
-5.4615466e-05 -2.162383e-05 7.0592425e-05 4.1907973e-05 5.3496864e-05 0.00023198573 -0.00010855785 -0.00014042018
-2.3353652e-05 -0.00011857573 3.0335079e-05 -5.1627787e-05 -0.00015669187 -2.6900743e-05 7.1820136e-06 -0.00028565837
-4.442291e-05 1.6298982e-05 0.00013595284 1.3360613e-05 0.00019215164 4.913311e-05 -0.00036124128 -0.00011898559
-6.813993e-05 1.3482795e-05 -0.00021347286 -0.00016131178 4.9493097e-05 0.00013407454 -0.00021519948 9.417667e-05

bn2/avg_var f4 [64]
00000000: 7b25 a93e 061a 1d3f fe19 f33e b0ac fb3e
00000010: 806f b93e b139 e73e 8d9d 003f 2d24 c13e
00000020: 4b00 e83e f061 f73e ecfc e43e 0302 153f
00000030: ad95 ce3e f05c 923e 16eb 073f 8e30 c63e
00000040: 1af6 bd3e b4b3 cd3e 4a19 303f 810f c23e
00000050: 0323 313f e2ba 0d3f 1533 d93e dc3e cb3e
00000060: e3a2 e13e a4e5 cb3e 2534 c03e d972 883e
00000070: 3719 043f 9794 c53e 1c9d f63e ca2c c43e
00000080: 2a0d bc3e ca1e f63e 1f53 073f a85b 173f
00000090: 7ec8 bf3e 1a4e 133f 6402 e23e 196f d93e
000000a0: ebf6 403f 5453 de3e 18a0 d83e 5059 033f
000000b0: 033f f63e ff4d fd3e cb38 f53e d1a6 073f
000000c0: 3149 f63e 59f3 bc3e b641 c03e 04d4 003f
000000d0: 8b9a 093f 064d f03e cb10 fd3e ec05 e23e
000000e0: 29d5 d23e 9a82 cc3e 05c8 a33e 9508 b33e
000000f0: 7e00 f23e c8f8 013f 1794 0d3f e830 ef3e
0.33036408 0.61367834 0.47480768 0.49155188 0.3621788 0.45161203 0.50240403 0.37722912
0.45312724 0.48316908 0.44724214 0.58206195 0.4034857 0.2858653 0.5309309 0.3870892
0.37101823 0.40176165 0.6878859 0.37902454 0.6919405 0.55363286 0.42421785 0.39696395
0.44069585 0.3982364 0.37539783 0.26650122 0.51600975 0.38589928 0.4816674 0.3831542
0.36728793 0.48070365 0.5286121 0.5912423 0.3745765 0.5754105 0.4414245 0.42467573
0.75376767 0.4342295 0.42309642 0.51308155 0.4809495 0.4947357 0.47894892 0.52988917
0.48102716 0.3690441 0.37550133 0.5032351 0.5375144 0.46933764 0.49426875 0.44145143
0.41178253 0.3994339 0.3198854 0.34967485 0.47266 0.50770235 0.5530409 0.46717

bn6/beta f4 [32]
00000000: d56d d83d 41af 063e a45e 1d3c 83b6 f23d
00000010: de69 543d 0516 423d cb3a fc3d 045d 193d
00000020: bd2a e23d e2f6 bf3d c941 253e 26b9 183e
00000030: c3ba 7a3d 75fa ae3d a8b1 3e3d 85aa 383d
00000040: af16 8f3c edf6 cb3d 9e3c b93d 4ad0 1e3c
00000050: dedc d23d 4a0d 9a3c 6612 e23d 825c 143d
00000060: 2382 963e 7b5a 733d 06f1 8d3d 2d2b f63d
00000070: f98e f43d fef5 da3d d84d f73d 373d ad3d
0.10567824 0.13152792 0.009605084 0.118512176 0.051858775 0.04738428 0.12315901 0.037442222
0.11043308 0.09373261 0.16138376 0.14914379 0.061213266 0.08543865 0.046556145 0.045084495
0.017466871 0.09959207 0.09044765 0.009693215 0.10296033 0.018805165 0.110386655 0.036221035
0.2939616 0.05941246 0.06930737 0.12019954 0.11941332 0.106914505 0.120753944 0.084589414

conv1_7/W f4 [3, 32, 3, 3]
00000000: c08f db3c 21e0 3a3d cdf5 a53d 7313 de3c
00000010: 517b ee3c 35fd 0dbd 7a30 353d aaa5 983d
00000020: 770b 2a3d 1ace 37bb 6e1e 253d 2f9b ec3d
00000030: 4d1e 5b3d c23d 853c 4199 d33d ddd1 863d
00000040: e72c 9bbd e744 733c a0e8 163e 632f 66bc
00000050: 7f97 d03c 3ce0 0f3d 155e 5e3c cdb3 793d
00000060: 1065 75bd 5c70 66bd eea7 8cbd 7ea6 b9bc
00000070: 16c5 6c3d 7cba b93d 2bc8 b53c bf89 34bc
00000080: 764e 61bc 51aa 82bc dcf0 413e ccf5 8cbc
00000090: ea7b f63d bb23 a03d f411 b13d eda9 803d
000000a0: 5117 193e 3caa 343e fdd0 883d 7835 dabc
000000b0: 856c c63c 399e cabc 0c74 b8bd f640 0c3e
000000c0: c5e9 c43d cd14 c5bd 2fba 813d c772 943c
000000d0: 4206 473b 9deb 0fbd 9d6c bb3d 913d 12bd
000000e0: 5d92 8f3c 17a9 3dbc 5086 303e 4e90 82bd
000000f0: bb89 5e3c 628b 303e 7d2a 38bd 7ab3 8fbc
00000100: 74de b23d a142 e9bc a2d9 13bd 1780 f9bd
00000110: 20e5 c13d 3714 65bd 638b d73d 1f7f a63d
00000120: 819c b13c d034 e33d 2b85 ff3d 8c43 483d
00000130: 39ad 733d a505 91bd 2160 debd ad4d 593e
00000140: cfb8 063d 9d12 f73d 1cff c23d 67af b6bb
00000150: 2b10 e03d e366 273e 0f77 a5bc 787c aa3d
00000160: aa79 da3c f326 77bc 0f60 67bd f7c9 a93d
00000170: 5485 7b3d 552b 863d cbfd f53d 5d9b 98bd
00000180: a2b6 403e c130 643d 719e 16bd ffb3 cfbc
00000190: 72a4 30bd 6b93 d3bc 2f26 153d 02f4 1c3e
000001a0: 2ffb 3d3d 851a de3c 8fe5 663d f994 4a3d
000001b0: 3c0c cbbd 04bc b63c e35e 4a3e a4d1 ab3d
000001c0: e193 2c3e bf9b e43d 532d de3d 161b dd3d
000001d0: ecb2 26bc 3716 113d de0b 0f3e 1bab 083e
000001e0: 53ee ca3c b13b b43d 5f22 a73d 8d8d 333e
000001f0: 5ff9 bebd cc41 94bd 7a5d 2a3d ad82 633c
00000200: 690f c53c ca6c 4abd 0730 153c 4b13 8cbd
00000210: f6aa cebc e55c c13d a472 f73b 3292 ca3d
00000220: d1ea e03c f351 473d 34aa cbbc 6b30 81bd
00000230: 008e f9bc 51b3 b03d ff5c aa3c 3a86 933c
00000240: 02f4 e7bc 08f5 a7bd 5e6c 09be 0797 9ebd
00000250: 1a0c 063d 5ed4 f5bc 5178 213d 0e9e 533e
00000260: 8900 b43b f780 fa3d cf43 d13d b653 693c
00000270: d8e3 773e c9af 1b3d fea2 a23d df31 813c
00000280: 770c 2dbe eeb7 193d bb42 b63d 4842 a43d
00000290: 2db7 bc3c 8fb1 a23d a8b0 99bd dff5 b7bc
000002a0: 16ee 8abc dd55 493d f474 153d 6a58 383d
000002b0: 91ce b639 0c52 4a3e 690e b9bd f3b3 cbbd
000002c0: a2f5 17bd 6ed4 60bd 5503 9c3c b024 553c
000002d0: 6159 d53d ccb6 e9bc 0f5d e53c 9093 adbd
000002e0: 9738 943d 59d2 86bd d9f7 573a 1104 103d
000002f0: af69 313e d0d9 c93b 0f5c 0cbc 5907 2c3d
00000300: 7384 613c 85a7 ba3d 6348 cfbd aa65 56bb
00000310: 5e3b 06be f964 b33d dc7a ed3d e077 803c
00000320: 8697 2dbd f05c d03d d754 a7bd 83e1 91bd
00000330: 45a2 7a3d d1ea 113c 9521 443d a4db c4bd
00000340: d81c 4e3d 5cf4 8dbc 4f9a b1ba bb1f 923d
00000350: 2d8b 2cbd 541c 5b3c e7a3 00bd 6482 e23d
00000360: e02c 4abd cf4e 373d 0e2d a2bd 94e3 08bd
00000370: cf1e 723d 3d5a 2b3e eef5 603d b2ac 2ebc
00000380: aea5 813d c5c8 2ebd daa7 afbc d3c2 143e
00000390: 5b66 2f3d 13c1 a73d 3186 003e 2442 c63d
000003a0: b562 e93d c3da fb3d 459b 86bd 9f22 8abc
000003b0: 88e4 e0bc 4568 fb3d a752 063e c512 b2bb
000003c0: b64a a5bc cef2 c23d b378 2b3d 503e 4fbd
000003d0: 66f6 d33b 8ff9 ad3d fd7d 91bd 07a1 37bd
000003e0: b0d9 703e 03e6 1dbd c631 86bd 9401 b63b
000003f0: 4fa2 103d dd93 71bc 22ef aabc 76e1 903d
0.026801944 0.045623902 0.081035234 0.027108883 0.029111536 -0.034665305 0.044235684 0.07453473
0.04151484 -0.002804643 0.040312223 0.115530364 0.053495694 0.0162648 0.10331965 0.06582997
-0.07576924 0.014847971 0.14737177 -0.014049384 0.025462864 0.035125956 0.013572236 0.060962487
-0.059910834 -0.056259498 -0.068679675 -0.022662397 0.057805143 0.09068772 0.022190174 -0.011019169
-0.013751617 -0.015950354 0.18939537 -0.017207049 0.120353535 0.07819315 0.086460024 0.06282411
0.14950301 0.17643064 0.06680486 -0.026636824 0.024221668 -0.02473365 -0.09006509 0.13696656
0.096149005 -0.09623108 0.0633434 0.018121136 0.003036872 -0.035136808 0.09151576 -0.035703246
0.017525846 -0.011575959 0.17238736 -0.0637518 0.013582642 0.1724067 -0.044962395 -0.017541636
0.08733836 -0.028474154 -0.036096223 -0.12182634 0.0946753 -0.05592748 0.10524633 0.08129715
0.021681072 0.110940576 0.12476572 0.048892543 0.05949137 -0.07081155 -0.10858179 0.21221037
0.03289109 0.12064097 0.095213145 -0.005575109 0.10940584 0.16347842 -0.020198373 0.08324522
0.026669342 -0.01508497 -0.056488093 0.08290475 0.06140645 0.06551234 0.12011298 -0.07451508
0.18819669 0.055710558 -0.036772195 -0.025354384 -0.043125577 -0.02582713 0.036413368 0.15327457
0.046382125 0.027112255 0.056371268 0.049458478 -0.09914443 0.02230645 0.19762759 0.08389595
0.16853286 0.11162519 0.10848489 0.10796182 -0.010174494 0.035421576 0.1396937 0.13346522
0.024771845 0.08800448 0.08160853 0.17534466 -0.093249075 -0.07239112 0.041593052 0.013886136
0.0240552 -0.049420156 0.009105689 -0.06839617 -0.025228005 0.09441546 0.007551508 0.09891166
0.02745572 0.048662137 -0.024861433 -0.06308063 -0.030463219 0.08627952 0.020796297 0.01800834
-0.028314594 -0.08201033 -0.13420245 -0.0774365 0.032726385 -0.030008491 0.039421383 0.20665762
0.005493228 0.12231629 0.102180116 0.01424115 0.24208009 0.03800944 0.079412445 0.01577085
-0.16899286 0.037528925 0.088994466 0.08020455 0.023036564 0.07944023 -0.07504398 -0.022456108
-0.016959231 0.04915415 0.03648849 0.045006193 0.0003486765 0.19757861 -0.09035952 -0.09946432
-0.037099488 -0.05489009 0.019044558 0.013009235 0.10417438 -0.028529547 0.027998475 -0.08475411
0.07237356 -0.065830894 0.00082385313 0.035160128 0.17325471 0.0061599985 -0.00856687 0.041999195
0.0137644885 0.09113983 -0.101212285 -0.0032714405 -0.13108584 0.087594934 0.11595699 0.01568216
-0.042380832 0.101739764 -0.08170479 -0.07123091 0.06118991 0.008906082 0.04788359 -0.096122056
0.050320476 -0.017328434 -0.0013550016 0.07134958 -0.042124916 0.013373453 -0.03140631 0.11060026
-0.049359202 0.044752892 -0.0791875 -0.03342016 0.059111413 0.16733642 0.054922037 -0.010661291
0.06330429 -0.042671937 -0.021442343 0.14527445 0.042822223 0.08191123 0.1255119 0.09680584
0.1139578 0.12297585 -0.06572584 -0.016862212 -0.027452722 0.12275747 0.13117467 -0.0054343664
-0.020177227 0.095189676 0.041863155 -0.050596535 0.006468582 0.08494865 -0.071041085 -0.044831302
0.23520541 -0.038549434 -0.06552462 0.0055543873 0.03531104 -0.014744726 -0.02086598 0.07074253
