loto6_cnn/loto6_30_630.model (npz, 491147 bytes, 38 tensors)

bn1/beta f4 [64]
00000000: ca77 533d af6e 523c 7324 d03c f357 973d
00000010: fe5f 56bc 1c2f 443d f34e ea3d 5fe3 a13c
00000020: 88ed 4c3c aae8 893d 8dc0 b03d 851c a83d
00000030: a905 383d 6054 863d f71e bd3d 0f43 593d
00000040: f97f c83d 502e 173d 7b1a 973c 4f12 3d3d
00000050: 6287 863d af7e 523d 8769 693d a173 ea3b
00000060: ac98 aa3d e686 2e3d 9786 14bc bb9b 163d
00000070: 6a72 9e3d 77f4 083c 6bc0 5f3d c151 1d3c
00000080: 2f79 6c3c c234 ba3c 53c3 a13d 4f45 203d
00000090: 90cc d83b 490f f43c f0b3 cd3d dfff c63d
000000a0: 3b52 b23c 996d 793d 14c8 e33c e733 f63c
000000b0: 6a0e 443d e199 a1bb ccda a5bb fe55 b93d
000000c0: 720e 993c 2df1 a73d f282 82bc 0dda 793c
000000d0: 3a53 8c3d e3b3 213d 436c 8f3d 141a 133d
000000e0: 5c86 b73d e6db 383d e642 8dbc 5921 ec3d
000000f0: 06e7 593d 3a14 b73c 395d 7a3d 7cfe ee3c
0.05162791 0.012843772 0.025408005 0.07389822 -0.01308441 0.04789649 0.114408396 0.01976174
0.012507804 0.0673383 0.08630476 0.08208565 0.044927273 0.06559062 0.09234422 0.053042468
0.09790034 0.0369094 0.018445244 0.04616004 0.06568791 0.051390346 0.056985404 0.0071548973
0.08329901 0.042609118 -0.009065292 0.03676961 0.077366665 0.008359066 0.054626863 0.009602011
0.014433189 0.022730235 0.07898583 0.039128598 0.0066161826 0.029792445 0.10044086 0.09716772
0.021767726 0.060895536 0.027805366 0.030054046 0.04786531 -0.004931674 -0.005061483 0.09049605
0.018683646 0.082002975 -0.01593158 0.015249741 0.06851812 0.039478194 0.07003071 0.035913542
0.08961174 0.045131586 -0.017243814 0.11529798 0.053198837 0.022348512 0.06112406 0.029174082

bn3/gamma f4 [64]
00000000: c05c 8a3f cb5c 8c3f c003 8b3f 1235 893f
00000010: aa0c 823f 2143 863f a268 863f 1a80 823f
00000020: f632 863f 9963 823f 6938 7e3f bcdb 823f
00000030: 9ebf 813f ee1c 873f e5c2 833f 72c4 7e3f
00000040: 170a 7f3f 7887 803f 93f1 863f f576 7d3f
00000050: 9c99 833f 06ce 843f d6af 803f 92e2 813f
00000060: 41fa 813f de6b 813f 8399 813f 4357 813f
00000070: f0d9 823f 7c4d 823f 6ed6 7f3f 3853 863f
00000080: 47eb 813f 44eb 813f 1517 843f 6586 833f
00000090: b077 813f a396 8a3f a8b5 8c3f 2ac7 843f
000000a0: 6399 823f 0ed3 823f 2a47 823f a4a7 843f
000000b0: 5a16 863f bdad 843f 7381 813f 777d 873f
000000c0: 4a1e 823f c87d 843f 8f05 813f 4e15 803f
000000d0: ae4a 823f 7071 7d3f 7aa5 873f f685 8d3f
000000e0: 8921 843f 6402 823f 690d 803f 31fe 823f
000000f0: 1db8 813f 1aa7 823f 9d87 8d3f 47dd 813f
1.0809555 1.0965818 1.086052 1.0719321 1.0160115 1.0489236 1.0500681 1.0195343
1.0484302 1.0186645 0.99304825 1.0223308 1.0136602 1.0555704 1.0293852 0.995185
0.9962477 1.0041342 1.0542473 0.9900964 1.0281253 1.0375373 1.0053661 1.0147269
1.0154496 1.0111043 1.0124973 1.0104755 1.0222759 1.0179896 0.9993657 1.0494146
1.0149926 1.0149922 1.0319544 1.0275389 1.0114651 1.0827221 1.0992937 1.037328
1.020306 1.0220659 1.0177968 1.036366 1.0475571 1.0365521 1.011763 1.0585164
1.0165493 1.0350885 1.0079821 1.0006502 1.017904 0.99001217 1.0597374 1.1056507
1.0322734 1.015698 1.0004092 1.0233823 1.0134312 1.0207245 1.1057011 1.0145653

bn4/beta f4 [32]
00000000: 9841 103d 56f6 8d3d e82a a03c 0262 a93d
00000010: f720 703d f91d 743d f68b 0b3e dbdb 123d
00000020: 2214 f63d ca21 1b3e 1935 b93d bfb6 a93d
00000030: e641 883d e5e5 c03d feeb 9f3b f88e ad3c
00000040: e057 913c a3b5 a03d a283 513d bd05 743c
00000050: a929 983d 89aa b8bb 6e10 d13a 3bfd 6e3d
00000060: f60e ad3d 2143 803d 41a3 c03d e79f 963b
00000070: 216c 8d3d 3658 0a3e 28da b93d 8250 b43d
0.035218805 0.069317505 0.01955171 0.08270647 0.058625188 0.059598897 0.1362761 0.0358542
0.12015559 0.15149608 0.09043331 0.08286809 0.06653194 0.09418849 0.0048804274 0.021186337
0.017742097 0.078471445 0.051150925 0.014893946 0.07429821 -0.0056355637 0.0015950331 0.05834697
0.08450119 0.06262804 0.09406138 0.0045966986 0.069053896 0.13510212 0.09074813 0.08804418

bn2/avg_mean f4 [64]
00000000: 95c5 92be cfe0 34bf 4a2c 6abf 31cf 9ebf
00000010: db9e 9a3d 89d6 e9be 2061 a3bf 5c59 b5bf
00000020: 41ec f3be 3519 c0bf dc8d c8be 3343 cdbe
00000030: fa1e 52bf 160b 4bbf 4121 583f 04f4 81bf
00000040: 9db3 1ebf 973b 62bf 5c17 70bf 6328 8abf
00000050: 005a 56bf bf21 bbbf 5c6a c4be 0a7b 393d
00000060: 2434 76bf b1e7 61bf 9037 44bf 12e5 21bf
00000070: 331f aa3e 9c96 c8be 4c30 0fbd db4e 6ebf
00000080: b10c 2a3d 59d1 803e ea33 913d 5ecc bfbf
00000090: 57d8 c3be b711 d53d 3656 26be 1113 84be
000000a0: 42a3 7bbf 2a3b 14be 41c5 66bf 08c5 e83e
000000b0: bc29 61bf f3f2 77bf 85fb f6be fca3 a8bf
000000c0: 4f5c 61bf 91b7 52bf bd45 5fbf bcf0 28bc
000000d0: 7d5d a9bf 8998 6ebf 927c 5fbf 7b4a 9abd
000000e0: b0fb 9cbf e403 8cbf 7ae6 09bf 3083 963e
000000f0: 1832 06be fe69 adbf 4bef 90bf e563 91bf
-0.28666368 -0.7065553 -0.9147383 -1.240698 0.075498305 -0.4567149 -1.2764015 -1.4167895
-0.47641185 -1.5007693 -0.3917073 -0.4009033 -0.82078516 -0.7931379 0.8442574 -1.0152593
-0.6199282 -0.88372177 -0.93785644 -1.0793575 -0.8373108 -1.4619673 -0.38362396 0.045283355
-0.9617331 -0.8824416 -0.7664728 -0.6324016 0.33226928 -0.39177406 -0.03495817 -0.93089074
0.04151601 0.2515972 0.0708998 -1.4984243 -0.38250992 0.104037695 -0.16243824 -0.25795797
-0.98295987 -0.14475694 -0.90144736 0.45462823 -0.87954307 -0.96855086 -0.4823877 -1.3175044
-0.88031477 -0.8231135 -0.8721579 -0.010311302 -1.3231655 -0.932015 -0.87299454 -0.07533737
-1.2264309 -1.0938687 -0.53867304 0.29396963 -0.13105047 -1.3547971 -1.1323026 -1.135861

conv1_6/b f4 [32]
00000000: 8727 33b9 e0d0 4e39 6a31 43ba dbcf 0dba
00000010: f6f4 6bba 3eda 2db8 9c3f 3637 367b 373a
00000020: e40d dfb9 c693 46b9 1d88 a038 2791 143a
00000030: b815 9bb9 3eb5 20ba be6b 7b39 7a6b 5e39
00000040: 6360 1d3a 7a0f 39b9 556c 4bba 5c0f f6b9
00000050: 035b 423a 4c26 50b9 b2e5 c639 c563 be38
00000060: fe06 24b9 d7d1 923a db00 4838 dd30 fcb8
00000070: 53cd 84b9 3cab 3939 eb7d a539 2ad9 8739
-0.00017085495 0.00019723503 -0.0007446023 -0.0005409696 -0.00090010406 -4.1449668e-05 1.0862856e-05 0.0006999256
-0.00042544224 -0.00018937801 7.6547476e-05 0.00056673813 -0.00029580086 -0.0006130523 0.00023977362 0.00021211608
0.00060034374 -0.0001764874 -0.0007759978 -0.0004693222 0.00074140745 -0.00019850692 0.0003793664 9.0784895e-05
-0.00015642864 0.0011201453 4.7684513e-05 -0.00012025398 -0.0002532998 0.00017706765 0.0003156507 0.00025911006

conv1_5/b f4 [32]
00000000: 6dfc c6b9 0c3b cb38 3d46 203a 5fae 1639
00000010: 60fe 96b9 ac17 8d39 a662 2739 fa23 1fb9
00000020: aa39 1639 a65b 34b9 14b0 c0b9 ce03 8b39
00000030: f54a edb9 101a b639 a7c5 1238 6d82 253a
00000040: 60da 0a38 0be2 ed39 1e63 6539 a9ba c2b9
00000050: 580a e138 af9a d639 10c4 e0ba 0f9e 23b9
00000060: 91e1 ccb7 540e 003a 2cb3 1939 b721 c339
00000070: 9281 7f39 22bb e7b9 35b0 0138 cf0f 0439
-0.00037953575 9.690793e-05 0.0006113982 0.00014370073 -0.00028799754 0.00026911253 0.0001596311 -0.00015176824
0.00014326596 -0.0001720028 -0.00036752282 0.0002651498 -0.0004526001 0.00034733163 3.499319e-05 0.00063136854
3.310514e-05 0.00045372578 0.00021876066 -0.00037141636 0.00010730763 0.0004093251 -0.0017148275 -0.00015603773
-2.4423733e-05 0.00048849476 0.00014657964 0.00037218418 0.00024366964 -0.00044199178 3.0920102e-05 0.0001259439

bn3/avg_var f4 [64]
00000000: 1463 963e 145a 303f 7f5f 033f 8f7f 103f
00000010: 9a54 d53e 49e4 963e 5909 4c3f 5046 a43e
00000020: 133a ca3e 2575 b33e ac90 ae3e ea10 ac3e
00000030: 2d6a ef3e 9d51 863e 3524 203f fe5b b53e
00000040: 3d2f 913e 2fed b63e 9182 bd3e 88f1 113f
00000050: bdc9 ae3e 3751 b83e 70bb ac3e 5a18 ee3e
00000060: fce2 b43e 888c d23e 3277 903e 1624 0d3f
00000070: 9c0a a83e 48c7 8c3e 9dae d43e ffc9 e23e
00000080: 4907 b33e 49f5 c83e 60c0 b23e 5387 bd3e
00000090: e1e8 d23e a27a 033f 9009 403f 884d a83e
000000a0: 1c98 ab3e 1ccb 7f3e 04a1 a13e 0331 8d3e
000000b0: 13e2 bb3e 7936 9b3e 1201 6b3e ca33 133f
000000c0: 8c08 ac3e 4073 b63e 99f7 d43e 3b00 ad3e
000000d0: 4409 1d3f c6b2 9f3e e426 a93e ad7a 3a3f
000000e0: 4cf7 d83e 5853 633e 143b ad3e 2528 af3e
000000f0: ea78 0a3f 5aee 8b3e a268 1f3f 23bf fc3e
0.29372466 0.6888745 0.5131759 0.5644464 0.41666108 0.29471043 0.79701763 0.32084894
0.39497432 0.35050312 0.3409475 0.33606654 0.46760693 0.2623414 0.6255525 0.35421747
0.28356352 0.35727832 0.37013677 0.5700917 0.3413829 0.35999462 0.33736753 0.46502954
0.35329425 0.41122842 0.2821594 0.5513319 0.32820594 0.2749579 0.4153947 0.44294736
0.34966496 0.39249638 0.34912395 0.37017307 0.41193298 0.51359 0.7501459 0.32871652
0.33514488 0.24979824 0.31568158 0.27576455 0.36695918 0.30314997 0.22949627 0.575009
0.3360027 0.35634804 0.41595152 0.33789238 0.61342263 0.3119108 0.33037484 0.7284344
0.42376173 0.22199762 0.33834136 0.34210315 0.5409075 0.27330285 0.6226903 0.49364576

conv1_3/W f4 [64, 64, 3, 3]
00000000: 4dcf 70bc 9aa4 b2bd e520 d4bb 8c28 b43d
00000010: f1d3 2dbd 5ea8 223d dace ad3c 6b5a d73c
00000020: ebae 623c 8c97 2dbc ff46 a03c 9c93 bebd
00000030: f57b f7bc 0953 313d 64fc a6bb f8c4 2b3b
00000040: ff33 62bd 4a8d d13c b333 7bbd 5fa5 7abd
00000050: b0e5 483c 5ace e5bb d4f3 a33c 36dc f13c
00000060: 8b0a a1bc d7fc 6bbd 980f 8ebd c49b b83b
00000070: 0c5e 4a3d ee57 05bd dbc0 0fbc 61ed d83d
00000080: 18c9 e1bc 9eb0 3f3d 32a6 07bd 5f0d 523c
00000090: 9916 7dbb f72f 76bd 53f8 263d 2699 993d
000000a0: caf5 203c c96b 2a3b 3cae d63b 900f 4ebd
000000b0: 2e6e 0c3d c27e 9bbc c5a5 26bd ddc1 66bd
000000c0: 79ac 6f3c b4fa 0fbd 2799 623c 587d 753d
000000d0: 4d0a 13ba 5e21 d6bb 8305 e53c ea9d a33c
000000e0: bb1b d6bc ec0a 1bbd 340e a7bd 7dba 533c
000000f0: 7193 49b9 832e 49bc 27ce e7bc 27a8 b63b
00000100: 0f96 2dbd 5e75 e8bc ccd0 353c d05a c0bc
00000110: 83f2 2bbc a051 a83c d0d7 763b 537a a13c
00000120: 9a7e 67bc e599 44bc 7988 783d 1a31 753d
00000130: 31b9 b93c 5eed d1bb 342c 773c 27d8 e43a
00000140: 765f 83bc 2037 debc 53bb 6c3d 7345 f0bc
00000150: e677 05bd bcdb aebd 80e7 b53c 23e7 73bd
00000160: 3e63 6dbd 536e 0d3d 39e2 01bc 3465 843c
00000170: b2d5 f73c 0a50 bd3b 9626 87bd 9639 8ebc
00000180: 572a 323d 7e98 a2bd 70b7 4fbc 5e3c 29bd
00000190: e4bf 4dbc b7a9 c7bb 3708 a7bc 480d 69bd
000001a0: 4849 acbd 5f9b 80bb 5c78 d6ba 77aa babc
000001b0: b206 41bd 699e a238 d817 2cbd eb01 88bd
000001c0: c416 e73c 1ef5 b5bb 7ee4 efbc d00d 3c3c
000001d0: 23d6 3abd 4f6a 7bbc 9533 a93b 604c 2b3d
000001e0: 23b2 66bd 3a21 c1bc 33e4 86bd 51e5 54bd
000001f0: c250 88bd 5fa1 ad3c 9e7a 163c 388a 823c
00000200: 1bde 03bd 9e74 d7bc 7fd1 be3b d006 b03d
00000210: 5427 243c 00a9 22bc a6c8 c0bd a25a 193c
00000220: c472 b9bc d09b 603d c069 c33b eff5 383d
00000230: 8b4c 0abd 56fe 07bd 213d 4abc 6e77 513c
00000240: 0298 5bbd d08d 35bc e3ec abbb 44c5 3a3d
00000250: cc96 aabc 8d3c 383d 9056 313c aff5 ebbc
00000260: a857 6d3b 1755 67bd fc55 b9bc f2ef 813d
00000270: 69e2 9abd 1595 373c c093 33bc 3906 a3bd
00000280: 0c75 d33c 162c c33c f8f1 303c 899f 7bbd
00000290: 4112 a4bc 9d73 8c3b 7aa1 f2bc abc6 4ebd
000002a0: a9b5 bb3c 338f 0e3d 777c 8fbc e04e 66bc
000002b0: da7e 98bd f244 1c3d c9cc 5dbd dee7 53bd
000002c0: af3e d93d 88f8 bdbb 39ec d23c 4625 073d
000002d0: 3466 973c 3d8a 95bd 736c 9fbc 08e1 6a3c
000002e0: 7d70 8b3c 2418 033a 087e 73bd 6d6f a23c
000002f0: 2fd6 b5bb d9ef 96bc 0548 b4b9 33ed 1c3d
00000300: a6f8 b3bc 6417 7cbc cd68 06bd 2e32 723d
00000310: c62a 243c 495a f03b ec5c 3fbd d7b5 4c3d
00000320: 204e 40bd 5fb1 15bc 23c5 c13c b2d2 333d
00000330: 7815 46bc f1d0 a4bc 679d 61bd 704a debc
00000340: 007c 98b9 aab6 51bb 211d db3c 444e 113d
00000350: 072c 18bd 93f1 d3bd ab7c 913b d4f6 2cbd
00000360: 7184 bdbd fd95 883d 3077 babd 392b 78bc
00000370: c19b 983b 3a73 1a3c 4e43 8c3b 9f86 55bd
00000380: 6b87 9c3d d763 233c 0cb8 da3b c74d b4bd
00000390: 3647 3d3d e987 a43d 432c 2dbd 7603 ab3b
000003a0: e9c2 d13a 5514 dbbc 7385 87bc cd47 29bc
000003b0: b8c9 c3bc ff6b 74bd 627b 75bd 65b9 bc3c
000003c0: 484e 523d adde 0c3d 4e53 e93c 2c0f 7cbd
000003d0: 1d61 0b3d 1726 fe3c 6bf3 38bd bd64 d6bc
000003e0: d003 efbc f978 4f3c f3d8 053c 59b0 a5bc
000003f0: ab93 91bc 1041 063c a6d6 91bd 6ac0 54bd
-0.014697862 -0.087228015 -0.006473648 0.08796796 -0.04243845 0.03971135 0.021216799 0.026288232
0.013835649 -0.010595214 0.019565104 -0.09305498 -0.030210475 0.04329208 -0.0050960053 0.0026209932
-0.05522537 0.025580067 -0.0613286 -0.061192866 0.012261793 -0.0070131244 0.020013727 0.02952395
-0.019658348 -0.057614174 -0.06936568 0.005633803 0.049406096 -0.03255456 -0.008774008 0.105921514
-0.02756171 0.046799295 -0.03311748 0.012820571 -0.0038618206 -0.060104337 0.040764164 0.07499914
0.009824226 0.0026004186 0.006551532 -0.05030781 0.034284763 -0.018981341 -0.040685434 -0.056337226
0.014628523 -0.0351512 0.01383046 0.05993399 -0.000560914 -0.0065347394 0.02795673 0.01997276
-0.02613627 -0.037852213 -0.08157006 0.01292288 -0.0001922378 -0.012279156 -0.028296543 0.0055742445
-0.042379435 -0.028376278 0.011097144 -0.023480803 -0.010494831 0.020546734 0.0037665255 0.019711649
-0.014129305 -0.011999582 0.060677025 0.05986128 0.022671314 -0.00640647 0.015086222 0.0017459438
-0.01603673 -0.027125895 0.057795834 -0.029329991 -0.032585047 -0.08538005 0.022205114 -0.0595466
-0.057955973 0.03452904 -0.007927471 0.016161539 0.030253265 0.0057773637 -0.065991566 -0.017361443
0.04349741 -0.07939242 -0.012678012 -0.041317336 -0.012557957 -0.0060932296 -0.02038966 -0.05689743
-0.08412415 -0.0039247717 -0.0016362774 -0.022786362 -0.047125526 7.754268e-05 -0.042014927 -0.06640991
0.028209098 -0.005552902 -0.029283758 0.0114779025 -0.045614373 -0.01534517 0.0051636198 0.041820884
-0.05632223 -0.023575414 -0.06586494 -0.051976506 -0.06656028 0.021195112 0.009184508 0.015935048
-0.03219424 -0.026300725 0.0058233137 0.085950494 0.010019142 -0.009927988 -0.09413271 0.009359987
-0.022637732 0.054836094 0.005963534 0.045156416 -0.033764403 -0.033201538 -0.012343676 0.012784822
-0.053611763 -0.011081174 -0.005246745 0.045598283 -0.020823859 0.04497962 0.010823861 -0.028803675
0.0036215577 -0.056477632 -0.022624008 0.06344594 -0.075627156 0.0112049775 -0.010960519 -0.07960171
0.025812648 0.023824733 0.010799877 -0.06143144 -0.020028235 0.004286243 -0.029618014 -0.050482433
0.02291377 0.034804534 -0.017515404 -0.014056891 -0.0744607 0.03815169 -0.054150376 -0.051734798
0.10607659 -0.0057974495 0.025747405 0.03299453 0.018481351 -0.073017575 -0.019460892 0.014335878
0.017021412 0.00050008507 -0.059446365 0.019828523 -0.0055492143 -0.018424915 -0.00034385934 0.03831215
-0.02196915 -0.015386436 -0.03281479 0.059129886 0.010019964 0.0073349816 -0.046719477 0.049978103
-0.046949506 -0.009136527 0.023653572 0.043902107 -0.0120900795 -0.020119162 -0.05508175 -0.027135104
-0.00029084086 -0.0031999745 0.026747288 0.03547503 -0.037151363 -0.10348811 0.0044399104 -0.04222758
-0.09253777 0.06669233 -0.091047645 -0.015147024 0.004657239 0.009426886 0.0042804843 -0.052130338
0.076430164 0.009972534 0.006674772 -0.08803897 0.04621049 0.08033735 -0.04227854 0.0052189184
0.0016003522 -0.026743094 -0.016543126 -0.01033206 -0.023899898 -0.059673306 -0.05993212 0.023037622
0.051344186 0.034392048 0.028482106 -0.061537907 0.03402816 0.031024022 -0.045154016 -0.026171083
-0.029176623 0.0126631195 0.0081694005 -0.02022569 -0.017770609 0.008194223 -0.07121019 -0.051941313

bn4/avg_mean f4 [32]
00000000: a5cb 0e40 fdee a83f 5f7b 34bf 9bb1 6abe
00000010: aa76 513e 976f e6bf df69 2dc0 c953 923e
00000020: 77d8 2dbe 0225 d1be f84e dfbf f169 2bc0
00000030: a2db 0bc0 9944 d5bf b7ee 513f 5b07 49bf
00000040: 8113 40bd c667 adbe 4912 86bf 4ccc fcbf
00000050: 26c7 13c0 466e aa3f fc17 1b40 a5fd 1cc0
00000060: 3ef8 10c0 0fb8 793f 007c 3ec0 e225 89bf
00000070: 5cbb b0bf 7646 43c0 9176 32c0 a3cb a23d
2.2311795 1.3197933 -0.7050075 -0.22919314 0.20455423 -1.8002805 -2.7095869 0.28579548
-0.16977106 -0.40848547 -1.7445974 -2.6783412 -2.1852803 -1.6661559 0.82004875 -0.7852685
-0.0468936 -0.33868235 -1.047433 -1.9749846 -2.30903 1.3314903 2.423339 -2.4529812
-2.2651515 0.97546476 -2.9763184 -1.0714686 -1.3807178 -3.0511756 -2.7884867 0.07948997

bn3/beta f4 [64]
00000000: 88fe 3b3b ba6e 81bc 470c feba 6492 a7bc
00000010: 31b3 16bc 731b c53a 1c71 833d d7c6 a23c
00000020: e794 ce3c b250 2ebb 5311 c6bc 87ac e03c
00000030: 48d8 1b3c 95d6 a83c f03c 8a3c adf5 9abb
00000040: 3b58 4bbc 4e4a 08bd 7756 af3c b315 ecbc
00000050: 04fe 743c 6ed0 113d bdad 6bbc dd4f 82bc
00000060: b597 20bd 81da 053c 5d82 883c 0bbb e639
00000070: f71d ff3b 30cf 893b 311f 0fbd d9ba 48bc
00000080: 90bf 3fbb 09d4 15bb 70bc 7d3c cbaa ab3c
00000090: b8fa 563c 34af 0bba 0ca8 46bd 619b 0e3d
000000a0: c4a5 733c 07a7 a23c d186 10bc 4fcd 713c
000000b0: 573a 633c 26a3 af3c 343d 94ba 2fc2 073d
000000c0: 834d 143b 1d77 a73c 42d4 9eba d7ca 8ebc
000000d0: 48e8 053d 99b0 d1bc 30e6 273d a693 263c
000000e0: c1da 3e3d 86b4 f6bc 7e15 b03b 8298 babc
000000f0: 0230 9cbb 946f 1fbc e9ae f0bc d694 9ebb
0.0028685648 -0.015799869 -0.0019382321 -0.020455547 -0.009197996 0.0015038088 0.06418058 0.019870205
0.025217487 -0.002659839 -0.024178183 0.027426017 0.009512015 0.020610133 0.01687476 -0.004728994
-0.0124111725 -0.033273987 0.021403534 -0.02881894 0.01495314 0.035599165 -0.014384684 -0.015907222
-0.03920718 0.008169771 0.016663725 0.00044008376 0.0077855545 0.004205607 -0.034941856 -0.012251579
-0.0029258467 -0.0022861979 0.0154868215 0.020955464 0.013121299 -0.00053285365 -0.048500106 0.03481615
0.014871065 0.019855035 -0.008821205 0.014758422 0.01386889 0.0214401 -0.0011309744 0.033144172
0.0022629208 0.02044254 -0.0012117701 -0.017430706 0.032692224 -0.025596904 0.04099101 0.010167038
0.04659534 -0.030115377 0.005373656 -0.0227778 -0.004766465 -0.009731192 -0.029380279 -0.00483952

conv1_7/b f4 [3]
00000000: f7c8 fb3c 99d1 f93b f0fd 00bc
0.030735476 0.007623863 -0.007873043

conv1_4/W f4 [32, 64, 3, 3]
00000000: ac6e 15bd 8325 443d 6fa5 073c e5d0 893d
00000010: a72a e33d 3e44 e4bc c62c 4cbc 556e 973a
00000020: 8bd5 543c 8e61 4c3d 05b7 64bd f8c8 e5bc
00000030: 25c2 1a3d a921 643d 2963 5dbd f6c3 d6bd
00000040: 073b cf3c 9aa4 193d 977e fb3b ceea 4abd
00000050: b046 36bd c4ae f93c 5885 c8bd d6da bf3c
00000060: 5d31 63bc 17ca a33d 62f5 b4bd 0ba2 053d
00000070: a971 87bc b593 2ebc 4392 4ab9 4ba9 bf39
00000080: ba64 8c3c 41aa b2bc cd51 943c bfe2 4b3b
00000090: 1d87 3bbd 8d4f 8b3b bf7a e4bb 9e6a 8bbc
000000a0: 7247 e3bc a872 ac3c 92c1 933b 4f61 093c
000000b0: a691 7c3d 7b49 babb d1cc f43c f06a 743c
000000c0: fb53 a33c ab52 76bc 6022 a33c 7c6d b5bb
000000d0: 44d7 0d3d bd37 863c 5762 883d 6355 a83d
000000e0: b155 3dbb d6ab 57bd c46d 133d 0b91 89bc
000000f0: 9d6d 5c3b aa83 8d3c c2da 9fbd 4df6 b0bc
00000100: 99a6 c93d 4cae d23c 37f1 053c 5529 ab3c
00000110: 524b 053c f2b8 743c eec3 a1bc f6bc 6abd
00000120: cecb a5bd 849a 0c3c 55e9 04bd a2db 543d
00000130: 92fd 35bd fd1c 3d3d 99ab 7aba f4d4 c83c
00000140: 30fb 3bba 3a6e dbbc 7265 23bd 701e 87bc
00000150: d54b c9bd a20b 683d a336 813d 4143 313d
00000160: 4c70 063d 658e 68bc 520a 063d e686 933c
00000170: c3db ef3c bd29 e33b 6110 6a3c 8909 0bbc
00000180: fcaa 8c3c 90dd 1dbd 5e23 f63c 82ea 98bb
00000190: 876e 25bd 7a50 3a3d b34f a5bd c0b9 213b
000001a0: bdb2 f93c 0a2f 54bd eedb 763d d7cc 01bc
000001b0: 5292 8f3c 82d1 6f3c e87f f8bd 51fe c9bc
000001c0: d746 21bd 9476 21bb bc17 57bd 764a cabc
000001d0: e826 f2bc 493a 513c b18e 27bd 8839 bcbc
000001e0: 03f8 493b bf49 703d d0f4 c5bc 22dc 26bb
000001f0: 8e6d 193d 51de 023d 2b79 5ebc f472 a6bd
00000200: dfe7 85bb 5777 a83c c63a 6a3d 74dc 20bd
00000210: dc50 813d 16b9 ae3d bb35 0e3d b792 b93c
00000220: 4aed 953c 129e 613d e071 dfbc f11f cb3c
00000230: 7e58 9a3d 6341 933c d4c8 86bd e22b 99bc
00000240: 997e 57bd 698b 443c ca6e 1ebd 4c50 c73c
00000250: 4458 873d d868 86bc e164 8cbd e09f 8fbc
00000260: 97a1 a53c 83e8 94bd 8fdd c9bc 7ff8 f13c
00000270: 023b edbb 233e 973d db3d 513d 58b7 923d
00000280: 199e d63c 6a83 a2bd 617b c2bc 0333 5d3c
00000290: 7187 b6bc c488 7e3c 9c65 8cbc 7086 26bd
000002a0: 7f51 62bd 0e52 3cbc 2ec3 a6bc 5b57 383d
000002b0: 737a a53d f16b 513d 5617 b2bc 5dd7 15bc
000002c0: 5124 bb3c 133c 043c 23b1 d03c 4758 813d
000002d0: d381 5ebc 2a4a d73b c75c 693d 4026 5e3d
000002e0: 2860 b1bc 577c da3c e28c 833d c602 c63c
000002f0: 7ffb 8cbd af08 3fbd 9e0c 9c3d a6f6 50bd
00000300: efaa cbbc c1cc c53c 8f4f 913c 458c 4ebc
00000310: cc80 47bd 87b9 16bd f266 a2bb 142c 633d
00000320: a1ef 453a b47e c2bc a8fe f93c 14cb 0cbd
00000330: 5109 023d 8579 6d3d 6783 bf3c 84b6 f73c
00000340: 9424 aa3d 39b5 0b3d 13e2 8ebb 646b ad3c
00000350: 352f 8c3c 83b5 ed3b eac5 0d3d a04f b23c
00000360: ecfe 8e3b dc9a 143d da75 5fbc 958d 7b3c
00000370: 36cd 043d 5ec0 01bc 78b7 bb3c 9d0c 2d3d
00000380: 5ddc 82bd e99b 86bb 09d1 4fbd c9da f5bc
00000390: 0907 663b 3a69 a43d e98a 073d e751 693c
000003a0: 5aca 5abd 1ee7 a33c f864 5e3c 968e 0fbd
000003b0: f10e 313d 24db d4bc ebc2 9b3d 8411 023d
000003c0: 5f08 2abd 790d 0dbd 9d70 1abd a87f c23d
000003d0: a6dd 39bd e218 913d f8f9 d43c 7120 c73d
000003e0: 2938 c0bc 3f86 843c f5e9 863d 45c1 4b3b
000003f0: c290 433d 52de 083d 783c 743b 1d7b 16bc
-0.036482498 0.047887336 0.008279189 0.067292966 0.1109212 -0.027864572 -0.012461847 0.0011553267
0.012990366 0.049897723 -0.055838604 -0.02804993 0.037782807 0.055696163 -0.054049645 -0.10486595
0.025296701 0.037510492 0.007675003 -0.049540333 -0.044501007 0.030478843 -0.09791058 0.023419779
-0.01386675 0.0799753 -0.088358656 0.03262524 -0.01653369 -0.010655333 -0.00019318708 0.00036556492
0.017137874 -0.021809699 0.018105412 0.0031110493 -0.04578315 0.0042514266 -0.0069726403 -0.017018612
-0.027744029 0.021050766 0.0045091594 0.008385017 0.06166234 -0.005685029 0.02988282 0.014918074
0.019937506 -0.015034358 0.019913852 -0.005536733 0.03462912 0.016384 0.06659382 0.08219411
-0.0028890187 -0.05265411 0.035993353 -0.016792795 0.003363467 0.017274696 -0.078053966 -0.02160182
0.09846229 0.025717877 0.008175186 0.020893732 0.008135634 0.0149366725 -0.019746747 -0.057309113
-0.08095513 0.008581761 -0.032449085 0.05196727 -0.044431277 0.046170224 -0.0009562313 0.024515606
-0.0007170914 -0.026785959 -0.039891668 -0.016494006 -0.09828917 0.05665172 0.06309249 0.04327703
0.03282194 -0.014194106 0.032724686 0.01800866 0.029279595 0.006932466 0.014286132 -0.00848616
0.017171375 -0.038541377 0.030046161 -0.0046666274 -0.04038861 0.045486905 -0.08071842 0.0024677366
0.030480737 -0.051802672 0.060268335 -0.007922373 0.017525826 0.014637353 -0.12133771 -0.0246574
-0.0393742 -0.0024637328 -0.05251287 -0.024693709 -0.029559568 0.012770244 -0.040907566 -0.022976652
0.0030817993 0.05866408 -0.024164587 -0.00254608 0.037457995 0.0319503 -0.013578693 -0.08127394
-0.004086479 0.020564718 0.057184957 -0.03927274 0.06314251 0.08531396 0.03471921 0.022652967
0.018301625 0.05508239 -0.02727598 0.024795504 0.0753641 0.017975515 -0.06581274 -0.018697683
-0.052610967 0.011996129 -0.038679875 0.02433028 0.06608632 -0.016407415 -0.068551786 -0.017532289
0.020218654 -0.072709106 -0.02464178 0.029537437 -0.0072397003 0.073848985 0.05108438 0.07163876
0.026198434 -0.079352215 -0.023740472 0.013500932 -0.02228138 0.015535537 -0.017138295 -0.040655553
-0.055253502 -0.011494173 -0.02035674 0.045005184 0.08079996 0.05112833 -0.021739643 -0.009145585
0.022844465 0.008070963 0.02547509 0.06315666 -0.013580757 0.0065701203 0.056973245 0.054235697
-0.021652296 0.026670618 0.06423356 0.024171244 -0.068839066 -0.04663914 0.07619594 -0.051016472
-0.02486178 0.024145486 0.017738132 -0.012606685 -0.048706815 -0.036798026 -0.0049561197 0.055461958
0.0007550661 -0.023742057 0.030516937 -0.034373358 0.031747166 0.05797722 0.023378087 0.030238397
0.08307758 0.034108374 -0.0043604462 0.021169372 0.017112354 0.007254304 0.034612574 0.021766484
0.004363885 0.036280498 -0.013638938 0.01535358 0.032422267 -0.007919399 0.022914633 0.042248357
-0.06389687 -0.0041079414 -0.05073646 -0.030011551 0.0035099408 0.08027883 0.03309146 0.014240718
-0.053415634 0.020007666 0.0135738775 -0.03504809 0.04322714 -0.0259834 0.07605537 0.031754985
-0.04151189 -0.034436677 -0.037705053 0.09497005 -0.045377396 0.07084824 0.0259981 0.097229846
-0.02346428 0.016177295 0.065875925 0.003109054 0.047745474 0.033415146 0.0037267487 -0.009184626

bn1/gamma f4 [64]
00000000: 0d82 793f 3102 773f c4a5 773f 3542 793f
00000010: c306 7a3f 5483 7a3f 0d28 803f 2085 7a3f
00000020: 841b 803f 5c73 803f 89c0 7e3f fd03 853f
00000030: b9e5 7b3f c8c1 783f 4940 813f b47c 743f
00000040: b01c 803f 39f1 733f 4979 723f 0034 7d3f
00000050: 69ec 803f b06b 813f 8237 7e3f bedf 7c3f
00000060: c549 843f ddab 6e3f e5f2 7b3f 58c0 753f
00000070: 5487 7f3f 8396 793f ad92 743f 20ca 7c3f
00000080: 9503 753f 4228 7c3f 3152 853f f205 793f
00000090: 2785 793f 54e7 763f b2d1 813f 4490 803f
000000a0: 3994 753f 7d1f 813f d3f0 793f 7328 803f
000000b0: c094 7f3f 0c8b 773f 1554 7c3f 3936 763f
000000c0: 40fa 763f bf05 813f dc2c 703f 62b4 793f
000000d0: 9658 773f abab 743f a7e7 753f a6bd 7e3f
000000e0: 2bc3 7a3f bab6 803f 7013 773f ac0d 813f
000000f0: 65a0 763f cdb0 7b3f 2002 7a3f f706 793f
0.97464067 0.9648772 0.96737313 0.9736665 0.9766657 0.9785664 1.0012223 0.9785938
1.0008397 1.0035205 0.99512535 1.0391842 0.98397404 0.97170687 1.0097743 0.9550278
1.0008755 0.9528995 0.94716316 0.9890747 1.0072147 1.0110989 0.9930345 0.98778903
1.0335013 0.9323099 0.984175 0.9599662 0.9981587 0.9749529 0.9553631 0.9874592
0.9570859 0.9849893 1.0415708 0.97274697 0.974688 0.9644673 1.0142119 1.0044026
0.95929295 1.0087734 0.97633094 1.0012344 0.9983635 0.96696544 0.985658 0.9617649
0.964756 1.0079879 0.9381845 0.9754087 0.96619546 0.95574445 0.960566 0.9950813
0.9795405 1.0055764 0.96514034 1.0082297 0.9633849 0.9831665 0.9765949 0.9727625

conv1_4/b f4 [32]
00000000: 4978 bf39 f873 16b8 6a1f 8a37 7c2d f538
00000010: ee54 a2b9 15ca 55ba 09a7 1e3a 207d 7c37
00000020: 38e9 6ab8 a7fd e9b8 7122 1c38 b6ce f5b8
00000030: e424 13ba 9001 4bb9 3730 c837 2122 7239
00000040: 9fb7 daba b3e0 3a38 55aa 98b9 5122 f9b8
00000050: 23ec 1bb8 b588 b5b8 a3a7 84b9 fde7 3839
00000060: 58ee 0737 5c34 8c3a c4c1 e439 061a 6ab8
00000070: 50ea fd38 8560 4638 c61d 3d39 2047 95b9
0.00036519978 -3.587079e-05 1.646551e-05 0.000116909825 -0.00030962325 -0.0008155418 0.0006052112 1.5049503e-05
-5.600715e-05 -0.00011157552 3.7225374e-05 -0.00011721013 -0.0005613102 -0.0001936017 2.386431e-05 0.00023091632
-0.0016686803 4.4555123e-05 -0.00029118606 -0.00011879637 -3.71748e-05 -8.656216e-05 -0.000253019 0.0001763403
8.102121e-06 0.0010696757 0.00043631915 -5.5814184e-05 0.00012107624 4.729677e-05 0.00018035536 -0.00028472487

conv1_5/W f4 [32, 32, 3, 3]
00000000: 36b8 67bd b5b3 2fbd 45fe 7b3c ca65 76bd
00000010: f2c4 8c3d b93a cf3a 51cf e0bb c685 b73d
00000020: c8e8 3f3d 5bf1 ad3c ec30 583d e263 bcbc
00000030: 76de 83bd bfcf 953c 3ea6 cbbc 5e0b 09be
00000040: b7b5 303d 3737 c73c 4fd2 9cbc 3555 fb3c
00000050: eaba c33c 60b7 b7bb b0d8 29be 8017 763d
00000060: 232d 8fbd 518e 38be 652e 4b3d a8b9 423d
00000070: 77a8 043c c4aa 6f3d 0588 67bb 1a97 8f3d
00000080: ef1c 77bd a96a 7b3d cceb 063d 02e5 813d
00000090: 2b2c 843a 0f77 c4bc a08a 55bb d123 a0bc
000000a0: 876d 44bd 59e5 113d c332 adbc 175f b9bc
000000b0: 992d 433d 1db8 cf3c 0af1 57bc 37b9 133d
000000c0: b3e7 47bd 9ecf d8bc 1a1e 0f3d 57cc 96bc
000000d0: 3966 c03d 64bd 333d e5c0 f63c d47d d5bd
000000e0: a9f5 2cbd ea6f 5e3d 37ef dcbc 41e0 d43c
000000f0: 7baf 62bd 5424 3c3d 2717 ad3d 7534 79bc
00000100: 6090 6d3d f411 c23c 4b44 b5bd d903 ecbc
00000110: 71a5 09bd 0c0b 423d 47ed d4bd 3743 213d
00000120: cc91 31bc 7900 52bc a7c4 c4bc 00d0 5a3d
00000130: 13a2 33bd 5e3e 7abb 4cf5 4b3d 7678 b1bc
00000140: 63c0 823b 4fd6 ab3c 88ad 91bd 42a3 b23c
00000150: a854 c8bb e608 353c 8ba0 f33c ee5d bdbd
00000160: 6894 ac3d 770b cb3c 0d4a 093d 0af5 973d
00000170: 8a8d 393d 2d4c cc3d c4ee a0bc 5d97 7ebc
00000180: 1a64 d9bc 267c 47bd 1d39 3c3d 4512 363b
00000190: 6187 25bd a53e a03c d191 9e3d 008c 713d
000001a0: cb45 7e3c 2e5c 96bd b4a0 1c3b c95a 14bd
000001b0: 1423 d1bd 7df5 aebc 1bbf 493d 9464 abbd
000001c0: 903f 92bb c7d7 b63d 104c 943c ff3c 06bd
000001d0: 25d5 13bd 570c 713d 1d57 be3c 92a3 8fbc
000001e0: bef0 da3d 1b8e 763d 5d33 14bd e6ab e43c
000001f0: 16a1 db3c a610 273a 363b c2bd 8fb3 cf3d
00000200: 6d52 843d e19f debc f57e ea3d 47b4 93bd
00000210: 1786 cfbc 2d57 d33c 3f59 cb3b fb61 6fbd
00000220: 7ec6 3b3d 26dc 4dbd f1ec 49bd 6586 63bd
00000230: 64aa ce3c 4425 103c ea35 f33b 3a2f c3bc
00000240: 436a 9b3c 57dc 343b 2563 acbd 07c1 71bd
00000250: 7a90 c93c dd17 5c3c da08 2c3d 8bc5 973b
00000260: b0d6 0dbd a8b7 80bc 0306 9bbd f539 093c
00000270: 7c4f a83c 5f14 9cbd ce8f 04be 0a05 7d3b
00000280: 1a01 8d3d 096e 1abd 956d bfbd 5653 12bd
00000290: 7131 97bd 481e 0b3e 4f9f 163e e9a9 95bc
000002a0: 6ad2 203d 262e 763d 24e7 f83d b661 083c
000002b0: 5480 0e3d acc5 6d3b 8dbd 593c 029b 89bd
000002c0: d036 2ebd 02a9 31bd 89b6 5cbd 554f 8e3c
000002d0: 72fe d53b 6641 4d3d 523a 7abd 9eba c23c
000002e0: 60c5 533c 134f 94bc bafb a63d 01a4 203d
000002f0: 576e 3bbd d7ef 153d 14d9 20be 19f6 263b
00000300: eea0 42bd fbf5 013c 3509 143d 73b6 783d
00000310: e1c3 1bbc 9d22 cd3c f042 413d 4c0c 39bd
00000320: 92f4 c2bd ff8c 1a3d bfd0 973d 4e1d b83d
00000330: e3ef b4bc 19d4 bb3a f117 53bc b316 db3c
00000340: c065 a73c 1af9 72bd 023b 90bc bd27 393c
00000350: 385b 673d b9e2 403d c86e 0fbd 6ad3 b43d
00000360: cac2 36bc 780e cb3c f028 c8bd 8b3d a9bd
00000370: 59f7 1abd 4b89 8e3d 28a7 25bc 3b8d f2bc
00000380: 8350 94ba ac87 92bc 193c 63bd 17ec fbbc
00000390: b6e3 d93c 62c5 88bc e0ad 493d 039b 79bd
000003a0: f3d7 60bd 9524 313d 88fa 6e3d 42ce 2a3e
000003b0: 0d57 1e3c 216b 803c 7345 1ebd b3e2 06bd
000003c0: 7173 4a3d 3a4f 2c3d 7c21 f13c eeb5 47bd
000003d0: 26c7 a03d 43f7 bebb 2d63 dc3b 85d5 413a
000003e0: 0bed c3bd 6a8c abbd 6d37 0a3c 5273 c63d
000003f0: 2df9 30bc 4aae 9c3c 0638 b43c 9c25 21bd
-0.05657216 -0.04289599 0.015380447 -0.060155667 0.06873502 0.0015810347 -0.0068606515 0.08961062
0.046852857 0.021233251 0.05278103 -0.022996847 -0.064389154 0.018287538 -0.024859544 -0.13383242
0.043142047 0.02431832 -0.019143252 0.030680278 0.023892839 -0.005606577 -0.16586566 0.060081005
-0.06991031 -0.1802304 0.049604792 0.047540337 0.008096806 0.058512464 -0.0035328877 0.07011242
-0.060330328 0.061381016 0.032939717 0.06342508 0.0010083964 -0.023982553 -0.0032583848 -0.019548329
-0.047956016 0.035619114 -0.02114237 -0.02262835 0.047650907 0.025356347 -0.013180027 0.036065307
-0.04880495 -0.026466187 0.034940816 -0.018407984 0.093944974 0.04388179 0.030121276 -0.104243904
-0.042226467 0.05430595 -0.026969535 0.025985839 -0.055343132 0.045933083 0.084516816 -0.015210261
0.057999015 0.023690201 -0.088509165 -0.028810428 -0.033605043 0.047373816 -0.103968196 0.03937074
-0.010837983 -0.0128174955 -0.024019552 0.05342102 -0.043855738 -0.0038184146 0.04979448 -0.021663886
0.0039902194 0.020976214 -0.071131766 0.021806363 -0.0061136074 0.011049485 0.029739639 -0.09246431
0.08426744 0.02478574 0.033517886 0.07419784 0.045300998 0.09975467 -0.019645102 -0.0155390175
-0.02653699 -0.04870238 0.045952905 0.0027781886 -0.04041231 0.019561121 0.07742656 0.058971405
0.01551957 -0.07341801 0.0023899497 -0.036219392 -0.10211769 -0.021357292 0.049254518 -0.08368793
-0.0044631436 0.08927875 0.018102676 -0.032773014 -0.036091942 0.05884966 0.023234898 -0.017534051
0.10690449 0.060194116 -0.036181796 0.027913999 0.02681021 0.0006373025 -0.0948395 0.1014167
0.06461034 -0.027175846 0.114499964 -0.072121195 -0.025332494 0.025798405 0.0062057073 -0.05844305
0.045843594 -0.050258778 -0.04929823 -0.05554809 0.025227733 0.008797947 0.0074221985 -0.02382623
0.018971568 0.0027597153 -0.08417348 -0.059021976 0.024605025 0.013433424 0.04200063 0.0046317033
-0.03462857 -0.015712574 -0.07569506 0.008375634 0.020545714 -0.07621073 -0.12945482 0.003860774
0.06884976 -0.037702594 -0.09347073 -0.035724007 -0.07382477 0.1358577 0.14709209 -0.018269496
0.039263166 0.060102604 0.121534616 0.008324077 0.034790352 0.0036281152 0.013289821 -0.067190185
-0.042532742 -0.04337407 -0.053885017 0.017371813 0.0065305764 0.050111197 -0.061090775 0.023770627
0.012925476 -0.018104112 0.08153482 0.039218906 -0.045759525 0.036605682 -0.15707809 0.0025476275
-0.047516756 0.0079321815 0.036141593 0.060720872 -0.00950715 0.025040919 0.047182977 -0.045177743
-0.09519304 0.03773212 0.07412862 0.089899644 -0.022087043 0.0014330178 -0.012884126 0.026744222
0.02043426 -0.059319593 -0.017606262 0.011300978 0.056483477 0.04709122 -0.03501776 0.088293865
-0.01115484 0.024787173 -0.09773433 -0.082636915 -0.037833545 0.0695978 -0.010110654 -0.02960836
-0.0011315498 -0.017886959 -0.055477235 -0.030752225 0.026597839 -0.016695682 0.049238086 -0.060938846
-0.054893445 0.043247778 0.058344394 0.16680244 0.009664309 0.015676083 -0.03864045 -0.03293104
0.0494265 0.042067744 0.029434912 -0.048757486 0.078504845 -0.0058278157 0.00672569 0.00073941826
-0.09566697 -0.08376391 0.008436066 0.09689964 -0.010801596 0.019126076 0.02199937 -0.039342508

bn5/beta f4 [32]
00000000: dd43 c43d 4767 a93d 0997 583b 82f9 0b3e
00000010: 216c 923d afc5 873d 3a7e 093e 5350 4d3d
00000020: bbbb 0a3e 0f83 c33d fa89 f13d 0205 fc3d
00000030: 91f9 5c3d 8e9e 8e3d e98e b43c 4e73 823c
00000040: 6ac4 eb3c 6767 c23d d562 463d e09a 803b
00000050: f8ca ad3d a505 0b3d 258d c439 9da4 343c
00000060: 8c65 213e 7c1c 873d 400d 173d cf75 b63d
00000070: 3f5c 073e 4f3b 073e c969 9b3d 3ba6 8c3d
0.095832564 0.08271652 0.0033049008 0.13669398 0.0714953 0.06629502 0.13427058 0.05012543
0.13548176 0.09546482 0.11793895 0.12305643 0.053948943 0.06963836 0.022040801 0.015924122
0.028780181 0.09492379 0.048434097 0.0039247125 0.08485979 0.03394093 0.00037489194 0.011025575
0.15761393 0.0659723 0.03687787 0.08909189 0.13218783 0.13206218 0.07588536 0.068676434

bn2/gamma f4 [64]
00000000: fc2e 7d3f 25d3 753f 0b06 783f eb16 7e3f
00000010: 2a1f 7c3f cce6 833f 2399 833f 7c50 803f
00000020: 3dd5 803f 3129 7f3f b0de 7c3f 3987 7a3f
00000030: 3650 803f 386e 7e3f c1a3 793f dab3 823f
00000040: 59f6 7c3f 99f4 7d3f 7a38 7a3f b49f 7e3f
00000050: ca7f 7d3f 0855 833f a236 783f fc86 7d3f
00000060: 49e9 803f b0c6 7f3f 8643 823f a02c 773f
00000070: 9c79 733f 07cf 803f 0f8a 833f 1e5b 7c3f
00000080: a14f 7d3f ebe7 7b3f febf 7c3f d572 803f
00000090: 3b78 7e3f 3d00 7b3f 08a8 7d3f a8d0 7c3f
000000a0: dc2c 853f 1103 7c3f 238f 7a3f 0f30 803f
000000b0: bfb6 833f 4117 833f 5f6b 7b3f 07e1 823f
000000c0: 5174 7e3f 554b 7b3f 2d63 823f 638a 733f
000000d0: ec20 893f 6a46 7f3f ae10 823f 9712 7a3f
000000e0: 5fbd 7e3f 24bd 7b3f f548 7b3f 1804 763f
000000f0: cca3 783f e9d3 7f3f fe79 883f 366d 7c3f
0.9889982 0.96025306 0.9688422 0.9925372 0.9848505 1.0304809 1.0281109 1.0024562
1.0065075 0.9967223 0.98777294 0.97862583 1.0024478 0.9938693 0.97515494 1.0211136
0.98813397 0.9920135 0.97742426 0.9946244 0.99023116 1.0260324 0.96958363 0.99034095
1.0071193 0.9991255 1.0176857 0.9655247 0.95107436 1.006318 1.0276507 0.98576534
0.9894963 0.98400754 0.98730457 1.0035044 0.9940221 0.9804724 0.9908452 0.98755884
1.0404315 0.9844218 0.9787466 1.0014666 1.0290145 1.0241472 0.9821071 1.0224923
0.99396235 0.9816182 1.0186516 0.95133036 1.0713172 0.9971682 1.016134 0.97684616
0.9950771 0.9833548 0.981582 0.96099997 0.97124934 0.99932724 1.0662229 0.9860414

conv1_2/b f4 [64]
00000000: bc7c f2b7 73c1 88b7 586f a138 b6fe ad39
00000010: 74e8 88b8 6277 a3b8 df71 18b9 3766 a239
00000020: c026 0eb8 6194 e038 1c6f 1139 8310 32b7
00000030: 7dec 2437 5d8d 6d38 5694 87b9 b8b0 95b8
00000040: 672d 98b9 0c89 db38 9969 abb8 6944 50b9
00000050: 1271 a3b8 c891 45b9 d290 8d37 62a1 6638
00000060: c1ea bcb9 d171 62b8 2560 7038 ee65 2f39
00000070: 6fcb 0d39 189f d338 d98d d738 5d5f 0aba
00000080: 05ef 64b8 239c b5b7 c40a 9438 d694 2f38
00000090: d464 6038 7d44 7339 11ac e3b8 863b 13b9
000000a0: a2cd c3b7 8ba6 f8b8 9939 fe37 0da4 58b8
000000b0: ceea 23b9 9746 e1b7 b2e3 ef36 84ac 95b9
000000c0: 7192 3ab8 059e 8737 1ba4 0e39 d84d 6037
000000d0: 7297 4939 9a8e 4e38 045b bdb9 e685 f9b8
000000e0: 5f8e 8eb8 ea4f 6237 6bda 5fb9 ce39 29b9
000000f0: 477f 4f38 cda2 0c39 7b92 61b9 ed86 c538
-2.8906732e-05 -1.6302545e-05 7.697818e-05 0.00033186906 -6.528283e-05 -7.7946825e-05 -0.0001453827 0.00030975204
-3.3891527e-05 0.0001070879 0.00013869669 -1.0613471e-05 9.8302235e-06 5.6636858e-05 -0.00025859725 -7.13779e-05
-0.00029025527 0.00010468261 -8.1735845e-05 -0.0001986191 -7.793507e-05 -0.00018841692 1.6875947e-05 5.4986573e-05
-0.0003603306 -5.39886e-05 5.731e-05 0.00016727272 0.00013522593 0.000100908976 0.0001027842 -0.00052784925
-5.458204e-05 -2.1649588e-05 7.059195e-05 4.1861866e-05 5.3499665e-05 0.000231998 -0.00010856253 -0.00014041187
-2.3341567e-05 -0.000118565826 3.030598e-05 -5.1651197e-05 -0.00015632363 -2.6854961e-05 7.1492623e-06 -0.0002854803
-4.448224e-05 1.6166838e-05 0.0001360331 1.3369565e-05 0.00019225272 4.9247035e-05 -0.000361167 -0.00011898186
-6.797606e-05 1.3489256e-05 -0.00021348304 -0.0001613863 4.9471182e-05 0.00013412088 -0.0002151224 9.418824e-05

bn2/avg_var f4 [64]
00000000: 9e0d aa3e 4d19 1d3f da5c f33e e0c3 fb3e
00000010: b1a8 b93e c8b8 e53e af7d 003f f613 c23e
00000020: 2d40 e93e 8640 f73e 1505 e53e 5cbe 153f
00000030: a73f cf3e 5569 943e 073a 073f 0ad3 c63e
00000040: 51b4 be3e 95da ce3e 095f 2f3f 999a c13e
00000050: aac7 303f 9c89 0c3f 26ff d83e 51d4 cb3e
00000060: baa9 e23e 21dd cc3e 042c bf3e 9cad 893e
00000070: f3df 033f 46e2 c33e 19ab f63e 97ea c23e
00000080: d15d bc3e 72a1 f53e 0758 063f 13e7 163f
00000090: e2b7 be3e f2a7 133f 80ab e23e b65c d83e
000000a0: 9238 403f 32c8 de3e 2c39 d83e 5339 033f
000000b0: ee8b f63e d5e4 fa3e 350b f63e 5638 083f
000000c0: c84f f63e 95f0 bc3e a888 c03e 416d 003f
000000d0: 5b7d 083f cae7 ef3e 0ece fa3e 65b6 e13e
000000e0: f467 d23e 74c2 cc3e 037f a43e 393b b33e
000000f0: a22b f33e 9258 013f f05c 0d3f 3d4c ee3e
0.33213514 0.6136673 0.47531778 0.49172878 0.36261514 0.4486754 0.5019178 0.37905854
0.45556775 0.48291415 0.4473044 0.5849359 0.4047825 0.28986612 0.5282292 0.38832885
0.37246946 0.4040114 0.6850439 0.3781326 0.69054663 0.54897475 0.42382163 0.39810422
0.44270116 0.40012458 0.3733827 0.26890266 0.51513594 0.3825857 0.48177412 0.38069603
0.36790326 0.47974735 0.5247807 0.5894634 0.37249666 0.5767814 0.4427147 0.42258233
0.7508632 0.43512112 0.4223112 0.51259345 0.48153633 0.4900271 0.48055425 0.5321096
0.48107743 0.369023 0.3760426 0.5016671 0.5331628 0.4685653 0.48985332 0.44084468
0.41094935 0.39992106 0.32128152 0.3500612 0.47494227 0.5052577 0.55219936 0.4654254

bn6/beta f4 [32]
00000000: 52c3 d23d ee40 043e bc2e 163c 4f5e ef3d
00000010: ce33 513d 1416 3e3d d05b f83d 4148 163d
00000020: ddbf de3d a65d bc3d 18ec 223e e08c 163e
00000030: 33be 763d 4e26 ac3d baac 3a3d 2611 353d
00000040: 6c78 8b3c c9ea c83d 8e72 b63d 6082 173c
00000050: 2d83 cf3d cd94 953c 82c5 dd3d 4e97 0e3d
00000060: 39a0 943e 8325 6f3d deb7 8b3d 9981 f13d
00000070: c8e6 ef3d b34e d73d 4065 f33d 7575 aa3d
0.10291161 0.12915394 0.009166416 0.1168791 0.051074795 0.046407774 0.12126887 0.03669
0.10876439 0.091975495 0.15910375 0.14702177 0.06023998 0.084057435 0.04557488 0.044205807
0.017025195 0.09810407 0.08908568 0.009247392 0.10132442 0.01825943 0.10828687 0.034812264
0.2902849 0.058385383 0.06822179 0.11792297 0.1171394 0.105130576 0.11884546 0.083231844

conv1_7/W f4 [3, 32, 3, 3]
00000000: ffbe d73c 411f 3a3d e4a1 a43d 801e da3c
00000010: 75ef ea3c 2429 0ebd 66b8 323d 28d6 973d
00000020: 4a2f 283d 7a1a 49bb 03f2 223d e96c eb3d
00000030: 407f 583d 01db 843c eef2 d13d 88cc 853d
00000040: d7b5 9bbd 4612 6d3c a76f 163e 7e82 6bbc
00000050: 7ec9 ce3c 42b8 0e3d a46a 583c 4637 783d
00000060: 27d5 75bd 5ef5 66bd 79ef 8cbd 6068 bebc
00000070: 48b0 693d 3877 b83d 6ef0 b23c 3b80 3cbc
00000080: 1ed8 65bc 52ca 83bc 2c17 413e 4efb 8fbc
00000090: da33 f53d f433 9f3d 5d3a b03d 957a 7f3d
000000a0: a475 183e 740f 343e eddd 873d 722b ddbc
000000b0: cdd4 c33c 4e4b cdbc fed9 b8bd eabc 0b3e
000000c0: 22ff c33d be86 c4bd efbc 803d c8d6 913c
000000d0: da7c 373b 95e1 10bd 36db b93d 8558 14bd
000000e0: 739b 8c3c 4e97 45bc 168a 2f3e 2d0b 83bd
000000f0: 5786 563c 59b3 2f3e f237 39bd 76ba 93bc
00000100: bb9a b13d 528f ebbc 12f2 14bd c35a f9bd
00000110: 72c6 c03d 4e2c 66bd 2051 d63d b961 a53d
00000120: 733f ad3c 15ca e13d ceaf fe3d 6d47 463d
00000130: 455a 713d d53e 91bd 297b debd eb8b 583e
00000140: 9545 053d 3a96 f53d e255 c13d 1f74 bfbb
00000150: 8568 de3d cd56 263e a3a7 a7bc d369 a93d
00000160: 6f4e d63c f7e0 79bc 27cf 68bd 8a7d a83d
00000170: 6409 7a3d 7324 853d 0da8 f43d 448c 98bd
00000180: 32ff 3f3e ce2d 623d 6589 17bd 7afc d0bc
00000190: 7b9b 30bd ab27 d6bc b37b 133d 354a 1c3e
000001a0: 6156 3d3d 34d7 da3c 7f37 653d b068 493d
000001b0: 30dd cbbd f056 b23c 02bd 493e f83b aa3d
000001c0: 0db6 2b3e 8895 e33d 29dd dc3d 0ba3 db3d
000001d0: dd6f 2ebc aebd 0e3d 1c69 0e3e 2014 083e
000001e0: 278f c73c ded6 b23d c435 a63d c3c9 323e
000001f0: bfcc bfbd 2eff 94bd 1889 283d 1eb8 5f3c
00000200: f5b9 c13c ce4d 4bbd 70ba 0c3c 57dd 8bbd
00000210: 0e64 d1bc 1878 c03d c723 ee3b 73d6 c93d
00000220: 7d82 df3c 49d4 453d 2853 cebc 43f1 80bd
00000230: c78d fbbc 4467 af3d 8205 a93c 99ba 913c
00000240: 883a ebbc 4b1d a8bd 5087 09be 1e12 9fbd
00000250: e186 043d e1fd f7bc 3393 1f3d 90e4 523e
00000260: 13ce ab3b 8842 f93d a21b d03d 7cb3 623c
00000270: c303 773e 5c34 193d d794 a13d 40c3 7a3c
00000280: dfd8 2cbe 1611 183d 59b6 b53d d745 a33d
00000290: b840 ba3c e48b a13d a7ad 98bd c82f bbbc
000002a0: 3cee 8dbc 24ad 473d d176 143d 469b 363d
000002b0: 4f3d 08b8 28c0 493e b027 b9bd 6b2d ccbd
000002c0: a454 19bd 6a6e 61bd e9c2 993c eeea 4e3c
000002d0: c15c d43d 6fac ebbc d653 e13c 4852 adbd
000002e0: c7ec 923d 3d39 87bd 90a5 0b3a efb6 0e3d
000002f0: 60fa 303e b3c2 be3b 642c 0ebc 8a21 2a3d
00000300: fc55 5d3c aba9 b93d c93e cfbd e2b5 70bb
00000310: 4e28 06be 8a98 b23d 79a4 ec3d 6209 7a3c
00000320: 9b03 2ebd 406c cf3d dd96 a7bd 8d40 92bd
00000330: c410 793d 1b39 0b3c 17cc 423d cb85 c5bd
00000340: 8d4f 4d3d f3ea 90bc 4a61 e4ba 7c41 913d
00000350: 7527 2cbd ff9a 563c f60a 02bd eaa0 e13d
00000360: 4398 4bbd 84b7 353d 6f21 a2bd adb2 0abd
00000370: c32a 6f3d b078 2a3e adf1 5e3d 88e5 35bc
00000380: 1bf7 803d a12b 30bd a07b b3bc b631 143e
00000390: 86c1 2d3d 3182 a63d 51d5 ff3d 244b c53d
000003a0: bd35 e83d 85ac fa3d 7375 87bd 07a2 8dbc
000003b0: f320 e3bc 26c3 f93d 1d55 053e f60c b7bb
000003c0: ed9f a8bc 989a c13d 2d11 2a3d 8b0f 50bd
000003d0: 3ede c53b e17b ac3d 9e0b 92bd 5150 38bd
000003e0: 49e3 6f3e 24e0 1ebd 3c6d 86bd 3d99 a63b
000003f0: 8504 0f3d 2a6b 75bc c385 acbc 7fd4 8f3d
0.026336191 0.045439962 0.08038691 0.026625872 0.028678635 -0.034707204 0.043632887 0.07413894
0.041060723 -0.0030685947 0.03978158 0.11495382 0.05285573 0.01621771 0.10251413 0.06533152
-0.076030426 0.014469689 0.1469103 -0.0143743735 0.025242563 0.03484369 0.013209019 0.060599588
-0.06001773 -0.056386344 -0.06881613 -0.02324313 0.05705288 0.09007114 0.021843161 -0.011505182
-0.014028577 -0.016087685 0.18856496 -0.017575886 0.119727805 0.07773581 0.08604882 0.062372763
0.14888626 0.1758402 0.06634126 -0.026998255 0.023905182 -0.025060322 -0.09025954 0.13646284
0.09570147 -0.095960125 0.06286036 0.017802611 0.0027998001 -0.03537138 0.09075014 -0.03621723
0.017163968 -0.01206 0.1714252 -0.06398616 0.013093553 0.1715826 -0.04521937 -0.018033247
0.086720906 -0.028754864 -0.03636367 -0.121755145 0.094128504 -0.056194596 0.10464692 0.0807528
0.021148419 0.11024872 0.12435876 0.04840796 0.05892398 -0.070920624 -0.10863335 0.21147124
0.03253706 0.11991544 0.09440209 -0.0058427 0.10859779 0.1624405 -0.020465678 0.082721375
0.026160447 -0.01525139 -0.05683818 0.0822707 0.06104411 0.06501093 0.11946116 -0.074486285
0.18749693 0.055219464 -0.036996264 -0.025511015 -0.043117028 -0.026141962 0.03600664 0.15262683
0.046224955 0.026713945 0.05596113 0.049172103 -0.099542975 0.02176997 0.19701007 0.083122194
0.16768666 0.11112505 0.107843705 0.10724457 -0.0106467875 0.03484886 0.13907284 0.13288927
0.024360253 0.08732389 0.08115724 0.17459778 -0.09365224 -0.07275234 0.041146368 0.013654737
0.023648242 -0.049634747 0.008589372 -0.068293266 -0.025560405 0.09397906 0.0072674486 0.09855356
0.027283901 0.048298154 -0.025186136 -0.06296017 -0.030707253 0.08564618 0.02063251 0.017789172
-0.028714433 -0.08208712 -0.13430524 -0.077671275 0.032355193 -0.030272426 0.03895874 0.20595002
0.005243072 0.12170893 0.101615205 0.013836738 0.24122529 0.03740345 0.07889717 0.01530534
-0.16879605 0.03712567 0.08872671 0.07972305 0.022735938 0.0788801 -0.074549966 -0.022849932
-0.017325513 0.048749104 0.036246125 0.044581674 -3.2482025e-05 0.19702208 -0.09040773 -0.099696
-0.037434235 -0.05503694 0.018769698 0.012629254 0.10369254 -0.028768746 0.027505796 -0.084629595
0.07174068 -0.06602714 0.00053271 0.034842428 0.1728301 0.00582155 -0.008677576 0.04153589
0.01350927 0.09065565 -0.10119397 -0.0036729504 -0.13101313 0.08720501 0.11554808 0.015261026
-0.042483907 0.10128069 -0.08183072 -0.07141218 0.060807005 0.008497502 0.047557916 -0.096446596
0.050124694 -0.017690158 -0.0017424014 0.07092568 -0.042029817 0.013098477 -0.031748734 0.1101702
-0.049705755 0.044364467 -0.07916533 -0.033861805 0.05839039 0.16647601 0.0544297 -0.011102088
0.06297132 -0.043010358 -0.021909535 0.14472088 0.042420886 0.08130301 0.12491859 0.096334726
0.11338375 0.12239937 -0.066141985 -0.017289175 -0.027725672 0.12195425 0.1302075 -0.005586262
-0.020584071 0.094533145 0.041520286 -0.050796073 0.006038456 0.084220655 -0.07131122 -0.04499847
0.23426546 -0.038787976 -0.065638036 0.0050841854 0.03491642 -0.014979163 -0.021059876 0.07022952
