loto6_cnn/loto6_30_880.model (npz, 491167 bytes, 38 tensors)

bn1/beta f4 [64]
0.054694373 0.012820764 0.02628652 0.07528093 -0.0134087065 0.04973119 0.117414124 0.020916278
0.012903218 0.06938702 0.08846045 0.08478491 0.045722928 0.06646435 0.09391541 0.055306174
0.09980584 0.03794417 0.020094495 0.047458626 0.06713123 0.052029815 0.059060685 0.0072640628
0.08443705 0.043676905 -0.0076563396 0.03662384 0.079434775 0.009163559 0.056642205 0.010716867
0.01574771 0.023855899 0.07997271 0.039070334 0.0072817574 0.030971028 0.10253344 0.09991432
0.021870786 0.06271917 0.028724322 0.031719267 0.04908375 -0.0048528477 -0.0055080224 0.092246234
0.019071821 0.086175635 -0.016155485 0.015667567 0.069589935 0.03997384 0.0705368 0.03734211
0.091540456 0.04586574 -0.017532425 0.11966404 0.054664478 0.02182644 0.06304462 0.029495008
00000000: 3507 603d 2f0e 523c d456 d73c e32c 9a3d
00000010: 31b0 5bbc efb2 4b3d d176 f03d 9d58 ab3c
00000020: 0568 533c c81a 8e3d c12a b53d b6a3 ad3d
00000030: f747 3b3d 761e 883d b956 c03d ba88 623d
00000040: 0167 cc3d 596b 1b3d 369d a43c fa63 423d
00000050: 197c 893d 371d 553d 9ee9 713d 6007 ee3b
00000060: 55ed ac3d 8ee6 323d 08e2 fabb e102 163d
00000070: b3ae a23d c122 163c a801 683d cc95 2f3c
00000080: 5701 813c 726d c33c bbc8 a33d 3708 203d
00000090: cf9b ee3b f4b6 fd3c 0dfd d13d e19f cc3d
000000a0: 5d2a b33c e872 803d 454f eb3c 10ec 013d
000000b0: 0b0c 493d a304 9fbb a47c b4bb 98eb bc3d
000000c0: 823c 9c3c da7c b03d 8258 84bc 4559 803c
000000d0: 2b85 8e3d 9cbb 233d 9975 903d 0af4 183d
000000e0: 9079 bb3d b7dd 3b3d 29a0 8fbc 6c12 f53d
000000f0: dce7 5f3d 5dcd b23c 8a1d 813d 849f f13c

bn3/gamma f4 [64]
1.0876666 1.1024307 1.088088 1.0761064 1.0193862 1.0529175 1.0521882 1.0222796
1.0521886 1.0223634 0.995976 1.0229262 1.0167449 1.0585029 1.0319902 0.9973316
0.99820536 1.0053154 1.057015 0.9913702 1.0289375 1.0391128 1.0078723 1.017322
1.0166413 1.0105023 1.0136578 1.0125158 1.0240769 1.0218235 1.0024009 1.0514694
1.0164717 1.0173979 1.0340025 1.0297096 1.012716 1.0863341 1.1070809 1.0396038
1.0232195 1.0242797 1.0196648 1.0381485 1.0504559 1.0389743 1.0137639 1.0618098
1.0187827 1.0377607 1.0100387 1.001804 1.0206407 0.9914252 1.0634533 1.1113988
1.0349886 1.019299 1.0017328 1.0255713 1.0144331 1.02395 1.1143093 1.0146463
00000000: a938 8b3f 731c 8d3f 7846 8b3f dbbd 893f
00000010: 3f7b 823f 00c6 863f 1aae 863f 0fda 823f
00000020: 1eae 863f cedc 823f 48f8 7e3f 3fef 823f
00000030: b224 823f 067d 873f 4118 843f 2051 7f3f
00000040: 638a 7f3f 2dae 803f 444c 873f 70ca 7d3f
00000050: 39b4 833f a601 853f f601 813f 9b37 823f
00000060: 4d21 823f 2458 813f 8abf 813f 1e9a 813f
00000070: f414 833f 1dcb 823f ac4e 803f 8d96 863f
00000080: bf1b 823f 183a 823f 325a 843f 86cd 833f
00000090: aea0 813f ff0c 8b3f d4b4 8d3f bd11 853f
000000a0: dbf8 823f 991b 833f 6084 823f 0de2 843f
000000b0: 5775 863f 1cfd 843f 04c3 813f 62e9 873f
000000c0: 7967 823f 58d5 843f f348 813f 1d3b 803f
000000d0: 5ba4 823f 0bce 7d3f 3d1f 883f 5142 8e3f
000000e0: 827a 843f 6478 823f c838 803f ec45 833f
000000f0: f2d8 813f cb10 833f b0a1 8e3f eedf 813f

bn4/beta f4 [32]
0.041551005 0.074215636 0.021042835 0.0881362 0.06252151 0.06088216 0.14544764 0.041397747
0.13056196 0.16413516 0.0974881 0.087367296 0.07182287 0.10000044 0.005154333 0.02354438
0.019594653 0.082242385 0.054384816 0.01774539 0.07712605 -0.0041337353 0.002885995 0.062067937
0.08871548 0.066340156 0.099983476 0.0073014484 0.07431179 0.1452541 0.09569055 0.09444525
00000000: 6331 2a3d 5efe 973d 0662 ac3c c180 b43d
00000010: 470b 803d 925f 793d 3af0 143e af90 293d
00000020: 09b2 053e 0c13 283e d7a7 c73d a0ed b23d
00000030: de17 933d 08cd cc3d aee5 a83b 25e0 c03c
00000040: f784 a03c b26e a83d 9dc2 5e3d c85e 913c
00000050: 43f4 9d3d 4974 87bb f622 3d3b f33a 7e3d
00000060: 76b0 b53d 59dd 873d 23c4 cc3d fd40 ef3b
00000070: c830 983d 7ebd 143e 68f9 c33d 836c c13d

bn2/avg_mean f4 [64]
-0.29414856 -0.7040786 -0.9185383 -1.2303004 0.07570944 -0.4696276 -1.2863728 -1.4331121
-0.48458433 -1.5257626 -0.38646406 -0.4053854 -0.8438153 -0.8087312 0.8405751 -1.0276396
-0.63253736 -0.88054514 -0.9339855 -1.0747216 -0.843626 -1.4829742 -0.38711527 0.046846204
-0.97365266 -0.8793026 -0.79402053 -0.6493508 0.33036086 -0.38545755 -0.05183586 -0.9376309
0.033268265 0.24939288 0.078501455 -1.5257092 -0.3959976 0.09737306 -0.17802724 -0.25955102
-0.997454 -0.14261624 -0.9101601 0.44915754 -0.88752866 -0.97731805 -0.49441513 -1.3226264
-0.89104927 -0.8448155 -0.8670343 -0.009728328 -1.3371062 -0.95800686 -0.8762436 -0.093146175
-1.2581642 -1.085949 -0.54123247 0.29094073 -0.12917614 -1.3609525 -1.1308309 -1.1544421
00000000: a49a 96be 7f3e 34bf 5325 6bbf 7c7a 9dbf
00000010: 8d0d 9b3d 0773 f0be dda7 a4bf 3870 b7bf
00000020: 701b f8be 304c c3bf 9ede c5be ad8e cfbe
00000030: 4804 58bf 0209 4fbf ee2f 573f b289 83bf
00000040: f8ed 21bf 686b 61bf ac19 6fbf 7a90 89bf
00000050: e0f7 57bf 19d2 bdbf f933 c6be cee1 3f3d
00000060: 4d41 79bf fa19 61bf ee44 4bbf db3b 26bf
00000070: 0f25 a93e b15a c5be d751 54bd 9408 70bf
00000080: 4e44 083d d960 7f3e 5fc5 a03d 704a c3bf
00000090: 33c0 cabe 876b c73d c64c 36be dfe3 84be
000000a0: 2559 7fbf fe09 12be 4100 69bf faf7 e53e
000000b0: 1435 63bf 8431 7abf fb23 fdbe d24b a9bf
000000c0: ce1b 64bf d445 58bf f6f5 5dbf 9163 1fbc
000000d0: 4c26 abbf f03f 75bf 8051 60bf 6cc3 bebd
000000e0: 860b a1bf 6000 8bbf 368e 0abf 2ff6 943e
000000f0: c046 04be b133 aebf 11bf 90bf c2c4 93bf

conv1_6/b f4 [32]
-0.00017102293 0.00019717624 -0.0007442495 -0.0005410151 -0.00090003514 -4.1410356e-05 1.0923924e-05 0.0006996708
-0.00042528604 -0.00018940425 7.734693e-05 0.0005668489 -0.0002956296 -0.0006128472 0.00024055941 0.00021188609
0.00060047256 -0.00017653828 -0.0007758925 -0.00046934496 0.0007415975 -0.00019726624 0.00037936866 9.044827e-05
-0.00015644061 0.0011198936 4.801402e-05 -0.00012038404 -0.0002534064 0.00017695097 0.00031570313 0.00025916556
00000000: 9e54 33b9 18c1 4e39 bd19 43ba e9d2 0dba
00000010: 56f0 6bba 08b0 2db8 e545 3737 1d6a 373a
00000020: edf8 deb9 d19a 46b9 5135 a238 9698 143a
00000030: bcfe 9ab9 7ba7 20ba ad3e 7c39 bd2d 5e39
00000040: 0869 1d3a 221d 39b9 4465 4bba 6a12 f6b9
00000050: c467 423a 41d9 4eb9 00e6 c639 0caf bd38
00000060: 350a 24b9 65c9 923a a962 4938 b076 fcb8
00000070: a2db 84b9 ea8b 3939 f584 a539 9de0 8739

conv1_5/b f4 [32]
-0.00037937798 9.70334e-05 0.00061134604 0.00014248095 -0.00028813753 0.00026864215 0.00015919431 -0.00014934875
0.00014375748 -0.00017166836 -0.0003670468 0.0002646365 -0.0004527297 0.00034734982 3.5434852e-05 0.0006315649
3.3298496e-05 0.00045361646 0.00021884106 -0.0003712182 0.00010740354 0.00040934852 -0.0017145614 -0.00015602769
-2.4384371e-05 0.00048868376 0.00014659332 0.00037232554 0.00024352645 -0.00044193803 3.0215384e-05 0.00012582258
00000000: 40e7 c6b9 697e cb38 bd42 203a f066 1539
00000010: 2a11 97b9 8ad8 8c39 66ed 2639 809a 1cb9
00000020: 9bbd 1639 e001 34b9 3070 c0b9 e9be 8a39
00000030: 5a5c edb9 811c b639 e29f 1438 9a8f 253a
00000040: fda9 0b38 5fd3 ed39 b378 6539 10a0 c2b9
00000050: d63d e138 d49d d639 22bb e0ba 5d9b 23b9
00000060: 0a8d ccb7 031b 003a d8b6 1939 b034 c339
00000070: 225b 7f39 ebb3 e7b9 0b77 fd37 3eef 0339

bn3/avg_var f4 [64]
0.28517434 0.6862684 0.50930333 0.5612622 0.4094726 0.2888245 0.8007791 0.31251708
0.39049074 0.3447463 0.32898694 0.32746926 0.45843613 0.257163 0.6236041 0.3492156
0.27396807 0.35281616 0.37259415 0.54749227 0.33376616 0.3604765 0.3313254 0.46560413
0.3502143 0.40525016 0.2774722 0.53883404 0.32014912 0.27238035 0.40755853 0.44421884
0.3469476 0.38523716 0.34340784 0.36355847 0.40841684 0.49773976 0.7504941 0.32634732
0.33072525 0.25003898 0.30614454 0.2746793 0.36444142 0.29832238 0.22230089 0.5742801
0.33397302 0.34999707 0.4020257 0.32888833 0.5979766 0.30443242 0.32854384 0.73008525
0.41910115 0.22136614 0.33595127 0.33298755 0.5401478 0.26586494 0.62639636 0.4860837
00000000: 5f02 923e 49af 2f3f b461 023f e1ae 0f3f
00000010: 65a6 d13e cee0 933e dcff 4c3f 3d02 a03e
00000020: 67ee c73e 9682 b03e fa70 a83e 0daa a73e
00000030: 24b8 ea3e deaa 833e 85a4 1f3f 63cc b23e
00000040: 8b45 8c3e 52a4 b43e a9c4 be3e 7428 0c3f
00000050: 66e3 aa3e 6090 b83e 7ca3 a93e aa63 ee3e
00000060: 4a4f b33e f37c cf3e d610 8e3e 07f1 093f
00000070: 96ea a33e 7075 8b3e 83ab d03e a770 e33e
00000080: 1ea3 b13e ce3d c53e 27d3 af3e 5624 ba3e
00000090: 031c d13e bfd7 fe3e 6220 403f ff16 a73e
000000a0: d254 a93e 1c05 803e fabe 9c3e c4a2 8c3e
000000b0: 1198 ba3e b6bd 983e d8a2 633e 0504 133f
000000c0: 83fe aa3e d132 b33e 50d6 cd3e 0d64 a83e
000000d0: ff14 193f 91de 9b3e e636 a83e dee6 3a3f
000000e0: 6d94 d63e cead 623e ce01 ac3e 587d aa3e
000000f0: 2047 0a3f 731f 883e 835b 203f f6df f83e

conv1_3/W f4 [64, 64, 3, 3]
-0.017681777 -0.087074734 -0.006166371 0.08632254 -0.042902965 0.038980883 0.022866216 0.025632888
0.013522124 -0.010498475 0.019137755 -0.093195885 -0.03148366 0.0433322 -0.006031226 0.0024912928
-0.053441312 0.024689255 -0.06276008 -0.06044795 0.011920533 -0.006585233 0.017816395 0.028231509
-0.019866709 -0.057382848 -0.07093538 0.005971369 0.048690982 -0.032862507 -0.008458736 0.10631063
-0.02784532 0.0471614 -0.034360148 0.012639513 -0.0040606516 -0.058490418 0.042182975 0.07514165
0.009904495 0.0026850414 0.00579154 -0.049335692 0.033742256 -0.018317947 -0.040402453 -0.057034984
0.013497991 -0.034506667 0.012369779 0.060655598 -0.0038200414 -0.0061616297 0.027550716 0.019511838
-0.026620308 -0.036579415 -0.07958543 0.01292341 -0.0012445835 -0.012426204 -0.029400261 0.004559028
-0.044717524 -0.026852556 0.011249975 -0.025517764 -0.008509165 0.022182427 0.006720117 0.018939413
-0.015129227 -0.015285761 0.058722667 0.059468646 0.020159116 -0.0067305393 0.015503183 -9.5598676e-05
-0.014570095 -0.02844332 0.055753663 -0.030304668 -0.031928305 -0.083804056 0.02144444 -0.06040219
-0.05802442 0.03461007 -0.0073677246 0.014042492 0.029330332 0.0074506905 -0.06599676 -0.016673326
0.042573392 -0.08080675 -0.012444315 -0.040388674 -0.013061142 -0.0075296536 -0.020540351 -0.05568619
-0.0841555 -0.0026605607 -0.0009644631 -0.023014944 -0.04783166 0.00057051494 -0.042560924 -0.066286266
0.028008265 -0.0069960323 -0.030455066 0.010546351 -0.045034427 -0.01605102 0.004695993 0.040898994
-0.055489723 -0.021390045 -0.06598272 -0.05033913 -0.06595695 0.022550127 0.010145365 0.014723511
-0.032842584 -0.028963514 0.005535617 0.08631184 0.009270638 -0.009588785 -0.09515398 0.008263227
-0.02280236 0.052643634 0.0068506207 0.046823338 -0.033457816 -0.033578046 -0.012698638 0.012109503
-0.052521903 -0.01089464 -0.0046648327 0.044518974 -0.01928932 0.044895355 0.010073953 -0.029111547
0.004435053 -0.056485016 -0.022212123 0.06607803 -0.0747105 0.014018721 -0.009694866 -0.07924644
0.024306344 0.023615569 0.010459419 -0.06177464 -0.020545498 0.004452017 -0.029439434 -0.050700065
0.023292834 0.03419153 -0.019081172 -0.015511141 -0.07339718 0.038293004 -0.054460127 -0.051609237
0.106376916 -0.0040679956 0.025243724 0.032991413 0.019186685 -0.074042484 -0.02023448 0.013149048
0.017206274 0.0010146658 -0.057636295 0.020392772 -0.005951927 -0.018368913 -9.991011e-05 0.039493706
-0.023407241 -0.0142335575 -0.034854498 0.060183376 0.010961543 0.00726568 -0.0460264 0.04994057
-0.047679175 -0.0089482535 0.02361449 0.04486046 -0.012296282 -0.019654991 -0.056510564 -0.027761977
-0.001314493 -0.0030362573 0.030203685 0.033993848 -0.037444618 -0.10333112 0.004818945 -0.041858032
-0.09275077 0.06595073 -0.09205252 -0.014926167 0.0051376414 0.010601391 0.0056247087 -0.052772235
0.07631818 0.012541537 0.0060208626 -0.087308496 0.045005433 0.080673695 -0.04118287 0.0030356774
0.00096851034 -0.028415509 -0.014738306 -0.010213276 -0.026083184 -0.059133973 -0.060124382 0.023626685
0.05165175 0.035060316 0.028994437 -0.060006306 0.035192832 0.029982863 -0.04438637 -0.026080469
-0.029826535 0.015188231 0.008569621 -0.019961623 -0.017790528 0.005547127 -0.07121351 -0.05138224
00000000: 60d9 90bc 3d54 b2bd 450f cabb dfc9 b03d
00000010: 05bb 2fbd 6baa 1f3d ee51 bb3c 10fc d13c
00000020: e68b 5d3c cc01 2cbc c8c6 9c3c 7cdd bebd
00000030: 03f5 00bd 1b7d 313d 97a1 c5bb f544 233b
00000040: 47e5 5abd 1f41 ca3c 5b88 80bd 4598 77bd
00000050: 574e 433c f0c8 d7bb b0f3 913c c445 e73c
00000060: 82bf a2bc 470a 6bbd 9246 91bd 79ab c33b
00000070: 3270 473d d69a 06bd 8396 0abc 63b9 d93d
00000080: de1b e4bc 502c 413d 3abd 0cbd f615 4f3c
00000090: 370f 85bb a693 6fbd 0ec8 2c3d dee3 993d
000000a0: 7746 223c 85f7 2f3b f5c6 bd3b 3914 4abd
000000b0: 5235 0a3d 850f 96bc 0b7d 25bd 849d 69bd
000000c0: ad26 5d3c dd56 0dbd 9daa 4a3c 0172 783d
000000d0: a959 7abb 7fe7 c9bb 0ab2 e13c 4ad7 9f3c
000000e0: d512 dabc 4cd4 15bd b0fd a2bd b6bc 533c
000000f0: 4b21 a3ba 4797 4bbc d1d8 f0bc e663 953b
00000100: b929 37bd e4f9 dbbc d151 383c a10a d1bc
00000110: 066a 0bbc ecb7 b53c 6d34 dc3b d426 9b3c
00000120: 94e0 77bc 2171 7abc 2e87 703d 6595 733d
00000130: bb24 a53c db8b dcbb 1001 7e3c 267c c8b8
00000140: 68b7 6ebc f701 e9bc f45d 643d 7f41 f8bc
00000150: 41c7 02bd 76a1 abbd 40ac af3c 4968 77bd
00000160: 04ab 6dbd 4ac3 0d3d f46c f1bb 7b12 663c
00000170: 2a46 f03c ec24 f43b 4f29 87bd 8096 88bc
00000180: 7061 2e3d 027e a5bd 3de3 4bbc 986e 25bd
00000190: 66fe 55bc 50bb f6bb 3d44 a8bc 3417 64bd
000001a0: b859 acbd cd5c 2ebb 06d4 7cba d689 bcbc
000001b0: 21eb 43bd 9c8e 153a 5d54 2ebd 18c1 87bd
000001c0: 9771 e53c f93e e5bb e77c f9bc 9aca 2c3c
000001d0: 0576 38bd 6e7d 83bc d8e0 993b b485 273d
000001e0: 3149 63bd 2d3a afbc f321 87bd 6730 4ebd
000001f0: 7014 87bd 0bbb b83c bf38 263c e23a 713c
00000200: f285 06bd e444 edbc 1f64 b53b 43c4 b03d
00000210: e0e3 173c 471a 1dbc 17e0 c2bd 7c62 073c
00000220: 04cc babc daa0 573d 2c7b e03b d4c9 3f3d
00000230: 100b 09bd 2289 09bd f30d 50bc f066 463c
00000240: 3521 57bd 6f7f 32bc 74db 98bb 8759 363d
00000250: a304 9ebc 31e4 373d 390d 253c 577b eebc
00000260: ec53 913b d55c 67bd 33f6 b5bc eb53 873d
00000270: d201 99bd c7ae 653c 37d7 1ebc f54b a2bd
00000280: 191e c73c 7075 c13c fc5d 2b3c 6807 7dbd
00000290: 084f a8bc 3ae2 913b f82a f1bc dfaa 4fbd
000002a0: 9dd0 be3c 6b0c 0c3d 1e50 9cbc 7122 7ebc
000002b0: 4351 96bd 20d9 1c3d 9511 5fbd 3564 53bd
000002c0: 24dc d93d d24c 85bb edcb ce3c 0122 073d
000002d0: 652d 9d3c 96a3 97bd c8c2 a5bc 1b6f 573c
000002e0: 2cf4 8c3c 89fe 843a 0914 6cbd be0e a73c
000002f0: 6208 c3bb 677a 96bc d586 d1b8 27c4 213d
00000300: 8bc0 bfbc de33 69bc 97c3 0ebd d882 763d
00000310: 0b98 333c f114 ee3b 2e86 3cbd 7c8e 4c3d
00000320: 3d4b 43bd b29b 12bc 2d73 c13c 9abf 373d
00000330: 5876 49bc 8103 a1bc 9f77 67bd 166d e3bc
00000340: 114b acba f2fb 46bb b86d f73c 223d 0b3d
00000350: 875f 19bd 449f d3bd 3ee8 9d3b 5473 2bbd
00000360: 1ef4 bdbd 2d11 873d 0886 bcbd e28c 74bc
00000370: a959 a83b 75b1 2d3c 7a4f b83b b327 58bd
00000380: b54c 9c3d 057b 4d3c a84a c53b ccce b2bd
00000390: 9e57 383d 4038 a53d 5eaf 28bd 37f2 463b
000003a0: a1e3 7d3a a4c7 e8bc f078 71bc 9655 27bc
000003b0: 67ac d5bc 7736 72bd fc44 76bd c08c c13c
000003c0: c990 533d 689b 0f3d be85 ed3c 2cc9 75bd
000003d0: 5c26 103d 9f9e f53c 7bce 35bd b5a6 d5bc
000003e0: c756 f4bc 0fd8 783c 9867 0c3c 8f86 a3bc
000003f0: 71bd 91bc adc4 b53b 64d8 91bd 2f76 52bd

bn4/avg_mean f4 [32]
2.2962642 1.3759894 -0.6962863 -0.18468511 0.2456162 -1.8176827 -2.7547693 0.31326583
-0.22855937 -0.4654679 -1.749767 -2.7793553 -2.1844985 -1.6610976 0.882967 -0.7692634
-0.013965024 -0.36188093 -1.0616012 -1.90555 -2.3557649 1.4243975 2.5636194 -2.5209658
-2.3774753 1.0120935 -3.0580502 -1.0927551 -1.3815194 -3.0706935 -2.8371089 0.116094396
00000000: fef5 1240 6c20 b03f d23f 32bf 181e 3dbe
00000010: d082 7b3e d4a9 e8bf 244e 30c0 6164 a03e
00000020: 780b 6abe cf51 eebe 5df8 dfbf f5e0 31c0
00000030: d3ce 0bc0 d99e d4bf 200a 623f 72ee 44bf
00000040: 8ecd 64bc 7548 b9be 8ce2 87bf 10e9 f3bf
00000050: dac4 16c0 a852 b63f 5712 2440 8157 21c0
00000060: 8e28 18c0 488c 813f 18b7 43c0 66df 8bbf
00000070: a1d5 b0bf 3e86 44c0 3193 35c0 e6c2 ed3d

bn3/beta f4 [64]
0.0028889414 -0.019552361 -0.0026567103 -0.021978414 -0.00958643 0.00242097 0.06665301 0.02021391
0.027053881 -0.0025043047 -0.023463612 0.02731512 0.011590613 0.021523323 0.01827368 -0.0044612717
-0.0127046155 -0.03422931 0.022631146 -0.028978473 0.014743973 0.036276042 -0.014325994 -0.016614394
-0.04045338 0.0063150055 0.017591868 0.0007580179 0.008155558 0.0036444564 -0.03563645 -0.014472078
-0.0031394013 -0.0016058736 0.015236848 0.022403767 0.013939296 -0.000782333 -0.052137952 0.035991114
0.015830291 0.02071622 -0.009010011 0.016385162 0.013013439 0.022014514 -0.0012164474 0.0341116
0.00317032 0.020351695 -0.0006249609 -0.018074263 0.034175273 -0.025818588 0.04266227 0.010146376
0.048231564 -0.030735066 0.006452916 -0.02499111 -0.005390647 -0.008923736 -0.031170432 -0.0046652597
00000000: 6554 3d3b 462c a0bc 341c 2ebb 130c b4bc
00000010: 6710 1dbc 23a9 1e3b 6081 883d a497 a53c
00000020: 1aa0 dd3c 431f 24bb c336 c0bc f5c3 df3c
00000030: 8ee6 3d3c ae51 b03c afb2 953c dc2f 92bb
00000040: 0527 50bc 0834 0cbd f464 b93c 4364 edbc
00000050: b490 713c 3096 143d 93b7 6abc e91a 88bc
00000060: 72b2 25bd 1bee ce3b d21c 903c b8b5 463a
00000070: e49e 053c d5d7 6e3b 87f7 11bd 4b1c 6dbc
00000080: 6abe 4dbb 2d7c d2ba f9a3 793c 1b88 b73c
00000090: a561 643c 7b15 4dba 9b8e 55bd 6b6b 133d
000000a0: 87ae 813c 10b5 a93c ba9e 13bc 2d3a 863c
000000b0: 5236 553c c857 b43c 3471 9fba 9bb8 0b3d
000000c0: 25c5 4f3b 99b8 a63c 6bd4 23ba 7a10 94bc
000000d0: 5ffb 0b3d 8181 d3bc a2be 2e3d fc3c 263c
000000e0: 768e 453d 1bc8 fbbc fc72 d33b 28ba ccbc
000000f0: 06a4 b0bb dd34 12bc 2259 ffbc 09df 98bb

conv1_7/b f4 [3]
0.032620683 0.0072811726 -0.006935474
00000000: 449d 053d e796 ee3b f942 e3bb

conv1_4/W f4 [32, 64, 3, 3]
-0.03818918 0.047507524 0.0069371257 0.06660709 0.11193296 -0.028707733 -0.011411111 0.0017966353
0.013855964 0.048688594 -0.056746397 -0.027892971 0.03758586 0.058479168 -0.055233076 -0.10437664
0.029904213 0.03830854 0.007194733 -0.04981071 -0.04337302 0.030262917 -0.10227801 0.023029234
-0.013717805 0.07836891 -0.08836285 0.032456994 -0.015617399 -0.011842282 0.00034844546 -5.6239613e-05
0.016732834 -0.021249188 0.019155307 0.0024504943 -0.045500807 0.0043321867 -0.006088875 -0.016936317
-0.026304776 0.021469546 0.00493111 0.009571661 0.061996482 -0.0059692278 0.027804492 0.015136066
0.019781675 -0.015889522 0.021011414 -0.005782481 0.036672156 0.015964873 0.06644172 0.08202803
-0.003037536 -0.0514943 0.03870445 -0.01669582 0.004062552 0.019051448 -0.07811752 -0.022587944
0.09972514 0.025505396 0.008490444 0.020921892 0.007693715 0.014778075 -0.019860996 -0.05769306
-0.08202257 0.008836851 -0.03304921 0.052212283 -0.046365883 0.047229353 -0.001019925 0.023424154
-0.0011589807 -0.026221361 -0.040952276 -0.016976003 -0.0989034 0.056729656 0.062429536 0.042388238
0.034175314 -0.014745776 0.03210593 0.017558219 0.029805835 0.006972192 0.013266942 -0.010728281
0.018004816 -0.038209904 0.028593522 -0.005028436 -0.039716635 0.046178304 -0.07984835 0.003909828
0.031320322 -0.051999692 0.06056458 -0.0076804766 0.017745752 0.015160905 -0.12046301 -0.026241036
-0.03832286 -0.0030185108 -0.05250768 -0.025274279 -0.029612448 0.013677367 -0.039462827 -0.022287002
0.0031132095 0.058553938 -0.024129562 -0.001262357 0.03947092 0.031366352 -0.014243033 -0.08076368
-0.004649606 0.022631709 0.061796226 -0.038703192 0.063317835 0.087357186 0.03817446 0.022605175
0.017113157 0.05325982 -0.026557159 0.025615528 0.074290074 0.017034475 -0.065430626 -0.017368492
-0.053723093 0.011096286 -0.039935272 0.024150847 0.06647403 -0.016308332 -0.067535445 -0.015938943
0.020003984 -0.071610525 -0.023409493 0.028720187 -0.007744548 0.07327395 0.051733896 0.07176616
0.02550218 -0.07866028 -0.024896571 0.012887171 -0.023524541 0.015049171 -0.017670391 -0.042622328
-0.052898407 -0.011546854 -0.01963765 0.04477501 0.081820495 0.05130291 -0.020931924 -0.009019963
0.023568248 0.0075216233 0.026212506 0.06460265 -0.013640246 0.005864177 0.055923164 0.053388227
-0.021412529 0.027449144 0.065430105 0.026306387 -0.06956019 -0.04520411 0.076156855 -0.051568523
-0.025864802 0.025663773 0.017405745 -0.01243339 -0.050864484 -0.036695175 -0.006343893 0.05560288
-0.00055045093 -0.023641514 0.03081551 -0.034807567 0.030371822 0.0593265 0.023185432 0.030045556
0.08214201 0.03327476 -0.0050086305 0.02095504 0.016647642 0.008993352 0.036980886 0.021015592
0.0048903823 0.036346376 -0.0117142 0.015927618 0.031535 -0.007481393 0.022711756 0.042491604
-0.06460476 -0.0030164786 -0.049628455 -0.02933051 0.004289011 0.07997865 0.034487784 0.013597452
-0.05163138 0.019125918 0.013419292 -0.03598021 0.043268558 -0.02641014 0.07707634 0.031160688
-0.041866485 -0.03585538 -0.03558404 0.09367134 -0.046015445 0.07060134 0.026429113 0.098129265
-0.021406267 0.0165593 0.064702936 0.0028368523 0.04795042 0.03293664 0.004346108 -0.009154693
00000000: 426c 1cbd 4097 423d d450 e33b 4c69 883d
00000010: 1c3d e53d 7b2c ebbc abf5 3abc 147d eb3a
00000020: 2004 633c b16d 473d e96e 68bd cd7f e4bc
00000030: a1f3 193d da87 6f3d 143c 62bd 6bc3 d5bd
00000040: aef9 f43c 6ae9 1c3d cbc1 eb3b 5106 4cbd
00000050: e8a7 31bd f0e9 f73c 2277 d1bd cea7 bc3c
00000060: a5c0 60bc e17f a03d 95f7 b4bd a0f1 043d
00000070: 1ee0 7fbc 2106 42bc 8faf b639 d3e2 6bb8
00000080: 4c13 893c c712 aebc 97eb 9c3c 7998 203b
00000090: 0e5f 3abd 04f5 8d3b 2f85 c7bb 08be 8abc
000000a0: 1d7d d7bc e7e0 af3c 2695 a13b 75d2 1c3c
000000b0: 06f0 7d3d 8399 c3bb 3fc6 e33c 43fd 773c
000000c0: 2e0d a23c be2a 82bc 2120 ac3c f77a bdbb
000000d0: 8b35 163d c4c8 823c 9912 883d 50fe a73d
000000e0: 6611 47bb b0eb 52bd 8f88 1e3d acc5 88bc
000000f0: 281f 853b c811 9c3c 14fc 9fbd 5a0a b9bc
00000100: b23c cc3d b1f0 d03c 811b 0b3c 6364 ab3c
00000110: 8f1b fc3b bd1f 723c 87b3 a2bc 8f4f 6cbd
00000120: 73fb a7bd 71c8 103c 9c5e 07bd 8cdc 553d
00000130: 27ea 3dbd 9173 413d 01af 85ba 03e4 bf3c
00000140: f0e8 97ba 2ece d6bc 93bd 27bd 4211 8bbc
00000150: de8d cabd 5b5d 683d 1db6 7f3d 4a9f 2d3d
00000160: 6afb 0b3d 4498 71bc 8281 033d 41d6 8f3c
00000170: 5e2b f43c fc76 e43b 975d 593c acc5 2fbc
00000180: d67e 933c fd81 1cbd f63c ea3c 94c5 a4bb
00000190: e9ad 22bd 7625 3d3d 8887 a3bd 041e 803b
000001a0: bd49 003d a1fd 54bd 9112 783d 82ac fbbb
000001b0: 8a5f 913c 7265 783c 50b5 f6bd 71f7 d6bc
000001c0: 6ef8 1cbd 35d2 45bb 4b12 57bd 010c cfbc
000001d0: ce95 f2bc 0917 603c c6a3 21bd 3b93 b6bc
000001e0: fd06 4c3b 41d6 6f3d 5cab c5bc ac75 a5ba
000001f0: 42ac 213d 017a 003d 9c5b 69bc 6e67 a5bd
00000200: b95b 98bb 2266 b93c 0a1e 7d3d 3d87 1ebd
00000210: c8ac 813d 53e8 b23d d35c 1c3d 7d2e b93c
00000220: e430 8c3c f826 5a3d 668e d9bc a8d7 d13c
00000230: 6525 983d e28b 8b3c 7e00 86bd 5e48 8ebc
00000240: bf0c 5cbd 32cd 353c 2b93 23bd ffd7 c53c
00000250: 8923 883d 0d99 85bc 0650 8abd 6392 82bc
00000260: 65df a33c 8aa8 92bd 44c5 bfbc 9946 eb3c
00000270: fac5 fdbb a710 963d ece6 533d 23fa 923d
00000280: f3e9 d03c a418 a1bd e5f3 cbbc b624 533c
00000290: 8ab6 c0bc cc90 763c 7fc1 90bc c094 2ebd
000002a0: 00ac 58bd 042f 3dbc 23df a0bc 0066 373d
000002b0: 8191 a73d 0023 523d 6d79 abbc 78c8 13bc
000002c0: 3312 c13c f377 f63b 9cbb d63c 654e 843d
000002d0: 577b 5fbc 4828 c03b b00f 653d 9dad 5a3d
000002e0: 5469 afbc 07dd e03c 3800 863d 7e80 d73c
000002f0: 9375 8ebd f227 39bd 20f8 9b3d 8439 53bd
00000300: 6ce2 d3bc d53c d23c 7e96 8e3c 6bb5 4bbc
00000310: 4757 50bd ae4d 16bd 6ee0 cfbb d8bf 633d
00000320: 234c 10ba d9ab c1bc cf70 fc3c 6192 0ebd
00000330: 54ce f83c 5800 733d 60ef bd3c 1922 f63c
00000340: 123a a83d 1d4b 083d 701f a4bb e7a9 ab3c
00000350: a360 883c da58 133c 4579 173d e428 ac3c
00000360: 803f a03b f0df 143d eaec 3fbc a37a 823c
00000370: d82a 013d 7926 f5bb 010e ba3c ad0b 2e3d
00000380: 804f 84bd 1db0 45bb 3547 4bbd 8a46 f0bc
00000390: d58a 8c3b d9cb a33d 1043 0d3d d9c7 5e3c
000003a0: 6d7b 53bd f5ad 9c3c 97dc 5b3c fc5f 13bd
000003b0: 5f3a 313d 145a d8bc 33da 9d3d b344 ff3c
000003c0: 317c 2bbd 17dd 12bd 92c0 11bd c2d6 bf3d
000003d0: b17a 3cbd 6f97 903d de81 d83c fff7 c83d
000003e0: 325c afbc 5ea7 873c f982 843d 7cea 393b
000003f0: a967 443d 92e8 063d cc69 8e3b 91fd 15bc

bn1/gamma f4 [64]
0.9723532 0.9626278 0.96623826 0.96927214 0.9760122 0.97679406 1.0003822 0.9773632
1.0014781 1.0023025 0.9930038 1.0393932 0.9830338 0.969324 1.0075417 0.9525061
0.9995699 0.9508253 0.94614685 0.98826677 1.0052776 1.0103796 0.9931756 0.9875315
1.0328981 0.92978996 0.9846164 0.9575495 0.9971818 0.9742155 0.95268404 0.9877251
0.95527214 0.9839868 1.0412527 0.9710585 0.974332 0.96227115 1.0132344 1.0023345
0.95706546 1.0079995 0.975607 1.0007663 0.9975772 0.9666805 0.9849239 0.9588399
0.96312374 1.0072559 0.9360425 0.9746226 0.96369046 0.95368934 0.9577377 0.9946321
0.9772783 1.0043133 0.96433276 1.0072814 0.9604841 0.98094434 0.9755277 0.9709259
00000000: 24ec 783f c76e 763f 645b 773f 3822 783f
00000010: efdb 793f 2d0f 7a3f 860c 803f 7a34 7a3f
00000020: 6f30 803f 734b 803f 7f35 7e3f d60a 853f
00000030: 1aa8 7b3f 9e25 783f 20f7 803f 71d7 733f
00000040: d0e3 7f3f 4969 733f ae36 723f 0dff 7c3f
00000050: f0ac 803f 1e54 813f c240 7e3f ddce 7c3f
00000060: 0136 843f b706 6e3f d20f 7c3f f721 753f
00000070: 4e47 7f3f 3066 793f 1ae3 733f 8ddb 7c3f
00000080: b78c 743f 8fe6 7b3f c547 853f 4a97 783f
00000090: d26d 793f 6757 763f aab1 813f 7f4c 803f
000000a0: 3e02 753f 2106 813f 61c1 793f 1c19 803f
000000b0: 3861 7f3f 6078 773f f923 7c3f 8876 753f
000000c0: 478f 763f c3ed 803f 7ba0 6f3f de80 793f
000000d0: 6bb4 763f fc24 743f 4c2e 753f 36a0 7e3f
000000e0: e92e 7a3f 578d 803f 83de 763f 99ee 803f
000000f0: 49e2 753f 2b1f 7b3f 2fbc 793f 9a8e 783f

conv1_4/b f4 [32]
0.00036580226 -3.5490255e-05 1.650597e-05 0.000116861025 -0.00030958775 -0.00081550557 0.0006047752 1.5113228e-05
-5.600209e-05 -0.000111565416 3.690274e-05 -0.00011719376 -0.00056194887 -0.00019379419 2.3881365e-05 0.00023099573
-0.0016686566 4.4548444e-05 -0.0002912953 -0.00011885224 -3.7076934e-05 -8.659946e-05 -0.00025203996 0.00017616586
7.9838555e-06 0.0010697206 0.00043550468 -5.5826848e-05 0.000121505414 4.7171132e-05 0.00018030948 -0.00028459588
00000000: 26c9 bf39 5fdb 14b8 4d76 8a37 4913 f538
00000010: 2a50 a2b9 a7c7 55ba c789 1e3a d28e 7d37
00000020: c9e3 6ab8 3af8 e9b8 04c8 1a38 ecc5 f5b8
00000030: c04f 13ba 3b35 4bb9 d754 c837 7237 7239
00000040: d3b6 daba 87d9 3a38 feb8 98b9 4f40 f9b8
00000050: 0e83 1bb8 bb9c b5b8 3b24 84b9 2ab9 3839
00000060: 66f2 0537 de35 8c3a 7354 e439 9f27 6ab8
00000070: b9d0 fe38 9ed9 4538 7511 3d39 d035 95b9

conv1_5/W f4 [32, 32, 3, 3]
-0.056591753 -0.042192318 0.014671817 -0.058564685 0.071185 0.0039193085 -0.007441358 0.089588545
0.049961045 0.021693263 0.052738596 -0.02170047 -0.0643406 0.019590052 -0.02580813 -0.13410032
0.044956356 0.028141364 -0.019550052 0.029971743 0.02424373 -0.0046908525 -0.16408634 0.06147502
-0.07190517 -0.1802324 0.05060969 0.04785018 0.007999806 0.058966197 -0.0036353865 0.06929163
-0.05893872 0.05949367 0.03390087 0.061296824 0.00073830143 -0.022251785 -0.0026146937 -0.01909064
-0.04576754 0.03578872 -0.021806795 -0.022266509 0.048294604 0.0245693 -0.012962414 0.03483867
-0.04938991 -0.027688863 0.034756932 -0.018814465 0.09371436 0.04298905 0.02989331 -0.104338475
-0.04087481 0.05525454 -0.025401942 0.025582382 -0.056113683 0.048082765 0.0849674 -0.015011359
0.057639234 0.023299577 -0.08919772 -0.028875085 -0.032246854 0.047873836 -0.10328981 0.040155005
-0.011327129 -0.013327949 -0.024693264 0.053462688 -0.042214815 -0.001193174 0.0487959 -0.021561772
0.0027692546 0.022868335 -0.07005516 0.023039578 -0.0074527813 0.012128118 0.028393958 -0.0897676
0.08742829 0.026932146 0.032370508 0.074362524 0.043617282 0.09973413 -0.01857481 -0.016030096
-0.025265811 -0.048783652 0.04580758 0.0028222287 -0.03917871 0.018635888 0.07751493 0.061311662
0.014547909 -0.07345893 0.0035698463 -0.03589557 -0.10261353 -0.020669818 0.049121242 -0.08327053
-0.0035203763 0.0900914 0.01996693 -0.031021768 -0.035559393 0.06001994 0.02353059 -0.017148804
0.10473343 0.0610318 -0.0361824 0.027500866 0.027557977 -0.0008498156 -0.09383939 0.10273753
0.06505332 -0.026995676 0.11583334 -0.07241723 -0.026303941 0.026236238 0.008293081 -0.059075866
0.04580675 -0.049614172 -0.04921747 -0.05483383 0.023558458 0.008190506 0.0079068635 -0.023403108
0.017626612 0.002953482 -0.08160087 -0.06023815 0.024638286 0.01331383 0.04177883 0.0053310813
-0.03646309 -0.015890049 -0.07494747 0.007161825 0.021139383 -0.07636771 -0.12771432 0.00629192
0.06833234 -0.038535483 -0.09401142 -0.036403134 -0.07224319 0.13790052 0.1482717 -0.020314623
0.03896004 0.061722938 0.1220799 0.009112536 0.035173006 0.0046032188 0.013768528 -0.06708387
-0.04207788 -0.04430321 -0.0539833 0.01636691 0.0067256275 0.050093647 -0.06025512 0.023759535
0.011850764 -0.020196974 0.081391945 0.041017413 -0.04556586 0.03666296 -0.15632114 0.0016686103
-0.047768 0.011118181 0.03836072 0.05799958 -0.009253012 0.027328413 0.04853933 -0.044836313
-0.09330379 0.039348353 0.07595229 0.0908356 -0.021882202 0.005307722 -0.0101977065 0.027216021
0.020451244 -0.058053102 -0.018050268 0.011600138 0.05424921 0.04565039 -0.03561993 0.08927512
-0.010567989 0.02456053 -0.096206315 -0.08343063 -0.038021892 0.06748747 -0.010018622 -0.028982084
-0.0012415018 -0.01773097 -0.054394357 -0.0303257 0.026376054 -0.017046079 0.04890122 -0.060138315
-0.053403936 0.044883147 0.059122577 0.16698703 0.009998534 0.0155851105 -0.038221326 -0.033961393
0.048638016 0.04319281 0.031083329 -0.049948856 0.077579774 -0.0053292047 0.0069030668 0.00058275537
-0.09572439 -0.084252454 0.008183534 0.09775102 -0.011445256 0.019387977 0.022164196 -0.040116206
00000000: c1cc 67bd dad1 2cbd 1062 703c 86e1 6fbd
00000010: 71c9 913d 8b6d 803b a3d6 f3bb 337a b73d
00000020: f4a3 4c3d 12b6 b13c 6d04 583d 2fc5 b1bc
00000030: 01c5 83bd 517b a03c 926b d3bc 9851 09be
00000040: 2824 383d b888 e63c 6e27 a0bc 4d87 f53c
00000050: c99a c63c b9b5 99bb 4006 28be 3bcd 7b3d
00000060: 0543 93bd d88e 38be 1b4c 4f3d 8dfe 433d
00000070: 9e11 033c 8a86 713d aa3f 6ebb c5e8 8d3d
00000080: ba69 71bd a2af 733d a3db 0a3d 6112 7b3d
00000090: 928a 413a 6049 b6bc 485b 2bbb f963 9cbc
000000a0: be76 3bbd 3197 123d 2aa4 b2bc 4168 b6bc
000000b0: 90d0 453d 8e45 c93c 4e60 54bc feb2 0e3d
000000c0: 134d 4abd c1d3 e2bc 495d 0e3d cb20 9abc
000000d0: 50ed bf3d 4915 303d d1e2 f43c 69af d5bd
000000e0: 586c 27bd 9652 623d bc17 d0bc 2592 d13c
000000f0: 76d7 65bd 6ff2 443d 6303 ae3d 34f2 75bc
00000100: 1e17 6c3d c1de be3c 4bad b6bd 718b ecbc
00000110: 4715 04bd 5b17 443d 9c89 d3bd 9379 243d
00000120: 6c95 39bc 785d 5abc 8749 cabc b1fb 5a3d
00000130: 71e9 2cbd 4764 9cba 36de 473d 50a2 b0bc
00000140: 627c 353b 6056 bb3c 1479 8fbd 7fbd bc3c
00000150: 7636 f4bb 04b5 463c 729a e83c 13d8 b7bd
00000160: 9a0d b33d cea0 dc3c f096 043d 614b 983d
00000170: 09a8 323d 6841 cc3d 332a 98bc 8c51 83bc
00000180: 3ffa cebc 5ed1 47bd bba0 3b3d 24f5 383b
00000190: db79 20bd 4aaa 983c 26c0 9e3d f021 7b3d
000001a0: 5a5a 6e3c a371 96bd 15f4 693b 3c07 13bd
000001b0: 0b27 d2bd c053 a9bc 5b33 493d bd89 aabd
000001c0: 1db6 66bb d781 b83d b091 a33c 5d21 febc
000001d0: baa6 11bd 78d7 753d 39c3 c03c a67b 8cbc
000001e0: 7b7e d63d 7bfc 793d ff33 14bd 7f49 e13c
000001f0: 44c1 e13c 29c6 5eba de2e c0bd 0e68 d23d
00000200: ad3a 853d 0926 ddbc 083a ed3d 7c4f 94bd
00000210: 5d7b d7bc 61ed d63c b4df 073c 89f9 71bd
00000220: dc9f 3b3d 3b38 4bbd 4298 49bd 7099 60bd
00000230: abfd c03c 7931 063c ca8b 013c e0b7 bfbc
00000240: af65 903c 358f 413b 5b1e a7bd 47bc 76bd
00000250: 3bd6 c93c 4022 5a3c 4720 2b3d 5ab0 ae3b
00000260: 525a 15bd d92b 82bc 0f7e 99bd bead ea3b
00000270: 802c ad3c ad66 9cbd 8bc7 02be 732c ce3b
00000280: d3f1 8b3d 62d7 1dbd 0f89 c0bd 741b 15bd
00000290: 3df4 93bd cb35 0d3e 89d4 173e da6a a6bc
000002a0: 9094 1f3d 31d1 7c3d 0705 fa3d bf4c 153c
000002b0: 9211 103d 99d6 963b 6495 613c 4563 89bd
000002c0: db59 2cbd 4877 35bd 981d 5dbd e613 863c
000002d0: a762 dc3b ff2e 4d3d 13ce 76bd 5ba3 c23c
000002e0: b529 423c 2074 a5bc d2b0 a63d e001 283d
000002f0: 44a3 3abd e62b 163d a612 20be 45b5 da3a
00000300: 61a8 43bd 0829 363c 2120 1d3d f890 6d3d
00000310: f299 17bc d6df df3c 2dd1 463d 48a6 37bd
00000320: 0f16 bfbd bd2b 213d e08c 9b3d 0408 ba3d
00000330: 4e42 b3bc 66ec ad3b 4814 27bc 22f4 de3c
00000340: 5e89 a73c 17c9 6dbd 28de 93bc 810e 3e3c
00000350: 6b34 5e3d e7fb 3a3d 34e6 11bd e0d5 b63d
00000360: 5c25 2dbc 2a33 c93c d107 c5bd aedd aabd
00000370: d8bc 1bbd df36 8a3d 2525 24bc d66b edbc
00000380: e3b9 a2ba 8a40 91bc 9ecc 5ebd 9a6d f8bc
00000390: 9812 d83c 38a4 8bbc a54c 483d 9853 76bd
000003a0: 16be 5abd 64d7 373d 842a 723d a6fe 2a3e
000003b0: e4d0 233c b158 7f3c f78d 1cbd 1a1b 0bbd
000003c0: a838 473d f2ea 303d 77a2 fe3c 2c97 4cbd
000003d0: 25e2 9e3d 9ca0 aebb 1f33 e23b 0dc4 183a
000003e0: 260b c4bd 8d8c acbd 3b14 063c b031 c83d
000003f0: e284 3bbc 89d3 9e3c b091 b53c e450 24bd

bn5/beta f4 [32]
0.106098555 0.09111792 0.0043892073 0.14811686 0.07600393 0.07041374 0.14040852 0.05324782
0.14360915 0.10246266 0.12542911 0.12957133 0.05777351 0.07495235 0.025508001 0.017633773
0.031305816 0.10254806 0.053561214 0.004949562 0.09058876 0.036883414 0.004241982 0.014979237
0.16697082 0.071434796 0.04040626 0.09591594 0.14240344 0.14218327 0.08059305 0.07462547
00000000: 334a d93d 089c ba3d 57d3 8f3b f2ab 173e
00000010: f3a7 9b3d 1435 903d 40c7 0f3e 631a 5a3d
00000020: 470e 133e f1d7 d13d 7d70 003e 59ae 043e
00000030: eba3 6c3d 9e80 993d 28f6 d03c b474 903c
00000040: 873a 003d b804 d23d 0163 5b3d ef2f a23b
00000050: 9a86 b93d 1013 173d 5300 8b3b 796b 753c
00000060: 66fa 2a3e 684c 923d 0981 253d 946f c43d
00000070: 35d2 113e 7e98 113e f80d a53d 3dd5 983d

bn2/gamma f4 [64]
0.9870485 0.96055806 0.9683647 0.9917317 0.9845138 1.0327139 1.0291516 1.0030186
1.0054493 0.9965505 0.98704207 0.978006 1.0035682 0.99361575 0.9748874 1.0203577
0.9874355 0.99079114 0.97802556 0.9943926 0.9896574 1.0273532 0.96815133 0.987861
1.006937 0.99678046 1.0178522 0.96456224 0.9506334 1.0070851 1.0262802 0.98650223
0.9881309 0.98410237 0.9872995 1.003201 0.99422646 0.980806 0.9892491 0.9856356
1.0410185 0.98289365 0.979704 1.0009408 1.0286647 1.0244982 0.9809057 1.0220598
0.99392015 0.98141515 1.0200403 0.9503874 1.073279 0.99661237 1.0168581 0.9760974
0.9954564 0.9840149 0.98049563 0.959613 0.97123903 0.9987163 1.0688494 0.9863765
00000000: 36af 7c3f 22e7 753f c0e6 773f 21e2 7d3f
00000010: 1909 7c3f f82f 843f 3dbb 833f ea62 803f
00000020: 90b2 803f ef1d 7f3f caae 7c3f 9a5e 7a3f
00000030: ec74 803f 9a5d 7e3f 3892 793f 159b 823f
00000040: 93c8 7c3f 7da4 7d3f e25f 7a3f 8390 7e3f
00000050: 305a 7d3f 4f80 833f c4d8 773f 75e4 7c3f
00000060: 50e3 803f 012d 7f3f fb48 823f 8ded 763f
00000070: b65c 733f 2ae8 803f 265d 833f 698b 7c3f
00000080: 26f6 7c3f 22ee 7b3f a9bf 7c3f e468 803f
00000090: a085 7e3f 1a16 7b3f 6e3f 7d3f 9d52 7c3f
000000a0: 1840 853f eb9e 7b3f e2cd 7a3f d41e 803f
000000b0: 49ab 833f c222 833f a31c 7b3f dbd2 823f
000000c0: 8d71 7e3f 063e 7b3f ae90 823f 974c 733f
000000d0: 3561 893f fd21 7f3f 6828 823f 85e1 793f
000000e0: 3bd6 7e3f 67e8 7b3f c301 7b3f 33a9 753f
000000f0: 1fa3 783f dfab 7f3f 0fd0 883f 2c83 7c3f

conv1_2/b f4 [64]
-2.8895955e-05 -1.6268887e-05 7.690031e-05 0.00033213658 -6.527138e-05 -7.7944715e-05 -0.00014533225 0.0003096029
-3.4112625e-05 0.00010693308 0.00013869998 -1.0578511e-05 9.680308e-06 5.6737434e-05 -0.00025871684 -7.12939e-05
-0.00029039616 0.000104632854 -8.176179e-05 -0.00019864975 -7.783091e-05 -0.00018834895 1.6836564e-05 5.5014272e-05
-0.00036010987 -5.4188502e-05 5.721467e-05 0.00016710689 0.00013524956 0.000100907746 0.00010278286 -0.0005279517
-5.4609915e-05 -2.1610325e-05 7.058363e-05 4.1752177e-05 5.3536944e-05 0.00023198477 -0.00010857373 -0.0001403603
-2.3244385e-05 -0.000118569216 3.061929e-05 -5.159004e-05 -0.00015679655 -2.6713877e-05 7.275104e-06 -0.00028545165
-4.4545894e-05 1.634526e-05 0.0001359506 1.3358895e-05 0.00019215641 4.9112274e-05 -0.00036137603 -0.000118982876
-6.807246e-05 1.3561877e-05 -0.00021344432 -0.00016135056 4.9498503e-05 0.000134072 -0.00021498217 9.425428e-05
00000000: 9765 f2b7 2b79 88b7 8a45 a138 9e22 ae39
00000010: 4ee2 88b8 4076 a3b8 5464 18b9 3352 a239
00000020: 2714 0fb8 4341 e038 fe6f 1139 5c7a 31b7
00000030: 9b68 2237 5bf9 6d38 63a4 87b9 9f83 95b8
00000040: 5040 98b9 566e db38 8777 abb8 a34c 50b9
00000050: 2739 a3b8 897f 45b9 3f3c 8d37 20bf 6638
00000060: 21cd bcb9 7648 63b8 c9f9 6f38 6a39 2f39
00000070: c7d1 0d39 6f9e d338 218d d738 3d66 0aba
00000080: f30c 65b8 d247 b5b7 4c06 9438 0f1f 2f38
00000090: db8c 6038 f040 7339 14b2 e3b8 ae2d 13b9
000000a0: f0fc c2b7 5da8 f8b8 366d 0038 6262 58b8
000000b0: c169 24b9 9d17 e0b7 ab1c f436 aca8 95b9
000000c0: cad6 3ab8 2e1d 8937 f68d 0e39 0420 6037
000000d0: 987d 4939 e7fd 4d38 1277 bdb9 7286 f9b8
000000e0: 20c2 8eb8 d187 6337 06d0 5fb9 3630 29b9
000000f0: 9d9c 4f38 ae95 0c39 d66c 61b9 62aa c538

bn2/avg_var f4 [64]
0.32803264 0.6111495 0.47237563 0.48508373 0.3572386 0.45279014 0.50535583 0.37742743
0.45264897 0.4860172 0.44707608 0.5889162 0.40165105 0.28424194 0.52909756 0.38609362
0.36833507 0.3989371 0.68288225 0.37345237 0.6908376 0.55611205 0.42793486 0.39917308
0.4412129 0.39571673 0.37488857 0.2686723 0.51429856 0.3809483 0.48289692 0.38359663
0.36385426 0.48111397 0.5288273 0.597467 0.37143278 0.5760585 0.43979216 0.42356813
0.7569007 0.4303807 0.41838926 0.51264983 0.48526508 0.4965196 0.48318335 0.5284841
0.4804306 0.3684527 0.37192908 0.50770164 0.54108536 0.46672153 0.49561766 0.43803704
0.4121881 0.40034243 0.31816953 0.34570044 0.4638884 0.5086599 0.5583507 0.4638009
00000000: e5f3 a73e 4b74 1c3f 38db f13e e55c f83e
00000010: fae7 b63e 1cd4 e73e 005f 013f 2b3e c13e
00000020: 9bc1 e73e 3fd7 f83e 28e7 e43e 36c3 163f
00000030: 35a5 cd3e 2988 913e f072 073f 10ae c53e
00000040: 6a96 bc3e 7c41 cc3e 5fd1 2e3f 2635 bf3e
00000050: bcda 303f 5c5d 0e3f 471a db3e 6a60 cc3e
00000060: a8e6 e13e 629b ca3e 65f1 bf3e 6a8f 893e
00000070: 12a9 033f a80b c33e 443e f73e c766 c43e
00000080: 1b4b ba3e 9254 f63e 3a61 073f 99f3 183f
00000090: 702c be3e 9278 133f 702c e13e ecdd d83e
000000a0: 3fc4 413f dc5a dc3e 1e37 d63e 053d 033f
000000b0: aa74 f83e d137 fe3e cf63 f73e bc4a 073f
000000c0: 00fb f53e d5a5 bc3e 7d6d be3e bcf8 013f
000000d0: 9284 0a3f 20f6 ee3e 99c1 fd3e 6446 e03e
000000e0: 520a d33e aff9 cc3e 1ee7 a23e a6ff b03e
000000f0: c882 ed3e 8937 023f 12f0 0e3f 5077 ed3e

bn6/beta f4 [32]
0.115918346 0.14040026 0.011263692 0.124508 0.054712113 0.050879195 0.13015148 0.040263
0.11659066 0.10015751 0.16967294 0.15677778 0.06478077 0.0904682 0.05019668 0.048256382
0.01912446 0.10505741 0.09539711 0.0113941645 0.10897698 0.02087806 0.11817638 0.04156828
0.307298 0.063152015 0.0733657 0.12871665 0.12783259 0.113495044 0.12791215 0.089521065
00000000: 9966 ed3d 16c5 0f3e 598b 383c 0dfe fe3d
00000010: cf19 603d b466 503d 6e46 053e d1ea 243d
00000020: 15c7 ee3d 611f cd3d bebe 2d3e 5b8a 203e
00000030: c8ab 843d 6447 b93d 099b 4d3d 7ca8 453d
00000040: e6aa 9c3c 5728 d73d 8f5f c33d 97ae 3a3c
00000050: 532f df3d 7708 ab3c 7506 f23d 8043 2a3d
00000060: 2a56 9d3e d855 813d c240 963d 4cce 033e
00000070: 8ce6 023e 1770 e83d 67fb 023e d256 b73d

conv1_7/W f4 [3, 32, 3, 3]
0.028413467 0.04616309 0.083402425 0.02882373 0.030664887 -0.034607913 0.046396147 0.075957365
0.043142017 -0.0019946722 0.042204104 0.11761799 0.055770785 0.01630278 0.106285095 0.06759168
-0.07486654 0.016179565 0.14901213 -0.012940605 0.026188267 0.036092795 0.014848316 0.062230945
-0.059585802 -0.055868205 -0.068237446 -0.020633867 0.060524233 0.092910536 0.023418484 -0.009321499
-0.012817248 -0.015590363 0.19242395 -0.01592681 0.12260904 0.079815544 0.08791035 0.064407155
0.15172723 0.1785717 0.0684536 -0.025352422 0.02534014 -0.023627006 -0.08938496 0.13875228
0.0977204 -0.09742785 0.06506771 0.01923822 0.003836811 -0.034336083 0.094287366 -0.033885457
0.018783623 -0.009871609 0.17590213 -0.062983245 0.015306208 0.17540729 -0.044086266 -0.015871597
0.08959495 -0.027518077 -0.035230536 -0.12225692 0.09662619 -0.05505154 0.10737195 0.083247125
0.023569763 0.1134763 0.12621395 0.05062435 0.06156185 -0.07048537 -0.10850151 0.21492189
0.03414205 0.12325744 0.09812974 -0.004657547 0.11230321 0.16728537 -0.019257398 0.085087545
0.02850286 -0.014512555 -0.055276256 0.08518369 0.062689275 0.06727736 0.12248843 -0.07470633
0.19069937 0.057472076 -0.036029898 -0.024868965 -0.043242134 -0.024726972 0.03783929 0.15565048
0.046895336 0.028494941 0.05782142 0.050418973 -0.097766235 0.024199974 0.19985914 0.086667694
0.1716125 0.11342091 0.1107722 0.11053892 -0.0084787 0.037478752 0.14191458 0.1355248
0.026188135 0.09047922 0.08322493 0.1780536 -0.09182192 -0.071115315 0.04315706 0.014593256
0.025495203 -0.04871531 0.010951174 -0.068888985 -0.024074541 0.095963694 0.00853739 0.10007037
0.028012348 0.049935643 -0.023791315 -0.06365544 -0.029646188 0.0885261 0.021313002 0.01871869
-0.026999047 -0.08187237 -0.13392502 -0.07668663 0.033969566 -0.029114902 0.040999282 0.20922323
0.0063488423 0.12445305 0.10416851 0.015665477 0.24513565 0.040191177 0.08128194 0.017405884
-0.16984706 0.03896656 0.08980723 0.081929386 0.02408623 0.08143165 -0.077014424 -0.021057578
-0.015704604 0.05059456 0.037335325 0.04648282 0.0016989893 0.19959813 -0.09027609 -0.09868139
-0.035905156 -0.054420225 0.019992933 0.014366136 0.10586846 -0.02774587 0.029761331 -0.08535755
0.07468008 -0.065163925 0.001828539 0.03625294 0.17477466 0.007352674 -0.008274685 0.043649107
0.014622766 0.09288157 -0.10138449 -0.0018587849 -0.13144764 0.08896468 0.11735197 0.017148998
-0.042112514 0.10337289 -0.08136903 -0.070624925 0.06251692 0.010358916 0.049013883 -0.094967686
0.0509496 -0.016058294 3.602352e-05 0.07288826 -0.042600323 0.014303805 -0.030197855 0.11213935
-0.048192393 0.046111852 -0.07938957 -0.03189324 0.061723594 0.17046827 0.05666615 -0.009093445
0.06445256 -0.0415273 -0.019773742 0.14726296 0.044199325 0.08410567 0.12765448 0.09844551
0.11601719 0.12505756 -0.06426834 -0.015391676 -0.026524749 0.1256571 0.1347348 -0.0049477736
-0.01876837 0.0975614 0.043063212 -0.049969167 0.008011079 0.08758524 -0.07015232 -0.044277955
0.23865862 -0.037748218 -0.065203875 0.0072216406 0.036690284 -0.013953406 -0.020260446 0.07254081
00000000: 5cc3 e83c 8215 3d3d e4ce aa3d be1f ec3c
00000010: ee34 fb3c 07c1 0dbd e309 3e3d 898f 9b3d
00000020: afb5 303d 0cb9 02bb 36de 2c3d b3e1 f03d
00000030: e86f 643d 688d 853c 00ac d93d 826d 8a3d
00000040: a153 99bd 028b 843c a396 183e d504 54bc
00000050: c788 d63c 0ad6 133d 5a46 733c e0e5 7e3d
00000060: 3e10 74bd 0fd6 64bd 13c0 8bbd 5b08 a9bc
00000070: 42e8 773d e147 be3d 1fd8 bf3c 33b9 18bc
00000080: 6fff 51bc b96e 7fbc c90a 453e f178 82bc
00000090: 731a fb3d 5576 a33d 570a b43d e6e7 833d
000000a0: 625e 1b3e 80db 363e 6731 8c3d e2af cfbc
000000b0: 2096 cf3c 6c8d c1bc 760f b7bd 1415 0e3e
000000c0: a221 c83d 4188 c7bd 3842 853d 7999 9d3c
000000d0: 0273 7b3b fea3 0cbd bc19 c13d 7acb 0abd
000000e0: 1de0 993c 87bc 21bc b01f 343e 5cfd 80bd
000000f0: e4c6 7a3c f89d 333e cd93 34bd 2705 82bc
00000100: 8f7d b73d 976d e1bc e54d 10bd d661 fabd
00000110: f4e3 c53d b97d 61bd d3e5 db3d 787d aa3d
00000120: 6015 c13c 4366 e83d 3b3e 013e 7a5b 4f3d
00000130: 4728 7c3d a25a 90bd 0a36 debd 7c14 5c3e
00000140: 89d8 0b3d 666e fc3d 3ff8 c83d 569e 98bb
00000150: 3aff e53d db4c 2b3e b1c1 9dbc 6142 ae3d
00000160: d47e e93c 11c6 6dbc 5b69 62bd c974 ae3d
00000170: 3c63 803d b6c8 893d 37db fa3d a2ff 98bd
00000180: b246 433e d767 6b3d 1694 13bd 00ba cbbc
00000190: aa1e 31bd 3890 cabc 5ffd 1a3d d762 1f3e
000001a0: 5315 403d 396e e93c 27d6 6c3d 2084 4e3d
000001b0: aa39 c8bd 063f c63c e0a7 4c3e d57e b13d
000001c0: 30bb 2f3e 3949 e83d 89dc e23d 3b62 e23d
000001d0: 3fea 0abc 5283 193d 0e52 113e 03c7 0a3e
000001e0: 8088 d63c 2b4d b93d d571 aa3d af53 363e
000001f0: 210d bcbd e8a4 91bd 75c5 303d 8d18 6f3c
00000200: 51db d03c b489 47bd 8e6c 333c ab15 8dbd
00000210: f937 c5bc 9d88 c43d 69e0 0b3c b2f1 cc3d
00000220: 277a e53c 5189 4c3d 01e6 c2bc c95d 82bd
00000230: 90dc f2bc 2c4d b53d 9b98 ae3c f057 993c
00000240: 1b2d ddbc b3ac a7bd a423 09be e10d 9dbd
00000250: ac23 0b3d 6082 eebc ddee 273d 9d3e 563e
00000260: f309 d03b 3ee1 fe3d 4d56 d53d e354 803c
00000270: d704 7b3e 819f 243d 2577 a63d c996 8e3c
00000280: 63ec 2dbe 669b 1f3d daec b73d 98ca a73d
00000290: 7c50 c53c a3c5 a63d bdb9 9dbd f180 acbc
000002a0: f1a6 80bc 3e3c 4f3d edec 183d c564 3e3d
000002b0: 9fb0 de3a 7463 4c3e ace2 b8bd 7819 cabd
000002c0: 4911 13bd bee7 5ebd 38c8 a33c f15f 6b3c
000002d0: 90d1 d83d 4f4b e3bc 09ce f33c f0cf aebd
000002e0: dff1 983d aa74 85bd 96ab ef3a f67d 143d
000002f0: 21f8 323e b3ee f03b 8b92 07bc 68c9 323d
00000300: 5394 6f3c b138 be3d aca2 cfbd 79a2 f3ba
00000310: 369a 06be 1d33 b63d 3b56 f03d 0e7c 8c3c
00000320: 2c7e 2cbd 2ab5 d33d cea4 a6bd cda3 90bd
00000330: df08 803d 71b8 293c c8c2 483d 6b7e c2bd
00000340: 87b0 503d af8c 83bc f617 1738 7146 953d
00000350: ad7d 2ebd 825a 6a3c 7e61 f7bc 51a9 e53d
00000360: 6365 45bd c8df 3c3d 0097 a2bd 7ca2 02bd
00000370: e1d1 7c3d 3c8f 2e3e c41a 683d acfc 14bc
00000380: b4ff 833d 8818 2abd 8bfc a1bc 1acc 163e
00000390: 5a0a 353d 983f ac3d dbb7 023e cd9d c93d
000003a0: 6c9a ed3d 170f 003e 1f9f 83bd 5e2d 7cbc
000003b0: 6e4a d9bc 41ac 003e ebf7 093e ef20 a2bb
000003c0: 20c0 99bc 45ce c73d 0d63 303d 78ac 4cbd
000003d0: e740 033c e45f b33d 05ac 8fbd cd5c 35bd
000003e0: ed62 743e e09d 1abd 9c89 85bd 83a3 ec3b
000003f0: 8d48 163d d49c 64bc 3cf9 a5bc 4790 943d
